experiments/07_control_structure_hypothesis/checkpoints/PWM/DroneCircleBulletEnv-v0/ppo/2021-12-20__12-01-28/seed_00105/torch_save/model.pt (torch, 82448 bytes, 19 tensors)

obs_oms.mean f4 [40]
0.24909112 -0.0015437586 1.0073686 0.00041243123 -0.000258403 0.015404301 0.9911841 -0.00018768618
-0.0010386497 -0.011968484 -0.035871487 0.017450657 0.015090673 0.0008200087 0.0016918806 -0.0073677315
0.30105102 0.29886574 0.31377453 0.3203356 0.24908945 -0.0015541443 1.0072387 0.00031504408
-0.00018333695 0.015415299 0.99089587 -0.00014240555 -0.0010078441 -0.013215108 -0.039659034 0.020600855
0.015270798 0.0008248781 0.0017040913 -0.0072389073 0.29985824 0.297976 0.31282818 0.31905356
00000000: be11 7f3e f157 caba 74f1 803f 953b d839
00000010: 437a 87b9 5262 7c3c 3ebe 7d3f a0cd 44b9
00000020: 4d23 88ba 7617 44bc fbed 12bd aef4 8e3c
00000030: df3e 773c daf5 563a 18c2 dd3a 036d f1bb
00000040: 5c23 9a3e ee04 993e 0ea7 a03e 0703 a43e
00000050: 4e11 7f3e 6eb4 cbba 33ed 803f 802c a539
00000060: 233e 40b9 7390 7c3c 5aab 7d3f b352 15b9
00000070: a319 84ba 2e84 58bc 8371 22bd 20c3 a83c
00000080: 5e32 7a3c a23c 583a d15b df3a 5b34 edbb
00000090: 0587 993e 4f90 983e 042b a03e fd5a a33e

obs_oms.std f4 [40]
0.17643285 0.17790304 0.03796211 0.080208085 0.076139145 0.075769424 0.03392191 0.39018604
0.39327735 0.13470298 1.5081168 1.4966023 0.38697135 0.031211771 0.032921452 0.037961934
0.5836432 0.5666921 0.6136894 0.63995355 0.17646815 0.17794885 0.03850234 0.08174703
0.077156246 0.07603866 0.036750555 0.39161927 0.39487487 0.14317487 1.5353473 1.5160028
0.38896257 0.03152614 0.033269055 0.03850234 0.582795 0.5656151 0.61316663 0.6388876
00000000: d0aa 343e 372c 363e 287e 1b3d 2344 a43d
00000010: d7ee 9b3d 002d 9b3d b3f1 0a3d 77c6 c73e
00000020: a65b c93e 94ef 093e f909 c13f aa90 bf3f
00000030: 1c21 c63e d4af ff3c a5d8 063d f97d 1b3d
00000040: a469 153f bc12 113f c01a 1d3f ffd3 233f
00000050: 11b4 343e 3938 363e a1b4 1d3d fd6a a73d
00000060: 1804 9e3d 28ba 9b3d c087 163d 5282 c83e
00000070: 0a2d ca3e 6f9c 123e 4386 c43f 610c c23f
00000080: 1a26 c73e 8e21 013d 2245 083d a1b4 1d3d
00000090: 0e32 153f 27cc 103f 7df8 1c3f 238e 233f

pi.log_std f4 [4]
-4.5100417 -4.5100417 -4.5100417 -4.5100417
00000000: 4352 90c0 4352 90c0 4352 90c0 4352 90c0

pi.net.0.weight f4 [50, 40]
-0.1789548 -0.1462527 0.1763944 0.20714498 0.22189876 -0.039529435 0.10405647 -0.09787188
-0.16316153 -0.07060544 0.091581576 -0.13982223 0.10651323 -0.05597362 -0.18319213 0.10489464
0.12137939 -0.030934865 0.031067688 0.028733898 -0.07166855 -0.17584443 0.011275085 0.089417666
0.0631521 0.21639983 -0.18012229 0.10019833 -0.241186 -0.059637215 0.28432852 0.0010049891
0.064217195 -0.07207407 -0.009542597 -0.07386948 0.22353686 -0.24198146 0.057206016 0.10954986
-0.13321032 0.07526521 -0.100387804 -0.016025104 -0.040309478 0.0807522 0.14686857 -0.14207375
-0.0054744217 0.15484291 0.12534937 0.008782981 0.012837166 0.060591076 0.053373598 -0.18012513
0.0617233 -0.03067923 -0.016956864 -0.08673067 -0.0009820056 0.1822658 0.021048661 0.114536695
-0.15208688 -0.032235116 0.25043774 -0.17002839 0.02609166 0.33416122 -0.08007144 -0.25813898
0.13295974 0.26090813 0.03099252 -0.0032255787 -0.23894605 -0.18741024 -0.049744785 0.171434
0.018612267 -0.2698225 0.11359548 -0.03400214 0.04025876 0.04766694 -0.12418056 0.09713706
0.03047488 0.19462343 -0.020561391 -0.110537015 0.0943834 -0.21518396 -0.035351537 -0.11480209
-0.022519894 0.06808749 0.089439094 0.024300413 0.29631615 -0.20524137 0.038262043 -0.12386295
-0.083284356 0.05642152 -0.045727275 0.072641835 0.1255343 0.07343731 -0.15094805 -0.081850536
0.16142522 -0.12097941 -0.013732873 -0.1784609 0.016074577 0.14582857 -0.20313604 0.20336205
0.20703726 -0.085367724 -0.03978189 -0.118797325 0.026718097 -0.046463 0.12898847 0.120210305
0.141531 0.165696 0.005723426 -0.03300941 0.012376216 0.15056959 -0.115320474 -0.22809389
-0.15482005 0.23194532 0.12550676 -0.17706986 0.1270879 0.049856503 0.19447793 0.1936712
-0.13085948 0.13348156 0.3626405 0.1286636 0.027753903 0.37201402 0.006047931 -0.040618774
0.058130074 0.11982593 -0.3580602 -0.2005613 -0.043603342 0.13117541 0.22448264 -0.0327737
-0.3253517 -0.22726633 -0.05260009 0.2117803 0.043036513 0.07603729 0.33295956 0.12724848
-0.30809882 0.269037 0.021110265 -0.04635113 -0.026953703 -0.11724512 0.001675954 -0.18411508
-0.008312327 -0.0064323456 0.05108736 0.0817703 -0.19447435 -0.15009235 0.11384979 0.26199147
0.049609452 -0.122820854 0.37670934 -0.02135357 -0.3417784 0.27675864 0.5068064 0.15296356
-0.03805714 -0.11047368 0.14798105 -0.15579914 -0.059063014 -0.0028058311 0.023037065 0.0154900495
-0.05962537 -0.15739146 -0.019047445 -0.2272296 0.14494674 -0.28884313 0.17590462 -0.05774272
-0.1496802 -0.058592327 -0.17341712 -0.030871993 0.13789286 -0.011437905 -0.021923851 -0.008585929
-0.29230887 0.03318642 -0.16083185 -0.0011832203 -0.22274348 -0.0006120663 -0.15653214 -0.0055617155
0.23576275 0.034853633 0.033804722 0.033556428 -0.093346134 -0.07947832 -0.078962415 0.32256794
0.16620128 0.14402148 0.04406214 -0.04778882 0.2026713 0.032090258 -0.081613064 0.04909612
-0.2403729 -0.19139376 -0.07303385 -0.033026382 0.03350888 -0.08808863 0.16732545 0.00587048
-0.09311894 -0.14075428 -0.099049725 -0.03802261 0.037593283 0.092669584 0.18351784 0.13373788
00000000: ed3f 37be 45c3 15be bca0 343e d01d 543e
00000010: 6e39 633e 9ee9 21bd 8f1b d53d 0d71 c8bd
00000020: d113 27be 9699 90bd 1f8f bb3d 8f2d 0fbe
00000030: 9c23 da3d 9844 65bd b896 3bbe 00d3 d63d
00000040: c295 f83d 1d6b fdbc aa81 fe3c 5a63 eb3c
00000050: f6c6 92bd 9010 34be 22bb 383c 9c20 b73d
00000060: e355 813d eb97 5d3e fa71 38be c834 cd3d
00000070: 76f9 76be 2746 74bd 8293 913e d7b9 833a
00000080: 4e84 833d 929b 93bd 8e58 1cbc e248 97bd
00000090: d9e6 643e fdc9 77be db50 6a3d ad5b e03d
000000a0: 4968 08be a524 9a3d 1f98 cdbd 1447 83bc
000000b0: 8d1b 25bd 6961 a53d b764 163e c87b 11be
000000c0: c762 b3bb 248f 1e3e 965b 003e 7ee6 0f3c
000000d0: fa52 523c 592e 783d 469e 5a3d b972 38be
000000e0: 92d1 7c3d 0253 fbbc 1fe9 8abc d99f b1bd
000000f0: a4b6 80ba e3a3 3a3e 3e6e ac3c 3792 ea3d
00000100: aabc 1bbe f808 04bd 6039 803e ec1b 2ebe
00000110: 2dbe d53c 2e17 ab3e 7ffc a3bd cb2a 84be
00000120: 9926 083e c095 853e 06e4 fd3c 3b64 53bb
00000130: 46ae 74be 78e8 3fbe 30c1 4bbd 658c 2f3e
00000140: c178 983c 2d26 8abe bfa4 e83d d445 0bbd
00000150: 5fe6 243d 693e 433d 6152 febd cbef c63d
00000160: 75a6 f93c 5d4b 473e 5d70 a8bc 3b61 e2bd
00000170: 164c c13d 2f59 5cbe c6cc 10bd 5c1d ebbd
00000180: a47b b8bc 7471 8b3d d82b b73d a911 c73c
00000190: c0b6 973e cb2a 52be a9b8 1c3d dcab fdbd
000001a0: fd90 aabd 401a 673d 864c 3bbd 3ec5 943d
000001b0: 108c 003e 4d66 963d 2092 1abe 41a1 a7bd
000001c0: a74c 253e 0ec4 f7bd d8ff 60bc 74be 36be
000001d0: d5ae 833c 1654 153e e502 50be 243e 503e
000001e0: 9301 543e 46d5 aebd 56f2 22bd 034c f3bd
000001f0: e9df da3c fd4f 3ebd 8e15 043e d230 f63d
00000200: 81ed 103e 36ac 293e 948b bb3b e034 07bd
00000210: 9dc5 4a3c ea2e 1a3e 242d ecbd 7291 69be
00000220: 2689 1ebe 1383 6d3e d884 003e cd51 35be
00000230: 5523 023e 5536 4c3d 3925 473e be51 463e
00000240: 0700 06be 64af 083e 04ac b93e 64c0 033e
00000250: 275c e33c 9f78 be3e b92d c63b df5f 26bd
00000260: cd19 6e3d 4c67 f53d ab53 b7be f15f 4dbe
00000270: 6b99 32bd d952 063e c7de 653e b73d 06bd
00000280: 7f94 a6be 81b8 68be 3173 57bd efdc 583e
00000290: 0e47 303d 70b9 9b3d ad79 aa3e 6d4d 023e
000002a0: 21bf 9dbe 38bf 893e 6fef ac3c afda 3dbd
000002b0: 03ce dcbc 361e f0bd afab db3a aa88 3cbe
000002c0: 6d30 08bc 6dc6 d2bb fb40 513d 3077 a73d
000002d0: 4924 47be cfb1 19be 142a e93d bf23 863e
000002e0: 4833 4b3d 8089 fbbd 0ce0 c03e afed aebc
000002f0: 94fd aebe 4fb3 8d3e 10be 013f 7ba2 1c3e
00000300: cee1 1bbd 0640 e2bd 5888 173e cf89 1fbe
00000310: 0fec 71bd 09e2 37bb 3ab8 bc3c fac9 7d3c
00000320: bb39 74bd 3a2b 21be 6309 9cbc e0ae 68be
00000330: eb6c 143e 3fe3 93be 5720 343e a183 6cbd
00000340: c445 19be 82fe 6fbd 4294 31be 43e7 fcbc
00000350: c933 0d3e 0d66 3bbc a699 b3bc ffab 0cbc
00000360: 82a9 95be 7cee 073d 1bb1 24be 4916 9bba
00000370: de16 64be 1373 20ba f649 20be 0d3f b6bb
00000380: ca6b 713e afc2 0e3d d276 0a3d 7772 093d
00000390: 422c bfbd 88c5 a2bd 0cb7 a1bd a027 a53e
000003a0: ab30 2a3e 5e7a 133e 817a 343d 36be 43bd
000003b0: 1189 4f3e 1371 033d c024 a7bd 0319 493d
000003c0: 5024 76be bafc 43be c592 95bd ac46 07bd
000003d0: 9b40 093d d067 b4bd 5d57 2b3e 285d c03b
000003e0: 25b5 bebd e421 10be 95da cabd 99bd 1bbd
000003f0: 6afb 193d 8dc9 bd3d 1aec 3b3e 95f2 083e

pi.net.0.bias f4 [50]
0.14498839 0.014771366 0.016434435 0.14547028 0.26579753 -0.1636535 0.17264876 0.28809685
0.021315936 0.11710038 0.055052962 -0.039818417 0.22163378 0.17607689 0.0658356 -0.04634281
0.22998662 0.048051275 -0.092307575 0.17298344 0.08337695 0.12695682 -0.22542277 0.08569185
-0.3404773 -0.13952683 0.15959972 -0.069523744 -0.18779388 -0.23339087 0.28221002 0.072963215
-0.13462192 0.42025086 0.28139123 0.22026967 0.07459925 0.25260597 0.10683091 0.169057
0.20453092 0.0051961695 0.13204975 0.3095006 -0.17492561 0.1240874 -0.12889875 -0.004565498
-0.084253885 0.19133958
00000000: d677 143e 9903 723c 82a1 863c 29f6 143e
00000010: 9d16 883e c894 27be d6ca 303e 6e81 933e
00000020: c29e ae3c 53d2 ef3d 377f 613d a318 23bd
00000030: f7f3 623e 804d 343e d1d4 863d f5d1 3dbd
00000040: 9d81 6b3e 6ad1 443d c10b bdbd 9222 313e
00000050: 89c1 aa3d f800 023e 3ad5 66be 357f af3d
00000060: 0a53 aebe 1fe0 0ebe 1c6e 233e 7762 8ebd
00000070: 0a4d 40be 04fe 6ebe d57d 903e bd6d 953d
00000080: 54da 09be 1f2b d73e 8312 903e 5f8e 613e
00000090: 7ec7 983d 9255 813e 2aca da3d 471d 2d3e
000000a0: 8e70 513e a144 aa3b 0d38 073e dd76 9e3e
000000b0: b31f 33be 8921 fe3d 09fe 03be 2c9a 95bb
000000c0: 4d8d acbd 86ee 433e

pi.net.2.weight f4 [50, 50]
0.15939984 0.06193314 0.017318066 -0.029405814 -0.13683377 -0.03323895 0.037993856 0.099749565
0.043736916 0.01518814 0.08824751 -0.011027686 0.01649813 0.07978437 -0.105941795 -0.06854024
-0.038031936 0.10942684 -0.13023958 0.019358316 -0.06779781 0.15680462 -0.00547436 -0.1899061
-0.038336124 -0.14789176 0.16620138 -0.033424143 0.097830504 -0.063313685 0.17675392 0.2522491
-0.04255952 -0.070666656 0.21364206 0.13292764 0.05930399 0.10666193 0.2988196 0.11852284
-0.04985946 -0.015312203 0.15502562 0.11217644 -0.038936254 0.0814126 -0.13603364 -0.0077970694
0.09746406 -4.9826245e-05 0.14293072 0.13466023 -0.059479456 -0.121927954 0.36066115 -0.04946476
0.18130395 0.09321387 0.03663404 0.020670582 0.16403832 -0.07769744 -0.051238537 0.06407291
-0.16563769 -0.042260244 0.033569835 -0.0833971 0.09743854 0.037093215 -0.011199899 0.11954295
0.011264214 0.22080629 0.11709286 0.1212374 0.07066653 0.061223406 0.06922794 -0.11427913
-0.16561387 0.07299017 0.11121053 0.1299806 -0.000532921 0.040245187 -0.06523655 0.14239384
0.057977643 -0.014050777 -0.06450691 0.054265983 -0.21286541 0.11143271 0.16852646 0.088600665
0.07870168 -0.039709967 -0.116863005 -0.065115705 0.011711521 -0.13436988 -0.13617022 -0.0630425
-0.21922965 0.23611215 0.14502133 0.07270312 -0.0688428 0.14732897 -0.042316146 0.1762228
0.01206643 0.08582035 0.1410469 0.11068312 -0.07306157 -0.013186067 0.025130926 0.23442763
-0.02195369 0.17456266 -0.09791718 -0.4741849 -0.15384778 -0.08479618 -0.025694666 -0.06398677
0.22686318 -0.028060688 -0.038523104 -0.18554045 0.023530016 -0.007972566 -0.013445492 0.12926385
0.17025025 0.09345637 0.070001386 -0.016909393 0.16755302 0.041422203 -0.019465385 0.12322284
-0.090248 0.21347165 0.11297656 -0.12713163 0.1622558 -0.17102714 -0.17538185 0.126665
0.17290694 0.22589493 -0.39413837 0.13946737 0.09683003 0.12951997 0.23691368 -0.038572133
-0.05682973 -0.030939756 0.15207022 -0.18468507 0.032502614 0.14944601 -0.10696741 -0.06255099
0.031652357 0.044291355 0.024516813 0.07962768 -0.12882242 0.11622418 -0.028305624 -0.1754306
0.05881319 0.09563878 -0.2071708 0.024577787 0.13164607 0.18630473 0.09900783 0.09525011
-0.0058523514 -0.14646938 -0.044931334 -0.021343349 0.08814902 -0.17359404 -0.061943296 -0.082206145
0.04156066 -0.017612621 -0.12765339 -0.013412715 0.08183555 -0.06704136 0.16821098 0.17710195
0.06410461 -0.15810125 0.04704232 -0.021215495 -0.09606201 -0.00071760337 -0.18380031 0.035934877
-0.14911817 0.0038967717 -0.0026039472 0.052248154 -0.065238774 -0.24215248 0.1285928 -0.24916102
-0.08837066 -0.37628683 -0.07080426 0.00078747835 0.08125143 0.0063417023 0.023240143 -0.020629996
0.12252979 0.10744836 0.26366046 0.017940642 -0.06758932 0.100614764 0.07613583 -0.03287458
-0.2879575 -0.11343677 -0.17458539 0.11237357 0.0039047066 0.14581452 -0.13822499 -0.12547314
0.088884115 0.040655185 -0.038596235 0.13744259 -0.042483505 0.09933043 -0.1413607 -0.013344576
-0.061798032 -0.1912064 0.07629643 0.1406104 -0.009046125 0.07934436 0.14203696 0.19876793
00000000: b639 233e 9bad 7d3d 9ede 8d3c 76e4 f0bc
00000010: 271e 0cbe 9125 08bd 729f 1b3d 8049 cc3d
00000020: 7b25 333d add7 783c 1cbb b43d 78ad 34bc
00000030: 1627 873c fd65 a33d 03f8 d8bd d35e 8cbd
00000040: 60c7 1bbd 2e1b e03d 865d 05be 5595 9e3c
00000050: 94d9 8abd 6491 203e 4362 b3bb bf76 42be
00000060: 5706 1dbd f070 17be b230 2a3e c1e7 08bd
00000070: 5c5b c83d 9baa 81bd fbfe 343e cb26 813e
00000080: e452 2ebd aeb9 90bd fcc4 5a3e 2f1e 083e
00000090: bee8 723d 9271 da3d e2fe 983e 1abc f23d
000000a0: 6f39 4cbd 09e0 7abc 09bf 1e3e c3bc e53d
000000b0: 9f7b 1fbd a6bb a63d 674c 0bbe 8f7e ffbb
000000c0: 3d9b c73d 86fc 50b8 6e5c 123e 5fe4 093e
000000d0: bba0 73bd 5db5 f9bd 94a8 b83e 8f9b 4abd
000000e0: bea7 393e eae6 be3d 930d 163d 5a55 a93c
000000f0: a9f9 273e d61f 9fbd 80df 51bd a838 833d
00000100: ed9c 29be 1419 2dbd 8680 093d 19cc aabd
00000110: db8d c73d 0eef 173d c87f 37bc efd2 f43d
00000120: 8a8d 383c 0b1b 623e 62ce ef3d 504b f83d
00000130: 9db9 903d 65c5 7a3d 61c7 8d3d 2d0b eabd
00000140: af96 29be df7b 953d 59c2 e33d a219 053e
00000150: b9b3 0bba 23d8 243d be9a 85bd b1cf 113e
00000160: f779 6d3d 3b35 66bc 331c 84bd 0246 5e3d
00000170: 64f9 59be d536 e43d 3392 2c3e 4474 b53d
00000180: 592e a13d eba6 22bd df55 efbd 625b 85bd
00000190: aee1 3f3c 4298 09be 3570 0bbe 6d1c 81bd
000001a0: bd7d 60be 62c7 713e 7980 143e 60e5 943d
000001b0: 74fd 8cbd 68dd 163e b253 2dbd c073 343e
000001c0: 47b2 453c 94c2 af3d 996e 103e d5ad e23d
000001d0: 4ea1 95bd 600a 58bc 5fdf cd3c cc0d 703e
000001e0: 3ad8 b3bc 8ec0 323e cd88 c8bd 5dc8 f2be
000001f0: 468a 1dbe 9fa9 adbd 9f7d d2bc 7f0b 83bd
00000200: d24e 683e 87df e5bc 67ca 1dbd 51fe 3dbe
00000210: 05c2 c03c 5e9f 02bc 7b4a 5cbc be5d 043e
00000220: 1556 2e3e 0e66 bf3d e35c 8f3d 9185 8abc
00000230: 0593 2b3e 54aa 293d df75 9fbc 425c fc3d
00000240: f2d3 b8bd 5098 5a3e 4160 e73d cb2e 02be
00000250: 6226 263e bd21 2fbe 4d97 33be 78b4 013e
00000260: 840e 313e 0051 673e 81cc c9be 89d0 0e3e
00000270: d34e c63d e2a0 043e 8099 723e d0fd 1dbd
00000280: 4ac6 68bd 5f75 fdbc 4cb8 1b3e 151e 3dbe
00000290: 7621 053d 6008 193e bb11 dbbd bc1a 80bd
000002a0: e7a5 013d da6a 353d 7cd7 c83c d613 a33d
000002b0: 06ea 03be f106 ee3d 32e1 e7bc 14a4 33be
000002c0: 19e6 703d 44de c33d 9524 54be 5b57 c93c
000002d0: 3ace 063e abc6 3e3e 9ec4 ca3d 7d12 c33d
000002e0: 15c5 bfbb 12fc 15be eb09 38bd 3fd8 aebc
000002f0: 7987 b43d a3c2 31be 41b8 7dbd b25b a8bd
00000300: 833b 2a3d 5848 90bc 92b7 02be 01c1 5bbc
00000310: 6699 a73d fb4c 89bd 803f 2c3e 375a 353e
00000320: 4749 833d 4be5 21be 73af 403d 1ecc adbc
00000330: 29bc c4bd 8c1d 3cba 2636 3cbe 7330 133d
00000340: 6fb2 18be fb60 7f3b fca6 2abb 2902 563d
00000350: e89b 85bd d2f6 77be d5ad 033e 1124 7fbe
00000360: adfb b4bd aba8 c0be d301 91bd c76e 4e3a
00000370: 2667 a63d 0ece cf3b 1d62 be3c 3d00 a9bc
00000380: e6f0 fa3d e30d dc3d 81fe 863e 41f8 923c
00000390: 456c 8abd 1d0f ce3d 1aed 9b3d 7fa7 06bd
000003a0: 2a6f 93be 8a51 e8bd 83c6 32be 1d24 e63d
000003b0: 1be6 7f3b 6750 153e da8a 0dbe 087c 00be
000003c0: e008 b63d 0d86 263d 1617 1ebd c0bd 0c3e
000003d0: 2f03 2ebd c16d cb3d dcc0 10be 35a3 5abc
000003e0: ef1f 7dbd 9ccb 43be 4d41 9c3d 2cfc 0f3e
000003f0: 3336 14bc 4c7f a23d 2372 113e d289 4b3e

pi.net.2.bias f4 [50]
0.12199497 0.13404617 0.012190564 0.12321402 0.10110782 -0.21449614 -0.027244223 0.02757136
0.08990749 0.17163058 -0.04554453 -0.19091347 0.13682005 -0.0020168112 -0.016204335 -0.016419875
-0.014993342 0.19506936 -0.16276732 0.054384295 0.048211105 0.12970337 -0.13489865 -0.04204064
0.30356476 0.07233114 0.2111631 0.11222141 0.022359528 0.025286805 0.107951894 0.088707715
0.20772408 0.15072165 -0.061082922 -0.02959655 0.21805482 0.047630448 0.20158124 0.10150466
0.013887938 0.20446508 0.012633792 -0.110108264 0.06303722 0.034126204 -0.101503894 0.1422371
0.18288898 0.11951542
00000000: 80d8 f93d 6643 093e eeba 473c a257 fc3d
00000010: 9e11 cf3d e0a4 5bbe 472f dfbc 55dd e13c
00000020: 6b21 b83d edbf 2f3e e78c 3abd d27e 43be
00000030: 8e1a 0c3e 7a2c 04bb f4be 84bc f982 86bc
00000040: a2a6 75bc 43c0 473e 7aac 26be 11c2 5e3d
00000050: 0279 453d f6d0 043e df22 0abe ce32 2cbd
00000060: d76c 9b3e 5922 943d 243b 583e 57d4 e53d
00000070: 542b b73c 4626 cf3c e215 dd3d 64ac b53d
00000080: 9fb5 543e c756 1a3e 1632 7abd 7774 f2bc
00000090: c349 5f3e 2518 433d 506b 4e3e ade1 cf3d
000000a0: 3c8a 633c 4b5f 513e f7fd 4e3c 7180 e1bd
000000b0: a819 813d ebc7 0b3d 46e1 cfbd 9aa6 113e
000000c0: 4047 3b3e 80c4 f43d

pi.net.4.weight f4 [4, 50]
0.22944431 0.050656557 0.29932764 -0.122392245 0.12729262 0.16017354 0.26518565 -0.28145167
-0.16702855 -0.06941745 -0.120126225 -0.28732783 0.07431456 0.25363877 -0.22299623 -0.1974036
0.17788851 -0.06605648 0.10884943 0.20174259 -0.18477695 -0.23938069 -0.28834957 0.010241726
-0.33314368 0.15898745 0.23437217 0.347249 0.013392981 -0.005138135 -0.18599765 0.26538506
0.14937124 -0.24938445 -0.102868475 0.08724201 0.43205988 0.01783932 -0.19600676 -0.28207478
0.15009569 -0.42087802 -0.23525015 -0.14262128 0.1575459 -0.12566406 -0.11640819 0.074144065
0.34009904 0.15588503 -0.09684683 0.15452762 0.13728683 -0.2153547 -0.27005377 -0.3679598
0.057413775 -0.29474613 -0.009842726 -0.31587923 0.14023441 -0.1542109 0.013196671 -0.3913557
0.16496022 -0.07019029 -0.27341163 0.263047 -0.032809142 0.103432745 0.0995444 -0.20345514
-0.22642486 -0.05057417 0.07097358 -0.03626815 0.23810412 0.10207549 -0.15217817 0.050195448
-0.12530963 0.3709568 0.35270265 -0.10098996 0.019764649 0.2102065 0.36022994 0.096194446
0.122746244 -0.027498368 -0.11452981 -0.027368117 -0.11532484 0.20580022 -0.21888934 0.14651322
0.13059984 0.17835654 0.22209208 0.040139165 0.112015724 -0.239206 0.16490409 0.26254016
-0.0022839243 0.104549155 0.30356145 -0.35540912 -0.20607275 0.056798518 -0.033598643 -0.011499689
0.11153801 -0.36865765 0.1315935 -0.07474661 0.044369288 0.027506152 -0.30983657 -0.10325089
-0.07821618 0.1884178 0.23754638 0.023152709 0.52367663 -0.14982136 0.19786265 -0.3758128
0.019349119 -0.38651353 0.2823308 -0.10820642 0.05824462 -0.31232473 0.36911094 0.16767098
0.12369866 -0.2942119 -0.14599589 0.20478077 -0.18355432 -0.18678422 -0.13424905 -0.06932078
-0.07271551 -0.1022345 0.036719926 0.24397664 0.25123528 0.2552873 -0.05240326 -0.184417
0.40168035 0.049920667 0.017523525 0.19430782 0.19446008 -0.24306005 -0.16735567 0.19837539
-0.27268347 -0.19068451 0.28090775 0.29721013 0.081224784 0.19244254 -0.16023767 0.20938157
0.059396766 0.20851685 -0.19828552 -0.028332105 -0.0469741 -0.3519717 0.27727735 0.10287456
0.30397844 0.37518466 -0.08127305 -0.26393372 0.15248384 -0.16106814 -0.09318504 0.29794157
0.22031939 -0.120826215 0.16490404 -0.16314663 0.26089478 -0.40595224 0.19754449 0.01782916
0.07296527 -0.07791636 -0.052891467 -0.19373004 -0.22119845 -0.20181334 -0.08711122 0.008253718
00000000: 73f3 6a3e 407d 4f3d 7941 993e c9a8 fabd
00000010: ff58 023e 8804 243e 6ac6 873e 6f1a 90be
00000020: 8809 2bbe bc2a 8ebd bd04 f6bd a21c 93be
00000030: 3b32 983d f1dc 813e 2059 64be 2b24 4abe
00000040: 6828 363e 9f48 87bd 73ec de3d 9c95 4e3e
00000050: 2b36 3dbe 3620 75be 8ea2 93be eacc 273c
00000060: cf91 aabe 9bcd 223e 42ff 6f3e 9fca b13e
00000070: 3c6e 5b3c cd5d a8bb 2b76 3ebe 8de0 873e
00000080: c6f4 183e a35e 7fbe b5ac d2bd f0ab b23d
00000090: f436 dd3e c423 923c ffb5 48be 1b6c 90be
000000a0: afb2 193e 537d d7be 6ae5 70be 500b 12be
000000b0: b653 213e 14ae 00be 6b67 eebd d8d8 973d
000000c0: 7621 ae3e 53a0 1f3e a157 c6bd 7d3c 1e3e
000000d0: eb94 0c3e f185 5cbe 7d44 8abe 3a65 bcbe
000000e0: b52a 6b3d f7e8 96be 6343 21bc ecba a1be
000000f0: 9c99 0f3e 76e9 1dbe da36 583c c65f c8be
00000100: 55eb 283e edbf 8fbd 9cfc 8bbe 19ae 863e
00000110: e162 06bd 8cd4 d33d efdd cb3d 8b56 50be
00000120: ebdb 67be dc26 4fbd 995a 913d e98d 14bd
00000130: 91d1 733e f40c d13d 98d4 1bbe be99 4d3d
00000140: 2b51 00be 0dee bd3e 7195 b43e d3d3 cebd
00000150: 79e9 a13c 5f40 573e 0f70 b83e 9801 c53d
00000160: 6262 fb3d 4244 e1bc 9b8e eabd 1a33 e0bc
00000170: 6e2f ecbd 4bbd 523e 8724 60be 9007 163e
00000180: f7bb 053e 19a3 363e 1b6c 633e f768 243d
00000190: 8068 e53d 6bf2 74be 9edc 283e aa6b 863e
000001a0: e4ad 15bb de1d d63d 686c 9b3e 2ff8 b5be
000001b0: bc04 53be 90a5 683d bb9e 09bd 3169 3cbc
000001c0: 0a6e e43d b2c0 bcbe 72c0 063e c014 99bd
000001d0: 92bc 353d 9554 e13c e6a2 9ebe 3475 d3bd
000001e0: ce2f a0bd 99f0 403e 5c3f 733e c0aa bd3c
000001f0: ac0f 063f c56a 19be 829c 4a3e 896a c0be
00000200: 0b82 9e3c 1ae5 c5be aa8d 903e 549b ddbd
00000210: e991 6e3d 07e9 9fbe 1cfc bc3e f1b1 2b3e
00000220: b955 fd3d f1a2 96be f27f 15be 0db2 513e
00000230: aaf5 3bbe 5d44 3fbe 9578 09be 0ef8 8dbd
00000240: dfeb 94bd 5260 d1bd a267 163d 03d5 793e
00000250: e9a1 803e 04b5 823e cda4 56bd cfd7 3cbe
00000260: 0ca9 cd3e 9d79 4c3d 7f8d 8f3c a1f8 463e
00000270: 8b20 473e bce4 78be 495f 2bbe eb22 4b3e
00000280: 2b9d 8bbe cd42 43be 24d3 8f3e ed2b 983e
00000290: 2e59 a63d a80f 453e 5815 24be 1f68 563e
000002a0: 064a 733d 7185 553e 5c0b 4bbe bb18 e8bc
000002b0: ea67 40bd a235 b4be 4cf7 8d3e e6af d23d
000002c0: 10a3 9b3e 3418 c03e 7c72 a6bd 5222 87be
000002d0: b924 1c3e 0cef 24be ccd7 bebd cc8b 983e
000002e0: 689b 613e bc73 f7bd 9bdc 283e e90f 27be
000002f0: 0094 853e f9d8 cfbe 1a49 4a3e 750e 923c
00000300: d16e 953d 9d92 9fbd b9a4 58bd 2b61 46be
00000310: d981 62be 28a8 4ebe 5e67 b2bd 9a3a 073c

pi.net.4.bias f4 [4]
0.12036804 0.0473576 -0.02849261 0.032286905
00000000: 8583 f63d 0bfa 413d 5669 e9bc 463f 043d

v.net.0.weight f4 [64, 40]
-0.30548027 0.45419818 0.100016564 -0.06246589 -0.35067013 0.0031852182 0.32815602 -0.2980495
0.11368047 0.14252162 -0.080533594 -0.0027843788 0.020116094 0.019218974 0.07208986 0.03949583
0.047297657 -0.059780665 -0.031223806 0.050958436 -0.4369007 0.35706437 -0.04476712 0.004582958
-0.22012194 -0.06023638 0.3538113 -0.3621446 0.12636703 0.016883418 -0.20246366 -0.2209755
0.09788726 0.09845006 0.052056182 0.033215903 0.07955956 -0.043330748 -0.08351549 0.0358814
0.032993697 0.3711316 -0.088539064 -0.04345559 0.18775848 0.08002844 -0.21469009 -0.045297496
0.06669109 -0.5208708 0.038947906 0.19820587 0.1176833 -0.15397862 0.007637947 0.25527543
-0.032492563 -0.023745246 0.055256654 -0.05550375 0.04722129 0.33139908 0.0066153626 -0.07886604
0.32885364 0.053850286 0.2816906 0.2855651 -0.07713623 -0.422249 -0.022828456 0.5834246
0.13303113 -0.034467828 0.13654725 0.2861101 -0.036022786 0.0055382443 0.11112524 -0.04119862
0.70952034 0.39446872 0.06913295 0.21446894 -0.07754851 -0.077517636 0.12881626 -0.36229083
0.050328225 0.11310274 0.0881875 -0.14185563 -0.002349053 -0.10563905 0.12547956 -0.17765702
0.049101174 0.05601482 -0.0664841 0.01210161 0.6264428 0.26256472 0.19828737 0.11235408
-0.11088031 0.12846375 0.30347252 -0.25362566 -0.01718869 0.06334109 0.007721588 -0.22083816
0.0076751937 -0.09836866 0.28096437 -0.05939023 0.01957726 0.0744461 -0.043516356 0.03120176
-1.0033973 -0.29465687 -0.11323684 -0.24649051 -0.20709753 -0.22804508 -0.046255693 -0.59594154
-0.031012446 -0.21746135 -0.24538377 -0.030745197 0.09788271 -0.08289736 -0.023198951 -0.083449975
0.00411495 0.03801915 0.060636215 0.07110255 -1.03034 -0.024235712 -0.22174561 -0.14423877
-0.18530944 -0.086865276 -0.21399264 -0.5803442 0.121040136 -0.27165204 -0.022784602 -0.10210594
0.06715606 0.21987216 0.08804752 -0.06133212 -0.0076012244 0.06816076 0.077663325 0.045244478
-0.3219363 -1.0048907 -0.1716179 0.19367559 0.13299696 -0.14298995 -0.06794643 -0.1057897
-0.61294794 0.05509429 0.06547344 0.15594888 -0.052728962 -0.13528763 0.18402666 0.06251406
-0.024366917 -0.080978185 0.016918719 -0.0128345145 -0.2748203 -1.0181528 -0.16824697 0.31246144
0.06413837 0.017043717 0.1544097 -0.06356269 -0.46114993 -0.01305534 0.2535563 -0.08092951
-0.105208874 -0.13080631 0.093959674 0.008150823 0.009634943 -0.08901659 0.028529588 -0.032023005
-0.32567188 -0.3877219 0.08005448 -0.086044215 0.015515948 0.11015318 -0.43230534 -0.020062532
0.32092318 -0.33851165 -0.13394485 -0.07461111 -0.15271677 -0.16488914 0.07368603 0.24847125
0.043516427 0.08690314 -0.06471395 0.0142233055 -0.36904603 -0.49905506 -0.060659163 -0.20662105
0.0293066 -0.006288407 0.030843465 -0.0778903 0.4564741 -0.15587111 -0.26426628 0.18931016
-0.038771756 -0.04421444 0.05740325 0.2943929 0.01762537 0.041725457 -0.06379691 0.03687155
-0.2802815 -0.30307627 0.06606502 -0.01359696 -0.10260602 0.24648172 0.20981795 0.06344418
0.45556444 0.013610817 -0.077813484 -0.022493994 0.09345967 -0.46587297 -0.08975867 -0.21268302
00000000: e967 9cbe aa8c e83e 7cd5 cc3d 3cdc 7fbd
00000010: 098b b3be 18bf 503b 1104 a83e f299 98be
00000020: 4ed1 e83d 30f1 113e ccee a4bd 207a 36bb
00000030: 82ca a43c 1c71 9d3c d9a3 933d 61c6 213d
00000040: 30bb 413d 92dc 74bd 11c9 ffbc cbb9 503d
00000050: 73b1 dfbe 24d1 b63e ba5d 37bd a32c 963b
00000060: a567 61be 6cba 76bd c126 b53e 046b b9be
00000070: 5c66 013e 184f 8a3c a252 4fbe 6747 62be
00000080: 1e79 c83d 2fa0 c93d dd38 553d 660d 083d
00000090: 1ff0 a23d 957b 31bd 2b0a abbd 60f8 123d
000000a0: 6624 073d f604 be3e f853 b5bd 7dfe 31bd
000000b0: c243 403e f3e5 a33d b8d7 5bbe de89 39bd
000000c0: 5795 883d ca57 05bf d787 1f3d 7bf6 4a3e
000000d0: f103 f13d 92ac 1dbe be47 fa3b 76b3 823e
000000e0: ec16 05bd 6485 c2bc cd54 623d e657 63bd
000000f0: 1d6b 413d 24ad a93e afc5 d83b 8584 a1bd
00000100: 815f a83e 1e92 5c3d c039 903e 9735 923e
00000110: 9af9 9dbd 0531 d8be be02 bbbc 515b 153f
00000120: 5039 083e 232e 0dbd 0bd3 0b3e 067d 923e
00000130: a18c 13bd 297a b53b a195 e33d e2bf 28bd
00000140: 20a3 353f cef7 c93e 9395 8d3d bf9d 5b3e
00000150: c1d1 9ebd 91c1 9ebd 69e8 033e 2f7e b9be
00000160: f824 4e3d 69a2 e73d a69b b43d 9a42 11be
00000170: 92f2 19bb 4959 d8bd b77d 003e b9eb 35be
00000180: 501e 493d cc6f 653d d128 88bd d545 463c
00000190: 8e5e 203f e26e 863e d80b 4b3e e519 e63d
000001a0: 3715 e3bd 008c 033e c060 9b3e 39db 81be
000001b0: 4ccf 8cbc f9b8 813d 6005 fd3b 6623 62be
000001c0: 3180 fb3b 8275 c9bd 90da 8f3e 2b43 73bd
000001d0: 7d60 a03c 3277 983d 353e 32bd d59a ff3c
000001e0: 536f 80bf 44dd 96be b7e8 e7bd 0268 7cbe
000001f0: 6011 54be a684 69be 9c76 3dbd a08f 18bf
00000200: d00d febc 30ae 5ebe e245 7bbe 5add fbbc
00000210: bb76 c83d 17c6 a9bd ba0b bebc d2e7 aabd
00000220: b4d6 863b f8b9 1b3d ae5d 783d 379e 913d
00000230: 2ee2 83bf f989 c6bc 4811 63be 54b3 13be
00000240: c2c1 3dbe 6ce6 b1bd e320 5bbe 7091 14bf
00000250: e4e3 f73d fa15 8bbe c6a6 babc eb1c d1bd
00000260: 1e89 893d 2b26 613e 4252 b43d 6437 7bbd
00000270: b113 f9bb de97 8b3d f30d 9f3d 4652 393d
00000280: d6d4 a4be 42a0 80bf 9abc 2fbe e552 463e
00000290: 5b30 083e f56b 12be 7f27 8bbd 45a8 d8bd
000002a0: 28ea 1cbf 8daa 613d f016 863d 10b1 1f3e
000002b0: 53fa 57bd d788 0abe 7c71 3c3e 5f07 803d
000002c0: 219d c7bc e4d7 a5bd 2099 8a3c db47 52bc
000002d0: 3fb5 8cbe d552 82bf ef48 2cbe f2fa 9f3e
000002e0: fa5a 833d 449f 8b3c 941d 1e3e 282d 82bd
000002f0: d81b ecbe 11e6 55bc 22d2 813e 5fbe a5bd
00000300: c077 d7bd 17f2 05be ee6d c03d 088b 053c
00000310: e1db 1d3c 544e b6bd e2b6 e93c 8e2a 03bd
00000320: 77be a6be 7c83 c6be 9af3 a33d f337 b0bd
00000330: 9a36 7e3c fe97 e13d 2057 ddbe 2e5a a4bc
00000340: 0b50 a43e 6651 adbe d728 09be b6cd 98bd
00000350: c961 1cbe b3d8 28be b4e8 963d 3f6f 7e3e
00000360: 483e 323d 46fa b13d bf88 84bd de08 693c
00000370: 9af3 bcbe 2584 ffbe be75 78bd 7894 53be
00000380: 6514 f03c fb0e cebb 6fab fc3c f384 9fbd
00000390: f9b6 e93e ad9c 1fbe e94d 87be 86da 413e
000003a0: 22cf 1ebd 331a 35bd ac1f 6b3d abba 963e
000003b0: 1463 903c 50e8 2a3d f4a7 82bd 9f06 173d
000003c0: 0f81 8fbe d02c 9bbe 194d 873d c9c5 5ebc
000003d0: 1b23 d2bd b465 7c3e 84da 563e 06ef 813d
000003e0: be3f e93e e7ff 5e3c ad5c 9fbd 5345 b8bc
000003f0: c967 bf3d e786 eebe 65d3 b7bd 94c9 59be

v.net.0.bias f4 [64]
-0.23971288 0.7923231 0.9404317 -0.5335774 -0.35839984 0.69934595 -0.43531466 -0.3376892
-0.42392585 0.13927653 -0.15348849 -1.6803393 -0.018195141 1.5173292 0.97229385 1.4865086
0.41003665 -0.46635866 0.5464969 0.7768948 0.2695723 -0.25962415 -0.18186924 -0.21649843
-0.11549707 0.40770185 -0.096419305 0.45281264 -0.38100663 -0.12821 -1.2470654 -0.73652214
-0.5835892 -0.40703222 -0.3188225 -1.2135769 -0.91336274 1.4574336 0.926157 0.6887894
0.062858544 -0.63566875 -0.43300664 -0.3818252 0.40483862 0.23461534 -0.55060935 -0.20173852
-0.60026383 -0.25430158 0.44492218 -0.64876664 -0.08766705 -1.1462606 0.9739889 1.0890875
0.032871574 0.11115297 0.10209875 0.567566 0.65576285 -0.16734722 -1.545137 0.87192726
00000000: 4b77 75be b0d5 4a3f 22c0 703f 8798 08bf
00000010: 2f80 b7be 5608 333f 90e1 debe 99e5 acbe
00000020: cf0c d9be 829e 0e3e 162c 1dbe 5c15 d7bf
00000030: fa0d 95bc d837 c23f 40e8 783f ea45 be3f
00000040: 53f0 d13e 90c6 eebe 39e7 0b3f 94e2 463f
00000050: 6105 8a3e 75ed 84be ee3b 3abe c4b1 5dbe
00000060: ba89 ecbd 4cbe d03e 7c77 c5bd 0fd7 e73e
00000070: 4d13 c3be 7b49 03be d79f 9fbf b78c 3cbf
00000080: 1a66 15bf 8766 d0be b43c a3be 7d56 9bbf
00000090: 24d2 69bf 2f8d ba3f a018 6d3f 8154 303f
000000a0: fbbb 803d 30bb 22bf 0cb3 ddbe 987e c3be
000000b0: 0247 cf3e 013f 703e bcf4 0cbf 8b94 4ebe
000000c0: e4aa 19bf d133 82be d7cc e33e 9215 26bf
000000d0: c88a b3bd abb8 92bf 5657 793f 3867 8b3f
000000e0: 58a4 063d 2ba4 e33d 2619 d13d 014c 113f
000000f0: 13e0 273f 125d 2bbe 0dc7 c5bf a036 5f3f

v.net.2.weight f4 [64, 64]
0.36375678 0.0414155 0.39204437 0.18387413 -0.1033052 -0.3702327 -0.27655378 -0.11831035
0.022404723 -0.26040682 -0.18213491 -0.91834307 0.13547927 0.46188968 0.3712644 0.6710168
-0.03534075 -0.20984513 -0.18510075 0.43628347 0.018754397 -0.37376136 -0.018804977 0.101595156
-0.017662345 0.22181901 0.1846113 -0.03844184 0.073953345 -0.03801249 -0.7396163 0.03304511
-0.24300912 0.39971966 0.16459091 -0.48342842 -0.47598714 1.1259658 0.10033516 0.19378603
-0.24628682 -0.104058534 0.14534163 0.009932691 0.14454061 0.3753911 0.18346083 0.3295482
0.0030978108 0.04788708 0.10136133 0.02064599 -0.042815752 -0.26248217 0.36078933 0.3692787
-0.24693075 -0.1527048 0.24790269 0.38110146 -0.09854235 -0.41635326 -0.31891072 0.2904916
-0.18626262 -0.12047784 -0.015281164 -0.034633204 0.13847652 0.043641772 -0.10943933 -0.24078465
-0.33370048 -0.13815716 0.025488285 0.0073474078 -0.043514837 0.020983033 0.020135792 0.075129196
-0.045361184 0.08339938 -0.046928056 0.044294 0.011078789 0.1265928 0.045633815 0.10422679
-0.10369924 -0.27968395 -0.113407366 -0.06693468 0.1845883 -0.16654305 -0.119937256 -0.002095348
0.031724412 0.01563034 -0.070639 -0.09124828 0.011606408 0.13597548 -0.079612456 0.05258135
0.10818755 0.0049601407 0.18677232 0.04915169 0.11919255 0.22584371 0.1313395 0.027213063
-0.16114764 -0.14591987 -0.1263003 0.02908266 -0.033024166 0.060438 0.06739523 0.15251358
-0.13286941 -0.152462 -0.12446328 -0.0013093908 -0.11232766 -0.10305801 -0.15374535 0.1330035
-0.008729341 -0.0957722 -0.19761446 -0.1584863 0.054247264 -0.07741925 -0.10147477 -0.23793444
-0.034159753 -0.112064436 0.12478092 0.242787 0.021812467 -0.16362518 -0.22805454 -0.11510852
-0.08124285 0.062361646 -0.086762324 -0.1364087 -0.029675564 0.0015451474 -0.04380494 0.12928149
0.11775121 -0.099783175 0.18252565 -0.25697318 0.15678872 0.016378786 -0.011383872 0.07769243
-0.0024243619 -0.027206015 -0.07485418 0.19359861 0.10927986 -0.27034816 0.043251757 0.017011318
0.08868704 0.05247705 0.08121244 -0.0055242553 -0.10673764 0.09651415 0.008121041 -0.15227918
0.07500189 -0.07263195 -0.12955683 -0.08324772 0.14770181 0.14113708 -0.16145933 0.104321
-0.13400279 0.1657899 -0.17892183 0.082355715 -0.2512898 -0.027093908 0.02182476 0.021611515
-0.10346671 0.10257292 -0.05476072 -0.124918975 -0.006986346 0.02992491 0.064247675 -0.1120307
-0.14198153 -0.14045544 0.27523458 -0.36433607 -0.014141668 0.139703 0.05129848 0.016828518
-0.07366221 0.009203837 -0.019100206 0.13360015 0.03700016 -0.043108538 -0.018846117 -0.051199816
0.028818244 -0.26016763 -0.15388758 -0.12572213 -0.08563179 -0.17509504 -0.0059253653 0.13130665
0.036045887 0.0031893398 -0.11511016 -0.020136168 0.035082445 0.24362795 0.020391436 -0.031091934
-0.040993687 -0.04661829 0.027266392 -0.09702875 0.10250767 0.22144939 -0.024589982 -0.11731754
-0.022832865 -0.08158173 0.11229029 -0.12772527 -0.09019375 -0.08693197 -0.01918763 0.23677461
-0.11039182 -0.062822446 -0.08598431 0.21209154 -0.09201017 -0.017605107 -0.25022823 0.08266155
00000000: 543e ba3e 4da3 293d 0aba c83e 8049 3c3e
00000010: ad91 d3bd 248f bdbe 7598 8dbe b24c f2bd
00000020: 1c8a b73c 0b54 85be 9381 3abe 8818 6bbf
00000030: 14bb 0a3e ce7c ec3e 5e16 be3e c2c7 2b3f
00000040: 76c1 10bd a4e1 56be 0d8b 3dbe 8c60 df3e
00000050: d2a2 993c a65d bfbe e50c 9abc 1f11 d03d
00000060: 9fb0 90bc 8624 633e bf0a 3d3e 3175 1dbd
00000070: da74 973d fcb2 1bbd 7e57 3dbf 4f5a 073d
00000080: 62d7 78be 0ea8 cc3e 858a 283e ee83 f7be
00000090: 96b4 f3be a61f 903f 857c cd3d d86f 463e
000000a0: 9d32 7cbe a41c d5bd 70d4 143e babc 223c
000000b0: 7402 143e 4333 c03e 28dd 3b3e 8bba a83e
000000c0: a404 4b3b 3e25 443d 8796 cf3d c721 a93c
000000d0: 925f 2fbd 1064 86be 61b9 b83e 1912 bd3e
000000e0: 6adb 7cbe a65e 1cbe 34da 7d3e bb1f c33e
000000f0: 92d0 c9bd 412c d5be 4448 a3be 51bb 943e
00000100: a1bb 3ebe 16bd f6bd d95d 7abc 8cdb 0dbd
00000110: cacc 0d3e b7c1 323d ba21 e0bd 4090 76be
00000120: cada aabe 1279 0dbe cfcc d03c 86c2 f03b
00000130: 9d3c 32bd 9ce4 ab3c d1f3 a43c 56dd 993d
00000140: a6cc 39bd 4bcd aa3d a237 40bd a06d 353d
00000150: cf83 353c 8ba1 013e 86ea 3a3d db74 d53d
00000160: 4460 d4bd bc32 8fbe 1f42 e8bd 0d15 89bd
00000170: b704 3d3e 438a 2abe aaa1 f5bd 1b52 09bb
00000180: 75f1 013d 330b 803c 2eab 90bd 61e0 babd
00000190: ce28 3e3c 283d 0b3e db0b a3bd 8b5f 573d
000001a0: 6f91 dd3d ad88 a23b 3e41 3f3e 4853 493d
000001b0: 391b f43d 9343 673e dd7d 063e eeed de3c
000001c0: e303 25be 056c 15be de54 01be c23e ee3c
000001d0: 5944 07bd d68d 773d 8306 8a3d 852c 1c3e
000001e0: eb0e 08be 001f 1cbe 9be6 febd dd9f abba
000001f0: 0b0c e6bd 1410 d3bd 6c6f 1dbe 1232 083e
00000200: 8305 0fbc 3724 c4bd 725b 4abe 3c4a 22be
00000210: 6132 5e3d fc8d 9ebd 01d2 cfbd 16a5 73be
00000220: 19eb 0bbd 0a82 e5bd 248d ff3d 289d 783e
00000230: 0fb0 b23c 5c8d 27be 2187 69be 04be ebbd
00000240: a762 a6bd ed6e 7f3d 72b0 b1bd b9ae 0bbe
00000250: 2b1a f3bc 8b86 ca3a cf6c 33bd 5e62 043e
00000260: 8c27 f13d 1f5b ccbd 01e8 3a3e fd91 83be
00000270: 398d 203e ce2c 863c 6b83 3abc 351d 9f3d
00000280: 0be2 1ebb 26df debc 264d 99bd b73e 463e
00000290: 1fce df3d 136b 8abe c128 313d 525b 8b3c
000002a0: 8da1 b53d 2df2 563d b552 a63d d004 b5bb
000002b0: 4499 dabd 36a9 c53d 1d0e 053c 13ef 1bbe
000002c0: 979a 993d 0fc0 94bd 8caa 04be c87d aabd
000002d0: 253f 173e 3d86 103e 9855 25be 40a6 d53d
000002e0: 0738 09be d4c4 293e 4937 37be 1daa a83d
000002f0: 0fa9 80be 0bf4 ddbc d7c9 b23c a20a b13c
00000300: 5be6 d3bd c011 d23d c74c 60bd 85d5 ffbd
00000310: b8ed e4bb 1625 f53c 4994 833d 5a70 e5bd
00000320: 9b63 11be 8dd3 0fbe 8ceb 8c3e 428a babe
00000330: 74b2 67bc 4e0e 0f3e 5b1e 523d f6db 893c
00000340: 36dc 96bd b1cb 163c 0978 9cbc 7ace 083e
00000350: 7b8d 173d 9492 30bd 2c63 9abc e6b6 51bd
00000360: 3d14 ec3c b134 85be b594 1dbe 4dbd 00be
00000370: b85f afbd 1d4c 33be 9129 c2bb 4075 063e
00000380: daa4 133d 3e04 513b e0be ebbd 9bf4 a4bc
00000390: 9cb2 0f3d 9b79 793e f10b a73c 83b4 febc
000003a0: ffe8 27bd d2f2 3ebd c55d df3c 02b7 c6bd
000003b0: 8bef d13d a1c3 623e ee70 c9bc 2e44 f0bd
000003c0: fd0b bbbc 5214 a7bd 74f8 e53d 6aca 02be
000003d0: 80b7 b8bd 6409 b2bd 602f 9dbc 0b75 723e
000003e0: 1b15 e2bd 0ea9 80bd 8b18 b0bd 862e 593e
000003f0: d46f bcbd 9638 90bc ea1d 80be 754a a93d

v.net.2.bias f4 [64]
-0.16756001 -0.16299894 0.24736077 -0.18856888 0.24959931 0.042296052 -0.09253393 -0.102059714
-0.20232671 -0.8256742 0.4839469 0.36245406 0.00998435 0.16106915 -0.27581874 -0.26774293
-0.061136432 -0.18992476 -0.21716973 -0.17787373 0.7595712 0.19260502 0.31317872 0.3095479
-0.33229133 0.8600036 1.0132384 0.07180337 0.36143282 -0.2951964 -0.35769305 -0.23067789
0.085753426 0.20935197 0.81607157 -0.25377023 -0.3311406 -0.40573463 0.18104693 0.38218915
0.57781124 -0.07989124 0.21861291 0.02380853 -0.33900592 -0.073932506 -0.3534761 0.26309595
-0.42096353 -0.33832714 0.31769606 -0.2888818 0.35141212 1.0233966 -0.2188645 -0.25145844
-0.50022566 0.39742404 -0.32826716 -0.15234324 0.3610215 0.26097608 -0.15944085 0.15097053
00000000: da94 2bbe 32e9 26be 244c 7d3e 3318 41be
00000010: f696 7f3e a03e 2d3d 6e82 bdbd af04 d1bd
00000020: bc2e 4fbe 625f 53bf e3c7 f73e 9493 b93e
00000030: 6695 233c 50ef 243e 1d38 8dbe 9a15 89be
00000040: 326a 7abd a37b 42be be61 5ebe 8824 36be
00000050: 4273 423f 403a 453e f658 a03e 107d 9e3e
00000060: 1722 aabe 3229 5c3f ccb1 813f a50d 933d
00000070: b90d b93e fc23 97be 8b23 b7be d336 6cbe
00000080: 7e9f af3d 5d60 563e 11ea 503f 2cee 81be
00000090: 438b a9be 73bc cfbe 5e64 393e 4cae c33e
000000a0: 70eb 133f 059e a3bd 10dc 5f3e 1b0a c33c
000000b0: 2f92 adbe ed69 97bd d2fa b4be 83b4 863e
000000c0: 8888 d7be 3739 adbe 0fa9 a23e 51e8 93be
000000d0: 4aec b33e a9fe 823f 041e 60be 29bf 80be
000000e0: ca0e 00bf 2a7b cb3e a212 a8be deff 1bbe
000000f0: cfd7 b83e a89e 853e 7644 23be 0598 1a3e

v.net.4.weight f4 [1, 64]
0.123251915 0.034249645 -0.032667678 0.0042152903 -0.0839712 -0.07166286 0.09295567 0.00016096179
-0.35177985 0.22001487 -0.059722845 -0.07680395 -0.002431223 -0.009773725 0.04508884 0.08081114
-0.00497292 0.048346903 0.031230737 0.08793938 -0.18287678 -0.017917076 -0.028811585 -0.061820846
0.08676649 -0.15077525 -0.17245962 -0.017673234 -0.057817943 0.026620956 0.028382845 -0.19641438
0.16402937 -0.09526894 -0.1594182 0.0461238 0.06369274 0.056293182 -0.015440331 -0.07475138
-0.090974085 0.009873441 -0.05761906 -0.28231257 0.09317551 0.04162862 0.066256195 -0.081122376
0.084917866 0.019315764 -0.03948725 0.040011745 -0.04995567 -0.18817304 0.026158487 0.063492596
0.068410814 -0.08747538 0.02900863 0.045509197 -0.07418627 -0.061569944 0.018335883 -0.037116304
00000000: 806b fc3d 5b49 0c3d 8bce 05bd 6b20 8a3b
00000010: 18f9 abbd fac3 92bd 8b5f be3d dac7 2839
00000020: 7d1c b4be 944b 613e f19f 74bd 644b 9dbd
00000030: 2755 1fbb f921 20bc 13af 383d 5080 a53d
00000040: e0f3 a2bb 6707 463d 9ad7 ff3c 9019 b43d
00000050: 0d44 3bbe d5c6 92bc 4606 ecbc db37 7dbd
00000060: a1b2 b13d d464 1abe 4199 30be 75c7 90bc
00000070: 82d2 6cbd 3114 da3c 2483 e83c da20 49be
00000080: 51f7 273e 5d1c c3bd 863e 23be 4fec 3c3d
00000090: 5771 823d ae93 663d 71f9 7cbc 4017 99bd
000000a0: 9f50 babd 37c4 213c f701 6cbd 468b 90be
000000b0: cdd2 be3d c682 2a3d 54b1 873d 7d23 a6bd
000000c0: 6be9 ad3d 183c 9e3c 62bd 21bd 5be3 233d
000000d0: 519e 4cbd 6fb0 40be 534a d63c 6808 823d
000000e0: f81a 8c3d 4b26 b3bd 82a3 ed3c da67 3a3d
000000f0: f9ee 97bd c430 7cbd 2235 963c 4407 18bd

c.net.0.weight f4 [64, 40]
-0.1338934 0.10714736 -0.09821734 -0.026924891 0.060704093 0.05131519 -0.059300397 -0.14171726
0.055564784 0.15377346 0.026320377 0.098069154 0.101954535 -0.052429162 -0.066292755 -0.14377011
-0.116370924 -0.118389726 0.0027016704 0.0948079 -0.048031583 -0.13601042 -0.09336666 0.008658049
0.15006909 -0.032121122 0.09139824 -0.13512066 -0.03183794 -0.0642571 -0.0051085665 -0.059694275
0.032334376 0.13466667 0.13007185 0.00274964 0.026350385 -0.1530678 0.0010887542 -0.13133791
0.14590497 0.118293636 0.06653257 -0.055949993 0.06042021 0.15713064 -0.019914854 -0.10492318
-0.042346135 -0.024920207 0.11066283 0.12301914 -0.10957687 0.0131435925 0.12085405 0.09880536
-0.14917485 -0.1401673 0.06621898 -0.036188964 0.06956938 0.15744689 0.10357831 0.08037125
-0.09125693 0.12082783 -0.03185174 0.055427585 -0.13901389 -0.033385865 0.10034062 -0.034935262
0.13065751 0.0616482 0.03447777 -0.10873217 0.12166473 0.029860945 0.06348502 -0.02338359
-0.1196271 -0.077077985 0.121990986 0.12313824 -0.089642115 -0.15034555 -0.05677266 -0.07198806
0.080299914 0.014194178 -0.15004002 0.05957144 -0.023961093 0.10130722 -0.11650861 0.10950476
-0.034640733 -0.035864934 -0.03670483 -0.12581027 -0.05578275 -0.06025101 -0.017275404 -0.06731778
0.01180581 0.10450864 0.013731765 -0.08797336 0.025052994 -0.043661583 0.0015742764 0.014348078
-0.080969304 0.10312174 -0.025395587 -0.007004514 0.08803202 0.09410283 -0.10092502 0.007666912
-0.017318284 -0.09132094 0.14578481 -0.104965195 -0.060062334 0.08014573 -0.11403725 0.11212806
0.108380735 -0.013899517 0.0029203899 0.023888715 -0.044325713 0.14322494 -0.08435801 0.09174238
-0.15749735 -0.073027335 -0.059868533 -0.03234478 0.11405046 -0.12729461 0.032376524 -0.11258325
0.0024298541 -0.09198302 -0.061007254 -0.115134336 -0.13911302 -0.11697659 -0.058726493 0.05700303
-0.07372788 0.0018825083 0.0565572 -0.006527813 -0.14500141 0.14558968 0.11584442 -0.031003248
-0.106791064 0.0437641 -0.0058623804 -0.001462994 0.09207815 0.08587195 0.05296765 -0.011132159
0.01001485 0.080992356 0.10636751 -0.002686045 0.0984741 0.05589599 0.08092676 -0.12019124
0.12385766 -0.1502338 -0.011010077 -0.13800254 -0.10298333 0.047629636 -0.029692363 0.13403559
0.032557037 -0.011874287 -0.13395348 -0.03218106 -0.09610109 -0.12147003 0.053951245 0.07442491
0.11139897 0.109948814 -0.029579327 -0.07250051 -0.056159724 0.07556527 0.0061226236 0.13135625
0.024478922 -0.078058526 0.030643258 0.075918116 0.040378526 -0.0670686 -0.05387783 -0.15063117
0.0035843523 -0.037374053 -0.03158846 -0.09617228 -0.11518091 -0.11112772 0.08603186 0.029805493
0.089913234 -0.109535426 0.116808906 0.11689175 0.0060641365 0.05322627 0.044732448 -0.033678643
0.07624192 -0.1477354 0.045651414 0.018578637 -0.15110281 0.1067948 0.021222442 0.1010269
0.013219986 0.081186555 0.06590161 0.15075281 0.13378479 -0.14673646 0.0711895 0.069471896
-0.13684745 -0.11791991 0.023300901 -0.14311679 0.1421378 0.008785523 0.0741916 0.11005465
-0.06401735 0.011926705 0.15116648 0.12781172 -0.0043629333 0.07898644 0.052263897 0.031176183
00000000: 5a1b 09be 1370 db3d 2c26 c9bd 9791 dcbc
00000010: dba4 783d e02f 523d f9e4 72bd 541e 11be
00000020: e697 633d ca76 1d3e d59d d73c 7bd8 c83d
00000030: 8acd d03d f6bf 56bd 7fc4 87bd 7938 13be
00000040: e153 eebd 5076 f2bd 820e 313b a52a c23d
00000050: c4bc 44bd 5146 0bbe 0537 bfbd 7dda 0d3c
00000060: b6ab 193e 7091 03bd 002f bb3d 125d 0abe
00000070: 8068 02bd 3a99 83bd c365 a7bb fc81 74bd
00000080: 0d71 043d 0fe6 093e 8e31 053e 4e33 343b
00000090: c3dc d73c cebd 1cbe 87b4 8e3a 727d 06be
000000a0: 1d68 153e ef43 f23d 3a42 883d d22b 65bd
000000b0: 2f7b 773d dbe6 203e 7a24 a3bc f7e1 d6bd
000000c0: 2473 2dbd 7625 ccbc 32a3 e23d 75f1 fb3d
000000d0: d769 e0bd 3958 573c 5482 f73d 775a ca3d
000000e0: 4bc1 18be 0488 0fbe d19d 873d e13a 14bd
000000f0: 647a 8e3d c239 213e dd20 d43d af99 a43d
00000100: eae4 babd 9574 f73d f876 02bd 0908 633d
00000110: a859 0ebe 9ebf 08bd 627f cd3d 4718 0fbd
00000120: 15cb 053e d382 7c3d 9038 0d3d f9ae debd
00000130: 5c2b f93d f19e f43c 6f04 823d f18e bfbc
00000140: 0eff f4bd 10db 9dbd 69d6 f93d e72f fc3d
00000150: 4996 b7bd 2ff4 19be 738a 68bd 7a6e 93bd
00000160: 4874 a43d b38e 683c 17a4 19be 2f01 743d
00000170: 0e4a c4bc 297a cf3d 119c eebd 0844 e03d
00000180: 71e3 0dbd 1ce7 12bd ce57 16bd 68d4 00be
00000190: 747c 64bd c3c9 76bd 2685 8dbc e7dd 89bd
000001a0: 286d 413c a008 d63d 32fb 603c 612b b4bd
000001b0: f03b cd3c 7dd6 32bd f357 ce3a 3314 6b3c
000001c0: 3cd3 a5bd 7e31 d33d 680a d0bc 1f86 e5bb
000001d0: 224a b43d fcb8 c03d c7b1 cebd b83a fb3b
000001e0: 13df 8dbc 7906 bbbd 9d48 153e fef7 d6bd
000001f0: ec03 76bd 7223 a43d 5d8c e9bd 65a3 e53d
00000200: b8f6 dd3d cdba 63bc 0364 3f3b 44b2 c33c
00000210: e18e 35bd 8fa9 123e e4c3 acbd 6ee3 bb3d
00000220: fc46 21be 5b8f 95bd b538 75bd f67b 04bd
00000230: 4a93 e93d 8559 02be 3f9d 043d 0c92 e6bd
00000240: 303e 1f3b 9861 bcbd bee2 79bd 8dcb ebbd
00000250: a573 0ebe 6c91 efbd 318b 70bd 027c 693d
00000260: a5fe 96bd 7fbe f63a 86a8 673d 44e7 d5bb
00000270: 407b 14be 7615 153e d73f ed3d 86fa fdbc
00000280: 46b5 dabd fc41 333d 3619 c0bb efc1 bfba
00000290: 7893 bc3d a2dd af3d 9bf4 583d a963 36bc
000002a0: 5315 243c 52df a53d 36d7 d93d 5b08 30bb
000002b0: caac c93d 32f3 643d eebc a53d d326 f6bd
000002c0: 16a9 fd3d e4d6 19be 9c63 34bc 8a50 0dbe
000002d0: ede8 d2bd 4b17 433d 663d f3bc a040 093e
000002e0: 875a 053d 5f8c 42bc 1a2b 09be 4ad0 03bd
000002f0: a6d0 c4bd 47c5 f8bd fbfb 5c3d 166c 983d
00000300: 2525 e43d d82c e13d 5850 f2bc 267b 94bd
00000310: bd07 66bd f7c1 9a3d 4aa0 c83b 4182 063e
00000320: 0588 c83c 26dd 9fbd 9207 fb3c f57a 9b3d
00000330: f463 253d 435b 89bd 00af 5cbd 0f3f 1abe
00000340: 74e7 6a3b 8915 19bd e762 01bd f9f5 c4bd
00000350: f8e3 ebbd ee96 e3bd 7931 b03d a62a f43c
00000360: 6e24 b83d 1c54 e0bd 8239 ef3d f164 ef3d
00000370: aab5 c63b ca03 5a3d 5f39 373d 9ef2 09bd
00000380: b924 9c3d f347 17be fafc 3a3d 3a32 983c
00000390: b2ba 1abe 3bb7 da3d b0da ad3c 31e7 ce3d
000003a0: a498 583c 2345 a63d 6cf7 863d f25e 1a3e
000003b0: e1fe 083e 1542 16be cdcb 913d 4847 8e3d
000003c0: bd21 0cbe fe7f f1bd 88e1 be3c 358d 12be
000003d0: 928c 113e 27f1 0f3c c4f1 973d 5564 e13d
000003e0: 871b 83bd 3a68 433c 63cb 1a3e 13e1 023e
000003f0: f0f6 8ebb a5c3 a13d ab12 563d 3265 ff3c

c.net.0.bias f4 [64]
-0.03609261 0.049551047 0.089862324 0.0012106107 -0.15092938 -0.066399515 0.07995329 0.03010839
-0.071865395 0.016123055 -0.14505854 -0.043489814 0.1293311 0.09674685 -0.12517981 -0.15260637
0.106054366 0.12039251 -0.12531155 -0.12380833 0.09399232 0.059726093 -0.11026579 -0.090111256
-0.10607099 -0.066404566 0.04738421 -0.07754345 -0.07908868 0.07346161 -0.071773715 0.058495313
0.052527722 0.099173285 -0.14274174 0.031639144 0.12889814 -0.077357866 0.09473613 0.07227346
-0.118530035 0.0063163876 0.12282379 0.04322697 -0.10852304 0.01418106 -0.1499206 -0.025556235
0.09838527 -0.08690465 0.081616834 -0.15131639 0.15463631 -0.10445149 -0.14708954 0.11238185
-0.019276867 -0.041542184 -0.05613684 -0.09671473 0.1373315 -0.086506076 0.059788123 -0.119945645
00000000: d8d5 13bd 0af6 4a3d bd09 b83d 5bad 9e3a
00000010: 3b8d 1abe 78fc 87bd 8dbe a33d dfa5 f63c
00000020: 2a2e 93bd 7f14 843c 3a8a 14be 6022 32bd
00000030: 5f6f 043e 3623 c63d 232f 00be d844 1cbe
00000040: 0833 d93d 5990 f63d ac51 00be 398f fdbd
00000050: 0c7f c03d 59a3 743d 08d3 e1bd 408c b8bd
00000060: bf3b d9bd 1eff 87bd f215 423d 1acf 9ebd
00000070: 3ff9 a1bd 0a73 963d 19fe 92bd c898 6f3d
00000080: 4f27 573d 5d1b cb3d e42a 12be 0c98 013d
00000090: e0fd 033e cd6d 9ebd 0405 c23d 1c04 943d
000000a0: e0bf f2bd b3f9 ce3b 0a8b fb3d c30e 313d
000000b0: 5441 debd ad57 683c c984 19be 4f5b d1bc
000000c0: 377e c93d 11fb b1bd ba26 a73d aff2 1abe
000000d0: fb58 1e3e aaea d5bd a49e 16be 7528 e63d
000000e0: 85ea 9dbc 2328 2abd beef 65bd 5f12 c6bd
000000f0: a1a0 0c3e 192a b1bd 64e4 743d 10a6 f5bd
