experiments/07_control_structure_hypothesis/checkpoints/AttitudeRate/ppo/2021-12-14__17-30-54/seed_00063/torch_save/model.pt (torch, 82448 bytes, 19 tensors)

obs_oms.mean f4 [40]
0.25282508 0.0014055826 1.0079367 0.0007783284 -0.0009103567 -0.034146253 0.99474347 -0.004726526
0.0012083207 -0.0054681706 0.008468169 -0.0063480907 -0.011615429 -0.0037089523 -0.0028685941 -0.007936976
0.40177032 0.008640427 -0.015718378 -0.027593343 0.25277758 0.0014178727 1.0078762 0.00080806756
-0.00091690983 -0.03425755 0.9947724 -0.004770356 0.0012427975 -0.0061769704 0.008877473 -0.0063330615
-0.011711961 -0.0036919073 -0.0028620807 -0.00787639 0.4014438 0.009043564 -0.015895471 -0.02808252
00000000: 4a72 813e 873b b83a 1204 813f bc08 4c3a
00000010: 01a5 6eba f1dc 0bbd 82a7 7e3f f9e0 9abb
00000020: 8460 9e3a 572e b3bb 13be 0a3c a503 d0bb
00000030: a44e 3ebc e511 73bb 06ff 3bbb 170a 02bc
00000040: d7b4 cd3e 9490 0d3c d4c3 80bc 6f0b e2bc
00000050: 106c 813e ead7 b93a 1602 813f 7fd4 533a
00000060: c75c 70ba a551 0cbd 67a9 7e3f a650 9cbb
00000070: 5de5 a23a 2f68 cabb d272 113c 9285 cfbb
00000080: 86e3 3fbc edf3 71bb bf91 3bbb f90b 01bc
00000090: 0b8a cd3e 752b 143c 3837 82bc 500d e6bc

obs_oms.std f4 [40]
0.17120682 0.17381342 0.039052486 0.053347327 0.053297784 0.061143074 0.0052656513 0.36050156
0.36782882 0.16301256 0.6101727 0.65406567 0.2783813 0.0542871 0.052693628 0.039052464
0.6864479 0.6008619 0.6260574 0.4631413 0.17140883 0.17401466 0.039457925 0.053104363
0.053071503 0.06101457 0.0052379793 0.36236253 0.369711 0.16618456 0.61048204 0.6544955
0.2781117 0.055112686 0.053571615 0.039458025 0.6864465 0.5975408 0.62276495 0.46265182
00000000: d750 2f3e 25fc 313e 80f5 1f3d ba82 5a3d
00000010: c74e 5a3d 2971 7a3d 7c8b ac3b a993 b83e
00000020: 0f54 bc3e c4ec 263e 4734 1c3f d970 273f
00000030: fe87 8e3e 265c 5e3d 46d5 573d 7af5 1f3d
00000040: 0dbb 2f3f 16d2 193f 4c45 203f db20 ed3e
00000050: cc85 2f3e e630 323e a29e 213d f683 593d
00000060: 8161 593d 6aea 793d 5ba3 ab3b 9587 b93e
00000070: c34a bd3e 492c 2a3e 8d48 1c3f 048d 273f
00000080: a864 8e3e d7bd 613d e96d 5b3d bd9e 213d
00000090: f5ba 2f3f 6ff8 183f 866d 1f3f b3e0 ec3e

pi.log_std f4 [4]
-4.5100417 -4.5100417 -4.5100417 -4.5100417
00000000: 4352 90c0 4352 90c0 4352 90c0 4352 90c0

pi.net.0.weight f4 [50, 40]
-0.08628461 0.41986552 -0.029447276 -0.0020963806 -0.07381909 -0.27338192 0.30729792 -0.21198651
-0.19886076 -0.037047595 0.02333293 0.0036781863 0.066035576 0.056618765 0.1370426 -0.02636681
0.042324528 0.2865306 -0.0050649554 0.120582186 -0.049417496 0.25565138 -0.16741078 0.13738668
0.04596664 -0.10451791 0.3251085 -0.09969027 0.0018883491 -0.04922311 -0.03587491 -0.2446705
-0.16804656 0.23518643 -0.08500956 0.22554988 0.12422635 -0.18212584 -0.009684704 -0.086600855
-0.006733984 0.1649312 -0.03599518 0.0016086826 0.16807233 -0.19914335 0.003248914 0.19675048
-0.0139214415 -0.049060967 0.11226628 0.25704297 0.25403446 0.0967043 0.25749147 0.02275942
-0.050943084 0.117794 0.26027325 0.18619959 -0.098481424 -0.004259737 -0.009782128 -0.047875755
0.12640113 -0.07104437 -0.020653289 0.1690013 -0.13950308 0.07263961 0.11885082 0.16191551
0.1897334 0.27815413 0.25960207 0.048872285 0.022172488 -0.030975996 0.30976135 -0.2777792
0.14499167 0.09002873 0.07675266 -0.17924754 -0.072950944 0.17030016 -0.075388096 -0.31205922
0.1138109 0.113243155 -0.04093759 -0.008895659 0.01751467 0.1459968 0.19919668 -0.06331053
-0.025338393 0.26555893 -0.0763873 0.08123259 0.18230152 -0.14934534 0.11772199 0.02516758
-0.031648383 0.034392875 -0.23737794 -0.18726788 0.23210886 -0.2308793 0.12683564 -0.05140987
0.15275435 0.1779387 0.17448606 0.14494787 -0.29381627 -0.04596168 -0.10858202 0.022793183
0.34782743 0.080705844 -0.1775955 -0.3724493 0.13889894 0.013439828 0.027105449 0.29957232
0.23462173 -0.117482744 -0.11961527 -0.036956545 -0.14031118 -0.17140931 -0.34646264 -0.032899376
-0.047939166 0.146117 0.004602135 -0.07965567 0.15537615 -0.104107395 0.04148915 -0.47188133
0.05760256 -0.06631028 0.0016797114 0.4065978 0.00044826424 0.013397564 -0.22383204 0.20559718
0.013079254 0.025258197 -0.13638607 0.18765543 -0.09115327 -0.020009633 0.035191227 0.073795065
0.3091885 -0.08792935 -0.16660991 -0.0906178 -0.25659016 -0.032215733 -0.13450949 0.13440461
0.24036822 0.1798765 0.10621401 -0.025980234 0.16678916 0.071260765 -0.019618362 -0.054905668
-0.11989458 -0.15166584 -0.06275878 -0.16452731 0.051259767 -0.075546145 -0.19692704 -0.14474049
-0.2713941 -0.10390493 -0.17731711 0.1980119 0.12676884 0.018746471 0.14162862 -0.009015182
-0.015225067 0.037433136 -0.20177415 -0.07655183 0.17171372 -0.16931911 0.20008719 0.12408871
0.1373485 -0.41821495 -0.052258402 -0.00813978 0.27659607 -0.21543184 0.021414395 0.16417427
-0.24349925 -0.0038460998 0.13183443 0.061622344 0.15581375 -0.14251892 0.029951489 -0.03965129
-0.045972962 0.08911618 -0.10689277 0.15094213 0.01267389 -0.42958483 0.16183524 0.16992292
0.31741044 -0.14550246 -0.120914824 0.31288692 -0.17784008 0.12267444 0.13993466 0.10345332
0.009948069 -0.15142508 0.040420253 0.038059726 -0.07791375 0.05830392 0.068462245 -0.08769622
-0.37159008 0.0062780883 -0.08786575 0.35800618 -0.2328874 -0.023950225 0.020758824 -0.14274496
-0.33703637 0.03925482 -0.095038936 -0.0070931646 -0.055634808 -0.11619651 0.3443184 -0.14127243
00000000: fcb5 b0bd 9df8 d63e 6a3b f1bc 6e63 09bb
00000010: 772e 97bd b7f8 8bbe 2756 9d3e fe12 59be
00000020: 28a2 4bbe 38bf 17bd b324 bf3c ba0d 713b
00000030: a93d 873d 14e9 673d e554 0c3e 35ff d7bc
00000040: 7c5c 2d3d 24b4 923e edf7 a5bb cbf3 f63d
00000050: 006a 4abd bde4 823e bb6d 2bbe 18af 0c3e
00000060: 8447 3c3d 7c0d d6bd 9f74 a63e 6a2a ccbd
00000070: 7b82 f73a 2c9e 49bd 92f1 12bd e78a 7abe
00000080: 6614 2cbe b6d4 703e 7e19 aebd 8cf6 663e
00000090: 626a fe3d 327f 3abe 98ac 1ebc ca5b b1bd
000000a0: c1a8 dcbb b9e3 283e af6f 13bd 6eda d23a
000000b0: 271b 2c3e 3cec 4bbe bbeb 543b f578 493e
000000c0: c216 64bc 27f4 48bd ddeb e53d 239b 833e
000000d0: ce10 823e e70c c63d ecd5 833e f771 ba3c
000000e0: b2a9 50bd fb3d f13d 8942 853e 1bab 3e3e
000000f0: a1b0 c9bd 4495 8bbb 3845 20bc 5e19 44bd
00000100: 4c6f 013e b67f 91bd 1631 a9bc ad0e 2d3e
00000110: e5d9 0ebe 13c4 943d 0f68 f33d 2ecd 253e
00000120: 7949 423e 386a 8e3e 90ea 843e 4e2e 483d
00000130: 14a3 b53c 5fc1 fdbc 0a99 9e3e 1339 8ebe
00000140: b278 143e fc60 b83d 8030 9d3d ab8c 37be
00000150: 4e67 95bd 2a63 2e3e 1365 9abd 3ac6 9fbe
00000160: b015 e93d 07ec e73d 2dae 27bd 19bf 11bc
00000170: ed7a 8f3c 2f80 153e 37fa 4b3e f3a8 81bd
00000180: 7692 cfbc 57f7 873e f270 9cbd 465d a63d
00000190: 40ad 3a3e fced 18be 3a18 f13d 3e2c ce3c
000001a0: bca1 01bd 8bdf 0c3d 3413 73be 27c3 3fbe
000001b0: f2ad 6d3e a06b 6cbe 34e1 013e 2893 52bd
000001c0: a36b 1c3e 9035 363e 79ac 323e 376d 143e
000001d0: 166f 96be 5142 3cbd 4060 debd c5b8 ba3c
000001e0: 7016 b23e 1b49 a53d 98db 35be adb1 bebe
000001f0: 863b 0e3e b932 5c3c 3f0c de3c 8b61 993e
00000200: ae40 703e cb9a f0bd daf8 f4bd bf5f 17bd
00000210: bcad 0fbe ec85 2fbe 8d63 b1be 7fc1 06bd
00000220: dc5b 44bd b29f 153e 82cd 963b 8322 a3bd
00000230: ed1a 1f3e 4236 d5bd 87f0 293d 6e9a f1be
00000240: a9f0 6b3d afcd 87bd c329 dc3a 962d d03e
00000250: 0205 eb39 7581 5b3c 3a34 65be 1188 523e
00000260: 5e4a 563c 47ea ce3c caa8 0bbe bf28 403e
00000270: 91ae babd 3eeb a3bc ad24 103d de21 973d
00000280: f44d 9e3e 4e14 b4bd ca9b 2abe d395 b9bd
00000290: c95f 83be a5f4 03bd dbbc 09be 5da1 093e
000002a0: 1623 763e 8c31 383e bb86 d93d 80d4 d4bc
000002b0: c7ca 2a3e 2af1 913d b0b6 a0bc c4e4 60bd
000002c0: 4a8b f5bd 4a4e 1bbe ad87 80bd d979 28be
000002d0: c3f5 513d f0b7 9abd 3ea7 49be da36 14be
000002e0: 2bf4 8abe 1ccc d4bd 9e92 35be a2c3 4a3e
000002f0: b1cf 013e 3392 993c 1807 113e 6ab4 13bc
00000300: 8f72 79bc 7d53 193d e29d 4ebe 35c7 9cbd
00000310: b9d5 2f3e fd61 2dbe a8e3 4c3e 3922 fe3d
00000320: 16a5 0c3e 4520 d6be e80c 56bd b65c 05bc
00000330: 009e 8d3e 2a9a 5cbe 3e6d af3c 4d1d 283e
00000340: de57 79be d90e 7cbb 9bff 063e b667 7c3d
00000350: a48d 1f3e 7bf0 11be d35c f53c 6469 22bd
00000360: 254e 3cbd 8b82 b63d 99ea dabd 9390 1a3e
00000370: 26a6 4f3c 8bf2 dbbe 23b8 253e 4600 2e3e
00000380: 9f83 a23e 99fe 14be 31a2 f7bd b732 a03e
00000390: b61b 36be bd3c fb3d 084b 0f3e 56df d33d
000003a0: 3afd 223c 2d0f 1bbe b58f 253d 84e4 1b3d
000003b0: 3f91 9fbd 17d0 6e3d ef35 8c3d 139a b3bd
000003c0: 0e41 bebe 6cb8 cd3b f5f2 b3bd 964c b73e
000003d0: 097a 6ebe 4333 c4bc 690e aa3c bc2b 12be
000003e0: 0890 acbe aac9 203d c6a3 c2bd c76d e8bb
000003f0: 53e1 63bd 70f8 edbd 804a b03e b8a9 10be

pi.net.0.bias f4 [50]
0.24223757 -0.18472098 0.32005966 0.124359906 -0.10707845 0.21866742 -0.6344935 0.29666582
0.32340065 -0.08498425 -0.11868299 0.072626464 0.18295395 0.4446725 0.22569251 0.1713462
-0.078176945 0.17818801 0.17065205 -0.008232175 -0.12790985 0.11530117 0.023486305 0.07635011
0.40042967 0.07186276 -0.03564083 -0.30687732 0.34424752 0.1268196 0.096926555 0.40059188
0.085783824 0.11698019 0.20859513 0.15518819 0.14280161 0.21263056 0.12912644 0.2213942
-0.18511143 -0.07537128 -0.20910992 0.30876267 -0.17034596 -0.19952962 0.29242864 0.24230921
0.017057775 -0.17749414
00000000: 200d 783e 7f27 3dbe dcde a33e 68b0 fe3d
00000010: f24b dbbd 5aea 5f3e 2b6e 22bf 95e4 973e
00000020: c594 a53e 390c aebd 1110 f3bd 2fbd 943d
00000030: 4858 3b3e 1dac e33e f01b 673e 6175 2f3e
00000040: 3c1b a0bd eb76 363e 69bf 2e3e 3fe0 06bc
00000050: cdfa 02be 0523 ec3d 5a66 c03c 725d 9c3d
00000060: 1e05 cd3e c82c 933d 1efc 11bd 061f 9dbe
00000070: 3641 b03e ffdc 013e 6e81 c63d 611a cd3e
00000080: 6eaf af3d 4f93 ef3d f699 553e a7e9 1e3e
00000090: 963a 123e d3bb 593e b939 043e 29b5 623e
000000a0: da8d 3dbe 425c 9abd e920 56be 2416 9e3e
000000b0: 2c6f 2ebe 7e51 4cbe 35b9 953e e81f 783e
000000c0: bfbc 8b3c 06c1 35be

pi.net.2.weight f4 [50, 50]
0.077813014 -0.16847292 0.05250235 0.024296604 0.1645841 -0.008217018 0.3062408 0.06408615
-0.0007544284 -0.1106618 -0.16960526 0.20668906 -0.0010192656 -0.106449924 0.26061717 0.11173085
-0.035757653 0.18428005 0.0316631 0.10974092 -0.07781593 -0.11733335 -0.06739794 0.2106764
0.08202244 -0.07259236 -0.08856869 0.003791037 0.15712073 -0.14047232 0.13554579 0.21538018
0.07238539 0.15969017 -0.01494678 0.14880244 -0.0925669 -0.2203558 0.031778052 0.080119185
0.121727206 0.11303366 0.07050181 0.066819325 -0.13906299 0.019602811 -0.12006645 -0.06743204
0.029175233 -0.011778451 -0.1746869 0.16069156 0.027467607 0.030942265 -0.1289554 0.17184441
0.1930027 -0.13776116 -0.0300234 0.2013544 0.08757126 0.094368234 -0.032344628 0.040650796
0.03000065 2.3544115e-05 0.013601487 0.028425237 0.050220326 0.039475277 0.11460112 0.06890312
-0.040168986 0.12293751 0.2661862 0.18892173 0.15355656 0.051505636 -0.11368537 -0.081936374
0.09336691 0.07574318 0.0047146454 -0.028315866 -0.029118173 -0.007158592 0.2189254 0.06613631
-0.0027504957 0.13097863 0.15382577 0.020576168 0.015504407 -0.06444027 0.016195988 0.14609924
0.1279253 0.19777805 0.21570596 0.0735431 -0.09169224 -0.26636174 -0.057647135 0.15615653
0.2082019 0.135225 0.07981566 0.1543923 -0.018259808 -0.030164393 0.026228683 0.10112348
0.09085537 -0.10414344 0.014444441 0.20903485 0.035587225 0.13567658 -0.053652123 0.14641461
-0.013584565 0.1362575 0.04920198 0.26963958 -0.07729975 -0.03166107 -0.11501071 -0.13228834
-0.05532474 -0.12987898 -0.07678533 -0.053156585 -0.008158874 0.14783712 -0.05431122 0.033838198
0.06497773 -0.10008761 0.0057850615 0.07810614 -0.14919503 0.2521741 -0.39260775 -0.07748997
-0.014292648 0.075252645 -0.12501931 0.02437711 0.005463544 0.17386389 0.12221286 -0.028906662
-0.13375543 0.062135264 -0.088853456 -0.5006101 -0.4651505 0.055936635 0.0944613 0.03752933
0.09266581 -0.012490519 -0.059721857 0.24357605 0.1452634 0.13398117 0.05320956 0.019654961
0.13283594 0.04046488 0.08824608 0.13010748 0.09095083 -0.09485002 0.041181214 0.07689938
0.1432215 -0.056393974 0.053500183 -0.24317701 -0.1213878 0.053475462 -0.107389085 -0.2557492
0.10028403 0.049972054 0.127951 -0.022705955 0.06348198 0.21190225 0.02732708 -0.21147485
0.103388086 0.21769907 0.00027468588 -0.08485318 -0.024024315 -0.4901367 -0.0025396638 0.17680459
-0.11319046 0.18363675 -0.029099751 0.018064372 0.019332683 -0.07677361 0.13375372 0.0072164405
0.03354665 0.26470575 0.22160737 0.042059828 -0.17793825 0.028335666 -0.045882255 0.11238872
-0.011153766 -0.029271122 -0.16043481 0.080815755 0.23097822 0.016983056 -0.025114961 -0.050343152
0.04140735 -0.21336997 0.22207376 -0.1892916 0.050787624 0.046417728 -0.08204521 0.07671453
0.08502899 0.06512092 -0.05800326 0.2262451 0.13495912 0.09228801 -0.0019824952 -0.0039000988
0.13107651 -0.031775348 -0.05228438 0.12269233 0.19195461 0.22185172 -0.09721071 -0.010918598
0.06468146 -0.013020792 -0.115567125 0.17453337 0.01171019 0.103276365 -0.21216337 -0.070067376
00000000: 6e5c 9f3d 2a84 2cbe b40c 573d ac09 c73c
00000010: bc88 283e aca0 06bc 98cb 9c3e 993f 833d
00000020: d5c4 45ba a7a2 e2bd 00ad 2dbe 4ca6 533e
00000030: e198 85ba 6b02 dabd 9d6f 853e 25d3 e43d
00000040: 9e76 12bd e9b3 3c3e 2bb1 013d d9bf e03d
00000050: f55d 9fbd 784c f0bd ee07 8abd 8ebb 573e
00000060: 62fb a73d 4eab 94bd 8063 b5bd 0c73 783b
00000070: 42e4 203e fad7 0fbe 84cc 0a3e 9f8c 5c3e
00000080: cb3e 943d d285 233e 57e3 74bc ab5f 183e
00000090: b793 bdbd f3a4 61be b429 023d 8715 a43d
000000a0: 1d4c f93d 317e e73d 4163 903d 92d8 883d
000000b0: 8766 0ebe 1396 a03c 66e5 f5bd cf19 8abd
000000c0: e600 ef3c 67fa 40bc 1fe1 32be 548c 243e
000000d0: bf03 e13c a27a fd3c e20c 04be fbf7 2f3e
000000e0: 80a2 453e 4311 0dbe a2f3 f5bc d92f 4e3e
000000f0: 9058 b33d 2244 c13d cd7b 04bd 7381 263d
00000100: ecc3 f53c 9a80 c537 c5d8 5e3c 0bdc e83c
00000110: d4b3 4d3d d4b0 213d feb3 ea3d 141d 8d3d
00000120: 3c88 24bd a9c6 fb3d 8f49 883e b374 413e
00000130: ee3d 1d3e 93f7 523d e0d3 e8bd 42ce a7bd
00000140: 2737 bf3d 3e1f 9b3d 507d 9a3b adf6 e7bc
00000150: 3c89 eebc 9f92 eabb fb2d 603e 7972 873d
00000160: a941 34bb 431f 063e 8184 1d3e 5a8f a83c
00000170: 3206 7e3c 43f9 83bd 73ad 843c 0a9b 153e
00000180: dafe 023e 5486 4a3e 06e2 5c3e c49d 963d
00000190: 24c9 bbbd 9160 88be 671f 6cbd 7fe7 1f3e
000001a0: e132 553e 6c78 0a3e 6576 a33d 0419 1e3e
000001b0: 9895 95bc 511b f7bc 89dd d63c d419 cf3d
000001c0: 6112 ba3d 2849 d5bd 60a8 6c3c 3b0d 563e
000001d0: e9c3 113d cdee 0a3e 54c2 5bbd b6ed 153e
000001e0: cc91 5ebc 1687 0b3e 0488 493d 330e 8a3e
000001f0: 554f 9ebd 0aaf 01bd bc8a ebbd 9876 07be
00000200: 329c 62bd fffe 04be a141 9dbd b8ba 59bd
00000210: ccac 05bc 9d62 173e 7175 5ebd ec99 0a3d
00000220: 0b13 853d bcfa ccbd 9d90 bd3b 1df6 9f3d
00000230: 95c6 18be f71c 813e e203 c9be 10b3 9ebd
00000240: b62b 6abc 0f1e 9a3d 1005 00be 81b2 c73c
00000250: 8707 b33b 6009 323e bc4a fa3d aacd ecbc
00000260: 2ff7 08be 8c81 7e3d cdf8 b5bd fc27 00bf
00000270: 3528 eebe d01d 653d ed74 c13d 5bb8 193d
00000280: 92c7 bd3d 09a5 4cbc e89e 74bd 006c 793e
00000290: eebf 143e 5c32 093e 45f2 593d 7103 a13c
000002a0: 2506 083e 81be 253d 5cba b43d e53a 053e
000002b0: 6e44 ba3d ba40 c2bd a2ad 283d 6c7d 9d3d
000002c0: a8a8 123e 5efd 66bd 0223 5b3d 6503 79be
000002d0: 2b9a f8bd 1609 5b3d cfee dbbd 8ff1 82be
000002e0: b761 cd3d 7faf 4c3d 9605 033e d701 babc
000002f0: d702 823d e7fc 583e 0add df3c dd8c 58be
00000300: 22bd d33d 81ec 5e3e b703 9039 81c7 adbd
00000310: a4ce c4bc 33f3 fabe 7d70 26bb 430c 353e
00000320: 66d0 e7bd 460b 3c3e 9a62 eebc bcfb 933c
00000330: 935f 9e3c 7c3b 9dbd bcf6 083e e477 ec3b
00000340: 3668 093d 8387 873e 0bed 623e ed46 2c3d
00000350: 7235 36be 3320 e83c 08ef 3bbd 0f2c e63d
00000360: 49be 36bc fec9 efbc 0649 24be bb82 a53d
00000370: 8e85 6c3e 0d20 8b3c e4bd cdbc 9f34 4ebd
00000380: c19a 293d a87d 5abe 4e67 633e a8d5 41be
00000390: af06 503d 8420 3e3d 5207 a8bd 821c 9d3d
000003a0: ae23 ae3d 1e5e 853d d494 6dbd ccac 673e
000003b0: b932 0a3e 7f01 bd3d c0ec 01bb cd98 7fbb
000003c0: ec38 063e de26 02bd 2528 56bd 1e46 fb3d
000003d0: c08f 443e 192d 633e 6916 c7bd ebe3 32bc
000003e0: b777 843d 2955 55bc 75ae ecbd e0b8 323e
000003f0: 19dc 3f3c 8f82 d33d 5b41 59be 7c7f 8fbd

pi.net.2.bias f4 [50]
-0.06983664 -0.027023347 -0.047732938 0.16141222 -0.028635561 -0.05606799 0.043213088 0.165855
-0.07535473 0.05335852 0.054131657 0.24903229 -0.017388621 -0.035475448 0.034060292 0.006289351
-0.13867725 0.171114 -0.14765887 0.11915924 -0.094623595 -0.082621224 0.10950281 0.20739672
-0.03447447 0.077858746 0.1877286 -0.03135777 -0.00092429743 0.15230654 0.037691962 0.002425392
-0.030561898 -0.20908652 0.032169353 0.124422304 0.16142939 -0.044327464 0.12633717 0.11564581
0.15454401 0.04040138 -0.08164759 0.1795994 0.0838641 -0.09893347 0.13891189 -0.23452975
0.17577305 -0.09340181
00000000: 8306 8fbd 1160 ddbc 9d83 43bd 3f49 253e
00000010: 2095 eabc 8ca7 65bd 3500 313d e5d5 293e
00000020: 9553 9abd 778e 5a3d 28b9 5d3d 5202 7f3e
00000030: 9572 8ebc b44e 11bd ce82 0b3d e616 ce3b
00000040: 6901 0ebe 8238 2f3e e333 17be c209 f43d
00000050: 04ca c1bd 5135 a9bd 0243 e03d ce5f 543e
00000060: 1a35 0dbd 6874 9f3d ed3b 403e 0171 00bd
00000070: 8d4c 72ba 3ff6 1b3e e362 1a3d 53f3 1e3b
00000080: f25c fabc c71a 56be 03c4 033d 1fd1 fe3d
00000090: bf4d 253e b790 35bd 885e 013e b6d7 ec3d
000000a0: c940 1e3e eb7b 253d da36 a7bd e8e8 373e
000000b0: f1c0 ab3d a29d cabd eb3e 0e3e 9128 70be
000000c0: dafd 333e 7349 bfbd

pi.net.4.weight f4 [4, 50]
-0.14442444 0.14063343 -0.2845913 -0.06275895 0.25848365 -0.11878309 -0.29255003 -0.24957098
0.023078768 -0.18967953 -0.17053401 0.15063952 0.2326469 0.46865144 -0.039011378 -0.31013373
-0.45537618 0.082477845 -0.27886564 -0.11187008 0.010146567 -0.22370069 0.31847417 0.06647684
0.09936563 0.093051456 0.33073136 0.1815882 0.3250645 0.29671183 -0.34701297 0.5600535
-0.16629036 0.20746629 -0.269912 -0.092963785 -0.1733735 -0.03109957 -0.22200365 0.3441407
-0.0052206325 -0.012419522 -0.2198533 -0.25608456 0.08493871 -0.24315539 -0.5217043 -0.3108658
0.35430348 0.1229789 0.29004577 -0.06806605 0.09100347 0.098586604 0.083112374 -0.24694796
0.19366218 0.1312587 -0.28748512 0.07085428 -0.5246714 0.0036667893 -0.25639367 0.09595244
-0.012012724 0.008747627 -0.40099692 0.08297266 0.5016981 -0.29433712 -0.29954982 0.3208583
-0.0956365 0.39211234 0.055217296 0.38455358 0.1665783 -0.26002997 0.42278972 0.3631931
-0.40891382 0.30485192 -0.021811686 -0.40030658 0.21266133 -0.47643617 0.021689398 0.3474004
-0.2527578 0.08051804 0.13842939 -0.16398107 -0.35641003 0.15268578 0.044580545 -0.364963
0.21431683 0.09614538 -0.08870048 0.0014101642 -0.052241538 -0.27533105 0.16414176 0.56594133
0.112212434 -0.13471931 0.071263395 0.34636706 0.64137566 0.28056613 -0.6028027 0.46427166
0.329645 0.08895341 0.45285687 -0.41134024 -0.0071029924 -0.20761637 0.13099894 0.37011144
0.37127155 0.2799282 -0.10236533 0.30561942 -0.007360878 -0.269384 -0.29223022 0.027566632
0.2017712 -0.60568154 -0.1504249 0.10076319 -0.08976982 -0.048978522 0.120527744 0.2039517
-0.26018628 0.18883331 0.20522088 -0.07289036 -0.1336393 -0.18199061 0.33353096 -0.33721754
-0.07077596 0.27120277 0.22012308 0.5749874 -0.11760972 0.4015665 0.01311769 -0.02270328
0.30999318 -0.23401102 -0.12461924 -0.14798269 -0.4011612 0.23872615 -0.29629347 0.14543027
-0.048188575 -0.011684811 0.06879431 -0.10173946 0.18165849 0.10118629 0.30027485 0.0362972
0.09263234 0.048249632 0.41707414 -0.17774537 0.02344867 -0.1658786 0.44106382 0.3564383
0.19066103 0.16113056 0.1426227 -0.09387634 -0.072075695 -0.15988275 0.50296783 -0.45448002
0.27361184 0.108034424 -0.21962248 -0.19433579 0.43671617 0.18517831 0.034223054 -0.25593823
0.23304097 -0.24318312 -0.19314757 0.06840346 0.0821966 -0.30116403 0.25731483 -0.074532434
00000000: 00e4 13be 3602 103e f3b5 91be c487 80bd
00000010: f857 843e 8c44 f3bd 1ec9 95be 898f 7fbe
00000020: af0f bd3c 5a3b 42be 78a0 2ebe 3f41 1a3e
00000030: fd3a 6e3e 15f3 ef3e 65ca 1fbd d9c9 9ebe
00000040: 1127 e9be 25ea a83d 7ac7 8ebe 241c e5bd
00000050: c93d 263c cb11 65be 0c0f a33e 0225 883d
00000060: 3580 cb3d c391 be3d 9f55 a93e 42f2 393e
00000070: db6e a63e 9dea 973e afab b1be ab5f 0f3f
00000080: 0548 2abe 0b72 543e e831 8abe cc63 bebd
00000090: d388 31be 87c4 febc ed54 63be 3633 b03e
000000a0: d711 abbb 407b 4bbc 3921 61be 841d 83be
000000b0: 59f4 ad3d bafd 78be 6a8e 05bf cd29 9fbe
000000c0: 4467 b53e 5ddc fb3d e180 943e 3766 8bbd
000000d0: 0760 ba3d c6e7 c93d d236 aa3d eddf 7cbe
000000e0: 614f 463e ae68 063e 4031 93be 0c1c 913d
000000f0: dd50 06bf 844e 703b 0846 83be b682 c43d
00000100: 04d1 44bc 3552 0f3c 784f cdbe 92ed a93d
00000110: 496f 003f 5bb3 96be 985e 99be 8a47 a43e
00000120: 12dd c3bd f3c2 c83e 882b 623d 35e4 c43e
00000130: 8093 2a3e a622 85be e577 d83e 72f4 b93e
00000140: 275d d1be 8d15 9c3e 6cae b2bc fcf4 ccbe
00000150: e4c3 593e 71ef f3be f7ad b13c 77de b13e
00000160: 7869 81be a4e6 a43d 6fc0 0d3e a7ea 27be
00000170: 607b b6be a959 1c3e 179a 363d 6edc babe
00000180: df75 5b3e dee7 c43d 99a8 b5bd 42d5 b83a
00000190: 39fb 55bd 31f8 8cbe c714 283e 88e1 103f
000001a0: a2cf e53d dcf3 09be 8bf2 913d 0657 b13e
000001b0: 3231 243f 5da6 8f3e 4751 1abf 04b5 ed3e
000001c0: 3bc7 a83e 352d b63d dbdc e73e 309b d2be
000001d0: 38c0 e8bb 6399 54be 9624 063e 3f7f bd3e
000001e0: 4e17 be3e c052 8f3e eaa4 d1bd 267a 9c3e
000001f0: 8533 f1bb b3ec 89be 339f 95be 6bd3 e13c
00000200: 1c9d 4e3e f20d 1bbf fc08 1abe ee5c ce3d
00000210: 3dd9 b7bd b49d 48bd 40d7 f63d b7d8 503e
00000220: 2337 85be 855d 413e 6c25 523e 8b47 95bd
00000230: bed8 08be bf5b 3abe 92c4 aa3e c7a7 acbe
00000240: fdf2 90bd 17db 8a3e f267 613e 6032 133f
00000250: 5ddd f0bd 209a cd3e 94eb 563c 3bfc b9bc
00000260: 6db7 9e3e 96a0 6fbe 5f38 ffbd c688 17be
00000270: 0065 cdbe a174 743e c7b3 97be aceb 143e
00000280: 6261 45bd a671 3fbc 08e4 8c3d c75c d0bd
00000290: af04 3a3e c23a cf3d a0bd 993e 5fac 143d
000002a0: 06b6 bd3d 68a1 453d be8a d53e e202 36be
000002b0: 6d17 c03c 14dc 29be 1ed3 e13e 157f b63e
000002c0: a53c 433e 69ff 243e af0b 123e 3d42 c0bd
000002d0: 6c9c 93bd 4eb8 23be 80c2 003f 9bb1 e8be
000002e0: da16 8c3e 2741 dd3d b7e4 60be f6ff 46be
000002f0: 4399 df3e 629f 3d3e 792d 0c3d 560a 83be
00000300: 4ba2 6e3e ff04 79be 7ac8 45be 1d17 8c3d
00000310: b156 a83d 2c32 9abe c5be 833e 76a4 98bd

pi.net.4.bias f4 [4]
0.014429416 0.09068314 -0.06266305 0.0051183887
00000000: 5b69 6c3c 15b8 b93d 7c55 80bd 28b8 a73b

v.net.0.weight f4 [64, 40]
-0.07225843 -0.13365546 0.012942114 -0.06396577 -0.08637651 0.87085694 -0.028439434 -0.01374989
-0.06289916 0.10330277 0.046100926 -0.005891796 0.11370203 0.050647974 -0.09000635 0.011012385
0.073010296 0.04253364 0.058017455 -0.0026291334 0.2063185 -0.31752944 0.10066538 -0.2677414
-0.09226215 0.99106985 -0.0894889 0.08081415 -0.06910571 0.07510389 -0.020568227 0.04728119
0.124105096 0.00084392924 -0.15025276 -0.035563473 0.12261148 0.036163334 0.078695565 0.006505449
-0.36928287 0.36012858 0.036995534 -0.036760475 -0.13816175 -0.053013317 -0.029311974 -0.05706992
-0.15647718 0.027354456 0.001707299 0.021640748 -0.03147018 -0.14258952 -0.095647044 -0.003261348
-0.0106912255 0.022609375 0.04855481 0.007182333 -0.15006311 0.4202402 0.04312851 -0.17373013
0.15767966 0.051635724 -0.09738245 0.09910087 -0.20780566 -0.076340914 0.025490055 0.02115657
-0.009073583 -0.14048791 0.057174407 0.023110533 0.004040413 0.01893113 0.04962471 0.019335777
0.121755295 -0.025899502 0.084562786 0.016152732 0.124368414 0.052805323 -0.003561536 -0.0044112746
0.14107625 0.14347227 0.05778931 -0.1692674 -0.047129054 0.27574795 -0.0064091384 -0.14094704
0.038932405 -0.002602735 -0.012001632 0.04274772 0.014233791 -0.10029353 0.074968524 -0.10708009
-0.01938635 -0.09732174 -0.105034925 -0.15974493 -0.030620953 0.20296386 -0.03805589 0.22705165
-0.051001284 0.2902435 0.0767493 -0.16317493 0.09791685 0.013173219 0.0062098317 0.06316813
0.03323556 0.92637676 0.11224649 -0.01185356 -0.1280056 -0.33064502 -0.004513278 0.07683411
0.12560153 -0.102879345 -0.016411988 0.12350836 -0.005798252 -0.28725266 -0.001437825 0.16617781
-0.027725479 0.024372859 0.012752884 0.070547745 0.12731148 1.0877252 0.1602934 0.057155505
0.0047369967 -0.0411814 -0.063701935 0.29028723 0.10822127 -0.100719415 -0.03342467 -0.12688625
-0.021150373 -0.2941209 -0.041375823 0.09371572 -0.03637333 0.08564901 -0.01720449 0.07046378
-0.34535304 -0.6543529 0.08839283 -0.53034514 -0.16313843 0.036772933 0.032826316 0.19487801
0.8469984 0.024093602 0.20084864 0.010917446 -0.00638337 -0.15441732 -0.72714174 0.044261873
0.006448647 -0.0519338 -0.039233007 0.02851731 -0.42466342 -0.5507008 0.1306098 -0.52453136
0.008485883 0.038755443 -0.09645568 0.16736756 1.0143414 0.12877391 -0.28295714 -0.02048983
-0.0014311861 -0.10528467 -0.78193724 0.10321608 0.022072101 -0.046169043 -0.015406433 0.028070664
0.26220876 1.1148769 -0.110706866 -0.220784 -0.17665054 0.014869788 0.016926283 0.04608897
0.12437559 0.13587247 0.0040359925 0.022437444 0.0066105877 -0.19595326 0.03078643 0.09517508
-0.006787786 -0.006867893 0.050061192 -0.05210502 0.2551935 1.2130139 0.121123925 -0.18199581
0.16747907 -0.0043173074 0.14077857 -0.014266534 0.09742833 -0.104675435 0.008913707 -0.044833258
-0.003723787 0.103695914 -0.13753016 0.1854362 0.038786054 0.0033642042 0.05725567 -0.024969302
-0.07071087 0.15806302 -0.06378781 -0.18489306 0.12977332 0.20487384 0.070068635 0.19315915
0.0672799 -0.0875059 -0.07477639 -0.19099072 0.07108243 0.5317314 0.042919386 0.38802847
00000000: 3afc 93bd fadc 08be 290b 543c 7c00 83bd
00000010: 2be6 b0bd 7bf0 5e3f d1f9 e8bc 3847 61bc
00000020: 46d1 80bd 6790 d33d 53d4 3c3d f80f c1bb
00000030: 9cdc e83d 4074 4f3d 4055 b8bd 4a6d 343c
00000040: 6c86 953d c137 2e3d b6a3 6d3d 8a4d 2cbb
00000050: 2845 533e 3893 a2be a729 ce3d 6715 89be
00000060: f0f3 bcbd c1b6 7d3f f545 b7bd e481 a53d
00000070: 4b87 8dbd 11d0 993d b37e a8bc eca9 413d
00000080: d02a fe3d 223b 5d3a dcdb 19be 01ab 11bd
00000090: ba1b fb3d 0120 143d 242b a13d a92b d53b
000000a0: a512 bdbe c662 b83e a188 173d 2792 16bd
000000b0: 467a 0dbe 7e24 59bd aa1f f0bc 26c2 69bd
000000c0: 8e3b 20be 7416 e03c 73c7 df3a f047 b13c
000000d0: e0e6 00bd fd02 12be 99e2 c3bd 57bc 55bb
000000e0: 402a 2fbc 4c37 b93c 69e1 463d c759 eb3b
000000f0: 25aa 19be b929 d73e 85a7 303d 50e6 31be
00000100: c776 213e fb7f 533d 7370 c7bd 66f5 ca3d
00000110: 02cb 54be a058 9cbd 85d0 d03c 8b50 ad3c
00000120: 5ea9 14bc 10dc 0fbe b62f 6a3d 4d52 bd3c
00000130: 7165 843b 7515 9b3c 4843 4b3d 1066 9e3c
00000140: d75a f93d 312b d4bc 412f ad3d bc52 843c
00000150: deb4 fe3d 654a 583d a968 69bb 748c 90bb
00000160: 4b76 103e 65ea 123e 7cb4 6c3d 6f54 2dbe
00000170: 650a 41bd d62e 8d3e c003 d2bb 6c54 10be
00000180: 9677 1f3d a692 2abb 7ea2 44bc 3c18 2f3d
00000190: d934 693c b266 cdbd 1989 993d ce4c dbbd
000001a0: 1fd0 9ebc 9f50 c7bd 8d1c d7bd 2d94 23be
000001b0: cbd8 fabc c2d5 4f3e 7ee0 1bbd 3a80 683e
000001c0: b9e6 50bd cc9a 943e bd2e 9d3d 5417 27be
000001d0: a188 c83d 7cd4 573c d87b cb3b 4b5e 813d
000001e0: 0322 083d 0727 6d3f 7de1 e53d 6f35 42bc
000001f0: e613 03be 4e4a a9be 1fe4 93bb 345b 9d3d
00000200: b09d 003e 68b2 d2bd 6f72 86bc f3f1 fc3d
00000210: 43ff bdbb c812 93be 6775 bcba 842a 2a3e
00000220: 8b20 e3bc 97a9 c73c 79f1 503c 567b 903d
00000230: f15d 023e 943a 8b3f f423 243e e41b 6a3d
00000240: cf38 9b3b d4ad 28bd 2976 82bd 87a0 943e
00000250: 1da3 dd3d fb45 cebd 4fe8 08bd 78ee 01be
00000260: 8c43 adbc 0497 96be b279 29bd 07ee bf3d
00000270: 33fc 14bd c068 af3d 6ef0 8cbc 504f 903d
00000280: 1dd2 b0be ac83 27bf 4d07 b53d b3c4 07bf
00000290: c30d 27be 379f 163d e374 063d 1a8e 473e
000002a0: e3d4 583f f25f c53c 44ab 4d3e 16df 323c
000002b0: 972b d1bb 931f 1ebe f625 3abf f04b 353d
000002c0: 2c4f d33b 89b8 54bd cab2 20bd 229d e93c
000002d0: 7c6d d9be bafa 0cbf 93be 053e b047 06bf
000002e0: 5f08 0b3c 07be 1e3d 8e8a c5bd 6762 2b3e
000002f0: f0d5 813f 4fdd 033e c2df 90be 4ada a7bc
00000300: a396 bbba 7d9f d7bd 0a2d 48bf f462 d33d
00000310: 8dd0 b43c c01b 3dbd 436b 7cbc 73f4 e53c
00000320: 3a40 863e 49b4 8e3f 48ba e2bd 3315 62be
00000330: e1e3 34be 69a0 733c fda8 8a3c cac7 3c3d
00000340: a1b8 fe3d 2722 0b3e 5c40 843b bbce b73c
00000350: a19d d83b f9a7 48be d333 fc3c 27eb c23d
00000360: 136c debb 100c e1bb f70c 4d3d 136c 55bd
00000370: b9a8 823e 0a44 9b3f d20f f83d 1c5d 3abe
00000380: a27f 2b3e 3378 8dbb 4228 103e 2ebe 69bc
00000390: 8188 c73d 1360 d6bd cc0a 123c 14a3 37bd
000003a0: c70a 74bb 865e d43d b5d4 0cbe fde2 3d3e
000003b0: 20de 1e3d fb79 5c3b ec84 6a3d 6c8c ccbc
000003c0: dcd0 90bd 46db 213e 2fa3 82bd 9b54 3dbe
000003d0: 4ce3 043e 73ca 513e 2580 8f3d 83cb 453e
000003e0: 0bca 893d 4b36 b3bd 5d24 99bd 1293 43be
000003f0: aa93 913d 8d1f 083f 3dcc 2f3d abab c63e

v.net.0.bias f4 [64]
0.32586724 1.1106344 0.93696964 0.020919519 0.14043924 0.44359958 -0.19912907 -0.9966218
1.4456502 0.31614244 0.024470596 1.0798131 -0.4177131 -0.7484816 0.86485684 -0.0023688732
0.40827164 -0.00048684745 -1.3080277 -0.43173042 0.16910057 0.49010953 0.9737805 -0.06379968
-0.12592766 0.8344539 -0.005343885 0.67911506 0.66267264 -0.67030174 0.34693128 -1.0710665
-0.34337473 0.8355755 0.7036496 -1.6194339 -0.10361649 -0.62774855 1.5218799 0.19845116
-0.12556998 -0.8372517 1.4627174 0.4661119 1.5371436 -0.4252722 0.03823893 0.16601188
0.67340016 0.103870176 -0.22537401 -0.46504626 -1.4620408 -0.6305414 -0.84627783 0.07393921
-0.6202309 -0.16476566 0.13028362 1.016006 -0.09855088 -0.07723905 0.87630713 -0.8869828
00000000: 12d8 a63e 4529 8e3f 3edd 6f3f 695f ab3c
00000010: 4ecf 0f3e 7c1f e33e 7ee8 4bbe 9b22 7fbf
00000020: 110b b93f 6cdd a13e 8f76 c83c 5137 8a3f
00000030: 7ede d5be 7d9c 3fbf 4267 5d3f 193f 1bbb
00000040: fb08 d13e 8f3f ffb9 746d a7bf c50b ddbe
00000050: b328 2d3e a3ef fa3e ae49 793f 68a9 82bd
00000060: 2ef3 00be c59e 553f c21b afbb 7cda 2d3f
00000070: eaa4 293f e598 2bbf faa0 b13e b518 89bf
00000080: d0ce afbe 47e8 553f 6122 343f 9c49 cfbf
00000090: e234 d4bd 21b4 20bf f6cc c23f c836 4b3e
000000a0: 6b95 00be 2156 56bf 533a bb3f 38a6 ee3e
000000b0: 1fc1 c43f 47bd d9be 6da0 1c3d 05ff 293e
000000c0: f463 2c3f e3b9 d43d 72c8 66be 8b1a eebe
000000d0: 2724 bbbf 296b 21bf aaa5 58bf 716d 973d
000000e0: 74c7 1ebf 54b8 28be 1269 053e 7c0c 823f
000000f0: 0bd5 c9bd 822f 9ebd aa55 603f 4e11 63bf

v.net.2.weight f4 [64, 64]
-0.047549643 0.88076216 0.23559591 -0.43762535 0.05626786 -0.01199098 0.2546214 -0.52195054
0.44562885 -0.021477742 -0.03789703 0.43068272 -0.25844756 0.2255994 0.4223071 0.25952286
0.106154084 0.028086895 -0.3656309 -0.1567133 0.25051045 0.028447498 0.9400668 0.18608485
-0.3238999 0.28813016 0.4861989 0.35065907 0.37423652 -0.12518571 0.077481695 -0.28595793
-0.09691793 0.6057364 0.1409927 -0.7989056 -0.12450146 -0.23598357 0.55899227 0.039299358
-0.06487002 -0.3141701 0.72482693 0.273184 0.25107282 0.16720599 0.03261602 0.008513877
0.3144839 -0.114852175 -0.41865215 -0.16810922 -0.28202426 -0.3236599 -0.903519 -0.13124812
-0.36220926 -0.1441466 0.16879569 0.20258634 0.31095314 -0.47128224 0.20178069 -0.19466189
-0.10638353 0.29199493 0.16547245 0.22164874 -0.42104015 0.20430201 0.21405321 0.082554616
-0.16791536 0.409298 0.019540139 0.2939894 0.025938243 -0.0022304584 0.07299795 -0.107333295
0.009520947 -0.39024746 -0.25931436 -0.020906346 0.17274937 0.17126566 0.16560858 -0.07262442
0.12758446 -0.027862635 -0.041676648 0.06069022 0.009671751 -0.10201565 -0.18644212 -0.052440092
0.036066968 0.22941558 -0.013821435 -0.03873328 -0.23125862 -0.17922379 0.03267952 -0.2099812
-0.4299444 -0.1054898 0.007935591 -0.17080642 -0.14657879 0.00043656048 0.35810462 0.049941603
-0.19885387 0.050687276 0.30980042 0.17853688 0.017157514 -0.1214157 -0.08264914 0.1586942
-0.35001847 0.121750236 -0.0020978835 -0.27123824 -0.12942755 -0.13089283 0.027629219 -0.07687932
0.19129024 0.31405604 -0.77162135 -0.22779575 -0.24694817 0.16486214 -0.091399975 0.3623684
-1.337274 0.14783983 -0.0061399736 0.16463335 0.10854588 0.37029332 -0.036327247 -0.0301918
-0.033951133 0.28139228 0.29828358 -0.0048217643 0.21500963 -0.004816835 0.13708839 -0.097496994
0.33666635 0.23871642 -0.2935615 0.2832466 -0.02351507 0.40452027 -0.036648 0.41333276
0.14652151 0.21801496 0.45861015 0.710718 -0.0541193 0.22395499 -0.5250732 0.29484212
0.38191935 0.45739645 -0.6315139 0.3059916 -1.587717 0.09491145 -0.032243546 0.06345457
0.035613332 -0.37989753 -0.45703882 -0.08542149 1.1715641 0.10404417 0.25458735 -0.35921282
-0.10984745 -0.38743952 0.3252445 -0.3549845 -0.3968101 0.3516914 -0.36398605 -0.2860866
0.15341291 0.011110583 -0.07291316 0.0051748105 0.38105223 0.024348507 -0.13111596 0.044772398
-0.56443447 -0.38457006 0.069660045 0.006216139 0.005487273 0.15735914 -0.009079814 -0.016297674
0.3339202 0.2677164 0.24299973 0.14869581 -0.36381805 0.0090290345 -0.028999925 -0.12815733
0.0036592814 0.052367724 -0.013807311 0.17550275 0.031326868 -0.005514617 -0.030541109 0.041336935
0.16549614 0.013282758 -0.11522894 0.32254207 0.6033031 0.10298752 -0.52513087 -0.10852822
-0.13306327 0.14278412 0.26708904 -0.015079883 0.30287328 -0.12123499 -0.22558288 -0.3065833
0.12243428 -0.06976086 0.015366417 -0.2686104 0.36650774 -0.14480601 0.17347242 -0.32439297
0.44329342 -0.068833835 0.20471421 0.13253862 0.07786804 0.014588543 0.2298654 0.117910735
00000000: 6ac3 42bd a179 613f 0e40 713e 6e10 e0be
00000010: 2179 663d d175 44bc bc5d 823e 8d9e 05bf
00000020: 7729 e43e 17f2 afbc eb39 1bbd 7282 dc3e
00000030: 3d53 84be 8703 673e a338 d83e 2ee0 843e
00000040: 5067 d93d 7d16 e63c f933 bbbe 7479 20be
00000050: e842 803e ba0a e93c 38a8 703f 078d 3e3e
00000060: 35d6 a5be cc85 933e 10ef f83e 9689 b33e
00000070: ee9b bf3e af30 00be b9ae 9e3d 1469 92be
00000080: e87c c6bd 8a11 1b3f 6460 103e 1485 4cbf
00000090: 9ffa febd ada5 71be 1e1a 0f3f 5df8 203d
000000a0: 93da 84bd e7da a0be 428e 393f c6de 8b3e
000000b0: 9e8c 803e 0c38 2b3e 6098 053d ca7d 0b3c
000000c0: 0904 a13e 9e37 ebbd 9359 d6be d324 2cbe
000000d0: 7c65 90be c0b6 a5be 054d 67bf e865 06be
000000e0: 7e73 b9be 2b9b 13be c7d8 2c3e cb72 4f3e
000000f0: 4035 9f3e e84b f1be 999f 4e3e 7255 47be
00000100: 9cdf d9bd 5c80 953e 9c71 293e e3f7 623e
00000110: 9392 d7be 8c34 513e c430 5b3e 6512 a93d
00000120: 01f2 2bbe 828f d13e a412 a03c c785 963e
00000130: 707c d43c e22c 12bb f37f 953d 8fd1 dbbd
00000140: bffd 1b3c 84ce c7be dac4 84be c943 abbc
00000150: 36e5 303e 4460 2f3e 4c95 293e 1dbc 94bd
00000160: 80a5 023e 2e40 e4bc 22b5 2abd 4f96 783d
00000170: 4476 1e3c 95ed d0bd afea 3ebe 6ccb 56bd
00000180: f5ba 133d ebeb 6a3e 4d73 62bc caa6 1ebd
00000190: 0fcf 6cbe 7186 37be f6da 053d 5005 57be
000001a0: ac21 dcbe 090b d8bd 4804 023c e1e7 2ebe
000001b0: c018 16be 28e2 e439 7d59 b73e 918f 4c3d
000001c0: 59a0 4bbe 769d 4f3d 299e 9e3e 5fd2 363e
000001d0: ea8d 8c3c cba8 f8bd f443 a9bd bb80 223e
000001e0: 9f35 b3be 3058 f93d a57c 09bb bddf 8abe
000001f0: a888 04be c508 06be ac56 e23c e872 9dbd
00000200: 97e1 433e f4cb a03e fa88 45bf 4a43 69be
00000210: fbdf 7cbe 9fd1 283e e92f bbbd 5a88 b93e
00000220: cb2b abbf 5363 173e d531 c9bb a595 283e
00000230: 4d4d de3d 1697 bd3e e1cb 14bd cb54 f7bc
00000240: 5810 0bbd a612 903e a0b8 983e e4ff 9dbb
00000250: 7c2b 5c3e 8ad6 9dbb e660 0c3e 81ac c7bd
00000260: 885f ac3e 1472 743e b14d 96be b305 913e
00000270: ada2 c0bc 481d cf3e 371c 16bd 5aa0 d33e
00000280: bc09 163e 503f 5f3e f3ce ea3e 9df1 353f
00000290: 33ac 5dbd 7554 653e 326b 06bf 8cf5 963e
000002a0: ef8a c33e de2f ea3e e5aa 21bf eeaa 9c3e
000002b0: 503a cbbf ef60 c23d cf11 04bd 78f4 813d
000002c0: 49df 113d ee81 c2be fe00 eabe 76f1 aebd
000002d0: d0f5 953f 1c15 d53d 4659 823e beea b7be
000002e0: b3f7 e0bd 795e c6be 7286 a63e 87c0 b5be
000002f0: b22a cbbe e510 b43e 615c babe f179 92be
00000300: 4618 1d3e 2a09 363c 7f53 95bd 7591 a93b
00000310: 4719 c33e 8576 c73c 4343 06be 4363 373d
00000320: c77e 10bf 5ee6 c4be eda9 8e3d c1b0 cb3b
00000330: 95ce b33b c122 213e 80c3 14bc b382 85bc
00000340: 97f7 aa3e 2012 893e ecd4 783e b743 183e
00000350: 5c46 babe 84ee 133c 4091 edbc ad3b 03be
00000360: 8ed0 6f3b 8a7f 563d 0f38 62bc feb6 333e
00000370: 9a50 003d f6b3 b4bb 5931 fabc eb50 293d
00000380: d277 293e ed9f 593c 27fd ebbd 3c24 a53e
00000390: 1272 1a3f 1feb d23d fa6e 06bf 0b44 debd
000003a0: bd41 08be 0036 123e e5bf 883e 9d11 77bc
000003b0: 3512 9b3e 0d4a f8bd 33ff 66be 7cf8 9cbe
000003c0: d3be fa3d c8de 8ebd 6dc3 7b3c 4d87 89be
000003d0: e7a6 bb3e 0748 14be c1a2 313e d616 a6be
000003e0: 5bf7 e23e c1f8 8cbd 9aa0 513e 34b8 073e
000003f0: 4779 9f3d c904 6f3c d661 6b3e 2f7b f13d

v.net.2.bias f4 [64]
0.9259214 0.5638462 0.030256629 0.21098655 -0.40436736 0.45897055 -0.23988259 -0.72777116
0.5286553 0.13204075 -0.37204427 0.37180158 0.28605792 -0.5098306 0.7846917 0.54268414
-0.20441712 0.75359505 0.47094473 -0.80431324 0.63283384 0.65056527 0.538943 0.49267134
0.3491373 0.27356324 -0.85242885 0.619861 0.8235556 -0.63645285 -0.5439836 0.6114643
0.29616767 0.38507223 0.56619716 0.7753415 -0.43717578 -0.243185 -0.329298 0.62351584
0.39608875 0.6572241 0.62495005 0.13292336 0.4519687 0.3846288 -0.62330425 -0.22630252
0.5999953 0.57006866 -0.50654083 0.4154606 0.82731175 -0.5061488 -0.66628414 -0.2993422
-0.51973784 -0.17496306 -0.6886608 0.59450203 0.36126363 0.10956967 -0.34693384 0.6496496
00000000: 2f09 6d3f 3958 103f c0dc f73c dc0c 583e
00000010: 3d09 cfbe 30fe ea3e c8a3 75be 364f 3abf
00000020: f455 073f b135 073e 967c bebe c75c be3e
00000030: 2f76 923e 4284 02bf 8ee1 483f 59ed 0a3f
00000040: b952 51be 9beb 403f ab1f f13e 79e7 4dbf
00000050: 6601 223f 728b 263f 2bf8 093f 6b3f fc3e
00000060: 20c2 b23e 7b10 8c3e c738 5abf 36af 1e3f
00000070: 8ad4 523f 93ee 22bf 8242 0bbf ed88 1c3f
00000080: 4aa3 973e 3028 c53e 4cf2 103f c87c 463f
00000090: 81d5 dfbe 7d05 79be bf99 a8be bc9e 1f3f
000000a0: 25cc ca3e d73f 283f bafc 1f3f 101d 083e
000000b0: 7168 e73e 11ee c43e de90 1fbf d9bb 67be
000000c0: 4b99 193f 05f0 113f a9ac 01bf 40b7 d43e
000000d0: b4ca 533f f892 01bf 9991 2abf 6143 99be
000000e0: 8a0d 05bf 8429 33be 134c 30bf 4931 183f
000000f0: 8cf7 b83e 1066 e03d 50a1 b1be 704f 263f

v.net.4.weight f4 [1, 64]
-0.33774966 -0.12290214 -0.30793503 -0.046859283 0.06424388 -0.10168846 0.045484684 0.07851797
-0.08041982 -0.6340419 0.05327448 -0.08513807 -0.1316481 0.07173586 -0.06882133 -0.0660762
0.1307597 -0.06491445 -0.06134761 0.32690072 -0.03521383 -0.114384115 -0.08911219 -0.049392886
-0.13959043 -0.043595456 0.11864421 -0.06540986 -0.10015426 0.08375422 0.047290947 -0.044377744
-0.0676866 -0.05136921 -0.057226982 -0.09806742 0.0984034 0.09145742 0.063784644 -0.05723795
-0.099026 -0.10063832 -0.058283426 -0.10651445 -0.06515757 -0.037487324 0.052281797 0.040600084
-0.09471377 -0.07923884 0.061617304 -0.043519784 -0.31408647 0.009695321 0.113118224 0.020305665
0.031217609 0.06383029 0.089379825 -0.11224177 -0.03931508 -0.6940558 0.043020897 -0.120394096
00000000: 86ed acbe 1eb4 fbbd a9a9 9dbe 85ef 3fbd
00000010: 4c92 833d 0a42 d0bd 264e 3a3d 08ce a03d
00000020: 26b3 a4bd 9250 22bf 5736 5a3d de5c aebd
00000030: c2ce 06be 40ea 923d 33f2 8cbd f552 87bd
00000040: dfe5 053e def1 84bd a247 7bbd 885f a73e
00000050: 613c 10bd 3842 eabd 7480 b6bd 3250 4abd
00000060: cbf0 0ebe 2691 32bd bcfb f23d 9bf5 85bd
00000070: ad1d cdbd 5587 ab3d 27b4 413d 70c5 35bd
00000080: 469f 8abd 8568 52bd d766 6abd 92d7 c8bd
00000090: b987 c93d 074e bb3d 86a1 823d 5772 6abd
000000a0: 25ce cabd 771b cebd 9aba 6ebd 3f24 dabd
000000b0: 5571 85bd 4f8c 19bd 7025 563d 464c 263d
000000c0: 4bf9 c1bd f947 a2bd 6d62 7c3d cd41 32bd
000000d0: f1cf a0be 20d9 1e3c 87aa e73d 1158 a63c
000000e0: 12bc ff3c 75b9 823d c50c b73d 03df e5bd
000000f0: d908 21bd a4ad 31bf ae36 303d 2e91 f6bd

c.net.0.weight f4 [64, 40]
-0.072663255 -0.15425175 0.060451727 -0.14365098 0.041979436 0.051547647 0.04091686 -0.15188919
0.10516165 0.06839275 -0.09874878 0.0809795 0.12583217 0.0008448339 0.083021775 0.029707441
-0.096065864 -0.13866591 0.041388623 -0.03990269 0.008441516 -0.0994851 -0.13805893 -0.04699421
0.13044238 -0.06817494 0.017714182 0.113348864 -0.090883575 -0.013573285 0.13643885 -0.09464605
-0.1519306 0.048549015 -0.11107553 -0.017751332 -0.009977077 -0.025229154 -0.13314654 -0.10304101
0.079648204 0.15384904 0.13566001 -0.15393756 0.093520805 -0.04885853 0.024987854 -0.12927724
-0.0014238831 -0.014885038 -0.14425564 -0.112742804 -0.08224909 -0.090352744 0.08096589 0.07485514
0.08666325 0.04274239 0.07685775 0.021777987 -0.08954691 -0.021878846 -0.08702017 0.1493102
0.090156905 -0.10262136 -0.12823337 0.085506156 -0.05972764 0.041979942 0.006419358 0.1421226
-0.12597175 0.121862344 -0.033611786 -0.15511674 -0.12282221 -0.073600635 0.0913315 -0.014459699
0.117387295 -0.056398533 -0.09355751 0.13130152 0.12990722 0.021544848 -0.12214166 0.083701305
0.15764938 0.06341939 -0.12510106 -0.06881877 -0.10386809 0.08315639 0.026506923 -0.07595242
0.06343328 0.092765294 0.11174731 -0.063570105 -0.103514805 0.011079497 0.087517284 -0.15365656
-0.054396827 -0.11103342 0.05465496 0.15543315 -0.12727411 -0.060739074 -0.052919284 0.15715027
-0.12131939 -0.0023778884 0.08923855 -0.07939181 0.085117966 0.01421872 -0.00032819257 -0.11862396
0.11464599 0.05095231 0.0009672935 0.017290087 -0.13846816 -0.00821094 -0.04800282 -0.10411167
0.03134111 -0.15064353 0.1439292 0.14534432 0.038672592 0.09203095 0.121143796 -0.078646265
0.022865253 -0.09510875 0.0996371 -0.02888483 -0.008284525 -0.08300004 -0.13703161 0.11351927
0.15757714 -0.14223963 0.085148595 -0.09983476 -0.040217634 -0.12074119 0.09967253 0.08110307
-0.115580976 -0.008336171 -0.099055275 0.1554934 0.107214004 -0.041091513 -0.044696957 -0.13173465
-0.055864025 -0.10803485 -0.10553282 0.1005836 0.00049193075 0.05145237 -0.1456349 0.018823292
-0.13834186 -0.011847767 -0.080914214 0.0015058935 0.0390516 -0.04036599 0.06218226 -0.06884245
-0.14104407 0.13945954 0.14083186 0.12027474 -0.06657175 -0.1415744 -0.010415402 -0.03756661
-0.14640991 -0.025144845 0.064343385 0.12163484 0.080518484 0.0522435 0.04910526 -0.01272355
0.13777451 -0.059470184 0.12858196 -0.06435281 -0.05311199 -0.037962865 0.14958926 -0.089652464
-0.109988354 0.058820114 -0.107141756 0.13882746 -0.031474974 -0.02531471 -0.03138897 0.123688534
0.11521198 -0.11893811 -0.13282095 -0.09651084 -0.08542669 0.047206767 0.023298206 -0.14141236
-0.1495088 -0.01685655 -0.12955883 -0.023823423 0.032316998 -0.11706749 0.06556293 -0.04425607
-0.1001973 0.076352365 -0.06350634 0.14200585 -0.0063243043 0.012859223 -0.02033075 -0.15327169
-0.0063802092 0.0073684813 -0.1279519 -0.018410658 -0.045576885 0.12007734 -0.08291705 0.13301505
0.061640136 0.00577824 -1.7152266e-05 0.08159399 -0.13186401 -0.026468566 0.0736487 -0.07874036
0.14178513 0.01524778 -0.08328565 0.10299095 0.0802259 0.054981153 0.13075985 0.11522483
00000000: 79d0 94bd 2cf4 1dbe 3b9c 773d 3e19 13be
00000010: a1f2 2b3d a023 533d 7098 273d d788 1bbe
00000020: fe5e d73d 8011 8c3d cd3c cabd 95d8 a53d
00000030: 26da 003e d877 5d3a 5207 aa3d 055d f33c
00000040: 2ebe c4bd 70fe 0dbe 1e87 293d 0171 23bd
00000050: 494e 0a3c d8be cbbd 525f 0dbe 007d 40bd
00000060: b092 053e 4e9f 8bbd 551d 913c 7323 e83d
00000070: 2b21 babd 7c62 5ebc a0b6 0b3e cad5 c1bd
00000080: b293 1bbe 55db 463d 917b e3bd 3e6b 91bc
00000090: e576 23bc 5fad cebc 9157 08be 2a07 d3bd
000000a0: 991e a33d 9a8a 1d3e 75ea 0a3e cfa1 1dbe
000000b0: d687 bf3d e21f 48bd 54b3 cc3c 4161 04be
000000c0: 97a1 baba 60e0 73bc c0b7 13be b3e5 e6bd
000000d0: 3672 a8bd dc0a b9bd 72d1 a53d a74d 993d
000000e0: 817c b13d a512 2f3d 9967 9d3d c067 b23c
000000f0: 5f64 b7bd 443b b3bc a237 b2bd c6e4 183e
00000100: 2fa4 b83d 262b d2bd 9c4f 03be da1d af3d
00000110: f8a4 74bd 29f3 2b3d 7a59 d23b 9688 113e
00000120: bdfe 00be f792 f93d 83ac 09bd ecd6 1ebe
00000130: 368a fbbd eebb 96bd 020c bb3d 60e8 6cbc
00000140: c068 f03d 2602 67bd 149b bfbd e873 063e
00000150: 6606 053e d27e b03c 6825 fabd 976b ab3d
00000160: d76e 213e 06e2 813d 7e1a 00be dbf0 8cbd
00000170: cbb8 d4bd e64d aa3d 0c25 d93c f18c 9bbd
00000180: 4fe9 813d bbfb bd3d c6db e43d 0b31 82bd
00000190: 92ff d3bd c786 353c 433c b33d 2558 1dbe
000001a0: 35cf 5ebd 7d65 e3bd e1dd 5f3d de29 1f3e
000001b0: 2554 02be 89c9 78bd e4c1 58bd 00ec 203e
000001c0: 4d76 f8bd 59d6 1bbb b3c2 b63d 2c98 a2bd
000001d0: 5452 ae3d a2f5 683c 4311 acb9 1ef1 f2bd
000001e0: 84cb ea3d 5fb3 503d f891 7d3a f1a3 8d3c
000001f0: 99ca 0dbe 2e87 06bc 9b9e 44bd 8038 d5bd
00000200: 895f 003d 4c42 1abe 2d62 133e 24d5 143e
00000210: 2767 1e3d b97a bc3d 3d1a f83d 4b11 a1bd
00000220: e94f bb3c 60c8 c2bd 890e cc3d e19f ecbc
00000230: d1bb 07bc edfb a9bd 0452 0cbe cb7c e83d
00000240: e75b 213e 44a7 11be 6362 ae3d 2b76 ccbd
00000250: 3fbb 24bd 2847 f7bd 1d21 cc3d 5e19 a63d
00000260: b8b5 ecbd 6f94 08bc 7edd cabd a939 1f3e
00000270: 0493 db3d 934f 28bd 2814 37bd 73e5 06be
00000280: add1 64bd 6041 ddbd 9721 d8bd c6fe cd3d
00000290: eaf4 003a b8bf 523d 5121 15be 4e33 9a3c
000002a0: 7da9 0dbe 231d 42bc 5ab6 a5bd 6761 c53a
000002b0: 92f4 1f3d cf56 25bd d3b2 7e3d 45fd 8cbd
000002c0: db6d 10be 7bce 0e3e 3a36 103e 9a52 f63d
000002d0: c556 88bd e1f8 10be 5da5 2abc 72df 19bd
000002e0: 7bec 15be 90fc cdbc 77c6 833d b01b f93d
000002f0: e0e6 a43d 48fd 553d 9922 493d 7076 50bc
00000300: c314 0d3e 0297 73bd fdaa 033e 68cb 83bd
00000310: f58b 59bd f37e 1bbd ed2d 193e b69b b7bd
00000320: 9341 e1bd 5ced 703d 236d dbbd c928 0e3e
00000330: e7eb 00bd cb60 cfbc b891 00bd 6a50 fd3d
00000340: 42f4 eb3d d395 f3bd 3702 08be 7aa7 c5bd
00000350: 30f4 aebd e25b 413d e1db be3c 67ce 10be
00000360: d618 19be bf16 8abc 12ab 04be 5729 c3bc
00000370: d45e 043d 15c1 efbd dc45 863d da45 35bd
00000380: 3e34 cdbd a15e 9c3d 9d0f 82bd fb69 113e
00000390: 1c3c cfbb 7eaf 523c ac8c a6bc 41f3 1cbe
000003a0: 1311 d1bb 4d73 f13b d305 03be f3d1 96bc
000003b0: d4ae 3abd 1ceb f53d 6ad0 a9bd 1935 083e
000003c0: 5e7a 7c3d 6457 bd3b 36e2 8fb7 c01a a73d
000003d0: 5c07 07be 9bd4 d8bc 21d5 963d a042 a1bd
000003e0: 1f30 113e d3d1 793c ab91 aabd ebec d23d
000003f0: 7a4d a43d eb33 613d e9e5 053e fffa eb3d

c.net.0.bias f4 [64]
0.095030524 0.081872776 0.123459935 -0.074716024 0.059554193 -0.15275146 -0.15736014 0.08849303
0.10634625 0.063707024 -0.109157525 0.104336366 0.014822912 0.12205353 0.070102155 0.0027880725
0.14961134 -0.09561815 -0.050616637 -0.032314736 -0.07546688 -0.008991972 0.1464076 0.1477505
-0.043981973 -0.0663913 0.030076403 0.10140608 -0.12985183 0.025030546 0.01670135 0.022323862
-0.008789198 0.086308785 -0.08506864 -0.027712293 0.08862078 -0.09189839 0.09837869 -0.018396068
0.13599081 -0.11230938 0.0012188852 0.052484144 0.06406105 -0.11089098 -0.061198343 -0.009430806
0.023525689 -0.009638518 0.07369331 -0.019108491 0.05654987 0.06888936 -0.10862662 0.14405884
0.009038603 -0.13545255 -0.059912656 -0.15718104 0.06572897 0.15556867 0.14597294 -0.0045402045
00000000: 5d9f c23d eaac a73d 90d8 fc3d b704 99bd
00000010: 19ef 733d e16a 1cbe 0423 21be d53b b53d
00000020: 10cc d93d d478 823d fb8d dfbd 4eae d53d
00000030: cddb 723c 33f7 f93d b891 8f3d 18b8 363b
00000040: b733 193e 73d3 c3bd 6453 4fbd 755c 04bd
00000050: 618e 9abd 1053 13bc e0eb 153e e84b 173e
00000060: 7126 34bd 29f8 87bd ca62 f63c fead cf3d
00000070: e1f7 04be dc0c cd3c 45d1 883c 88e0 b63c
00000080: 9100 10bc a9c2 b03d 7838 aebd e404 e3bc
00000090: d07e b53d 3935 bcbd c47a c93d 5ab3 96bc
000000a0: 2d41 0b3e 7602 e6bd 00c3 9f3a 9df9 563d
000000b0: 7132 833d cf1a e3bd 1dab 7abd ab83 1abc
000000c0: f2b8 c03c e0ea 1dbc 85ec 963d 6989 9cbc
000000d0: d6a0 673d dd15 8d3d a277 debd 2984 133e
000000e0: a616 143c 13b4 0abe f966 75bd 11f4 20be
000000f0: e99c 863d 654d 1f3e ee79 153e ffc5 94bb
