experiments/07_control_structure_hypothesis/checkpoints/Attitude/ppo/2021-12-14__10-03-15/seed_00033/torch_save/model.pt (torch, 82448 bytes, 19 tensors)

obs_oms.mean f4 [40]
0.25099677 0.00057851267 1.0100801 -0.0006092636 0.0007047594 -0.025562175 0.99638134 0.0053759287
0.003602387 -0.0010735574 0.0045837606 0.00054952025 -0.0035042537 -0.00065697153 0.000805431 -0.010080558
0.14744288 -0.02096135 0.017807258 -0.39526975 0.25105116 0.0006147396 1.010068 -0.00061211264
0.00070572714 -0.025653297 0.99643743 0.0054649725 0.0036392382 -0.0011185218 0.004571959 0.0005188688
-0.003512992 -0.0006825565 0.0007617741 -0.010068027 0.14667301 -0.020674972 0.017880434 -0.39603618
00000000: a682 803e 54a7 173a 4e4a 813f fdb6 1fba
00000010: 9abf 383a c467 d1bc d912 7f3f 8f28 b03b
00000020: 0616 6c3b 9cb6 8cba 5f33 963b ae0d 103a
00000030: 9fa7 65bb 9d38 2cba 8f23 533a ed28 25bc
00000040: 44fb 163e 23b7 abbc 87e0 913c cc60 cabe
00000050: c789 803e 7a26 213a e949 813f 2f76 20ba
00000060: 8c00 393a dd26 d2bc 8616 7f3f 8313 b33b
00000070: 4980 6e3b 5d9b 92ba 5fd0 953b b204 083a
00000080: 3a3a 66bb 97ed 32ba cbb1 473a 5ef4 24bc
00000090: 7331 163e 8f5e a9bc fd79 923c 41c5 cabe

obs_oms.std f4 [40]
0.17638622 0.17418215 0.036458 0.04848016 0.04973506 0.042490765 0.0031612215 0.36141053
0.35623643 0.1145042 0.7342243 0.7791646 0.46600652 0.058209736 0.05755644 0.036457967
0.8568255 0.72376704 0.75002 0.7609216 0.17648457 0.17431386 0.036894154 0.048070945
0.04933332 0.04206193 0.003034548 0.362089 0.3570145 0.11586327 0.7349277 0.77997804
0.46665716 0.058818445 0.058198567 0.036894247 0.8573279 0.72252846 0.7479642 0.7611955
00000000: 979e 343e ce5c 323e fc54 153d 2293 463d
00000010: feb6 4b3d cc0a 2e3d 7f2c 4f3b cd0a b93e
00000020: 9f64 b63e 2e81 ea3d 20f6 3b3f 5577 473f
00000030: 6898 ee3e 556d 6e3d 4dc0 6b3d f354 153d
00000040: ea58 5b3f cc48 393f 5001 403f c2cb 423f
00000050: 5fb8 343e 557f 323e 531e 173d 0ae6 443d
00000060: bc11 4a3d 2149 2c3d 44df 463b bb63 b93e
00000070: 9bca b63e b949 ed3d 3924 3c3f a4ac 473f
00000080: b0ed ee3e 9ceb 703d 9f61 6e3d 6c1e 173d
00000090: d779 5b3f a0f7 383f 957a 3f3f b5dd 423f

pi.log_std f4 [4]
-4.5100417 -4.5100417 -4.5100417 -4.5100417
00000000: 4352 90c0 4352 90c0 4352 90c0 4352 90c0

pi.net.0.weight f4 [50, 40]
-0.31296423 -0.08563719 -0.073766515 0.24345689 -0.01888132 -0.050457735 0.017751275 -0.16987975
-0.2815279 0.1034868 -0.026083222 0.066928044 -0.15897329 -0.012985791 0.103096 0.0795873
0.059661787 0.20339894 0.03653765 0.23631816 -0.31201142 0.10346579 -0.014792638 -0.047390644
0.03207451 -0.010031788 -0.039866008 -0.13217725 -0.36404184 0.061035354 0.22855346 -0.058724083
-0.23454359 -0.27818796 0.33815238 0.039620124 0.08670169 0.020364845 -0.107352845 -0.20200142
-0.34406817 0.22947198 0.20309372 0.05130482 -0.20776671 -0.15892301 0.29433054 -0.3787602
-0.26035622 0.11097856 0.10619029 -0.016630102 0.16473897 0.12579441 -0.037063286 -0.27426863
0.1550339 0.028415913 0.037395462 -0.24330367 -0.26456767 0.230161 0.16514175 -0.09601695
-0.20503952 -0.08169818 0.064233504 -0.3559874 0.032546993 0.20061721 0.04450026 -0.003321916
-0.22930492 0.0049832384 0.060676895 -0.106920354 -0.19501674 0.08926307 0.08496475 0.33805692
0.118485965 -0.12976556 0.0270282 0.24320114 -0.061812434 0.0144984005 0.14316714 -0.19908315
-0.24369483 -0.15445274 0.11701234 -0.05853756 -0.11016109 0.23264208 -0.1267476 0.11034259
-0.065723434 0.3644079 -0.17680167 0.29684627 0.05268283 -0.3304159 -0.005917556 -0.0023187308
-0.013369677 5.405024e-05 0.058313075 -0.07477025 -0.3080488 0.23774227 0.13786796 -0.2716378
0.11390096 0.039422937 0.092787854 -0.011198148 -0.11566351 0.0518919 0.06450823 -0.20970753
0.19027096 -0.08302737 -0.2343423 0.08117204 0.20745476 -0.06622655 -0.047107767 0.074698605
0.3078372 -0.27310687 0.18866241 0.06741503 -0.18627778 -0.008397416 -0.07635407 0.35119408
-0.08765679 0.119134314 -0.13033234 0.35265073 0.17225297 -0.068707496 -0.17044091 -0.024982866
-0.007530028 -0.13965185 0.054449514 -0.029587567 0.28972796 -0.6179371 -0.113840215 0.09381151
0.10396414 -0.013609281 -0.03866429 0.13730523 0.10158455 -0.014585356 -0.07611184 -0.28685555
-0.30307102 -0.05165484 -0.013986226 -0.120927334 0.026667582 -0.030742005 0.20618002 0.008413931
0.26327145 0.3241843 0.040951483 0.0898534 0.007498603 -0.16689546 -0.16180685 -0.105318315
0.12308241 0.017779697 -0.0574766 -0.24927552 -0.14931019 0.06691182 0.098119125 -0.058914553
-0.16258928 0.18584801 -0.04459361 -0.2390023 0.053170502 0.005116838 -0.17077026 -0.03984246
-0.021767998 -0.21471296 -0.060932495 0.027128547 -0.19119264 -0.34723094 -0.00015042543 -0.15158848
0.31468984 -0.3306935 -0.18066548 0.08432204 0.009460694 0.20347542 0.24967104 0.15379974
-0.3042632 -0.20476392 0.030634921 -0.10866587 0.07701983 0.26011583 0.035361785 0.30689391
0.08390227 0.16188411 0.09740244 0.18866736 0.17633815 -0.2200814 -0.18894827 0.074726574
0.11634953 0.08809032 0.36165902 0.42430946 -0.23895383 -0.06569266 -0.03797585 0.04053387
-0.09992044 0.14196187 0.14689378 -0.00955643 -0.117280036 0.17095804 -0.010797072 0.33459926
0.2024452 -0.06127392 0.03854579 0.09740278 -0.03660204 -0.06090553 0.013538112 0.17057836
0.11841631 0.11608573 0.06961635 0.047238234 -0.23457336 0.089119524 -0.22731096 -0.16021222
00000000: d93c a0be 8d62 afbd e612 97bd c34c 793e
00000010: ffac 9abc c5ac 4ebd 1f6b 913c f5f4 2dbe
00000020: 6d24 90be e3f0 d33d 7bac d5bc 9211 893d
00000030: e5c9 22be 5bc2 54bc ff23 d33d abfe a23d
00000040: eb5f 743d d047 503e 81a8 153d 63fd 713e
00000050: f6bf 9fbe dfe5 d33d d25c 72bc b11c 42bd
00000060: 9060 033d 5e5c 24bc 8a4a 23bd 7959 07be
00000070: b163 babe 3500 7a3d eb09 6a3e aa88 70bd
00000080: 322c 70be a76e 8ebe 4f22 ad3e b648 223d
00000090: a890 b13d 2dd4 a63c cfdb dbbd 76d9 4ebe
000000a0: b429 b0be b4fa 6a3e cdf7 4f3e 0125 523d
000000b0: ccc0 54be b7bc 22be 7eb2 963e dbec c1be
000000c0: 694d 85be ba48 e33d 4b7a d93d da3b 88bc
000000d0: 55b1 283e 40d0 003e accf 17bd f06c 8cbe
000000e0: 35c1 1e3e 7dc8 e83c fc2b 193d 9924 79be
000000f0: 6a75 87be 53af 6b3e eb1a 293e 89a4 c4bd
00000100: e1f5 51be 6051 a7bd db8c 833d fb43 b6be
00000110: ff4f 053d 996e 4d3e e845 363d 81b4 59bb
00000120: e9ce 6abe 6f4a a33b 5688 783d 0ff9 dabd
00000130: 78b2 47be 8ecf b63d 0002 ae3d cc15 ad3e
00000140: c5a8 f23d 43e1 04be 3e6a dd3c b809 793e
00000150: 092f 7dbd b38a 6d3c 689a 123e 74dc 4bbe
00000160: 238b 79be dc28 1ebe 2aa4 ef3d 15c5 6fbd
00000170: 239c e1bd ba39 6e3e 1fca 01be 4cfb e13d
00000180: 029a 86bd ac93 ba3e 7f0b 35be 3cfc 973e
00000190: f3c9 573d 462c a9be 0fe8 c1bb d9f5 17bb
000001a0: 7d0c 5bbc 01b4 6238 b1d9 6e3d 2521 99bd
000001b0: 93b8 9dbe b672 733e 422d 0d3e 1c14 8bbe
000001c0: e844 e93d f279 213d 8f07 be3d 7078 37bc
000001d0: fee0 ecbd 9a8c 543d e41c 843d 92bd 56be
000001e0: 64d6 423e 410a aabd 6ef7 6fbe 873d a63d
000001f0: 056f 543e c9a1 87bd 13f4 40bd 95fb 983d
00000200: d69c 9d3e aad4 8bbe b830 413e e410 8a3d
00000210: 9abf 3ebe 5195 09bc 865f 9cbd b6cf b33e
00000220: 6785 b3bd b1fc f33d d775 05be a38e b43e
00000230: 1563 303e 84b6 8cbd 1088 2ebe dea8 ccbc
00000240: 74be f6bb e500 0fbe 7406 5f3d a061 f2bc
00000250: 3957 943e 2031 1ebf 0f25 e9bd 4020 c03d
00000260: 27eb d43d 76f9 5ebc 725e 1ebd be99 0c3e
00000270: 900b d03d 6bf7 6ebc 86e0 9bbd bbde 92be
00000280: 202c 9bbe 0794 53bd 7c26 65bc c0a8 f7bd
00000290: f975 da3c a8d6 fbbc db20 533e 96da 093c
000002a0: 84cb 863e 7cfb a53e bebc 273d 0f05 b83d
000002b0: d7b6 f53b a5e6 2abe b2b0 25be 21b1 d7bd
000002c0: a112 fc3d baa6 913c 956c 6bbd 1542 7fbe
000002d0: c5e4 18be 1009 893d aef2 c83d 6350 71bd
000002e0: ce7d 26be f14e 3e3e caa7 36bd 05bd 74be
000002f0: 50c9 593d 26ab a73b 66de 2ebe d931 23bd
00000300: cd52 b2bc b7dd 5bbe 5a94 79bd b03c de3c
00000310: 01c8 43be 41c8 b1be 85bb 1db9 033a 1bbe
00000320: 071f a13e a950 a9be 5f00 39be 09b1 ac3d
00000330: 0701 1b3c dc5b 503e c4a9 7f3e ae7d 1d3e
00000340: 63c8 9bbe a2ad 51be 16f6 fa3c 368c debd
00000350: 93bc 9d3d e72d 853e 85d7 103d 3321 9d3e
00000360: f4d4 ab3d f3c4 253e ee7a c73d 0432 413e
00000370: fd91 343e 055d 61be a87b 41be 3f0a 993d
00000380: aa48 ee3d b368 b43d 5f2b b93e 173f d93e
00000390: 50b0 74be e089 86bd 918c 1bbd d806 263d
000003a0: 16a3 ccbd 745e 113e 536b 163e 9392 1cbc
000003b0: 8430 f0bd a00f 2f3e 34e6 30bc 9850 ab3e
000003c0: cb4d 4f3e 5dfa 7abd 31e2 1d3d 1c7b c73d
000003d0: 05ec 15bd 1478 79bd f5ce 5d3c 18ac 2e3e
000003e0: 4084 f23d 5bbe ed3d 0493 8e3d e17c 413d
000003f0: 0034 70be 4c84 b63d 34c4 68be ac0e 24be

pi.net.0.bias f4 [50]
0.27220815 -0.035280578 -0.2113874 0.24930485 0.2616048 -0.108113915 0.20748013 -0.02199258
0.16776136 0.1442171 -0.06572966 0.28578055 0.313925 0.042361856 -0.023470316 -0.31747326
0.24556431 0.2775637 0.21125667 -0.23162583 0.32486302 0.049961418 0.21487743 -0.17274791
0.04774075 0.33372343 -0.040254496 -0.005948077 0.11688752 0.17579527 -0.017819868 0.079270646
-0.08397818 0.41210887 0.2900906 0.034085784 0.19680466 -0.08904996 0.017745527 0.23357111
0.028580353 0.13156405 0.040222794 0.10308195 0.11913213 0.42494804 -0.006350886 0.048456427
0.28357804 0.22971241
00000000: de5e 8b3e 5e82 10bd f075 58be c549 7f3e
00000010: 10f1 853e d46a ddbd ac75 543e c829 b4bc
00000020: a2c9 2b3e a6ad 133e 469d 86bd d451 923e
00000030: c7ba a03e a083 2d3d d244 c0bc db8b a2be
00000040: 3675 7b3e d41c 8e3e ab53 583e 522f 6dbe
00000050: 7254 a63e 58a4 4c3d d408 5c3e d4e4 30be
00000060: ce8b 433d ccdd aa3e e6e1 24bd 16e8 c2bb
00000070: b962 ef3d ad03 343e f9fa 91bc a658 a23d
00000080: c1fc abbd efff d23e c186 943e 899d 0b3d
00000090: 2987 493e d35f b6bd 115f 913c 442d 6f3e
000000a0: 5821 ea3c bab8 063e a8c0 243d a11c d33d
000000b0: 8cfb f33d ca92 d93e 181b d0bb 3f7a 463d
000000c0: 2431 913e bb39 6b3e

pi.net.2.weight f4 [50, 50]
-0.13821761 0.06374474 0.3100629 -0.06985299 0.12373605 -0.15343416 -0.38434264 0.17112143
-0.09868911 0.0126895495 0.048128076 0.0031756943 -0.01623111 0.039839804 0.1860263 0.11413856
-0.06726898 -0.011229843 -0.2744838 -0.13415863 0.123110965 0.012252861 -0.03155726 0.050898205
-0.20498194 0.12320654 -0.1267574 -0.049102973 0.05120662 -0.10634239 -0.18432589 0.025129147
-0.11371148 0.03268185 0.24637471 0.16495897 -0.24563575 -0.04992371 0.047304526 0.20766042
-0.27434015 0.041673303 0.12013648 -0.04025475 0.036265064 -0.19778037 -0.2933335 0.12443608
-0.072430655 0.17150806 -0.019510433 -0.23904878 -3.8449643e-06 -0.114377014 -0.0049266075 0.1524363
-0.23765466 -0.056528926 -0.021900691 -0.053996243 -0.008948132 0.17070784 -0.07089608 0.13431434
0.008143438 -0.072681054 -0.08971545 -0.02765833 0.06004425 0.114388704 0.07956093 0.29915872
-0.09178355 -0.15909784 0.06451916 0.10074119 0.25520724 0.06840679 -0.027345793 -0.19245504
-0.11274206 0.07263263 -0.1497271 -0.30655858 0.053740356 -0.14508332 -0.07545462 -0.11177939
-0.04733557 0.05418888 -0.10256209 0.23394063 0.18786623 0.22971326 -0.019770078 -0.18176864
0.01842776 0.18193756 -0.16939415 0.2056474 0.103217386 -0.0685075 -0.006117091 -0.10569182
-0.09113464 -0.026298802 -0.030513836 -0.00505312 0.12218498 -0.40626982 -0.005785858 0.07358987
-0.14221361 0.063035615 -0.14354637 -0.12184513 0.1660653 -0.27679378 0.33939996 -0.030672044
0.005487989 -0.06645188 0.1990251 -0.1277288 -0.0020620895 0.25486466 -0.028906668 0.13267101
0.15886147 -0.1424396 -0.2146759 0.09628248 -0.23584439 0.03450912 0.032717675 0.24239776
-0.2498023 -0.1554785 0.017821947 0.061648373 0.11788275 0.0375178 0.04165131 0.08024964
0.114263326 0.19503903 0.03456874 -0.05221759 -0.052644916 0.15087011 0.18914177 -0.1223348
-0.102301426 0.145207 0.046239745 -0.09455392 -0.025756981 -0.06714963 -0.0946461 -0.049076993
0.10886649 0.043621734 0.006616142 0.13342708 -0.19444218 -0.06028918 -0.059950087 0.22662988
-0.031605847 -0.069876544 0.19493888 0.22113846 0.07545294 3.4035704e-05 -0.3114006 0.14608575
-0.046307 0.09985895 -0.26239982 0.034832135 0.122089945 -0.0034854102 -0.08957393 -0.12500533
-0.019266771 0.06713409 0.13546987 0.052013323 -0.115785755 0.100936934 -0.03942575 -0.031575207
0.123508975 0.017107466 -0.2588436 -0.09656849 0.0052743787 0.21636273 -0.043187093 0.037443943
-0.080202356 0.09305521 0.02097807 -0.046702687 -0.07042749 -0.07024057 0.18131462 0.16954117
-0.008914938 -0.17456564 -0.23459032 0.003517055 -0.0028401862 0.09253843 0.1358995 0.21238387
-0.22501734 0.19662678 0.19819625 0.109481916 -0.20700093 -0.00025173748 -0.0067593046 -0.19278203
0.13600288 0.065263025 0.0069720563 0.23251781 0.1971335 -0.104369245 -0.0008282605 0.07828621
0.18299998 -0.04522388 0.11321393 -0.057139985 0.11538624 -0.0345808 -0.00663165 0.0014898032
0.15017997 0.017642245 0.12668896 -0.17738783 0.17889526 -0.07733218 -0.027485752 0.0047107586
0.16310902 -0.0027527444 0.18498282 0.048112873 0.3274492 -0.4702061 0.0016643091 -0.09271912
00000000: eb88 0dbe 9a8c 823d 90c0 9e3e 160f 8fbd
00000010: 5469 fd3d d81d 1dbe 8fc8 c4be 753a 2f3e
00000020: 841d cabd d4e7 4f3c f221 453d 4f1f 503b
00000030: 1bf7 84bc 102f 233d ae7d 3e3e 7ac1 e93d
00000040: 52c4 89bd 60fd 37bc 2489 8cbe e160 09be
00000050: 9a21 fc3d 39c0 483c 2f42 01bd a37a 503d
00000060: c9e6 51be b653 fc3d b1cc 01be 3320 49bd
00000070: 08be 513d 0aca d9bd edbf 3cbe a4db cd3c
00000080: 90e1 e8bd 67dd 053d a749 7c3e 01eb 283e
00000090: f087 7bbe ce7c 4cbd 64c2 413d efa4 543e
000000a0: 5076 8cbe a0b1 2a3d 1d0a f63d 2ae2 24bd
000000b0: ad8a 143d f086 4abe cf2f 96be 58d8 fe3d
000000c0: 8656 94bd cf9f 2f3e 58d4 9fbc 34c9 74be
000000d0: fe03 81b6 7f3e eabd 616f a1bb 4318 1c3e
000000e0: be5b 73be e08a 67bd 1469 b3bc 2a2b 5dbd
000000f0: 309b 12bc 09ce 2e3e f731 91bd b389 093e
00000100: 0e6c 053c ced9 94bd bcbc b7bd b993 e2bc
00000110: f6f0 753d a044 ea3d d7f0 a23d 552b 993e
00000120: 04f9 bbbd 8bea 22be 9f22 843d 6651 ce3d
00000130: 86aa 823e dc18 8c3d 4904 e0bc ef12 45be
00000140: 4fe5 e6bd 6bc0 943d 1052 19be 3ff5 9cbe
00000150: d91e 5c3d b990 14be f487 9abd 98ec e4bd
00000160: f1e2 41bd 29f5 5d3d 130c d2bd 228e 6f3e
00000170: 0160 403e f439 6b3e dcf4 a1bc 8f21 3abe
00000180: d0f5 963c d74d 3a3e a975 2dbe 3b95 523e
00000190: a363 d33d a94d 8cbd e171 c8bb f474 d8bd
000001a0: cca4 babd 9670 d7bc 27f8 f9bc a594 a5bb
000001b0: 1e3c fa3d 9902 d0be 4b97 bdbb 49b6 963d
000001c0: 72a0 11be d118 813d d2fd 12be f189 f9bd
000001d0: 060d 2a3e eab7 8dbe d5c5 ad3e f043 fbbc
000001e0: 97d4 b33b ec17 88bd 3ccd 4b3e 57cb 02be
000001f0: 1f24 07bb 9f7d 823e adcd ecbc e9da 073e
00000200: 95ac 223e b0db 11be 00d4 5bbe c02f c53d
00000210: 3181 71be 6f59 0d3d f802 063d 1e37 783e
00000220: 2dcc 7fbe c235 1fbe 55ff 913c 0183 7c3d
00000230: 836c f13d 44ac 193d 909a 2a3d ec59 a43d
00000240: e402 ea3d 50b8 473e f397 0d3d 1de2 55bd
00000250: 32a2 57bd b27d 1a3e 61ae 413e ab8a fabd
00000260: 6983 d1bd 25b1 143e e365 3d3d 7ca5 c1bd
00000270: 4e00 d3bc bf85 89bd d1d5 c1bd f504 49bd
00000280: 65f5 de3d b4ac 323d 39cc d83b 1ca1 083e
00000290: da1b 47be caf1 76bd 398e 75bd aa11 683e
000002a0: 2275 01bd 6f1b 8fbd 0f9e 473e 1f72 623e
000002b0: 1287 9a3d 8fc1 0e38 e66f 9fbe 8197 153e
000002c0: 69ac 3dbd d982 cc3d 4559 86be 24ac 0e3d
000002d0: 4b0a fa3d 7b6b 64bb 8972 b7bd 6601 00be
000002e0: 59d5 9dbc 997d 893d 9db8 0a3e ec0b 553d
000002f0: 1521 edbd 06b8 ce3d e57c 21bd 0155 01bd
00000300: 46f2 fc3d f524 8c3c 2687 84be b3c5 c5bd
00000310: b2d4 ac3b 318e 5d3e f3e4 30bd d25e 193d
00000320: 2241 a4bd bb93 be3d 34da ab3c 514b 3fbd
00000330: 4a3c 90bd 4ada 8fbd 8aaa 393e 339c 2d3e
00000340: f60f 12bc 56c1 32be 7238 70be 647e 663b
00000350: 6b22 3abb ca84 bd3d 3d29 0b3e 287b 593e
00000360: f26a 66be 8858 493e f5f3 4a3e 0e38 e03d
00000370: 0df8 53be a2fb 83b9 287d ddbb a768 45be
00000380: 5744 0b3e 9fa8 853d d975 e43b 2619 6e3e
00000390: 5ddd 493e 8bbf d5bd 9f1f 59ba 8554 a03d
000003a0: 5964 3b3e ad3c 39bd b4dc e73d 9e0b 6abd
000003b0: 9f4f ec3d 99a4 0dbd 504e d9bb 8045 c33a
000003c0: c7c8 193e 7886 903c c0ba 013e 28a5 35be
000003d0: 5230 373e 5660 9ebd cd29 e1bc b55c 9a3b
000003e0: 0d06 273e 6367 34bb 236c 3d3e 0112 453d
000003f0: 6ca7 a73e dbbe f0be f224 da3a 86e3 bdbd

pi.net.2.bias f4 [50]
0.07391408 0.1244055 0.0009305924 0.15749575 -0.033040714 0.13697992 -0.14923719 -0.023616098
-0.11508133 0.08791461 0.1397232 0.14801452 0.10630862 0.15808143 0.1892364 -0.23448205
-0.11288323 -0.1415312 -0.034887046 0.05152505 0.22767708 0.06820433 0.17885596 -0.10281242
-0.044440903 0.20418736 0.032861866 -0.07940621 0.017024804 -0.07779735 0.16525573 -0.10219449
-0.07956907 0.17075875 -0.013483472 0.008698878 0.020074384 0.28797844 0.046096757 0.0931216
0.007438979 0.083251625 -0.13510157 0.036213227 -0.036801763 0.10161707 0.032895677 0.098128974
0.039550323 0.009967342
00000000: 4460 973d 50c8 fe3d 00f3 733a 9146 213e
00000010: b355 07bd 7744 0c3e a2d1 18be 8c76 c1bc
00000020: c3af ebbd 930c b43d 9913 0f3e 1e91 173e
00000030: 55b8 d93d 19e0 213e 30c7 413e 101c 70be
00000040: 532f e7bd 8eed 10be b8e5 0ebd ee0b 533d
00000050: 2e24 693e b6ae 8b3d 0426 373e 518f d2bd
00000060: aa07 36bd 7e16 513e 2a9a 063d b99f a2bd
00000070: 9a77 8b3c 3854 9fbd cc38 293e 584b d1bd
00000080: 1cf5 a2bd 62db 2e3e c8e9 5cbc bd85 0e3c
00000090: 0973 a43c e971 933e f4cf 3c3d 8ab6 be3d
000000a0: aec2 f33b d47f aa3d 1158 0abe 5254 143d
000000b0: 72bd 16bd 9c1c d03d 9ebd 063d d8f7 c83d
000000c0: 85ff 213d 104e 233c

pi.net.4.weight f4 [4, 50]
0.5407633 -0.286717 0.073025346 -0.0037659067 0.17669925 -0.41616452 0.2600743 -0.35238856
-0.33192337 0.28668186 0.35222423 0.03183459 0.19633281 0.34578377 -0.452529 0.35581067
0.52180934 0.23804097 0.08334493 0.15385221 0.25291637 0.0043789353 -0.24637875 -0.21594569
-0.4454803 -0.17458986 -0.30377153 -0.11415732 -0.0371802 -0.43839917 -0.2870737 0.19612001
-0.5981524 -0.22303195 0.19478226 0.2110401 -0.2384324 0.061829384 0.096298255 0.15653513
0.03796642 0.08906075 -0.5017889 0.20667158 -0.051942088 0.26912254 0.27405593 0.14853252
0.117237255 -0.11336546 -0.44738454 -0.34361243 0.3330651 -0.30886894 0.21599126 -0.35937667
-0.2842731 0.16007566 -0.31820765 0.16623315 -0.100675344 -0.1059063 -0.10603309 0.2724903
0.15558213 0.50786847 -0.12770844 -0.26869324 -0.13596304 -0.22510467 -0.2951072 0.32636744
-0.2682333 0.2635065 -0.07102681 -0.22227858 0.6525783 0.26609465 0.43436685 0.12126584
-0.02207864 -0.13057889 0.19663751 -0.23503096 -0.17189197 0.21130005 -0.1270547 0.5639872
-0.15175043 0.06663063 -0.11036325 0.08409694 0.093925625 -0.24224843 -0.1843404 0.07792776
0.1296318 0.3705432 -0.18245345 0.20842476 0.10534524 -0.20495698 0.111921325 -0.078604855
0.23802887 0.03954357 -0.24610145 0.24062403 -0.20740457 0.20166326 0.04908902 -0.26183888
0.29462245 0.24477343 0.042260498 0.32154822 -0.16174357 0.3722493 0.3237958 -0.2522905
0.18807353 -0.27951154 -0.12949215 0.33801678 -0.24283382 -0.25655773 -0.13463064 0.032423183
0.4326502 0.064588144 -0.19419976 0.46545902 -0.19668192 0.13248366 0.25113615 -0.028340163
0.28641257 -0.14931414 -0.51119685 -0.13120973 0.45145968 -0.13170531 0.32278454 -0.13674083
0.27101222 -0.23281474 -0.4200723 0.2956683 -0.14709216 -0.21572815 -0.18438348 0.045126457
0.16035713 -0.04217463 -0.042590726 0.2806221 0.21245724 -0.21575473 -0.17294125 0.17802945
-0.42297876 -0.12100449 -0.37096134 -0.05765945 0.29613903 0.03832212 -0.30423877 0.016114002
-0.0018972632 -0.52206206 0.06952137 -0.21641876 0.48887953 0.21085735 -0.4581507 -0.11008513
0.17434902 -0.17235138 0.39071435 0.32698396 -0.07525004 -0.36630654 -0.21340096 -0.54385453
-0.2927543 0.091251895 0.06202186 -0.31531802 0.22634639 0.25234348 -0.31964839 -0.20550898
0.22120017 0.18000364 0.33511597 0.16445807 -0.14996593 0.17827377 0.24130967 -0.2573471
00000000: 776f 0a3f 92cc 92be 508e 953d 6ecd 76bb
00000010: a6f0 343e 8413 d5be 7528 853e 466c b4be
00000020: dcf1 a9be f7c7 923e bc56 b43e fd64 023d
00000030: 780b 493e 920a b13e e2b1 e7be d12c b63e
00000040: 4c95 053f 03c1 733e bfb0 aa3d 6f8b 1d3e
00000050: 417e 813e 2c7d 8f3b b64a 7cbe de20 5dbe
00000060: fe15 e4be afc7 32be f187 9bbe 50cb e9bd
00000070: 444a 18bd db75 e0be 53fb 92be afd3 483e
00000080: 8420 19bf 7d62 64be 0075 473e e51a 583e
00000090: a027 74be cf40 7d3d 0538 c53d bf4a 203e
000000a0: ad82 1b3d 7c65 b63d 3d75 00bf b7a1 533e
000000b0: 3ac1 54bd 6eca 893e 0f51 8c3e e918 183e
000000c0: 161a f03d 262c e8bd 960f e5be f8ed afbe
000000d0: 8287 aa3e 1224 9ebe d02c 5d3e 3800 b8be
000000e0: 3e8c 91be e0ea 233e 1dec a2be 0639 2a3e
000000f0: e02e cebd 67e5 d8bd e027 d9bd d983 8b3e
00000100: ec50 1f3e ab03 023f 00c6 02be 2992 89be
00000110: e539 0bbe d781 66be 4a18 97be a219 a73e
00000120: e055 89be 53ea 863e 8176 91bd ff9c 63be
00000130: 5f0f 273f 8f3d 883e 5565 de3e 3a5a f83d
00000140: 44de b4bc 79b6 05be 585b 493e f5ab 70be
00000150: 7304 30be 0a5f 583e a11a 02be 7761 103f
00000160: 7764 1bbe a475 883d 2106 e2bd 043b ac3d
00000170: 145c c03d f90f 78be bbc3 3cbe 9798 9f3d
00000180: 33be 043e d7b7 bd3e 14d5 3abe 4d6d 553e
00000190: 3fbf d73d 3ee0 51be 0237 e53d 95fb a0bd
000001a0: d7bd 733e 70f8 213d 0502 7cbe 2566 763e
000001b0: dd61 54be d080 4e3e 9111 493d bf0f 86be
000001c0: c1d8 963e e3a5 7a3e 5819 2d3d f8a1 a43e
000001d0: 1ba0 25be 7697 be3e 90c8 a53e 382c 81be
000001e0: 5996 403e 231c 8fbe 9799 04be 8910 ad3e
000001f0: 6ea9 78be 895b 83be 9ddc 09be 2cce 043d
00000200: 5484 dd3e ca46 843d 4ddc 46be a550 ee3e
00000210: fc66 49be cca9 073e eb94 803e a129 e8bc
00000220: aba4 923e cee5 18be ccdd 02bf d85b 06be
00000230: b925 e73e c2dd 06be 0444 a53e ca05 0cbe
00000240: 1dc2 8a3e fd66 6ebe b713 d7be d661 973e
00000250: 549f 16be d7e7 5cbe 06cf 3cbe 85d6 383d
00000260: a934 243e 4ebf 2cbd 9d73 2ebd b3ad 8f3e
00000270: 648e 593e cfee 5cbe 8317 31be 5a4d 363e
00000280: ac90 d8be 34d1 f7bd a5ee bdbe 512c 6cbd
00000290: 899f 973e a8f7 1c3d 2fc5 9bbe 8301 843c
000002a0: 97ad f8ba dca5 05bf 3861 8e3d e19c 5dbe
000002b0: 6b4e fa3e fdea 573e bb92 eabe 5074 e1bd
000002c0: 8d88 323e e17c 30be b60b c83e 716a a73e
000002d0: b11c 9abd 888c bbbe c885 5abe 0d3a 0bbf
000002e0: e4e3 95be 46e2 ba3d a20a 7e3d 5d71 a1be
000002f0: 59c7 673e 2a33 813e f4a8 a3be f270 52be
00000300: 4c82 623e e052 383e 5294 ab3e b267 283e
00000310: ab90 19be 668d 363e e219 773e 00c3 83be

pi.net.4.bias f4 [4]
0.11212739 0.053540546 -0.11628586 -0.12145082
00000000: 0ca3 e53d 554d 5b3d 4827 eebd 35bb f8bd

v.net.0.weight f4 [64, 40]
0.35107455 1.3867012 0.22116351 0.031238157 0.067261025 -0.10960703 -0.101017654 0.43939552
-0.20355357 -0.09083098 -0.025459332 0.017328126 -0.025774255 -0.2509867 0.48785505 0.18413289
-0.03491194 -0.07057486 0.03762459 -0.048667494 0.23294157 1.357713 0.045854118 0.007382111
0.11979843 0.040696543 0.12693511 0.40864712 -0.33495322 0.012746875 0.15216023 0.16201237
0.0010529397 -0.06812108 0.5876019 -0.04921082 0.00069109537 -0.047954433 0.011346109 -0.059763536
-0.8297634 -0.08197421 -0.18451676 0.22141619 0.2674801 0.089248784 -0.079096794 1.2253455
0.022979025 -0.15882373 0.06330038 -0.27472943 0.042238988 -0.51774603 0.16093151 0.19332802
-0.027085423 0.00797584 0.005030743 0.046158124 -0.6994626 0.10272035 -0.22909 0.039479274
0.38961625 -0.012428797 0.0812087 1.1705616 -0.09656801 0.22715302 -0.07446288 0.37497267
0.069308616 -0.5493914 0.2569854 0.13417837 -0.047523696 -0.006464812 0.009413034 0.052181095
-0.2538304 -0.11219115 -0.12029674 0.03536107 0.05697273 -0.06868179 0.06636574 -0.24501869
-0.36406276 0.0019651935 -0.12388615 0.10684977 0.06830498 -0.10452033 0.20664033 0.042522557
-0.14360008 0.021557424 -0.008492132 -0.038774304 -0.42092502 -0.090065464 -0.08603563 0.24689499
-0.11252236 0.030857617 -0.064333074 -0.32290968 -0.39706987 -0.6316217 0.084236294 -0.09755622
0.058992185 -0.16541623 0.12342354 0.19020042 -0.09437803 0.05830998 -0.04531891 -0.02795573
0.047329057 1.5504521 -0.1445481 -0.035927445 -0.15838498 0.0023582634 0.05747071 -0.3987548
0.12343017 -0.15699777 0.034073506 0.34065413 -0.024550969 -0.41612333 0.33917272 -0.1653754
0.029150128 0.07262123 0.066190764 -0.024594516 0.034646478 1.4664992 -0.06678799 -0.10907859
-0.22175038 -0.117470264 0.03498613 -0.41919023 0.22995472 0.1408565 -0.08548729 -0.37521547
-0.033516496 -0.32110807 0.28454372 -0.08768444 0.029204551 0.09852668 0.0145622315 -0.04316864
0.32033437 1.018074 -0.12513459 -0.043547466 -0.0011941779 0.26125968 -0.07260562 -0.4057378
0.14800039 -0.085603245 0.06411013 0.08892274 0.010548054 0.6409929 0.50187904 -0.0020696814
-0.027570907 -0.009271298 -0.049471702 -0.006193294 0.28847584 1.0052961 0.027493458 -0.13513133
-0.20047836 0.041813646 0.05203705 -0.39002275 0.12871717 0.36179772 -0.0024590883 -0.17535743
0.007303924 0.6541877 0.24771395 0.04283364 -0.020777654 0.0050362083 -0.094294816 0.004807604
-0.37168825 -1.0136768 -0.14986369 0.33279443 -0.45242217 0.12210832 -0.019107133 -0.880873
-0.75446796 0.048896346 -0.14510308 0.32542023 0.052910533 0.4638512 0.3239875 0.13106492
-0.03305915 0.045322128 -0.09409794 0.0073341555 -0.22463207 -1.2243128 0.018043078 0.187911
-0.46051794 -0.044376735 -0.08427236 -1.0050157 -0.86970484 -0.037959218 0.18033993 -0.5143615
0.042937156 0.38849264 0.27597156 0.21512005 -0.0558844 0.04667232 -0.11458728 0.0073107746
0.46159628 0.047342036 -0.20563611 -0.09961494 0.068099655 -0.010092137 0.1356967 0.16001
0.46229094 0.07226096 0.02861174 0.080181375 -0.0013249763 0.15777016 -0.5527145 0.17500336
00000000: 0bc0 b33e 6d7f b13f b078 623e 2ae7 ff3c
00000010: 26c0 893d a779 e0bd 58e2 cebd 73f8 e03e
00000020: 5970 50be 9805 babd 1790 d0bc b7f3 8d3c
00000030: 8824 d3bc 5481 80be 23c8 f93e 558d 3c3e
00000040: d3ff 0ebd 8d89 90bd 3e1c 1a3d 9157 47bd
00000050: 3c88 6e3e 8ac9 ad3f 87d1 3b3d a3e5 f13b
00000060: e158 f53d 6bb1 263d 47fb 013e 323a d13e
00000070: fd7e abbe 45d8 503c e4cf 1b3e 92e6 253e
00000080: cb02 8a3a 1183 8bbd 146d 163f 4991 49bd
00000090: a02a 353a de6b 44bd 08e5 393c 9cca 74bd
000000a0: 606b 54bf 18e2 a7bd f6f1 3cbe edba 623e
000000b0: 27f3 883e 11c8 b63d 80fd a1bd 1fd8 9c3f
000000c0: 823e bc3c b0a2 22be a1a3 813d 56a9 8cbe
000000d0: ca02 2d3d 018b 04bf 3bcb 243e c8f7 453e
000000e0: 40e2 ddbc 19ad 023c eed8 a43b 4d10 3d3d
000000f0: fb0f 33bf 0c5f d23d 9296 6abe 05b5 213d
00000100: c87b c73e 27a2 4bbc bf50 a63d f6d4 953f
00000110: 73c5 c5bd cd9a 683e ff7f 98bd 6bfc bf3e
00000120: adf1 8d3d eaa4 0cbf 9793 833e 0e66 093e
00000130: 35a8 42bd c6d6 d3bb 2039 1a3c d8bb 553d
00000140: 0ff6 81be 79c4 e5bd 235e f6bd c5d6 103d
00000150: 3d5c 693d 0aa9 8cbd c3ea 873d 2ee6 7abe
00000160: 6f66 babe 7aca 003b 06b8 fdbd 0dd4 da3d
00000170: 7be3 8b3d c10e d6bd 8699 533e 222c 2e3d
00000180: e60b 13be 3299 b03c 9522 0bbc ced1 1ebd
00000190: 7c83 d7be 3e74 b8bd 7333 b0bd 0ad2 7c3e
000001a0: 2072 e6bd 1dc9 fc3c 0fc1 83bd 6b54 a5be
000001b0: be4c cbbe f6b1 21bf 1484 ac3d 8ecb c7bd
000001c0: caa1 713d df62 29be 7bc5 fc3d e6c3 423e
000001d0: 4549 c1bd 72d6 6e3d 52a0 39bd 6a03 e5bc
000001e0: 1ddc 413d 3775 c63f 6b04 14be a828 13bd
000001f0: ac2f 22be 188d 1a3b 6866 6b3d 9729 ccbe
00000200: f5c8 fc3d 06c4 20be a990 0b3d 386a ae3e
00000210: 1d1f c9bc 1e0e d5be 0ca8 ad3e 2b58 29be
00000220: 40cc ee3c 70ba 943d 068f 873d 707a c9bc
00000230: 77e9 0d3d 3fb6 bb3f 24c8 88bd 9964 dfbd
00000240: 8812 63be 4094 f0bd 9e4d 0f3d 1aa0 d6be
00000250: 4079 6b3e b03c 103e f613 afbd 3e1c c0be
00000260: 9848 09bd 4768 a4be b7af 913e e693 b3bd
00000270: 623e ef3c 5bc8 c93d 6d96 6e3c 9ad1 30bd
00000280: de02 a43e 4050 823f 4823 00be d45e 32bd
00000290: f685 9cba d4c3 853e 41b2 94bd ddbc cfbe
000002a0: 6a8d 173e c150 afbd 2c4c 833d 201d b63d
000002b0: bfd1 2c3c 1c18 243f 257b 003f 7ea3 07bb
000002c0: 62dc e1bc a4e6 17bc d7a2 4abd 1ef1 cabb
000002d0: 1bb3 933e 8bad 803f f639 e13c de5f 0abe
000002e0: 334a 4dbe c944 2b3d cd24 553d 10b1 c7be
000002f0: 6fce 033e 8d3d b93e a828 21bb e690 33be
00000300: c155 ef3b d878 273f baa8 7d3e 5472 2f3d
00000310: e635 aabc c706 a53b a41d c1bd 1b89 9d3b
00000320: ec4d bebe 29c0 81bf de75 19be 0864 aa3e
00000330: e1a3 e7be ed13 fa3d 9086 9cbc e580 61bf
00000340: d024 41bf 8947 483d e795 14be 7b9d a63e
00000350: b7b8 583d e87d ed3e b1e1 a53e e235 063e
00000360: 0869 07bd b2a3 393d 6cb6 c0bd 5b53 f03b
00000370: f305 66be 48b6 9cbf 14cf 933c be6b 403e
00000380: 02c9 ebbe 61c4 35bd fd96 acbd 5ba4 80bf
00000390: faa4 5ebf 207b 1bbd 08ab 383e 32ad 03bf
000003a0: dfde 2f3d 82e8 c63e 254c 8d3e 6e48 5c3e
000003b0: 0ae7 64bd 7a2b 3f3d bcac eabd 398f ef3b
000003c0: 5956 ec3e b9e9 413d 4692 52be eb02 ccbd
000003d0: d577 8b3d 7e59 25bc 13f4 0a3e a9d9 233e
000003e0: 66b1 ec3e 8efd 933d 2b63 ea3c 2236 a43d
000003f0: d4aa adba 808e 213e b37e 0dbf 1534 333e

v.net.0.bias f4 [64]
-0.16615091 0.025241561 2.0508473 -0.032697883 0.04795164 -0.36208904 0.9074032 0.010831716
-0.5546986 -0.7592704 0.10319981 0.08417411 0.72713304 0.003119174 -0.36644876 -0.9086217
0.4626549 -0.19876459 -1.1502888 -0.14394142 -0.24605761 -0.04240055 -0.05578219 0.87237227
-0.7689672 0.26211032 -0.31808496 0.008776308 -0.218949 -0.34498495 0.9395584 0.86656445
-0.1814045 -0.86973673 -0.5214502 -0.66250247 0.10540387 -1.1363608 -0.11552238 -0.9607403
-0.443153 0.8994239 -1.1852379 -0.11839261 0.7900522 -0.05247913 0.08999077 0.93586147
-0.89085233 -0.7775401 0.7311045 0.027140822 0.19528137 -0.2689953 -0.4223972 0.3823976
-1.2351878 0.37354937 -0.4678483 -0.32944325 -0.21483235 1.047143 0.08036457 0.9229857
00000000: 7723 2abe 64c7 ce3c 1541 0340 37ee 05bd
00000010: f068 443d bc63 b9be 934b 683f 8277 313c
00000020: ba00 0ebf 8c5f 42bf 6c5a d33d 7a63 ac3d
00000030: 6425 3a3f 0e6b 4c3b 2c9f bbbe 6f9b 68bf
00000040: 1ae1 ec3e f288 4bbe aa3c 93bf 6165 13be
00000050: 87f6 7bbe 33ac 2dbd de7b 64bd ca53 5f3f
00000060: 09db 44bf 5333 863e 08dc a2be 81ca 0f3c
00000070: 2b34 60be dea1 b0be e686 703f 2bd7 5d3f
00000080: 1ac2 39be 11a7 5ebf c37d 05bf c399 29bf
00000090: fcdd d73d 4574 91bf ff96 ecbd 14f3 75bf
000000a0: f3e4 e2be a540 663f e0b5 97bf d377 f2bd
000000b0: dc40 4a3f 5bf4 56bd 154d b83d 9e94 6f3f
000000c0: e60e 64bf de0c 47bf aa29 3b3f 6e56 de3c
000000d0: d7f7 473e c1b9 89be 7244 d8be 9ec9 c33e
000000e0: a21a 9ebf dd41 bf3e d089 efbe c9ac a8be
000000f0: 03fd 5bbe c808 863f 2e96 a43d ca48 6c3f

v.net.2.weight f4 [64, 64]
-0.03965989 -0.16152355 0.011218086 -0.09127139 0.41972604 0.015168932 0.1570638 0.25691092
0.103306584 -0.04659301 0.012950537 -0.007177041 -0.036184367 0.30540285 -0.13285291 0.18159229
-0.011822539 0.009303587 -0.08776367 0.23312747 0.019679477 -0.18014789 -0.15553638 0.16113462
-0.0648231 -0.17313889 0.089376956 -0.23494972 0.17722799 0.0022269299 -0.1129977 -0.016633093
0.1576167 -0.14281102 -0.027405402 -0.21767335 0.2921994 0.23563999 -0.10338685 -0.099022955
-0.054138396 0.12285179 -0.1718547 0.089339234 0.052080147 0.6032884 0.044911776 0.09047338
0.035756394 0.03364384 0.18345556 0.37284327 0.09199202 -0.3867492 -0.02582761 -0.0057429476
-0.1441758 -0.1247143 -0.20645262 0.10749425 -0.013136183 -0.018693998 -0.07196595 0.043737285
0.20736831 -0.10873992 0.20305765 -0.544741 -0.020637378 0.45093232 0.38256878 0.5361164
-0.19197865 -0.032904174 0.29147738 0.015769968 0.047175307 0.60169595 0.0024532578 -0.09062529
-0.063982956 -0.02845192 0.2825466 0.23350385 0.1445106 -0.28603783 0.28160653 -0.14760214
0.26715088 -0.35299185 0.30940995 -0.30499998 0.066080466 0.021724269 -0.19138218 -0.17308599
0.23983116 0.062226627 -0.07764697 -0.12074322 0.12535198 -0.10338907 0.032754064 0.054137
0.032240413 -0.26771483 0.08153257 0.052812986 -0.09181884 0.48394385 0.18572272 -0.13907285
0.17462637 0.04765305 0.13346604 0.36735755 0.42548686 -0.07269664 0.15002905 -0.021745427
0.3602731 0.011673912 -0.3733853 0.27457157 -0.16814196 -0.23985927 0.027119907 -0.11476438
0.11256323 -0.47098288 0.06297544 -0.5335387 0.19853361 0.41055897 0.19977981 0.44463247
-0.06786435 0.05715032 0.1696338 -0.28635514 -0.14717923 0.2944511 0.43260986 0.064505436
-0.0592802 0.0022628824 0.118359126 0.11055117 0.11358651 -0.47525817 0.27354312 -0.07221184
0.10107929 -0.37514022 0.33869135 -0.09927935 -0.108023256 -0.016530447 -0.020335607 -0.014829129
0.3589408 0.15210122 -0.11973052 -0.061619446 0.37480444 0.09400711 0.14478554 0.051889274
0.15050824 -0.25013432 0.08424094 0.14191136 -0.023289979 0.13410696 0.2683395 -0.4305838
0.12701637 0.1501763 -0.094887316 -0.029923765 0.29792252 -0.25341475 0.06350531 -0.06485953
0.15703854 -0.23019554 -0.27737322 0.14965549 -0.025867702 -0.19131516 0.06995982 -0.23783144
0.007875762 0.0012660396 0.20187795 -0.25150648 0.39631918 -0.27518368 0.06613376 0.10447456
0.15267162 -0.009807335 -0.29363117 0.45758146 0.17032608 0.24636805 -0.25338584 -0.020905158
0.23191382 0.0649448 -0.047988877 0.1839002 0.11642218 -0.21818581 -0.13386278 -0.13671406
0.17685403 -0.19271469 -0.07172804 -0.16252023 0.3329329 -0.08346534 -0.061600048 0.26231962
-0.17659095 -0.32234755 0.00011901429 -0.099362366 0.20446059 0.07886441 -0.077050924 0.008850923
-0.39214614 0.059276365 -0.17237566 0.026833663 -0.0014812242 0.33595356 -0.2319542 0.08502839
-0.12149743 -0.043271735 0.14777505 0.22348176 0.1371132 -0.3448759 -0.17826113 0.0367007
-0.18289492 0.11973645 -0.14399156 0.02410583 0.088099785 -0.03819441 -0.24418814 0.252275
00000000: 6972 22bd 6e66 25be 10cc 373c 7fec babd
00000010: 55e6 d63e 1d87 783c 55d5 203e d489 833e
00000020: 6792 d33d 50d8 3ebd 7d2e 543c 622d ebbb
00000030: 0f36 14bd c35d 9c3e 980a 08be 54f3 393e
00000040: 53b3 41bc 126e 183c 70bd b3bd f8b8 6e3e
00000050: db36 a13c b078 38be ee44 1fbe 7900 253e
00000060: f9c1 84bd 524b 31be 440b b73d a996 70be
00000070: 417b 353e aff1 113b 576b e7bd 2042 88bc
00000080: 4666 213e 0d3d 12be 4b81 e0bc c3e5 5ebe
00000090: 299b 953e 9c4b 713e 7cbc d3bd 8ccc cabd
000000a0: 39c0 5dbd b899 fb3d aefa 2fbe 7df7 b63d
000000b0: fe51 553d 1c71 1a3f 69f5 373d 1c4a b93d
000000c0: 4c75 123d 20ce 093d c6db 3b3e 50e5 be3e
000000d0: 5066 bc3d fe03 c6be 6d94 d3bc 562f bcbb
000000e0: d2a2 13be 366a ffbd 5168 53be f225 dc3d
000000f0: 2539 57bc 2824 99bc e262 93bd de25 333d
00000100: 5c58 543e 09b3 debd 58ee 4f3e 2574 0bbf
00000110: b80f a9bc 9ae0 e63e 0ee0 c33e ed3e 093f
00000120: 0d96 44be 87c6 06bd 863c 953e 0530 813c
00000130: e53a 413d bf08 1a3f d6c6 203b c199 b9bd
00000140: 7f09 83bd 0014 e9bc f3a9 903e a21b 6f3e
00000150: 96fa 133e 8d73 92be bb2e 903e 0425 17be
00000160: 00c8 883e 59bb b4be fb6a 9e3e f528 9cbe
00000170: 3255 873d 18f7 b13c b1f9 43be 743d 31be
00000180: 4d96 753e 59e1 7e3d 6005 9fbd 3948 f7bd
00000190: 455c 003e a6bd d3bd 2029 063d c2be 5d3d
000001a0: 860e 043d eb11 89be 8cfa a63d 6e52 583d
000001b0: 840b bcbd 7dc7 f73e 192e 3e3e 1d69 0ebe
000001c0: 41d1 323e d82f 433d 52ab 083e 4a16 bc3e
000001d0: 6ad9 d93e fae1 94bd 37a1 193e 7723 b2bc
000001e0: b775 b83e f043 3f3c 5c2c bfbe a594 8c3e
000001f0: 682d 2cbe ab9d 75be 912a de3c 9609 ebbd
00000200: 8d87 e63d ab24 f1be 44f9 803d fe95 08bf
00000210: 654c 4b3e c934 d23e 1493 4c3e dea6 e33e
00000220: 77fc 8abd 7416 6a3d 7cb4 2d3e 249d 92be
00000230: 27b6 16be 4bc2 963e 0a7f dd3e 6d1b 843d
00000240: cccf 72bd de4c 143b 4566 f23d a768 e23d
00000250: 0ba0 e83d 0a55 f3be d80d 8c3e cde3 93bd
00000260: a902 cf3d 6112 c0be f468 ad3e f952 cbbd
00000270: 4c3b ddbd dc6a 87bc dc96 a6bc e0f5 72bc
00000280: 17c7 b73e 6cc0 1b3e 4635 f5bd ac64 7cbd
00000290: 5ee6 bf3e cd86 c03d a942 143e d989 543d
000002a0: d51e 1a3e 9b11 80be 8486 ac3d 3651 113e
000002b0: a0ca bebc 5653 093e cc63 893e 7b75 dcbe
000002c0: 9410 023e d1c7 193e 4854 c2bd af22 f5bc
000002d0: 4d89 983e 94bf 81be 120f 823d 13d5 84bd
000002e0: b6ce 203e 61b8 6bbe dd03 8ebe 4a3f 193e
000002f0: 81e8 d3bc 1fe8 43be 1847 8f3d 168a 73be
00000300: 5709 013c 3df1 a53a 18b9 4e3e 75c5 80be
00000310: 59ea ca3e e0e4 8cbe 2371 873d c2f6 d53d
00000320: f355 1c3e f2ae 20bc d356 96be 1e48 ea3e
00000330: f669 2e3e e847 7c3e cabb 81be 4b41 abbc
00000340: d17a 6d3e c801 853d fc8f 44bd 5650 3c3e
00000350: c06e ee3d 1a6c 5fbe 5313 09be c5fe 0bbe
00000360: 3919 353e 0057 45be 27e6 92bd b46b 26be
00000370: 2e76 aa3e e0ef aabd 5550 7cbd c24e 863e
00000380: 42d4 34be bd0a a5be 4f97 f938 7f7e cbbd
00000390: 1e5e 513e aa83 a13d e0cc 9dbd 7603 113c
000003a0: 61c7 c8be c6cb 723d 3f83 30be 45d2 db3c
000003b0: a325 c2ba 1b02 ac3e 6785 6dbe 5d23 ae3d
000003c0: a5d3 f8bd b43d 31bd 5852 173e 67d8 643e
000003d0: 6767 0c3e 9393 b0be 168a 36be 7953 163d
000003e0: ce48 3bbe 6238 f53d 8672 13be 9779 c53c
000003f0: a96d b43d be71 1cbd 750c 7abe 302a 813e

v.net.2.bias f4 [64]
-0.26333815 -0.76698834 -0.57690483 -0.3978088 0.030516818 0.045390587 0.46441317 -0.5363499
0.8576188 0.6801246 0.7812579 0.5208123 -0.22655547 -0.38455892 0.2731417 0.08917638
-0.40247402 0.47999665 -0.43449393 -0.009743772 0.36097026 0.50032264 0.66779345 -0.22922827
0.49803936 0.46464574 -0.43231252 -0.65868473 0.22383174 0.40102476 -0.46143994 0.20333287
-0.5554314 0.094274506 0.48810858 0.034041367 -0.15219864 0.28082082 0.55022466 -0.46999234
0.32626504 0.29021817 -0.64214784 -0.24641934 0.4901659 0.5576048 0.023001099 -0.30217344
-0.76510704 -0.46556106 -0.44778872 -0.5236651 -0.6050901 -0.40023294 -0.49107876 0.53807545
0.29515672 -0.5284659 0.3688985 0.67252374 0.17023379 0.46033484 -0.6723668 -0.36847082
00000000: 42d4 86be 5959 44bf 09b0 13bf 98ad cbbe
00000010: 68fe f93c 7beb 393d 90c7 ed3e 3a4e 09bf
00000020: e88c 5b3f a51c 2e3f 8500 483f f453 053f
00000030: 28fe 67be e8e4 c4be 3bd9 8b3e 1ba2 b63d
00000040: 1311 cebe 1fc2 f53e fd75 debe 58a4 1fbc
00000050: 18d1 b83e 2515 003f 83f4 2a3f d1ba 6abe
00000060: 04ff fe3e 0ce6 ed3e 1158 ddbe 909f 28bf
00000070: 2634 653e 1e53 cd3e db41 ecbe 7e36 503e
00000080: c130 0ebf fe12 c13d 5ee9 f93e f66e 0b3d
00000090: f6d9 1bbe bfc7 8f3e 86db 0c3f d6a2 f0be
000000a0: 360c a73e 7a97 943e cd63 24bf 5a55 7cbe
000000b0: 06f7 fa3e 30bf 0e3f cd6c bc3c 7ab6 9abe
000000c0: 0ede 43bf 055e eebe 9044 e5be ea0e 06bf
000000d0: 2fe7 1abf 55eb ccbe ad6e fbbe 50bf 093f
000000e0: c81e 973e 8b49 07bf 44e0 bc3e 842a 2c3f
000000f0: c451 2e3e 02b1 eb3e 3b20 2cbf 35a8 bcbe

v.net.4.weight f4 [1, 64]
0.058686633 0.1581371 0.110722676 0.12091862 0.13708436 -0.15711005 -0.10659546 0.14299896
-0.16861315 -0.2289874 -0.16286969 -0.1397676 0.27663654 0.036756583 -0.12655869 -0.1304301
0.15481056 -0.033594538 0.13257186 0.2312005 -0.14061448 -0.15375373 -0.24185449 0.03966601
-0.17097561 -0.08575328 0.16819799 0.18607126 -0.23436093 -0.1825336 0.119223855 -0.10303639
0.11372943 -0.31680834 -0.06800572 -0.10735921 0.19683415 -0.11001264 -0.10422531 0.15049314
-0.07478077 -0.08978548 0.247677 0.13852344 -0.12761478 -0.15101211 -0.097756386 0.09966791
0.14741972 0.114184886 0.11806089 0.10318042 0.15960465 0.13002573 0.131822 -0.20279618
-0.11606491 0.19667684 -0.096428044 -0.14221267 -0.09336013 -0.054976624 0.1676681 0.15623607
00000000: 6561 703d b1ee 213e 92c2 e23d 2ea4 f73d
00000010: d85f 0c3e 75e1 20be b84e dabd 526e 123e
00000020: eda8 2cbe ac7b 6abe 50c7 26be 3d1f 0fbe
00000030: 4ea3 8d3e 128e 163d 9a98 01be 788f 05be
00000040: a986 1e3e 6d9a 09bd ebc0 073e d3bf 6c3e
00000050: 3efd 0fbe 9e71 1dbe b4a8 77be d378 223d
00000060: 3b14 2fbe 6a9f afbd 183c 2c3e 7789 3e3e
00000070: 50fc 6fbe 17ea 3abe a32b f43d be04 d3bd
00000080: faea e83d b434 a2be 9546 8bbd 25df dbbd
00000090: e48e 493e 4f4e e1bd 1474 d5bd e01a 1a3e
000000a0: a926 99bd 73e1 b7bd 0a9f 7d3e 17d9 0d3e
000000b0: 73ad 02be eba2 1abe 8034 c8bd b01e cc3d
000000c0: 32f5 163e c4d9 e93d e8c9 f13d 4250 d33d
000000d0: 676f 233e 7725 053e 59fc 063e cda9 4fbe
000000e0: 71b3 edbd a765 493e 117c c5bd 33a0 11be
000000f0: 9933 bfbd 2b2f 61bd 30b1 2b3e 59fc 1f3e

c.net.0.weight f4 [64, 40]
0.022062771 -0.103217736 -0.15308899 0.03292922 0.010065628 0.05106748 -0.027121069 -0.066331886
0.09044727 0.0818409 -0.10530935 -0.05534776 -0.022125404 -0.1489974 -0.03330559 -0.046539336
-0.06216458 0.10589958 0.109921485 -0.0407764 0.07960099 -0.005983106 0.099293955 0.09951302
0.0342193 0.09932862 -0.037857067 -0.024142398 0.10942382 -0.082076095 -0.018681532 0.072616056
0.08211291 0.092747845 -0.0068184026 -0.13235886 -0.106442794 -0.0896236 0.07354326 -0.1467086
-0.13059436 0.14508764 -0.014366021 -0.055542994 0.077767126 -0.13616946 -0.04435376 0.13897458
-0.035673942 0.13361523 -0.12679237 0.1033759 -0.10764532 0.093961276 -0.037978224 0.13035205
-0.039756104 0.013676067 0.016808014 -0.1523261 0.0044849594 0.11431857 0.011962009 0.11635752
0.10387159 -0.121583216 0.04027248 0.056217305 -0.13087319 -0.12246917 0.0780396 0.011243159
0.05399226 0.056752946 0.0020503178 -0.114315085 0.079986386 -0.09274277 -0.107731834 0.12575789
-0.06429766 -0.01773075 0.0314565 -0.1045464 0.057246458 -0.026797174 -0.15717153 0.11921134
0.04166223 -0.11160798 -0.057062194 -0.13605611 -0.06894909 0.0065985895 0.06349584 -0.080386996
0.14928919 -0.14738685 0.12647374 -0.11195777 0.01631092 0.04952451 0.116877176 0.102514304
0.022469431 0.0066004745 -0.10550411 -0.11665663 0.021929115 -0.08808787 -0.057306096 -0.019828642
0.14304765 -0.11684747 -0.04696624 -0.14799418 -0.050042752 -0.003309181 0.091925025 0.08276624
-0.057814427 0.12581399 0.016538931 0.04978462 0.039039366 0.05389664 -0.13843565 0.14022094
-0.024946801 -0.0321847 -0.14831746 0.10160143 0.14452037 0.08756919 -0.13515827 0.01653663
0.10375304 0.07477423 0.025143694 0.09822149 -0.04117705 -0.10524734 0.13490166 -0.081779286
0.13691649 0.06948604 -0.01140914 0.14073342 0.13858053 0.1391073 -0.12561195 -0.052437905
-0.061170653 0.13433002 -0.1090928 -0.15290493 -0.06310528 0.0049295234 -0.026450792 -0.09168646
0.06190377 -0.058022384 0.02201663 -0.00050829136 0.019497376 -0.067340866 0.043530546 -0.035291728
-0.020799384 0.043209404 0.12621018 -0.14880343 0.050008673 -0.09378976 0.14024049 -0.08851617
-0.025699032 -0.112655856 0.079162665 -0.06451538 0.1300712 0.030220049 0.103417 -0.11490376
0.065866604 0.07051881 0.015873272 0.015815124 -0.09680492 0.099640794 0.12040272 -0.08252871
0.009383213 0.018982846 -0.016966285 -0.12638423 0.11700701 0.09853339 0.084148034 0.034258824
-0.048441656 -0.023058677 -0.10553342 0.073222585 0.08054016 -0.10261695 0.114043586 -0.14105766
0.044187497 -0.12507704 -0.07249537 -0.09290378 -0.08573933 -0.1310569 -0.13366045 -0.02891512
-0.12646715 -0.12599054 -0.13284685 -0.08336423 -0.065995246 -0.13465849 0.008190622 -0.12399062
-0.090035655 0.06623466 0.052333824 -0.005606491 -0.060739454 -0.1051344 0.10789365 -0.12840113
-0.023490423 -0.0701178 0.053284775 -0.058506265 -0.017162802 -0.12974654 0.10434913 0.07290921
-0.014360668 0.00013007449 -0.012611514 -0.1196566 -0.13537578 0.022239609 -0.13481969 0.02889169
-0.020584188 0.05172716 0.014832714 -0.00472888 0.0381535 -0.062221617 -0.088198535 0.09809971
00000000: fcbc b43c d263 d3bd 5cc3 1cbe cae0 063d
00000010: 4eea 243c 222c 513d 012d debc 03d9 87bd
00000020: 6b3c b93d 349c a73d 6eac d7bd 55b4 62bd
00000030: 5640 b5bc c692 18be 716b 08bd 08a0 3ebd
00000040: 49a0 7ebd e1e1 d83d 841e e13d 2805 27bd
00000050: d805 a33d ee0d c4bb a15a cb3d 7bcd cb3d
00000060: 8929 0c3d ce6c cb3d 0310 1bbd 47c6 c5bc
00000070: 9919 e03d 8317 a8bd 030a 99bc bab7 943d
00000080: d02a a83d 95f2 bd3d e86c dfbb 1589 07be
00000090: aefe d9bd 948c b7bd d99d 963d c73a 16be
000000a0: 87ba 05be db91 143e 765f 6bbc 0d81 63bd
000000b0: 5f44 9f3d 0270 0bbe 4aac 35bd 5a4f 0e3e
000000c0: d71e 12bd 6ed2 083e dcd5 01be beb6 d33d
000000d0: 2675 dcbd c56e c03d 0e8f 1bbd 027b 053e
000000e0: 4cd7 22bd 9511 603c f6b0 893c 60fb 1bbe
000000f0: 91f6 923b db1f ea3d 4dfc 433c da4c ee3d
00000100: a1ba d43d 9f00 f9bd c2f4 243d 1e44 663d
00000110: 9f03 06be 1ed1 fabd 3ad3 9f3d 3a35 383c
00000120: fd26 5d3d c775 683d a05e 063b 071e eabd
00000130: e7cf a33d ecef bdbd 82a2 dcbd adc6 003e
00000140: 7eae 83bd 1440 91bc 88d8 003d 6c1c d6bd
00000150: 437b 6a3d bf85 dbbc 93f1 20be 1325 f43d
00000160: 04a6 2a3d ba92 e4bd 0cba 69bd 4b52 0bbe
00000170: 2e35 8dbd fb38 d83b 1b0a 823d f0a1 a4bd
00000180: 44df 183e 94ec 16be 5582 013e 1e4a e5bd
00000190: 7a9e 853c 36da 4a3d 4d5d ef3d 05f3 d13d
000001a0: d011 b83c cb48 d83b 8a12 d8bd ace9 eebd
000001b0: b0a4 b33c 6a67 b4bd ccb9 6abd ad6f a2bc
000001c0: 157b 123e ba4d efbd ac5f 40bd c98b 17be
000001d0: a1f9 4cbd d8de 58bb 3043 bc3d 5981 a93d
000001e0: d2ce 6cbd 62d5 003e a77c 873c f5ea 4b3d
000001f0: bee7 1f3d b9c2 5c3d 13c2 0dbe 1496 0f3e
00000200: 3c5d ccbc 1bd4 03bd 88e0 17be 6914 d03d
00000210: 26fd 133e 7a57 b33d ee66 0abe d477 873c
00000220: 797c d43d 3b23 993d 26fa cd3c 5928 c93d
00000230: 44a9 28bd eb8b d7bd a923 0a3e e67b a7bd
00000240: d633 0c3e b24e 8e3d 67ed 3abc 6c1c 103e
00000250: 0ee8 0d3e 2572 0e3e 6ba0 00be 21c9 56bd
00000260: 148e 7abd cf8d 093e 0c6c dfbd 1c93 1cbe
00000270: 573d 81bd d787 a13b 55af d8bc 1cc6 bbbd
00000280: cf8e 7d3d e1a8 6dbd 385c b43c db3e 05ba
00000290: f6b8 9f3c 02ea 89bd 164d 323d 0f8e 10bd
000002a0: 7863 aabc 58fc 303d 3e3d 013e ed5f 18be
000002b0: e5d5 4c3d d814 c0bd 349b 0f3e f747 b5bd
000002c0: c786 d2bc 1db8 e6bd 0920 a23d a420 84bd
000002d0: 6231 053e 0990 f73c 4bcc d33d aa52 ebbd
000002e0: 12e5 863d 2a6c 903d aa08 823c b88e 813c
000002f0: a841 c6bd 7910 cc3d b495 f63d d004 a9bd
00000300: 0cbc 193c ea81 9b3c e1fc 8abc de6a 01be
00000310: 5fa1 ef3d e0cb c93d ce55 ac3d fb52 0c3d
00000320: c26a 46bd 8de5 bcbc e821 d8bd b9f5 953d
00000330: 3df2 a43d d628 d2bd af8f e93d 6b71 10be
00000340: f3fd 343d 3214 00be 7478 94bd 5644 bebd
00000350: 1a98 afbd c833 06be 49de 08be 67df ecbc
00000360: 9b80 01be aa03 01be 0109 08be deba aabd
00000370: 8428 87bd eae3 09be f531 063c cbee fdbd
00000380: 9d64 b8bd 0aa6 873d fe5b 563d a8b6 b7bb
00000390: efc9 78bd b450 d7bd 59f7 dc3d 967b 03be
000003a0: fd6e c0bc ec99 8fbd 2341 5a3d 44a4 6fbd
000003b0: 0199 8cbc 47dc 04be ffb4 d53d 6d51 953d
000003c0: 0249 6bbc 9b64 0839 86a0 4ebc 850e f5bd
000003d0: f39f 0abe d72f b63c 2c0e 0abe 44ae ec3c
000003e0: 2ca0 a8bc dcdf 533d e904 733c b8f4 9abb
000003f0: d846 1c3d 18dc 7ebd 6fa1 b4bd 80e8 c83d

c.net.0.bias f4 [64]
-0.065329246 -0.01571434 -0.050423022 -0.03919568 -0.094323434 -0.09845429 -0.121975206 -0.072543226
-0.08683285 0.1189992 0.13422984 -0.13271856 -0.12196473 0.04845847 0.037185922 -0.011908196
-0.009215234 0.15525506 0.14067481 -0.025809485 0.033538803 0.092003845 0.026016688 0.10136171
-0.11542444 -0.14828084 -0.1321222 0.13865446 -0.0008304147 -0.043950174 -0.11930132 0.110626005
0.05407346 0.14701363 0.12690498 0.099980615 0.120112136 0.04067739 -0.04796024 0.027183268
-0.073862515 -0.06906339 0.13629052 0.07577994 0.02424616 -0.08194855 0.01173639 0.034565434
0.06828417 -0.03417853 -0.036830418 -0.024045063 0.15464342 0.07694407 0.11326723 0.12953047
0.1186416 -0.0005101197 -0.1401868 0.006388201 -0.10810334 -0.03655421 0.095915206 0.06291981
00000000: 57cb 85bd 5cbb 80bc 5f88 4ebd a68b 20bd
00000010: a52c c1bd 67a2 c9bd 23ce f9bd 8b91 94bd
00000020: 6cd5 b1bd dab5 f33d 8c73 093e 60e7 07be
00000030: a5c8 f9bd 637c 463d 4450 183d 981a 43bc
00000040: 7efb 16bc 2ffb 1e3e 0f0d 103e 6a6e d3bc
00000050: fc5f 093d 836c bc3d f320 d53c ba96 cf3d
00000060: a663 ecbd efd6 17be 0b4b 07be 6ffb 0d3e
00000070: 30b0 59ba 1905 34bd 4054 f4bd e38f e23d
00000080: 227c 5d3d be8a 163e 61f3 013e a3c2 cc3d
00000090: 5afd f53d 569d 263d f571 44bd 72af de3c
000000a0: 3b45 97bd 1b71 8dbd be8f 0b3e 8332 9b3d
000000b0: e29f c63c a4d4 a7bd fd49 403c 7c94 0d3d
000000c0: 92d8 8b3d c9fe 0bbd 7edb 16bd 27fa c4bc
000000d0: d85a 1e3e da94 9d3d a6f8 e73d a3a3 043e
000000e0: 5efa f23d 8eb9 05ba 218d 0fbe 1d54 d13b
000000f0: 4965 ddbd deb9 15bd 316f c43d 1adc 803d
