experiments/07_control_structure_hypothesis/checkpoints/Attitude/ppo/2021-12-14__11-59-17/seed_00039/torch_save/model.pt (torch, 82448 bytes, 19 tensors)

obs_oms.mean f4 [40]
0.24981377 0.00017824478 1.0084753 -0.0006140345 0.0014399186 0.0018946327 0.9967264 0.0073949103
0.0063415165 -0.0052986247 -0.0015653098 0.0012148401 0.018744612 -0.00065275916 0.0017354001 -0.008474439
0.24608186 -0.008046115 0.021766122 0.047486644 0.24988888 0.000242026 1.0084178 -0.0006121392
0.0014499174 0.0019280717 0.9967819 0.0075950893 0.0063934946 -0.0055110515 -0.0015162427 0.0011084042
0.01894918 -0.00068765145 0.0016887686 -0.008418548 0.24471767 -0.007794695 0.021851406 0.04740157
00000000: 2ecf 7f3e 38e7 3a39 b815 813f 28f7 20ba
00000010: a7bb bc3a 5355 f83a 7629 7f3f 0151 f23b
00000020: 7fcc cf3b 16a0 adbb 152b cdba 453b 9f3a
00000030: 4d8e 993c ed1d 2bba 5d76 e33a 60d8 0abc
00000040: e2fc 7b3e dad3 03bc de4e b23c 5b81 423d
00000050: dfe2 7f3e 5cc8 7d39 d613 813f f777 20ba
00000060: 280b be3a 5ab7 fc3a 192d 7f3f 3ae0 f83b
00000070: 8580 d13b 0d96 b4bb aabc c6ba e047 913a
00000080: 503b 9b3c 8243 34ba ac59 dd3a f3ed 09bc
00000090: 4597 7a3e a46a ffbb b801 b33c 2628 423d

obs_oms.std f4 [40]
0.17467764 0.17481264 0.041655958 0.04934457 0.049951658 0.040054973 0.003273841 0.3606979
0.35719705 0.12126262 0.8184404 0.80609995 0.4716226 0.057090648 0.059591368 0.041656155
0.89826393 0.6895994 0.73478544 0.6062284 0.1747733 0.17491549 0.042097684 0.048950173
0.049562283 0.039651543 0.0031436936 0.36150506 0.3578572 0.12271273 0.8195293 0.80704486
0.47253668 0.057680253 0.060179073 0.042097643 0.8987918 0.68849534 0.73313814 0.6062589
00000000: b2de 323e 1602 333e 709f 2a3d 881d 4a3d
00000010: 1c9a 4c3d af10 243d f08d 563b 65ad b83e
00000020: 88e2 b63e 8958 f83d 4f85 513f 915c 4e3f
00000030: 8478 f13e e2d7 693d 1416 743d a59f 2a3d
00000040: a0f4 653f 9689 303f e61a 3c3f c931 1b3f
00000050: c6f7 323e 0c1d 333e 9f6e 2c3d fa7f 483d
00000060: d201 4b3d a869 223d 6d06 4e3b 3117 b93e
00000070: 0f39 b73e d050 fb3d accc 513f 7e9a 4e3f
00000080: 54f0 f13e 2142 6c3d 557e 763d 946e 2c3d
00000090: 3817 663f 3b41 303f f1ae 3b3f c933 1b3f

pi.log_std f4 [4]
-4.5100417 -4.5100417 -4.5100417 -4.5100417
00000000: 4352 90c0 4352 90c0 4352 90c0 4352 90c0

pi.net.0.weight f4 [50, 40]
0.026975185 -0.2001644 0.01502462 0.019068073 -0.084145345 -0.10429591 -0.007937247 -0.08748393
-0.39045388 -0.64432466 -0.2495864 -0.20271142 0.1157137 -0.13112655 0.03096875 0.32202294
-0.14229321 0.15672712 -0.0736072 0.16163944 0.08129288 -0.38973156 -0.16333896 0.23398723
0.013056849 -0.052765217 0.128307 -0.09610126 -0.380426 -0.7200553 -0.09141448 -0.015776956
0.18862334 0.016406529 0.111970305 0.24838354 -0.051827844 -0.11350255 -0.14842783 0.20962775
-0.019919317 -0.37229887 0.23132648 -0.09265241 0.2657279 -0.0711485 -0.13237256 0.2984835
0.027584618 0.27040616 -0.10846805 -0.16960168 -0.11055553 -0.30354595 -0.16306011 -0.2169934
-0.050545022 0.030500209 0.09167775 0.23087254 0.044354923 -0.2881031 0.0847907 -0.07039589
0.17303774 -0.00821324 0.15388086 0.4128753 -0.018832942 0.36175236 0.09833797 0.23162015
0.03931552 -0.3677656 -0.22396304 -0.22426713 0.27877492 0.14006166 -0.13632897 -0.12356958
0.084173754 -0.079345785 -0.12540412 -0.30944997 0.23587199 0.017816557 -0.056797083 0.16449374
-0.02001477 0.038857553 0.08447865 0.05332547 0.015791312 0.039130386 0.20305033 -0.115692645
-0.15838324 0.06695532 0.3172232 -0.33329445 0.013583896 0.014260748 -0.107873365 -0.21087377
0.4133696 -0.018628515 0.09484108 0.15876606 0.26659143 0.19318509 -0.42384854 0.22207536
-0.03205212 -0.14141372 0.027715728 0.033937298 0.103086755 -0.039330393 0.066451706 -0.0005956182
-0.15001471 0.3705622 -0.054734096 -0.05978685 -0.08388025 0.06481809 0.23660865 -0.4885358
-0.11017965 0.055181805 -0.098635666 0.2078262 0.15015596 0.16165811 0.06905337 -0.13247137
-0.14156738 0.17454697 -0.0763632 0.054584913 -0.17181458 0.3448231 0.1552291 -0.04796511
-0.023643853 -0.05375147 0.0711221 -0.24723832 0.10781925 -0.1924649 0.115841456 -0.04721412
-0.026466267 0.27144805 0.16606553 0.112870716 0.22691193 -0.017292473 -0.12510017 0.03604936
-0.028889658 -0.18316056 -0.02845056 0.40274292 -0.068079926 -0.120419614 0.1410643 0.099758476
-0.11165354 0.25529248 -0.2344956 -0.19259508 0.19400112 0.043992974 -0.14372075 -0.2098892
-0.3241449 -0.14314157 0.015357801 0.040857457 0.00043172896 -0.011635244 0.09254592 0.24604632
0.16995516 -0.08167255 0.20252335 0.17259298 -0.10462136 -0.004402872 0.08905841 -0.09205812
0.047231533 0.14859362 0.042613205 -0.18401162 -0.03575222 0.2434813 0.08157031 -0.0043860865
-0.13730383 0.26111585 0.091647394 -0.03829352 0.0039254194 0.0852905 0.13114014 -0.40138936
-0.16932644 0.081163146 0.18274055 0.03581162 0.03507287 0.23619445 0.20567301 -0.14634092
0.107308134 -0.1080867 -0.3558751 0.13000537 -0.33205587 0.23118293 0.16776006 0.27097332
-0.18140435 -0.021593045 0.06895027 -0.34049305 -0.11780815 0.14648506 0.10922436 -0.1931969
0.027232388 0.1423454 0.19393036 -0.1132441 -0.1082148 0.17818229 0.29743576 -0.2095951
0.071977176 0.051810108 -0.06888571 -0.2892522 -0.047981374 -0.09670255 0.07354118 0.067104496
-0.0024005477 -0.24082944 0.028737092 0.16850549 0.04447418 -0.09400754 -0.0075128716 0.2800912
00000000: 10fb dc3c e5f7 4cbe d329 763c a634 9c3c
00000010: 6554 acbd 1899 d5bd 3a0b 02bc c62a b3bd
00000020: 92e9 c7be 76f2 24bf 9493 7fbe 9593 4fbe
00000030: 4efb ec3d 0a46 06be 2db2 fd3c 31e0 a43e
00000040: 50b5 11be 137d 203e 5fbf 96bd cf84 253e
00000050: e27c a63d e58a c7be 5442 27be 599a 6f3e
00000060: 65ec 553c 5720 58bd e962 033e bdd0 c4bd
00000070: 32c7 c2be 8b55 38bf 8437 bbbd ad3e 81bc
00000080: 7a26 413e fc66 863c b050 e53d 4158 7e3e
00000090: 6f49 54bd 0674 e8bd 77fd 17be a8a8 563e
000000a0: d62d a3bc f59d bebe d9e0 6c3e 8cc0 bdbd
000000b0: 7d0d 883e 4eb6 91bd ac8c 07be d4d2 983e
000000c0: 23f9 e13c ad72 8a3e 7f24 debd 10ac 2dbe
000000d0: f06a e2bd 606a 9bbe 3bf9 26be 8533 5ebe
000000e0: 4c08 4fbd 93db f93c 8bc1 bb3d da69 6c3e
000000f0: 82ad 353d 4082 93be bfa6 ad3d b82b 90bd
00000100: ce30 313e d390 06bc f292 1d3e 6464 d33e
00000110: 8b47 9abc 9b37 b93e 6b65 c93d d52d 6d3e
00000120: 5009 213d c64b bcbe 9156 65be 48a6 65be
00000130: 96bb 8e3e 536c 0f3e d299 0bbe 0c12 fdbd
00000140: 4a63 ac3d 0b80 a2bd f069 00be 3a70 9ebe
00000150: 6d88 713e 07f4 913c 0fa4 68bd 0c71 283e
00000160: 04f6 a3bc 1929 1f3d 2403 ad3d cf6b 5a3d
00000170: c85c 813c 2f47 203d 6dec 4f3e 44f0 ecbd
00000180: 372f 22be df1f 893d 146b a23e 92a5 aabe
00000190: fd8e 5e3c eaa5 693c b6ec dcbd 4bef 57be
000001a0: 2ea5 d33e d49a 98bc 0a3c c23d 9293 223e
000001b0: ac7e 883e 50d2 453e ad02 d9be b967 633e
000001c0: 1549 03bd c2ce 10be 180c e33c d601 0b3d
000001d0: 261f d33d e818 21bd d517 883d 4323 1cba
000001e0: 759d 19be 54ba bd3e dc30 60bd 0ee3 74bd
000001f0: 69c9 abbd 59bf 843d 8a49 723e 5d21 fabe
00000200: dea5 e1bd 5106 623d 7f01 cabd 64d0 543e
00000210: 7cc2 193e b489 253e da6b 8d3d 93a6 07be
00000220: 0af7 10be 71bc 323e 4f64 9cbd 6e94 5f3d
00000230: 29f0 2fbe a78c b03e 61f4 1e3e 1077 44bd
00000240: c1b0 c1bc 802a 5cbd 77a8 913d 0b2c 7dbe
00000250: 57d0 dc3d 8515 45be 493e ed3d 9863 41bd
00000260: c9cf d8bc 3dfb 8a3e 150d 2a3e c328 e73d
00000270: 9a5b 683e f2a8 8dbc 421a 00be 7ea8 133d
00000280: 01aa ecbc 718e 3bbe 2611 e9bc 5234 ce3e
00000290: 7d6d 8bbd 8f9e f6bd 2973 103e 2c4e cc3d
000002a0: 9caa e4bd b2b5 823e 9d1f 70be a537 45be
000002b0: 3ba8 463e fa31 343d 882b 13be 32ed 56be
000002c0: 52f6 a5be b493 12be 499f 7b3c 265a 273d
000002d0: ae59 e239 c0a1 3ebc b788 bd3d 91f3 7b3e
000002e0: ba08 2e3e f043 a7bd 4862 4f3e 37bc 303e
000002f0: b943 d6bd f845 90bb 4164 b63d f888 bcbd
00000300: da75 413d ed28 183e 2f8b 2e3d 8b6d 3cbe
00000310: eb70 12bd 2953 793e 560e a73d 29b9 8fbb
00000320: 6099 0cbe fab0 853e a1b1 bb3d abd9 1cbd
00000330: cea0 803b c9ac ae3d 9a49 063e e882 cdbe
00000340: e963 2dbe dd38 a63d 5720 3b3e 35af 123d
00000350: 92a8 0f3d f5dc 713e f29b 523e 65da 15be
00000360: 5ec4 db3d 8f5c ddbd 4335 b6be 2120 053e
00000370: 3a03 aabe 38bb 6c3e 4bc9 2b3e 04bd 8a3e
00000380: 10c2 39be e6e3 b0bc cd35 8d3d 1b55 aebe
00000390: 6645 f1bd 2e00 163e 05b1 df3d 68d5 45be
000003a0: 7516 df3c fec2 113e ae95 463e 86ec e7bd
000003b0: b99f ddbd 6b75 363e 8049 983e 19a0 56be
000003c0: c568 933d d636 543d f313 8dbd dd18 94be
000003d0: 1e88 44bd fd0b c6bd c29c 963d 156e 893d
000003e0: 8252 1dbb fe9b 76be 0d6a eb3c b48c 2c3e
000003f0: 8f2a 363d 0687 c0bd 892e f6bb 1d68 8f3e

pi.net.0.bias f4 [50]
0.28894633 -0.045664232 0.27533 0.23538795 -0.0005517638 0.2541121 -0.09179229 0.17639104
0.1143505 -0.24622723 0.044304796 -0.119351 0.35166374 -0.17646 0.14537774 -0.002800907
0.31770194 0.23591845 0.09422348 0.06673391 0.11963686 0.035558652 0.10235668 0.12856016
0.15904301 0.18640083 0.23132177 0.12642778 0.1052895 -0.015352986 -0.05694023 0.45655414
0.17119376 0.005088627 -0.058408547 0.121912755 0.09856238 0.25829166 0.12398283 0.12266461
0.29730424 0.19707283 0.14047109 0.22210178 0.044353537 0.030193018 0.23201796 0.33645794
0.11257722 -0.17936942
00000000: c6f0 933e 6b0a 3bbd 0ef8 8c3e 8a09 713e
00000010: 3ea4 10ba fb1a 823e 99fd bbbd da9f 343e
00000020: 9830 ea3d fe22 7cbe f278 353d 4c6e f4bd
00000030: 450d b43e eeb1 34be e7dd 143e 6c8f 37bb
00000040: d4a9 a23e 9b94 713e 3df8 c03d caab 883d
00000050: 2c04 f53d f3a5 113d 61a0 d13d 46a5 033e
00000060: 2cdc 223e dcdf 3e3e 9ddf 6c3e 4976 013e
00000070: 05a2 d73d 178b 7bbc 293a 69bd 77c1 e93e
00000080: 6b4d 2f3e 7fbe a63b cd3d 6fbd 65ad f93d
00000090: 13db c93d ce3e 843e b6ea fd3d 9537 fb3d
000000a0: 4338 983e 76cd 493e a7d7 0f3e a66e 633e
000000b0: 0eac 353d 5957 f73c 1e96 6d3e 3744 ac3e
000000c0: e38e e63d 9eac 37be

pi.net.2.weight f4 [50, 50]
-0.09443102 -0.1700021 0.10755867 0.15231474 -0.15551883 0.024740482 -0.1528661 -0.101696625
0.051730126 0.22574922 -0.1255501 -0.090881325 0.057534616 -0.021570971 0.07708425 0.18445165
0.06515682 0.13510206 -0.09748044 -0.20396335 0.15222172 0.0712173 0.18429096 -0.09973804
0.11821042 -0.0014779815 0.10913231 0.042368107 -0.13968399 0.18898849 -0.08195004 -0.1960863
-0.10835526 0.020814078 -0.11069307 -0.17562556 0.0059726206 -0.16809261 0.1790136 -0.022418272
-0.10708154 0.13064294 0.044624537 0.03279422 -0.2601421 -0.18853244 0.34293616 0.23660086
0.024777323 0.18540937 0.17402312 -0.38626114 0.11043753 0.20559458 0.08490383 -0.1054868
-0.05753872 -0.06888274 0.03709614 -0.24722181 0.013268111 -0.026894648 -0.21329437 0.11209815
0.18368731 0.050982017 0.066242464 -0.113668755 0.17756638 -0.01271497 -0.10194676 0.10737763
0.10336663 0.037123904 0.05872969 0.0474286 0.080704905 0.19337933 0.084463865 -0.11691574
0.0021431714 -0.3292276 0.096352175 0.022487104 0.09200717 0.0531376 0.2390793 0.10874537
0.21820237 -0.15951873 -0.05248567 0.016970387 0.0428417 0.09432845 0.10419747 0.03222355
0.19160119 -0.18592621 0.08412804 -0.012576748 -0.06672178 -0.15153715 0.18690228 -0.010814712
0.059939913 0.0015331921 -0.318665 0.099724434 0.19032957 0.19112092 -0.024466505 0.089879744
-0.17188184 0.17964561 -0.26108474 -0.48744693 -0.37255582 0.055719823 -0.28894415 0.062216815
-0.029544298 0.0983048 -0.08751235 -0.1015258 0.032637548 0.030199578 -0.08697009 -0.0752907
0.14793256 0.18594603 -0.11933673 -0.22870731 -0.05259544 0.066088244 -0.05040041 0.2276757
-0.077992305 -0.029020606 0.17000686 0.1616663 0.07644813 0.12580603 -0.31053382 -0.1611332
0.111992925 0.17569694 -0.047056418 -0.03662666 -0.28443375 -0.075365186 -0.16400494 0.0726363
-0.11681213 -0.04034898 0.012113405 0.006318874 -0.052923467 0.12282739 0.027298888 0.11898888
-0.09919988 -0.1770606 0.05415667 -0.28364038 0.06479072 0.1906138 -0.026578445 -0.32976082
-0.102596596 -0.08069999 0.01752864 -0.080337405 0.20853378 0.15348415 -0.16744962 0.13430026
-0.0846578 0.30034667 -0.35955518 0.048296504 -0.16561678 -0.18600853 -0.081937686 0.15278403
0.062070623 0.14734541 0.01820933 0.19293718 -0.19371696 -0.18497016 -0.08051722 0.11696478
0.09872602 0.2629149 0.12000469 -0.16569085 0.20232588 0.02960363 -0.056043074 0.16330855
0.1488496 -0.039281502 -0.11819979 -0.007722278 0.15539587 -0.39473844 0.100861594 0.22349587
0.026433738 0.019586194 0.056894064 0.3314068 -0.06963836 -0.0060316655 0.037066206 -0.3216897
-0.14010087 0.033030692 -0.08401253 -0.019281203 0.052408766 0.0044255964 -0.15538244 0.072421804
0.22417833 0.2130404 0.018169025 -0.056258213 0.096253455 0.10590557 -0.16233176 -0.07454888
-0.13420749 0.08939647 0.13485554 0.078044035 0.12710597 0.0336028 -0.050168276 -0.048151508
-0.09638494 0.027850825 0.01845258 0.0773577 0.18196262 -0.031395394 -0.07461258 0.074621424
-0.56321734 0.18987745 -0.0060520163 -0.22084716 0.13409582 0.07329247 0.14038436 0.11334801
00000000: 0d65 c1bd 0815 2ebe b847 dc3d 65f8 1b3e
00000010: 5440 1fbe 8dac ca3c ee88 1cbe 5246 d0bd
00000020: f8e2 533d ce2a 673e 3590 00be fd1f babd
00000030: 6ba9 6b3d 9bb5 b0bc 59de 9d3d e5e0 3c3e
00000040: f070 853d 3258 0a3e d3a3 c7bd c5db 50be
00000050: 03e0 1b3e 60da 913d c5b6 3c3e 7543 ccbd
00000060: 4e18 f23d d4b8 c1ba c380 df3d 2e8a 2d3d
00000070: 5209 0fbe 3386 413e 6cd5 a7bd d9ca 48be
00000080: 5de9 ddbd 4982 aa3c 0cb3 e2bd 30d7 33be
00000090: f9b5 c33b 7820 2cbe 574f 373e 86a6 b7bc
000000a0: 914d dbbd 43c7 053e 38c8 363d 3b53 063d
000000b0: 5831 85be a60e 41be 5495 af3e 7f47 723e
000000c0: d0f9 ca3c f4db 3d3e 1e33 323e 05c4 c5be
000000d0: 122d e23d 6387 523e 0fe2 ad3d 7709 d8bd
000000e0: b9ad 6bbd 6512 8dbd 1ff2 173d b727 7dbe
000000f0: 7e62 593c 2a52 dcbc d769 5abe b793 e53d
00000100: 8718 3c3e 85d2 503d 21aa 873d 2acb e8bd
00000110: f6d3 353e 7352 50bc 77c9 d0bd cee8 db3d
00000120: e2b1 d33d 3c0f 183d 8b8e 703d 7e44 423d
00000130: 9d48 a53d 3b05 463e 64fb ac3d 8571 efbd
00000140: 7374 0c3b 8590 a8be 4a54 c53d e036 b83c
00000150: 416e bc3d d0a6 593d 34d1 743e e4b5 de3d
00000160: 7170 5f3e e158 23be 37fb 56bd 7b05 8b3c
00000170: c77a 2f3d 462f c13d 7c65 d53d d7fc 033d
00000180: 1a33 443e 7163 3ebe 524b ac3d b40e 4ebc
00000190: 6ea5 88bd 8e2c 1bbe 5063 3f3e 3130 31bc
000001a0: 8e83 753d 64f5 c83a 0f28 a3be 533c cc3d
000001b0: c1e5 423e 34b5 433e fb6d c8bc df12 b83d
000001c0: cb01 30be 05f5 373e e6ac 85be a592 f9be
000001d0: a3bf bebe 783a 643d 7df0 93be 0fd7 7e3d
000001e0: e206 f2bc 0754 c93d ad39 b3bd c2ec cfbd
000001f0: f3ae 053d 1b65 f73c 601d b2bd 0332 9abd
00000200: a27b 173e a368 3e3e d166 f4bd 4032 6abe
00000210: 516e 57bd 4659 873d a970 4ebd d223 693e
00000220: 6eba 9fbd 9fbc edbc 4716 2e3e da8b 253e
00000230: d690 9c3d 4cd3 003e 4afe 9ebe 1a00 25be
00000240: 8c5c e53d e6e9 333e 3bbe 40bd d605 16bd
00000250: 4da1 91be 1059 9abd e9f0 27be 57c2 943d
00000260: 333b efbd f944 25bd 4e77 463c 8f0e cf3b
00000270: 47c6 58bd ed8c fb3d eba1 df3c 71b0 f33d
00000280: 4f29 cbbd 604f 35be 62d3 5d3d 5039 91be
00000290: ffb0 843d 4430 433e 0abb d9bc 69d6 a8be
000002a0: 2a1e d2bd 0946 a5bd 3998 8f3c f087 a4bd
000002b0: e189 553e f32a 1d3e ea77 2bbe 0286 093e
000002c0: 1261 adbd 0ac7 993e 9e17 b8be 8ed2 453d
000002d0: 7297 29be 0579 3ebe f2ce a7bd 6b73 1c3e
000002e0: c43d 7e3d b7e1 163e bc2b 953c 5391 453e
000002f0: bd5d 46be d168 3dbe 36e6 a4bd 3b8b ef3d
00000300: de30 ca3d c89c 863e 05c5 f53d ddaa 29be
00000310: 842e 4f3e 5083 f23c 6c8d 65bd 5b3a 273e
00000320: 086c 183e a4e5 20bd bb12 f2bd 2a0b fdbb
00000330: 1820 1f3e 281b cabe 8690 ce3d 1adc 643e
00000340: 918b d83c 3a73 a03c c009 693d 27ae a93e
00000350: 8e9e 8ebd 47a5 c5bb bcd2 173d 83b4 a4be
00000360: 9a76 0fbe 314b 073d c30e acbd 9df3 9dbc
00000370: 93aa 563d 9804 913b 931c 1fbe e251 943d
00000380: 018f 653e 4327 5a3e 35d7 943c 036f 66bd
00000390: 8820 c53d 05e5 d83d 4c3a 26be 15ad 98bd
000003a0: b06d 09be 7f15 b73d 9217 0a3e 8dd5 9f3d
000003b0: 1128 023e 17a3 093d 407d 4dbd 843a 45bd
000003c0: 7865 c5bd 6a27 e43c dd29 973c b76d 9e3d
000003d0: 6954 3a3e 7598 00bd 7bce 98bd 1ed3 983d
000003e0: 032f 10bf 3c6f 423e fe4f c6bb c225 62be
000003f0: 6a50 093e 5d1a 963d ebc0 0f3e 0023 e83d

pi.net.2.bias f4 [50]
0.105172776 0.24243772 -0.19907682 0.063134395 0.023534665 -0.013409222 -0.009578122 0.13501573
0.020394081 -0.02161386 0.18444039 -0.007001814 -0.16956086 -0.040398378 0.17563437 0.12370892
-0.0842647 0.16410552 -0.122176245 0.06391833 0.117280066 0.26056165 0.17131995 -0.079388335
0.15813102 0.18392654 -0.017167024 -0.0669691 0.097213715 -0.1883206 0.00952911 0.15381582
-0.22088519 0.0454835 0.10210603 0.06659489 -0.16230197 -0.05514043 0.079565585 -0.08519365
0.16993646 -0.19251016 -0.019647056 0.09894248 0.13179226 -0.17529882 0.049029645 0.010760035
-0.15370917 0.07565969
00000000: d364 d73d 9841 783e cbda 4bbe 9b4c 813d
00000010: c5cb c03c 5ab2 5bbc 8eed 1cbc 9041 0a3e
00000020: 7d11 a73c 8d0f b1bc f1dd 3c3e 796f e5bb
00000030: 5da1 2dbe c578 25bd 7fd9 333e 1a5b fd3d
00000040: f992 acbd 470b 283e 8a37 fabd 9de7 823d
00000050: 8830 f03d 5668 853e 7f6e 2f3e 5a96 a2bd
00000060: 19ed 213e 3d57 3c3e dca1 8cbc 1827 89bd
00000070: fc17 c73d 1ed7 40be fc1f 1c3c e581 1d3e
00000080: ba2f 62be e84c 3a3d f71c d13d e762 883d
00000090: 7d32 26be eeda 61bd 48f3 a23d 027a aebd
000000a0: d303 2e3e 6221 45be ddf2 a0bc 5ba2 ca3d
000000b0: 8df4 063e 8981 33be 4fd3 483d dc4a 303c
000000c0: f065 1dbe 78f3 9a3d

pi.net.4.weight f4 [4, 50]
0.035776976 0.2979199 -0.025484324 0.29102668 0.44460043 0.30988812 0.03956108 -0.2862553
0.085055575 0.09718817 0.2530912 0.4275464 -0.15978695 -0.31409544 -0.093635194 0.18755926
-0.38771617 0.089070104 -0.29765224 0.39935666 0.43084458 -0.12807974 0.07193462 -0.07892704
-0.009901228 0.02312712 0.18573909 -0.11308675 0.21910931 -0.35822526 0.1516671 0.0066470145
-0.5212919 -0.1835495 -0.20820302 -0.17128083 -0.20951764 -0.09394863 -0.32326317 -0.31827927
-0.298806 0.37508968 -0.29769623 -0.32031217 0.06775508 0.33204526 -0.14934008 0.15257272
-0.02097138 -0.23879546 -0.18644696 0.02702876 -0.37039557 -0.49222043 -0.015576443 0.17072818
0.11072869 0.15345062 -0.13514459 -0.19877565 -0.24124055 0.04122158 0.061096773 -0.4042237
0.22921845 -0.24686545 0.30034387 0.007297909 0.14060843 0.12256673 0.38972342 0.38195053
0.1687124 -0.06772377 0.2283505 -0.06041388 0.09150364 -0.4149605 0.16780706 0.4059465
-0.01667132 -0.062693484 -0.010027224 -0.34519568 0.019037135 -0.20926881 -0.32614803 -0.21633428
-0.0063450644 0.18056008 0.18011837 -0.015478503 0.33653852 -0.18164803 0.18919419 0.07185252
0.056729406 -0.1829494 0.2323353 0.27382058 0.11486766 -0.011860031 -0.3447406 -0.057369832
-0.30234006 -0.36352843 -0.26648083 0.00086908176 0.3753984 0.016348684 -0.12987679 -0.28224793
-0.5355371 -0.16128723 -0.26146027 -0.07246292 0.21390139 0.24436 0.19386724 -0.18039519
0.12867825 0.040279858 0.42200547 0.19133574 -0.47729516 0.4290242 -0.007355326 -0.16591263
0.20809722 -0.22510718 -0.08820382 0.42212042 0.11002385 -0.26623264 0.08780518 -0.1794283
0.07195118 0.20428918 -0.3462576 0.06691833 0.36082634 0.24958304 0.18892947 0.025149088
-0.42529637 0.20170625 0.39022347 -0.45824933 0.46669808 0.032246184 -0.4333393 -0.3106664
-0.34417054 -0.25707588 0.23767975 0.2943949 -0.010742213 0.016599873 -0.33934426 0.009998157
0.20194224 -0.24377294 0.11286232 0.0214751 -0.30443427 -0.08134415 0.45436236 0.0742097
0.38364327 -0.1384884 0.14408483 -0.19039522 0.57245445 0.4027575 0.035044804 0.038294196
0.3544829 -0.0015906245 0.027511379 0.06654406 0.47722876 0.3226538 0.048724663 0.066768005
-0.07169621 -0.21008247 -0.45966133 -0.5091177 -0.04792503 -0.106071055 -0.065656394 0.10055407
0.23969017 0.11183441 0.055662736 0.4337572 -0.3661685 0.28132725 -0.18817897 0.07002628
00000000: e18a 123d f588 983e 80c4 d0bc 7301 953e
00000010: aba2 e33e a8a9 9e3e cd0a 223d 0e90 92be
00000020: 9e31 ae3d 970a c73d 2b95 813e 5de7 da3e
00000030: 319f 23be 1ed1 a0be cfc3 bfbd 890f 403e
00000040: bc82 c6be 636a b63d e065 98be 7a78 cc3e
00000050: a997 dc3e 5627 03be 7552 933d 80a4 a1bd
00000060: c338 22bc 1675 bd3c 6332 3e3e 079a e7bd
00000070: 315e 603e 4d69 b7be 9f4e 1b3e 33cf d93b
00000080: 6373 05bf 66f4 3bbe 2c33 55be 3e64 2fbe
00000090: cb8b 56be 2468 c0bd c082 a5be 80f5 a2be
000000a0: 1afd 98be c10b c03e a46b 98be f5ff a3be
000000b0: 2dc3 8a3d d601 aa3e 9bec 18be 063c 1c3e
000000c0: 2ccc abbc cc86 74be f4eb 3ebe 6b6b dd3c
000000d0: 7da4 bdbe 5104 fcbe 5634 7fbc 5ed3 2e3e
000000e0: b9c5 e23d 2922 1d3e 5863 0abe d88b 4bbe
000000f0: c307 77be f6d7 283d 9c40 7a3d 69f6 cebe
00000100: 3eb8 6a3e 4cca 7cbe acc6 993e 4c23 ef3b
00000110: a8fb 0f3e 4404 fb3d d489 c73e 058f c33e
00000120: f2c2 2c3e c3b2 8abd b7d4 693e 8b74 77bd
00000130: 4366 bb3d b475 d4be 9dd5 2b3e 38d8 cf3e
00000140: 4b92 88bc 7165 80bd 3a49 24bc 7dbd b0be
00000150: c4f3 9b3c 904a 56be e0fc a6be bc86 5dbe
00000160: 42ea cfbb bee4 383e f370 383e 8c99 7dbc
00000170: c74e ac3e f101 3abe 1fbc 413e 6a27 933d
00000180: 185d 683d 1657 3bbe 4ee9 6d3e 3632 8c3e
00000190: bc3f eb3d 9350 42bc d781 b0be a1fc 6abd
000001a0: 51cc 9abe 6620 babe 2d70 88be 17d3 633a
000001b0: 3834 c03e aded 853c 6cfe 04be cd82 90be
000001c0: f618 09bf 7b28 25be 1fde 85be 7067 94bd
000001d0: f708 5b3e 8239 7a3e 2285 463e 84b9 38be
000001e0: 3bc4 033e 7efc 243d 1a11 d83e 84ed 433e
000001f0: 0860 f4be 0fa9 db3e f204 f1bb 00e5 29be
00000200: 7017 553e 7f82 66be 34a4 b4bd 2b20 d83e
00000210: 2f54 e13d a54f 88be 34d3 b33d 0dbc 37be
00000220: 245b 933d 2f31 513e ad48 b1be 7a0c 893d
00000230: 3bbe b83e b292 7f3e ba76 413e 7605 ce3c
00000240: 72c0 d9be 158c 4e3e 5fcb c73e a89f eabe
00000250: 0df3 ee3e 9314 043d a6de ddbe ab0f 9fbe
00000260: 1f37 b0be 739f 83be 5262 733e eeba 963e
00000270: 1b00 30bc 75fc 873c 88be adbe 4fcf 233c
00000280: f2c9 4e3e 9d9f 79be 5c24 e73d 8dec af3c
00000290: cfde 9bbe c397 a6bd 2fa2 e83e 41fb 973d
000002a0: e46c c43e e7cf 0dbe f98a 133e f7f6 42be
000002b0: 608c 123f 3b36 ce3e 248b 0f3d 60da 1c3d
000002c0: c87e b53e 807c d0ba 8b5f e13c 4148 883d
000002d0: 5457 f43e e132 a53e 8393 473d aabd 883d
000002e0: 76d5 92bd dc1f 57be bb58 ebbe 8a55 02bf
000002f0: 094d 44bd c83b d9bd dc76 86bd 4bef cd3d
00000300: 5771 753e 7009 e53d 9cfe 633d 6c15 de3e
00000310: 707a bbbe 200a 903e fdb1 40be f069 8f3d

pi.net.4.bias f4 [4]
0.09585423 0.005796409 0.024368418 0.0985348
00000000: 394f c43d ceef bd3b 47a0 c73c 9dcc c93d

v.net.0.weight f4 [64, 40]
-0.3309114 0.92971903 -0.01046006 0.051289186 0.18215975 -0.08225021 -0.07181832 -0.13299063
0.11098847 -0.027333925 -0.29055592 0.13308108 0.0008369606 0.029597687 -0.4106808 0.14708805
0.1649231 0.053351164 -0.03992917 -0.041406572 -0.43190184 0.96383345 -0.031120103 0.29392502
-0.060410954 -0.075346276 0.050580885 -0.26591527 -0.037565917 0.28985345 0.33895472 0.0037878272
-0.027044842 0.118853696 -0.111555114 0.2349678 0.13155209 0.030201426 -0.06030207 -0.048915084
-0.305999 -1.5505767 -0.14108458 0.04054419 0.16091521 -0.08596575 0.06005768 0.68447125
-0.0638463 0.094768986 0.0038329964 -0.2627125 -0.032670192 -0.33790904 -0.5626752 -0.036079742
-0.08890797 0.070587054 -0.012217198 -0.06696534 -0.19005741 -1.4013084 -0.0566227 -0.11644442
0.12847681 0.05646298 0.028280765 0.73460037 0.05044254 -0.14379072 0.015303099 0.35168344
-0.021924496 -0.47740534 -0.61117023 -0.08226862 -0.07663544 0.06847724 -0.017494451 -0.060660888
-0.68362343 -0.43002117 0.18960564 -0.31901312 -0.0754981 0.03006653 0.008447039 -0.26489246
1.2299488 0.0156099405 0.5476692 0.04216212 0.06707602 -0.20158142 -0.9158616 -0.01607009
0.031209625 -0.0549738 -0.018176908 0.050720125 -0.81143755 -0.1801766 0.13228478 -0.5407442
0.028348979 0.11317345 0.036734253 -0.15112768 1.2787899 0.1716796 -0.6389184 -0.020336645
0.08490009 -0.34627077 -0.7197411 -0.056897815 0.009551317 -0.0345776 -0.018735597 0.059705485
0.14043581 -0.17619652 -0.15144256 0.029364504 -0.06685186 -0.021697273 -0.22616465 -0.030307813
-0.21721037 0.16519009 0.020403877 0.10577772 0.053127382 0.18303612 -0.11909003 -0.11207667
0.034997154 0.0627586 -0.017327739 0.10925762 0.35625792 -0.44307068 0.05482194 0.11684987
-0.1914201 -0.004158443 0.10493393 -0.08793378 -0.1319982 -0.13026986 0.039488483 -0.09489599
0.0780365 0.24748228 -0.045342755 -0.043120053 0.049576674 0.057685483 -0.015425861 0.103163265
0.5218054 0.5816909 -0.039688583 -0.0033266055 0.0069276947 -0.008312965 0.16540943 0.1176201
-0.3206578 0.028590763 0.043777525 0.074249245 0.057564616 0.3560573 0.3309658 -0.03142846
0.020866586 0.03732164 0.1559526 0.0458574 0.4459819 0.5116979 0.1280348 -0.06365789
-0.07447737 0.0059000077 -0.04660677 0.03417713 -0.44065505 0.2672161 -0.058538787 -0.02125848
0.033228774 0.5613634 0.21899356 0.05349602 0.019387128 0.026529048 0.14226992 0.04220475
-0.4128061 0.21881992 0.26427922 0.051399156 0.069110945 0.107439056 0.057348486 0.5750206
0.6809658 0.065155745 -0.04796792 -0.06224854 -0.019174008 -0.29987738 -0.30205032 -0.107494734
-0.016432533 0.019592213 -0.021589559 -0.10333328 -0.6859816 0.3103099 0.28510797 -0.03444768
0.15875809 0.05208042 0.28829426 0.6536347 0.7016439 0.09861523 0.061363015 0.08023746
-0.0727684 -0.43913522 -0.2796151 -0.053784717 0.017993988 -0.0053292196 -0.021295168 -0.11544231
1.0731608 -0.30633843 0.08503614 0.33260977 0.012713593 0.10926519 0.064018264 0.51531523
-0.9019108 0.03378915 -0.11361757 0.08639595 -0.03646304 -0.47180113 -0.21340609 -0.00027361762
00000000: 386d a9be 1102 6e3f ac60 2bbc 9c14 523d
00000010: 1688 3a3e cc72 a8bd 7c15 93bd b22e 08be
00000020: ec4d e33d 65eb dfbc bfc3 94be 6846 083e
00000030: 7a67 5b3a d976 f23c c144 d2be 409e 163e
00000040: 9ae1 283e c086 5a3d c58c 23bd f099 29bd
00000050: 3d22 ddbe cabd 763f 96ef febc 577d 963e
00000060: 7a71 77bd 264f 9abd e72d 4f3d 0c26 88be
00000070: b8de 19bd ac67 943e 798b ad3e 323d 783b
00000080: 258d ddbc 9169 f33d 0277 e4bd 669b 703e
00000090: 97b5 063e fb68 f73c 4eff 76bd 2f5b 48bd
000000a0: e7ab 9cbe 4c79 c6bf 7a78 10be aa11 263d
000000b0: f5c6 243e d00e b0bd 0bff 753d 8239 2f3f
000000c0: d9c1 82bd 3e16 c23d 0233 7b3b 4182 86be
000000d0: 2ed1 05bd 6a02 adbe 7b0b 10bf 5ac8 13bd
000000e0: 6215 b6bd f28f 903d a42a 48bc 2025 89bd
000000f0: 699e 42be 135e b3bf 34ed 67bd 697a eebd
00000100: 6d8f 033e ba45 673d 10ad e73c c50e 3c3f
00000110: d69c 4e3d e03d 13be d9b9 7a3c da0f b43e
00000120: 009b b3bc 796e f4be a775 1cbf 737c a8bd
00000130: 0bf3 9cbd cc3d 8c3d 8650 8fbc 8d77 78bd
00000140: f201 2fbf bc2b dcbe fb27 423e b055 a3be
00000150: bf9e 9abd 154e f63c 7365 0a3c fc9f 87be
00000160: f66e 9d3f d6c0 7f3c 0c34 0c3f 30b2 2c3d
00000170: 275f 893d 5c6b 4ebe e875 6abf 6ca5 83bc
00000180: 54ab ff3c 352c 61bd bde7 94bc e8bf 4f3d
00000190: 5fba 4fbf 3780 38be a975 073e 366e 0abf
000001a0: 1e3c e83c 7bc7 e73d a876 163d 37c1 1abe
000001b0: 63af a33f c7cc 2f3e 2890 23bf 0999 a6bc
000001c0: 19e0 ad3d 674a b1be f440 38bf af0d 69bd
000001d0: 217d 1c3c 3ea1 0dbd 657b 99bc bd8d 743d
000001e0: 68ce 0f3e dc6c 34be c213 1bbe d48d f03c
000001f0: a1e9 88bd 7bbe b1bc b597 67be 1748 f8bc
00000200: 656c 5ebe 9727 293e 0826 a73c fda1 d83d
00000210: 199c 593d d26d 3b3e 79e5 f3bd 7488 e5bd
00000220: 2d59 0f3d 9587 803d e7f2 8dbc 76c2 df3d
00000230: 7067 b63e 29da e2be f88c 603d fc4e ef3d
00000240: a103 44be 8c43 88bb 9ae7 d63d a016 b4bd
00000250: 892a 07be 7665 05be adbe 213d d458 c2bd
00000260: 9ad1 9f3d ff6b 7d3e 53b9 39bd a79e 30bd
00000270: e910 4b3d 9d47 6c3d c0bc 7cbc 4347 d33d
00000280: 0a95 053f b2e9 143f 7f90 22bd 2e03 5abb
00000290: b701 e33b 1a33 08bc 1761 293e cfe2 f03d
000002a0: 422d a4be 2d37 ea3c 1050 333d fd0f 983d
000002b0: e0c8 6b3d 244d b63e 5974 a93e 21bb 00bd
000002c0: 67f0 aa3c 93de 183d 0ab2 1f3e f8d4 3b3d
000002d0: bd57 e43e a2fe 023f 8e1b 033e 115f 82bd
000002e0: 9787 98bd da54 c13b bee6 3ebd 51fd 0b3d
000002f0: 8a9d e1be 8cd0 883e 5ec6 6fbd 4426 aebc
00000300: e51a 083d 83b5 0f3f d93f 603e a51e 5b3d
00000310: c1d1 9e3c 7253 d93c 35af 113e e3de 2c3d
00000320: 525b d3be 5412 603e 9b4f 873e ec87 523d
00000330: 0a8a 8d3d 0209 dc3d 3fe6 6a3d 8d34 133f
00000340: c653 2e3f 6070 853d 027a 44bd 53f8 7ebd
00000350: cf12 9dbc 8789 99be 57a6 9abe 3326 dcbd
00000360: 859d 86bc d97f a03c 96dc b0bc 66a0 d3bd
00000370: 7d9c 2fbf f0e0 9e3e acf9 913e 0319 0dbd
00000380: 7b91 223e 4752 553d 4e9b 933e 9b54 273f
00000390: ef9e 333f c8f6 c93d c957 7b3d 8a53 a43d
000003a0: 9907 95bd 55d6 e0be b629 8fbe 5d4d 5cbd
000003b0: 2168 933c bca0 aebb 3473 aebc 056d ecbd
000003c0: 555d 893f 64d8 9cbe 6e27 ae3d d44b aa3e
000003d0: ad4c 503c 6ec6 df3d 021c 833d b3eb 033f
000003e0: a0e3 66bf 7e66 0a3d 54b0 e8bd 5cf0 b03d
000003f0: 455a 15bd eb8f f1be 2087 5abe 5674 8fb9

v.net.0.bias f4 [64]
0.005143763 0.14178245 0.0056843134 -0.78251976 0.40237543 -0.2947743 0.043850962 1.2520032
0.027754297 0.13073228 1.2839148 1.303044 1.0089124 -0.15630415 -0.6870796 -0.26605853
0.14344051 0.19157629 0.68454415 0.84561646 -0.32882613 0.30291662 -0.1065777 -0.09228925
-0.24055168 1.1572908 -0.10205868 -0.15197586 -0.54138035 0.21365412 0.7382227 0.8148121
-0.06835472 0.19319083 -1.1221075 0.23520389 0.03548464 -1.5311911 0.65554255 -0.5908444
-0.39324766 -0.30548823 0.026797807 -0.830933 -0.25888643 -0.7575275 0.12075505 -0.02721486
0.6911249 -0.9692222 1.1150626 0.13800438 1.4371758 -0.30141085 -0.37538227 0.5437255
-1.135332 -0.050236076 0.12211907 -1.4963017 0.059650518 0.6796233 -0.303106 -1.0406063
00000000: 038d a83b 6b2f 113e 7a43 ba3b 3753 48bf
00000010: 2704 ce3e a8ec 96be 119d 333d a441 a03f
00000020: fb5c e33c afde 053e 5257 a43f 25ca a63f
00000030: 0b24 813f 320e 20be 73e4 2fbf d338 88be
00000040: 12e2 123e 932c 443e 493e 2f3f 527a 583f
00000050: e65b a8be e317 9b3e 6945 dabd 2502 bdbd
00000060: 2e53 76be 1b22 943f 2404 d1bd 8f9f 1bbe
00000070: e797 0abf 25c8 5a3e 2afc 3c3f 8797 503f
00000080: 8ffd 8bbd d1d3 453e 38a1 8fbf 4ad9 703e
00000090: 5858 113d 12fe c3bf a3d1 273f 9441 17bf
000000a0: c257 c9be f468 9cbe 1387 db3c 06b8 54bf
000000b0: c38c 84be 52ed 41bf 6c4e f73d b3f1 debc
000000c0: 90ed 303f f21e 78bf 5fba 8e3f 0551 0d3e
000000d0: 60f5 b73f 8652 9abe 1b32 c0be 9831 0b3f
000000e0: 8f52 91bf 58c4 4dbd 9019 fa3d d086 bfbf
000000f0: 1a54 743d cbfb 2d3f b630 9bbe 9632 85bf

v.net.2.weight f4 [64, 64]
-0.3235354 0.54737616 0.6037924 -0.021772271 -0.02173894 0.10639088 -0.13852453 -0.29180247
0.59646887 0.08196611 -0.035407282 0.17176297 0.10305044 0.0032138622 0.05138851 -0.34579277
0.116868585 0.00065278984 -0.083429806 0.27255458 0.51227707 -0.3547666 -0.34341347 0.15516803
-0.06854664 0.39956358 0.19680385 -0.2451734 -0.29050854 0.34206492 -0.016540162 0.14772882
0.0899461 0.27132833 0.005135856 0.07610962 0.25597408 0.4295894 -0.062120315 -0.069926485
-0.087948605 -0.28432024 -0.29201296 0.06268991 0.16530032 -0.28795224 0.6268452 -0.11534068
0.71518207 -0.18617496 -0.03564817 0.46031287 0.34157345 0.04352954 -0.22135851 -0.20954233
-0.14910738 -0.26306447 0.380073 0.068838924 -0.26578 0.21838056 -0.16183947 0.13717733
0.32403216 0.04180407 -0.572715 -0.03966747 -0.09710813 -0.122868516 0.20851976 0.0018211058
-0.38765588 0.2380601 -0.09471228 -0.15722099 -0.22112447 -0.24540854 0.11676309 -0.32661596
0.0023598666 0.13991985 0.045862585 0.037413064 0.072317004 0.2726416 0.23141022 0.020169638
0.108597495 -0.26526788 -0.18438536 -0.099402755 -0.17755856 -0.02254262 -0.12821163 -0.0018825739
-0.23188666 -0.3279165 0.11110301 0.12397914 -0.28216118 -0.6271317 -0.23954217 0.11738875
-0.23236236 0.12018675 -0.14132057 -0.10419895 0.08590626 0.27862805 -0.28737733 0.1795232
-0.0009841041 0.09813979 0.015860967 -0.21111293 -0.063026406 -0.2655043 -0.12807806 0.19393998
0.08362717 0.69522274 -0.13258041 -0.28090295 0.34469464 0.07286915 0.3491956 0.16426739
-0.41918588 0.21482846 0.51580244 0.25313166 0.016372317 0.13784948 -0.23429392 0.048249125
0.086318836 -0.16827904 0.08088575 0.19339232 0.04792503 0.27665874 0.035602648 0.08443541
0.06340271 0.06768595 -0.09606722 0.07612225 0.34424236 -0.27679238 -0.51788735 -0.22802414
-0.3340509 0.20530878 0.10331892 -0.16171023 0.104882725 0.17178188 0.12870996 0.072757125
0.22960185 0.2814346 -0.12263181 -0.0142041 0.07954894 0.43057278 0.33279595 0.14796193
0.18203561 -0.14617312 0.07937914 -0.007677337 0.012977592 -0.15603368 0.37585017 -0.1918852
0.095021494 -0.04660344 0.053469893 0.50197315 0.25892374 0.03395506 -0.35342833 -0.14007093
-0.14891246 -0.8198573 0.15793605 0.07356081 -0.29914275 0.0052103302 -0.089903444 0.08554682
0.08244768 0.38132024 0.40035504 -0.3378865 0.5167808 -0.32031232 0.2088128 -0.10577889
-0.30484852 0.32929522 -0.08796922 -0.33135083 0.17058943 -0.5477151 0.34828964 0.103880465
-0.011064904 0.2610386 0.22056867 0.45476732 0.7255787 0.067170024 -0.31771824 0.3109882
0.26938182 0.5091319 -0.035671584 -0.16208692 -0.2174119 0.21282415 0.15675658 0.28511974
-0.0003139249 0.10682684 -0.5962572 0.2779875 -0.03135919 0.36786717 -0.10633144 0.26194477
-0.3026315 -0.37723976 -0.27259555 -0.13138118 0.6533911 -0.38474026 -0.312259 0.01391568
-0.016550435 -0.42351052 -0.10169084 0.047732122 -0.12008458 -0.076822996 -0.48862463 0.18927802
-0.041654114 0.19049999 0.21319644 0.41526905 -0.053465378 0.11479722 0.4325328 -0.018261114
00000000: 6fa6 a5be d820 0c3f 2492 1a3f c35b b2bc
00000010: dd15 b2bc 76e3 d93d 60d9 0dbe 2267 95be
00000020: 2fb2 183f d9dd a73d 3a07 11bd a2e2 2f3e
00000030: 1c0c d33d a99f 523b c27c 523d c00b b1be
00000040: cc58 ef3d fc1f 2b3a 3fdd aabd 468c 8b3e
00000050: 9724 033f f8a3 b5be e4d3 afbe 5ee4 1e3e
00000060: 2e62 8cbd 9993 cc3e f386 493e bc0e 7bbe
00000070: 89bd 94be 2223 af3e 3c7f 87bc 3946 173e
00000080: a935 b83d 8ceb 8a3e af4a a83b 5cdf 9b3d
00000090: 090f 833e 24f3 db3e df71 7ebd 9e35 8fbd
000000a0: 661e b4bd 6c92 91be b982 95be 9163 803d
000000b0: 7d44 293e 7a6e 93be ed78 203f bc37 ecbd
000000c0: 2c16 373f a6a4 3ebe d103 12bd 21ae eb3e
000000d0: b7e2 ae3e 084c 323d ceab 62be 4492 56be
000000e0: 9baf 18be 63b0 86be ee98 c23e 6cfb 8c3d
000000f0: 5114 88be 279f 5f3e 3fb9 25be 3778 0c3e
00000100: 8be7 a53e bf3a 2b3d 739d 12bf 5b7a 22bd
00000110: a1e0 c6bd 7da2 fbbd 3486 553e 2cb2 ee3a
00000120: d57a c6be 07c6 733e 83f8 c1bd 8afe 20be
00000130: 746e 62be 604c 7bbe 7d21 ef3d 353a a7be
00000140: fea7 1a3b 2647 0f3e 68da 3b3d 713e 193d
00000150: f01a 943d ae97 8b3e cdf6 6c3e cc3a a53c
00000160: 5d68 de3d 31d1 87be 84cf 3cbe ac93 cbbd
00000170: e9d1 35be 4dab b8bc e949 03be b3c0 f6ba
00000180: b273 6dbe ace4 a7be fa89 e33d c6e8 fd3d
00000190: 6e77 90be b48b 20bf 8b4a 75be 8369 f03d
000001a0: 66f0 6dbe 7924 f63d 57b6 10be 4266 d5bd
000001b0: 9fef af3d 56a8 8e3e 1f23 93be eed4 373e
000001c0: 0efd 80ba 84fd c83d dcee 813c fd2d 58be
000001d0: fd13 81bd 2ef0 87be e526 03be 3498 463e
000001e0: b944 ab3d 1efa 313f 29c3 07be 83d2 8fbe
000001f0: d17b b03e 6c3c 953d c4c9 b23e b635 283e
00000200: 889f d6be fefb 5b3e a10b 043f 799a 813e
00000210: 3d1f 863c 6a28 0d3e bfea 6fbe e0a0 453d
00000220: eec7 b03d 5751 2cbe 6ea7 a53d a308 463e
00000230: 094d 443d 37a6 8d3e 15d4 113d 79ec ac3d
00000240: 48d9 813d ee9e 8a3d e4be c4bd fbe5 9b3d
00000250: 8940 b03e bbb7 8dbe 4494 04bf 297f 69be
00000260: b808 abbe 773c 523e df98 d33d 5e97 25be
00000270: c1cc d63d 97e7 2f3e 8bcc 033e b001 953d
00000280: bf1c 6b3e 3218 903e 6326 fbbd 50b8 68bc
00000290: 8eea a23d 0974 dc3e 3b64 aa3e 5583 173e
000002a0: 8b67 3a3e 68ae 15be 8891 a23d 2c92 fbbb
000002b0: f79f 543c 4bc7 1fbe 6f6f c03e 8e7d 44be
000002c0: a19a c23d 40e3 3ebd 3f03 5b3d 5081 003f
000002d0: a791 843e 7614 0b3d 8ff4 b4be c16e 0fbe
000002e0: 827c 18be 2be2 51bf fdb9 213e 0da7 963d
000002f0: 3d29 99be 6bbb aa3b 4c1f b8bd 2c33 af3d
00000300: 54da a83d 683c c33e 56fb cc3e 76ff acbe
00000310: bf4b 043f faff a3be 06d3 553e 9aa2 d8bd
00000320: 1b15 9cbe 6299 a83e 3529 b4bd d1a6 a9be
00000330: ffae 2e3e 0f37 0cbf 0553 b23e 48bf d43d
00000340: 9249 35bc daa6 853e c1dc 613e 43d7 e83e
00000350: 87bf 393f 7090 893d f7ab a2be d839 9f3e
00000360: 6aec 893e 7856 023f 5e1c 12bd 1dfa 25be
00000370: 3aa1 5ebe 93ee 593e cc84 203e 37fb 913e
00000380: 4996 a4b9 08c8 da3d 50a4 18bf 6154 8e3e
00000390: 7e72 00bd 1659 bc3e 4cc4 d9bd a01d 863e
000003a0: 84f2 9abe 9225 c1be a591 8bbe ca88 06be
000003b0: a444 273f adfc c4be 69e0 9fbe 98fe 633c
000003c0: c794 87bc 5fd6 d8be 4a43 d0bd c282 433d
000003d0: e7ee f5bd 6055 9dbd 022d fabe 19d2 413e
000003e0: 819d 2abd 6e12 433e 2b50 5a3e 259e d43e
000003f0: 83fe 5abd ce1a eb3d f074 dd3e 5598 95bc

v.net.2.bias f4 [64]
0.58560735 -0.44159156 -0.083774015 0.5190197 -0.22067666 0.121605344 0.33091846 -0.44807604
0.45461786 -0.55452245 0.39587185 -0.61082757 -0.4283626 -0.5043724 0.40841705 0.20712219
0.2859146 -0.26416746 0.2920414 0.29616183 0.2874736 0.22977278 -0.12407339 -0.45230088
-0.35042033 0.4107758 -0.25726622 -0.18724398 0.42007113 0.38025755 -0.35198087 0.5734037
-0.5934616 -0.1496855 -0.2813465 0.32817075 -0.121989615 -0.40190747 0.123872645 0.46310118
-0.40734348 0.48868838 -0.33245972 0.401731 -0.038895976 -0.6446175 -0.23388377 0.3618536
-0.57532114 0.019386336 -0.81337225 -0.39135098 -0.45582458 0.7199468 0.42240563 -0.24106306
0.23934463 -0.3629986 0.82154727 -0.16196992 -0.3919599 0.21625358 -0.35337257 -0.38813952
00000000: 5dea 153f 4a18 e2be b691 abbd 7ade 043f
00000010: 10f9 61be 390c f93d 256e a93e 396a e5be
00000020: acc3 e83e 2ff5 0dbf b7af ca3e 325f 1cbf
00000030: 5852 dbbe 8d1e 01bf 0a1c d13e d717 543e
00000040: 6663 923e f540 87be 7386 953e 86a2 973e
00000050: bd2f 933e 8e49 6b3e 311a febd fb93 e7be
00000060: 4b6a b3be 3551 d23e 66b8 83be e3bc 3fbe
00000070: 9013 d73e 1eb1 c23e d636 b4be 96ca 123f
00000080: 19ed 17bf 2847 19be a60c 90be ff05 a83e
00000090: b1d5 f9bd d1c6 cdbe f1b0 fd3d 991b ed3e
000000a0: 538f d0be 5d35 fa3e 2938 aabe b0af cd3e
000000b0: 6351 1fbd a705 25bf 3a7f 6fbe e044 b93e
000000c0: 3f48 13bf 18d0 9e3c 2a39 50bf 285f c8be
000000d0: d761 e9be 6f4e 383f 8d45 d83e 3cd9 76be
000000e0: c216 753e f4da b9be ec50 523f 71db 25be
000000f0: f8ae c8be 9471 5d3e 40ed b4be 39ba c6be

v.net.4.weight f4 [1, 64]
-0.12967183 0.089556634 0.18632285 -0.15054281 0.22053659 -0.10881681 -0.13916558 0.16640665
-0.11033363 0.18581933 -0.15217827 0.13052146 0.16615067 0.130207 -0.17684117 -0.114571586
-0.21937223 0.13663942 -0.2206232 -0.1230001 -0.11306608 -0.0453207 0.14038587 0.111451454
0.16140336 -0.101543576 0.116437994 0.032522492 -0.19824208 -0.16497989 0.16224062 -0.078908905
0.15288809 0.10377848 0.21949652 -0.047448613 0.16170974 0.122387275 -0.14617886 -0.11119773
0.08190961 -0.1711909 0.114407785 -0.13671711 0.19975057 0.13290966 0.38328904 -0.08296344
0.18644752 -0.22560647 0.18604177 0.064958386 0.1355036 -0.118709125 -0.20587593 0.2120779
-0.17987375 0.12058777 -0.14997073 0.1727841 0.121075734 -0.098675705 0.1480023 0.109108694
00000000: b1c8 04be 7869 b73d 6bcb 3e3e e527 1abe
00000010: 58d4 613e 59db debd 6c81 0ebe 8166 2a3e
00000020: 99f6 e1bd 6c47 3e3e 9fd4 1bbe 6ba7 053e
00000030: 6723 2a3e fc54 053e da15 35be 82a4 eabd
00000040: 1da3 60be 34eb 0b3e 0ceb 61be 7ae7 fbbd
00000050: 308f e7bd 33a2 39bd 50c1 0f3e a940 e43d
00000060: ec46 253e 14f6 cfbd 0b77 ee3d 4e36 053d
00000070: f9ff 4abe 7df0 28be 6822 263e fe9a a1bd
00000080: b28e 1c3e d089 d43d b2c3 603e 7a59 42bd
00000090: 3d97 253e 2ea6 fa3d e9af 15be a3bb e3bd
000000a0: 3ac0 a73d ab4c 2fbe a14e ea3d 92ff 0bbe
000000b0: 6a8b 4c3e 7819 083e 763e c43e bce8 a9bd
000000c0: 19ec 3e3e 6205 67be bc81 3e3e e708 853d
000000d0: 75c1 0a3e c51d f3bd 24d1 52be f32a 593e
000000e0: d330 38be b9f6 f63d ed91 19be 51ee 303e
000000f0: 8ef6 f73d 7d16 cabd ea8d 173e 6174 df3d

c.net.0.weight f4 [64, 40]
-0.15308765 -0.06876151 0.10308046 -0.025318384 0.13840438 0.08055609 0.015001824 -0.0490306
-0.047203656 0.042976547 0.092425816 -0.07443218 -0.088608906 -0.046975814 -0.111664735 -0.100519925
0.092941 0.07290404 -0.0011458468 0.13608445 -0.04001678 0.05424679 -0.017711505 0.06916295
0.02037118 -0.13601166 -0.11097929 -0.07340067 0.1195957 -0.08878508 0.056311943 -0.061886787
0.1475702 0.10913351 -0.15116818 0.0074116825 -0.075144984 0.0061981124 -0.09496254 0.064774215
0.11768154 0.08529341 -0.118809424 0.110374905 0.10471313 -0.08482329 -0.063446514 0.077021435
0.05017671 -0.06576554 -0.13116235 -0.10378139 -0.07090127 1.5644374e-06 0.14814024 0.02931211
-0.1466802 0.022014668 0.06150631 0.02434845 0.07691146 0.15713875 -0.053681444 0.01883822
-0.11200337 -0.13501635 -0.05942676 -0.024778767 -0.14091276 0.0033827662 0.024965273 0.0806473
-0.0471997 0.06892159 0.0432674 -0.08073562 0.13479863 -0.016063247 -0.13416563 -0.059755553
-0.0592116 0.13395874 0.10018429 0.047284875 -0.028457437 -0.09851021 0.016137775 0.07054538
-0.028907787 -0.113113746 -0.0882442 -0.14974177 -0.1447038 -0.041001983 0.084885284 0.08019647
-0.030132309 -0.036212787 0.041133396 -0.03172694 -0.012097323 0.13721468 -0.09758007 0.10122841
0.037843496 0.15718323 -0.085536785 -0.08186207 -0.0020396682 -0.013836978 -0.13693714 -0.06710567
0.15446454 0.08740766 -0.003784242 -0.08202677 0.15054345 -0.09557796 -0.08443414 -0.11770141
-0.11125259 -0.008211807 -0.07859445 0.11800241 0.10276322 -0.15444392 0.007493938 -0.06776909
-0.034084115 0.1452119 -0.039406125 0.06880897 0.06391611 0.029830165 0.06599021 0.069955364
0.1039233 0.14986464 0.12824029 -0.10080324 -0.037637405 -0.090722874 -0.033601645 -0.0827698
0.12923175 -0.14156447 -0.04630207 -0.09201695 0.1390237 -0.047969006 -0.0034635514 -0.040105257
-0.0006054184 0.11359798 -0.00473902 0.044678655 0.01366504 0.14615451 0.10767382 0.13691008
-0.087175846 0.056351826 -0.03356947 -0.05738117 0.09476681 -0.07784918 0.071498185 0.08300933
-0.015950607 -0.06369181 -0.09868149 0.15471108 -0.067765586 0.12791811 -0.06376758 0.13632768
-0.119269714 0.06090743 -0.11241201 -0.11362454 -0.039279103 0.039993163 0.010750117 0.09600012
-0.09319774 -0.12480149 0.096337944 0.050510652 0.04449556 -0.115861975 -0.12689835 0.057745684
0.12755986 0.046185568 0.031588197 -0.14548291 -0.1017404 0.018145287 0.03872056 -0.068036556
-0.07157742 -0.115391396 -0.09015949 -0.008661686 0.1262867 0.12603626 -0.11570941 0.0065489803
-0.1566614 -0.00013629455 -0.15245953 0.09687588 -0.051064577 0.029689478 -0.09969439 -0.124322824
-0.10841549 0.030247888 -0.13013045 -0.028994417 -0.13288708 -0.13546598 -0.06509639 0.15344538
0.116165094 -0.11383382 -0.08896477 -0.017336888 0.11960079 -0.025665218 0.06847801 0.0914844
0.074227616 0.12015466 -0.12245016 -0.025986003 0.0049447534 0.004736325 -0.06615331 -0.056139365
0.033350788 0.06993367 -0.076212116 0.14549088 0.085682616 -0.12641403 -0.0956878 0.005838631
-0.095004946 0.048421334 0.13970487 -0.08368833 0.120408885 0.087753855 0.14485818 -0.118333615
00000000: 02c3 1cbe d6d2 8cbd d91b d33d 8068 cfbc
00000010: e1b9 0d3e 97fa a43d 36ca 753c 4fd4 48bd
00000020: 9f58 41bd 2d08 303d bf49 bd3d e66f 98bd
00000030: 9678 b5bd b669 40bd 7bb0 e4bd 64dd cdbd
00000040: da57 be3d b74e 953d 3d30 96ba b959 0b3e
00000050: a3e8 23bd e231 5e3d b817 91bc 4ea5 8d3d
00000060: 76e1 a63c a446 0bbe 1c49 e3bd 1753 96bd
00000070: 97ee f43d f4d4 b5bd 5aa7 663d 007d 7dbd
00000080: a41c 173e 6481 df3d d5cb 1abe b3dd f23b
00000090: 9de5 99bd 8919 cb3b b87b c2bd 58a8 843d
000000a0: 0503 f13d 50ae ae3d 5b52 f3bd 3d0c e23d
000000b0: d673 d63d d5b7 adbd 3ff0 81bd 6abd 9d3d
000000c0: 1886 4d3d 15b0 86bd 6c4f 06be 568b d4bd
000000d0: af34 91bd a9f9 d135 13b2 173e f31f f03c
000000e0: 5633 16be 1b58 b43c 0aee 7b3d 6776 c73c
000000f0: c183 9d3d fbe8 203e 13e1 5bbd 9c52 9a3c
00000100: 0662 e5bd ba41 0abe 7969 73bd d7fc cabc
00000110: 6f4b 10be 66b1 5d3b f983 cc3c 692a a53d
00000120: 7954 41bd c326 8d3d 2839 313d b758 a5bd
00000130: a708 0a3e 1297 83bc b762 09be 3dc2 74bd
00000140: dd87 72bd 7b2c 093e 6c2d cd3d c9ad 413d
00000150: 921f e9bc b9bf c9bd 5e33 843c 197a 903d
00000160: 06d0 ecbc 2ea8 e7bd 60b9 b4bd e855 19be
00000170: 3c2d 14be b2f1 27bd 56d8 ad3d 0c3e a43d
00000180: 08d8 f6bc dc53 14bd 7e7b 283d 1cf4 01bd
00000190: da33 46bc 0182 0c3e 0fd8 c7bd d750 cf3d
000001a0: c801 1b3d a4f4 203e e92d afbd 4da7 a7bd
000001b0: f4ab 05bb 7eb4 62bc 4039 0cbe b36e 89bd
000001c0: f42b 1e3e ca02 b33d 0c01 78bb a7fd a7bd
000001d0: 1028 1a3e 61be c3bd ceeb acbd 700d f1bd
000001e0: 66d8 e3bd d18a 06bc 21f6 a0bd 3fab f13d
000001f0: 8675 d23d 8c26 1ebe b58f f53b 85ca 8abd
00000200: c99b 0bbd 6eb2 143e 5168 21bd b8eb 8c3d
00000210: 73e6 823d 645e f43c e025 873d c244 8f3d
00000220: bdd5 d43d 1e76 193e 6c51 033e ee71 cebd
00000230: ae29 1abd eacc b9bd e1a1 09bd 3783 a9bd
00000240: 5455 043e 47f6 10be 3da7 3dbd 6273 bcbd
00000250: 3b5c 0e3e 267b 44bd c0fc 62bb 6945 24bd
00000260: f1b4 1eba 0fa6 e83d c849 9bbb f700 373d
00000270: 55e3 5f3c 87a9 153e 1784 dc3d 2832 0c3e
00000280: 4089 b2bd 2cd1 663d 2480 09bd 8508 6bbd
00000290: 1a15 c23d 646f 9fbd a46d 923d cc00 aa3d
000002a0: d9aa 82bc da70 82bd 8519 cabd 956c 1e3e
000002b0: afc8 8abd f7fc 023e 9498 82bd 7c99 0b3e
000002c0: ae43 f4bd 127a 793d 4538 e6bd fcb3 e8bd
000002d0: 20e3 20bd dfcf 233d 4221 303c b69b c43d
000002e0: 75de bebd ec97 ffbd d44c c53d 42e4 4e3d
000002f0: fa40 363d 0b49 edbd a4f1 01be bd86 6c3d
00000300: 0d9f 023e 142d 3d3d a062 013d 79f9 14be
00000310: 455d d0bd 6da5 943c 7399 1e3d c056 8bbd
00000320: 2f97 92bd 5352 ecbd 8aa5 b8bd bfe9 0dbc
00000330: 4d51 013e a60f 013e 0ef9 ecbd d498 d63b
00000340: d96b 20be 4aea 0eb9 5a1e 1cbe dd66 c63d
00000350: 1729 51bd 5937 f33c 932c ccbd f79c febd
00000360: f108 debd 6bca f73c eb40 05be b385 edbc
00000370: 8d13 08be 98b7 0abe 4251 85bd c920 1d3e
00000380: f7e7 ed3d b521 e9bd 2933 b6bd 1706 8ebc
00000390: 42f1 f43d dd3f d2bc 333e 8c3d 2c5c bb3d
000003a0: a604 983d a513 f63d 26c7 fabd 99e0 d4bc
000003b0: 9907 a23b 2c33 9b3b 637b 87bd 64f2 65bd
000003c0: d69a 083d 6239 8f3d 1915 9cbd 90fb 143e
000003d0: 5e7a af3d ae72 01be f7f7 c3bd fd51 bf3b
000003e0: f491 c2bd 7355 463d cb0e 0f3e ca64 abbd
000003f0: ef98 f63d 4bb8 b33d b455 143e e558 f2bd

c.net.0.bias f4 [64]
0.053461425 0.08975283 -0.052642565 0.05023912 0.07383133 0.0046649827 -0.033717565 -0.009236005
0.056928463 -0.025358815 -0.10713955 -0.093019806 -0.0031517195 -0.03355586 0.09627114 -0.044055406
-0.13157147 -0.09098118 0.013723151 0.103564836 -0.048280593 0.061613936 -0.15129706 0.10431902
0.03566116 -0.05488378 -0.03241769 0.07167813 0.008318566 -0.08616213 -0.15598781 0.0011379492
0.118420616 -0.054390967 0.07358601 -0.10929064 0.058936317 0.026795326 0.13897616 0.14313088
-0.059439197 -0.12362692 -0.11549365 0.0692823 0.046621326 -0.112756975 -0.0018684472 -0.101606175
-0.05176929 0.108864956 -0.1278102 -0.120490596 -0.11612346 0.12277846 0.085436866 -0.09931023
0.1110808 0.1547199 -0.1553934 -0.02569792 -0.090335384 0.044156678 0.09051358 -0.10642423
00000000: 5efa 5a3d 55d0 b73d bb9f 57bd 89c7 4d3d
00000010: e134 973d b6dc 983b 6e1b 0abd 9d52 17bc
00000020: d22d 693d 4abd cfbc fb6b dbbd 2b81 bebd
00000030: 148d 4ebb df71 09bd ce29 c53d 7173 34bd
00000040: acba 06be 5754 babd 11d7 603c cd19 d43d
00000050: dfc1 45bd e55e 7c3d 9eed 1abe 36a5 d53d
00000060: 7011 123d d1cd 60bd 69c8 04bd fccb 923d
00000070: 984a 083c c575 b0bd 45bb 1fbe 3d27 953a
00000080: 8286 f23d 10c9 5ebd 43b4 963d c5d3 dfbd
00000090: 3567 713d df81 db3c c44f 0e3e e790 123e
000000a0: 8476 73bd 1c30 fdbd ef87 ecbd e1e3 8d3d
000000b0: 01f6 3e3d 21ed e6bd afe6 f4ba e616 d0bd
000000c0: 090c 54bd 97f4 de3d ade0 02be c6c3 f6bd
000000d0: 23d2 edbd 4673 fb3d 86f9 ae3d 2963 cbbd
000000e0: 557e e33d e56e 1e3e 731f 1fbe 7284 d2bc
000000f0: c201 b9bd a2dd 343d 2f5f b93d f2f4 d9bd
