experiments/07_control_structure_hypothesis/checkpoints/Attitude/ppo/2021-12-14__09-24-50/seed_00031/torch_save/model.pt (torch, 82448 bytes, 19 tensors)

obs_oms.mean f4 [40]
000000 c2 c9 80 3e 77 d3 bd b9 08 32 82 3f 76 43 4a 39
       0.2515393 -0.00036206443 1.0171518 0.00019289352
000010 73 67 4c ba 7d 0f 9d bb 24 32 7f 3f 4a 7c 6b bb
       -0.00077973976 -0.004793106 0.99685884 -0.0035932236
000020 ad b5 86 ba 7f 47 9d bb 7f ae 21 bc 64 d2 30 bc
       -0.0010277532 -0.0047997828 -0.009868263 -0.0107923485
000030 40 f1 19 3c 94 0f a8 ba ce 0e 83 ba 7f 81 8c bc
       0.009395897 -0.0012822025 -0.0009998919 -0.017151592
000040 9c 47 c6 3e d8 fd a3 bb 55 19 f0 bc 9c 18 8a bd
       0.3872651 -0.005004626 -0.029308954 -0.06742975
000050 f7 c4 80 3e a7 d7 c2 b9 51 30 82 3f 34 7d 43 39
       0.25150272 -0.00037163237 1.0170995 0.00018643291
000060 1c bf 4c ba 1b 18 9e bb b5 35 7f 3f aa 32 6f bb
       -0.000781046 -0.004824651 0.99691325 -0.0036498704
000070 f3 91 7b ba 76 c5 a5 bb 21 be 22 bc 83 6f 30 bc
       -0.0009596638 -0.0050589396 -0.009933026 -0.010768774
000080 be cf 17 3c e0 0a a7 ba b0 76 82 ba eb 14 8c bc
       0.009265838 -0.001274433 -0.0009953585 -0.017099818
000090 06 b5 c5 3e 85 94 96 bb d5 82 ee bc 0b bf 8b bd
       0.38614672 -0.0045953416 -0.02911512 -0.06823548

obs_oms.std f4 [40]
000000 9f e8 31 3e bc 56 33 3e 44 38 25 3d cd ac 4a 3d
       0.17373894 0.17513555 0.040336862 0.049481202
000010 ab 46 47 3d 62 cc 1a 3d 76 f5 4d 3b fe 22 b6 3e
       0.04865138 0.03779257 0.0031426824 0.35573572
000020 a5 c2 b8 3e b4 b5 f5 3d b9 94 46 3f b1 ac 41 3f
       0.36086002 0.11997548 0.7757068 0.7565413
000030 5c 3c e4 3e 16 59 66 3d 1d f0 65 3d 42 38 25 3d
       0.445773 0.056237303 0.056137193 0.040336855
000040 80 bd 82 3f 62 e6 49 3f 53 85 36 3f 6f a1 32 3f
       1.0214081 0.7886716 0.71297187 0.6977758
000050 c0 04 32 3e c7 68 33 3e ea ef 26 3d 8f 21 49 3d
       0.17384624 0.17520438 0.040756144 0.04910427
000060 49 b5 45 3d ba 06 19 3d 52 55 45 3b 2e 7a b6 3e
       0.04826859 0.03735993 0.003011067 0.3564009
000070 ab 18 b9 3e 72 86 f8 3d 73 c5 46 3f 1a db 41 3f
       0.36151633 0.121350184 0.77645034 0.7572495
000080 58 8e e4 3e 4c ad 68 3d 7f 4d 68 3d da ef 26 3d
       0.4463985 0.056805894 0.05671453 0.040756084
000090 d5 cc 82 3f 90 88 49 3f 16 54 36 3f 4c 92 32 3f
       1.021876 0.78724 0.71222055 0.6975448

pi.log_std f4 [4]
000000 43 52 90 c0 43 52 90 c0 43 52 90 c0 43 52 90 c0
       -4.5100417 -4.5100417 -4.5100417 -4.5100417

pi.net.0.weight f4 [50, 40]
000000 a0 50 b6 3d e2 3e 12 3e f1 7f 07 be 46 81 be be
       0.08902097 0.142818 -0.132324 -0.37208003
000010 e4 7a c0 bd 31 25 cf 3d 1c ad cd 3d f3 08 1f 3e
       -0.093984395 0.101145156 0.100427836 0.15530758
000020 c7 5a 89 3e 18 18 9d 3d 65 37 fc bc 45 6d 62 be
       0.2682707 0.07670611 -0.030788133 -0.22111996
000030 74 b3 af 3b 40 91 80 be dd 86 8e 3e 75 1f 15 3e
       0.0053619687 -0.25110817 0.27837268 0.14562781
000040 b3 29 a7 3c e6 f2 b7 3d 2c 4f 0f be 86 c0 9c bc
       0.020405626 0.08981876 -0.13995045 -0.019134771
000050 58 90 63 3e d7 e4 10 3e 4f 0b 73 bc b5 2c dd be
       0.22223032 0.14149795 -0.014834239 -0.4319817
000060 bb 8a 10 be 23 84 0d bd c1 a1 b2 bd 25 eb 58 3d
       -0.14115421 -0.034549844 -0.08722258 0.052958626
000070 9b e6 1d 3e f1 18 56 3d a0 4c b8 bd d7 e5 2c 3e
       0.1542 0.05226988 -0.0899899 0.16884552
000080 41 93 86 be 7f fb 6d be dd fb 82 3e 72 04 0a be
       -0.2628422 -0.2324047 0.2558278 -0.13478258
000090 9b 1a ed 3d 5d 1f 8b 3d 44 0b 58 3e e9 55 be bd
       0.1157734 0.067930914 0.21098047 -0.0929373
0000a0 af d5 c4 3b 30 63 4e be 8e 2a 06 3e 8c 13 ce 3c
       0.0060069184 -0.20155025 0.13102171 0.025155805
0000b0 00 ef 8b ba 0b 56 1c bd 49 a6 23 3d 6b b4 0b bd
       -0.0010676086 -0.038167994 0.039953504 -0.034107607
0000c0 53 25 7b bd 4b 80 cf 3d 2d c6 26 3e 81 dc 06 bd
       -0.061314892 0.10131892 0.16286536 -0.032925133
0000d0 c1 e7 3c bd ea 76 13 be c8 a4 65 be d5 67 b1 bd
       -0.046119455 -0.14400831 -0.2242614 -0.086623825
0000e0 0e db 1b 3e 2a 96 d0 bd a6 c8 3f be 4f 0e af be
       0.15220281 -0.101848915 -0.18728885 -0.34190604
0000f0 0d 4e 2d bd 82 4c 95 3d fa f1 be 3d cc 9d b9 3d
       -0.042310763 0.07289983 0.09323497 0.090633005
000100 60 e9 8c bd 5e f3 63 bc 09 02 4f be 12 03 08 3d
       -0.0688045 -0.013913004 -0.2021562 0.033206053
000110 ff 7d 84 3d 2a 96 b0 3c 58 1e 2c 3e db e0 20 bd
       0.06469344 0.021555979 0.1680845 -0.03927694
000120 d6 f0 89 be 20 01 0d 3d 99 3a 6e be ef a6 d0 bd
       -0.26941556 0.0344249 -0.2326454 -0.1018809
000130 51 d6 10 3e e8 47 3d 3e 31 76 0e 3d 24 c2 e5 3d
       0.14144255 0.18484461 0.034780685 0.1121867
000140 34 ae af bc 5b a4 d5 bd 5a a4 8e 3d d9 40 61 be
       -0.021445371 -0.10431739 0.06964941 -0.21997394
000150 8a 41 75 bc 59 a2 1f 3e d9 bc 57 3e 3a 7d 94 3e
       -0.014969239 0.15589274 0.21068133 0.2900179
000160 86 64 c9 3e 7b 63 6d bd c6 58 19 3e f4 a7 96 3e
       0.39334506 -0.0579562 0.1497527 0.29425013
000170 6a 5c 85 3e f7 3f 72 be 55 a6 9d bd af bf 22 3e
       0.2604707 -0.23657213 -0.07697741 0.15893434
000180 28 96 68 3e 8d fa c8 3d e6 99 51 3a ea 55 64 bd
       0.2271353 0.09813414 0.000799565 -0.055745997
000190 a1 20 63 3d ef 65 04 3e 6e 28 ab bd f3 25 94 be
       0.05545104 0.1292951 -0.08357321 -0.28935203
0001a0 d1 4d 3b be 33 c8 a5 bc db 00 15 3d a3 a4 15 3e
       -0.18291403 -0.020237064 0.03637777 0.14613585
0001b0 45 5a c9 3e 43 30 97 be aa 76 62 3e fa 6c 79 3e
       0.39326683 -0.29529008 0.22115579 0.24357978
0001c0 9e d8 1e 3d b0 4b be 39 17 0f 3f bd 41 22 11 3e
       0.0387808 0.00036296016 -0.04664525 0.14173223
0001d0 a0 35 21 3c 2f 13 b7 3e f2 4b 8d bd 37 2c 53 be
       0.009839445 0.35756823 -0.06899251 -0.20622335
0001e0 57 45 50 3e 32 83 88 be 47 b6 cc bd 18 f7 50 3e
       0.20338951 -0.26662594 -0.09995704 0.20406759
0001f0 a9 e6 19 3d 87 01 b7 3d 5e 8e 67 3c ca db 91 3e
       0.03757349 0.08935838 0.014133064 0.28487998
000200 e7 88 47 3e ad 79 44 3d eb e4 b8 3e da d1 59 3e
       0.19485818 0.0479676 0.3611215 0.21271458
000210 bf 9f 8e 3d c3 86 9b be db b9 0e be 89 bf 4a bb
       0.06964063 -0.30376253 -0.13938086 -0.0030936918
000220 80 1f 62 3b 8c 5b ca bd 5b 62 49 be 85 a7 0b 3d
       0.0034503639 -0.098807424 -0.19666426 0.034095306
000230 f7 8f c5 3d ea 40 89 be c5 67 c7 bc 83 64 fc 3d
       0.096466 -0.26807338 -0.024341473 0.123238586
000240 3c b2 cd bd 10 9f 81 bd 79 45 d7 bc fb dc 8f 3e
       -0.10043761 -0.06329167 -0.026278244 0.28098282
000250 71 3f 82 3c 19 f7 eb bd a5 0e 4e 3e e0 ca 9e 3e
       0.015899392 -0.115217395 0.20122774 0.31014156
000260 8e ab d6 bd d1 3a 12 be 14 bb 49 3d 6a 35 4e 3e
       -0.1048194 -0.14280249 0.049250677 0.20137563
000270 f3 1c 84 3e 39 48 48 be 49 35 26 bc ea 12 86 bd
       0.25803337 -0.19558801 -0.01014454 -0.06546576
000280 05 3e c8 be e0 7d a1 bd 6b e8 82 bd fe 54 1e 3e
       -0.39109817 -0.07885337 -0.063919865 0.1546211
000290 f6 31 32 3d 03 e4 83 3e 2c 84 76 bc 93 66 b3 3d
       0.043504678 0.25759897 -0.015046161 0.08759799
0002a0 80 e3 2a 3c be 32 ef be 93 c2 b5 3d ce ef d9 bd
       0.010430217 -0.467184 0.08875003 -0.10641442
0002b0 c1 71 8c bd 5b d5 03 3e ca 68 60 3e 2f 58 ad 3e
       -0.06857634 0.12874357 0.21914974 0.3385634
0002c0 d0 87 33 bd d3 6a 1b 3e 62 db c4 bb d9 50 a9 3c
       -0.043830693 0.15177469 -0.006007598 0.020668434
0002d0 46 66 70 be 51 9f c3 bd 86 4b 75 be 2a 09 97 3c
       -0.23476514 -0.095518716 -0.23954591 0.018436987
0002e0 fd 7c a3 3e 9f a8 57 3e a8 b6 ef bc 93 62 43 3e
       0.31931296 0.21060418 -0.029261902 0.19080572
0002f0 5c ed 6f 3c 27 67 21 bf 56 6e 78 be 00 07 56 be
       0.014643993 -0.63048023 -0.2426084 -0.20901108
000300 28 8e 06 be 63 8d c0 3d b4 66 93 3e 5d 3c 5a 3e
       -0.13140166 0.094019674 0.28789294 0.2131209
000310 e0 6a d3 bd 30 5b 0d bd ab d3 a8 bc 08 37 c4 3e
       -0.10323119 -0.03451079 -0.020608744 0.38323236
000320 e6 19 6c 3e 42 44 a9 3d 26 96 67 bd 27 12 1c 3d
       0.23056754 0.08264972 -0.056539677 0.03810325
000330 50 be 75 3c b1 2f 66 be da 72 b7 3c 9a e8 17 3e
       0.014998987 -0.2247913 0.022393633 0.14834824
000340 f1 2d 37 be e6 6e 13 3e e2 8b f6 3d ae 61 be bd
       -0.17888619 0.14397773 0.12038399 -0.09295975
000350 1a a4 ad be ac b6 24 3d 0e 12 ac bd 8b 21 36 be
       -0.33914262 0.040213272 -0.08401881 -0.17786233
000360 0d 97 90 be c6 4b b6 3d 64 c1 21 3d 3a 72 70 be
       -0.28240243 0.089011714 0.039491072 -0.23481074
000370 fe 04 40 3e 83 94 dc 3d 75 92 6e 3e 0f 08 cc 3d
       0.18751904 0.10770514 0.23298056 0.099624746
000380 9d cc 4f 3e 51 76 17 be e6 ee 30 3e 89 51 e1 3c
       0.20292898 -0.14791228 0.17278633 0.0275047
000390 cf 11 3b 3d c2 53 a1 3d 12 26 36 be 0a ce 98 bd
       0.04567128 0.07877304 -0.1778796 -0.07461174
0003a0 ff f8 39 be 22 55 1a 3d 96 c8 aa be cc f4 63 bd
       -0.1816139 0.037678845 -0.3335616 -0.05565338
0003b0 8d c2 56 bd ab 4d 9d 3d 88 40 54 3e 51 09 5f be
       -0.05243163 0.076808296 0.20727742 -0.21780898
0003c0 b0 40 08 be d4 1c 18 3d 69 0a c6 3c 52 b5 cb 3b
       -0.13305926 0.037136868 0.024174886 0.0062166834
0003d0 16 73 d3 3d 5d c5 1c 3e 0f c1 37 3d 84 38 24 3a
       0.10324685 0.15309663 0.04486185 0.0006264525
0003e0 16 96 ac 3d 18 45 be 3d ea f1 a0 3e b1 ea 3c be
       0.08427064 0.09290522 0.31434566 -0.18448903
0003f0 e2 a1 40 3e 98 ce 86 be 33 b3 96 3d db 1c 92 bc
       0.18811753 -0.26329494 0.07358398 -0.017836025

pi.net.0.bias f4 [50]
000000 25 94 60 bd 53 a7 50 3e 2a 4b 71 3e ff dd a4 bd
       -0.05482878 0.20376329 0.23563829 -0.08050155
000010 5d f0 83 3c 82 61 dd 3d 99 fc 50 3d a1 8e 5d 3e
       0.016105825 0.10809614 0.051022146 0.2163644
000020 44 57 3d 3e 95 eb 79 3d 0c ae 39 3e 62 0d 4d 3e
       0.1849032 0.061015684 0.181328 0.20024636
000030 82 a6 36 be dc 0e cd bc 55 7a 06 3f 23 c1 e5 3d
       -0.17836955 -0.0250315 0.52530414 0.112184785
000040 58 14 81 bd 50 8a 48 3e f7 27 7c 3e 5c 9c 71 bd
       -0.063027084 0.19584012 0.2462462 -0.058987007
000050 1a 8e cc 3e 08 0a e2 3e 8a 7a 9b 3d 20 b1 ef 3c
       0.39952165 0.44148278 0.07591732 0.029259264
000060 7b 7d 96 3e 01 bf e0 bd a5 16 ca 3e 69 9d a7 3e
       0.2939261 -0.10973931 0.394704 0.32737282
000070 58 d6 2b bc d3 59 8e 3c bf c8 4f be 18 ba 95 3e
       -0.010488115 0.017376816 -0.20291422 0.2924354
000080 a5 a8 25 bd 0a a4 ae be 8a 6c ea bd ad 08 06 be
       -0.040444035 -0.34109527 -0.114464834 -0.13089247
000090 2d fe 0e 3e 93 a0 e4 3d a0 9e c6 3e 20 c3 29 3d
       0.13964148 0.111634396 0.38792896 0.04144585
0000a0 2d de a5 be da 68 5e 3e 9a 9e 1d 3e 54 e7 b0 3e
       -0.3239607 0.21719685 0.15392533 0.3455149
0000b0 9e 1a 5c bc 46 17 29 3e 76 ff b7 3c 2f 0f 57 3e
       -0.01343408 0.16512784 0.02246068 0.21001886
0000c0 7c 70 3e 3e 95 b1 09 bd
       0.18597597 -0.03361662

pi.net.2.weight f4 [50, 50]
000000 17 d8 79 bc 4e 05 50 3d cf d1 3e be 42 3b 2b be
       -0.015249274 0.05078631 -0.18634723 -0.16721824
000010 1a dc 37 3d 3e e7 af be c7 c8 19 3e 1f 3b 63 bb
       0.04488764 -0.3435611 0.15017997 -0.003467269
000020 47 99 a7 3d 6d b1 f2 3d 5a 03 38 3e 95 0c 93 be
       0.08183532 0.118502475 0.17970029 -0.28720537
000030 66 d2 9a bc 16 08 49 be 9e 59 e1 3c a4 8d 0b be
       -0.018899154 -0.19631991 0.027508553 -0.1362825
000040 66 11 21 3e 64 99 5d 3d f5 8a ff bc 72 60 33 3e
       0.15729293 0.054101363 -0.03119419 0.1751726
000050 8f 42 ba bd c9 11 5c 3c 84 5c 1b be 62 5d ba 3d
       -0.09094726 0.013431975 -0.1517201 0.090998426
000060 70 41 65 3e 28 07 99 be 24 a2 b0 bd e3 0c 4e 3e
       0.22388244 -0.29888272 -0.08624676 0.20122103
000070 de 49 9e 3c 2c 50 e8 3d 7f c6 a3 bc bd 31 c9 bd
       0.019322332 0.113434166 -0.019992111 -0.0982394
000080 07 cd 24 be 6a 1b 37 3d 22 94 b5 bd e0 ea 16 be
       -0.16093837 0.04470388 -0.08866145 -0.14738035
000090 02 89 ed bd bf 2d cf bc 52 89 d4 3d fa fc 9d 3d
       -0.11598398 -0.025290368 0.10377754 0.07714267
0000a0 d6 d3 a8 3d 48 3b 8f bc 1d c7 63 3e 3a 4a 8b 3d
       0.082435295 -0.017484322 0.22243924 0.06801267
0000b0 b1 3f 80 3e 6c a0 90 bd 84 3b 60 bb 97 04 97 3e
       0.25048593 -0.07061848 -0.0034215162 0.2949569
0000c0 ec 2d b5 3c 74 4b 8f 3e 73 4c a3 bd 43 6d 89 bd
       0.022116624 0.27987254 -0.07973566 -0.06710293
0000d0 81 05 f7 bd a6 98 aa be 11 3a 9f bd 43 ff 83 bd
       -0.12061597 -0.33319587 -0.07774747 -0.06445172
0000e0 75 49 00 3e 75 60 b0 b9 27 d2 de 3d ea 45 92 3e
       0.12528022 -0.00033641202 0.10879927 0.28568965
0000f0 9c 84 2f be 0a 91 e7 3d 4d 1a 06 be 3d 70 bd ba
       -0.1714043 0.11306961 -0.1309597 -0.0014453005
000100 c3 6e 3b 3e 8c 50 96 bd 14 b1 bb bd 5d b3 ef 3d
       0.18303971 -0.07339582 -0.09164634 0.11704133
000110 83 3e 1f 3d 8e 97 1c 3d 0e 6c 15 3e bc 39 aa bd
       0.038877975 0.03823047 0.14592001 -0.08311793
000120 c1 f9 63 3e 69 01 9a 3e b7 9d 77 be 0c e9 d2 3d
       0.22263242 0.300792 -0.24181257 0.102983564
000130 3a 9a 09 be cc c9 16 be 0b 64 be be 1d 84 86 3e
       -0.13437739 -0.14725417 -0.37185702 0.2627267
000140 fc 14 a8 3d b7 c3 36 3d 1d e2 93 bd ea 04 02 3e
       0.082071275 0.044620242 -0.07220862 0.12697187
000150 7a 11 40 bd 7c 94 1c be 4f fc ac bd 27 96 23 be
       -0.046891667 -0.15291017 -0.084465615 -0.15975247
000160 f0 21 84 be 14 64 83 bd c2 d5 a3 bd c5 23 31 3e
       -0.25807142 -0.06415573 -0.079997554 0.17298801
000170 31 22 08 3e 4b c7 1d be 9a 1c 76 3c 83 90 02 be
       0.13294293 -0.15408055 0.015021468 -0.1275044
000180 c8 0a 5a bd 12 c0 3d 3d e1 5f 50 3e 45 05 d4 bd
       -0.053232938 0.04632575 0.20349075 -0.103525676
000190 f7 3f 6e bd 44 ba 4e be 70 7a 4f 3e 1e 5b 9d bd
       -0.05816647 -0.20188242 0.2026155 -0.07683395
0001a0 ca 6a b7 3d d4 ff e6 bd 66 50 79 3d 1b 14 38 3d
       0.08955915 -0.11279264 0.06086769 0.04494105
0001b0 80 4a 0b 3d 19 67 8a 3a 49 68 3f 3e 09 f0 75 bc
       0.034006596 0.001055929 0.18692125 -0.015010842
0001c0 d1 33 4f 3e 3c 08 02 3e de c0 61 3d 2e 89 02 be
       0.2023461 0.12698454 0.055115573 -0.12747642
0001d0 93 b3 0b 3e a6 0d 23 be bf ba 07 bd b0 c5 7f 3e
       0.13642721 -0.15923175 -0.03313708 0.24977756
0001e0 ac 4d 89 be b5 61 8a bd a3 76 8d 3d e2 45 1f be
       -0.2681707 -0.067569174 0.06907394 -0.15554002
0001f0 94 71 e1 3d 92 5c 91 3d 99 e9 59 bd 9d c7 18 3d
       0.110079914 0.070977345 -0.05320129 0.03729974
000200 93 c6 28 3e ab 65 61 b9 e7 c3 bb bd 58 c2 bd 3d
       0.16482 -0.00021495546 -0.09168225 0.09265584
000210 72 1f 91 3d 92 a8 7f bd 12 9d 3b 3d 48 c6 7d 3e
       0.07086076 -0.06241662 0.04580409 0.2478267
000220 18 9e e5 3d 11 72 8b 3e de 72 a3 be aa c4 a9 be
       0.112117946 0.27235463 -0.31923574 -0.33157855
000230 1b ef 20 3d 85 27 23 3e 59 a6 92 3d c5 af 2e bc
       0.03929053 0.15933044 0.071606345 -0.010662024
000240 64 b3 1a bd 29 e1 92 3d fb 4f c8 3d 4b c2 ac bd
       -0.037768736 0.07171852 0.0978088 -0.08435496
000250 e1 5f 94 3d 51 31 98 be 6c 9c 63 3d 5d 15 03 bd
       0.0724485 -0.29725125 0.055569097 -0.032002795
000260 a4 2e ec bd 44 d6 44 3d b9 9d b3 3d de 2d c0 3b
       -0.115323335 0.048055902 0.087703176 0.005864843
000270 e9 c7 ad 3d 47 50 fa 3d a0 1f 17 be c7 e4 9c bc
       0.084853955 0.12222343 -0.14758158 -0.019152058
000280 62 5e bd 3d b1 ee 74 3d 52 14 f3 3d 93 79 85 3d
       0.09246518 0.059797946 0.1186911 0.06517329
000290 2d 4d 60 3e ed 92 5b 3e 1c d7 b1 be c7 8b e9 be
       0.2190444 0.21442766 -0.34734428 -0.45614454
0002a0 cb 22 a7 bd ce 8e 81 be c1 48 e6 3d e0 61 83 3c
       -0.08160933 -0.25304264 0.112443455 0.016037881
0002b0 49 eb 10 3e 78 a8 a5 3d 0b b7 2d bd 87 31 27 bd
       0.14152254 0.080887735 -0.04241089 -0.040818717
0002c0 8e de f6 3d 75 db 6d 3d 14 da 76 bd 5a 11 02 3e
       0.12054168 0.05807062 -0.06026657 0.12701932
0002d0 58 7e 75 3e f6 53 ef 3d 21 3b 03 3e 90 04 87 be
       0.23973978 0.11685936 0.12815525 -0.26370668
0002e0 a7 ce 14 bc 11 53 08 3e 20 c6 a9 bd cb 35 42 bd
       -0.009082473 0.13312937 -0.082897425 -0.047414582
0002f0 28 12 fa bd f6 9e 0a bd 42 ca 50 be fb 71 4a be
       -0.12210494 -0.033843003 -0.20389655 -0.19770043
000300 93 e1 a1 3d 6b 04 51 bc d7 23 55 3e f5 c8 10 3e
       0.07904353 -0.012757401 0.20814453 0.14139159
000310 8c f4 66 3d 1c f0 02 bd d8 33 3a be 8b f0 ae bd
       0.05638556 -0.031967267 -0.1818384 -0.08541974
000320 28 06 28 3e a1 fa aa 3d 49 c3 4f bd 86 5f 26 bd
       0.16408598 0.08348585 -0.050723348 -0.040618442
000330 07 d1 e1 3b c4 5c 5f be 86 16 01 3e a7 a2 9d 3d
       0.006891373 -0.21812731 0.12606248 0.07697039
000340 a7 d8 8f 3e 94 eb 81 be bf e1 9a 3d d5 a1 88 be
       0.2809498 -0.25375044 0.07562589 -0.26685968
000350 1a 4a 8b bd 35 4d 47 3e d9 4e 95 be 1b f8 61 be
       -0.06801243 0.19463046 -0.29161718 -0.22067301
000360 73 d7 8b be 63 f8 42 be 02 20 15 bd 04 24 24 3d
       -0.27312812 -0.19040065 -0.03640748 0.04007341
000370 91 d5 04 3e 3a 4a 54 3e 0f 49 83 3d 28 e1 2c be
       0.12972094 0.2073144 0.06410419 -0.16882765
000380 37 29 77 3d 22 07 0d 3e fe 5b b3 3d 6b f1 2d bc
       0.06034204 0.13772252 0.087577805 -0.010616641
000390 2a bf 92 bb 0d fe 66 3e 56 22 18 be 13 73 5f 3b
       -0.004478355 0.2255785 -0.14856848 0.003409569
0003a0 28 13 c0 bd e0 3e d8 3d db 83 a2 bb 99 58 26 bc
       -0.09378654 0.105588675 -0.004959566 -0.010152959
0003b0 66 3f 4b 3d 08 5f 6e be 61 65 44 3d cd 60 0d 3e
       0.04962101 -0.23278439 0.047948245 0.13806458
0003c0 90 fc db 3d b6 b5 37 3d f8 20 9b 3e 81 f2 91 bd
       0.10741532 0.044851027 0.3029859 -0.07126332
0003d0 9d 1c a7 bd b7 0a 4d 3d d4 a5 83 be b1 e1 e0 b8
       -0.081597544 0.050059047 -0.25712454 -0.00010723191
0003e0 e4 81 02 3e 06 14 a4 be 4b 1e f9 bd fc ac dc 3d
       0.12744862 -0.32046527 -0.12163981 0.10775182
0003f0 1d ab fc 3d f2 41 64 bc 62 f1 3c be 36 df 5e bd
       0.12337325 -0.013931738 -0.18451455 -0.05441209

pi.net.2.bias f4 [50]
000000 a6 86 03 3e fe 07 29 3e 0e bc 86 bb 1d e4 03 3e
       0.12844333 0.16506955 -0.0041117733 0.12879987
000010 8d a2 48 3d 26 eb 68 3e 80 07 7f bc 7f 1c 40 3d
       0.048983146 0.22745952 -0.015565753 0.046902176
000020 6c b0 4f 3e 51 4c 25 bd 86 87 3f be 38 1f 4b 3e
       0.20282143 -0.040355984 -0.18704042 0.19836128
000030 a3 04 66 3e 1b 45 8e 3b 17 a1 df 3c 22 cc 4e 3b
       0.22462706 0.004341734 0.027298493 0.0031554778
000040 b8 8b 3a 3d 5b 82 fb bc 19 b3 bf 3d 9b fa e6 3d
       0.045543402 -0.030701807 0.09360332 0.11278268
000050 d1 a2 0b 3d 1a ef b2 3c 3e d2 ae 3e 3a 50 c3 3d
       0.03409082 0.021842528 0.34144777 0.095367864
000060 25 8f b1 3d 1c 58 82 3e 6a 3b 02 3e 1e f3 a0 3d
       0.08669881 0.25457847 0.12717977 0.07858871
000070 07 5c 93 bd 14 c8 fa 3d 56 a3 09 be c6 15 be bd
       -0.07195287 0.12245193 -0.13441214 -0.09281497
000080 ca 04 1c bd 1a 9d 89 bd eb df a1 3c d0 17 22 be
       -0.038090505 -0.06719418 0.019760093 -0.15829396
000090 0f cb 22 3d ee b8 e3 3d 6f dc 21 be 3c a1 1c 3e
       0.039744433 0.11119257 -0.15806745 0.15295881
0000a0 41 83 69 be 53 2c 07 3e 77 8f d6 3d 83 4a 12 3e
       -0.22803976 0.13200502 0.104765825 0.14286236
0000b0 36 db 45 3e 6a 7a b7 bd bf d7 95 bc d8 df 83 bd
       0.19321904 -0.089588955 -0.018291352 -0.06439179
0000c0 42 8f 34 3e cf 29 8a 3b
       0.17632774 0.0042164098

pi.net.4.weight f4 [4, 50]
000000 80 48 bb 3e 9a f6 c8 be 22 53 26 be 54 a8 73 3e
       0.3657875 -0.39250642 -0.1624265 0.23794681
000010 f9 7a 12 3f af ab 15 3f 72 e3 91 3d 15 0a 90 be
       0.5721889 0.58465093 0.0712346 -0.28132692
000020 a7 73 e2 3c 8e 6b 31 be ef 82 ee 3d 8b a8 3c 3e
       0.027643038 -0.17326185 0.11646067 0.18423669
000030 d6 d2 ee 3e 9a 9f 09 3e 4d 32 59 be 19 8d 84 be
       0.4664523 0.1343979 -0.21210594 -0.258889
000040 64 64 11 3b 0c 1c da 3e 2e 60 16 bd 65 55 11 bf
       0.0022185082 0.42599523 -0.036712818 -0.56770927
000050 0f 5d e4 bd b5 97 fd ba 68 2b fa 3e 3d 31 3e 3d
       -0.11150562 -0.001934758 0.4886124 0.046433676
000060 26 ae 97 3e bd c2 cb bd 70 2f a5 be 38 1c bc 3c
       0.29625052 -0.09949253 -0.32262754 0.022962674
000070 c4 5f e1 3d 83 9c aa 3e a4 72 08 bf 83 f7 bb be
       0.11004594 0.33322534 -0.5329993 -0.36712274
000080 cb 35 51 3e 50 bb 8b be 67 72 f3 bd 78 3b 16 3f
       0.20430677 -0.27291346 -0.11887055 0.5868449
000090 c2 fd 6b be 0e 7e d0 3d e7 d3 94 3e fe d0 6a bd
       -0.2304602 0.10180293 0.2906792 -0.057328217
0000a0 a7 01 53 be 99 7d d3 bd 95 58 cc bd 1d ad 8c be
       -0.20606099 -0.1032669 -0.09977833 -0.27475825
0000b0 ff cd 68 3e d3 b7 62 bf 69 e6 0f 3e 26 5e 01 bf
       0.22734831 -0.88561743 0.14052738 -0.50534284
0000c0 ee 31 e5 3e 7d 37 a8 3e cc 18 83 be 73 53 91 be
       0.44764656 0.32854834 -0.25604856 -0.2838398
0000d0 fb 48 62 3d fe e3 98 bd a5 43 c2 3e c9 7f fd bd
       0.05524538 -0.07465361 0.37942234 -0.12377889
0000e0 32 5f f8 3e 4e bd 5b bd ca a3 b6 3e a8 72 38 be
       0.48510128 -0.053647332 0.35671836 -0.18012488
0000f0 85 d5 be be 38 97 2a be 9b 79 6b bc b3 89 cd bd
       -0.37272277 -0.16659248 -0.014372255 -0.1003603
000100 20 9c cd 3e 13 5e 0e bf a1 c4 b7 be f4 0c 70 be
       0.40158176 -0.55612296 -0.35892203 -0.23442441
000110 29 c8 d0 bd 28 8c 7a be f6 27 ab 3d bd 7a 37 3e
       -0.101944275 -0.24467528 0.08357231 0.17917915
000120 0b 83 39 3e f7 a2 f8 bd 15 f4 be be d3 e6 c5 3e
       0.18116395 -0.12140458 -0.37295595 0.38652667
000130 2b e8 7d 3e 34 90 f9 be 9e 3e 56 be 40 11 bd 3d
       0.24795596 -0.4874283 -0.20922324 0.09231806
000140 aa fd c9 bd 73 42 27 3d 27 14 56 3e 8e a9 d0 bd
       -0.09862836 0.040834855 0.20906125 -0.1018859
000150 f6 53 bd 3e 90 95 93 be 54 67 18 bd 5b 28 2f be
       0.3697812 -0.28825045 -0.037207916 -0.17105238
000160 c9 8d df bd 91 50 93 3e d6 d2 3c 3e 42 cb 85 3d
       -0.10915715 0.28772405 0.18439803 0.06532909
000170 35 37 3a 3e 71 03 bb bd 06 04 b0 be dc c9 d9 3e
       0.18185122 -0.09131516 -0.3437807 0.4253682
000180 68 32 79 be 0b 35 e3 3e e0 e0 e9 3d 1e 0f 58 be
       -0.24335635 0.44376406 0.114198446 -0.21099517
000190 da b8 cf 3b 1c 5e 75 3e b4 ee 74 be 09 7f e7 3e
       0.0063391747 0.23961681 -0.23919183 0.45214108
0001a0 f7 24 3e be 8e b0 33 3e 99 72 ac bd 96 87 d5 3d
       -0.18568788 0.17547819 -0.08420295 0.104262516
0001b0 46 af 28 bd 97 16 de bd 5b 62 a8 3e b2 85 cd 3e
       -0.04118278 -0.108441524 0.3288754 0.40141064
0001c0 0f b1 f0 3b 4c 66 ab 3e 20 dd 96 bd ba 49 97 3e
       0.007345326 0.33476484 -0.07366395 0.29548436
0001d0 f7 b4 2b be e7 9c 1d 3f 5f 35 95 be a3 ae 7f 3c
       -0.16768251 0.6156754 -0.2914228 0.0156056015
0001e0 19 93 b4 be a4 75 58 be 07 c8 56 bd 9d b5 42 be
       -0.35268477 -0.21138626 -0.052436855 -0.19014592
0001f0 dc 08 7e be 31 07 d4 bc 57 6e c5 3d 5f 13 a9 3e
       -0.24808067 -0.025882335 0.09640186 0.3302259
000200 ba 8d 96 be a3 d5 8b be f9 e7 b7 3e 8d 8e 9a 3e
       -0.29405004 -0.2731143 0.3591917 0.30186883
000210 f1 47 72 3e b9 78 4f be 5b b4 c8 3e 9e 1d 0e 3e
       0.23660256 -0.20260896 0.392001 0.13878486
000220 31 6e 58 be 31 13 e5 be 1a 1a 62 bd c9 38 67 3e
       -0.21135785 -0.44741204 -0.055200674 0.22580256
000230 0b 64 b0 3e 02 71 8c bd 7b 99 f2 3d d6 b8 0e 3f
       0.34451327 -0.06857492 0.1184568 0.5575079
000240 86 75 90 be fa 59 20 3e 8f f8 67 bd 12 1a ae be
       -0.28214663 0.15659323 -0.05663353 -0.34004265
000250 40 d5 93 3e 4a 22 9e 3d b5 66 d5 3d 1b 21 17 be
       0.28873634 0.07721384 0.104199804 -0.14758722
000260 a7 58 9e 3e 7d f1 93 3e d6 11 2a 3e 76 86 41 be
       0.3092701 0.28895178 0.16608366 -0.18898949
000270 85 9e 97 be 51 f2 d0 be 12 e4 43 3e 0e a9 e3 3d
       -0.29613128 -0.40809873 0.1912997 0.11116229
000280 e5 59 8a be ed d2 b6 3d 26 c4 9a be c0 ff 60 be
       -0.2702171 0.0892695 -0.30227774 -0.21972561
000290 7b f5 a4 be 30 7a b0 be a8 84 a1 bd df 4c a6 bd
       -0.32218537 -0.34468222 -0.0788663 -0.08120131
0002a0 55 83 2e 3d 9b b0 cd 3d c3 fa 15 be 4a ee 3d 3e
       0.042605717 0.100434504 -0.14646439 0.18547931
0002b0 f9 07 81 bd 9e 3e 35 3e db 68 b6 3e e5 10 c1 3d
       -0.06300349 0.17699668 0.35626873 0.094270505
0002c0 a1 99 88 3e 1f 87 8b 3e fd 7d 6d be 90 17 fa bd
       0.2667971 0.27251527 -0.23192592 -0.122115254
0002d0 9f ea af be d5 fc ed 3e 9f 4a 1e 3e 95 a5 2f 3e
       -0.3435869 0.46481958 0.15458153 0.17153008
0002e0 9a 8a 9d 3e 66 0f b4 3d 0b 19 8c be 32 da 8b 3e
       0.30769807 0.087919995 -0.27362856 0.27314907
0002f0 66 f8 ea be 85 c0 e7 3d 20 91 34 3e d5 de f4 be
       -0.45892638 0.11316017 0.17633486 -0.47826257
000300 6b c8 01 bf 0b 3d 83 3e d3 6c 95 3e b7 9a aa 3e
       -0.5069644 0.2563251 0.2918459 0.33321163
000310 8d 91 7c be bc 32 58 bd 21 0d 55 3c 21 76 ca be
       -0.24664898 -0.05278276 0.013003618 -0.3954325

pi.net.4.bias f4 [4]
000000 df b4 99 bd 77 e9 57 bd 32 06 42 bc e3 9e 4d bd
       -0.075052015 -0.052712884 -0.011842297 -0.050200354

v.net.0.weight f4 [64, 40]
000000 ff e0 ca bd 92 65 8e be f4 2d 7a bd 93 d8 f5 3c
       -0.09906196 -0.27811867 -0.06107898 0.030010497
000010 46 c1 bc 3c 8b 51 96 3d 17 d6 4b 3d 22 53 db 3d
       0.023041379 0.07339772 0.04976472 0.10709216
000020 a6 1b 31 bd ec 7e b4 3c be ba 99 bd 53 6d 42 3d
       -0.04323926 0.022033177 -0.07506321 0.04746754
000030 ac dc 07 3d 9c d5 10 bd db 4b 2a be fb de c6 3c
       0.033169433 -0.035359964 -0.16630499 0.024276247
000040 7c 0f a9 3d 8f 3b 86 3d 2c 5a 38 3c bc 93 30 3d
       0.082549065 0.06554329 0.011251967 0.04310964
000050 53 95 38 3d 15 02 6e be 7e 9b d5 bb de 6d d7 3d
       0.04506428 -0.23242982 -0.0065187803 0.105190024
000060 fb 66 2b be 4b 23 a5 bd 35 1f 3d bd 52 08 9c 3d
       -0.16738503 -0.08063372 -0.04617234 0.076187745
000070 f6 f0 17 3e 3d 5e a4 3e 3b f4 cc 3d aa 1a d3 b9
       0.14838013 0.32103148 0.10007521 -0.00040264922
000080 0b 99 c9 3c 15 50 18 3e 01 23 62 be 33 d9 f1 3d
       0.02460911 0.14874299 -0.22083665 0.118090056
000090 5d 2f d4 3d ae 50 b5 3d f0 66 e1 3c c1 e2 12 3c
       0.10360596 0.08853279 0.027514905 0.008965195
0000a0 33 7b 0d bf ea 8e 9e 3f dd de e3 bd bf 29 16 be
       -0.5526611 1.2387364 -0.11126492 -0.14664362
0000b0 eb 94 03 be 5a 2f fb 3c 2a 47 e9 3d 25 54 d8 3d
       -0.12849776 0.030662227 0.113905266 0.10562924
0000c0 e1 cb 6a 3f b6 0b a3 bc 8c 64 41 bc 38 e4 99 bc
       0.91717345 -0.019903045 -0.011803757 -0.018785581
0000d0 66 96 6d bd 97 8c 59 be 6f 55 7c bd 45 72 dd 3d
       -0.05800476 -0.21245037 -0.061604913 0.10812811
0000e0 0c cf 57 bd 1b fe 08 bd fd 6b f9 3c 12 df d7 bc
       -0.05268769 -0.03344546 0.030447 -0.026351485
0000f0 0e 5a 28 bf da 49 a0 3f b3 ba 9d be 30 0e cd bd
       -0.6576241 1.2522538 -0.30806503 -0.10012472
000100 90 7d 10 3d aa 38 46 bd 54 fb 92 3d 6e a9 ad 3d
       0.035275996 -0.048393883 0.07176843 0.08479582
000110 c4 c8 56 3f 67 a6 e1 bb b9 1c ad bd 26 b6 1c 3d
       0.83900094 -0.006886292 -0.08452744 0.038259648
000120 7f ea 84 bc bf 98 bc bd 23 86 53 be 49 8d 23 3e
       -0.016225098 -0.092088215 -0.20656638 0.15971865
000130 77 e5 85 bd 56 c7 84 bd 9b c6 13 3d 2a d6 05 ba
       -0.065379076 -0.06483333 0.036078077 -0.00051054603
000140 65 ee 6c 3f 83 97 39 bf 93 d5 47 3e 13 26 65 bd
       0.9255126 -0.72496814 0.19515066 -0.055944514
000150 6f 57 55 3d 55 19 1d bd d2 1c da bd 06 4a ad bc
       0.052085336 -0.038354237 -0.10650028 -0.021153461
000160 64 1a fa bd 4f 34 de 3d 3f 18 95 3d 29 1d 2d bc
       -0.12212065 0.10849821 0.07280015 -0.010566034
000170 82 ec 93 bd 4a cc 02 3f b6 93 a3 be fc 29 e5 3c
       -0.07222845 0.5109297 -0.31948632 0.027974121
000180 4b 2c ac bd 6f 69 10 3e 47 3d a3 3d 29 cc 27 bd
       -0.08406886 0.1410272 0.07970672 -0.040966187
000190 0d 81 7e 3f a2 31 e5 be 4d 1a 6c 3e c9 b6 f4 bd
       0.99415666 -0.4476443 0.23056908 -0.11948926
0001a0 66 13 a7 bb ad 53 62 bd 66 80 cb 3d 00 79 52 bc
       -0.005098748 -0.05525558 0.099365994 -0.012846231
0001b0 1f ae 08 be 53 8b 9a 3d e9 fe b5 3d 3a 16 88 3d
       -0.13347672 0.07546105 0.08886511 0.066448644
0001c0 e2 2e 82 bd 72 ed ee 3e 3e d1 d7 be a5 fe 4d 3e
       -0.063565984 0.4666553 -0.42151827 0.2011667
0001d0 6a 25 c4 bd 3f 05 0b 3e 98 cb 52 3d e4 0b 40 bd
       -0.09577449 0.1357622 0.051463693 -0.04688634
0001e0 c3 b6 06 3f f8 63 60 3f c3 eb 48 3d fb f1 ef bc
       0.5262262 0.8765254 0.049052965 -0.02929019
0001f0 8e 84 92 3e ac 58 27 be 70 2c 1a 3d 74 b1 84 3f
       0.28616756 -0.1634242 0.037640035 1.0366654
000200 2b 73 45 3e 76 10 c8 bb fb 66 c3 39 df 07 48 be
       0.19282214 -0.006105478 0.00037270025 -0.19534253
000210 ef 8f 3f bd 52 59 c9 be bd fd eb be e3 73 6e 3d
       -0.046768125 -0.39325958 -0.46092024 0.058215987
000220 0c 8a 58 bd 62 8e 6e 3d ae 48 2e 3d 96 35 9d bd
       -0.052866027 0.058241256 0.04254978 -0.07676236
000230 30 77 1a 3f 42 6c 4d 3f f4 4e 0b 3e 52 07 21 bd
       0.60338116 0.80243313 0.13604337 -0.03931362
000240 4a a1 11 3f b7 83 dd bd 9f 5c 68 bc dc 35 a4 3f
       0.5688673 -0.10816138 -0.014182239 1.2828937
000250 b9 7c 99 3d 4d ba e1 3d 92 86 62 3d 7d 37 b6 3e
       0.07494492 0.11021862 0.055304118 0.3558921
000260 11 78 b3 bd 6f 63 9b be 3c 66 5b be 6d 1d 91 3d
       -0.08763135 -0.303493 -0.21425718 0.07085691
000270 53 6f c7 bd e2 d4 7c 3d 09 96 22 3d 77 e3 41 bd
       -0.0973803 0.06172646 0.039693866 -0.047336068
000280 29 71 7c 3f ba b9 90 bf 26 50 5b 3d 86 95 b6 bd
       0.9861017 -1.1306679 0.053543232 -0.08915238
000290 ac 1c e6 bc 4b ef b3 bd 4e 9a 52 bd c5 20 13 3f
       -0.028089844 -0.08785876 -0.051416688 0.5747188
0002a0 8b 03 37 3e 7d a6 c6 bb 73 ba 14 3e b6 3a 8b be
       0.17872445 -0.0060623274 0.1452425 -0.2719323
0002b0 da 93 65 3b b8 8e d6 3e bd e2 21 3d f9 9f a0 3d
       0.0035030753 0.4190576 0.039522875 0.07843012
0002c0 65 6c 40 bc 3e df 4d 3d 08 9c 13 3c 49 60 8e bc
       -0.011744593 0.05026173 0.009009369 -0.017379897
0002d0 c4 f1 5e 3f 3d b9 83 bf fd 7a 9c bb 40 a0 66 3d
       0.87087655 -1.0290905 -0.0047754035 0.05630517
0002e0 f0 0e 80 3d bb b4 22 be b3 ef 26 3d 57 78 fd 3e
       0.06252849 -0.15889256 0.04075594 0.49505875
0002f0 d1 cd 66 3e 7e 94 52 3c e8 8a e9 bd 38 3e 89 3e
       0.2253945 0.012852786 -0.114034474 0.26805282
000300 46 81 93 bc 37 f3 fa 3e ba 62 ea 3d 86 8d 59 3c
       -0.018005978 0.49013683 0.11444612 0.013278371
000310 25 95 6c 3b 04 e8 32 3d 67 ad a5 bb 54 33 91 bc
       0.003609964 0.0436783 -0.0050560716 -0.01772467
000320 02 93 05 bf e4 6c 02 bf fe e2 ad 3d c9 58 13 3d
       -0.5217744 -0.50947404 0.08490561 0.035973344
000330 4e e0 4a be c3 11 34 3e 91 43 c8 3d db 1d ed be
       -0.19812128 0.175849 0.09778512 -0.4631184
000340 40 4b 2b 3e 9e 5e e3 3c 07 59 9a 3c 22 92 f7 bc
       0.16727924 0.027755078 0.01884128 -0.030221049
000350 89 50 05 3c dc f6 5c be 5d 0c 60 be 15 cf 34 3d
       0.008136877 -0.21578544 -0.21879716 0.0441428
000360 d2 9b 65 bd 42 33 22 3c d0 27 a9 bc 85 10 0b 3c
       -0.056056805 0.009899916 -0.020648867 0.008487825
000370 c5 f8 06 bf 5a a0 0d bf 9e ad 62 bd 48 55 c7 bd
       -0.5272334 -0.553228 -0.055341356 -0.09733063
000380 b7 7a 40 bd 69 48 25 3c b7 c5 f1 bd fd cc d1 be
       -0.04699203 0.010088065 -0.11805289 -0.40976706
000390 ac d5 5b 3d 7b 00 a7 be 64 9d e8 3d 27 ba 34 bd
       0.05367057 -0.32617554 0.11358145 -0.04412284
0003a0 20 7c 80 3c 94 db 88 be 41 bb 76 be 97 ad fe bd
       0.015684187 -0.26730025 -0.24094869 -0.124354534
0003b0 19 96 61 3c dc 61 10 3d 2d 89 36 bd fe 6b 68 bc
       0.013768696 0.035249576 -0.044564415 -0.014185904
0003c0 0c cd 54 3f 93 5a 28 bc 56 f9 a1 3d 6b 97 b4 3c
       0.83125377 -0.010275501 0.07908885 0.022044858
0003d0 d2 01 25 be 47 9c bd ba 3a db d8 bd 94 1e f8 be
       -0.16113976 -0.001446613 -0.10588689 -0.4846083
0003e0 b3 2f f3 be 49 82 a9 bd 64 11 2e 3d e2 ed f5 3d
       -0.4749733 -0.08276803 0.042497054 0.12008263
0003f0 1d 37 42 bc 4a b7 30 3f c0 cc bc 3c b6 da 63 3e
       -0.01185396 0.69029677 0.023046851 0.222514

v.net.0.bias f4 [64]
000000 8f a6 88 3f 33 06 3e 3d 65 c7 89 be dc e0 18 be
       1.067583 0.04639263 -0.26909938 -0.14929527
000010 bb e7 61 3e a0 03 08 bf 39 33 95 be 7e ac 17 3f
       0.22061054 -0.5313053 -0.29140642 0.5924758
000020 39 92 8d 3f a4 3d 05 bd 77 1b 3d 3f f8 87 7e be
       1.1060249 -0.03252949 0.73870033 -0.24856555
000030 d6 8e cd 3b a6 1f 58 3f 2f e9 77 3d ac 66 54 3f
       0.006273131 0.8442329 0.060525116 0.82969165
000040 75 b3 8b 3f 40 a9 65 bc 40 bb 7f bf c6 f5 b3 3e
       1.0914141 -0.014017403 -0.99895096 0.35148448
000050 66 81 8f 3e d9 df 0d bf 0d d0 77 bf 13 dc 06 3f
       0.2802841 -0.5541969 -0.96801835 0.52679557
000060 d6 4c ae 3e 2c d9 80 be ce 3c 82 3e f2 85 86 be
       0.34042996 -0.2516569 0.25437015 -0.26274067
000070 13 66 6e be c2 ab 5f 3d 3a 0c 1a 3e 72 52 b4 be
       -0.23281126 0.05460716 0.15043727 -0.3521915
000080 49 eb 9f be ee da 27 be de cb 50 3f ae dd b8 3d
       -0.31234196 -0.16392109 0.81561077 0.09026657
000090 fd 7d 65 3f 4d 01 3f 3d ff c8 cc 3d e5 a2 f0 bd
       0.8964537 0.0466321 0.099992745 -0.1174982
0000a0 5f d8 cf bf 1b 22 7c bb d4 5c a6 bd 0d 4d c8 3f
       -1.6237906 -0.0038472477 -0.08123174 1.5648514
0000b0 fd 3a 58 3f 12 11 8c be ac f4 d4 be 68 88 6e 3f
       0.8446501 -0.27356774 -0.4159292 0.9317689
0000c0 00 ac 59 bf da eb 85 bf 60 16 c4 bf 62 70 bb be
       -0.85028076 -1.0462601 -1.5319328 -0.3660918
0000d0 a1 57 46 3f 6e 02 95 3e f0 26 14 bf 5c 4e 33 3e
       0.7747746 0.29103416 -0.57871914 0.1751036
0000e0 16 25 0c 3e ea b4 6d bf a9 ab 46 3e 72 74 b2 bf
       0.13686022 -0.9285418 0.1940142 -1.3941786
0000f0 50 65 2b be 36 a4 23 bf 5c 22 17 bc e2 34 ab be
       -0.16737866 -0.6392244 -0.0092245005 -0.33438784

v.net.2.weight f4 [64, 64]
000000 02 1e 8a bc 50 15 8d 3e 2a 58 10 bb b3 17 6b 3e
       -0.016860012 0.27555323 -0.0022025206 0.2295826
000010 2b 30 01 bf b9 48 e1 bd bd 74 30 be de 44 c2 3d
       -0.50464123 -0.11000199 -0.17232032 0.094857916
000020 d5 be b9 3d eb 58 c4 3d 37 2a 12 bd b2 38 86 3d
       0.090696014 0.09587272 -0.03568479 0.065537825
000030 3e a5 b4 be 9c 17 35 bd af 51 04 be 6e d7 3e bd
       -0.3528232 -0.04421197 -0.12921785 -0.04659217
000040 6b 9a 7e 3e e7 7b 0b 3e e0 b2 1b 3e c7 84 10 3f
       0.24863593 0.13621484 0.15204954 0.564526
000050 21 86 87 3d 18 6a b8 3c ba a2 e1 3c 42 d7 09 be
       0.0661738 0.022511527 0.027543414 -0.1346102
000060 be e0 e9 3e fa f3 0e 3f 28 7d 28 3e 8d cd be 3e
       0.45679277 0.5584103 0.16453993 0.37266198
000070 bf 51 4a 3d 1d c3 6a be 75 1a 2e 3e 08 a1 70 be
       0.049394365 -0.22925992 0.1700228 -0.23498929
000080 c5 df 04 3e 67 bb ca 3e 23 d8 df bd b3 56 ef 3d
       0.12975986 0.39596102 -0.10929897 0.116864584
000090 29 a0 de bc e4 c8 b3 3e 1b b7 24 be 6c 93 40 bd
       -0.02717598 0.35114205 -0.16085474 -0.047015592
0000a0 e1 af 10 3d 0b c4 00 3f a6 ba 12 be 95 e6 df 3e
       0.03532398 0.5029914 -0.14329013 0.43730608
0000b0 ad 21 fd 3c c4 34 da bb fd 1f 6d bd 8c 4c 9b bd
       0.030899847 -0.006659122 -0.057891835 -0.075829595
0000c0 2e 8d 76 3d f9 5a 8e 3d c9 4c e6 3e 38 02 4d 3e
       0.060193233 0.069509454 0.44980457 0.20020378
0000d0 dd 4c be bd 01 37 cd 3e 9d c9 9e 3d 98 17 b0 3d
       -0.09292004 0.40081027 0.077532984 0.0859825
0000e0 28 a8 55 3e b8 67 52 3e bc 09 8c 3e 33 cf ad 3d
       0.20864928 0.20547378 0.27351177 0.08486786
0000f0 05 ef a6 be a6 bb 6d 3e 41 e4 cf be 08 ae de 3c
       -0.32604232 0.23216113 -0.4060383 0.027182594
000100 09 8a 2b be 8b d2 db 3e 4d 0b 14 3c db cc 62 3e
       -0.16751875 0.4293407 0.009035897 0.22148459
000110 f5 b2 cd be a0 99 ba bd 4b 28 b4 3d 81 8b b8 bd
       -0.40175596 -0.09111333 0.08796748 -0.09010983
000120 e4 a9 b1 bd 21 be d4 3d bc 91 c6 3d f0 fe 4e 3e
       -0.08674982 0.10387827 0.096957654 0.20214438
000130 9c 9a 8d be 0d bc d3 bb a5 12 41 be 09 25 c8 bc
       -0.2765702 -0.0064616264 -0.18854769 -0.024431722
000140 82 77 6e 3d b7 18 7e 3d 2d 8c c1 3d b1 a3 af 3e
       0.05821944 0.06203529 0.094505645 0.34304574
000150 08 42 49 3d 3d d1 d8 3c 61 3f 05 3e 1e ab 60 be
       0.049135238 0.02646696 0.13012458 -0.21940276
000160 89 f5 d0 3e ae 31 80 bd 03 d8 e4 3d de 82 40 3e
       0.40812328 -0.06259476 0.111740135 0.18799922
000170 ef cf 0b 3e 7d 5f dc 3d 5f 82 44 3f 1e da 4f be
       0.13653539 0.107604004 0.7676143 -0.20298049
000180 00 3c 87 3e 1c cf 28 3f 47 ec a9 ba 2e 7a ef 3d
       0.26412964 0.65941024 -0.0012964093 0.11693226
000190 66 da a2 3d c6 7d e6 3d 37 10 9b 3d a5 ef 67 3d
       0.079518124 0.11254458 0.07571452 0.056625027
0001a0 2e e7 db be 64 a9 e8 3e f1 6b 9a 3e 6c 88 b3 3e
       -0.42949814 0.45441735 0.30160478 0.3506502
0001b0 83 26 0d 3e d9 56 96 be ce 69 70 bb bf 46 2c be
       0.13784222 -0.29363135 -0.0036684158 -0.16823862
0001c0 ac 29 c8 3c a1 9d 98 bd 2e 1e eb 3d 53 e5 b0 3e
       0.024433933 -0.0745194 0.11480366 0.3454996
0001d0 ca 0a 9b 3d a4 ea 52 3e 1d f9 44 3d 11 89 85 bd
       0.07570417 0.20597321 0.048089135 -0.06520284
0001e0 1a 94 05 3d 85 6e 8e 3e 51 2c 09 3e 95 0a 06 3e
       0.032611944 0.27818695 0.13395812 0.13089974
0001f0 28 f7 59 3d 40 9f 9a 3e 31 df 56 be 54 95 45 3e
       0.053214222 0.30199623 -0.20983578 0.19295245
000200 a6 e4 f3 bd 8f 0c 84 bd a2 f5 9f 3d 06 ba 2f be
       -0.119088456 -0.06447708 0.078105226 -0.17160806
000210 80 7f a4 3e 6b 4c 88 bd 6f 54 d4 3c ca c6 9f be
       0.32128525 -0.066552006 0.025919167 -0.31206352
000220 f9 77 1f bd e8 d2 52 be ef 03 7d bd e5 ed d5 bd
       -0.038932774 -0.20588267 -0.06177133 -0.104457654
000230 bc 64 b5 bd ae 80 0e be fc a0 b5 3e b3 42 80 be
       -0.08857104 -0.13916275 0.35474384 -0.25050887
000240 6b 48 d7 bd 09 8f cb be 14 10 9c 3b c0 16 9c bd
       -0.105118595 -0.39757565 0.004762659 -0.07621527
000250 1d c5 02 be 7d 80 1a 3e 9f 9c 6e 3c cc c2 32 bd
       -0.12770505 0.15088077 0.014563709 -0.043642804
000260 af 7c 90 3d 82 ff 41 3d 09 d6 96 3d f8 a3 4e 3a
       0.070550315 0.047362812 0.07365043 0.00078827096
000270 96 ae 9d 3e c9 db 36 3d 67 9f f9 be 27 4b 16 3e
       0.3079726 0.044643197 -0.48754427 0.14677106
000280 2d 8b df 3d c5 46 ee bb c2 29 55 3d dc a3 44 3d
       0.109152175 -0.00727162 0.052041776 0.04800783
000290 8a 50 83 be 1a e9 0a bd d9 07 11 bd 91 d4 a6 3d
       -0.25647384 -0.03391371 -0.035407875 0.081460126
0002a0 36 7f 50 3d 2a a4 95 be b7 29 8c be 79 72 3a 3d
       0.050902568 -0.2922681 -0.27375576 0.045519326
0002b0 2e e4 05 be 7b 92 40 3e af ce b5 3d 02 b4 b3 be
       -0.13075325 0.18805878 0.088773124 -0.35098273
0002c0 74 87 0a 3d 09 17 01 3e be 8d 9e be ca 58 29 be
       0.033820584 0.12606443 -0.30967516 -0.16537777
0002d0 9b 37 2b be 83 37 e8 bd 1b 99 97 bd d4 72 95 3e
       -0.1672043 -0.11338713 -0.074022494 0.2918917
0002e0 61 ef bb bd 96 35 8d bc b2 81 49 be f5 bc 54 3e
       -0.09176517 -0.017237466 -0.19678381 0.20775206
0002f0 12 96 8d 3e ad cc 0e 3e de f5 2c bd 31 fc 8c 3e
       0.27653557 0.13945265 -0.042226665 0.27536157
000300 fe b8 b0 3b ba 7f 93 3e 65 9d ce bc 00 c0 8b be
       0.0053931465 0.28808385 -0.025221536 -0.27294922
000310 bc 0a bf be cb 30 52 3d ae 2a e4 3d 4b 56 97 bd
       -0.37312877 0.051316064 0.11140953 -0.07389506
000320 93 f6 95 be 07 5c 0b 3f f9 38 de be 6e d6 e5 bd
       -0.29289684 0.544373 -0.43402842 -0.1122254
000330 ad 21 58 3e 25 5f be be f3 90 33 be f5 d8 36 3c
       0.21106596 -0.37181965 -0.17535762 0.011160125
000340 cf 55 7b be 86 c5 cc 3e 27 a7 ba 3d d8 bd 1d be
       -0.24544452 0.39994448 0.09113913 -0.15404451
000350 88 a0 68 3e 8b 12 a7 bd 31 9a 73 3e 32 5a 6d be
       0.22717488 -0.08157834 0.23789288 -0.23178938
000360 4f 1b fe bd 2f a6 ec be ed 48 ba be a7 ee 84 3e
       -0.124075525 -0.46220538 -0.36383763 0.25963327
000370 27 ea ca bd dd d5 11 3f e3 24 09 3f f7 7d d6 bd
       -0.09907942 0.56966954 0.5357191 -0.10473245
000380 d5 32 14 3e 1d fb ab 3e ce d0 97 be a4 99 5e be
       0.14472516 0.33590022 -0.29651493 -0.21738297
000390 bf 2e 15 bd 45 17 b1 be fe 6e c2 3e b6 da 2f 3f
       -0.036421534 -0.34588066 0.37975305 0.686931
0003a0 3a 8b 00 bf d9 b5 09 3e e0 6b fc 3e ef 46 37 bd
       -0.5021244 0.13448276 0.49301052 -0.044745382
0003b0 36 ca a2 be 9a e9 a7 be e2 25 26 bd fe 4a 89 bd
       -0.317949 -0.3279541 -0.04056347 -0.06703757
0003c0 4e 24 02 be 36 a5 32 bc e4 29 da bd e8 e0 22 3e
       -0.12709162 -0.010903647 -0.10652521 0.15906107
0003d0 da 3f 1e bd 56 62 64 3d 9c 08 65 3e bb db 05 bf
       -0.038635112 0.055757843 0.22366565 -0.5228841
0003e0 b3 ad 55 bd 88 9e be 3d a8 2c a3 3e 5f 8e 8d 3d
       -0.052167606 0.09307581 0.31870008 0.06911921
0003f0 90 a2 c8 bd c8 6b 9a 3c 2f d1 61 3b 07 69 bc 3b
       -0.09796631 0.018850222 0.0034456959 0.005749825

v.net.2.bias f4 [64]
000000 76 e5 c1 be ec a5 fd be b7 08 b3 3e 50 50 c8 be
       -0.37870377 -0.4954065 0.34967586 -0.39123774
000010 c3 03 dd be a4 5b 16 bf b3 9d e0 be 82 c7 c9 be
       -0.43166932 -0.5873358 -0.43870315 -0.39410025
000020 fc 2d 18 bf 26 28 e6 3e 81 f1 41 be fd 57 91 be
       -0.59445167 0.44952506 -0.18939783 -0.28387442
000030 65 eb 0b 3f e7 2e 1d bf 09 15 bb be df 2a 52 be
       0.5465606 -0.6139969 -0.36539486 -0.20524167
000040 f4 e0 3e 3f 0a 04 04 3f 16 d7 13 3f 2e c7 26 3f
       0.74562 0.51568663 0.5775007 0.65147674
000050 34 c0 6b 3e c8 3b ba be cc f6 26 3e cc 58 4c bf
       0.23022538 -0.36373734 0.16305083 -0.79822993
000060 8d 7c 19 3f b2 5c 37 bf 13 51 10 3f 47 f3 29 3f
       0.59955674 -0.71625817 0.5637371 0.66386837
000070 6d 53 fa 3e 0e e0 f8 3e fc 26 ee be a4 f0 1e 3f
       0.48891774 0.4860844 -0.46514118 0.6208594
000080 a0 7e bd 3e 5f 63 b2 be 86 73 2b bf 04 bc f4 3e
       0.3701067 -0.3484144 -0.6697315 0.47799695
000090 40 38 e7 3e 27 3e 80 be 3c 3e 30 bf df b6 2a bf
       0.45160103 -0.25047418 -0.6884496 -0.6668529
0000a0 0d 5a 09 3f c5 66 d1 3e 20 43 df 3e 73 99 09 3f
       0.5365303 0.4089872 0.436059 0.5374977
0000b0 e7 4d 09 3f 23 9b f4 be 74 cf 94 be e7 49 d4 3e
       0.53634495 -0.4777461 -0.29064524 0.41462633
0000c0 5e 44 d2 be d4 27 14 bf 22 70 1e 3f b3 da a1 3e
       -0.41067785 -0.5787327 0.6188985 0.31612167
0000d0 59 a9 16 3f c0 d3 1c 3f da 2c eb be 86 f2 1a 3e
       0.58852154 0.61260605 -0.45932657 0.15131578
0000e0 f8 5f ae 3e 56 df 16 bf 3d 1e c9 be f0 71 97 be
       0.34057593 -0.58934534 -0.39280882 -0.29579115
0000f0 6c 58 f4 be 5e 4b 23 bf 88 b9 7e be 68 92 f5 3e
       -0.4772371 -0.63786876 -0.24875462 0.47963262

v.net.4.weight f4 [1, 64]
000000 58 e0 53 3e a2 58 e1 3d 65 ac 14 be 12 06 d3 3d
       0.20691049 0.110032335 -0.14518888 0.10303892
000010 7a cc e4 3d 01 88 f1 3d 9b 0a 03 3e d7 e4 23 3e
       0.11171813 0.11793519 0.12797014 0.16005264
000020 86 09 01 3e 65 9e b2 bd bd 06 56 3e 6d 41 6e 3e
       0.12601289 -0.087216176 0.20901008 0.23267145
000030 e5 dd 15 be 8f be f8 3d 66 27 2a 3e 4b 7b 17 3e
       -0.14635427 0.12145721 0.16616592 0.14793126
000040 0f 20 47 be 63 4f a3 bd cf 68 f8 bd fb f0 25 be
       -0.19445823 -0.07974126 -0.12129366 -0.16205208
000050 8d d0 a5 be 86 6a 11 3e eb f9 9d be 79 f4 57 3e
       -0.32385674 0.14200792 -0.30854735 0.21089353
000060 5b 5c 12 be ce a6 3c 3e 6c 4d 45 be 7e 45 37 be
       -0.14293043 0.18423006 -0.19267815 -0.17897603
000070 07 ad ce bd e4 75 f4 bd 9b 25 27 3e e8 ae 43 be
       -0.10091596 -0.11936548 0.16322939 -0.1910969
000080 a7 63 4f be 40 86 58 3e 18 28 10 3e 40 94 4e be
       -0.20252858 0.21144962 0.14077795 -0.2017374
000090 de 3e 09 be 96 db 83 be b0 35 00 3e 08 39 30 3e
       -0.13402888 -0.25753468 0.1252048 0.17209256
0000a0 36 4a 18 be a2 48 fd bd 57 1b 25 be 81 d9 34 be
       -0.14872059 -0.12367369 -0.1612371 -0.17661096
0000b0 40 88 cd bd ab 1b b7 3d f9 d8 19 3d fd 3a 9b bd
       -0.10035753 0.08940824 0.037560437 -0.075796105
0000c0 84 d9 1b 3e d3 73 47 3e 41 37 08 be 35 ee 00 be
       0.15219694 0.19477777 -0.13302328 -0.12590869
0000d0 12 41 ef bd 12 4d df bd e0 9f ee 3d 72 97 4e be
       -0.11682333 -0.10903372 0.116515875 -0.2017496
0000e0 db d8 4a be b7 b3 1f 3e 05 82 57 3e 4a 6b 61 3e
       -0.19809286 0.155959 0.21045692 0.22013584
0000f0 7a 1e 7a 3e 8c 04 5e 3e 18 58 99 3e cd 25 1d be
       0.24425688 0.21681422 0.29950023 -0.15346451
