experiments/07_control_structure_hypothesis/checkpoints/PWM/DroneCircleBulletEnv-v0/ppo/2021-12-13__23-34-44/seed_00003/torch_save/model.pt (torch, 82448 bytes, 19 tensors)

obs_oms.mean f4 [40]
0	0x3e7ed2a1	0.24885036
1	0xb8454e2e	-4.704127e-05
2	0x3f80dc9d	1.0067326
3	0x3a66716b	0.00087907043
4	0xb92c35f8	-0.00016423303
5	0xbd94f119	-0.07272548
6	0x3f7c9cc9	0.98676735
7	0xbac90223	-0.001533572
8	0xb98e67ed	-0.0002716178
9	0xbc7bb5d6	-0.015363177
10	0x3c4e4186	0.012588864
11	0x3ca561bb	0.020188203
12	0xba8a899b	-0.0010569574
13	0x3aab4d5e	0.0013069322
14	0xb9385696	-0.00017579863
15	0xbbdc99f6	-0.0067322208
16	0x3e94fbc6	0.29098338
17	0x3e920537	0.28519604
18	0x3e96ed8e	0.29478115
19	0x3e885885	0.26630035
20	0x3e7ecec5	0.24883564
21	0xb851b65e	-4.9999326e-05
22	0x3f80d733	1.0065674
23	0x3a662954	0.0008779962
24	0xb8b24f18	-8.502434e-05
25	0xbd951636	-0.07279627
26	0x3f7c8346	0.9863781
27	0xbac3c4f6	-0.0014936018
28	0xb99782de	-0.00028898468
29	0xbc8a586d	-0.016887868
30	0x3c4b97dd	0.012426344
31	0x3cbbe854	0.022937931
32	0xbab04edd	-0.0013451237
33	0x3aac9bf9	0.0013169042
34	0xb9389eda	-0.00017606784
35	0xbbd731a6	-0.006567198
36	0x3e945dd4	0.28977835
37	0x3e91ae16	0.2845313
38	0x3e9679df	0.29389855
39	0x3e87f189	0.26551464

obs_oms.std f4 [40]
0	0x3e34a6fd	0.17641826
1	0x3e352af6	0.1769217
2	0x3d1dc201	0.038515095
3	0x3da45437	0.08023875
4	0x3da54138	0.0806908
5	0x3dcb7348	0.099340975
6	0x3d258d01	0.040417675
7	0x3ec669e2	0.38752657
8	0x3ec74684	0.38920987
9	0x3e170e3a	0.14751521
10	0x3fdb7446	1.7144859
11	0x3fe2db48	1.7723169
12	0x3ecad9f6	0.39619416
13	0x3cf14f4f	0.029456763
14	0x3ceb8021	0.02874762
15	0x3d1dc20a	0.03851513
16	0x3f118bd6	0.56854
17	0x3f0ed497	0.55793136
18	0x3f14b27f	0.58084863
19	0x3f030759	0.51183087
20	0x3e34b4af	0.1764705
21	0x3e35344a	0.17695728
22	0x3d209528	0.039204746
23	0x3da70630	0.08155477
24	0x3da890b5	0.08230726
25	0x3dcc54a4	0.099770814
26	0x3d344077	0.04400679
27	0x3ec74180	0.3891716
28	0x3ec80bd9	0.3907154
29	0x3e219f09	0.15783323
30	0x3fde32df	1.7359275
31	0x3fe66afa	1.8001397
32	0x3ecc2504	0.3987199
33	0x3cf45db6	0.029829841
34	0x3cee4fe3	0.029090827
35	0x3d20952d	0.039204765
36	0x3f1137f4	0.56726
37	0x3f0ebc67	0.5575623
38	0x3f1447e2	0.57922184
39	0x3f02ea52	0.51138794

pi.log_std f4 [4]
0	0xc0905243	-4.5100417
1	0xc0905243	-4.5100417
2	0xc0905243	-4.5100417
3	0xc0905243	-4.5100417

pi.net.0.weight f4 [50, 40]
0	0x3c3950fe	0.011310814
1	0xbd7a6c89	-0.061138663
2	0x3daae876	0.0834512
3	0x3c9d9fbb	0.019241204
4	0x3d4f3af4	0.05059333
5	0xbdfaee26	-0.122524545
6	0x3e66a918	0.22525442
7	0x3e74986b	0.23886268
8	0x3d1f6dd4	0.0389231
9	0x3ea12728	0.31475186
10	0x3df778cc	0.12083587
11	0xbe064130	-0.13110805
12	0xbe01884d	-0.12649651
13	0x3c8b4478	0.017000422
14	0x3c5eebad	0.013605994
15	0xbe6cb5aa	-0.23116174
16	0x3d371a82	0.044703014
17	0xbccd504b	-0.0250627
18	0x3e1b0a7f	0.15140723
19	0xbde76d12	-0.113001004
20	0xbd987e92	-0.07446016
21	0xbe2b82bf	-0.16749094
22	0x3e51ccbc	0.20488256
23	0xbe52e040	-0.20593357
24	0x3e664e56	0.2249082
25	0xbe925f0e	-0.28588146
26	0x3ea160f6	0.31519288
27	0x3dbf9d95	0.09356228
28	0x3dd66569	0.10468561
29	0x3edff291	0.4373975
30	0xbe173c7c	-0.14769167
31	0x3ec04fdf	0.37560937
32	0xbd6a62a9	-0.057222996
33	0x3db9d5c3	0.09073975
34	0xbe22da1a	-0.15903512
35	0xbc8ee22e	-0.017441835
36	0x3e38e0bc	0.1805448
37	0x3d434fd2	0.047683544
38	0x3de6d9ff	0.11272048
39	0x3d824345	0.06360487
40	0xbc9867b9	-0.018604146
41	0xbe17f0f8	-0.14838016
42	0xbde5c3a7	-0.11218958
43	0xbe84eb82	-0.25960928
44	0xbdc636df	-0.096784346
45	0x3d43ddd0	0.04781896
46	0xbe0c60cf	-0.13708805
47	0xbe34cc80	-0.17656136
48	0xbc91e5f8	-0.017809853
49	0x3dad98ed	0.08476434
50	0x3d7269fe	0.059183113
51	0x3e140890	0.14456391
52	0xbd6be247	-0.05758884
53	0xbe08dcb8	-0.13365448
54	0x3cfae7f5	0.030628184
55	0xbe22d11f	-0.15900086
56	0xbc268584	-0.010163669
57	0x3d25d149	0.040482793
58	0x3cbb7aba	0.022885669
59	0xbe3c0a0f	-0.18363212
60	0x3cb936ec	0.022609197
61	0xbdd8e573	-0.10590639
62	0x3e0849d7	0.13309418
63	0xbe37de29	-0.17955841
64	0xbe607ff3	-0.21923809
65	0xbd6c202a	-0.05764786
66	0x3b92b38d	0.0044769705
67	0xbe3911b1	-0.18073155
68	0xbe165afd	-0.14683147
69	0xbe149ff5	-0.14514144
70	0x3c9c6e51	0.019095572
71	0xbe5b74e8	-0.21431315
72	0x3e742b89	0.23844732
73	0xbdc82d5d	-0.09774277
74	0xbb5a43bc	-0.0033304533
75	0xbd53457b	-0.051579934
76	0xbe9e99fa	-0.3097685
77	0xbe8b4306	-0.27199572
78	0x3e2921a7	0.16516744
79	0x3d9a40cd	0.07531891
80	0x3ea1b4f1	0.3158336
81	0xbc2b8d42	-0.01047069
82	0x3e0a2ec9	0.1349441
83	0x3e0ff6e7	0.1405903
84	0x3dfa4705	0.12220577
85	0x3e25a10c	0.16174716
86	0x3da48fc4	0.080352336
87	0xbd1e2408	-0.03860858
88	0x3e864695	0.26225725
89	0xbdf2ce48	-0.11855751
90	0x3d9f2d91	0.07772363
91	0xbcaf73f1	-0.02141759
92	0x3dca1145	0.09866575
93	0x3cb831f0	0.02248475
94	0x3e19fb5b	0.15037291
95	0xbdc13ca8	-0.094353974
96	0xbb8f67b1	-0.0043763747
97	0x3dac5f98	0.084166706
98	0xbca5e4ed	-0.020250762
99	0xbc998e76	-0.018744688
100	0x3ce05960	0.027386367
101	0x3e0029e0	0.12515974
102	0x3d544563	0.051823985
103	0xbd7d32b4	-0.061815932
104	0x3d747997	0.05968627
105	0x3d9ada1d	0.07561133
106	0x3dea8b19	0.11452312
107	0x3bd0af9b	0.00636859
108	0x3e4a89aa	0.19779077
109	0xbd23205d	-0.039825786
110	0xbe01fe85	-0.12694748
111	0x3ea63d30	0.32468557
112	0xbd41b91b	-0.04729567
113	0x3dd94b9c	0.106101245
114	0xbdcc968d	-0.09989653
115	0xbb91db95	-0.004451225
116	0xbde1fd91	-0.11034692
117	0x3da62ce9	0.08114035
118	0xbe107f0c	-0.14110965
119	0xbca74fcc	-0.020423792
120	0xbe11f44c	-0.14253348
121	0xbd05b1ef	-0.032640394
122	0xbd06fc9c	-0.03295575
123	0x3d376fa8	0.044784218
124	0xbdfc2bec	-0.12313065
125	0x3d2b2977	0.04178759
126	0xbde324f5	-0.11091033
127	0x3b39ce82	0.0028351848
128	0x3e5b219c	0.2139954
129	0xbc993c83	-0.018705612
130	0x3d839cf8	0.06426424
131	0xbd0440b2	-0.03228826
132	0xbdd5f4a3	-0.104470514
133	0xbda46b34	-0.0802826
134	0x3e1a2a98	0.1505531
135	0x3e119b63	0.14219432
136	0xbc1c38f5	-0.009535064
137	0x3e3e93a1	0.18611003
138	0x3da650df	0.08120894
139	0xbdb1eff0	-0.086883426
140	0xbc03cbc0	-0.008044183
141	0xbd5b7313	-0.05357654
142	0xbe213057	-0.15741096
143	0x3e0a7743	0.13522057
144	0xbe4bd3a9	-0.1990496
145	0x3dec33ef	0.11533343
146	0xbe1acf15	-0.15118058
147	0xbbeba5cd	-0.007191396
148	0x3e2ffca7	0.17186223
149	0xbe8e4b9b	-0.27792057
150	0xbe6a20d9	-0.22864093
151	0xbea4e6ea	-0.32207423
152	0x3cc39fba	0.023879874
153	0x3d2d1e19	0.04226503
154	0xbdaa0c99	-0.08303184
155	0x3dc907ee	0.098159656
156	0x3d40dc59	0.04708514
157	0x3d51a69a	0.051184274
158	0x3ebf6294	0.37379897
159	0x3da1de18	0.07903689
160	0x3df77f61	0.120848425
161	0xbe11fb3b	-0.14255993
162	0x3e46f523	0.1942945
163	0xbca976cb	-0.020686528
164	0x3e5a2fed	0.21307345
165	0x3df63f34	0.12023774
166	0x3e963a01	0.29341128
167	0x3da34afa	0.07973285
168	0xbdbaa829	-0.09114105
169	0x3d061573	0.0327353
170	0xbbddebe9	-0.0067725074
171	0x3e4fad93	0.20281057
172	0x3d9eb2d8	0.077489555
173	0xbdb8c9f8	-0.090228975
174	0xbdd8229e	-0.10553478
175	0xbbf617b0	-0.007510148
176	0x3d280804	0.04102327
177	0x3d81439c	0.063117236
178	0x3dc520dd	0.09625409
179	0x3d4b49d9	0.049630973
180	0xbdaf62ee	-0.08563791
181	0xbe10a459	-0.14125194
182	0x3e1734c8	0.14766228
183	0x3e5e1ad5	0.21689923
184	0x3ebf0ec7	0.37315962
185	0x3e1a9005	0.15094002
186	0x3e254162	0.16138223
187	0x3c8a251f	0.016863404
188	0x3db1ddeb	0.086849056
189	0x3de1fa01	0.110340126
190	0x3d8a57e5	0.06755046
191	0x3e5a8f2a	0.21343675
192	0x3e7c1339	0.24616708
193	0xbe10fb1b	-0.14158289
194	0x3e072d8f	0.13200973
195	0xbb26b0ad	-0.0025434897
196	0xbddca1bc	-0.10773036
197	0x3e49cc9a	0.19706956
198	0x3e46d75e	0.19418094
199	0x3cb12495	0.021623889
200	0x3d51fa3e	0.05126404
201	0x3e3f762f	0.18697427
202	0xbe9c5a6e	-0.30537742
203	0xbe51ce98	-0.20488966
204	0x3e9f1872	0.31073338
205	0x3b7c90b1	0.0038538391
206	0x3d564928	0.05231586
207	0xbe0f8875	-0.14016898
208	0xbd9310a8	-0.07180911
209	0xbd1c9f18	-0.03823766
210	0x3e19b976	0.15012154
211	0x3e165a3a	0.14682856
212	0xbdc66c73	-0.09688654
213	0x3e45f3c0	0.19331264
214	0x3ccbf4ed	0.024897063
215	0x3ed1ea7a	0.40999204
216	0xbcb7fe54	-0.02246014
217	0x3d8ba77e	0.06819056
218	0x3d453540	0.048146486
219	0xbd7ceb3a	-0.061747767
220	0x3e02e5fc	0.12783045
221	0x3e223d38	0.15843666
222	0xbe2c2aee	-0.16813251
223	0xbdcae024	-0.09906033
224	0x3ee3b5a7	0.44474527
225	0xbe1a920c	-0.15094775
226	0xbe683e5b	-0.22680037
227	0xbd346fef	-0.04405206
228	0xbcb23afb	-0.02175664
229	0xbe9c4f9b	-0.30529484
230	0xbde45575	-0.11149112
231	0x3e9a3739	0.30120257
232	0x3ccbd82a	0.024883348
233	0x3e5aaf84	0.21356016
234	0x3dfbc446	0.122932956
235	0x3e9ecbb8	0.310148
236	0x3a078118	0.0005169078
237	0xbd1a68d6	-0.037697636
238	0x3d2772dd	0.040881027
239	0x3d9fe6ee	0.07807718
240	0xbd0b6908	-0.034035712
241	0xbdf6b7ec	-0.12046799
242	0xbd462593	-0.048375677
243	0xbe3203ad	-0.17384215
244	0xbd75b0a6	-0.05998292
245	0xbe1069f4	-0.14102918
246	0x3db68e99	0.08913917
247	0x3de96863	0.11396863
248	0x3e37d139	0.17950906
249	0xbc89a791	-0.016803535
250	0x3c896188	0.01677014
251	0x3d8f8183	0.07007124
252	0x3dc84dfc	0.09780499
253	0xbdeb8d39	-0.115015455
254	0xbcb59ef4	-0.022170521
255	0x3dc8c768	0.09803659

pi.net.0.bias f4 [50]
0	0x3e9bc4ea	0.3042367
1	0xbdffc9bd	-0.124896504
2	0x3e16f15e	0.14740512
3	0xbdd41288	-0.10355097
4	0x3d1ea69f	0.03873312
5	0x3e7062a8	0.23475134
6	0x3d9a7742	0.07542278
7	0x3e964469	0.29349068
8	0x3e08b348	0.1334964
9	0x3cf4b4e1	0.029871406
10	0x3d0c9a24	0.034326687
11	0x3dbf2bf7	0.093345575
12	0x3e954540	0.29154396
13	0x3ea49a52	0.32148987
14	0xbde457c9	-0.11149556
15	0x3b6cd210	0.003613595
16	0x3ddacca8	0.10683566
17	0x3ea4b500	0.32169342
18	0x3da44642	0.08021213
19	0x3d383eee	0.04498189
20	0xbe20da5e	-0.157083
21	0xbc9e9290	-0.019356996
22	0x3ece5b29	0.40303925
23	0xbe24f0f9	-0.16107549
24	0x3e69ffbe	0.22851464
25	0x3eaf7034	0.34265292
26	0xbd89975b	-0.06718322
27	0xbdc39668	-0.09550172
28	0x3de24daa	0.110499695
29	0x3dabd0e6	0.083894536
30	0xbe139b9d	-0.1441483
31	0x3e9df668	0.30852056
32	0x3ecc24b2	0.39871746
33	0x3ed63262	0.41835314
34	0xbd0e69e2	-0.034768946
35	0xbeadb6f3	-0.33928642
36	0xbd061845	-0.03273799
37	0x3e88c489	0.26712444
38	0x3caf8ee6	0.021430444
39	0xbe240014	-0.16015655
40	0x3d3424ce	0.043980412
41	0xbe0a1985	-0.13486297
42	0xbbcf8a31	-0.0063336124
43	0x3e4ed5b8	0.20198715
44	0xbe7eb4a7	-0.24873601
45	0xbde47a93	-0.11156192
46	0x3e5127cb	0.20425336
47	0x3e7b0103	0.24512105
48	0xbd965d90	-0.073420644
49	0x3ecd8e67	0.40147707

pi.net.2.weight f4 [50, 50]
0	0x3e2895be	0.16463372
1	0x3c2da5fd	0.010598657
2	0x3d871bc7	0.06597095
3	0x3e1205a0	0.14259958
4	0x3da49352	0.080359116
5	0xbd786807	-0.060646083
6	0x3e19ace2	0.15007356
7	0x3daf4e62	0.08559872
8	0xbd536517	-0.05161008
9	0xbdfd41e1	-0.12366081
10	0xbdd77b7e	-0.10521601
11	0x3d93f340	0.07224131
12	0x3e7986c1	0.24367811
13	0xbd79b81f	-0.060966607
14	0xbe57beca	-0.21068874
15	0x3d01f6bc	0.031729445
16	0x3e6e9367	0.23298417
17	0x3e880210	0.26564074
18	0xbd0b33f4	-0.033985093
19	0x3e46f5ee	0.19429752
20	0x3d744633	0.05963726
21	0xbd4e052b	-0.050297897
22	0x3e9cbaf2	0.30611378
23	0x3b637307	0.0034706013
24	0xbd73012e	-0.059327297
25	0xbd7a61b1	-0.061128322
26	0x3d6cff26	0.057860516
27	0x3dbf4223	0.093387865
28	0x3d94b82b	0.0726169
29	0x3dcaf835	0.09910623
30	0x3d736978	0.059426755
31	0xbcf53588	-0.029932752
32	0x3e1291ed	0.14313479
33	0x3e35b8e9	0.17746319
34	0xbdb96335	-0.09052125
35	0x3d578be4	0.052623644
36	0xbd4bd2a5	-0.049761433
37	0xbd88c1ed	-0.066776134
38	0x3d5e7f6f	0.05432075
39	0x3d7a4f1f	0.061110612
40	0x3da8c36c	0.08240399
41	0xbe426a5f	-0.1898589
42	0x3c8b4268	0.016999438
43	0xbcc99dc7	-0.024611367
44	0xbb873a2e	-0.0041268086
45	0x3e69a1ad	0.2281558
46	0x3e4930d3	0.19647531
47	0x3db23364	0.08701208
48	0xbdb822e3	-0.08991029
49	0xbd92855e	-0.07154344
50	0xbe3095d0	-0.17244649
51	0x3e426fa1	0.18987896
52	0x3e75f302	0.24018481
53	0xbe0c4fa9	-0.13702263
54	0x3dabf0c8	0.08395535
55	0x3e01dbe7	0.12681542
56	0x3dd6a7e8	0.10481244
57	0x3dbd2cc1	0.09237052
58	0xbd926703	-0.07148554
59	0x3d965ade	0.0734155
60	0x3d957427	0.07297545
61	0xbd045bcd	-0.03231411
62	0x3cd50c07	0.026006712
63	0x3b818316	0.0039523942
64	0x3e0de7bb	0.1385793
65	0xbe05dad1	-0.13071753
66	0xbd6f8224	-0.05847372
67	0x3cd7f6d3	0.026362812
68	0x3e15144c	0.14558524
69	0xbd3b688c	-0.045754
70	0xbd6de1e7	-0.058076765
71	0x3daf4ca1	0.08559538
72	0x3d9f5c5c	0.07781288
73	0x3e0af539	0.13570108
74	0xbe56db09	-0.20981993
75	0xbd96d14f	-0.07364141
76	0xbe6186fa	-0.22024146
77	0x3dd16c22	0.10225703
78	0x3d96be75	0.073605455
79	0x3e9276fa	0.28606397
80	0x3d96fa3c	0.07371947
81	0x3de65176	0.11246006
82	0x3d90000a	0.070312575
83	0xbd34303e	-0.04399132
84	0x3e473d80	0.19457054
85	0xbb9d3a45	-0.004798206
86	0x3c8e3cb4	0.01736293
87	0x3cc4ba81	0.024014713
88	0x3cc7a7fe	0.024372097
89	0x3e1e02d1	0.15430762
90	0x3e16590c	0.14682406
91	0xbdd17e27	-0.1022914
92	0xbc86660a	-0.016406078
93	0xbc2d9b56	-0.010596117
94	0xbd3e9f36	-0.046538554
95	0x3d7a3066	0.061081313
96	0x3dd6c79c	0.10487291
97	0x3d8e7f2d	0.069578506
98	0xbc4490bd	-0.011997399
99	0xbd38d760	-0.045127273
100	0xbda3d60b	-0.0799981
101	0xbd8b3b3b	-0.06798407
102	0x3d9e5d3b	0.07732626
103	0x3d956801	0.07295228
104	0xbcc5c35f	-0.024141012
105	0x3da0d988	0.07853991
106	0xbda93501	-0.08262063
107	0x3e2c58ec	0.16830796
108	0x3d7cab1a	0.061686613
109	0xbcf83352	-0.030297909
110	0x3d32e153	0.043671917
111	0xbd833454	-0.06406465
112	0x3d3bc3b4	0.045840934
113	0xbc0b32f4	-0.008496035
114	0x3d00b50a	0.031422652
115	0x3dd20b02	0.10256006
116	0xbe1ced29	-0.15324844
117	0x3c17b479	0.009259337
118	0xbcc71601	-0.024302484
119	0x3c268009	0.010162362
120	0x3d8ce71b	0.06880017
121	0x3dace876	0.08442776
122	0xbd0e6c92	-0.03477151
123	0x3d4874f7	0.04893967
124	0x3d8a24f5	0.0674533
125	0x3daab6b2	0.083356276
126	0x3d13157a	0.035909154
127	0x3d317722	0.043326505
128	0x3dcdeae4	0.100545675
129	0x3e891194	0.26771224
130	0xbd2cfad5	-0.0422314
131	0x3dcd9c78	0.1003961
132	0x3d6c5436	0.057697497
133	0x3dc4f999	0.096179195
134	0x3e4733b4	0.19453317
135	0x3d587334	0.05284424
136	0x3d1e2ae7	0.038615134
137	0x3e547b97	0.20750271
138	0x3e0ff65d	0.14058824
139	0xbd4983a8	-0.049197823
140	0xbc5506f2	-0.013002144
141	0xbe2e8795	-0.17043908
142	0xbe78579d	-0.24252172
143	0xbcf09e12	-0.029372249
144	0x3d883e4a	0.06652506
145	0xbe92ae62	-0.2864867
146	0xbc7081f3	-0.01467942
147	0x3dcf86f0	0.10133159
148	0xbc531fce	-0.012886001
149	0xbdda4815	-0.1065828
150	0xbe081612	-0.13289669
151	0x3df431f9	0.11923594
152	0xba356feb	-0.0006921279
153	0xbd2afaad	-0.04174297
154	0xbcf819b4	-0.030285694
155	0x3cf63f87	0.03005959
156	0xbc3ae7d7	-0.011407814
157	0xbe41118b	-0.18854348
158	0x3de78284	0.11304191
159	0xbde3ce7e	-0.1112337
160	0x3e471da4	0.19444901
161	0x3dc38be1	0.09548164
162	0xbd87de75	-0.06634227
163	0x3dd1c967	0.102434926
164	0x3cb92d96	0.022604745
165	0xbdbcc510	-0.09217274
166	0x3d1cdc04	0.03829576
167	0x3e91c6bc	0.28471935
168	0x3d81835d	0.06323884
169	0x3e3f1392	0.18659809
170	0x3d3da9db	0.046304565
171	0x3d730e2c	0.059339687
172	0xbba7e84d	-0.005124128
173	0xbc930369	-0.017945962
174	0xbdddd33a	-0.10831304
175	0xbc3397ef	-0.010961517
176	0xbdb74ea0	-0.089505434
177	0x3b6b423c	0.0035897633
178	0x3da303ea	0.07959731
179	0x3db3a75b	0.08772155
180	0xbd3ace47	-0.045606878
181	0x3e6e7fa4	0.23290879
182	0x3e6c8a6c	0.23099679
183	0x3d43f0d4	0.047837093
184	0x3da35e4a	0.079769686
185	0x3e473f6b	0.19457786
186	0xbd87171e	-0.06596206
187	0x3d520510	0.05127436
188	0x3e26cf09	0.16289915
189	0x3dc55512	0.096353665
190	0x3dc626bc	0.09675357
191	0x3d9d06f5	0.076673426
192	0x3dffab43	0.124838375
193	0x3d268008	0.040649444
194	0xbcece06d	-0.028915608
195	0x3d4fd4ee	0.050740175
196	0x3e200fa9	0.15630974
197	0xbe3806fe	-0.17971417
198	0xbd40b802	-0.047050484
199	0x3d0309bc	0.031991705
200	0x3d160536	0.036626063
201	0x3a019ec8	0.000494462
202	0xbd91244b	-0.070870005
203	0xbd9cc104	-0.07654002
204	0xbeb2f22f	-0.34950396
205	0x3db57d18	0.0886175
206	0x3e0e2038	0.13879478
207	0xbe250167	-0.16113816
208	0x3ca31626	0.019908022
209	0x3e968d24	0.29404557
210	0xb9895a0c	-0.00026197766
211	0xbd796499	-0.060886953
212	0x3cc06576	0.02348588
213	0x3db3d419	0.08780689
214	0x3cf91c04	0.030408867
215	0xbcacf291	-0.021111758
216	0x3d8e4ebd	0.06948612
217	0xbe309088	-0.17242634
218	0xbe414d65	-0.1887718
219	0xbc4f7d1e	-0.012664108
220	0xbd2f455e	-0.042790763
221	0x3d6079e4	0.054803744
222	0xbdbe95dd	-0.09305928
223	0x3bb2aece	0.0054529672
224	0xbdb08cdf	-0.08620619
225	0x3d5fc79a	0.054633714
226	0xbc9b6987	-0.018971218
227	0x3e6ebcf7	0.23314272
228	0x3e015f0c	0.12633914
229	0x3e4c4704	0.19948965
230	0x3c653884	0.013990525
231	0xbe14241d	-0.14466901
232	0xbd10f80c	-0.035392806
233	0x3d866565	0.06562308
234	0x3e6ea447	0.23304854
235	0xbe16532d	-0.14680167
236	0x3de03fb3	0.1094965
237	0x3e800e11	0.25010732
238	0x3e084c40	0.13310337
239	0xbe147fd1	-0.14501883
240	0x3cf21053	0.0295488
241	0xbd8c46ac	-0.06849417
242	0x3d4cc7de	0.049995296
243	0xbe75a6be	-0.23989388
244	0xbdb403f6	-0.08789818
245	0x3e12b10d	0.14325352
246	0x3e09739f	0.13423012
247	0x3cd41bc5	0.025892148
248	0xbeb4c598	-0.35307002
249	0x3df9a44a	0.12189539
250	0xbd7aa3bc	-0.061191306
251	0x3db73cbd	0.08947132
252	0x3da14218	0.078739345
253	0x3d0910be	0.033463232
254	0x3c2d86a6	0.010591185
255	0x3dab390f	0.083604924

pi.net.2.bias f4 [50]
0	0xbe2f11e0	-0.17096663
1	0x3ce81c99	0.028333949
2	0x3dbefb56	0.09325282
3	0x3dc5284e	0.09626828
4	0x3d531682	0.051535137
5	0x3e078288	0.13233387
6	0xbc9604f2	-0.018312905
7	0x3d804a9d	0.06264231
8	0x3e4803c3	0.19532685
9	0xba0d74f2	-0.00053961494
10	0x3de785c0	0.11304808
11	0xbe07c18b	-0.13257425
12	0x3b8d7997	0.004317473
13	0x3d0da70f	0.034583148
14	0x3d5003f2	0.050785013
15	0x3e045103	0.12921529
16	0x3d12effd	0.035873402
17	0x3de9162d	0.11381183
18	0x3dce4d26	0.10073309
19	0x3d906eb5	0.07052366
20	0xbe168dec	-0.14702576
21	0xbd9427dc	-0.07234165
22	0xbe0a4dae	-0.13506195
23	0x3d2072f7	0.03917214
24	0x3ddb0246	0.10693793
25	0xbde586b1	-0.11207331
26	0xbdb9ef6a	-0.09078868
27	0x3d1c3a25	0.03814139
28	0x3e3fd03c	0.18731779
29	0xbe15d190	-0.14630723
30	0xbdf80e6a	-0.12112124
31	0xbd10e396	-0.035373293
32	0xbe29746e	-0.1654832
33	0x3cd9610f	0.026535539
34	0x3de4683b	0.11152693
35	0xbd8864f2	-0.06659879
36	0xbb2d261c	-0.002642042
37	0x3db59f15	0.08868233
38	0x3e14f14f	0.14545177
39	0xbe5f80ad	-0.2182643
40	0x3d2e0995	0.042489607
41	0xbd29c4c3	-0.041447412
42	0x3e13353f	0.1437578
43	0x3d942bc3	0.072349094
44	0x3b2e19c6	0.0026565655
45	0x3e428b59	0.1899847
46	0xbd90fb49	-0.07079179
47	0x3d047abc	0.03234361
48	0xbd6aabf7	-0.057292905
49	0x3e3ff410	0.18745446

pi.net.4.weight f4 [4, 50]
0	0xbed457a9	-0.4147313
1	0x3e0f2cc1	0.13981916
2	0x3e2d1093	0.16900854
3	0xbd5d7a16	-0.05407151
4	0x3e892f0d	0.2679371
5	0x3e97996f	0.29609248
6	0xbe28a11a	-0.16467705
7	0x3e3a3a14	0.18186218
8	0x3e3545e1	0.17702438
9	0x3e54d21c	0.20783275
10	0xbe52b95a	-0.20578519
11	0xbec7597b	-0.38935456
12	0xbd7f3f40	-0.06231618
13	0x3d532177	0.051545586
14	0xbc6c6107	-0.01442743
15	0x3ed22394	0.4104277
16	0x3cccc40c	0.024995826
17	0xbdd5d41a	-0.10440846
18	0x3e1eb6f5	0.1549948
19	0x3d3972ec	0.045275614
20	0x3d9e4c38	0.07729381
21	0xbeae034d	-0.33986893
22	0xbdc11942	-0.09428646
23	0xbe46c46d	-0.19410868
24	0xbd9d19f8	-0.07670969
25	0x3b032c34	0.002001536
26	0xbe39ed67	-0.18156968
27	0x3e4f3782	0.20236018
28	0x3e3f8baf	0.18705629
29	0xbe8fca68	-0.2808411
30	0xbddca23d	-0.10773132
31	0xbe30e15a	-0.17273465
32	0x3d878c44	0.066185504
33	0xbd7dc109	-0.06195167
34	0x3da38680	0.07984638
35	0x3cb16c6d	0.021658147
36	0x3dabfeb7	0.083981924
37	0x3e8a03ac	0.26955926
38	0x3e1018bc	0.14071935
39	0xbeffaf58	-0.49938464
40	0xbe55b294	-0.20868903
41	0xbd4ebffa	-0.050476052
42	0x3eaeae6a	0.34117442
43	0x3db134da	0.08652659
44	0x3dba2f1d	0.090910174
45	0x3e7a7b85	0.24461181
46	0xbdbcba73	-0.0921525
47	0xbe2b2de5	-0.16716726
48	0xbe968c83	-0.29404077
49	0x3dd41e4a	0.1035734
50	0xbdfd3960	-0.12364459
51	0x3d8ca47b	0.0686731
52	0x3d6dd304	0.05806257
53	0x3e2f99cd	0.17148514
54	0x3eae8e06	0.3409273
55	0x3d155850	0.036461174
56	0xbdc48773	-0.095961474
57	0xbed106fb	-0.40825638
58	0x3d320a51	0.04346687
59	0x3d2ac71d	0.041693795
60	0x3da476a2	0.0803044
61	0xbea267ca	-0.3171981
62	0x3e8debe6	0.2771904
63	0xbd3f4f0f	-0.046706256
64	0x3e1247b0	0.14285159
65	0x3ea77b2d	0.32711163
66	0x3e1e264b	0.15444295
67	0xbd8d31f3	-0.06894293
68	0xbe4a34b1	-0.19746663
69	0x3ea5e8e3	0.3240424
70	0xbea58ccf	-0.3233399
71	0x3cafc5ee	0.021456685
72	0xbe9d785d	-0.30755892
73	0x3e61572c	0.2200591
74	0xbe4deb71	-0.20109345
75	0x3e6486d4	0.22317058
76	0xbd8ceb71	-0.068808444
77	0xbced2e70	-0.028952807
78	0x3e62df36	0.2215546
79	0x3e89613c	0.26831996
80	0xbe0cc9e0	-0.13748884
81	0x3e387e28	0.18016875
82	0xbe803936	-0.25043648
83	0xbdd6f6e2	-0.10496308
84	0x3eb10aea	0.3457864
85	0x3d2a9d4d	0.04165392
86	0xbeb09845	-0.34491172
87	0xbe18c378	-0.14918315
88	0xbe2d4bd0	-0.16923451
89	0x3e245f18	0.160519
90	0x3ca035a4	0.019556828
91	0xbcc46ae4	-0.02397675
92	0x3dccefab	0.100066505
93	0xbea55db7	-0.3229806
94	0x3db7dfc2	0.08978225
95	0xbc0bb308	-0.008526571
96	0x3d8de11a	0.069277
97	0x3e1daa6a	0.15397039
98	0xbeac4daa	-0.33653003
99	0x3e2ca59b	0.16860048
100	0x3dca58fb	0.09880253
101	0x3e4dd0be	0.2009916
102	0x3e0ac7e1	0.1355281
103	0x3dd14e29	0.10219986
104	0x3cd7e072	0.026352141
105	0xbdbec332	-0.09314574
106	0xbdbda4a6	-0.0925992
107	0xbe0785a4	-0.13234574
108	0x3e8f5560	0.27994823
109	0xbcc49fbf	-0.024001954
110	0xbdfa9832	-0.1223606
111	0xbede18da	-0.43378335
112	0x3e464881	0.19363596
113	0xbc154b7d	-0.009112236
114	0x3ecc9845	0.39959922
115	0xbd680930	-0.056649387
116	0xbd36c31a	-0.044619657
117	0x3e2ae7ef	0.16690038
118	0xbef2eafd	-0.47444907
119	0xbdb94b9b	-0.09047624
120	0x3e999648	0.29997468
121	0x3e90117a	0.28138334
122	0x3e6519ba	0.22373095
123	0xbe7a2470	-0.24427962
124	0xbf07a153	-0.52980536
125	0xbe0d0cf1	-0.13774468
126	0x3e6f402f	0.23364328
127	0xbd20d913	-0.039269518
128	0xbe07f838	-0.13278282
129	0x3e94f218	0.29090953
130	0x3e3f4394	0.18678123
131	0x3c9ffcb3	0.019529676
132	0xbe2ef204	-0.17084509
133	0xbce42fba	-0.027854789
134	0x3cfea4a4	0.031084366
135	0x3e7dc958	0.24783838
136	0x3e46f918	0.19430959
137	0x3e01e415	0.12684663
138	0xbc2ea20b	-0.010658751
139	0xbdcb68c3	-0.09932091
140	0xbe426c1d	-0.18986554
141	0x3e4fa3c5	0.20277317
142	0xbe92611e	-0.2858972
143	0x3e852c4e	0.26010364
144	0x3e4fec53	0.20304994
145	0xbe21e987	-0.1581174
146	0x3e1c9832	0.15292433
147	0xbe122f6e	-0.14275905
148	0x3d371a28	0.04470268
149	0xbc9603dc	-0.018312387
150	0xbc38d0db	-0.011280264
151	0xbbfb8481	-0.007675708
152	0xbd1aac14	-0.037761763
153	0xbde95243	-0.11392643
154	0x3ed418f6	0.41425294
155	0xbcc326de	-0.023822244
156	0x3d99072d	0.07472072
157	0x3e9a4e04	0.30137646
158	0x3e4f205d	0.2022719
159	0xbe5793c9	-0.2105247
160	0xbe60f6c9	-0.21969141
161	0x3e63d348	0.22248566
162	0x3df30d47	0.11867767
163	0xbe45e8d8	-0.19327104
164	0x3dc9ebd4	0.09859434
165	0x3d92b6cb	0.07163771
166	0x3eb6a084	0.3566934
167	0x3e3049cf	0.17215656
168	0xbd912dfd	-0.0708885
169	0xbeba1340	-0.36342812
170	0xbdc4018f	-0.0957061
171	0xbcfc621b	-0.0308085
172	0x3bee402d	0.007270834
173	0xbe137f1d	-0.14403959
174	0xbe92fbe3	-0.287078
175	0x3eaaec27	0.33383295
176	0xbc8a5bdb	-0.016889503
177	0xbe069a37	-0.13144766
178	0xbdc88d82	-0.097926155
179	0xbd36f9dc	-0.04467188
180	0x3e39ef11	0.18157603
181	0xbdb38dbf	-0.0876727
182	0xbdcbec2e	-0.09957157
183	0xbe678019	-0.22607459
184	0x3db1fa62	0.08690335
185	0xbe9060f4	-0.2819897
186	0x3d909e13	0.070614
187	0x3df33133	0.118746184
188	0xbe7c2d57	-0.24626671
189	0xbe116de2	-0.14202073
190	0xbe1acd96	-0.15117487
191	0x3d8d1f66	0.068907544
192	0x3eaf3c7b	0.3422583
193	0x3e3c6431	0.18397595
194	0xbdce1608	-0.10062796
195	0x3c07bc59	0.008284652
196	0x3e0bcdf6	0.13652787
197	0x3ca7a446	0.020464074
198	0xbd81970a	-0.063276365
199	0x3e1609f3	0.14652233

pi.net.4.bias f4 [4]
0	0x3bbe8308	0.00581396
1	0x3cae4215	0.021271745
2	0x3d7650b7	0.06013557
3	0xbdd46a13	-0.103717946

v.net.0.weight f4 [64, 40]
0	0x3f5c154c	0.85969996
1	0xbf2649fd	-0.6495665
2	0x3d41ff62	0.047362693
3	0x3e552c38	0.2081765
4	0xbd82ebe1	-0.063926466
5	0x3de21423	0.11038997
6	0x3e1b4200	0.15161896
7	0xbe521401	-0.20515443
8	0xbe1c70d8	-0.15277421
9	0x3e5b6f97	0.21429287
10	0xbd0999fc	-0.033594117
11	0x3da64728	0.08119041
12	0xbd9b023b	-0.07568785
13	0x3ca64b01	0.020299437
14	0xbe0cd814	-0.13754302
15	0xbe08af37	-0.13348089
16	0xbbbabf4c	-0.005699074
17	0xbd7659aa	-0.060144104
18	0xbd6966ee	-0.056982927
19	0xbc258c8d	-0.010104311
20	0x3f6c91aa	0.92409766
21	0xbf35c46e	-0.7100285
22	0x3e07e011	0.13269068
23	0xbd6c1dd4	-0.057645634
24	0x3dbfd1b3	0.09366169
25	0xbdfb4b76	-0.122702524
26	0x3e875bda	0.26437265
27	0x3c2d58e1	0.010580272
28	0xbeb6358b	-0.35587725
29	0x3e985f0e	0.2976002
30	0xbe2e49be	-0.17020318
31	0x3dfbe6b7	0.12299865
32	0xbd89398a	-0.06700428
33	0x3e0a19c9	0.13486399
34	0x3cdf9377	0.027291996
35	0xbda41952	-0.08012642
36	0xbd5c04af	-0.053715404
37	0xbd8e1c2f	-0.06938969
38	0xbdb10e4b	-0.08645304
39	0xba783ceb	-0.00094695267
40	0xbec3cbe6	-0.382415
41	0x3f0a9755	0.54137164
42	0xbe8b243f	-0.2717609
43	0x3d6a0d01	0.057141308
44	0x3e6569af	0.22403596
45	0x3d17777b	0.03697918
46	0x3e4404c0	0.19142437
47	0x3e7b340f	0.24531578
48	0x3ca0784d	0.019588614
49	0xbe049f8e	-0.1295149
50	0x3ddbd897	0.107346706
51	0x3d7e9d87	0.06216195
52	0x3d087cd9	0.03332219
53	0xbe085bce	-0.1331627
54	0x3da0e9cd	0.07857094
55	0x3ddad3ff	0.10684966
56	0xbd834ec0	-0.06411505
57	0x3d4483bc	0.047977194
58	0x3cb904b3	0.022585249
59	0xbc4037e8	-0.011732079
60	0xbecbad0a	-0.39780456
61	0x3f0bdbc9	0.5463224
62	0xbe550ad9	-0.2080492
63	0xbd7fa963	-0.0624174
64	0x3e26d40e	0.1629183
65	0x3dcdbbff	0.10045623
66	0x3dd06d4f	0.10177099
67	0x3ea20be2	0.3164969
68	0x3be97ccb	0.007125472
69	0xbea1b1e5	-0.31581035
70	0x3e8077c5	0.25091377
71	0x3e2e52fe	0.17023847
72	0xbda454ad	-0.08023963
73	0xbe3ad7e1	-0.18246414
74	0x3d4daad1	0.05021173
75	0x3e5a57ed	0.21322604
76	0xbdbbb739	-0.09165806
77	0x3daa9850	0.083298326
78	0x3d140e79	0.036146615
79	0xbc99a987	-0.018757595
80	0xbeb77833	-0.35833892
81	0x3d2c41dd	0.042055
82	0xbd44f559	-0.048085544
83	0xbe8e0d1a	-0.2774437
84	0x3d273059	0.040817592
85	0x3d99e9dd	0.07515309
86	0xbd92625c	-0.07147667
87	0xbcb9f11f	-0.022697983
88	0xbe2ec198	-0.17066038
89	0x3d9b6c1a	0.07588978
90	0x3ba25145	0.0049535357
91	0xbab31045	-0.0013661465
92	0xbdb824e3	-0.089914106
93	0x3cdb34e0	0.026758611
94	0x3e129396	0.14314112
95	0xbd8f5f90	-0.07000649
96	0x3b70dfac	0.0036754413
97	0x3d1d6be5	0.038432974
98	0x3da91b8f	0.082572095
99	0xbc338b39	-0.010958486
100	0xbd86e6ba	-0.06586976
101	0xbb75d9b5	-0.0037513797
102	0xbd916ae1	-0.07100464
103	0xbe06fa0d	-0.13181324
104	0x3b931a23	0.0044891997
105	0xbcc890ff	-0.024483202
106	0x3ed6c341	0.41945842
107	0x3cc14289	0.023591297
108	0xbe035fcf	-0.12829517
109	0x3e030eb6	0.1279858
110	0x3d095085	0.033524055
111	0xbce7a613	-0.028277433
112	0xbda90f3d	-0.082548596
113	0x3db99e37	0.0906338
114	0xbd5db13a	-0.054124095
115	0xbe4bd6b0	-0.19906116
116	0x3c82aade	0.015950616
117	0x3ccb9318	0.024850413
118	0x3da39f04	0.07989314
119	0x3cec6f39	0.028861629
120	0x3e2fc6e6	0.17165717
121	0x3ea78a0b	0.32722506
122	0x3e3445e0	0.1760478
123	0x3e28f790	0.16500688
124	0x3d2154a9	0.03938738
125	0xbe55af71	-0.20867707
126	0xbe38a22e	-0.18030617
127	0x3d8c1711	0.06840337
128	0x3decee87	0.11568933
129	0xbf12cd4b	-0.573445
130	0x3d9a50a6	0.07534914
131	0x3cb1f7a5	0.021724531
132	0xbd1d06a2	-0.038336404
133	0x3d80c9f5	0.0628852
134	0x3dfbf5a4	0.123027116
135	0x3db31647	0.087444834
136	0x3b10f2a2	0.0022117277
137	0xbb86507a	-0.004098949
138	0xbd979292	-0.07401003
139	0xbb505dab	-0.0031794112
140	0x3cc1373b	0.023585906
141	0x3efc8990	0.49323702
142	0x3dcbf9ae	0.09959732
143	0x3e3a4d1c	0.18193477
144	0x3e0b094b	0.13577764
145	0xbd116d52	-0.035504647
146	0xbf089905	-0.5335849
147	0x3db83974	0.08995333
148	0x3cae9fc4	0.021316417
149	0xbf1f26a2	-0.62168324
150	0xbd11611d	-0.035493005
151	0xbe4c04b0	-0.19923663
152	0xbe602ff6	-0.21893296
153	0xbd832d4f	-0.06405126
154	0xbd352757	-0.04422697
155	0x3e5bf205	0.21479042
156	0x3d98a006	0.07452397
157	0xb95c86be	-0.0002103103
158	0xbc97f755	-0.018550554
159	0x3cc91d9d	0.024550254
160	0xbf3db67a	-0.7410656
161	0xbe3d01c1	-0.184577
162	0x3e53b416	0.20674166
163	0xbe1dfe57	-0.15429054
164	0x3e486ec8	0.1957351
165	0xbe4d6fd3	-0.20062189
166	0xbe228618	-0.15871465
167	0xbb9a58bd	-0.0047102855
168	0x3dc4490e	0.095842466
169	0x3e080751	0.13284041
170	0xbe1786d0	-0.1479752
171	0x3ca6b5b1	0.02035031
172	0x3c7dff6d	0.015502793
173	0xbddb23af	-0.107001655
174	0x3e10c67e	0.14138219
175	0xbc342045	-0.010994022
176	0xbc4d80d3	-0.012542921
177	0xbd318ffb	-0.0433502
178	0xbcf71315	-0.030160466
179	0x3d54cbae	0.051952057
180	0xbf181810	-0.59411716
181	0xbc780925	-0.015138899
182	0xbcfe7157	-0.031059904
183	0xbddf87ec	-0.10914597
184	0x3e09ea61	0.13468315
185	0xbe075c5a	-0.13218823
186	0xbebd55cc	-0.3697952
187	0xbe4d1712	-0.20028332
188	0x3d981ef6	0.0742778
189	0xbe0a97fe	-0.13534543
190	0x3d11edbd	0.035627116
191	0xbd787dc8	-0.06066683
192	0x3ba070b3	0.0048962473
193	0xbdd1b3af	-0.1023935
194	0xbbc7ffba	-0.006103483
195	0x3c9d8077	0.019226296
196	0x3cbe6aaa	0.02324422
197	0xbd625e3e	-0.055265658
198	0xbbaf9e57	-0.0053594518
199	0x3d45fc09	0.048336063
200	0xbe6a3a49	-0.22873797
201	0xbe4b3c3a	-0.19847193
202	0xbd6cfe7c	-0.057859883
203	0x3e115013	0.14190702
204	0xbe9e4e49	-0.30919102
205	0x3d3ff04c	0.046860024
206	0xbea2f2c9	-0.31825855
207	0xbf46270b	-0.77403325
208	0xbe8007a5	-0.25005832
209	0x3e14058a	0.14455238
210	0xbd3b6830	-0.045753658
211	0xbdca8d81	-0.09890271
212	0x3dbe07e3	0.09278848
213	0xba09ebcf	-0.00052612735
214	0xbd953e37	-0.07287257
215	0x3d17963e	0.037008516
216	0x3d1f99b2	0.038964935
217	0xbcbde6d6	-0.02318136
218	0xbd05cfc6	-0.03266885
219	0x3bad8652	0.0052955532
220	0xbe0360f1	-0.12829949
221	0xbece5abe	-0.40303606
222	0xbd676857	-0.05649599
223	0x3e8fdea1	0.2809954
224	0xbe568748	-0.20950043
225	0xbcffdabd	-0.031232232
226	0x3d6c52ab	0.057696026
227	0xbf3a43d7	-0.72759765
228	0xbe5a1780	-0.21298027
229	0x3e2466b1	0.16054799
230	0x3d654930	0.055978
231	0xbe856764	-0.26055443
232	0x3e0612ca	0.13093105
233	0x3e608c68	0.2192856
234	0x3e33d7c0	0.17562771
235	0xbd1d36ab	-0.038382214
236	0x3cc20c68	0.023687556
237	0xbd807154	-0.062716156
238	0xbd32e0e4	-0.043671504
239	0x3ccc39f2	0.024929974
240	0xbf039bad	-0.5140942
241	0x3c8f9cdf	0.017530857
242	0x3de49db1	0.1116289
243	0xbcea530c	-0.028604053
244	0xbdb339d5	-0.08751265
245	0xbdcce62c	-0.10004839
246	0xbc93a287	-0.018021835
247	0xbd581c93	-0.052761625
248	0x3e3d7682	0.18502238
249	0xbdc7d4e2	-0.09757401
250	0xbd94efce	-0.072723016
251	0x3db445ae	0.08802353
252	0x3c163e29	0.009170094
253	0xbddb48fe	-0.107072815
254	0x3b14bfb8	0.002269728
255	0x3e303872	0.17209032

v.net.0.bias f4 [64]
0	0x3e0dd489	0.13850607
1	0xbd1ac563	-0.0377859
2	0xbceb174c	-0.028697632
3	0xbf7b6c18	-0.9821181
4	0x3e9873bb	0.29775795
5	0x3de884c7	0.1135345
6	0x3e4b01dd	0.1982493
7	0x3eac5ed3	0.33666095
8	0x3d04119c	0.032243356
9	0x3ea9c22c	0.33155954
10	0x3f2ae1ac	0.667506
11	0x3f391fdc	0.7231424
12	0xbf4987e8	-0.78723
13	0xbfd26bc8	-1.6439142
14	0x3f207e0f	0.6269235
15	0x3f61ad5a	0.8815514
16	0xbef7d37b	-0.48403534
17	0x3de2ad6f	0.11068236
18	0xbd741fc3	-0.059600603
19	0x3e1567d6	0.14590392
20	0x3f0fc989	0.56166893
21	0xbed190d9	-0.40930822
22	0x3e0ee522	0.13954595
23	0x3ebd6ffe	0.36999506
24	0xbedb57ed	-0.4284052
25	0x3e88f7dc	0.26751602
26	0xbf169762	-0.5882474
27	0x3f7f1852	0.99646485
28	0x3f433816	0.76257455
29	0xbcb82fea	-0.022483785
30	0xbef9ff70	-0.48827696
31	0x3db41dd2	0.0879475
32	0xbea94d34	-0.33066714
33	0x3f1f0561	0.6211758
34	0x3fbc5e39	1.4716254
35	0x3f51113b	0.81666917
36	0xbf141b0f	-0.5785379
37	0xbd31e24c	-0.043428704
38	0x3db3dbe0	0.08782172
39	0x3e857b60	0.2607069
40	0xbf1d962b	-0.61557263
41	0xbed386a1	-0.4131365
42	0x3f0fe66b	0.56210965
43	0x3e48a32e	0.19593498
44	0x3d27f13b	0.04100154
45	0x3e321d4d	0.1739399
46	0xbec7f02e	-0.3905043
47	0xbe9c56d8	-0.30535007
48	0xbedcb844	-0.43109334
49	0xbec4f1d5	-0.38465753
50	0x3f0e0815	0.5548108
51	0xbfd9e367	-1.7022523
52	0xbee3d4f3	-0.44498405
53	0xbf1eaf73	-0.61986464
54	0xbef7dca7	-0.48410532
55	0x3ea3393d	0.31879607
56	0xbd983e2c	-0.07433733
57	0x3e3bd468	0.18342745
58	0x3ed7db13	0.42159328
59	0x3eb599c3	0.35468873
60	0xbf857bea	-1.042844
61	0x3f0eea49	0.5582624
62	0xbf081270	-0.53153133
63	0xbe434869	-0.19070591

v.net.2.weight f4 [64, 64]
0	0x3dec6c5b	0.11544105
1	0x3df761ad	0.12079177
2	0x3bee6aa0	0.0072758943
3	0xbd455f9a	-0.048186876
4	0xbe01650e	-0.12636206
5	0xbdf02f80	-0.1172781
6	0x3ce50e27	0.02796085
7	0x3dc2e054	0.095154434
8	0xbdb2fdd7	-0.08739822
9	0x3d8da1bf	0.06915616
10	0x3d6398cc	0.05556564
11	0x3cf4b2ff	0.029870508
12	0x3cd463dd	0.025926525
13	0xbe108d50	-0.14116406
14	0x3e027079	0.12738217
15	0xbe52cc29	-0.20585693
16	0xbe1be0ce	-0.15222475
17	0xbe32bf34	-0.1745575
18	0x3db8040e	0.08985148
19	0xbd857d65	-0.06518058
20	0xbd1b3fb9	-0.037902568
21	0xbe3c0908	-0.1836282
22	0x3df4e65a	0.119579986
23	0x3ba101ed	0.0049135596
24	0x3def6204	0.11688617
25	0x3da0632f	0.07831418
26	0xbd045ea7	-0.03231683
27	0x3e66941a	0.22517434
28	0x3d1cb390	0.03825718
29	0xbddd668d	-0.10810576
30	0xbdb39dc9	-0.087703295
31	0xbda8baf8	-0.082387865
32	0x3d185265	0.037187953
33	0xbd850fe7	-0.06497174
34	0x3dcedc4b	0.10100611
35	0xbd0ab8ce	-0.03386765
36	0xbdf46297	-0.11932867
37	0xbe057c7e	-0.13035771
38	0x3d94ed0c	0.072717756
39	0x3d926733	0.0714859
40	0xbc895966	-0.016766261
41	0x3d2b46c9	0.041815553
42	0xbd8f287f	-0.06990146
43	0xbd9fed6a	-0.07808955
44	0xbdf16fd5	-0.117889084
45	0xbe8185df	-0.25297448
46	0x3e251232	0.16120222
47	0x3e37c808	0.179474
48	0xbd248ffb	-0.040176373
49	0x3d591a46	0.053003572
50	0x3df5f693	0.12009921
51	0xbe6da5df	-0.23207806
52	0xbd0984eb	-0.033574026
53	0x3e24f794	0.16110069
54	0x3d3c88ce	0.046028905
55	0x3dc447de	0.0958402
56	0xbe4f4e8f	-0.20244811
57	0x3e21e67e	0.15810582
58	0xbd81abd4	-0.06331602
59	0x3e6f4ba9	0.23368706
60	0xbde47e47	-0.11156898
61	0x3d414ed1	0.047194306
62	0xbe4e3ead	-0.20141096
63	0xbdd1302a	-0.10214265
64	0xbd9adb50	-0.07561362
65	0x3dfd51cc	0.12369117
66	0x3dc6e0c6	0.09710841
67	0xbda8e98a	-0.08247669
68	0xbd213e4e	-0.03936606
69	0x3df600ea	0.12011893
70	0x3c7c7fcc	0.0154113285
71	0x3d3945bd	0.045232523
72	0x3dd12164	0.10211447
73	0x3dcc5770	0.09977615
74	0xbd290a45	-0.04126956
75	0x3cd2452a	0.025667746
76	0x3d30e06c	0.043182775
77	0xbd617720	-0.055045247
78	0xbdad4522	-0.08460452
79	0xbc901b1f	-0.017591057
80	0x3d0a8d7a	0.03382633
81	0xbd9d76e0	-0.07688689
82	0x3c9ab5f7	0.018885596
83	0x3ce0aa07	0.027424825
84	0x3d519622	0.05116857
85	0x3cfd4026	0.030914377
86	0xbdd6d31a	-0.10489483
87	0xbd830d09	-0.06398971
88	0x3bbfeb0a	0.0058568763
89	0xbdc0e92e	-0.094194755
90	0xbbe7d9ea	-0.007075538
91	0xbd260d3b	-0.04053996
92	0x3cd4933f	0.025949119
93	0x3d4a1e0b	0.049345057
94	0x3d2093e4	0.03920354
95	0x3bdd61a4	0.0067560244
96	0x3ca3b8e7	0.01998563
97	0xbcb82275	-0.022477368
98	0xbd326b60	-0.043559432
99	0xbdfe3bdd	-0.12413762
100	0xbcbcc8f1	-0.023045035
101	0x3d266c21	0.040630464
102	0xbd93ceab	-0.07217153
103	0xbd44e698	-0.048071474
104	0xbd59f150	-0.05320865
105	0xbd49d2a7	-0.04927316
106	0xbb1dc5b1	-0.0024074132
107	0x3cc1d31b	0.023660233
108	0xbd904d4a	-0.07045992
109	0xbe0c8ad1	-0.1372483
110	0xbd53a3e6	-0.051669978
111	0x3d321588	0.043477565
112	0xbda8e703	-0.08247187
113	0xbd248df4	-0.04017444
114	0x3d9e0a52	0.07716812
115	0xbb483dea	-0.0030554482
116	0xbc1450c8	-0.009052463
117	0xbd4108e8	-0.047127634
118	0xbdc4561c	-0.095867366
119	0xbd88bdd7	-0.06676834
120	0x3ced2702	0.028949264
121	0x3c4ef7bd	0.012632308
122	0x3d4714a9	0.048603687
123	0x3dc8ec90	0.09810746
124	0x3d1bee1b	0.038068872
125	0x3d954722	0.07288958
126	0xbcfd4a8b	-0.030919334
127	0xbc71f220	-0.0147672
128	0x3d05708f	0.032578047
129	0x3ba65cdc	0.0050769877
130	0x3e827833	0.2548233
131	0xbe1d1a41	-0.15342046
132	0xbd9d8940	-0.07692194
133	0x3d84880c	0.064712614
134	0xbdd233b5	-0.102637686
135	0x3daeb883	0.085312866
136	0xbc0186df	-0.007905691
137	0x3d9db3bd	0.07700298
138	0xbd05c818	-0.032661527
139	0x3d5e751e	0.05431091
140	0x3db44e0b	0.08803948
141	0xbdf634e5	-0.120218076
142	0xbd4545fb	-0.04816244
143	0x3e051be9	0.12998928
144	0xbd8d2dc7	-0.06893497
145	0x3ccbc943	0.024876243
146	0xbc4eb09f	-0.012615352
147	0x3d56c4f2	0.052433915
148	0x3e169b8d	0.14707775
149	0xbe6a1546	-0.22859678
150	0xbd178de1	-0.03700054
151	0xbce88ca1	-0.02838737
152	0x3d64ea56	0.055887543
153	0xbcb4fc66	-0.02209301
154	0xbe0796eb	-0.13241164
155	0x3e2deb6b	0.16984336
156	0xbcad81cf	-0.021180062
157	0x3e48639c	0.19569248
158	0x3cfc8127	0.030823303
159	0xbe438e5c	-0.19097275
160	0xbe3e8ee0	-0.1860919
161	0x3dcb286b	0.099198185
162	0x3e8d23ac	0.27566278
163	0x3dea585e	0.11442636
164	0xbe4d0d55	-0.20024617
165	0xbca7ec37	-0.020498378
166	0xbbdc8a59	-0.0067303595
167	0x3de666b4	0.11250058
168	0xbe17068a	-0.14748588
169	0xbe053d2d	-0.13011618
170	0xbdfbe04f	-0.12298643
171	0x3d852b45	0.06502394
172	0xbd58258c	-0.052770182
173	0xbe49e807	-0.19717418
174	0xbe05b6c5	-0.13058002
175	0xbe03d2b1	-0.12873341
176	0xbdabac9e	-0.083825335
177	0xbe72c185	-0.23706634
178	0x3e3eb9d4	0.18625575
179	0xbea4c9fa	-0.32185346
180	0x3cd7dc22	0.026350085
181	0xbd0f0a83	-0.034922134
182	0x3dd7598d	0.10515127
183	0x3e03112e	0.12799522
184	0xbc1a91d6	-0.009434184
185	0x3db9a0d3	0.09063878
186	0x3cff757c	0.03118395
187	0x3d825220	0.0636332
188	0xbe289f07	-0.16466914
189	0xbbf5a8b2	-0.0074969167
190	0xbe346932	-0.17618254
191	0xbe1f12ab	-0.15534465
192	0x3dfe101a	0.12405415
193	0xbd247138	-0.040147036
194	0x3d22c57f	0.03973913
195	0xbdf86d94	-0.12130275
196	0xbc95bdbd	-0.01827895
197	0x3e1335e8	0.14376032
198	0xbba80388	-0.005127374
199	0xbd228b55	-0.03968366
200	0x3e01e583	0.12685208
201	0xbd193b03	-0.037409794
202	0x3de50c0b	0.11183938
203	0x3d4e1410	0.0503121
204	0x3d17e19a	0.037080385
205	0xbde0d33d	-0.109777905
206	0xbe0091d6	-0.12555632
207	0xbce3af79	-0.027793633
208	0xbd80a2ee	-0.06281076
209	0xbd69dcbe	-0.05709528
210	0x3d217033	0.039413642
211	0xbd5de22c	-0.054170772
212	0xbdcdffc5	-0.1005855
213	0x3d630914	0.05542858
214	0xbe1edcf0	-0.15513968
215	0xbdc32ac7	-0.095296435
216	0x3df2b281	0.11850453
217	0xbe148239	-0.14502801
218	0x3e102b3f	0.14078997
219	0x3d84702c	0.064667076
220	0xbced318e	-0.028954294
221	0x3dad4c54	0.08461824
222	0x3a6582d9	0.00087551546
223	0xbcae79e0	-0.021298349
224	0x3ddbfb60	0.10741305
225	0x3ce79a03	0.02827168
226	0xbc6c7d4d	-0.014434171
227	0x3d345cfb	0.044033986
228	0xbca4bd90	-0.020109922
229	0x3df9830e	0.121832
230	0x3c8d32dd	0.017236168
231	0x3e1162ed	0.14197893
232	0x3e2e7cb7	0.17039762
233	0xbddebbc7	-0.108756594
234	0x3de42c77	0.111412935
235	0xbd407678	-0.04698798
236	0xbe23920b	-0.1597368
237	0xbe0c5c0b	-0.13706987
238	0x3dcd7189	0.10031421
239	0xbc210b7a	-0.009829396
240	0xbb79eaa8	-0.003813425
241	0x3cc5e772	0.024158213
242	0x3aebbd8a	0.0017985564
243	0xbb2db762	-0.002650701
244	0xbbc9ff0e	-0.006164438
245	0xbd1daa95	-0.038492758
246	0x3c046808	0.008081444
247	0xbd6ea940	-0.058266878
248	0x3dd9d522	0.10636355
249	0x3d77df23	0.060515534
250	0xbe0493b2	-0.12946966
251	0xbe119b20	-0.14219332
252	0xbddaf264	-0.106907636
253	0xbc718b61	-0.014742703
254	0x3d09b92b	0.033623856
255	0x3e098751	0.13430525

v.net.2.bias f4 [64]
0	0xbea11fa2	-0.31469446
1	0xbd92a0b2	-0.071595564
2	0xbd464c65	-0.0484127
3	0xbe6c3884	-0.23068434
4	0xbe4c42ab	-0.19947307
5	0xbeacaf20	-0.3372736
6	0x3e2a851d	0.16652341
7	0xbe90ad2f	-0.2825713
8	0xbd9b09ed	-0.075702526
9	0x3e7e20bc	0.24817175
10	0xbe618d50	-0.22026563
11	0xbe8edc94	-0.27902663
12	0x3ec57523	0.3856593
13	0x3e67653a	0.22597209
14	0xbe611c24	-0.21983391
15	0xba65bf2e	-0.0008764145
16	0x3e903bfe	0.2817077
17	0x3deab3db	0.11460086
18	0x3ecd2b90	0.40072298
19	0x3d03df5c	0.032195434
20	0x3e8aaa91	0.27083257
21	0x3e81481d	0.2525033
22	0x3d62f43d	0.055408705
23	0xbe36e855	-0.17862065
24	0x3eb20ce1	0.3477545
25	0x3e84388f	0.258244
26	0xbe8edba6	-0.27901953
27	0xbe21322a	-0.15741792
28	0x3e85d3f4	0.2613827
29	0x3d9423e2	0.072334066
30	0x3e2f9865	0.17147978
31	0x3f2f3e80	0.6845474
32	0x3e8aacf6	0.27085084
33	0xbe96188e	-0.2931561
34	0x3ddfe0c9	0.10931546
35	0x3f36e087	0.7143635
36	0x3e129e3c	0.14318174
37	0xbd334907	-0.043770816
38	0x3c54a27e	0.012978194
39	0xbe3716a8	-0.17879736
40	0x3e3a6f63	0.18206553
41	0x3e84399f	0.2582521
42	0xbec79523	-0.3898097
43	0xbdc788fc	-0.097429246
44	0xbe973bdf	-0.29537866
45	0x3e6e2843	0.23257546
46	0xbe07fcfd	-0.13280101
47	0xbc98274b	-0.018573424
48	0xbe94a6c3	-0.2903348
49	0xbe9bf6ae	-0.3046164
50	0x3e039a6d	0.12851878
51	0xbdfbd7ec	-0.12297043
52	0xbddb6bda	-0.107139304
53	0x3d6b2c2d	0.057415176
54	0x3e895106	0.26819628
55	0xbe833e5f	-0.25633523
56	0xbeab875d	-0.3350171
57	0x3e9abfcb	0.3022445
58	0x3ea91ae1	0.3302832
59	0xbdd74145	-0.10510496
60	0xbe849ba4	-0.25899994
61	0x3e1cb4fd	0.15303417
62	0xbe8e488f	-0.27789733
63	0x3defc6d7	0.117078476

v.net.4.weight f4 [1, 64]
0	0x3d47c6ee	0.0487737
1	0xbb3809e9	-0.0028082079
2	0x3d55801c	0.052124128
3	0x3d9c8662	0.07642819
4	0xbdccfe17	-0.10009401
5	0xbe53f48e	-0.20698759
6	0xbcab73ec	-0.0209293
7	0x3d82d2be	0.06387852
8	0xbd2b8a11	-0.041879717
9	0xbde7d03e	-0.11319016
10	0x3d20da67	0.039270785
11	0x3d7a2ee3	0.06107987
12	0xbd9a9446	-0.07547812
13	0xbdb8562c	-0.09000811
14	0x3d70885b	0.05872379
15	0x3c09c0e3	0.008407804
16	0xbd10140b	-0.035175364
17	0xbd4427ac	-0.047889397
18	0xbdd38aa4	-0.10329178
19	0x3bf36750	0.0074280873
20	0xbd76786f	-0.06017345
21	0xbd4d64f3	-0.0501451
22	0xbe37b131	-0.17938687
23	0x3d874ab9	0.06606049
24	0x3e33879f	0.17532204
25	0xbda668ff	-0.08125495
26	0x3d37f42b	0.04491059
27	0x3d47978a	0.048728503
28	0xbcf53c22	-0.0299359
29	0x3c14c123	0.0090792505
30	0xbc423b4c	-0.011854958
31	0xbe515dda	-0.20445958
32	0xbd3a3d3f	-0.045468565
33	0x3d3bcaec	0.04584782
34	0xbd56e536	-0.052464686
35	0xbe540160	-0.2070365
36	0xbd93b6fc	-0.07212636
37	0xbb5ead31	-0.0033977742
38	0x3b7b6261	0.00383582
39	0x3d4cca9a	0.049997903
40	0xbd834545	-0.064096965
41	0xbdf66a18	-0.120319545
42	0x3e2c0391	0.16798235
43	0x3d676340	0.056491137
44	0x3db101ad	0.08642898
45	0xbddd48e9	-0.10804922
46	0x3d26d796	0.040732943
47	0xbe0ab47c	-0.13545412
48	0x3de6eaba	0.11275239
49	0x3d93eda7	0.07223063
50	0xbd3c104e	-0.045913987
51	0x3dc51066	0.096222684
52	0x3d2977d5	0.041374046
53	0xbd58971a	-0.052878477
54	0xbd0252d6	-0.03181728
55	0x3d19aac1	0.03751636
56	0x3d079112	0.033097334
57	0x3dd01203	0.101596855
58	0xbdc62de3	-0.09676721
59	0x3d434ec2	0.04768253
60	0x3d872c88	0.066002905
61	0xbd330d97	-0.043714132
62	0x3dc30db8	0.09524101
63	0xbbea31c4	-0.007147046

c.net.0.weight f4 [64, 40]
0	0xbe1821b6	-0.1485661
1	0xbd809c2a	-0.06279786
2	0x3d9b1beb	0.07573684
3	0xbc137731	-0.009000585
4	0x3e1acc35	0.15116961
5	0x3cad907e	0.021187063
6	0xbde7d2c0	-0.11319494
7	0x3d0e546a	0.034748472
8	0xbd529f16	-0.051421247
9	0x3c1b7960	0.009489387
10	0xbd00d082	-0.03144885
11	0x3df3246d	0.11872182
12	0xbdf647d2	-0.120254174
13	0x3dbb7052	0.09152283
14	0xbd3bf649	-0.045889173
15	0x3d95c761	0.07313419
16	0x3dbe1e82	0.09283163
17	0xbc647051	-0.013942794
18	0x3de65492	0.11246599
19	0x3de30723	0.110853456
20	0x3de8c5b6	0.11365835
21	0xbccd9c96	-0.02509908
22	0xbe098f2a	-0.13433519
23	0x3c4edb95	0.012625595
24	0x3d183072	0.037155576
25	0x3e145fe7	0.14489709
26	0xbc8572a4	-0.016290016
27	0x3d8c9c77	0.06865781
28	0xbdfa487d	-0.12220857
29	0xbcd5c675	-0.026095608
30	0x3db357dd	0.08756993
31	0x3d64a086	0.05581715
32	0xbd4e189b	-0.050316434
33	0x3c1ff705	0.009763484
34	0x3dc1f4b3	0.09470501
35	0xbcf1573d	-0.029460544
36	0xbd697f63	-0.05700625
37	0xbd9a8310	-0.075445294
38	0xbe099698	-0.13436353
39	0xbbc5b441	-0.006033451
40	0xbe0bf1e7	-0.13666497
41	0xbd068682	-0.03284312
42	0x3c4a20d3	0.0123369275
43	0x3da40ecd	0.080106355
44	0xbd1b9571	-0.037984315
45	0x3da0de85	0.07854942
46	0x3e158c62	0.14604333
47	0x3df010ee	0.11721979
48	0x3d87d23b	0.06631895
49	0x3de19128	0.110140145
50	0xbde96258	-0.11395711
51	0x3dbfca64	0.09364775
52	0xbc0c7ecc	-0.008575153
53	0x3db5069e	0.08839153
54	0x3d3dc08f	0.046326216
55	0xbdf86e79	-0.12130446
56	0x3cde9931	0.027172657
57	0x3e00ae65	0.12566526
58	0x3df06f71	0.11740006
59	0xbd989f02	-0.07452203
60	0xbd2f58e8	-0.042809397
61	0x3cdd9f18	0.0270534
62	0x3df400e0	0.119142294
63	0x3e09ac64	0.13444668
64	0x3cee2c59	0.029073881
65	0xbd55058a	-0.052007236
66	0xbc8a6290	-0.016892701
67	0x3d02053a	0.031743266
68	0xbe0f0001	-0.13964845
69	0xbdee0ba9	-0.11623318
70	0xbd8b219f	-0.06793522
71	0x3dc73a43	0.097279094
72	0x3d90049c	0.07032129
73	0x3cf5eddd	0.030020649
74	0xbde9feb0	-0.11425531
75	0x3d62392f	0.055230316
76	0x3e10c019	0.1413578
77	0x3d0d2277	0.034456696
78	0x3e147222	0.14496663
79	0xbd1ab847	-0.037773397
80	0x3e1e20dd	0.15442224
81	0xbaf27020	-0.0018496551
82	0xbe0bfcf7	-0.13670717
83	0xbcffe37e	-0.031236406
84	0x3d6cf1a5	0.057847638
85	0x3e039426	0.12849483
86	0x3e10b7de	0.1413264
87	0x3d9dc7cb	0.07704123
88	0x3df38844	0.11891225
89	0x3dbce532	0.09223403
90	0x3d74c0d6	0.059754215
91	0xbe167fe7	-0.14697228
92	0xbc3440bf	-0.011001765
93	0x3cb53341	0.022119166
94	0xbdde1b09	-0.10845
95	0xbaf5f602	-0.0018765333
96	0xbc60f1ca	-0.013729522
97	0xb9df76de	-0.00042622437
98	0xbcb10d2a	-0.021612722
99	0xbcc9e5cf	-0.024645714
100	0x3e0ded67	0.13860093
101	0x3e048917	0.1294292
102	0x3ce94932	0.028477285
103	0x3e0d3569	0.13789906
104	0x3df8719b	0.121310435
105	0x3c861fd0	0.016372591
106	0x3c4b16d9	0.012395584
107	0x3dabe33b	0.0839295
108	0xbca795ac	-0.020457111
109	0xbd852a27	-0.065021805
110	0xbda02e46	-0.07821326
111	0x3e0e6436	0.13905415
112	0xbd56bcbd	-0.05242609
113	0x3d838a23	0.06422832
114	0xbda4ca47	-0.08046394
115	0xbd81dd5f	-0.06341051
116	0x3de44124	0.11145237
117	0x3e09755b	0.13423674
118	0x3c70feb1	0.014709161
119	0xbc5b88a1	-0.013399274
120	0x3c238de6	0.009982562
121	0x3d4075e3	0.046987426
122	0x3e09f549	0.13472475
123	0xbd9cb4f6	-0.07651703
124	0xbda0830d	-0.07837496
125	0x3dbdf2ca	0.09274824
126	0x3c539a4a	0.012915203
127	0xbd8c3f53	-0.06848016
128	0xbced1e4a	-0.028945107
129	0xbd051411	-0.03248984
130	0x3d0c9e85	0.034330864
131	0x3e1101b1	0.14160801
132	0x3cc3640a	0.023851413
133	0x3ddc6cf0	0.10762966
134	0xbd848985	-0.06471542
135	0xbe096334	-0.13416749
136	0x3db640a4	0.08899048
137	0x3c3c55bf	0.011495053
138	0x3c1bdbb9	0.009512835
139	0x3c17d273	0.009266484
140	0x3c3d2b70	0.011546001
141	0x3d74e751	0.059790913
142	0x3d78a934	0.06070824
143	0x3d5c082b	0.053718727
144	0x3d818404	0.06324008
145	0xbe1cc2ef	-0.15308736
146	0xbdbe7b61	-0.093008764
147	0xbd7f33a6	-0.062305115
148	0xbd8b4399	-0.068000026
149	0xbdc52d95	-0.09627835
150	0x3d9ed2ea	0.077550724
151	0xbdb03a7c	-0.08604905
152	0xbd201645	-0.039083738
153	0x3ce2d0ad	0.027687395
154	0x3e018bf9	0.12651052
155	0xbdf6c5c0	-0.120494366
156	0xbe01f02e	-0.12689278
157	0xbd86be3e	-0.065792546
158	0x3b57efc7	0.0032949315
159	0xbd0b7419	-0.034046266
160	0xbe042556	-0.12904868
161	0xbc61193d	-0.013738927
162	0x3e027a76	0.12742028
163	0x3dc75135	0.09732286
164	0xbca07d38	-0.019590959
165	0xbe06aa64	-0.13150936
166	0xbe1ddc7c	-0.1541614
167	0xbd6bc4c1	-0.057560686
168	0x3d113900	0.03545475
169	0xbc2849ec	-0.010271531
170	0xbe08c91f	-0.13357972
171	0x3e0bfe15	0.13671143
172	0xbd7c993d	-0.061669577
173	0xbd1ff131	-0.039048377
174	0xbd3f1d65	-0.046658892
175	0x3e046acd	0.12931366
176	0xbdde6022	-0.1085818
177	0x3e138923	0.14407782
178	0x3dd73807	0.10508733
179	0xbb378c9a	-0.002800739
180	0xbe05d6c2	-0.13070205
181	0xbcaaf985	-0.020870933
182	0x3df91e2d	0.12163959
183	0x3cd5e55e	0.026110347
184	0x3df6b408	0.12046057
185	0x3c73346d	0.014844042
186	0xba80210b	-0.0009775473
187	0xbdbbd320	-0.09171128
188	0xbd9f87c7	-0.07789569
189	0xbe146b82	-0.14494136
190	0x3e1aac20	0.15104723
191	0x3e1d3192	0.15350941
192	0xbdc7237e	-0.097235665
193	0xbdff699b	-0.124713145
194	0xbb6b5f4e	-0.003591496
195	0x3e204b40	0.15653706
196	0xbde89800	-0.11357117
197	0x3e0d5727	0.13802777
198	0xbcba5df4	-0.022749878
199	0xbc97fb8f	-0.01855257
200	0x3c4e175c	0.0125788115
201	0x3c4b1c39	0.0123968655
202	0xbd8c0641	-0.0683713
203	0x3d4e3544	0.050343767
204	0x3e0fd680	0.14046669
205	0x3dd29752	0.10282768
206	0x3d894b23	0.06703784
207	0xbcc8d1a9	-0.024514036
208	0x3cfaf674	0.030635096
209	0xbe049290	-0.12946534
210	0x3d691b16	0.056910597
211	0x3d53db19	0.05172262
212	0xbe083e95	-0.13305123
213	0xbcfbf33d	-0.030755633
214	0xbc306ba6	-0.010767853
215	0x3e1f8094	0.15576392
216	0xbd428da8	-0.047498375
217	0x3e0d78b0	0.1381557
218	0xbd68cb00	-0.05683422
219	0xbda82b95	-0.082114376
220	0xbdc6e7fc	-0.09712216
221	0x3dbcd1ce	0.092197046
222	0xbd9b4896	-0.07582204
223	0x3e02bd96	0.12767634
224	0xbe0f0845	-0.13967998
225	0xbd2e0500	-0.042485237
226	0x3c871a9f	0.016492186
227	0x3deb3092	0.114838734
228	0xbd8b0bf9	-0.06789393
229	0x3c85ce11	0.016333612
230	0xbd3bef3a	-0.04588244
231	0xbd63a792	-0.05557973
232	0x3bbfa134	0.0058480743
233	0x3d13d65b	0.036093097
234	0x3dba2ac4	0.09090188
235	0xbc82d2ee	-0.01596972
236	0x3dc81279	0.097691484
237	0xbd2cfc1a	-0.04223261
238	0x3d0e3929	0.03472248
239	0xbd4fa2a5	-0.05069222
240	0x3d9c1b1e	0.0762236
241	0x3d42f774	0.04759927
242	0x3c5e547e	0.013569949
243	0xbe0f855e	-0.1401572
244	0x3c65e79a	0.014032269
245	0xbcaf57b3	-0.021404123
246	0x3d2e067c	0.042486653
247	0x3e15cb06	0.14628229
248	0xbd2ee3a5	-0.042697567
249	0xbd351d1e	-0.04421722
250	0x3e06a675	0.13149436
251	0xbda84db7	-0.08217948
252	0x3e20f9e5	0.15720327
253	0x3d27551f	0.040852662
254	0x3df650f1	0.12027157
255	0x3e1eb93f	0.15500353
