experiments/07_control_structure_hypothesis/checkpoints/Attitude/ppo/2021-12-14__02-01-04/seed_00008/torch_save/model.pt (torch, 82448 bytes, 19 tensors)

obs_oms.mean f4 [40]
00000000: 2bf2 813e 76f4 8c39 eed3 813f aafb 0239
00000010: 5ed7 6639 6de7 d93b 0752 7f3f 498c 4e3b
00000020: 78bb 423a 4dcb be3a 22ff e8b9 1c4b a03a
00000030: 7b08 543c 11a3 6dbb c274 b2b9 f7f7 69bc
00000040: cc96 343e 06c1 813b 84ba 1439 81cf b03d
00000050: 4ef6 813e f2a1 9039 40d4 813f 97c8 0b39
00000060: fbff 6339 2492 da3b 8755 7f3f 05cf 523b
00000070: 30f9 3e3a 6d6d b73a b7b3 c3b9 4717 8f3a
00000080: 4676 533c c5d2 6fbb 6d08 b8b9 4021 6abc
00000090: 3a1b 333e 21cb 8c3b df79 c139 f86e b03d
0.25380072 0.00026885018 1.0142801 0.00012491518 0.0002201474 0.0066499026 0.9973454 0.0031516722
0.0007428448 0.0014556438 -0.00044440577 0.0012229416 0.012941475 -0.0036260525 -0.00034037797 -0.014280311
0.1763565 0.0039597778 0.00014183862 0.08633328 0.25383228 0.0002758648 1.0142899 0.00013330799
0.00021743767 0.0066702534 0.9973988 0.003216685 0.00072850566 0.0013994403 -0.00037327196 0.0010916971
0.012906617 -0.0036594134 -0.00035101493 -0.014290154 0.17490855 0.004296676 0.0003690263 0.086149156

obs_oms.std f4 [40]
00000000: 679a 2f3e a647 2f3e 226d 033d 9b98 3e3d
00000010: dd7a 3d3d 2bb1 fd3c cc75 363b 6945 b43e
00000020: 8309 b33e f5b6 d73d 9d99 173f 0bcd 163f
00000030: 5188 a93e 1ba4 663d 1710 643d 196d 033d
00000040: 477d 763f f65a 383f bd4c 3d3f db4e 173f
00000050: 01ae 2f3e cb5a 2f3e c2a5 043d a5f6 3c3d
00000060: ebdc 3b3d fe46 f93c 0949 2c3b a99c b43e
00000070: a254 b33e f0ad d93d 40a4 173f f2d7 163f
00000080: 1d8b a93e f1e7 683d 6985 663d bfa5 043d
00000090: ee7f 763f 33fb 373f 95bd 3c3f f569 173f
0.17148744 0.17117175 0.0320865 0.046532255 0.04625975 0.03096827 0.0027841209 0.35209206
0.34968194 0.10532943 0.5921877 0.5890662 0.33111814 0.056308847 0.055679407 0.032086466
0.9628491 0.72013795 0.7394522 0.591047 0.17156221 0.17124479 0.03238464 0.046133656
0.04586498 0.03042936 0.002628865 0.35275772 0.35025507 0.10628879 0.59235 0.58923256
0.33113948 0.05686182 0.056279574 0.03238463 0.96288955 0.71867675 0.7372678 0.5914605

pi.log_std f4 [4]
00000000: 4352 90c0 4352 90c0 4352 90c0 4352 90c0
-4.5100417 -4.5100417 -4.5100417 -4.5100417

pi.net.0.weight f4 [50, 40]
00000000: d385 98bb 5af2 2f3e b9eb 7fbc 115b 40be
00000010: 164f a13d dc2b b03d 2c1b a53e c9b6 56be
00000020: 4a17 903e 78dc c0bd c296 4e3e c4fd 163c
00000030: 7f71 abbe b4f4 0c3e c0ad 68be 6bfe f73d
00000040: 0d61 33be fd38 86be 5c96 c13d a10a ddbd
00000050: 8858 993d ed68 273e 51ca 793d 020f b4bd
00000060: 0631 41bd 921c babd 0aac f73d e5d7 80be
00000070: 4035 843e 9863 f23c 11f2 813d 558a 1d3d
00000080: 7aef ebbd 63c8 923e 22fa 63be e2f4 c33c
00000090: 5a90 b23c ce3d fcbd 81aa 7b3c 3977 20be
000000a0: 5a5d 1f3e 590b 613e 069d 0bbe 22f9 93bd
000000b0: aa0c 083e 783f 033d 4559 0f3d 6b94 f3be
000000c0: 05d5 633e 27b7 62be 8e52 2e3e d751 213e
000000d0: eda2 c53d ac43 893d fa56 0c3e cb03 7c3d
000000e0: 0eae 9b3e bd38 bc3d 5b41 7bbd 2f48 c1bd
000000f0: 482a d33c 445d 5e3d 3a07 25be 5ff0 953d
00000100: 3f39 06be 0c82 4dbe f6a9 0f3e 6210 f1be
00000110: aef7 913e 65a7 d8be 6276 8e3d 7a13 0dbe
00000120: 45a4 fcbd f5b9 4d3e f831 b93c 76b7 1bbd
00000130: 3acc 803c d98a 4e3e 102f 51bd 3966 7cbd
00000140: 80bd 0d3d cfd3 d53d a4bd 80be af3c 0c3e
00000150: 754d 0bbe 2aeb 1bbe fdbb 9fbd 2376 443e
00000160: 7de9 04bd bd7b 51bc f5af 01bd cad0 993e
00000170: e443 a1bc f6a5 f0bd 8f97 533e d815 423d
00000180: 7d4b a0bd dff6 5a3e 614b 173c 2df2 3a3e
00000190: 136d 94bd d34e b03d c1ad 153d 4bd0 2f3e
000001a0: cf88 ae3d b655 7c3d 86bb 0e3e 69bf 343c
000001b0: 1007 0f3d f03b 9dbd b35c 2e3e 59de 1a3e
000001c0: c583 243d 151e efbd a7c1 d03d 6e17 d33d
000001d0: 0e34 eb3b b14b 47bd 70f1 c33e d74b a2be
000001e0: d4c5 b03d ad64 66bc 919f 683d 0cb5 3bbe
000001f0: bc52 2a3d d0e9 1cbe c2a0 6a3e 4068 8fbd
00000200: 7c6f 02ba 8a42 6ebe 60a1 933d bf66 d33d
00000210: 0e7e aa3d dc0e 2b3e 0f0d a83d ee2f d63d
00000220: 13dd 1bbe ca56 f0bd 2abe 733e d3c3 4dbd
00000230: 540e 613e 4dd5 623e 3865 d9bd 4ba0 1abe
00000240: 260d 9abd 5c33 afbd 420d 0e3e dc26 1ebe
00000250: 295b bd3d 84b8 abbd 587c 66bd f048 753e
00000260: 2b23 393e 605b 7e3e 4de3 123e 7d9e 423d
00000270: e39c 2f3e b274 a3be f129 17bd f8b2 923e
00000280: e38a 5c3e 6f5d a3be 19b8 0e3e 8e1b 7fbe
00000290: fbce 0e3e 7f0d c3bd 289f a53d 6f11 423e
000002a0: 7415 23be e91c 7f3d f509 f6bd 3d0d fbbd
000002b0: 247d ae3d d5f5 6b3d c647 21be 66b3 56be
000002c0: 47af 543e d83b 08be f513 183e d224 01be
000002d0: 7fc8 633e ec4e 93be ec76 8e3d f4ac 54be
000002e0: ff74 83bd 7d7a ebbc 1811 823d 825c a93d
000002f0: 14b0 11bd 8471 063e 495d 403d 7d95 593e
00000300: 2049 7f3e dc6a 90bd d2be 82be 062e 98be
00000310: 328d f2bd 66a6 98bc 11f6 c53b dd68 06be
00000320: 648d f73c bb69 06be 954f ab3e 2199 08be
00000330: 6e8f 5d3e 0af7 5c3e 16b0 843e 66d8 ad3e
00000340: 13de 29bd a67d b73e 33eb 533d 6c1a 49bd
00000350: 89cd a4bc bddf 8dbd b273 24bd 4089 0abe
00000360: 8f81 10be 97c9 ab3d 76bd 59bd 39b0 2bbe
00000370: ef43 c0bd 6310 7dbe 9a8d 883e afd6 51bd
00000380: 218f 3cbd ad51 c5bc ff0a 4a3e 392d a63d
00000390: 7da1 663d d4cc 253f f73f ccbc 89e0 debd
000003a0: 34ee 9ebd 9319 babc 7199 4cbd 9b16 b1be
000003b0: 9bde a33e f83d 59bd e192 2a3e af6b 1ebd
000003c0: d8ca 623e 8afa 05be 7960 52be 8450 ed3b
000003d0: 038e 3bbe d296 0ebd 7ce0 083e c70d 92be
000003e0: 2426 e03c c6da 0f3d 68ed 27bd be3c 983e
000003f0: 6081 8dbe 0636 da3c 416e 3abe e1fa b63d
-0.004654625 0.17182294 -0.0156201655 -0.18784739 0.078764126 0.086021155 0.32247293 -0.20968165
0.28142768 -0.09417051 0.20174697 0.009215776 -0.33485028 0.13765222 -0.2272253 0.12109073
-0.1751749 -0.26215354 0.09452507 -0.10793043 0.07487589 0.1634862 0.06098396 -0.08791925
-0.047165893 -0.090874806 0.12093361 -0.25164714 0.25821877 0.029588506 0.06344999 0.038462
-0.11520286 0.28668508 -0.22263387 0.02392048 0.021797348 -0.12316476 0.0153604755 -0.1567048
0.15562955 0.21976985 -0.13634118 -0.07225253 0.13286081 0.03204295 0.034997243 -0.4757417
0.22249229 -0.2214018 0.1702368 0.15753876 0.09650216 0.067023605 0.13705054 0.061527055
0.3040623 0.091905095 -0.061341625 -0.09437596 0.025776997 0.054288164 -0.16116038 0.07321238
-0.13107775 -0.2006914 0.14029679 -0.47082812 0.28509277 -0.42315212 0.069561735 -0.13776961
-0.123360194 0.20090468 0.022606835 -0.03801676 0.015722383 0.20170154 -0.051070273 -0.061620925
0.03460455 0.1044079 -0.25144684 0.13695024 -0.13603766 -0.15226427 -0.07799528 0.1918569
-0.032449234 -0.012785849 -0.031661946 0.30042106 -0.019685693 -0.117504045 0.20663284 0.047384113
-0.07826898 0.21383236 0.00923428 0.18256445 -0.07247367 0.086087845 0.036542658 0.17169301
0.08522188 0.061605178 0.13938722 0.011031964 0.034918845 -0.07677448 0.1702755 0.15123881
0.040164728 -0.116756596 0.10193186 0.10307203 0.0071778363 -0.04865617 0.3827014 -0.31698486
0.08631483 -0.014062089 0.0567928 -0.18330783 0.041582808 -0.15323567 0.22912887 -0.07002306
-0.0004975719 -0.2326757 0.07208514 0.10322332 0.08324824 0.16704887 0.08205616 0.104583606
-0.15221052 -0.11735304 0.2380301 -0.05023558 0.21978122 0.2215168 -0.10615009 -0.1510021
-0.07522039 -0.08554718 0.13872245 -0.15444511 0.09245903 -0.08384803 -0.056270927 0.23953605
0.18079822 0.24839544 0.14344521 0.047514427 0.17149691 -0.3192497 -0.036905233 0.28652167
0.21537356 -0.31907222 0.13937415 -0.24912855 0.13946144 -0.095240586 0.08086997 0.18951963
-0.15926152 0.06228343 -0.12013618 -0.122583844 0.085199624 0.05760749 -0.15750036 -0.20966873
0.20769988 -0.13304079 0.14851363 -0.12611702 0.22244452 -0.2877115 0.06956276 -0.20769101
-0.064187996 -0.02874493 0.063509166 0.082695976 -0.03556831 0.1312924 0.046963964 0.21248432
0.24930239 -0.07051632 -0.2553621 -0.29722613 -0.11843337 -0.018634032 0.0060412963 -0.1312594
0.030218787 -0.1312627 0.33459154 -0.13339664 0.21636745 0.21578613 0.25915593 0.3395416
-0.041471552 0.3583805 0.051737975 -0.049097463 -0.020117538 -0.0692744 -0.0401494 -0.13528919
-0.14111923 0.083880596 -0.0531592 -0.16766442 -0.09387957 -0.24713282 0.26670533 -0.05123013
-0.046034936 -0.024086798 0.19730757 0.08114094 0.05630635 0.6476567 -0.024932845 -0.108826704
-0.077602774 -0.022717273 -0.04995102 -0.3458756 0.32005772 -0.053037614 0.16657592 -0.038676914
0.22147691 -0.13083854 -0.20544614 0.007242264 -0.18315892 -0.034811802 0.13366884 -0.28526136
0.027361937 0.035120748 -0.040997893 0.29733843 -0.27637768 0.026637089 -0.18206121 0.0893457

pi.net.0.bias f4 [50]
00000000: 574b 973d 03cb 173e 77c5 143c a886 d43e
00000010: 6571 9a3e b7b9 843e 1945 1b3e bce3 44be
00000020: 8f5e c93c 2085 6c3e 00d8 d43c 5c72 75bd
00000030: 431a 603e 702b aabd 9fcf 1d3e 2d6d 803e
00000040: 7a1c d03e 4484 8e3d a3d2 a0bd 40e9 b33c
00000050: 2e02 af3b d909 1f3e d73e 8ebe 7c52 7cbe
00000060: 2e07 003e 3108 cebc 51bc da3e 1560 7f3e
00000070: 6f6d 0f3e c52e 8bbe 7c0a 7f3e 695f a13c
00000080: fbba bc3d ab9f ccbd 75fb b73d fffc d13e
00000090: 8ed5 29bd f2f0 4ebe 5424 e03c d129 673d
000000a0: d5b9 f73d dfad 683e bb9d 01be 710c c03e
000000b0: 083e 4f3e 2a83 613e 1c4f b93e 7060 7bbc
000000c0: cffd 64bc 743e 1c3e
0.07387417 0.14823537 0.009080282 0.41508985 0.30164638 0.2592294 0.15163077 -0.19227499
0.024581222 0.23097658 0.025981903 -0.059923515 0.21885018 -0.08309066 0.15411232 0.25083295
0.40646726 0.069588214 -0.07852676 0.021961808 0.005340836 0.155311 -0.27782318 -0.2464084
0.12502739 -0.02515039 0.427218 0.24938996 0.1400659 -0.2718412 0.24906343 0.019698815
0.09215351 -0.09991392 0.089835085 0.41013333 -0.041463427 -0.20209101 0.027361073 0.056436364
0.120959915 0.22722577 -0.12657826 0.37509492 0.20238507 0.22022691 0.36193168 -0.015342817
-0.013976528 0.15258199

pi.net.2.weight f4 [50, 50]
00000000: 0e2e cbbd 3b76 ea3b 35f0 563d cfcc 3c3e
00000010: 191e c3bd a193 81be d929 fd3d 8e39 a83c
00000020: 2d6e 0c3d 0297 9f3e f883 7abe c054 f4bd
00000030: 9ea1 0abe e283 683d a21d 873d 6d2f 8cba
00000040: 79ce 22bd 1c7e 9e3d 03c0 ec3d 8279 753d
00000050: c761 32be 8b0b 923d a174 85bd 1d00 eebb
00000060: a4f4 01bd e3fb f93d c5d8 603e 4f0e 3fbe
00000070: f850 503b ac90 a83d 3fd1 e8bc 9d30 133e
00000080: fa66 87bc c224 023d 469e 55bc 735f 4c3e
00000090: d4be f83d eef0 763d 394e f63d 22d3 03bc
000000a0: 6c5f 413e 78d0 103d e32c f9bb bf9f 713e
000000b0: 6da7 81bd f8b5 463e 4b2b d5bc 745a 7dbd
000000c0: 571d e43d 4904 903c b151 0cbe 71e7 25bd
000000d0: fb03 503d bf82 b7bc 17c7 79bd 15e5 213e
000000e0: 92b5 e1bd dde8 8ebe 089c 84be 279c 1abc
000000f0: 96b9 f1bd 96a7 6e3d bef5 143e 46bf 4bbe
00000100: 4fb9 cbbc 4805 5d3e bf82 be3c 9d71 c13e
00000110: d77d 363d b1cd 14be 1ca6 a2bc 6a9c 4ebe
00000120: 1deb 88bd 8c77 a83e 7d15 4e3e 606c 4a3d
00000130: 7d15 503e 94ea 4fbe 11e9 4e3d c496 8ebe
00000140: baea a33e 09ac 123e ba96 53bd 64a0 923e
00000150: 052a cabd 6f6e f63d 57b6 2c3d 45e5 ce3d
00000160: 445e 523d 9c9e cb3d 6c2e f5be 0e33 2b3d
00000170: 9f1e a4bd 7059 ed3d a8f6 d7bd 890a c1bd
00000180: 9c4b 8dbd 2ce2 683e d28e 30bd e7a5 4abe
00000190: fe03 4abb 11d4 86be 9f15 6a3e 47cf edbc
000001a0: a425 42bc 5199 893e 440e ffbd ccf2 853d
000001b0: e290 a43d 2509 023e 5b18 aa3d 5fea 34ba
000001c0: 83fa 393e 216d 46be 2637 f3bc 2cac 093e
000001d0: e702 823e 517f 61bd a0c0 88bd 0ca6 0abe
000001e0: a8d4 843d 2685 1dbe 0038 7fbe 414a 823b
000001f0: 5f85 32bd 580c 113e 4a3b 7b3d 8ee1 9fbc
00000200: 75f2 db3d a8b1 083e 2fcc e33b cbb7 4f3d
00000210: 2a69 583e ed21 0fbe 6020 c8bd d881 183e
00000220: 6a67 133c 21de 183b 7401 04be e3d2 053c
00000230: 47ac f03d 88fa 9cbe 3e5a 223e 3495 4abe
00000240: 85e8 40be 8364 a53c 3328 dc3c 59b8 d8bc
00000250: 624e 293e 2855 2a3b 0072 2d3e 0488 2f3e
00000260: 1139 f63d 2d21 c4be 59b7 61bb 0837 923e
00000270: 4dee 2abd eedd 36bd 25d3 7dbd bc47 27bd
00000280: 6442 b13b 0ea4 26bd fb9d 543e ca1d 843d
00000290: 9d04 f13c 47b7 c5bd 8a49 6fbe d71f 2e3c
000002a0: a4fe 2ebe ffa5 343e b425 cfbb 1b0e 203e
000002b0: 0947 44bc 11ec b2be bd1d 2b3d f957 893d
000002c0: 6498 e1bc 8857 113e 1c71 b1bc 3d23 5fbe
000002d0: d98e 2abd 7995 fb3d 1f68 0c3d f206 3dbd
000002e0: c236 ea3d e93f 42be 9a98 ccbc ffa0 123c
000002f0: 7dfc 0c3d db08 963d 1f03 303e a189 0abe
00000300: b3e2 583e d0f2 da3d 1dd2 86bc 33ee 0cbe
00000310: 5846 093e 74a2 413d d5a3 e0bc 1508 583d
00000320: c23a c53d 7bfd 53be 0184 6fbe cc95 0c3e
00000330: aa5a 5bbd dbc3 b5be 193a bc3d f510 073e
00000340: 8da0 4c3e 3ca3 05be 9b0e 42bd e735 8cbc
00000350: 5c41 a33d bbcc 143e 4051 2a3d bb01 7cbc
00000360: 1f58 9c3e c3fb 99bd 56bd 48be 0120 8abe
00000370: 3272 38bd 9992 883c 4e81 b8bc 6e9f 06be
00000380: 42dc 9abe f08d b5be db23 783d 215e b93d
00000390: 2724 693d aa19 a2bd 938f 8cbe 3f24 b93d
000003a0: d864 a0bd 2ea7 e2bd ed95 8e3d 4d24 92b8
000003b0: ec72 893d 59c1 b7bd ff87 0ebe a445 a93e
000003c0: ca1a 923d d274 593e d8d9 ee3d e2f9 583d
000003d0: 28ff ff3d 5f32 183e 1aea cdba 0a89 163e
000003e0: 9d6d 04be 63dd 6f3d 968e 3fbd 9bf0 163e
000003f0: df56 6c3e 4b91 1f3c 01a7 e4bd 0557 16be
-0.099208936 0.0071552075 0.052475173 0.18437503 -0.09527225 -0.25307944 0.123614974 0.020535257
0.03428476 0.31169897 -0.24464405 -0.11930227 -0.13538215 0.0567664 0.06597449 -0.0010695286
-0.03974769 0.07738897 0.11560061 0.059930332 -0.17420112 0.07131108 -0.06516386 -0.007263197
-0.031727448 0.12206247 0.21957691 -0.18657802 0.0031786542 0.08230719 -0.028420089 0.14374013
-0.016528595 0.031773336 -0.013038224 0.19958286 0.121457726 0.060288362 0.120266385 -0.008045943
0.18884057 0.03535506 -0.007604228 0.23596095 -0.06330762 0.19405353 -0.02602162 -0.06185384
0.11138409 0.017580168 -0.13703038 -0.040503923 0.050785046 -0.022401212 -0.060980882 0.15810044
-0.1102096 -0.27912036 -0.25900292 -0.009436644 -0.11802976 0.05826529 0.14546868 -0.19897184
-0.024868635 0.21584046 0.023255704 0.37781993 0.044553604 -0.1453159 -0.019854598 -0.20176855
-0.06685469 0.32903707 0.20125385 0.04941976 0.20320697 -0.20304328 0.05051524 -0.278494
0.3201502 0.14323439 -0.051657416 0.28637993 -0.09871296 0.12032782 0.04216608 0.101023234
0.05135943 0.09942362 -0.4788698 0.041796736 -0.08013653 0.115893245 -0.10545093 -0.094258375
-0.06899187 0.22742528 -0.043104954 -0.19789849 -0.0030825133 -0.2633367 0.2285981 -0.029029502
-0.011849795 0.26874784 -0.12453893 0.065404505 0.08035447 0.12698801 0.08305427 -0.0006901379
0.18161969 -0.19377567 -0.029689383 0.13444585 0.2539284 -0.05505306 -0.06677365 -0.13539904
0.064858735 -0.15382823 -0.24923706 0.003976137 -0.043584224 0.14164865 0.06133584 -0.019516733
0.107396044 0.1334902 0.006951831 0.050712388 0.21133867 -0.13977785 -0.097718 0.14893281
0.008996824 0.0023325759 -0.1289118 0.008167955 0.11751609 -0.3065989 0.15854737 -0.19783479
-0.18838699 0.02018953 0.026874637 -0.026455091 0.16533807 0.0025990698 0.16938019 0.1714173
0.12022603 -0.3830656 -0.003444156 0.2855761 -0.041731168 -0.044645242 -0.06196894 -0.040839896
0.0054095257 -0.0406838 0.2076339 0.06450994 0.029421145 -0.09654098 -0.23367897 0.010627708
-0.17089325 0.17641447 -0.0063216332 0.15630381 -0.011979827 -0.3494573 0.041776408 0.067062326
-0.027538486 0.14193547 -0.02166038 -0.21790786 -0.041640136 0.12284369 0.034278985 -0.0461492
0.114362255 -0.18969692 -0.02497511 0.008949517 0.03442048 0.07325908 0.1718869 -0.13529064
0.21180229 0.10690844 -0.016457612 -0.13762741 0.1340574 0.047274068 -0.027421871 0.052742083
0.09630348 -0.20702164 -0.23390199 0.13729018 -0.05355326 -0.35500988 0.09190769 0.13190062
0.1998312 -0.1305055 -0.04737721 -0.017115546 0.07971451 0.14531223 0.041581392 -0.015381272
0.3053598 -0.07518723 -0.19603476 -0.26977542 -0.04503078 0.016671466 -0.022522595 -0.13146755
-0.30246168 -0.35459852 0.06058107 0.09051157 0.056919243 -0.07915051 -0.27453288 0.090401165
-0.078317344 -0.11067043 0.0696219 -6.968584e-05 0.06711373 -0.08972425 -0.13919066 0.33060944
0.07134016 0.2123597 0.11662644 0.05297268 0.12499839 0.14862965 -0.0015710026 0.14700714
-0.12932439 0.05856074 -0.04676684 0.14740221 0.23080014 0.00973923 -0.11164666 -0.14681633

pi.net.2.bias f4 [50]
00000000: b656 cb3d 39d3 1f3e 9809 d23d dea7 e9bd
00000010: 3cf1 d13d f22c e739 471e bc3d 1717 043e
00000020: e8b6 3b39 c254 1b3e fd4a 92bb f7e1 21bd
00000030: 609f 06be a8f9 c73d ccdb 9b3d 7ccd ddbc
00000040: 9ab5 803d 657a 523d e3d8 273e 1299 56be
00000050: f61b e13d 8051 82be 6dc2 40be d5b4 a93d
00000060: db29 293e c971 f53d de96 883c 1eb6 83bd
00000070: cdca 32be 1d86 c43d 824a f03d 9ca5 1e3e
00000080: 3a65 bcba 9dd0 0a3e e669 41be db9b 84be
00000090: 3d40 803e 5f0f acbd 8160 693d ed73 aa3d
000000a0: 1f1a 833e 11ee f83d e688 2a3e c815 91bc
000000b0: b8b3 68bd a922 d0bd a23e f6bd 273b 1b3d
000000c0: 0cb0 fd3d 8f2d 2d3e
0.09928648 0.15607919 0.10255736 -0.11408971 0.1025109 0.0004409324 0.091854624 0.12899433
0.00017901848 0.15169051 -0.0044645057 -0.039522137 -0.13146734 0.09764415 0.07610282 -0.027075522
0.06284638 0.051386256 0.1639133 -0.20956829 0.10991661 -0.25452805 -0.18824168 0.08286444
0.16519873 0.119845934 0.016673502 -0.064312205 -0.17460175 0.095958926 0.11732961 0.15492862
-0.001437343 0.13556142 -0.18888053 -0.25900158 0.2504901 -0.08401369 0.0569768 0.08322892
0.25605866 0.121547826 0.16653785 -0.017710581 -0.05681202 -0.10162861 -0.12023665 0.03789821
0.12387094 0.1691191

pi.net.4.weight f4 [4, 50]
00000000: 14c8 943e c949 88bd 7584 2cbe 27cd a3be
00000010: 77be 82bd f026 6e3e 9896 853e b12a 5cbe
00000020: d196 653e fe26 ed3d 78f8 083e 8575 6c3e
00000030: 492a c3be 5d27 d0be 9a0f 6c3d c0f2 273d
00000040: ed02 0abf 7a47 89be 1feb 93bd cef1 323e
00000050: e34b 1cbf 9d2a efbe 955b 07bf 3412 9d3c
00000060: c008 043e ece1 5ebc 33ef 8cbe 3d5c debd
00000070: 9826 b93e fba3 8ebe 88a3 883e 0490 9b3e
00000080: 2eb6 0abe 110a 443e 49cf d2be fa9b cbbe
00000090: b4d1 cc3e 41e7 03be ca09 b2be f3a4 ca3e
000000a0: 5224 3ebe 85ba 8d3e b303 86bd 2af4 22be
000000b0: aa33 ecbd 7225 6c3e 4b20 bfbe 1096 f63d
000000c0: 5e27 c43e 2736 4f3e 7d48 17be 37d1 e5be
000000d0: cd63 9abe 513a b0bd bf42 8d3e f8ad 11be
000000e0: 8723 33be 9d1a 903e 3d8e e13e c35a 34bd
000000f0: ad12 1a3e f2bc 92be 907a 2dbe 115f 15be
00000100: 240c 5e3e c90b 903e 983e 89bd 70b4 47bd
00000110: 1d91 d8be 20ea ec3d 2880 a83e 913a d8be
00000120: db9c 783e e0e6 88bd afb4 b43d 2321 c13e
00000130: 577c dc3e f295 d0bd 9219 6f3e b720 2b3e
00000140: 7183 6cbd ecf5 a83e a02c 363e 12cc 643e
00000150: b0b4 cbbe 4d8e 1b3f c094 c6bd b818 953e
00000160: ca74 853e 332a 3c3e e2ff c6be ba1c ba3e
00000170: 6af7 68bd 6198 c3be 1119 9dbe 290c 46be
00000180: 20e9 9b3e a05f cabc b46c bcbd 31e1 2abe
00000190: 0fe5 993d e256 9e3e 265c 6cbe 37f8 a3bd
000001a0: 0dde d23e f642 bf3d dbfb 99be 706b 263e
000001b0: 92a6 2c3e a9ac 213e 2bf4 bc3e 09df aebe
000001c0: 43b9 bc3e a20a 243d 7db7 6b3e 3811 2e3c
000001d0: d5a6 aabe 2354 08bf 239c af3e 7a11 5ebe
000001e0: f7b0 3dbe 97a0 1cbd 8c46 2abf 085d b43e
000001f0: 789f b0be 6073 413c c64f 8abe d9a2 a0bd
00000200: c153 aabd 973a c3be 7b73 523c 58c3 663d
00000210: f9a9 a53d e765 37be 025b 1c3d 47ec 983e
00000220: de0b 47be 222e 153d 03d4 963c 2203 ccbe
00000230: a98a 75be be79 fe3c 5c1f 793e d44e 963c
00000240: 5471 7a3c d605 2a3d 4c35 42be 7cd9 873e
00000250: 9769 8e3c bef8 88be 7297 f0bb 0e6a cdbe
00000260: 623e 1a3e 3ba3 b53e 5fff fc3e 7e11 a0be
00000270: 91b1 8d3e e7b8 67bd a496 fcbe e180 a4bd
00000280: 026d e7be 4ccd 50bb 0f52 83be 0044 573d
00000290: e4b9 8d3d 0970 09be d96f bb3d d0bc 91be
000002a0: f749 68bd 5537 613d c874 253e 2bf5 473e
000002b0: 98a1 4d3a ca2c 9a3e dbc2 2abd cc9c c73d
000002c0: f768 b33e 0d08 393e 7516 a7be 070f 0abe
000002d0: 1332 b8bd fd04 b43e 9c12 a53e 63a3 463e
000002e0: 326f ef3e 6551 7bbe 7f94 40bb e647 8bbe
000002f0: 54d1 fabe 651c fcbe 83c2 9d3e 6993 9f3e
00000300: e3c1 5dbc 99ea 45be 5de8 52bd e8ef 343e
00000310: 3479 00be 64bb ed3c 18d5 cb3d d708 02be
0.29058897 -0.066546984 -0.16847403 -0.31992456 -0.063839845 0.23257041 0.26091456 -0.2150066
0.22420813 0.11579703 0.13376033 0.23091705 -0.381182 -0.40655032 0.057632066 0.04100299
-0.53910714 -0.26812345 -0.0722258 0.17475054 -0.61053294 -0.467122 -0.5287412 0.019173719
0.12893963 -0.013603669 -0.27526245 -0.10857437 0.36162257 -0.27859482 0.26687264 0.30383313
-0.13546059 0.19144465 -0.4117377 -0.39767438 0.4000374 -0.12881185 -0.34773093 0.3957897
-0.18568543 0.27681366 -0.06543674 -0.15913454 -0.11533292 0.23061159 -0.37329325 0.12040341
0.38311285 0.20235501 -0.14773746 -0.4488618 -0.30154267 -0.08604873 0.27589986 -0.1422652
-0.17494021 0.28145304 0.44053832 -0.04403187 0.15046187 -0.2865978 -0.16941285 -0.14587046
0.21684319 0.2813399 -0.06701392 -0.048756063 -0.42298213 0.11568093 0.32910275 -0.42232183
0.24278586 -0.06684661 0.08823525 0.37720594 0.43063614 -0.1018485 0.23349598 0.16711698
-0.05774254 0.33000124 0.1779046 0.22343472 -0.3978629 0.6076401 -0.096963406 0.2912042
0.26065665 0.18375473 -0.38867098 0.36350042 -0.056876577 -0.38202193 -0.30683187 -0.19340576
0.30451298 -0.0247038 -0.09200421 -0.16687466 0.075143926 0.3092566 -0.23082027 -0.080063276
0.41185036 0.09338944 -0.30074963 0.16251922 0.16860417 0.15788521 0.36905035 -0.34154537
0.36860093 0.040049203 0.23019214 0.010624222 -0.33330408 -0.5325338 0.3429881 -0.21686354
-0.18524538 -0.038239088 -0.66513896 0.35227227 -0.34496665 0.011807293 -0.27013987 -0.07843561
-0.08316756 -0.38130638 0.0128449155 0.056338638 0.0808906 -0.17909966 0.03817273 0.29867765
-0.1943812 0.03642095 0.018411642 -0.3984614 -0.23978676 0.03106391 0.24328369 0.018348135
0.015285809 0.04150947 -0.18965644 0.26533115 0.017384334 -0.26752275 -0.0073422724 -0.40119976
0.1506286 0.35476097 0.49413583 -0.31263345 0.27674535 -0.05657282 -0.4933368 -0.08032394
-0.45200354 -0.0031860648 -0.25648543 0.052555084 0.069202214 -0.13421644 0.091521926 -0.28464365
-0.056711163 0.05498441 0.1615783 0.19527118 0.0007844209 0.30112296 -0.041689735 0.097467035
0.3504102 0.18069477 -0.3263432 -0.13482295 -0.08993926 0.35160056 0.3224076 0.19398265
0.46764523 -0.24542768 -0.0029385386 -0.27203292 -0.4898783 -0.49240413 0.30812463 0.31167153
-0.013534996 -0.19327773 -0.05149113 0.17669642 -0.12546235 0.029020019 0.09952754 -0.12698685

pi.net.4.bias f4 [4]
00000000: 7c54 333c 714b cb3d ef90 08be f453 723a
0.010945436 0.09926499 -0.13336538 0.00092440774

v.net.0.weight f4 [64, 40]
00000000: 401c c53e 0509 0a3e 57f8 413d 4a99 d53d
00000010: 1af1 ad3d 5d25 d9bd 2e71 1a3c ff61 253f
00000020: 64e1 89be b0bd a83d 1967 ccbd d43e 66bd
00000030: 01f6 0c3d 7986 af3d 784e f13d 2ab4 79be
00000040: 0740 8a3d 5b3d 503d d67d a6bd b4a1 103c
00000050: 96d1 9a3e 0674 5b3e b654 a53e f254 543e
00000060: 2053 283d d044 f73d b97d 543d 986b 1c3f
00000070: 9b3b d7be bbf9 813e 967a f53d 3157 2e3c
00000080: c544 393d a8c9 a43d 2251 d1bc 6f58 d3bd
00000090: 2ae0 e53d 4831 433d b850 a8bd 3c63 613c
000000a0: dfe1 b13e e855 f83d 3a9d 813e 576f e53d
000000b0: d328 9a3e 4d7d 263e 0be5 55be 31e1 8b3e
000000c0: b4af a43e 7116 dabd e843 5e3c 5c92 55bd
000000d0: 2451 843d 35f0 b8bd 6561 123e 9a57 0c3e
000000e0: e358 c5bc 56d9 833d dd8e fabd a241 5c3d
000000f0: 3204 3e3e 5f7a 603e 7e22 6b3e 3f9c a53d
00000100: 6a67 4f3e 2261 623c 6df0 86be 5441 da3e
00000110: 46c0 a73e 57b8 88bd 921f 87bd db33 41bd
00000120: 8716 373d 64a1 80be 2bc4 813e d300 603d
00000130: 1f23 31bd ec28 ba3d 7518 f4bd 8b83 613d
00000140: 5814 72bf bafa 94be 6775 2b3e c5cf 333e
00000150: 4cde b53e f0d2 f93d ce4a 873c 3166 c03e
00000160: fe62 bcbe 0fca 2f3e 9cca 2bbd 410c 06be
00000170: e7f0 11bc 7b7b fdbe 3066 9a3e 1829 433e
00000180: 84a9 23bd 4cf1 babc 4073 08bc 48c6 1fbd
00000190: 7845 83bf 9f36 7dbe fe9d 053e 65c1 513e
000001a0: 0eca ed3e ee82 b93d 2643 053a 908f b63e
000001b0: af84 24bf 8ed3 bdbd 363b 7d3d e6a2 bc3d
000001c0: 8202 c03c c6d2 2fbf 47e3 dd3e dc71 8a3e
000001d0: 94d3 5f3c 239a 8a3b 62e4 bfbc b2ae 3fbd
000001e0: b244 12bf 1ded 5c3f 463f 4abe d292 223d
000001f0: 7fb7 aebc 4488 91bd 55fd 18bd 0d8e 253e
00000200: 50b3 033e 16a3 5dbe 8e65 71bc 9578 26bd
00000210: 4272 853a 51d2 2cbe 21a6 4e3e 2a13 883d
00000220: fb1f 96bd 90c4 08bd 0f33 c7bc a76a 0abd
00000230: f9c3 9dbe 9034 253f 8763 36be b6bd 7e3e
00000240: efb5 1abd d2a5 24bd 1b72 263e 9dba 053e
00000250: 9e28 f93d 8701 88be 438a 1b3d d8fa abbd
00000260: f87e a0bc 476b 28be 4490 4f3e 1642 553e
00000270: e47f 05bd 1979 39bd e420 3dbd 76bb 21bd
00000280: afff 3c3e 0ebb 1bbf b163 243e 2600 8cbd
00000290: e3f1 b4be 9a27 29bc b727 0a3d d16b d2bf
000002a0: ad58 05bf 621e a23c 7ab6 053d 2dbb 313d
000002b0: e006 a63d 6f85 8a3e 8eb2 d0be c93a 333c
000002c0: 0f70 a03c 0c23 243d b98c 89bd c1f0 0cbd
000002d0: e818 743e 7881 a4be 48f4 8f3d 211e 0c3e
000002e0: bba8 adbe 055d 713c d1fc 6d3d 6447 d3bf
000002f0: 7205 6dbe 5dee e63d a72c 023d 2cdd 55be
00000300: f1f3 ac3d 3218 873e 1cbd cbbe c4ab e73d
00000310: 85e6 263d d8da 1a3d f410 18bc d4a4 80bb
00000320: bf65 24bf f5f3 863f 0217 283d 9da8 743e
00000330: 179a 4e3e 6105 003e 4790 4e3d ece2 0d3e
00000340: 6349 87bf 8d5b f0bc d80c 87bd e303 6abc
00000350: 58e5 113d 9072 b6be adee 5d3f 672e 7e3d
00000360: f1ea df3c 573b 263d 2274 15bd e8fd 0b3d
00000370: 09eb 28bf c94c 8b3f 0d91 553e 48da 0a3f
00000380: a790 293d abcf 2b3d 491c 33be ef0e e93d
00000390: 5829 94bf df88 3d3c e5ef cd3d e9fe 133c
000003a0: 162f 893d 7ae8 9abe 41cb 523f e0b3 403e
000003b0: 34de b83c bb4c 433d 3384 3cbd c056 b43c
000003c0: acba fcbf d5cb 293f bbfb 06be 049b 493c
000003d0: d46c 9dbe f0dd 12bd 3c32 1dbe ef6a 2fbf
000003e0: 3a10 033f d148 41bd 3ffa a3bd 1a51 0d3d
000003f0: a022 b93b 868f c53d 007b 1ebe ade4 71be
0.38498116 0.13480003 0.047355976 0.10429628 0.08493252 -0.106028296 0.009426398 0.64602655
-0.26929772 0.08239305 -0.09980602 -0.05621226 0.034414295 0.085705705 0.11782545 -0.24385133
0.067504935 0.050839763 -0.0812947 0.0088276155 0.30238026 0.21430978 0.32291192 0.20735529
0.0410949 0.12073672 0.05187771 0.61101675 -0.42037663 0.25385842 0.11986272 0.010640905
0.0452316 0.080462754 -0.025551382 -0.10319602 0.112243965 0.04765442 -0.08218521 0.0137565695
0.34742638 0.1212576 0.25315267 0.11202877 0.3010927 0.16258736 -0.20888154 0.27320245
0.321653 -0.106488116 0.013565995 -0.052141532 0.06460789 -0.09030191 0.14294966 0.13705292
-0.024090236 0.06437938 -0.1223428 0.05377353 0.18556288 0.21921681 0.22962376 0.08086442
0.20254293 0.013817104 -0.26355305 0.42627966 0.3276388 -0.06675785 -0.065978184 -0.047168594
0.044699218 -0.2512313 0.25344977 0.054688286 -0.043246385 0.090898365 -0.11918727 0.05505709
-0.9456229 -0.2909754 0.16744004 0.17559727 0.35521162 0.12198436 0.016515162 0.37577966
-0.36794275 0.17166923 -0.04194127 -0.13090612 -0.008907533 -0.4950827 0.30156088 0.19058645
-0.039956585 -0.022820137 -0.008328259 -0.039007455 -1.0255575 -0.24727868 0.1304855 0.2048393
0.46443218 0.09058176 0.0005083553 0.35656404 -0.6426496 -0.092688665 0.061824046 0.09210758
0.023438696 -0.6868099 0.4333746 0.27039993 0.013661284 0.0042298003 -0.023424331 -0.04679746
-0.5713607 0.86299306 -0.197507 0.0396908 -0.021327732 -0.07106069 -0.03735097 0.1616747
0.12861371 -0.21644244 -0.014733685 -0.04064234 0.0010181146 -0.16877104 0.2018056 0.0664428
-0.073303185 -0.03339058 -0.024316339 -0.033793118 -0.30813578 0.6453333 -0.17811404 0.24877056
-0.03777116 -0.0401972 0.16254465 0.13059469 0.1216595 -0.26563665 0.037973654 -0.08397454
-0.019591793 -0.16447173 0.20269877 0.20825991 -0.03259267 -0.045281503 -0.046173945 -0.039485417
0.1845691 -0.608323 0.16053654 -0.06835966 -0.35340795 -0.010324383 0.03372928 -1.6439153
-0.52088434 0.019789878 0.032644726 0.043391395 0.0810678 0.27054927 -0.40761226 0.010939308
0.019584684 0.040072486 -0.06716294 -0.03440929 0.23837626 -0.32130027 0.07029015 0.13683368
-0.33917794 0.01473165 0.058102433 -1.6506162 -0.23146608 0.11275933 0.031780865 -0.20885152
0.08444966 0.26385647 -0.39792717 0.113120586 0.040747184 0.037806362 -0.009281386 -0.003925899
-0.6421775 1.05432 0.041037567 0.23892446 0.20175968 0.12502052 0.050430562 0.13856095
-1.0569271 -0.02934053 -0.065942466 -0.014283153 0.03561911 -0.3563428 0.86692315 0.06205597
0.027333708 0.040583935 -0.036487706 0.03417769 -0.65983635 1.0882808 0.20856114 0.5423932
0.041397717 0.041946094 -0.17491259 0.113798015 -1.1575117 0.011568277 0.10055522 0.009032943
0.06698434 -0.3025549 0.8234139 0.18818617 0.022566892 0.047680598 -0.046024512 0.022014022
-1.9744468 0.6632665 -0.13181965 0.012305025 -0.30747092 -0.035856187 -0.15351194 -0.6852254
0.51196635 -0.047188584 -0.08006715 0.034501173 0.0056498796 0.096465155 -0.15476608 -0.23622389

v.net.0.bias f4 [64]
00000000: 924a 283f 0dba f0be 866c a63e f585 d5be
00000010: 7320 3ebe e483 86bd b8cd 253e f41d 6f3f
00000020: 6031 553f a904 463e b56a 94be aa2f 4e3f
00000030: a5e2 453f c9fc d43f 8ebe 9e3f 0e43 43be
00000040: 4f84 4e3f 5af4 f33d 6c5a 83bc 8c98 4a3e
00000050: 3115 b63d 2406 ffbe 6317 453d df43 8dbe
00000060: a29b 09bf 3f5a c0bd 589b 3fbf 67d1 893f
00000070: db39 36be 51eb 18bd 3656 21be 55ac 5a3f
00000080: a029 95bd 11ad 473d 48f5 29bf d177 713d
00000090: fdec 5b3f 01af 893d 0ae0 81bf 7852 b5be
000000a0: ac40 a2bd df0c 77bf cdc0 63bf bc1d 3ebf
000000b0: 0e64 de3e 072d 483e 13f1 773e 5682 183f
000000c0: c9d6 563f f8ce b13f ee44 693f 920a b43e
000000d0: 7ac2 bbbe 441a e63e 71c9 7b3f 2eca be3d
000000e0: 6022 063e e599 9e3d fed6 013f aa0a c4bf
000000f0: f34c 2bbf 398d a5bf f3ec 343e 4c3f 783e
0.65738785 -0.47016945 0.32504672 -0.41703764 -0.18567066 -0.06568125 0.16191757 0.9340508
0.83278465 0.19337715 -0.2898766 0.8054148 0.7729896 1.6639644 1.2401903 -0.19068548
0.80670637 0.11911841 -0.016034327 0.19784755 0.08890761 -0.49809372 0.048118006 -0.27590844
-0.537531 -0.09392213 -0.7484641 1.076703 -0.17795508 -0.03733379 -0.15755543 0.8541921
-0.0728333 0.048749033 -0.66389894 0.058952156 0.8590849 0.067228325 -1.0146496 -0.3541448
-0.079224914 -0.96504015 -0.88966066 -0.7426412 0.4343571 0.19548427 0.24213056 0.59573877
0.83921486 1.3891287 0.91120803 0.35164315 -0.3667181 0.44941914 0.9835425 0.093159065
0.1309905 0.07744197 0.5071868 -1.5315754 -0.6691429 -1.2933723 0.17668514 0.24242896

v.net.2.weight f4 [64, 64]
00000000: d27e 0f3e 473b 1fbc 5c4a 5dbe 800d 28be
00000010: 0820 993d 3b7d 99be 7e5b 94be a5a9 1b3e
00000020: 953b 6fbc eeb6 16bf b8e1 b0be ddb4 683e
00000030: a4da 983d 6f5c b3bd 35c0 6cbe 7e12 8e3d
00000040: c529 a93d 52da c3be 28b2 c7bd 037b 43be
00000050: 5709 e63c ac19 593e 561a 403e ac69 19be
00000060: 7a6b c13d 482d 3b3f 5cd8 a9bd e2ba 5abd
00000070: 257f 61bd f3e1 1a3f d12a 833e a600 953d
00000080: baf9 183e ee4a 52be 2b4b 5c3d 15bb 1bbe
00000090: 6869 c93e 9ac8 ba3c 484e 38be 9178 c43d
000000a0: 70fe 353d 4872 adbc b1e1 65bd 8ba2 d0bd
000000b0: a16e cabd 9730 5a3e f603 003e e818 85bc
000000c0: ad7b ccbb f013 e23d 8b9a 273d fc71 513d
000000d0: 53b4 41be 7fc6 b13d 7533 0a3e e488 05be
000000e0: 4433 2c3e bd36 ec3d c922 5ebd 9a98 503e
000000f0: 2a8f 733d 213e 1bbd 909d 39be a49a 6b3d
00000100: f46f 4cbe fc4f 693c a230 cbbc 9491 9abc
00000110: 0ba3 1e3d 5ffb 29be 02c1 663a a8f4 0dbd
00000120: b6c5 c33d d6e8 ce3e 8899 2bbe 55d3 5f3d
00000130: a0a8 1b3e 34ca 93be cea1 19bc c6f4 8f3e
00000140: 2bfb 763e 4f37 3fbd f967 963e 9f89 e8bd
00000150: 7801 2bbe 6aec f93d 1f5e a6be 4f6d 2c3d
00000160: a28c f5bd 1388 e83d 2714 26be f770 cbbd
00000170: 1e4c 50be e253 80be eeb8 3cbb 5fa3 cfbd
00000180: 7dce 65be e0e3 4f3e 9936 6c3e c667 18bd
00000190: dedb 6f3d 189c 92be dea5 e9bd 6f4e afbe
000001a0: 3a2b b53e 9574 9839 b830 683c 3db6 423d
000001b0: 3be2 98bd a45f 893e 2232 8c3e e2b1 d93b
000001c0: d928 3ebd 43aa a03d d11b 68be 25a7 fe3d
000001d0: 7fd9 7dbb d6b2 3e3a 492b 1ebd 51fb 96bc
000001e0: 5edd ab3e 7516 463e 1e49 bd3d d8c7 813c
000001f0: 919e 0e3e 9ca4 093e 7c16 7f3e 289b 8b3e
00000200: e49e 2dbe eb0c 80be dddd 003d 4493 133e
00000210: 5556 5d3e 7fdb 413e 7933 113f e741 0cbe
00000220: 1920 af3d 42c2 423f a3e8 aabe 2990 91be
00000230: cc3a 9a3b 08de 583e db1e 183e 48f0 263d
00000240: badd 7f3e 388e de3e 9924 923e d273 0c3c
00000250: 4002 14be 2359 65bd ebf8 2bbe 6daf 553e
00000260: 64ba 34be b09c 65be e258 813e 5589 52be
00000270: a9d6 1dbf 40de fdbe b2ea f9bd 26ad a0be
00000280: c51c c9be 8f4a cd3e e55f e83e 471f ab3e
00000290: 020e 133d 7469 8abe 9bce 2f3d d5e1 d5be
000002a0: 9989 0ebd 7bfc b53e e17f 52bc cbe7 533e
000002b0: 6c2f d8bd ab66 163f 2115 703e 0fc3 8cbe
000002c0: a66d 26be d106 cbbe e999 9fbd c448 403e
000002d0: 4634 d5bc 95c2 e63d da05 26bd 4d39 8dbe
000002e0: b39e fc3d cf74 553d 2f95 523d b788 37be
000002f0: 30ad b83e 47fd 613e ecab cbbd 2169 a93e
00000300: ebb0 a23d afc3 443e 53f8 50be 37ca 2abe
00000310: 1932 9abe f779 34be bb84 c1be 7bbb 18be
00000320: 3c6b 7c3d 0a08 cebe 46a8 dabe bf4f 82bc
00000330: 7773 82be 24f3 64be 3dc9 e2be 98da 25be
00000340: 194b 5f3d ce5c ccbe 429f 14be 39ae adbd
00000350: 9e7d 2c3e 7065 c33d cc9b 923e ccd0 2cbe
00000360: 1890 853e 4d47 bf3e 4f5d 893d 3982 133d
00000370: e3fb 663e 2c72 a03e ed7c ed3d bbbb 27bd
00000380: 8604 bf3d 2ee6 2fbe 7fae 25be b291 dfbd
00000390: d802 553e a2d2 2d3e e9ed f63c 4ecd 813e
000003a0: 6222 4c3e a8f0 0d3e 1844 b23d da06 a4bd
000003b0: db87 abbc 86b4 86bd ed46 703e 3904 1abd
000003c0: bc2b 28be 3e88 8d3e 7d35 13be ac6e 003d
000003d0: e3fb ab3e 7f3b a6bc 70a1 143e c942 1e3e
000003e0: 9280 d7be ec2e 66be 5224 42be 8cfd c23d
000003f0: 2253 c43e f013 05bd f5e1 6bbe f6cb bebd
0.14013222 -0.009718723 -0.21610397 -0.164114 0.074768126 -0.29978356 -0.28976053 0.15201433
-0.014601608 -0.5887288 -0.3454721 0.22725244 0.074635774 -0.08757865 -0.23120196 0.06937121
0.0825992 -0.38252503 -0.097507775 -0.19089894 0.028080625 0.212012 0.18760046 -0.14981717
0.09444328 0.7311597 -0.082932204 -0.05340088 -0.055052895 0.6050102 0.25618604 0.07275514
0.14939013 -0.20536396 0.053782623 -0.15208085 0.3933823 0.022800732 -0.17998612 0.09593309
0.044432104 -0.021172658 -0.05612344 -0.101872526 -0.09884382 0.21307598 0.12501511 -0.016247228
-0.0062403292 0.11038959 0.040918868 0.051134095 -0.18916444 0.08680438 0.13496192 -0.13040501
0.16816431 0.11533878 -0.054232392 0.20370713 0.059462704 -0.037901048 -0.18126512 0.057520524
-0.19964582 0.014240261 -0.024803463 -0.018868245 0.03872971 -0.16599797 0.0008802564 -0.03465715
0.09559195 0.40412015 -0.16757786 0.0546449 0.15201044 -0.28865206 -0.009376956 0.28116435
0.2411925 -0.046683606 0.293762 -0.11354374 -0.16699779 0.122032955 -0.32493684 0.042096432
-0.11989714 0.11354079 -0.16218625 -0.09933656 -0.20341536 -0.25063998 -0.002879675 -0.101385824
-0.2244205 0.20301771 0.23067702 -0.03720834 0.05855929 -0.28634715 -0.1140859 -0.34239528
0.35384542 0.0002907856 0.014171772 0.047537077 -0.07465025 0.2683078 0.27381998 0.0066435197
-0.046425674 0.07844975 -0.22666861 0.12434224 -0.0038734374 0.00072745734 -0.0386155 -0.018430384
0.33567327 0.19344504 0.092424616 0.015842363 0.13927676 0.134417 0.24910921 0.27266812
-0.16955143 -0.25009856 0.031461585 0.14411646 0.21614964 0.18931387 0.56719166 -0.13697015
0.08551044 0.76077664 -0.33380613 -0.28430298 0.004706716 0.21178448 0.1485552 0.040756494
0.24986926 0.4346788 0.28543547 0.008572536 -0.14453983 -0.05599321 -0.16794173 0.20867701
-0.17649227 -0.22423053 0.25263125 -0.205602 -0.6165567 -0.49583626 -0.12202968 -0.31382102
-0.39279762 0.40095946 0.45385662 0.334223 0.03590203 -0.2703358 0.042921644 -0.4177386
-0.034799192 0.3554419 -0.0128478715 0.20693891 -0.1055592 0.5875041 0.2344556 -0.27492568
-0.16252765 -0.39653638 -0.07793028 0.18777758 -0.026025902 0.11267582 -0.040532924 -0.2758278
0.12334957 0.05211335 0.051411804 -0.17923246 0.36069632 0.22069274 -0.09944901 0.3308802
0.07943901 0.19215272 -0.20407228 -0.16678701 -0.30116346 -0.17624651 -0.37796578 -0.14915268
0.061625704 -0.40240508 -0.42706507 -0.015907167 -0.25478718 -0.22358376 -0.44294158 -0.16196668
0.054514978 -0.39914554 -0.14513877 -0.08480496 0.16844794 0.09540832 0.2863449 -0.16876525
0.26086497 0.37359086 0.0670725 0.036012862 0.22557025 0.31337106 0.11596093 -0.040950518
0.09327035 -0.1717765 -0.16179846 -0.10916461 0.20801866 0.16974881 0.030142741 0.25351948
0.19934991 0.13861334 0.08704394 -0.08009119 -0.020938804 -0.06577401 0.23464556 -0.037601683
-0.16422933 0.27643007 -0.14375873 0.031355545 0.33590612 -0.020292042 0.14514709 0.15455164
-0.4209028 -0.22478837 -0.18959168 0.095210165 0.38344675 -0.032489717 -0.23035415 -0.09316246

v.net.2.bias f4 [64]
00000000: c574 f13e 37b4 12bf a358 e3be 4ec6 90be
00000010: 9dcd f03e 5a72 ebbe a184 e8be 38bf 943d
00000020: d66f e73e d640 02bf bb7d b63e 5f53 bebe
00000030: 4982 bd3e 4cbb dc3e 3de5 17bf cd92 0b3f
00000040: 12d2 c53e 2c11 a8be a6dd 96be dced debe
00000050: 77b2 35bf 5cb8 fe3e 9a7a a03e b4cd 12be
00000060: 5e0c 0c3f 018b 95be 22d3 16bf 55f3 24bf
00000070: 75b1 efbe 7ba3 d0be 861f c4be 0eff 293e
00000080: 7eff c13c 9e49 e9be f74e 073f 3259 203e
00000090: 4ad5 d4be c9f1 22bf b30f df3e da89 f4be
000000a0: be5b 22bf da87 a63e bca9 013f e7a3 b1be
000000b0: c57f c53e c216 16bf 6bd4 263f 46b7 463e
000000c0: 7ee6 f7be 6b3e 98be f06c 893e ed15 cf3e
000000d0: cfa7 dd3e c484 133f dc28 0ebe 8d22 04bf
000000e0: a883 fdbe 2670 02bf 4094 f73e aefe 1abf
000000f0: 4059 793e af67 a5be 5b54 083f 44f6 503e
0.471594 -0.57306236 -0.44403562 -0.28276294 0.4703187 -0.4598568 -0.45413688 0.072630346
0.45202512 -0.5088018 0.356428 -0.37172982 0.37013462 0.43111646 -0.59334165 0.54520875
0.38636833 -0.328256 -0.2946598 -0.43540847 -0.7097544 0.4975003 0.31343538 -0.14336282
0.5470637 -0.29207614 -0.58915913 -0.64433795 -0.46815076 -0.40749726 -0.383053 0.16601202
0.023681398 -0.45563978 0.52854866 0.15659025 -0.41568977 -0.63650185 0.43566665 -0.47761422
-0.6342124 0.32525522 0.5064962 -0.3469536 0.38574043 -0.58628476 0.65167874 0.19405851
-0.4841804 -0.2973512 0.26840925 0.40446416 0.4329209 0.5762446 -0.13882774 -0.5161522
-0.49514508 -0.50952375 0.48355293 -0.6054486 0.24350452 -0.32305667 0.53253716 0.20406443

v.net.4.weight f4 [1, 64]
00000000: 156c 29be 9922 293e 8ca0 c33d 5419 cb3d
00000010: e5b7 d9bd 80ac 783e d6b9 203e dc62 783e
00000020: 4d3c ebbd b9de 7d3e 9259 cbbd b8e9 fb3d
00000030: 392b 07be 679c 43bd 49b9 333e ec65 24be
00000040: e5e6 dabd 287a 503e d664 cb3d 1f77 e03d
00000050: 8b69 3b3e 3fcb f1bd 049f 3bbe c149 a93e
00000060: c3d0 23be c7e8 f33d 160b 423e 2a5f 253e
00000070: 7928 573e 56f2 1a3e 062b ea3d e987 3dbe
00000080: ee54 a13e c5d9 923d 1743 2dbe 624d 92be
00000090: 0516 753e b488 3a3e 5aa8 cbbd 4d04 ff3d
000000a0: c36c 143e 4c95 47be a519 03be 4bc9 173e
000000b0: bf0f aebd 7600 f23d 2f34 2abe 3930 36be
000000c0: 8bc6 123e 9c5a e03d e9d3 57be 3e9b 34be
000000d0: 25b4 28be 1802 26be 42a4 8f3e 53ad 393e
000000e0: d97d f03d 0878 133e c227 13be 1663 4f3e
000000f0: 7a3e 34be c0e5 a33d 43e5 02be 3919 85be
-0.16545136 0.16517104 0.09552106 0.0991694 -0.10630778 0.24284554 0.15695891 0.24256462
-0.11486111 0.24791993 -0.099291936 0.12300438 -0.13200082 -0.04775658 0.1755115 -0.16054505
-0.10688571 0.20359099 0.09931342 0.109602205 0.1830198 -0.11806344 -0.18322378 0.33064082
-0.15997605 0.11909633 0.18949541 0.16149583 0.21011533 0.15131506 0.11433987 -0.18508877
0.3151011 0.071704425 -0.16920124 -0.28574663 0.23934181 0.1821621 -0.0994422 0.12451992
0.14494614 -0.19490546 -0.12802751 0.14822881 -0.08499097 0.11816494 -0.16621469 -0.17791833
0.1433355 0.10954782 -0.21076931 -0.17637345 -0.1647497 -0.16211736 0.28055006 0.18132524
0.117427535 0.14401257 -0.14370635 0.20252642 -0.17601958 0.08002806 -0.12782769 -0.25995806

c.net.0.weight f4 [64, 40]
00000000: 14a5 f93c 3911 ccbd 1759 143e afa9 b9bd
00000010: b4c8 5ebc dded b9bd e982 703d 67a9 8e3d
00000020: 2c32 73bd 3e4c ae3d 03e9 0cbd 7a15 d3bb
00000030: 3a43 a4bd 3485 b83d 5736 ecbc b6a6 073e
00000040: 58e0 a43c 2ba7 d3bd 60e7 213e 2587 f13d
00000050: 222c 143e af71 203e cf42 dc3d b749 fc3d
00000060: 8cdc 143d 1753 4b3a 50c8 9b3d a566 dbbd
00000070: c825 f83d caf0 003e a6da 57bd 0640 4fbd
00000080: ab32 173e 8807 b63d c840 ef3d a18e 53bd
00000090: a531 3a3c 15d8 a93d 33a4 cebd a6a9 193d
000000a0: e135 cbbc 7271 3e3d 5d25 0bbe 3049 5ebc
000000b0: 81db 1e3e d28d 06bc acb5 e1bd 41cb dc3d
000000c0: 383e 7b3d e149 aebc aafa 3d3d e38d cb3d
000000d0: 28c7 50bc cfa4 643d 7d08 493b b5fd 003e
000000e0: 20a8 f03b 7406 193e e764 9a3d 6ed1 3c3d
000000f0: 489b 023e 454b 0ebe 85a9 65bd c822 15be
00000100: fac0 1b3e f400 ff3b 3969 0d3d 46ae 363d
00000110: e043 003e 1a35 01be 0498 8a3d e2f8 e53d
00000120: 787e 41bd 2470 fb3d 32b4 6cbd 942b fbbc
00000130: c174 0dbe 35aa b93d f7ca ba3d e49c 3e3d
00000140: dbf4 95bd 4e48 82bc 6e1d d3bd 8a73 92bd
00000150: baba a0bd e39d 16bc 2618 273d 8883 dbbd
00000160: 4bb4 08ba e56d 6f3d 23e9 ccbd 03a0 0b3e
00000170: c127 dcbd d617 053e f678 9bbd 2861 8dbd
00000180: e9ea 5d3d 326b bd3d 9816 f5bc a90a d9bd
00000190: d877 d83d d75a 75bd d2c0 ce3d 7427 7f3d
000001a0: e887 153e 610e a13d 1f95 5ebd 5b72 cebb
000001b0: b508 d03c 26b1 f8bc a52b a23a a329 dabd
000001c0: 7a8a 663d 39bc 87bd ebd6 dd3d d08c 16bd
000001d0: 1fd1 c23d 3986 18bb 2a72 1a3e 04ce c5bd
000001e0: 3177 c53d 40c1 b23d a493 1e3d 848f d7bd
000001f0: e20b 983d de1f 053c d6ed 83bc a382 8dbd
00000200: f9c0 3abc 6024 82bd 7a45 f23c ce19 bdbd
00000210: 977f e0bd cc12 2e3d 2c9c 2a3d 746c 953d
00000220: e30d f23d bca2 9dbc d47f 603d c28f 093d
00000230: 3eef e4bc 6ac3 b2bc 6d12 b53d 853c 483a
00000240: afbe b7bd abc5 e9bd f406 f4bb 5715 06bc
00000250: 1512 0fbe d394 c63d 6692 35bd 6d5e 1c3e
00000260: f06e c1bc 46d2 00be 2267 1fbe b87d 273c
00000270: 40a6 c5bd b97f 1b3e c81d 04be df6b aa3d
00000280: 5482 8b3d 309e 04be f16d abbd ea66 a8bd
00000290: 16d4 85bd 8804 6fbd e24f e43d 0365 04be
000002a0: 7f70 cc3d 2796 f23c a25c febc 2bbc 1bbe
000002b0: 0ffc 8d3d f9f4 0d3c 67b4 03bd 2098 6e3d
000002c0: 235d f33b f05d e43c 9960 633c 8533 503d
000002d0: 7c57 223d f97a 053e 8d5d 12be 93cd f1bd
000002e0: ca48 343d 1213 61bd ec0e ae3d ca7e 053e
000002f0: 89ae 64bd f81f c93c e097 ee3d b7a1 483d
00000300: 280f a43c a1f1 a33d 0f6f 7f3d 0a04 853a
00000310: f723 10bd 3982 e73c 7208 083e 40c5 cabd
00000320: 0b09 a33c 2062 ec3d 1362 42bc fb15 68bc
00000330: 565d 9cbd e739 0b3e 7342 3e3d 19ff fb3b
00000340: 42ca 1abe 4613 ef3d 81f3 dcbc 975f 15be
00000350: c638 083e c7d1 d1bc 4a86 263d d635 c1bd
00000360: 64a5 00be 7096 0e3e 9eff d23d c5fe 993d
00000370: 3653 fd3d 76d0 6cbd e457 a93d 6f7e 843d
00000380: ba61 703d da86 013e 79fe 1bbe ec5e 233d
00000390: ed2d a0bc 75fd 843d 288d 313c b355 893d
000003a0: 2627 2d3d 7f91 c0bd cc46 fa3d c6ce 8cbd
000003b0: 56c2 4a3c c45c 093c 18d3 053e 8cef 023e
000003c0: 4dca 40bd fefc f53d a7dd 2d3d 4905 b7bd
000003d0: ddbc 2d3d 75c2 173e 8cfa d73d fc7e 613d
000003e0: d8b5 503c ca7e b13d 99ce 9ebd a962 97bc
000003f0: a92b fb3d 1bd0 ac3d b6c8 f2bd 0c8d d93c
0.030474223 -0.099642225 0.1448711 -0.09065568 -0.013597656 -0.09078572 0.058718596 0.06965905
-0.05937402 0.08510636 -0.034401905 -0.006441769 -0.08020635 0.090097815 -0.028834505 0.13247189
0.020126507 -0.10334619 0.15810919 0.11793355 0.1446996 0.15668367 0.1075493 0.123187475
0.036343142 0.0007756217 0.07606566 -0.10712937 0.12116581 0.12591854 -0.052698754 -0.050598167
0.14765422 0.08888155 0.11682278 -0.051649693 0.011364375 0.082931675 -0.10089912 0.037515305
-0.024805965 0.04649491 -0.13588472 -0.013567254 0.15513422 -0.008212524 -0.11020979 0.10780955
0.061338633 -0.021275463 0.04638163 0.09939172 -0.012742795 0.055821236 0.0030675225 0.12596782
0.007344261 0.14943868 0.07538777 0.046098165 0.12754548 -0.138959 -0.05606987 -0.14564049
0.15210333 0.007782096 0.034524176 0.044599794 0.12525892 -0.12617913 0.06767276 0.11229111
-0.04723975 0.122772485 -0.057789035 -0.030660428 -0.1381407 0.090656675 0.09120744 0.04653634
-0.07322093 -0.015903618 -0.10308348 -0.071509436 -0.07848115 -0.009192917 0.040794514 -0.10718447
-0.0005214854 0.058454413 -0.10005405 0.13635258 -0.1074977 0.12997374 -0.07591431 -0.06903297
0.054179106 0.092489615 -0.029918 -0.105977364 0.105697334 -0.059901085 0.10095371 0.062293485
0.14602625 0.07864071 -0.05434143 -0.0063002533 0.025394777 -0.030357908 0.0012372626 -0.10652473
0.056284405 -0.066276975 0.10832008 -0.036755383 0.09512543 -0.0023273362 0.15082613 -0.09658435
0.096418746 0.08728266 0.03871502 -0.1052542 0.074241415 0.0081252735 -0.01610462 -0.069096826
-0.011398547 -0.06354594 0.029574145 -0.092334375 -0.10961836 0.042498395 0.041652843 0.072960764
0.11819055 -0.019242637 0.054809406 0.033584364 -0.02794611 -0.021821696 0.08841405 0.00076384126
-0.08971917 -0.11414655 -0.007447118 -0.008183799 -0.13971741 0.09696355 -0.04432907 0.15270396
-0.02361247 -0.12580213 -0.15566686 0.010222845 -0.0965085 0.15185441 -0.12901986 0.08321356
0.068119675 -0.12950969 -0.08370579 -0.08222754 -0.06534593 -0.05835393 0.11148049 -0.12929158
0.099823944 0.029612614 -0.03105003 -0.15208499 0.06932842 0.008664363 -0.032154467 0.058250546
0.0074268742 0.027876824 0.013878011 0.050830383 0.039634213 0.13035192 -0.142935 -0.11806788
0.04401473 -0.054949827 0.0849894 0.13036647 -0.055830512 0.024551377 0.116500616 0.04898235
0.020026758 0.080050714 0.062361773 0.0010148298 -0.03519055 0.028260337 0.13284472 -0.09900904
0.019901773 0.11542153 -0.011864203 -0.014165397 -0.0763499 0.13596307 0.04645009 0.007690322
-0.15116218 0.11673598 -0.02697158 -0.14587246 0.13302907 -0.025612725 0.04065541 -0.094340965
-0.12563092 0.13924575 0.10302661 0.075192966 0.12369387 -0.05781599 0.08268717 0.06469428
0.05868695 0.12649098 -0.15233792 0.039885446 -0.01955315 0.064936556 0.010836877 0.06705799
0.042273663 -0.09402751 0.12220535 -0.068753764 0.012375435 0.008383933 0.13068807 0.12786692
-0.04706793 0.12011145 0.042447712 -0.08936555 0.042416442 0.14820273 0.10545835 0.055052742
0.012738667 0.08666761 -0.07754249 -0.018479662 0.12264187 0.084381305 -0.11854689 0.026556514

c.net.0.bias f4 [64]
00000000: ddc0 0f3e f0e9 a23d 5c17 943d 2670 aa3d
00000010: b171 82bc e092 c93c b2e2 4bbd 5909 27bd
00000020: 8bb2 23bd 6ad5 913d 78b1 98bd 9526 eabd
00000030: 1185 a5bd 3129 dd3d 4dce 1ebd f75c 1cbe
00000040: 6404 e8bd 6e8b f03d 1a54 da3d fae6 edbd
00000050: 0e1d 21be da4f 1bbd fd58 8f3d ef6d a83c
00000060: 519b 0abe 477d 19be f57e a33b 45a9 f9bd
00000070: 4e5c 52bd aa87 4bbc 802e 003e a14b f03c
00000080: a589 c23d 51a7 ea3d 8484 05be ee89 1e3e
00000090: a6c5 06be 187e 1abe a6ed e23d 18f4 f93c
000000a0: e51d 1bbe 776b fe3d 6be0 fcbd 9080 bdbd
000000b0: f469 f6bd 8c32 1dbe 6ea0 8b3d abee 1cbe
000000c0: 3123 14be d6b9 1abe 4d66 b9bd 3e85 163d
000000d0: 83fc c23c cbfe 5d3d 4b98 81bd add2 0b3e
000000e0: e272 883d 5200 fcbc 8fcf 9bbd aef4 b43d
000000f0: 81ce fe3d 3fd4 4ebd 988f d43d 03b3 9a3d
0.14038415 0.07954776 0.07231018 0.08322172 -0.015923353 0.024606168 -0.04977674 -0.0407804
-0.039965194 0.071207836 -0.074557245 -0.1143314 -0.08082021 0.10798872 -0.038770963 -0.15269838
-0.113289624 0.11745344 0.10660572 -0.11616321 -0.1573374 -0.03791795 0.06999395 0.020560233
-0.13535811 -0.14989196 0.0049894997 -0.12190489 -0.05135756 -0.012422482 0.12517738 0.029332938
0.0949891 0.11457694 -0.13038832 0.15482304 -0.13161334 -0.15087163 0.11080484 0.0305119
-0.15148123 0.12422841 -0.12347492 -0.09253037 -0.12031928 -0.15351313 0.06817709 -0.1532542
-0.1446655 -0.15109953 -0.090527155 0.036748163 0.023802048 0.054198068 -0.06327876 0.13654585
0.06662537 -0.030761871 -0.07607948 0.088357314 0.12441731 -0.050495382 0.10378951 0.07553675
