experiments/07_control_structure_hypothesis/checkpoints/AttitudeRate/ppo/2021-12-20__13-49-34/seed_00111/torch_save/model.pt (torch, 82448 bytes, 19 tensors)

obs_oms.mean f4 [40]
000000 53 36 80 3e ab 87 44 39 6c f2 80 3f f9 1e 11 ba
       0.25041446 0.00018742557 1.0073981 -0.00055359263
000010 13 f1 31 37 9c 63 82 3d fe 45 7e 3f 44 a9 84 bb
       1.0606152e-05 0.06366655 0.9932555 -0.0040484983
000020 e7 ef 8a ba 7a 7e c4 bb 41 1f 0b 3c 2d 1f 33 3a
       -0.0010600061 -0.0059965225 0.008491338 0.00068329537
000030 65 d2 4e 3d ff 67 81 b7 2e 00 b5 ba ad 6d f2 bb
       0.050493617 -1.5426425e-05 -0.0013809258 -0.0073983283
000040 35 44 c9 3e ca 4a ef 39 ad df cf bb 3a 45 84 3d
       0.3930985 0.00045641355 -0.006343803 0.064585164
000050 f0 30 80 3e 9d e0 39 39 5d f0 80 3f fc 70 17 ba
       0.25037336 0.0001772665 1.0073353 -0.0005777029
000060 3f 82 75 37 46 c0 82 3d cc 47 7e 3f 90 16 88 bb
       1.4633463e-05 0.063843295 0.99328303 -0.0041530803
000070 af 9f 7f ba fd 2e d6 bb 6d d0 07 3c a6 c1 54 3a
       -0.0009751273 -0.006536363 0.008289439 0.0008116014
000080 93 b4 4e 3d 20 d3 14 35 1e ba b4 ba 79 58 f0 bb
       0.050465178 5.5441524e-07 -0.0013788377 -0.0073347655
000090 85 81 c9 3e 18 e4 54 39 59 4d b9 bb e8 65 83 3d
       0.39356628 0.00020302867 -0.0056549725 0.064159214

obs_oms.std f4 [40]
000000 b9 eb 35 3e 34 33 35 3e 77 72 1e 3d 72 e8 51 3d
       0.17765702 0.17695314 0.03868338 0.051247068
000010 14 a5 57 3d ae 74 8e 3d 11 4f 9f 3b 11 ea c0 3e
       0.052647665 0.06955849 0.0048617204 0.37678578
000020 aa 28 bf 3e 3f bc 19 3e e8 c6 01 3f c0 22 ff 3e
       0.37335712 0.15013216 0.5069413 0.498312
000030 28 71 73 3e ef 2d 53 3d 0d cf 55 3d 9d 72 1e 3d
       0.23773634 0.051557478 0.052199412 0.038683522
000040 1e 64 2b 3f 26 9b 1b 3f 20 c6 18 3f 90 a1 ec 3e
       0.6694964 0.6078361 0.59677315 0.46217012
000050 8d 1f 36 3e 16 64 35 3e 1c 3a 20 3d 0d af 50 3d
       0.17785473 0.17713961 0.039117917 0.05094819
000060 8b a9 56 3d 85 31 8e 3d 51 5a 9e 3b dd d4 c1 3e
       0.052407783 0.06943039 0.004832544 0.37857714
000070 85 00 c0 3e 4d 18 1d 3e 2e d6 01 3f 3e 35 ff 3e
       0.37500396 0.15341301 0.5071744 0.49845308
000080 68 e1 72 3e d8 8e 56 3d 0a 15 59 3d 09 3a 20 3d
       0.23718798 0.05238232 0.05299858 0.039117847
000090 4f 38 2b 3f 15 a7 1a 3f 56 e7 17 3f c8 8b ec 3e
       0.66882795 0.60411197 0.59337366 0.46200395

pi.log_std f4 [4]
000000 43 52 90 c0 43 52 90 c0 43 52 90 c0 43 52 90 c0
       -4.5100417 -4.5100417 -4.5100417 -4.5100417

pi.net.0.weight f4 [50, 40]
000000 45 19 5f 3e 66 a9 0f 3e d0 27 6e bd 14 97 0e 3e
       0.21786983 0.14029464 -0.058143437 0.13924819
000010 b6 76 c6 3c 50 07 e1 bd de e7 4b be 3e 37 f4 3d
       0.024226528 -0.10987723 -0.19912669 0.11924599
000020 47 43 14 be 8d 7e fc 3d a2 10 2d 3d 6b 23 4b 3e
       -0.1447879 0.12328825 0.04225219 0.1983773
000030 16 13 12 be 4b d8 cd bd 45 d1 2e be 18 18 08 be
       -0.14265093 -0.1005102 -0.17072017 -0.13290441
000040 32 60 13 3e 98 f2 4c be 0d 24 88 bd 28 e7 b1 bb
       0.14392164 -0.20014417 -0.06647501 -0.0054291673
000050 a0 24 5c 3b 54 a3 69 bd 37 a5 49 bd 3d 8f 1e 3c
       0.0033591166 -0.057040527 -0.049229827 0.009677705
000060 42 0a a1 3d e8 83 6f 3d 3e 7d 6f be c7 62 37 bc
       0.07863285 0.058475405 -0.2338762 -0.011192984
000070 91 99 f6 3d 02 96 9d 3c d1 bb 58 3e cd 11 87 3c
       0.12041009 0.019236568 0.21165396 0.01648798
000080 cb 5f 10 3e 11 c0 90 bd 50 9c 14 bc 07 63 1a be
       0.14099042 -0.07067884 -0.009070471 -0.15076838
000090 1e 66 0d 3e 0f 05 05 be be 62 3c 3e 0c 80 46 be
       0.13808486 -0.12990211 0.18397042 -0.19384784
0000a0 37 1a 50 be 67 9c 1a 3e 8f 4e 49 bc 0a 54 e7 bb
       -0.203225 0.15098725 -0.012286796 -0.007059579
0000b0 da 0a 0e 3e 65 52 ba 3e 18 77 55 be 3f 70 f9 bd
       0.13871327 0.36390987 -0.20846212 -0.12179612
0000c0 fb b3 ff 3d d1 1d 24 be 2b ae 1f be 39 89 9c 3c
       0.124855004 -0.16026999 -0.15593784 0.019108402
0000d0 34 f5 a5 3c 0f 98 26 3e 1a cd 7a be e4 bb 8e bc
       0.020258524 0.16268943 -0.24492303 -0.017423578
0000e0 d9 3c 5a be 13 3c 28 be 26 ed 6a bd 79 61 82 3e
       -0.21312274 -0.16429166 -0.05735507 0.2546499
0000f0 72 7f ca 3b 29 09 32 3d e9 59 26 be b5 aa 1c 3e
       0.0061797434 0.043465767 -0.16245236 0.15299495
000100 03 d9 0c 3d 8c 84 d5 3e 60 c1 aa bd 7a dc b4 3d
       0.034386646 0.41702688 -0.083376646 0.08831115
000110 4d 89 a6 3e af b4 e6 bd 36 a9 7a 3e 21 c4 28 3e
       0.32526627 -0.112649314 0.24478611 0.16481067
000120 50 c3 23 3e d7 b0 b7 bb 35 ae a3 be a3 b0 62 3e
       0.15992475 -0.0056057977 -0.31968847 0.22137694
000130 22 40 89 be 10 b2 23 3d 10 1d 2b 3d 47 6e 1c be
       -0.26806742 0.039964736 0.041775763 -0.15276442
000140 61 a2 2f 3e 09 b9 dd be e2 45 d6 bd a0 0e 84 be
       0.17151786 -0.43305233 -0.10462548 -0.25792408
000150 68 58 49 3d 49 2b 9f bc 63 ed 9a bd db e8 74 3e
       0.049156576 -0.01942982 -0.07564809 0.23916952
000160 ea 7c 53 be 9a 3c 23 be a1 d3 0c be 00 a8 8d bd
       -0.2065312 -0.15941086 -0.13752605 -0.06916809
000170 52 87 ec bd da 5f 8b be aa 2d 94 3d 21 cf 35 3e
       -0.11549248 -0.27221566 0.07235272 0.17754795
000180 ce 5d e1 3d 6f 47 02 bd bd 42 cb 3d cf f4 b5 3c
       0.1100422 -0.031806406 0.09924839 0.02221146
000190 f7 7f 69 3e c3 7e ad be 1d d9 a1 bc 57 8b 3c bd
       0.22802721 -0.33885774 -0.019756848 -0.046031322
0001a0 3b 7b a9 3e 28 a9 0b be 3d 42 15 be 9b d2 a7 3d
       0.3310183 -0.13638747 -0.14576049 0.08194467
0001b0 9a 48 13 3d a1 b6 17 be 37 5a 34 bd 7c 03 fc 3d
       0.03595791 -0.14815761 -0.044031348 0.12305352
0001c0 47 c7 b5 bd ab e3 3c be 43 66 28 bd a4 a6 39 3e
       -0.088759 -0.18446223 -0.04111315 0.18129975
0001d0 da ae 85 bc e5 a4 84 3e a1 11 4b 3e 1e 98 08 3e
       -0.016318727 0.25907055 0.19830944 0.13339278
0001e0 a5 7e 8b 3e 06 ab 21 be cf b7 bb bd 83 3d a1 be
       0.2724506 -0.15787897 -0.09165918 -0.31492242
0001f0 94 68 65 3e c2 d2 3d 3c 33 69 ca 3d de 57 42 bd
       0.22403175 0.011585893 0.098833464 -0.047447078
000200 d8 ba 5a 3e 86 bb bb 3c 61 47 00 be cc 94 f2 bd
       0.21360338 0.022916567 -0.12527229 -0.11844787
000210 75 a5 19 3d a4 99 88 bd c9 9c e9 bd bc 83 29 3d
       0.037511308 -0.066699296 -0.114068575 0.041385397
000220 9a e2 75 be 0c f9 96 3d 28 84 bb bd 7c 56 5c be
       -0.24012223 0.07371721 -0.09156066 -0.21517366
000230 92 37 4c 3d f1 2d a8 3d 07 f7 47 3b 66 9d d1 be
       0.049857683 0.08211888 0.003051223 -0.40940398
000240 8a 05 75 3e 8b b9 41 be af 2a 2d 3e 29 f7 33 3e
       0.23927894 -0.18918435 0.16910814 0.17574753
000250 fc 08 9d 3e e2 27 f0 bd 3b d9 19 bd 51 c9 7c 3d
       0.30670917 -0.11726357 -0.037560683 0.061715428
000260 40 c5 c2 3d a3 b5 f1 3b 23 f3 7e be ea d7 d5 3c
       0.09510279 0.007376389 -0.24897437 0.026103932
000270 fa 12 9f be 30 3e 8d bd a6 16 4e be 0f 83 44 be
       -0.31069165 -0.06896627 -0.20125827 -0.1919062
000280 18 9c 81 be c5 d0 8d 3c 7f ac bf bd 96 8f 1b be
       -0.25314403 0.017311463 -0.09359073 -0.15191492
000290 b2 67 79 be 64 7a 4d be 00 bd 80 bd af 6e 0e 3e
       -0.24355963 -0.2006622 -0.06286049 0.1390941
0002a0 70 2b 0f bb 58 66 01 3d db 6c 96 bc 51 4f 08 bc
       -0.002184596 0.031591743 -0.018362453 -0.008319692
0002b0 2d 6d 94 3d 6f 56 fc bd 9e 0a e0 3d d0 5f 0e be
       0.07247386 -0.123211734 0.10939525 -0.13903737
0002c0 90 fa 30 3e 70 2f 91 bd 2f a7 86 be e5 b2 ce 38
       0.17283082 -0.07089126 -0.26299426 9.856167e-05
0002d0 db ba 9b be bf ce 0a 3e 8f cb 23 3c 44 4f 34 be
       -0.30415997 0.1355543 0.009997263 -0.17608362
0002e0 5a a1 2b 3c 59 b4 d9 3b bd 93 52 be 45 9f a6 3c
       0.010475481 0.0066438136 -0.2056417 0.020339618
0002f0 d8 38 03 3d 6e 37 af bd f2 ca 93 3d e1 01 4e 3e
       0.032036632 -0.08555494 0.07216443 0.20117904
000300 d1 d2 2b 3e 74 c7 70 bb e3 77 46 3e c7 01 8c bd
       0.16779639 -0.0036739977 0.1938167 -0.068362765
000310 4d 45 75 3e e2 75 bb 3d 8b 79 f3 3d 2c d7 e1 3d
       0.23952217 0.09153344 0.11888417 0.11027369
000320 ca ad 6d 3e 69 75 ce 3b 63 33 66 bd 7e bd 43 be
       0.23210827 0.0063006175 -0.05620135 -0.19115254
000330 e3 64 03 3e 3e 54 2b 3e b3 dc bb bd 63 4d 05 be
       0.12831454 0.16731355 -0.091729544 -0.13017802
000340 2a 10 15 3e 8f 47 80 bd 5e 02 27 be 72 3a e6 bc
       0.14556947 -0.06263649 -0.16309497 -0.02810404
000350 fb cc aa 3c 2b a1 8f 3d 84 90 9f be 65 24 8c 3c
       0.020849695 0.07013162 -0.31164944 0.017107198
000360 83 e8 89 3e be 95 6e 3e a4 d9 5b 3c 52 e6 80 be
       0.26935205 0.2329931 0.013418589 -0.2517572
000370 a2 3e 28 3e f0 38 22 3e 75 d7 5d be 0c a4 7b bd
       0.16430143 0.15842032 -0.21664222 -0.061435744
000380 72 13 bd bc eb c8 07 3d 0e 41 1a be 1c 96 76 be
       -0.023080561 0.033150595 -0.15063879 -0.240807
000390 de 47 3c 3e e0 41 e1 bd ad 43 74 bd e4 44 67 bd
       0.1838679 -0.10998893 -0.059634853 -0.056462184
0003a0 ad 54 53 3e f8 a3 90 3d 1a 5d a4 be 5f 9f 74 3a
       0.2063777 0.070625246 -0.3210228 0.00093316095
0003b0 20 22 99 3e 89 35 88 bd fb af 9a be ab 1e 34 be
       0.29908848 -0.06650836 -0.30212387 -0.17589824
0003c0 aa a9 55 bd 36 1b 45 3b 24 f9 2b 3e 76 e7 6e 3e
       -0.052163757 0.0030076033 0.16794258 0.23330483
0003d0 21 87 25 3e c9 9b b6 3c d3 d8 b8 bd d6 cc eb 3c
       0.16164829 0.022291081 -0.09025731 0.028784197
0003e0 40 77 86 be fe b1 9f be bd 5d 1c 3e 1c 8b 85 3d
       -0.26262856 -0.31190485 0.15270133 0.06520674
0003f0 f4 c8 df 3d c2 48 33 be 27 8e f6 3e 73 51 c3 bd
       0.10927001 -0.17508224 0.4815533 -0.095370196

pi.net.0.bias f4 [50]
000000 98 52 50 be 13 10 70 bd 1e ea f5 bd c9 2c a2 3d
       -0.20344007 -0.05860908 -0.12007545 0.07918698
000010 49 99 a7 3e f2 50 b8 bd e9 4c b1 3d e7 5c 99 bd
       0.32734135 -0.08999814 0.086572476 -0.07488423
000020 0e 10 6a 3e f8 5a d7 3e b7 c1 db 3d 49 08 11 3e
       0.22857687 0.4206159 0.107303075 0.14163317
000030 4e d0 52 3e 06 56 27 3d 3e 80 e1 bd 7f c5 93 3c
       0.20587274 0.040853523 -0.110107884 0.01803851
000040 f9 4e 43 bc 06 18 6f bd df 73 91 bd 27 7f 08 3e
       -0.011920684 -0.05837252 -0.07102179 0.13329755
000050 09 56 2b 3e 67 e0 45 3c 08 79 89 3e fb e1 8a 3e
       0.16732039 0.0120774275 0.26850152 0.27125534
000060 0d d8 ba 3d 71 3e 1a be ab b8 bf 3d fc 28 de 3e
       0.0912324 -0.15062882 0.093613945 0.43390644
000070 8d b4 6e 3e c4 03 9d 3d ec d1 c8 3e d7 71 46 3e
       0.23311062 0.07666734 0.39222658 0.19379364
000080 5e 68 73 3c c6 4a 54 3e 57 0a 6e 3e b7 2a 88 3e
       0.014856426 0.20731649 0.23246132 0.2659509
000090 b9 56 d1 3e af 23 82 3e 1a 73 05 3e 44 56 43 bd
       0.40886477 0.2541785 0.13032189 -0.04768969
0000a0 cd 1d 36 bd 07 d6 27 be 1f 9c c2 3e d2 10 01 be
       -0.044462014 -0.16390239 0.38009736 -0.12604073
0000b0 c5 88 32 bd 50 f6 53 3d 91 ef 9d 3e a8 d0 c2 3e
       -0.043587465 0.051748574 0.30846837 0.38049817
0000c0 8e 1d 82 be 97 25 0e be
       -0.25413173 -0.13881527

pi.net.2.weight f4 [50, 50]
000000 8e c0 ab 3c 88 5f 75 3e da 02 84 be 84 aa 01 be
       0.02096584 0.23962224 -0.25783426 -0.12662703
000010 72 c0 03 3e c5 9a 83 bc 39 07 1f be 1d f4 6f bc
       0.12866381 -0.01606501 -0.15530099 -0.0146456035
000020 02 ff 69 be 93 bd 02 3e 80 00 e6 bb 31 08 5b 3e
       -0.22851184 0.1276763 -0.0070191026 0.21389844
000030 89 34 5d 3d 7f 6b 3f 3b 85 b6 43 3e b4 c4 a5 bc
       0.05400518 0.002920836 0.19112594 -0.020235397
000040 7e 3a 8f 3e 5c 97 92 3d 9b 84 66 3d fe f0 5a 3d
       0.27974313 0.07157776 0.056278806 0.053452484
000050 5b 55 8e 3d d5 1f c3 3d a8 dc 72 bc dc c5 1f be
       0.06949874 0.09527556 -0.014823116 -0.15602821
000060 9d 16 7b bd 59 5c a2 bd b5 0f 35 3e 32 e4 0d be
       -0.061300863 -0.0792777 0.17681773 -0.13856581
000070 2a 25 3c be 52 eb cc 3d b8 69 0c 3e ab 08 d5 3d
       -0.18373552 0.10005821 0.13712204 0.10402044
000080 cf 14 db bd 42 3e 6f bc 10 8c 06 be 4b a5 82 3d
       -0.10697328 -0.014602246 -0.13139367 0.063791834
000090 08 8f 99 bd b7 cd 24 3e 2e 9e f4 bd 4e fc 2e 3e
       -0.07497984 0.16094099 -0.11944233 0.17088434
0000a0 9b 41 1c 3e 7e 88 27 3e 43 ee b6 bd 00 e4 48 be
       0.15259402 0.16360661 -0.089321636 -0.19618225
0000b0 e1 4e b2 bd 83 a2 c5 bd 05 96 f8 3c bb 8c 78 3d
       -0.08706451 -0.09650137 0.030344972 0.060681086
0000c0 2b c0 24 3e fe 9a 94 3d 0f 6e 99 3c cb 6f 95 be
       0.16088931 0.07256125 0.018729238 -0.29186854
0000d0 18 71 0b be 5e 1c 10 be e8 1c f0 bd d8 b5 a3 3d
       -0.1361736 -0.14073321 -0.117242634 0.07993668
0000e0 4b 93 35 3e 6d 2c d6 3d 43 2b 3a be 56 06 b1 bd
       0.17731969 0.10457692 -0.18180566 -0.086437866
0000f0 4f 35 dc be 4c 94 0b bd a8 b6 fa bd fb b3 e5 bd
       -0.4300942 -0.034076974 -0.1224187 -0.11215969
000100 f1 71 9d 3d 61 7c 67 be 4d 09 17 3e 01 e6 ba 3d
       0.07687748 -0.2260604 0.14749642 0.09125901
000110 4f 71 03 3b ba e4 0f 3e 0a 07 30 3e 48 db 73 bc
       0.002005655 0.14052096 0.17190185 -0.014883824
000120 62 7f d2 be c3 32 48 be 1f 65 95 3e df 83 82 bd
       -0.4111281 -0.19550614 0.29178712 -0.06372809
000130 66 16 c1 3d 2d df df 3c b0 1a e6 3d 13 a1 71 bd
       0.094281 0.027328098 0.11235559 -0.058991503
000140 60 d5 70 3d 54 13 2a bd da 4c a4 be e2 b9 5a 3b
       0.05879724 -0.04152234 -0.32089883 0.0033374955
000150 8c db 4c 3e 1f 24 a0 bd f5 3b 2d 3e 6e a8 e4 3c
       0.20005625 -0.078193896 0.16917403 0.027912345
000160 0c 24 97 be fa ea 69 be 69 00 37 3e a1 b0 6c 3e
       -0.2951969 -0.22843543 0.1787125 0.23114254
000170 b8 87 34 bc aa ec 0c 3e b8 27 02 be a4 c5 d0 bd
       -0.011018686 0.13762155 -0.12710464 -0.10193947
000180 ed 9a eb bd 52 1b 72 3e fb ce f9 3d 90 34 c7 bd
       -0.11504159 0.23643234 0.121976815 -0.097268224
000190 66 81 fc 3d 15 80 85 3e 36 c8 f5 3d a4 c0 95 bd
       0.12329368 0.2607428 0.12001078 -0.07312134
0001a0 1a df 56 3d 62 ae 40 bd a1 f9 db b9 4c ed 36 3e
       0.05245886 -0.047041304 -0.00041956923 0.17863959
0001b0 ac f5 5c be 0c 0f 08 be 03 65 b0 3d 26 8e dd 3d
       -0.21578091 -0.1328699 0.086130165 0.10818128
0001c0 d2 d8 92 bd fe 66 26 bd 64 e4 29 3e 7f bc 8c bd
       -0.071702614 -0.040625565 0.1659103 -0.0687189
0001d0 a9 8b 66 3d 63 93 01 3d e0 34 5a 3e 24 3d be 3d
       0.056285534 0.0316347 0.21309233 0.092890054
0001e0 a9 67 66 3c 6f ae ce ba f6 1c 9d bc 19 54 52 bd
       0.0140628 -0.0015768538 -0.019178849 -0.051349733
0001f0 9f 1b c1 3d 95 6b 15 be f6 21 f3 bc cb 12 31 be
       0.094290964 -0.1459182 -0.02967928 -0.17292325
000200 4a 46 25 3e 6c df 98 3d 00 2f 29 3e 64 04 ab 3d
       0.16140094 0.07464489 0.16521835 0.08350447
000210 e3 b1 cc bc 54 81 a1 bd 23 88 e4 3d f8 c0 44 bc
       -0.024987167 -0.078859955 0.111587785 -0.012008898
000220 f1 8f b0 3c f3 46 01 3e 9d 4b 8c 3c ab 13 5b bd
       0.021553012 0.12624721 0.017125899 -0.053485554
000230 42 69 1a 3d fd b0 8b 3d 15 e2 0b bc 61 90 5a be
       0.037698038 0.06820867 -0.008537789 -0.21344139
000240 d7 bf e2 bc d6 55 a0 3d c2 93 eb 3d 76 50 44 3e
       -0.027679367 0.07828872 0.11502792 0.19171318
000250 71 0a 75 bd 10 0c 9c bd da 09 03 be 57 85 84 be
       -0.05982441 -0.07619488 -0.12796727 -0.2588298
000260 c1 0c 8e bd 50 f0 91 bd 60 ee fe bd b4 7b a4 be
       -0.06936026 -0.07125914 -0.1244781 -0.32125628
000270 f8 83 fa bd ea bd 5d 3e a0 47 66 3e a7 9c 37 be
       -0.12232202 0.21654478 0.2248826 -0.17930852
000280 21 5d 1b 3e 1d 48 06 3d b1 bb c1 bd 33 fd 65 3d
       0.15172245 0.032783616 -0.094596274 0.056149673
000290 72 a3 6d be a0 a5 0a bd 3b ba 87 3b 6b f8 f7 bd
       -0.2320688 -0.03384936 0.0041420734 -0.12107929
0002a0 47 78 3b bc 19 8b 46 3e a2 be 44 3e b9 f9 a1 3c
       -0.011442251 0.19388999 0.19213346 0.019772397
0002b0 85 03 a1 3d 0c 41 4e 3d 6b 2e b0 3d e1 82 17 3e
       0.078619994 0.050355002 0.086026035 0.1479602
0002c0 4b 9d f5 3d 7f bf 5a 3e 59 5c 03 be b7 df ce bd
       0.11992892 0.21362112 -0.12828197 -0.10101264
0002d0 3d 69 03 3e 05 ae 8e be 3a b0 d2 bc ea f5 13 3e
       0.12833114 -0.2786714 -0.025718797 0.14449278
0002e0 0d e9 58 be 3b 92 b8 3d 05 40 2d 3e 10 9d e0 3d
       -0.21182652 0.09012266 0.16918953 0.10967457
0002f0 9d 0f 8e 3a ca 26 3b bd 3a 67 a1 be 2a 27 a1 be
       0.0010838393 -0.04569129 -0.31524068 -0.31475192
000300 37 c8 6d 3e 67 bb 9c 3c c4 97 06 bd 8f 27 af bd
       0.23220907 0.01913233 -0.03285958 -0.08552467
000310 24 8c 9d bd e4 b0 85 3e e1 ff a5 bd 0e 9c 69 3d
       -0.07692745 0.2611152 -0.08105446 0.05703359
000320 97 c3 53 3e cf 4d 7d 3e d4 90 82 3d e3 da f5 bd
       0.2068008 0.24736713 0.0637528 -0.1200464
000330 be 8c 22 be b9 63 73 3d 50 da c7 3b d8 89 0f 3e
       -0.15874001 0.059421275 0.006099023 0.14017427
000340 84 6f cc 3d df 4c 54 be 98 b4 ec 3c 14 0f 63 39
       0.099822074 -0.20732449 0.028894708 0.00021654024
000350 ad b3 f4 bd 86 85 20 3e 17 ce 99 bd 84 33 47 3e
       -0.11948333 0.15675935 -0.07510012 0.19453245
000360 69 32 d1 3d 17 71 a3 bb 45 06 f9 3d 04 18 97 bd
       0.10214693 -0.0049878466 0.12159399 -0.073776275
000370 17 38 4c 3e b3 53 65 bd 6c d4 45 be 01 30 53 be
       0.19943272 -0.055988025 -0.19319314 -0.20623781
000380 3e f2 11 be 31 1e 9b bc 49 d1 f8 bc 53 f2 4c 3d
       -0.14252564 -0.018935295 -0.030373232 0.050035786
000390 9e 16 7b be e2 ea 86 bd ad 67 7b 3e 41 f6 14 3e
       -0.24520347 -0.06587769 0.24551268 0.14547063
0003a0 4a 80 36 3d cd 0f af bd 05 8e 0b bd 83 82 48 3d
       0.04455594 -0.08547936 -0.034070987 0.04895259
0003b0 f4 26 7f bc 4b d1 19 3e 31 43 4a be 23 91 1a 3e
       -0.015573252 0.15021245 -0.19752194 0.15094428
0003c0 da ab 93 3c 38 41 8a 3d 35 55 42 3e 6f 5f 14 3d
       0.018026281 0.06750721 0.18977816 0.036223825
0003d0 8f 85 20 3d e2 6f 9c 3d a9 2f 73 3e a1 8a 83 bb
       0.03918987 0.076385275 0.2374865 -0.0040143286
0003e0 25 64 5c be c1 ad c7 3d c5 13 5b be 91 92 38 3e
       -0.21522577 0.09749938 -0.2139426 0.1802466
0003f0 05 17 18 3d 52 51 e1 3d bc 5f 08 3e 39 35 47 3e
       0.037131328 0.11001839 0.1331777 0.19453897

pi.net.2.bias f4 [50]
000000 4f 7a 2b be d2 63 76 be cd bf e3 3d d8 5a cb 3d
       -0.16745876 -0.24061516 0.111205675 0.099294364
000010 3f d1 6f 3d 90 5a bb bd f0 c1 30 3e 96 61 e7 bd
       0.058549162 -0.09148133 0.17261481 -0.1129791
000020 a5 f8 1e be ba d9 27 3c 14 44 4e bd 25 1d a4 bd
       -0.15524538 0.010244781 -0.050357893 -0.080133714
000030 bb 09 6c 3e 46 db 1b be 19 9b 29 3e 58 ba f1 bd
       0.23050587 -0.15220365 0.16563071 -0.118031204
000040 f1 74 ff 3d 0a 9c c1 3d 96 56 3e 3e 67 10 b6 3d
       0.12473477 0.0945359 0.18587717 0.08889847
000050 fc 89 db 3c 05 6b 2c 3d b3 56 bf 3d 2d e1 bb 3d
       0.026799195 0.04209425 0.093427084 0.09173808
000060 6e 05 f1 bd 63 95 43 bb f1 a8 2e 3e 83 d6 08 3e
       -0.11768614 -0.002984368 0.17056634 0.1336308
000070 6f eb 64 3e ed 68 21 bd 4b a7 4c 3e 17 ca 74 3c
       0.22355436 -0.039406706 0.19985692 0.01494076
000080 96 48 c4 3d 70 d0 40 3e 1a fe 8b 3d f8 cd 09 3e
       0.09584157 0.18829513 0.068355754 0.13457477
000090 fa 4b c9 3d cd 75 cd 3d b1 e9 c5 bd e9 73 1e 3e
       0.098289445 0.10032234 -0.09663714 0.15473904
0000a0 5e 9b f1 bd 6c b0 e4 3c 3d 3d 44 be 15 29 5f 3e
       -0.11797212 0.027916156 -0.19163986 0.21793015
0000b0 d5 11 8f bc 5f 58 29 3e 7a 92 30 3e df 2c 25 3e
       -0.017464558 0.16537617 0.17243376 0.16130398
0000c0 99 3b 96 3d b0 b3 0a bc
       0.07335586 -0.008465692

pi.net.4.weight f4 [4, 50]
000000 da f5 8d 3e 90 51 87 3e 89 59 1f 3e 42 7b e3 be
       0.27726632 0.26429415 0.15561499 -0.44429976
000010 ca f2 3f be 99 21 cd 3e 98 ec 74 3e d8 09 bc bd
       -0.1874496 0.40064695 0.23918378 -0.09181565
000020 fd 62 7b be 5f a7 e0 3c aa 0c 0e 3e 8f 6c 84 bd
       -0.2454948 0.027423559 0.13872018 -0.064660184
000030 7d f4 b2 bd 35 63 5c 3e 91 14 09 bf ad e5 98 be
       -0.08738039 0.2152222 -0.53547007 -0.2986273
000040 d5 36 64 3e 0d eb 98 3e 62 8f 53 bd d0 1f 8b be
       0.22286542 0.2986683 -0.051650412 -0.2717271
000050 b5 ba 4f be 80 33 9a 3e 2b b7 b8 3d 52 1a 21 3e
       -0.20286067 0.30117416 0.090193115 0.15732697
000060 c8 95 ab be d7 cd cd bd 3a 60 90 3e fb e2 56 3e
       -0.33512712 -0.100490265 0.28198415 0.20985024
000070 37 a8 2b 3d fa 88 18 3e f3 17 f1 be 64 65 9b 3e
       0.04190847 0.14896002 -0.47088584 0.30350792
000080 01 84 ee bd 0d c7 85 3d 3b c4 84 3e dd 8d 7e 3e
       -0.116462715 0.065321065 0.25930962 0.24858804
000090 13 85 49 be 19 7e d7 3d 5d 59 50 be 88 cc 7e be
       -0.1967967 0.10522098 -0.2034659 -0.2488271
0000a0 4e bf 9b 3e 96 2a 90 be 67 7c f5 be 89 72 e7 3d
       0.3041939 -0.2815749 -0.47946474 0.11301143
0000b0 2c 14 91 be f8 66 89 be b5 4e 97 be 14 f7 7e be
       -0.28335702 -0.2683637 -0.29552236 -0.2489894
0000c0 66 44 a6 3e 7d b1 9d 3e 36 26 85 3d 95 d3 3e 3d
       0.3247406 0.30799475 0.06501429 0.0465885
0000d0 16 4e 97 3d 8f d5 67 be 54 93 8b bd ec 12 a9 be
       0.073879406 -0.2264006 -0.0681521 -0.3302225
0000e0 8f d5 b8 be d0 1d 01 3e c5 0e 1b bf 99 96 9f 3c
       -0.36100432 0.12609029 -0.6056941 0.01948099
0000f0 eb 1e 8f be 8f de a1 bd 1b 94 d9 be f2 d5 6c bc
       -0.27953276 -0.07903778 -0.42495808 -0.014455305
000100 9b 87 f5 be f6 7b 5f be 6d 95 90 be 6a 5b a2 be
       -0.4795502 -0.21824631 -0.28239003 -0.31710368
000110 41 8f b1 3e 58 b5 9c 3d 94 d8 0b bf 48 bc 5f 3e
       0.34679607 0.07651776 -0.54627347 0.21849167
000120 c2 e8 31 3e 48 46 e7 be 89 38 bb 3d 37 e0 e9 3b
       0.17373946 -0.45170808 0.091416426 0.007137324
000130 4b ca fa bd 77 79 3d be 51 c9 0e 3f e7 d2 ea 3e
       -0.122456156 -0.18503366 0.55775934 0.4586403
000140 fb 33 2b be 13 71 5e be 82 c5 37 3e 45 ce eb 3d
       -0.16719048 -0.21722822 0.17946437 0.11513952
000150 de 4a 18 3d fb a9 20 3d 9a a5 84 3e f6 c9 9c 3d
       0.037180774 0.039224606 0.25907594 0.076557085
000160 6b bf 9a be 26 bb 19 3e 11 bd 1c bf 26 cd 7c 3b
       -0.30224165 0.15012798 -0.6122599 0.0038574426
000170 13 92 f9 3d 4c 48 8d be 5d 1f 0d 3e 54 8e d2 3e
       0.121860646 -0.2759422 0.13781495 0.41124213
000180 6f 4d bd bd 57 92 83 3e 28 fd 9d 3d 64 0c 8c 3e
       -0.09243285 0.25697586 0.07714301 0.27353203
000190 aa ad a3 3d 5b 18 23 bf a0 5c 81 3e 6e 3d 84 3e
       0.07992108 -0.6370904 0.2526598 0.25828117
0001a0 7b 92 ea bd 93 a4 b4 3e a8 e7 7b bc ee ff 14 3e
       -0.1145372 0.3528181 -0.015375055 0.14550754
0001b0 a9 1c 9c bd 12 d8 d8 bc b0 40 d4 bd 86 a2 8e 3e
       -0.07622654 -0.026470218 -0.10363901 0.2785837
0001c0 51 05 13 3d a1 cd a3 3e 7f 81 d5 be d7 fa 49 3e
       0.035893742 0.3199282 -0.4170036 0.19724594
0001d0 88 f1 9e be ff c8 86 3d da b8 43 be ed 39 5d bc
       -0.3104365 0.06581306 -0.19113484 -0.01350258
0001e0 e3 fe ae be 17 00 5f be 66 00 35 bc 52 5b 9e 3d
       -0.34178838 -0.21777378 -0.011047458 0.07732262
0001f0 1e 3a 8f be 88 43 00 3e fd 35 dd bd 59 b6 7d be
       -0.27974027 0.12525761 -0.10801313 -0.24776591
000200 33 03 5a be 05 5a 44 be 85 57 e2 3e b6 8e e6 3d
       -0.21290283 -0.19174965 0.44207397 0.11257689
000210 92 f6 94 3e c2 f0 96 3e f7 51 99 be f5 a4 73 3e
       0.29094368 0.2948056 -0.29945347 0.23793395
000220 17 4f b1 3d 68 f3 9d be 4a 17 f8 be bc 26 8a be
       0.08657663 -0.30849767 -0.48455268 -0.26982677
000230 80 b9 d4 be 15 6d 50 3e e4 45 02 bf 55 8b 9f bd
       -0.41547775 0.20354111 -0.50887895 -0.07790247
000240 48 12 ad 3e 51 df 6f bc 88 01 07 bf 96 5d 56 be
       0.3380301 -0.014640645 -0.5273671 -0.20934138
000250 0c 30 1f 3e 02 1e 48 3d 24 50 1e be 7b 5e 2d bd
       0.15545672 0.048856743 -0.15460259 -0.04232643
000260 b0 69 68 bc 98 46 a3 be c8 92 ef be 5f 2e 94 3e
       -0.014185354 -0.31889796 -0.46791673 0.28941628
000270 79 47 35 bd d7 7e 93 be cf 16 0f 3e 6a 35 67 3e
       -0.044257615 -0.2880771 0.13973545 0.2257897
000280 b7 58 6e bd 2c 23 72 be b4 df 15 be 0f 9e 35 be
       -0.058190074 -0.2364623 -0.14636117 -0.17736076
000290 03 fe b5 be aa 98 9c be d0 23 ed be ca 9d 2f bd
       -0.35545358 -0.30585223 -0.46316385 -0.04287509
0002a0 85 ad 82 bc 46 a5 42 be e9 ca 91 3e fa 3a 95 be
       -0.015951881 -0.1900836 0.2847512 -0.29146558
0002b0 6a 42 22 3e fd 34 b7 3e 37 53 30 3e d2 2d a1 3e
       0.15845647 0.35782614 0.17219244 0.3148027
0002c0 33 42 a0 bd 9c 44 e1 3d 24 e6 6b 3e 29 4d 3d 3e
       -0.078251265 0.10999414 0.2303701 0.18486466
0002d0 26 71 f4 3d 46 f8 e7 3e 3d 71 25 3e 34 1b 71 be
       0.11935644 0.45306605 0.16156478 -0.23545533
0002e0 28 f1 85 3e 56 60 81 3e e5 22 61 3e 72 f7 da bd
       0.2616055 0.2526881 0.21985967 -0.10691728
0002f0 1f 51 64 3d 49 47 fb 3c 20 7f 0c bf 45 c0 6d 3e
       0.055741426 0.03067364 -0.5488148 0.23217876
000300 88 e7 48 3e fd 8c 59 3c f2 d6 98 be b2 8f 05 be
       0.19619572 0.013278243 -0.2985149 -0.13043097
000310 0f 5a 4e be 63 dc 42 3e 58 65 11 3d 1e c7 8f 3e
       -0.20151542 0.19029383 0.03549704 0.28081602

pi.net.4.bias f4 [4]
000000 33 e3 65 3d 65 7a 00 be cb 23 cb 3d ab 38 2f bb
       0.056124877 -0.1254669 0.09918936 -0.0026736658

v.net.0.weight f4 [64, 40]
000000 73 6a eb be ba cb 36 bc 1c 4e ff 3d 77 66 b5 3e
       -0.45979652 -0.011156971 0.1246607 0.35429737
000010 8f 38 be 3d c1 68 c9 bd 0b b6 a7 ba cc 7a 96 3e
       0.092881314 -0.09834433 -0.0012795342 0.29390562
000020 28 12 37 bf e7 8b db bc e3 b5 76 bd 39 48 98 bd
       -0.7151208 -0.02680011 -0.060232054 -0.074356504
000030 0b 6a b6 3c e5 d9 66 be ee 32 aa 3e 65 a0 3b bd
       0.022267362 -0.22544058 0.3324198 -0.04580726
000040 ce f6 29 3c 1b f7 0b bd 0d 99 4f bc 56 cc 5a 3c
       0.010373784 -0.034171205 -0.0126707675 0.013354382
000050 54 86 81 be 6e 17 f1 bd 6a f7 f9 bb 30 07 80 3e
       -0.25297797 -0.11772047 -0.007628371 0.25005484
000060 14 7e 19 3e a3 4d 28 3e 8f 20 00 be 12 ff c0 3e
       0.14989501 0.16435866 -0.1251242 0.37694603
000070 7b 34 59 bf bc bd 75 3e f2 4d 03 3e 2d 7c 03 bd
       -0.84845704 0.23998159 0.12822703 -0.032100845
000080 d5 cf b7 3c 9b 3d 93 be 97 69 c3 3e 15 21 91 be
       0.02243797 -0.2875794 0.38166496 -0.28345552
000090 74 3a e5 3a 2a fc 58 bd ea 7f 06 bc 0e 7a 63 b9
       0.0017488734 -0.052974857 -0.008209208 -0.00021693876
0000a0 94 b6 f5 bd ad 15 81 3e 0c 56 88 bd ea b2 d3 3e
       -0.11997715 0.2521185 -0.06657037 0.41347438
0000b0 37 da 6b bd 7c f9 b5 be fd a3 a4 3e 8b cc e1 bd
       -0.057581153 -0.35541904 0.32156363 -0.110253416
0000c0 17 64 d2 3c 94 78 8e bd ae 7c 06 bc 62 38 10 bd
       0.025682492 -0.06956592 -0.008208437 -0.03521002
0000d0 bc dd bb 3d da 39 d3 3c eb f9 5e 3d 4b 1c df bd
       0.09173152 0.025784422 0.05443756 -0.10894068
0000e0 63 d5 96 3c 18 d4 3f bd 76 c8 04 bd a2 4a 16 3c
       0.018412298 -0.046833128 -0.032417737 0.009173067
0000f0 6a 6e b5 bd 51 9c c0 3d 05 6a 8b bd fa a2 51 3e
       -0.088589504 0.09404815 -0.06807331 0.20472327
000100 d7 4d 78 3c 49 b3 aa be e8 ad 86 3e 34 0e c8 3d
       0.015155277 -0.3333991 0.26304555 0.09768334
000110 a7 6d d2 3c ce ff d3 3d 6d e0 87 bd d2 60 36 bd
       0.025687052 0.10351525 -0.06634603 -0.04452593
000120 c6 59 b3 3d 9f 17 71 be 4c d8 60 3d 5e ee 44 be
       0.08757357 -0.23544167 0.054893777 -0.19231555
000130 e1 d5 aa 3c f4 58 20 bd f4 bf 36 bd 1e f7 9d 3c
       0.020853939 -0.039147332 -0.044616655 0.019282874
000140 35 71 f7 3e 47 1d 95 3f 80 f3 8c bd bc 83 1b be
       0.48328558 1.164956 -0.068823814 -0.15186971
000150 4c a2 19 be c9 70 b4 bd f6 28 ac 3d 81 6f 3f bd
       -0.15003318 -0.088105746 0.0840625 -0.046737198
000160 ac 31 05 3e 36 aa cc bb 47 95 d4 3d a2 35 4e 3d
       0.1300723 -0.0062458767 0.10380035 0.050344117
000170 ee 9e c2 3b b2 24 93 3d 4a da b2 3d 18 7f 6e bd
       0.005939356 0.071847335 0.087330416 -0.058226675
000180 a9 09 43 3c 03 02 1a 3d 78 c7 f9 bb a0 67 84 bb
       0.011904159 0.037599575 -0.0076226555 -0.0040406734
000190 42 95 6c 3e a1 c3 9c 3f 2f 38 e9 3b 8d 29 62 3c
       0.23103812 1.2247201 0.0071172933 0.013803852
0001a0 19 61 18 be 14 84 7a be ea d5 65 3d 29 6c a7 bc
       -0.1488079 -0.24464446 0.056112207 -0.020437317
0001b0 35 b7 82 3e 03 49 04 3c 36 c6 48 bc 8e 82 34 bc
       0.255304 0.008074048 -0.012254288 -0.011017455
0001c0 ae 11 24 bc 26 4e 27 3e 9f 3f 94 3c d1 37 b6 3d
       -0.010013981 0.16338405 0.018096743 0.08897365
0001d0 1b 5b 51 3c 85 b7 16 3d 9d bd c8 bb b9 d9 3e bc
       0.012778069 0.03679611 -0.0061261193 -0.011648589
0001e0 0a 96 35 be 56 ed b4 bd 22 57 d3 3b 2a 07 f3 3e
       -0.17733017 -0.08834331 0.006449596 0.47466403
0001f0 ea 85 97 bd 6c 5d a4 3e 54 ff 46 3e b4 67 09 3e
       -0.07398589 0.32102525 0.19433337 0.13418466
000200 4c 09 df bb 4c 11 93 bc a3 8b f7 3c d9 a6 b1 3a
       -0.006806528 -0.017952584 0.030217951 0.0013553753
000210 8d ff 3a bc 48 21 28 be 73 21 47 3e 2b 25 34 bd
       -0.011413467 -0.16418946 0.19446354 -0.04398076
000220 ae 81 d6 3c c9 15 87 bd 62 0b 2d 3a e0 7b f2 3c
       0.026184883 -0.06595952 0.00066011224 0.029600084
000230 1d 0d e4 be 63 78 ad bc a2 e0 04 be 3f bf d3 3e
       -0.44541255 -0.021175569 -0.12976316 0.41356847
000240 59 1a a9 bb e9 f3 cb 3e 1a 48 99 3e 77 bf 16 3e
       -0.0051606116 0.39834526 0.29937822 0.14721476
000250 10 68 82 3d 69 b8 b6 bb 25 8e 91 bd 00 ec 97 3a
       0.063675046 -0.0055761826 -0.0710719 0.0011590719
000260 43 4a de bc 52 bc b3 bd 1a e3 6c bd 56 3a 4d be
       -0.02713502 -0.087761536 -0.05783377 -0.20041785
000270 8e 3a 2d 3d 5c c5 61 bd e9 ac 6a 3c 8d 55 bb 3c
       0.04229217 -0.055119857 0.014323452 0.022867942
000280 44 c7 93 3e 10 72 9b 3d 14 30 84 3d 81 01 2e 3e
       0.28862965 0.07590115 0.06454483 0.16992761
000290 8b 85 df bc 1a dd c8 bb 99 a5 dd 3d a4 1e a1 3e
       -0.027285358 -0.006129873 0.10822601 0.3146869
0002a0 c6 82 9e bd 39 b0 7e be a2 e9 86 bc ab 90 72 3c
       -0.07739787 -0.24871911 -0.016468827 0.014804999
0002b0 a9 92 15 bc cc a0 07 be 0a 69 d8 be 76 87 86 3e
       -0.009129205 -0.13244933 -0.42267638 0.26275223
0002c0 90 bc d2 b9 08 4e 0d 3d 05 c2 ef bc 44 0a e8 ba
       -0.0004019481 0.034498245 -0.02926732 -0.0017703255
0002d0 03 d2 07 3e 0e 4a 3d 3e 74 b8 d7 bd f2 aa f2 3d
       0.13263707 0.18485281 -0.105332285 0.118490115
0002e0 ed a0 93 bd b8 6d 2a 3e 95 d3 85 3d 54 df 85 3e
       -0.072084285 0.16643417 0.06534497 0.26146948
0002f0 fc 13 17 3d 63 b6 c1 bd 30 82 d6 3d a2 73 0b bd
       0.036884293 -0.09458616 0.1047405 -0.034045823
000300 29 40 8d bc 48 28 08 be b9 7f 8a be 91 5d 97 3d
       -0.017242508 -0.13296616 -0.2705057 0.07390893
000310 a0 0e 2e 3c d2 f3 48 3d 31 c9 12 bd bb f1 60 bb
       0.010623604 0.04906065 -0.035836402 -0.003432377
000320 06 be 33 3f 6a 1d 4c bf 16 22 07 3e a6 9a eb be
       0.7021183 -0.7973238 0.13196597 -0.46016425
000330 dc ea 08 3e ea 92 e9 3c dd 21 ba 3d 7d 29 9b 3e
       0.13370842 0.028512437 0.0908849 0.3030509
000340 0d 99 50 3e 73 0a 44 3e f8 6c 8f 3d f9 a3 81 bd
       0.20370884 0.19144611 0.07003206 -0.063301034
000350 f3 d5 9d bc df 6a 88 3e e5 1b a5 be dd fa 7e be
       -0.019267058 0.26644036 -0.32247844 -0.24900384
000360 6c d6 f2 3b 2c 17 ad 3c 2c f7 37 bd e7 72 c3 bc
       0.007410815 0.021129213 -0.044913456 -0.0238585
000370 72 c0 49 3f de a6 5f bf 3f 49 a4 3e e2 c1 e7 be
       0.78809273 -0.87363994 0.32087132 -0.45265108
000380 db b5 3b 3e ea 15 b9 3c 33 bb 2e bd ef 48 cc 3d
       0.18331091 0.022593457 -0.042658996 0.099748485
000390 55 68 c1 3e 26 ea ad 3e 86 23 19 be bd ef 43 3d
       0.37774912 0.33967704 -0.14954957 0.047836054
0003a0 b8 b7 09 bc b0 96 52 3e 8f fb 7a be 89 63 6c bd
       -0.008405618 0.20565295 -0.24510024 -0.05771211
0003b0 53 ac b9 3c cc 4b 59 3c 65 be bc bc 8c e1 06 bd
       0.022665178 0.0132627 -0.023040006 -0.032929942
0003c0 de 61 ea be bb b9 07 3f 9e fe af 3c e7 26 b5 bd
       -0.45777792 0.5301778 0.021483716 -0.08845311
0003d0 79 a5 cf 3d ba 8d 23 3e e8 af 4c 3d bb 2c aa 3e
       0.10138983 0.15972033 0.049972445 0.33237252
0003e0 6c 39 c2 3d bb c1 e7 bb b1 83 89 3b 1c c6 fa 3c
       0.094836086 -0.007072655 0.004196607 0.030612044
0003f0 7c 38 e0 bc 82 e0 9a be 70 a6 7c ba 3c 3e 2b bc
       -0.027370684 -0.3024941 -0.0009637838 -0.01045185

v.net.0.bias f4 [64]
000000 01 72 b3 bf a0 db 5c bf b9 e1 17 be 96 1a 90 be
       -1.4019166 -0.8627262 -0.148322 -0.28145283
000010 90 33 96 bc 60 d6 21 3e 66 5d 53 3f d0 42 99 bf
       -0.018335134 0.15804434 0.8256439 -1.1973515
000020 3b 85 75 bf 70 3b a2 bf bc c6 04 3f e5 87 3f 3f
       -0.9590642 -1.2674389 0.51865745 0.74816734
000030 ef 89 ae bd d9 be 72 bf f1 47 b4 3e 67 f8 c8 3f
       -0.085224025 -0.9482246 0.35211137 1.5700806
000040 7e f5 29 3f dd dd bb be dc 9d e2 be 4d 87 b7 3f
       0.66390216 -0.36692706 -0.44261062 1.4338166
000050 a4 ba ff bd 47 6f 19 bf 02 b7 ae bf d4 df 42 be
       -0.12486771 -0.5993542 -1.36496 -0.19030696
000060 36 01 7f bd 3f 4e 92 3e ab 18 a6 bf 6f 14 a4 be
       -0.062257014 0.28575322 -1.2976278 -0.3204684
000070 1c b9 8c 3e 69 05 94 bd 0b 38 7b 3f 4e 7d 6a bf
       0.27484977 -0.072275944 0.9813239 -0.9159745
000080 b9 d8 96 be c4 4c 68 3f 1b 54 bf 3e e0 14 01 3e
       -0.2946222 0.90742135 0.37368855 0.1260562
000090 76 50 5c be 60 f4 a0 3d 25 51 5d 3f 6e 57 80 3e
       -0.21515068 0.07859111 0.8645194 0.25066704
0000a0 c1 04 23 3f e5 10 4a bc 64 7e 6f 3b 62 9d e0 bf
       0.6367913 -0.0123331295 0.003654384 -1.754803
0000b0 e8 85 1e 3f 28 05 c9 3f 7d f2 5d 3f e6 6f 3a 3f
       0.61923075 1.5704699 0.8669813 0.72826993
0000c0 09 11 ba bf 08 69 ca bf c9 91 51 be a7 e9 84 3f
       -1.4536449 -1.5813303 -0.20465769 1.0383805
0000d0 f5 33 09 3e 68 a3 2d 3f 81 5a 5c 3e e7 5a 6b 3f
       0.13398726 0.67827463 0.215189 0.9193558
0000e0 fb 42 de be a3 02 f4 3e 58 1c 22 bf 44 9a 09 3e
       -0.43410477 0.47658262 -0.633245 0.13437754
0000f0 ac ba 88 bf 80 4b 0f be 86 17 88 3f 68 cc c7 bf
       -1.0681968 -0.13993645 1.0632179 -1.5609255

v.net.2.weight f4 [64, 64]
000000 56 db ed 3e aa 24 43 be 54 ed 2b bf 71 b9 c3 be
       0.46456403 -0.19056955 -0.6715901 -0.38227418
000010 c0 15 8f 3e 86 e6 af bc 58 42 b2 bc 8a 6a 49 3e
       0.2794628 -0.021472227 -0.02176015 0.19669548
000020 85 f4 03 3f 1d 68 5c 3e e0 c3 b9 bd 72 a4 c0 be
       0.5154498 0.21524091 -0.09070563 -0.37625462
000030 87 70 65 3d e5 00 77 be 21 46 89 3e 3d c8 30 bf
       0.056015518 -0.24121435 0.26811317 -0.6905554
000040 0a d0 75 bd c0 e3 1b 3e 03 a6 8f 3e a0 51 38 bf
       -0.060012855 0.15223598 0.28056344 -0.7199955
000050 a6 84 c8 be eb 72 38 3e 6d d0 bc 3f 50 40 74 be
       -0.39163703 0.18012588 1.4751107 -0.23852658
000060 c6 56 3c bf 3d 17 e7 be 95 ae 8f 3e 62 f6 02 be
       -0.73569906 -0.45134917 0.28062883 -0.127893
000070 12 b8 c6 3d 32 82 e6 3d d9 33 d1 bd 75 ba 20 3c
       0.097030774 0.112553015 -0.10214967 0.00981008
000080 9b 64 8c 3e 87 d1 6d 3e 3c 55 56 3e 43 31 46 3e
       0.27420506 0.2322446 0.20930952 0.1935473
000090 e9 33 ff be c5 f1 06 be c7 82 de 3d 9e c1 df be
       -0.49844292 -0.13178165 0.108647875 -0.43702406
0000a0 e0 54 82 3d 54 89 42 3e ba e9 eb bd 2c 99 af 3f
       0.06363845 0.18997699 -0.11519189 1.3718619
0000b0 74 58 61 3e 9e 4f 1e bf f4 e4 4a 3c 01 f7 c5 3e
       0.22006398 -0.61840236 0.012383688 0.38665012
0000c0 b5 7a c7 3f ef 0d 7c bd 50 31 ae be c9 e8 fa be
       1.5584322 -0.061536726 -0.34021997 -0.49005726
0000d0 d9 59 f1 3e 3d fa 7a 3e e1 91 cf 3e cb b4 36 be
       0.4713886 0.24509521 0.40540984 -0.17842405
0000e0 97 22 f1 3e af dc c1 3e ac fe b3 be 1e 27 01 3f
       0.47096702 0.3786368 -0.35155237 0.50450313
0000f0 88 cf 62 be 60 61 f6 3e f0 4d 89 bc 95 15 b8 3d
       -0.2214948 0.48121166 -0.016760796 0.089884914
000100 56 97 1f 3d 38 1b b9 bd c7 24 05 3d 11 db 72 3d
       0.038962685 -0.09038395 0.032505777 0.05929095
000110 ff 9c 54 bc ce e4 5f 3d 07 58 94 3d de 9d 84 be
       -0.012976884 0.054661565 0.072433524 -0.25901693
000120 b4 14 ad 39 ca de a8 3d 49 12 1c bd d3 e3 26 3d
       0.00033012556 0.08245619 -0.038103376 0.040744614
000130 b4 53 35 bd 10 b1 45 3c f2 b8 19 3e 8d 96 ec 3d
       -0.04426928 0.012066141 0.15011957 0.11552153
000140 fa e6 86 bc e2 3b 3e be c5 06 d2 3d fb 14 dc bd
       -0.01646756 -0.18577531 0.102551974 -0.10746189
000150 d0 5a e1 bc 94 26 0f 3e 65 08 9b bd 57 79 e3 3d
       -0.027509123 0.1397956 -0.075699605 0.11107128
000160 38 83 36 be 76 bf 78 bd f8 a5 9f be b3 65 cd 3c
       -0.17823493 -0.060729466 -0.31181312 0.025072908
000170 a5 10 65 bd 39 b9 8d be 33 50 a3 3d 6e 79 de 3c
       -0.055924077 -0.27680376 0.07974281 0.027157512
000180 b4 4f ed 3d d5 0e d8 3c be 31 a5 3d 1d bb b2 3d
       0.11587468 0.02637426 0.08066128 0.08727095
000190 9b cf 9c 3d 97 8d 95 3d 63 84 00 be 46 b3 19 bd
       0.07656785 0.07302397 -0.12550502 -0.037524484
0001a0 d7 3a 0f 3d d9 48 d2 bd 1d 1e 9b bd c5 68 a7 be
       0.034968223 -0.10267801 -0.07574103 -0.3269712
0001b0 3c 89 7a 3d bb e1 17 3e 2e 24 73 3d bb 08 92 3c
       0.061166033 0.14832203 0.059360676 0.017826429
0001c0 2d 9d df bc 68 b0 01 3e 49 83 84 bd 32 02 75 3d
       -0.027296627 0.1266495 -0.06470353 0.059816547
0001d0 63 8b e5 3d c5 59 4b 3d d2 a8 54 bd 52 54 a0 be
       0.112082265 0.049646158 -0.051918812 -0.3131433
0001e0 b1 d0 89 3d 49 56 df bb 8e a8 01 be 97 f3 0c be
       0.06729258 -0.006815706 -0.12661955 -0.13764797
0001f0 90 bb 64 3d ae 88 4e 3d 17 5e 7d 3d c5 b7 c4 be
       0.055842936 0.050423317 0.06185731 -0.38421455
000200 36 4d fc 3e ba 5b 07 be d2 1b f2 3e 32 ee fe bd
       0.49277657 -0.13218585 0.4728685 -0.12447776
000210 f4 05 ba bd 82 c7 d6 3c 80 c6 67 3d 07 fe 5f be
       -0.09083167 0.02621818 0.05658579 -0.21874247
000220 a1 fb 2e 3f cf 75 18 3f 8f 7f 75 bc d0 61 2b be
       0.68352705 0.5955476 -0.014984026 -0.16736531
000230 a6 d0 74 bc 90 f0 6b 3e c6 97 a3 be e2 de 2e 3e
       -0.014942324 0.23040986 -0.3195173 0.1707721
000240 ad f2 e0 3c 48 7f 04 3e 09 85 55 bd 01 41 bf be
       0.027459467 0.12939179 -0.052128825 -0.37354282
000250 bf bc e0 3e c3 c9 82 be d5 7c 06 40 2e 3b a9 bb
       0.43894002 -0.25544557 2.1013691 -0.0051645255
000260 0a ad e5 3e 37 a5 cd 3e d3 a7 38 3f 77 9b 87 3d
       0.4485858 0.4016511 0.7213108 0.066214494
000270 c4 ba 25 bf 50 6e 66 bd 53 32 c2 3d 19 81 4e be
       -0.64738107 -0.056257546 0.09482255 -0.20166434
000280 af e1 c9 be 45 80 84 bd 8f d7 34 3f e5 f0 42 be
       -0.39429995 -0.06469778 0.70641416 -0.19037206
000290 b6 41 85 3e d8 a6 d8 bb 8b 31 c1 3d ca 12 cf be
       0.26026696 -0.006611686 0.09433278 -0.40444022
0002a0 2b b9 e1 3e 08 0b 36 3e 3e f9 c3 bc 79 a3 47 3f
       0.44086584 0.17777646 -0.023922559 0.77983814
0002b0 65 0a 3c bd ad c9 8f bf 7c ad d3 3d 8a 6b 4b 3e
       -0.04590835 -1.1233422 0.10335824 0.19865242
0002c0 a0 a9 48 3e 6d 0d 8c 3f 0a a8 0f be f1 a4 b9 be
       0.19595957 1.0941597 -0.14028946 -0.36258653
0002d0 7f 3d 1e bf 78 fd d4 3e 01 22 08 bf 28 cf 9d bd
       -0.61812586 0.4159963 -0.53176886 -0.077055275
0002e0 f6 bd 4c be d2 46 37 bf e1 f0 bc 3d 19 ec c3 3e
       -0.1999434 -0.7159244 0.092256315 0.38266066
0002f0 87 bb 43 be f1 97 ba be ce 03 a6 3e bb 72 b9 3f
       -0.19114505 -0.36444047 0.32424778 1.4488138
000300 11 9e ba bd 2a bf 14 3e 6d 58 18 3d 7b d7 80 3d
       -0.0911218 0.14526048 0.037193704 0.062911
000310 be 33 81 be 04 1e 9e be eb 51 31 bd 07 22 82 3e
       -0.2523479 -0.30882275 -0.043291014 0.25416586
000320 7a 4a 2c 3e ec 8c a8 3d 39 86 0d bd dd c0 b5 bd
       0.16825286 0.08230004 -0.034551833 -0.088746764
000330 f7 01 01 be ac 06 8d 3e 8c af 94 bd ee 5a d0 3e
       -0.12598406 0.27544153 -0.072600454 0.40694374
000340 59 0b 0c be 0b fa 4e be ea 19 ee be 00 fe 1c 3e
       -0.13676204 -0.20212571 -0.46504146 0.15331268
000350 ab 96 6d 3e 2f 08 f8 be 85 70 66 be c2 c2 8b 3e
       0.23202007 -0.48443744 -0.2250386 0.27297026
000360 c8 c7 c9 3e 14 a7 0a be 3e c2 58 3d 00 6b f9 bd
       0.39410233 -0.13540298 0.05291962 -0.12178612
000370 34 55 16 be 1f 93 9b 3c e4 f3 31 be 94 ae 27 3e
       -0.1468094 0.018991051 -0.17378193 0.1637519
000380 1e ae 9c 3e 5e dd 86 be 31 8b 89 3e aa 06 ef bd
       0.3060159 -0.26340765 0.26864007 -0.11671193
000390 a6 ed 56 bd 4c 58 c2 be 31 6e 83 be 68 b0 35 be
       -0.052472733 -0.3795799 -0.25670007 -0.17743075
0003a0 f2 5f 1f be 79 e6 90 3e 5c 54 b2 3e 96 79 a7 be
       -0.15563944 0.28300837 0.34829986 -0.3270995
0003b0 65 66 3e be a2 7f 59 3e 70 64 b5 bd cc df 88 be
       -0.18593748 0.21240094 -0.088570476 -0.26733243
0003c0 a2 0f c7 be 31 21 20 3e 02 cf b6 be 2a 5c 27 be
       -0.38879114 0.15637662 -0.3570481 -0.16343752
0003d0 2c 01 af 3d eb 38 17 be 7a 64 a5 bd 61 b7 1b 3d
       0.085451454 -0.14767806 -0.08075805 0.03801668
0003e0 87 ca 4b be 4b f7 38 bd 75 1a 2d 3d c9 ae ce be
       -0.19901477 -0.045157712 0.04226156 -0.40367725
0003f0 fc 14 47 3e 83 e7 14 3e 73 2c ee 3d a4 76 96 be
       0.19441599 0.1454144 0.11629572 -0.2938739

v.net.2.bias f4 [64]
000000 5e e1 35 3d df 0c d2 3e af d7 f8 3d 4a 85 34 bf
       0.04440438 0.41025445 0.121505134 -0.7051588
000010 98 63 85 3e 01 11 64 3e 0b 3e e7 3e 93 72 fc be
       0.26052547 0.22272111 0.45164523 -0.49306163
000020 50 5f 9d 3e 2c a8 16 bf 34 88 0b 3f ef f2 11 3f
       0.3073678 -0.5885036 0.54504704 0.5701131
000030 61 01 f7 3e b3 39 8f be 75 80 b3 be 1d fd d5 3e
       0.4824324 -0.2797371 -0.35058942 0.41794673
000040 cb db a6 3e e3 4c 1d 3f b7 8f 32 bf 7b 21 d6 3e
       0.32589564 0.61445445 -0.6975054 0.4182242
000050 6f 60 26 3f 80 ea 42 3f f9 f9 0a 3f 62 b5 1a 3f
       0.64990896 0.7613907 0.5428768 0.6043302
000060 54 0e 1b bf ee d0 22 3f 95 40 db be e5 2b 12 bf
       -0.6056874 0.6360005 -0.4282271 -0.5709823
000070 5b 59 37 bf a7 1b 17 bf 78 ad dd 3e ad f1 1e bf
       -0.7162072 -0.5902657 0.4329641 -0.6208752
000080 8a da e1 3e 5b 9a f7 be fb 4a 8c be f0 7b e6 3e
       0.44112045 -0.4835995 -0.27400956 0.45016432
000090 fc 5a 48 3f fa ed 0d 3f d1 0c 37 bf b2 46 32 3e
       0.7826383 0.5544125 -0.7150393 0.1740978
0000a0 04 ef f9 3e 7d fe 09 bf b7 52 49 bf a5 70 e2 be
       0.48815167 -0.53903943 -0.7864184 -0.44226566
0000b0 67 73 ea 3e ff 2f 8d be 98 f1 d2 3e 7e 85 96 be
       0.4579117 -0.2757568 0.41199946 -0.2939872
0000c0 5a 4f 52 3f d8 ed f1 3e b2 3a 81 3e 51 ff 8d be
       0.8215233 0.47251773 0.25240093 -0.27733853
0000d0 f9 d9 b3 3e 5b 06 c5 be 06 49 95 3e 02 7b b9 be
       0.35127237 -0.3848141 0.29157275 -0.3622666
0000e0 49 c6 5a 3f c8 90 b5 3e 8d 94 15 3f a4 f2 31 bf
       0.8545881 0.35462022 0.58429796 -0.69510865
0000f0 ba 69 0c 3e 9c ab c4 be e4 3d c8 3e 3b 45 dc 3e
       0.13712206 -0.38412178 0.3910972 0.4302157

v.net.4.weight f4 [1, 64]
000000 52 83 07 bf 76 be 9b bd 8a 60 39 bf f3 aa 35 3e
       -0.52934754 -0.07604687 -0.7241293 0.17740993
000010 02 a8 16 be b9 4c da bd 08 20 08 be 6f 0d f6 3d
       -0.14712527 -0.10659165 -0.13293469 0.12014281
000020 32 2a 5b be 4d de 1c 3e db 42 bd bd 44 ad 16 be
       -0.21402815 0.15319176 -0.09241267 -0.14714533
000030 4d 56 b8 bd 23 06 7d 3d 07 30 9f 3d 61 b0 e7 bd
       -0.090008356 0.06177343 0.07772832 -0.113129385
000040 f9 54 0b be 41 15 9a bd ab a0 0d 3e 6f 14 ef bd
       -0.13606633 -0.07523585 0.13830821 -0.11673819
000050 8d cd 26 be 59 01 4c be c0 ca c4 bd e5 a0 21 be
       -0.16289349 -0.19922389 -0.09608984 -0.15784033
000060 7b 2d 0a 3e c0 7e be bd 11 b2 3a 3e d0 09 e4 3d
       0.13493912 -0.093015194 0.1823199 0.11134684
000070 98 db 17 3e 4c e2 cf 3d 60 c4 e3 bd b7 6e ae 3d
       0.14829862 0.101505846 -0.1112144 0.08517211
000080 e4 8a e0 bd e8 e6 4b 3e 71 92 c3 3e 52 85 90 bd
       -0.10963991 0.19912302 0.38197663 -0.07056679
000090 e3 57 a2 be 5d 27 50 be 57 60 0e 3e b2 be c5 bd
       -0.31707677 -0.20327516 0.13903938 -0.09655513
0000a0 9d 39 59 be a9 52 d0 3d 21 10 31 3e eb b5 2d 3e
       -0.21213384 0.10172016 0.17291309 0.16963927
0000b0 3c ae 04 be 21 4c a7 3d ca cd 8d bd d4 ce 8d 3d
       -0.1295709 0.08168817 -0.06924017 0.06924215
0000c0 e4 03 52 be 4d 2f e5 bd 19 14 b5 bd 0a 34 85 3d
       -0.20509297 -0.111906625 -0.08841724 0.06504066
0000d0 05 86 e3 bc f6 96 86 3d 4b 16 b7 bd 79 17 af 3d
       -0.027773866 0.06571762 -0.08939799 0.08549399
0000e0 b8 fa 43 be b7 1b 78 bd c8 ff a6 bd 28 0f 27 3d
       -0.1913861 -0.060573306 -0.08154255 0.04078594
0000f0 6f 89 08 be 7c 1e 20 3e a3 f9 c1 bd ce e5 d9 bd
       -0.13333677 0.15636629 -0.094714426 -0.10639535
