experiments/07_control_structure_hypothesis/checkpoints/AttitudeRate/ppo/2021-12-14__18-47-54/seed_00067/torch_save/model.pt (torch, 82448 bytes, 19 tensors)

obs_oms.mean f4 [40]
00000000: 9a4d 7a3e d17f 05bb 3c51 813f fcc3 453a
00000010: 5403 2cba 42a4 383d d08e 7e3f f6f0 963b
00000020: 3e40 9abb 6268 a5bb d484 bebb b57f e53b
00000030: 4e83 803d 672f f03b e7ee 6f3b 2aa0 28bc
00000040: 37a5 093f a13f 6cbb 4639 7839 31fe ce3d
00000050: c059 7a3e 1da3 08bb 6c4f 813f e187 3f3a
00000060: 27f9 28ba 538b 393d a090 7e3f 2e1f 993b
00000070: d2fc 9cbb d15d babb bb28 d0bb 6cfd e93b
00000080: 748c 813d 53c5 ef3b 42a0 703b 47b6 27bc
00000090: ea98 093f f89c 94bb 6e52 97b8 96bb cc3d
0.24443665 -0.0020370374 1.0102916 0.00075441576 -0.0006561775 0.045078523 0.99436665 0.0046063615
-0.0047073653 -0.005047844 -0.005814174 0.0070037493 0.062750444 0.0073298695 0.0036610903 -0.010292092
0.5376772 -0.0036048668 0.00023672459 0.10107077 0.244483 -0.0020849176 1.0102363 0.00073063193
-0.0006445818 0.045298886 0.9943943 0.0046729064 -0.0047908807 -0.0056874533 -0.0063525117 0.007140806
0.063256174 0.007317224 0.0036716615 -0.010236329 0.53748953 -0.0045353137 -7.215595e-05 0.09996717

obs_oms.std f4 [40]
00000000: 0c31 343e 5160 353e 074c 363d 9404 5b3d
00000010: 9e40 5b3d a867 7b3d 1afe a93b 03fb bd3e
00000020: cefd c03e 16e2 303e 0f3f 163f d003 1e3f
00000030: 0fb7 873e 3f26 543d 8f94 503d 5a4c 363d
00000040: 78a6 703f 5caa 163f 4441 233f 8278 f93e
00000050: d461 343e e593 353e bb04 383d 8def 593d
00000060: 9a4d 5a3d 69a9 7a3d 6d15 a93b bde3 be3e
00000070: 34f1 c13e bb45 343e f857 163f 421a 1e3f
00000080: cf99 873e aec9 573d 0841 543d df04 383d
00000090: 1fa4 703f 99f2 153f 595d 223f 164c f93e
0.17596835 0.17712523 0.0445061 0.053471163 0.05352842 0.06137815 0.005187762 0.3710557
0.37693638 0.17273745 0.5868997 0.6172457 0.2650685 0.051794287 0.050922927 0.04450641
0.9400401 0.588537 0.6377146 0.48724753 0.17615443 0.17732199 0.044926386 0.05320697
0.053296663 0.06119672 0.005160025 0.37283126 0.37879336 0.17604725 0.5872798 0.61758816
0.26484534 0.05268257 0.05181983 0.04492652 0.9400043 0.585733 0.6342369 0.4869086

pi.log_std f4 [4]
00000000: 4352 90c0 4352 90c0 4352 90c0 4352 90c0
-4.5100417 -4.5100417 -4.5100417 -4.5100417

pi.net.0.weight f4 [50, 40]
00000000: 17ed 183e 4b53 4dbd 111b a63d e932 afbc
00000010: 92f8 afbd ddf5 fcbc e537 a63d 1964 0b3e
00000020: 1245 4a3d 7235 a4bd ba25 6f3e 8817 ffbd
00000030: 660e 12be 8708 d7bd 34ba f9be df4d fd3d
00000040: d22b 99bd f797 ebbd 5669 41be 48de df3b
00000050: 4660 a43d f0fc 88bd c5ab 11be d621 443d
00000060: aa84 bfbd 34b4 cebd f9c4 2abe 14ba 023e
00000070: 3ad0 503e 5f24 c3bd 006f 1a3e 4e07 20be
00000080: 0353 fc3d c5b1 c1be ab52 a4be da88 ff3d
00000090: 15b0 8b3b 7ffa e03d 1559 cebd cc3f 933d
000000a0: e493 28be eb22 673e 0ce6 273e fe4d 1a3e
000000b0: 078d 9dbe 1a59 5e3d ca2c 183e bfc0 a2be
000000c0: 428c 87be d108 21bd eb17 7b3e 1207 293e
000000d0: db18 96be 8e03 13be f0d5 9b3e 8bf8 f4bd
000000e0: aa73 5e3e 21e7 4bbc 4cbf 12be b916 363e
000000f0: 8563 d0bd 3c0e 213d c826 283e 7dfe 3a3e
00000100: 9a01 e2be 116f ae3d 6086 c43d 8f4f 8dbe
00000110: a4b7 86be 4e1a 6bbc 6b23 a23e 42b7 d3be
00000120: ea66 7ebe a75d b03c d822 bd3e c009 d73b
00000130: 9998 9d3c a5fb 0d3e 555a 1f3d a000 7cbe
00000140: 6d01 1b3c fdf4 5a3e f34c c33d cb2f a63e
00000150: 62b8 993d 8d02 b7bb 05dc cf3d 2eec 6cbe
00000160: 39a1 93bd 4829 09be 562b ba3d 68ac 2a3e
00000170: c646 a1bc 88c9 a33e b4f8 f0bd edad 8b3c
00000180: 5353 c63e 7587 88bd 1e11 6abd 42d9 b3be
00000190: 17a8 1d3d 4f30 2f3e db2e 7ebd 2437 0d3e
000001a0: c5de a63d 738a 5dbe 84ee df3d 9f84 e6be
000001b0: 71a4 323d 49b3 5ebe 21b1 babd d639 3bbd
000001c0: 40f6 9c3c 69b3 6c3e 66f5 50be c51b 88bd
000001d0: b321 bf3d 00ac 96be f689 123d 13bc cfbc
000001e0: b47a 993d fad6 3f3e 955f f2bc a50a dc3d
000001f0: 7480 553e 43d4 57be 7efe 3fbe b449 4b3e
00000200: d9b3 bcbe e4d4 fa3d 5294 003e 1095 fd3d
00000210: 74bd f2bd 60db 553e 9761 1f3e 3692 bc3d
00000220: 6e0e 283d 3004 5f3e 54b4 84bb 2533 033e
00000230: 1a17 1abe 27df 563d 1f4d bf3d f9e8 103e
00000240: 1578 b4bb 2011 cfbd 1437 7dbe e035 303e
00000250: 8ab3 64be 6f61 33be 88c0 e73d bea3 07be
00000260: 043b 43bd fe7c 65bd 7b65 223e 9134 b83c
00000270: f727 ef3c 7a42 70bb 5e87 1fbe 46b9 183e
00000280: a37e 5dbe 869d a13d 9114 3ebe 9594 fdbd
00000290: 7e20 ac3d f63e 04bc 4b9e dd3b a84f 6fbe
000002a0: fb98 50bc 5d11 fbbe d976 37be d792 84bd
000002b0: d10f 54bd 5b15 25be 8c70 c8bd 6076 833e
000002c0: 7d6b 58be bddf 02be 0546 b7bd 5ffb 013e
000002d0: 7c62 86bd 7e68 663e d254 91bd 8975 91be
000002e0: f606 03be d7dd 2ebe 99a0 48bd db1c 74bd
000002f0: 3d51 bcbd 38bc 04bf 8dfe 63be 11dc 8d3e
00000300: c3b5 993c 045d 03be c02a 583e 123a 903e
00000310: 68a7 28be af40 8cbc 12c6 f63d 5e35 93be
00000320: 13c5 f0bc 57de 373d c366 cfbc 4bf8 8cbd
00000330: a3ce 1abe bc74 04be 5dd6 b2bd 77eb eebd
00000340: 1881 31bc d878 5cbc 8e5a b5bc edc4 673e
00000350: 18db 00be 86fa 5abe 288f a9bd 626b 9dbd
00000360: e468 343d 087c 113d 269b c3bd 6a42 be3e
00000370: 5741 963d ff21 313d d0a7 723e 3057 1bbe
00000380: 1076 e1bb 349e 93bb 7d11 e03d 18b5 0c3e
00000390: a51f 633b a245 743d 960e 873e a60b be3d
000003a0: c642 f63d 4ed0 3abd dee7 d7bd 1e97 93be
000003b0: d7d9 e23d f353 2abd 22b4 0d3e c716 463e
000003c0: 2253 923d 563e c3be 665d e33d 19d3 793d
000003d0: 184b 953e b701 a33d dafa 793e 5c80 b53e
000003e0: 9998 a23c e505 973e 91a2 dcbc 08f3 e4bd
000003f0: e4fc 0a3c 5449 76be df6a febd 36e4 74bd
0.14934193 -0.050128262 0.08110631 -0.02138658 -0.08592333 -0.030878955 0.0811613 0.13612403
0.049382277 -0.080180064 0.23354235 -0.1245566 -0.14263305 -0.10499673 -0.48774874 0.12368368
-0.07479061 -0.11503594 -0.18887839 0.006831918 0.08026175 -0.06688869 -0.14225681 0.04788383
-0.093514755 -0.10092965 -0.16676702 0.12766296 0.20391932 -0.095284216 0.15081406 -0.15627787
0.12320521 -0.3783094 -0.3209432 0.12477274 0.004262934 0.10985278 -0.10075585 0.07189903
-0.16462666 0.22571914 0.1639635 0.15068814 -0.30771658 0.054284193 0.14860836 -0.3178768
-0.26474196 -0.03931505 0.24520843 0.16506603 -0.29315838 -0.14356825 0.3043666 -0.11961468
0.2172381 -0.012445242 -0.14330786 0.17782106 -0.10175232 0.039320216 0.16421044 0.18261142
-0.44141847 0.08517278 0.095959425 -0.2759976 -0.26311982 -0.014349533 0.31667647 -0.41350752
-0.24843946 0.021529032 0.36940646 0.0065624416 0.019237803 0.13865526 0.038904507 -0.24609613
0.009460789 0.21382518 0.09536161 0.32458338 0.07505871 -0.005585021 0.10149387 -0.2313697
-0.07208485 -0.13394654 0.09090297 0.1666733 -0.019687068 0.31989694 -0.11766186 0.017050708
0.38735446 -0.066664614 -0.05714523 -0.35126692 0.03849038 0.17108272 -0.062056404 0.13790566
0.08147959 -0.21634845 0.10934165 -0.45023057 0.043613855 -0.2174808 -0.09115816 -0.045709454
0.01916039 0.23115315 -0.20406112 -0.066459216 0.093325995 -0.294281 0.0357761 -0.025358235
0.07494107 0.18734351 -0.029586593 0.10744218 0.20849782 -0.21077065 -0.18749425 0.19852334
-0.36855963 0.12247637 0.1255658 0.12381947 -0.118525416 0.20884466 0.15564571 0.09207575
0.041029386 0.21778941 -0.004049817 0.12812479 -0.15047875 0.05245891 0.093408816 0.14151372
-0.005507479 -0.10110688 -0.24728042 0.17208052 -0.22334114 -0.17517637 0.11316019 -0.13246056
-0.047663704 -0.056027405 0.15859024 0.022486003 0.029193861 -0.0036660717 -0.15578982 0.14914426
-0.2163034 0.07891373 -0.18562533 -0.123818554 0.08404635 -0.008071652 0.0067632548 -0.2337023
-0.012731786 -0.49036685 -0.1791643 -0.0647332 -0.051772896 -0.16121428 -0.097870916 0.2567625
-0.21134754 -0.12780662 -0.08948902 0.12693547 -0.06561753 0.22500798 -0.07096256 -0.28409985
-0.12795624 -0.17076813 -0.048981283 -0.05959783 -0.091951825 -0.518497 -0.22265072 0.2770696
0.018763429 -0.12828451 0.21110058 0.28169304 -0.1647011 -0.017120687 0.12049498 -0.28751653
-0.029390847 0.044889774 -0.025317555 -0.068832956 -0.15117888 -0.12935156 -0.08732293 -0.11666005
-0.010834001 -0.013456546 -0.022137906 0.22633715 -0.12583578 -0.2138463 -0.08279258 -0.07686497
0.044045344 0.035518676 -0.095510766 0.37160045 0.07336681 0.04324531 0.23696828 -0.15169978
-0.006880529 -0.0045049433 0.109408356 0.13740957 0.0034656313 0.05963672 0.26378316 0.092795655
0.12024455 -0.04560881 -0.10542272 -0.2882623 0.11076706 -0.041583966 0.13838246 0.19344626
0.071447626 -0.38133496 0.11101799 0.060992334 0.29158854 0.079593115 0.24412099 0.35449493
0.019848155 0.29496685 -0.026932986 -0.11179167 0.008483145 -0.2405141 -0.12422728 -0.05978795

pi.net.0.bias f4 [50]
00000000: 133f a1bd fd98 bc3d 1d84 b83d 7797 743e
00000010: 717d 703d c38a 6fbe 8c2b 9b3e a51f c6be
00000020: 2714 3dbc a695 c93d b3a9 9a3d 1070 e23e
00000030: b17a 863e 45c4 22be f541 38be 7bbc 6cbe
00000040: 5460 2a3d b62d b23e 50bf 3a3e 3e01 90bd
00000050: 98ab d23d cc3a a5be a8c5 863a 4b59 ac3d
00000060: 4d63 313e cc49 683d ccc0 473e 457e 383e
00000070: 1d52 4f3d 8cb7 fa3d f694 9f3e e8de e9bd
00000080: a2f4 3bbe b518 e23e e50a 5d3c 4bb8 233e
00000090: 97b7 b8bd 538d 883e 903e ae3e 3480 0ebe
000000a0: 702d 283e 91ac 923e 30c9 433e 2e0e 613e
000000b0: 9f42 633d 9563 82be 9312 433e c879 243d
000000c0: 5d28 913d e636 463e
-0.078733586 0.09208868 0.090095736 0.23885904 0.05871338 -0.23392777 0.3030666 -0.38696018
-0.011540449 0.09842996 0.07551899 0.44226122 0.2626548 -0.15895183 -0.1799391 -0.23118775
0.041595772 0.348005 0.18237042 -0.07031487 0.10286635 -0.3227142 0.0010282295 0.08415469
0.17323036 0.056711003 0.1950714 0.18016918 0.05061542 0.1224204 0.31168336 -0.11419469
-0.18355039 0.44159475 0.013491367 0.15988271 -0.09019392 0.26670322 0.34032106 -0.13916093
0.16423583 0.28647283 0.19119716 0.21978065 0.055483457 -0.254666 0.19050054 0.040155202
0.07087777 0.1935688

pi.net.2.weight f4 [50, 50]
00000000: 027d 66be a1aa 9c3e 804a 12be fc1a 943d
00000010: bd04 a33b a8d1 00bd a14e 22bd 19f9 a83a
00000020: 2885 ce3c 6eeb 6d3d 5e09 833d b8f1 ce3d
00000030: b39a e8bd 97d0 d73d 52b3 5cbe 56ff e33d
00000040: fd94 4d3d 8934 46be cd83 b0be bcf8 b5be
00000050: 0b51 b63e 95f8 813d 9122 5c3e 8eb8 92be
00000060: 6c5e 373d 453c 1fbc fcfb 6cbd cdfb aabd
00000070: f41b 0c3d 604e 2fbe 766f 603d 8981 c3bd
00000080: 4a03 71be 76e3 29be b416 ad3c 3093 09be
00000090: ec6e 93bd d2af 823d 22b3 1fbe 6039 23be
000000a0: 498f bf3d 4f48 c63d e506 8bbd 6d0a 65bd
000000b0: 7bda 76be 0f0c 10bd a011 0cbe c6cd d3bd
000000c0: 3068 6ebe a5f3 d3bc be03 ad3d 15f5 86bd
000000d0: 9546 c43d 6554 353e 37de c23c 9576 f5bc
000000e0: e2cc 9c3e b2fd 553e e24f 133d ab1b 603d
000000f0: 3777 3abe 7538 ac3d c843 b5ba f6b8 b4bd
00000100: 28b9 c4bd ae47 93bc bf84 09be 00f7 af3b
00000110: a3c2 433e b789 d43d 312b c6bd 5a98 08be
00000120: 7e4b cb3c 7b4c 3abe 5037 4bbd fe35 ebbd
00000130: a491 403d b233 ed3d df87 e9bd 73eb 5d3d
00000140: b504 c7be bc86 923e f2a3 563d 5064 b6bd
00000150: b95b 9f3d 69ba ee3b 9742 0a3d 161e f33d
00000160: ba41 793d 6597 f23d 9517 793b e28e 083e
00000170: ef7c c53d 7d8e 4a3e 1e5c 4e3e ff62 1c3e
00000180: 679f af3c a260 c1ba b255 1bbd 429c 2f3e
00000190: acad dbbd 8100 45be 6b2a 223b f52d 593e
000001a0: 67e8 44bd ac02 74bc bb7f 613e 1790 7abe
000001b0: f717 21be c1a0 083d 1293 1bbd 09a5 f3bd
000001c0: dd51 693e 8867 b7bd 5cf2 7a3e a715 1abe
000001d0: 9e14 5c3d 0c52 a4bd 0958 bfbd 1d18 99be
000001e0: 3960 dabe a63b 47be 6e91 7bbd 0b21 333e
000001f0: becf 583d badf e83d 96e0 623e 81ac 4dbd
00000200: 6134 1b3d a831 0cbe b555 6e3b fd1f f6bd
00000210: be83 0bbd 7bd6 3e3e 2bac a6be dff0 dd3c
00000220: eab9 1f3e 16fd 363e eb77 f93d 8061 383e
00000230: 9ce2 e33c 4465 493e b01c 063d b744 84be
00000240: 8591 f4bd 52b7 a63d fd0e 9fbc 34eb 503e
00000250: 2726 f13d 8eaa 10be 6c38 d33d 585a ee3d
00000260: b619 8d3d b5fb c2bc 7ac8 34bd 76b9 263e
00000270: dcf9 d8bd 265b 323e 56fc b83d 4afa 6bbe
00000280: 3732 993e 8ba9 90bd 6294 ebbd f9fc 0cbe
00000290: 5c94 293e c660 8e3e 95b2 a8bc 834c 6abe
000002a0: 96bc 9c3d a303 763e 9cee 763e bde5 833e
000002b0: 239a 0bbc d4d9 18be 1f6f 4dbe b060 243d
000002c0: 5fd0 c03c bc75 f03d a3cf a33d 982d 41bb
000002d0: 0242 9d3e 3d8f 343d 7c77 cfbd a428 103e
000002e0: 8375 633d bece aa3c fc95 29be de37 d2be
000002f0: 20ef 413d 8983 d43d aca5 1e3e 90b2 a6be
00000300: d1d1 72be 177c 79bd bcd9 c1be 05a8 6f3e
00000310: ff4e fcbe 862f 15bd 7eec 643d 8eab b33c
00000320: 852b f8bd 3537 313c e448 803d f67a d23d
00000330: 6b69 cfbc 4b2b cc3d 0839 3b3d ac06 92bd
00000340: 4c78 da3c 8b39 af3d 806a 96bd 014b 203c
00000350: 7610 ae3d e287 debe b1d9 f03d 2b26 2abd
00000360: 1bb3 4bbd dc67 f8bc c924 933d 6f36 5e3c
00000370: 179f 423e 3394 ef3d 49e5 353e 889a 1fbe
00000380: 007e ef3c 2a23 543c f684 91be b4b9 343d
00000390: 01cf 13bd e6f2 783e 6996 42bd d364 0f3e
000003a0: d18c ea3d 282b 823e dec9 9bbd 4907 80be
000003b0: 0381 c13d b007 1cbe 1ad2 fcbd 6a97 9b3d
000003c0: ad34 a2bc 2dc9 75bc 175b c1bb 69b1 d13d
000003d0: e026 ccbd fefe 433e 41e8 58be 577f 9a3e
000003e0: 0796 06bd 8bd8 22be 0d0a b83c c1d5 12be
000003f0: 67ab 853e 3849 acbc e221 193e dc12 b93d
-0.22508624 0.3059893 -0.14286232 0.07231709 0.00497493 -0.031449944 -0.039625768 0.001289162
0.025209978 0.05808585 0.06398271 0.10104698 -0.113576315 0.10537832 -0.2155278 0.11132686
0.050190914 -0.19355978 -0.34475556 -0.35541332 0.35608706 0.063462414 0.21497561 -0.2865643
0.044767782 -0.009718959 -0.0578575 -0.083488084 0.034206346 -0.17119741 0.054793797 -0.09546191
-0.23536411 -0.16590676 0.02112899 -0.13435054 -0.07198891 0.06381191 -0.15595677 -0.15939856
0.09353501 0.096817605 -0.067884244 -0.055918146 -0.24106781 -0.03516775 -0.13678598 -0.103419825
-0.23281932 -0.025873015 0.084479794 -0.065897144 0.09583775 0.17707975 0.0237876 -0.02996377
0.30625063 0.20897558 0.035964854 0.054713886 -0.1820954 0.08409206 -0.0013829404 -0.08824341
-0.09605628 -0.017978515 -0.13429545 0.005370021 0.19117217 0.103778295 -0.09676207 -0.13339368
0.02481627 -0.18193237 -0.049613297 -0.114849076 0.047013894 0.11582126 -0.114028685 0.05417962
-0.3887078 0.2861842 0.052402444 -0.08905852 0.077811666 0.0072854054 0.03375491 0.11870973
0.060853697 0.118452825 0.003800844 0.13335755 0.0964297 0.19780917 0.20152327 0.15272139
0.021438314 -0.001475353 -0.037923522 0.17149451 -0.10726485 -0.19238473 0.0024744521 0.21208937
-0.0480732 -0.014893215 0.22021382 -0.24469028 -0.15731798 0.033356432 -0.037982054 -0.11896712
0.22785135 -0.08955294 0.24506515 -0.15047322 0.0537306 -0.08023462 -0.09342963 -0.2990121
-0.42651537 -0.19456348 -0.06141799 0.17493074 0.052932493 0.113707975 0.22155985 -0.05021334
0.03789175 -0.13690817 0.0036367003 -0.1201782 -0.034061186 0.18636505 -0.3255323 0.027092395
0.15598264 0.17869982 0.12181076 0.18005943 0.027818017 0.19667536 0.032742202 -0.25833675
-0.11941818 0.08140434 -0.019416327 0.20402223 0.11774855 -0.14127561 0.10313496 0.116383255
0.068896696 -0.023801664 -0.0441365 0.16281685 -0.10594532 0.17417583 0.09032504 -0.23044696
0.29921123 -0.07063588 -0.11502911 -0.13768376 0.16560501 0.27808207 -0.020592967 -0.2288075
0.076531574 0.24024825 0.2411446 0.25761214 -0.008520636 -0.14926845 -0.2006192 0.04013127
0.02353686 0.11741206 0.07998588 -0.002947664 0.30714422 0.044081915 -0.10130212 0.14078003
0.05553199 0.020850535 -0.16561121 -0.41058248 0.047347188 0.10376651 0.15492886 -0.32558107
-0.23712851 -0.060909357 -0.3786143 0.23403938 -0.4927902 -0.036422275 0.0558896 0.02193239
-0.12117676 0.010816385 0.06263903 0.10277359 -0.025318822 0.09969195 0.045708686 -0.07130179
0.02666869 0.08555897 -0.07344532 0.009783507 0.084992334 -0.43463045 0.11760271 -0.041540306
-0.049731355 -0.030322962 0.071847506 0.013562783 0.19006 0.11698189 0.17763247 -0.15586293
0.029234886 0.012947837 -0.28421754 0.044122413 -0.036086086 0.24311408 -0.047506724 0.14003305
0.1145264 0.2542355 -0.076068625 -0.25005558 0.09448435 -0.15237308 -0.12344761 0.07597239
-0.019800508 -0.015001577 -0.0059007513 0.102389164 -0.09968352 0.1914024 -0.21182348 0.30175278
-0.03285792 -0.15902917 0.02246573 -0.14339353 0.26107332 -0.021031007 0.14954332 0.090368

pi.net.2.bias f4 [50]
00000000: 862a 36be a7a0 5c3d c969 383d 1209 f9bd
00000010: daa6 553d deda 743d 97fa da3d 063d 43bd
00000020: 0330 04be 211a 77bd 1491 9a3d fcb1 623d
00000030: e037 36bb 4bdf 4d3d dc1d 463d b65c 2e3e
00000040: 0ba2 bdbd 8f5e 9ebb 8bb5 f4bd bf5c 3abe
00000050: 8908 5abc f945 34bd 69e3 0a3e 10e9 ec3d
00000060: 638d 35bd 5ee7 75bd 218c 463e bc55 1b3d
00000070: c12a 8f3d 6046 01be 0e40 4d3d 6f19 f73c
00000080: 6e0e 27bc 1b59 7d3d 9be2 a53d 4253 5ebd
00000090: 0d9b fcbd 3f23 5c3e b106 2c3e c7d0 d53d
000000a0: fc2e ed3d 6e79 4cbe f24f 8bbd 7f56 753e
000000b0: 7595 93bc f27a 21bd 5e55 723c 17b6 a83c
000000c0: 2959 65be 7ab5 c33d
-0.17789659 0.053864148 0.04502276 -0.12159933 0.052161075 0.05977904 0.106923275 -0.04766562
-0.1290894 -0.060327653 0.07547203 0.05534552 -0.00278043 0.050261777 0.04836832 0.17027554
-0.09259423 -0.0048330496 -0.11948689 -0.18199442 -0.013307699 -0.044012044 0.13563313 0.11567891
-0.04432429 -0.060035102 0.19389392 0.03792356 0.069905765 -0.12624502 0.050109915 0.030163495
-0.010196311 0.061852556 0.08099862 -0.05427862 -0.12334261 0.2149782 0.16799428 0.10440212
0.11581227 -0.19968197 -0.06802358 0.23958777 -0.018015603 -0.03942389 0.014790861 0.02059464
-0.22397293 0.09556098

pi.net.4.weight f4 [4, 50]
00000000: 561b cc3d fbea b33d 130f c4bd 4939 98be
00000010: 167d 343e 8d60 023e ffbd 133e 8bd2 f1bd
00000020: 7ac2 5abe 20a4 afbe e65b 9abd 3701 ea3e
00000030: a133 97be fee3 273e fa67 37be 6f55 543e
00000040: e260 0c3e 3807 3db9 6bf9 5ebe ca92 d33e
00000050: cc67 933e bb2a 6dbe 5e66 4d3e af8d c4be
00000060: 97c5 e1be e9e1 bbbe 0c33 683e a1a3 c63e
00000070: cc62 d23e 1a32 8abe 4ba9 8ebd 3c59 a4bb
00000080: ec9a da3e b491 bebe 2494 01be f1f1 153b
00000090: 3ce1 07be 3736 b13e 3e15 aebd 5e24 fa3d
000000a0: 3947 5f3e 7e73 dbbd e2e1 14be 8ce0 d53d
000000b0: 2d2e 24be b2ed 973d 92a4 dcbe 69c9 cfbd
000000c0: 75c9 da3e 7927 bb3e eaba 143f b058 bcbd
000000d0: a8ee e53e dd54 84be 903f 3d3e 511b f53c
000000e0: 2618 1d3e 5e43 a3be 383b 9cbe 243f 203e
000000f0: 20df 913e c122 6abe db88 1b3e 8c94 83be
00000100: 5c97 ccbe 4495 c33d e986 67be 4739 44be
00000110: d8fe 363e 4f61 03bf 5b04 0c3d f595 4abe
00000120: d46b 93bb 5b66 2e3e 602f 94bd e8a0 be3e
00000130: d274 8f3e b4dd 53be f698 2dbe f0af 27be
00000140: d391 6b3e 5623 96be 23c3 09be 5b70 0abf
00000150: 0252 d93d c180 de3d 3464 99be 7ac4 18be
00000160: f6a9 593e 84bd a0bd bc87 fb3d 3e44 03bf
00000170: 0c71 403e 7d59 5dbe 0950 36be 31b7 c3bd
00000180: cbcf 0f3e 470a 963e 5bb9 393f 5a30 ac3d
00000190: 57d7 40bf d954 c8be 810b dcbe 25f2 e1be
000001a0: 31b0 61be f4dc 023f 5ed2 4ebe b834 b73c
000001b0: 837f 343e 0e0c adbe 8ac7 3abe b135 7a3e
000001c0: b7e5 46be 50d4 c4be 6117 1abf 4524 063e
000001d0: 6490 c33e c82d 933e 06c2 d73e c170 b4be
000001e0: 27d0 5d3e 6f23 08be 8325 873e b2c8 18bd
000001f0: cd1b d63e 3913 d6bd e1c6 65be d522 5ebe
00000200: 4877 f1be 0478 283f d7b6 fa3e 603e fd3d
00000210: 4340 90be f569 1abe ac30 da3d d8d5 f53d
00000220: 48d9 943e e63f 3dbe fdf5 b33e 49c7 a23e
00000230: aac9 c13c 50a9 813e 3e37 9b3e d88c bb3e
00000240: 73d7 563e aaf4 87be da3a 3fbe 1e5c 243d
00000250: aca4 d33e 63e5 d43d 5ef1 c5bd 76a1 8a3d
00000260: 75a4 9b3d d314 77be d722 47bd ebb0 bbbd
00000270: b9d1 e7be cecf aebd 3de0 053f d58f 08be
00000280: 3629 013e 9ca4 22bf ad85 d93e facc 7cbe
00000290: b210 de3c 63e7 8d3d bf17 2dbf 28ee c1be
000002a0: 01d8 18bf ab55 ccbd a81f 393e 1118 afbe
000002b0: 27b3 143e e438 903e aab5 a43c 6347 cdbd
000002c0: 723b 243e d4f9 803e 1b3e a8be 2071 82be
000002d0: 2df1 67be 31d1 dc3d 3c9c 833e ec45 51be
000002e0: 56e9 383e 605b 9b3e 9a03 7c3e 3a7d 263e
000002f0: 3548 24be 50ef 793e 10b5 fabd 2b97 01be
00000300: d2f4 50be c50b afbd 33ff 99be af37 493e
00000310: d0cc b03d bfb9 c63c ba42 f03c 63b7 c8be
0.099661514 0.08785053 -0.09573188 -0.29731205 0.17625841 0.12732144 0.14427947 -0.11807736
-0.2136325 -0.34304905 -0.075370595 0.45704052 -0.29531577 0.16395566 -0.17910758 0.20735715
0.13708833 -0.00018027134 -0.21774833 0.4132293 0.28790128 -0.23160832 0.20058581 -0.38389346
-0.44096062 -0.36695793 0.22675723 0.38796714 0.41091 -0.2699135 -0.06965884 -0.0050155204
0.4269632 -0.37220538 -0.12654167 0.0022879804 -0.13269514 0.34611675 -0.085001454 0.12213968
0.21804513 -0.10715388 -0.14539292 0.104432195 -0.1603324 0.07418384 -0.43094307 -0.10145838
0.42731825 0.36553553 0.5809771 -0.09196603 0.44908643 -0.25845996 0.18481278 0.029920252
0.15341243 -0.31887335 -0.3051393 0.15649086 0.28490543 -0.2286482 0.15188925 -0.2569927
-0.39959228 0.095499545 -0.22610058 -0.19162475 0.17870653 -0.51320356 0.03418384 -0.19783767
-0.004498938 0.17031233 -0.072355986 0.37232137 0.28018814 -0.20690042 -0.16952881 -0.16375709
0.23004846 -0.29323834 -0.13453345 -0.5407769 0.10611345 0.108644016 -0.2995926 -0.149187
0.21256241 -0.07848647 0.12281749 -0.51276004 0.18793124 -0.21616168 -0.17803968 -0.09556425
0.1404411 0.29304716 0.72548455 0.0840766 -0.7532858 -0.39127234 -0.42977527 -0.44130054
-0.22039868 0.511184 -0.20197436 0.022364005 0.17626767 -0.3379826 -0.1824018 0.24434544
-0.19423567 -0.38443232 -0.60191923 0.13099773 0.381961 0.28745866 0.42140216 -0.35242274
0.21661435 -0.13294767 0.26395807 -0.037300773 0.41818085 -0.10452885 -0.22439148 -0.21692975
-0.47161317 0.6580813 0.4896762 0.12365413 -0.28174028 -0.15079482 0.10653815 0.12003678
0.29072022 -0.18481407 0.35148612 0.31792668 0.023655731 0.25324488 0.30315584 0.36630893
0.20980625 -0.2655385 -0.18674794 0.040126912 0.41336572 0.103953145 -0.09665178 0.067690775
0.07599727 -0.24129038 -0.04861721 -0.09164604 -0.45277193 -0.08535729 0.52295285 -0.13336118
0.12613377 -0.63532424 0.424848 -0.24687567 0.02710757 0.06928899 -0.6761436 -0.3787701
-0.59704596 -0.09977277 0.18078482 -0.3419805 0.14521466 0.28168404 0.020106155 -0.100233816
0.16038302 0.25190604 -0.32859883 -0.25476933 -0.22650595 0.107820876 0.25705135 -0.2043683
0.1805776 0.3034315 0.24610749 0.16258708 -0.1604317 0.24407697 -0.12241566 -0.12655322
-0.20405892 -0.08547167 -0.30077514 0.19650148 0.08632815 0.024258493 0.029328693 -0.39202413

pi.net.4.bias f4 [4]
00000000: 3990 edbd cc83 e4bc cf6d a2bd 49fb 08bb
-0.11599774 -0.027894877 -0.079311006 -0.002090173

v.net.0.weight f4 [64, 40]
00000000: 3b1e 833e df9c 34bf 8989 d9bc 0091 bcbe
00000010: 57f5 473e 80ed 12bd 0572 be3b ef67 d13e
00000020: fc3d be3e 991a a1bd 1c7b fe3d 44f0 c7bd
00000030: c682 68bd 5a1f bf3d 5a1d 9dbe adb4 333e
00000040: 48da 3dbd 6c30 f1bc 13e4 be3d 94b7 6f3d
00000050: bdf3 7a3e b420 70bf 5b80 e0bd 5115 edbe
00000060: b57d 533e e8d5 f63b d994 1f3e d779 f03e
00000070: e879 a03e d56c a6be 2082 42be 318e 753e
00000080: 5377 29bd 7782 ac3d bc40 d6be a46a da3c
00000090: 8c45 2ebd 14b0 cbbc 88e9 a23d 2bec a93b
000000a0: 10d0 63bf e7af b4be 0d57 023e 2e26 64be
000000b0: b345 0c3f 1674 3a3c 3297 8fbc 4db0 5d3f
000000c0: cecc 803d 6e14 b93d 802a b33c bdc8 40be
000000d0: d6e8 0e3c 5627 5abf 02e4 9abe e906 e33d
000000e0: 34ba 733d 2a34 bdba 7518 99bc 7f08 98bb
000000f0: 79bf 90bf 48b0 17be acab 963d c803 21be
00000100: 61bf 2f3f 9e24 7dbd 0259 24be 73f1 843f
00000110: dcd4 fdbc 6cf6 cbbc d816 ddbd a0d3 a13e
00000120: 9d9e 00bd 1f98 62bf dd76 9dbd 94ea 423e
00000130: 4ad4 cd3d f00b 77bc fad8 bb3b 6cf5 fb3c
00000140: 02dc d1bd 0e8d 513f df29 2dbe 050b 58be
00000150: 3a8a 2e3e a7b4 bd3d b8f2 193d 7717 763e
00000160: 3acb ed3e d3ec d9bd 8150 e43d 8c59 953d
00000170: f9be 92bc ec28 86be 7327 aabc 8fea 45bd
00000180: c459 12bc a066 4bbd 8ba0 163d 5fa5 7e3d
00000190: f9a8 51bd 53e6 413f d759 69bd 27e2 9ebe
000001a0: ba8b 3c3e 053e ea3c 12d0 3abe a0a0 7a3e
000001b0: 1243 1b3f 2b27 04be 3676 b2bd 3170 ce3d
000001c0: 31ad 283c 4e19 93bd ef31 79be 29e2 813d
000001d0: 6239 d4bd 02ef 86bd b5f4 603d 1364 9b3d
000001e0: 1e32 7b3e b730 133f 8eec 993c 1e81 67be
000001f0: 5e68 59be 60ec 013c 0459 7c3c 96b1 adbe
00000200: 7970 b93e 28c8 88bd 2349 393d 41ea 5f3d
00000210: a405 5d3c 6c33 673e 547c 153c 15b8 e8bd
00000220: 7684 4abc ca29 85bc 619c 633c 10cd 4dbc
00000230: 4739 7b3e 9846 fd3e 9900 07bd 17ea a2be
00000240: 076f 48be 56ba 513d c102 74be 8540 d4be
00000250: 7a90 b93e d0db b23c d6bb 94bd e62c 06be
00000260: 2fa7 ea3c ccbe 843e effd 1dbe edb3 0ebe
00000270: 1199 b1bc f1ca 6cbc 93c5 683c 0f11 8f3c
00000280: 4658 413e 15fd 83bf ce4b a8bd 776a f33e
00000290: 35d5 23be 76b8 863e 6a8e 0c3e 08a2 15be
000002a0: 7f48 b0bf 298d 063e 1185 38be 0e43 2dbc
000002b0: 7602 973d bf06 9f3d da8a dc3e 3066 9abc
000002c0: 0b9c 0b3d 07ae c13d 9d41 3abc 0e21 74bc
000002d0: 6e05 923e 56ed 88bf 6674 3d3d 5b60 063f
000002e0: 797c 86be 0361 3b3d 8987 903e 2d2c 68be
000002f0: 713a abbf 3e61 02bd 1de4 283e 4f8f 35be
00000300: 5fec 6a3d 15ff 93bd dd36 fb3e f2b4 e93d
00000310: 2ffb b03d 64cb c13d 7511 60bc 458e 573c
00000320: c9c3 4b3e d294 e1bd 9f8c e5bd cde6 ba3e
00000330: b223 99be 32b7 99bd 36c8 00be 9ade 9d3d
00000340: 436e 993e bf58 0bbb 7836 123e a2e0 f3bd
00000350: 5733 bb3a 9304 f1bb bfed 473e c576 64bd
00000360: 0fbe 0f3d f7fd 4fbd 22ba 943c 0db8 223d
00000370: bf87 543e c22d c0bc 5091 ec3d 44d9 353e
00000380: 8c05 efbd ea4a 8cbe 379f b6be f5aa de3d
00000390: 1070 273e 21e9 843d 1cf6 fbbd 3a76 883d
000003a0: 6f59 773c 84b8 773e 94c6 c9bb 8b97 4b3d
000003b0: 5d3a 6f3c 888f 6abd 3d60 92bc 8ff3 393d
000003c0: df99 ca3e 9384 c73e 81ed b0bc 0a8c f03e
000003d0: 9ee9 95bd bf74 a1bd 28b6 b33d 96cc 18bc
000003e0: 9a03 a8bf 477f f53c eca2 32be 6f82 a63d
000003f0: eb7b 1cbd b508 023e 96f2 d63e 73e9 733d
0.25609002 -0.70551866 -0.02655484 -0.36829376 0.19527183 -0.03587103 0.005811932 0.40899608
0.37156665 -0.07866401 0.12425825 -0.09762624 -0.05676534 0.09332152 -0.30686456 0.17549391
-0.046350747 -0.029442035 0.093208455 0.058524683 0.24507041 -0.937999 -0.10961982 -0.46305326
0.20653422 0.007532824 0.15584125 0.46967956 0.31343007 -0.32504907 -0.18994951 0.23980023
-0.041373562 0.08423322 -0.41846263 0.026662178 -0.042546794 -0.024864234 0.07954699 0.005185624
-0.88989353 -0.35290453 0.1272852 -0.2228019 0.5479385 0.011380216 -0.01752815 0.8659714
0.062890634 0.090371 0.021870852 -0.18826576 0.008722505 -0.8521627 -0.3025208 0.110853024
0.05950375 -0.0014435102 -0.01868842 -0.0046396847 -1.1308433 -0.1481334 0.073569626 -0.15724099
0.68651396 -0.0618025 -0.16049579 1.0386184 -0.030985288 -0.024897777 -0.10795373 0.3160677
-0.031401265 -0.8851337 -0.07688687 0.19034797 0.100502566 -0.01507853 0.0057326527 0.030756675
-0.10247041 0.8185586 -0.16910504 -0.21097954 0.17044917 0.09262972 0.03758499 0.24032389
0.46444112 -0.10640874 0.111481674 0.0729247 -0.017913328 -0.26203096 -0.020770764 -0.048319396
-0.008932535 -0.049658418 0.0367742 0.06216943 -0.051186536 0.7574207 -0.056970444 -0.31031916
0.18412676 0.028594026 -0.18243435 0.24475336 0.60649216 -0.12905566 -0.08713953 0.100799926
0.010295198 -0.07182561 -0.24335454 0.06341965 -0.103625074 -0.06588556 0.05492087 0.07587447
0.24530837 0.5749621 0.018789556 -0.22607848 -0.21231219 0.007929891 0.015402082 -0.3392455
0.36218622 -0.06678802 0.045235764 0.05466676 0.013490114 0.2257821 0.00912388 -0.11363236
-0.012360683 -0.016255278 0.013892264 -0.012561098 0.24533568 0.4946792 -0.032959554 -0.3181922
-0.19573604 0.051203094 -0.23829176 -0.41455474 0.3624304 0.02183333 -0.07262389 -0.13103065
0.028644172 0.25926816 -0.15428899 -0.13935824 -0.021679433 -0.014452682 0.014207262 0.017464189
0.1888133 -1.031161 -0.082175836 0.47542164 -0.15999301 0.26312608 0.13726202 -0.14612591
-1.3772124 0.13139786 -0.18019511 -0.010575069 0.07373516 0.077649586 0.43074685 -0.018847555
0.03408436 0.09457021 -0.0113681825 -0.014900459 0.28519768 -1.0697429 0.046253584 0.52490777
-0.2626684 0.045746814 0.28228405 -0.22673102 -1.337721 -0.03183102 0.16493268 -0.17730449
0.057354327 -0.072263874 0.49065295 0.11411466 0.086416595 0.09462622 -0.013676037 0.013156478
0.19898905 -0.11014713 -0.11208462 0.36504212 -0.29910046 -0.07505645 -0.12576374 0.077084735
0.29966936 -0.0021262614 0.1427859 -0.1190808 0.0014282268 -0.0073552816 0.19524287 -0.05577733
0.035093363 -0.05077931 0.018155161 0.039726306 0.20754908 -0.023459319 0.11551154 0.17758662
-0.1167098 -0.27400905 -0.35668346 0.10872451 0.16351342 0.06489778 -0.12302801 0.06663175
0.015097006 0.24191481 -0.0061577056 0.04970507 0.014601317 -0.05726579 -0.017868156 0.04539829
0.3957052 0.38968334 -0.021597626 0.4698184 -0.073199496 -0.07883596 0.08774978 -0.009326121
-1.3126099 0.029967917 -0.17444962 0.08130347 -0.038204115 0.12698634 0.41981953 0.059548806

v.net.0.bias f4 [64]
00000000: 9580 10bd 979a 9e3d 6230 45bf c9f2 d1bf
00000010: 0481 d53d f551 523f 60ea b4bc 89b5 633e
00000020: ae4b dbbe 1de6 323f 0cad df3e c286 3dbf
00000030: eb10 92bf e1f6 603f 85d2 67bf dab5 983e
00000040: 8fd3 6fbf 4eba 83bf 0561 d13f e358 5e3f
00000050: 96ce 17be e73e 713f 0e18 513e f46d 723f
00000060: b4fa dd3d 03ea 433f 5af8 943e ce23 24bf
00000070: 60af 4e3f 3ee6 813e fc15 36bf f067 303f
00000080: 56a0 2f3f eb1d afbf 47fd b3bf 515b 023f
00000090: 99f7 09bf 9df8 babf 327d 32bf fafb 6d3f
000000a0: 38f7 4bbf 1012 1cbd c039 f3bd 0de8 25be
000000b0: 35ad c1be 8c73 6fbf 47f3 cdbe 6de3 abbf
000000c0: e441 8f3f f7f7 b1bf c5fa c83e 38df 03be
000000d0: a42a 423f 3289 b73e d4da 2d3f c5ed ae3d
000000e0: a651 ccbf 8138 a53f d4ad 8a3e 768d 093f
000000f0: f91d d0be bf34 e43c 3643 0e3e cb48 45bf
-0.035278875 0.077443294 -0.7702695 -1.6402217 0.104249984 0.82156307 -0.022084415 0.22237219
-0.42831177 0.69882375 0.43686712 -0.7403375 -1.1411413 0.8787671 -0.905556 0.29826242
-0.9368219 -1.0291231 1.6357733 0.8685438 -0.148249 0.94236606 0.20419332 0.94699025
0.108388335 0.7652895 0.29095727 -0.64117134 0.8073635 0.25370973 -0.71127295 0.68908596
0.6860403 -1.3681005 -1.4061669 0.5092059 -0.5389343 -1.4607121 -0.6972228 0.9296261
-0.796741 -0.038103163 -0.11876249 -0.16201802 -0.3782746 -0.93535686 -0.40224668 -1.342878
1.1191983 -1.3903798 0.39253822 -0.1287812 0.75846314 0.3584686 0.6791203 0.08541445
-1.5962417 1.2907869 0.27085745 0.5373148 -0.40647867 0.027857183 0.13892826 -0.770642

v.net.2.weight f4 [64, 64]
00000000: dc88 c33e 7555 7c3e fe0e 50bd 5ed3 f3be
00000010: e131 403e fbb0 23be 45fa e43d 30a3 b5be
00000020: 3ad6 a33d 960a 82be f40a 283d 0020 a53d
00000030: 99b0 4a3d 311a e23d 121d ec3c 112a 6c3e
00000040: 3f76 663e 134c ffbd 307d d03e 3fde b5bd
00000050: 0693 f93e bf86 103a d32c 52be 6aa3 4fbd
00000060: da53 41bc aded 14be 5742 9c3d 9ead f6bd
00000070: de5e 1b3e 1011 c1be f62e 9ebe 2197 4bbe
00000080: ccc2 163d 0269 11be d3be 22bd 9925 8dbe
00000090: 49de 0b3e 1fc6 38be bc5c 173e 47dd 58bc
000000a0: 3bed 513e c1c2 03bd 4e08 84bd 6069 b93e
000000b0: bcf6 c6bd 566a fa3d 4100 d03b f0e5 833e
000000c0: dbd7 e3bd e7da 6d3d 5e69 09be 8b7d 0e3d
000000d0: 13e9 a73e d73e 593e 7ee8 023e 5f8a bf3e
000000e0: 1bd7 253e a63d 4f3e 8ecf 9bbe c594 9f3b
000000f0: 7399 1f3e 8dcf bfbd 93c0 51be 098d 033e
00000100: 067c 533e 02d1 cdbd 9605 3e3e 8502 073e
00000110: 5e46 82be ad53 7a3e ef54 7abb 2c1d 1d3f
00000120: ee1e fb3d 293f bb3c 6d1e 9dbe 89f9 a23c
00000130: d787 66bc 810f 523e 853a 793e 20b3 65be
00000140: a781 47be 787b fabd 59b3 bbbe fa17 e23d
00000150: ccc9 07bf 52b2 823d f02a b93e cd16 de3d
00000160: 3d03 f1bc 2bea 713e b728 85bd 6413 1e3e
00000170: 84cb 1fbd e76f d4bb f260 983e b169 4e3d
00000180: 27f7 53bd 7d69 aebd 8b13 bc3d bf89 aebd
00000190: f3ce 8dbe 6991 9b3d 30db f9bc f266 80bd
000001a0: 8eda 223e a01e f63d 8bf6 923e 4af2 45bf
000001b0: 2589 fc3d e6ae c2bd 3ae5 7c3e 37cd 2fbe
000001c0: 03d2 c43d 57fe 2f3e c718 073e ae87 ee3d
000001d0: 93a5 8d3e 0b1a 84be 3afc 9c3e 5302 abbe
000001e0: d5ba 943e 11a5 313e 3bf7 173e abfd 213e
000001f0: 5e2e 71be 9051 ab3e ba94 093f 8862 34bd
00000200: 38a9 b9bd 6ce8 973e 760a bcbd 5c31 11bf
00000210: d7bc b6be eb2e 2e3e 3e2d 93bd 0108 e1bd
00000220: fc51 de3b ab89 a63d 5ff9 b8bc cdef 8e3b
00000230: 0ffe 923d 2536 7f3e 9675 c8bd dbd4 4a3d
00000240: 8ad7 c33d e375 06bd d518 1c3e 4341 92bc
00000250: ceb0 d03c 0c9d 00be 5ca7 de3e 6b31 023e
00000260: c63f f2bd db40 f6bc 4ae3 8e3e 98b1 a0bd
00000270: a9aa b0bd facc 923e ddd3 a53d 1627 af3c
00000280: 4704 7ebe 30be 02be a788 7ebe f9f4 1bbe
00000290: d671 e0bd feff 30be df7e 1e3c fc5e b33d
000002a0: a138 803d 5abe 4e3c 36b1 403e 2284 813b
000002b0: bf3a 41be 24a1 b8bd 3f06 393d ccd3 0f3e
000002c0: 3dac 353b 981d 74be d73a 09bd ed91 753e
000002d0: dd92 e2bd 2d14 21be e930 dbbe 4ecd bfbe
000002e0: 48d4 833e 1b4d d53d 257b a4bd 4379 42bd
000002f0: eac8 d1be 6e68 6d3c 3181 063f 4232 aa3c
00000300: 49fb babd c21d f43d 5a53 bf3c c865 1fbf
00000310: 7579 a1be e738 b63c 2049 623e 5d78 f53d
00000320: 5a8f dabd 0716 e5bb f3e2 0bbe 2a2d 8f3d
00000330: 1df5 d5bc a4f6 033c df65 81be 4f93 623e
00000340: 438d 77be 83f4 c0bd 30f4 933e 7a5c 2dbe
00000350: 91cd 58be cc22 2cbe 73f2 f03e 39ae 4fbe
00000360: 7fe4 10be 940a b63c 40b5 b93e 2aa1 a5bd
00000370: 1443 81bd bbf6 b13d 424f 623e 29fd 2bbe
00000380: 645e acbc 7531 26be f62b 56be 78c0 643d
00000390: e3af 213e c401 05be ef06 393d 0f4e 0dbe
000003a0: 86f9 303e 4f7d 053e eb59 913e 8d63 fcbe
000003b0: 5522 a6ba 7bfe 9abd 8e38 473e e4b7 14be
000003c0: 03eb e3bc 0662 383e 4d48 163e 73b7 593e
000003d0: 951c c6bd f05a 78be e823 f8bc 068c d8be
000003e0: 6242 dfbe b2cd 133e 0e67 3a3d 2121 963e
000003f0: a95e 0abf 9ce2 eb3c 4c6a 833e 6a54 2fbd
0.38190353 0.24641974 -0.050795548 -0.47622198 0.18769027 -0.15985481 0.111805476 -0.35476065
0.07999845 -0.253987 0.04102607 0.08062744 0.049484823 0.11040152 0.028822456 0.23062922
0.22506045 -0.12465682 0.4072051 -0.08880281 0.48744982 0.0005513243 -0.20524912 -0.050692953
-0.011799777 -0.14543791 0.07629841 -0.120448336 0.15172908 -0.3770833 -0.30895203 -0.1988187
0.036806867 -0.14200214 -0.039732765 -0.27567747 0.13659014 -0.18044327 0.14781469 -0.01323635
0.20500652 -0.032168154 -0.064468965 0.36213207 -0.097150296 0.12227313 0.0063476865 0.25761366
-0.111251555 0.05807009 -0.134191 0.034787696 0.3279501 0.21215378 0.12784001 0.37410256
0.16195337 0.20238361 -0.3043179 0.0048700296 0.1558588 -0.09365759 -0.20483617 0.1284677
0.2065278 -0.10049631 0.18556818 0.13184555 -0.2544431 0.24445982 -0.0038197597 0.6137264
0.12261759 0.022857266 -0.30687276 0.019894378 -0.014070473 0.20513727 0.2433873 -0.22431612
-0.19483052 -0.12230581 -0.3666027 0.110397294 -0.5304229 0.06381668 0.3616557 0.10844193
-0.02942049 0.23624484 -0.06501906 0.15437084 -0.039012447 -0.0064830664 0.29761463 0.050393764
-0.051749375 -0.08516214 0.09183415 -0.08522367 -0.27696952 0.07596094 -0.030500025 -0.06269635
0.15903684 0.1201756 0.28703722 -0.7732283 0.12330846 -0.095060155 0.24696818 -0.17168127
0.09610369 0.17186867 0.13193046 0.116469726 0.27665386 -0.2580112 0.30661184 -0.3340021
0.29048792 0.17348124 0.14840405 0.15819423 -0.23552844 0.33460665 0.53742564 -0.04403928
-0.09065479 0.2966951 -0.09181683 -0.5671594 -0.35690948 0.17010085 -0.07186364 -0.10987855
0.0067846756 0.08131727 -0.022579847 0.0043620826 0.07177364 0.24922998 -0.09788053 0.0495194
0.09562595 -0.03282727 0.15243848 -0.017853385 0.025474932 -0.12559909 0.4348706 0.12714164
-0.1182857 -0.030060222 0.27907783 -0.07846373 -0.08626301 0.2867201 0.0809705 0.021380942
-0.24806319 -0.12767863 -0.24856816 -0.15230168 -0.109592125 -0.17285153 0.009673803 0.08758351
0.06260801 0.012618626 0.188176 0.003952519 -0.18870066 -0.0901511 0.045171972 0.14045638
0.002772107 -0.23839414 -0.03350338 0.23981448 -0.11063168 -0.15730353 -0.42810753 -0.37461323
0.25747895 0.10415097 -0.080313005 -0.047478925 -0.40973598 0.01449023 0.5254088 0.020775918
-0.0912996 0.11919738 0.023355175 -0.6226468 -0.31537977 0.02224393 0.22098207 0.11985848
-0.106718734 -0.0069911513 -0.13660793 0.06991036 -0.026117856 0.008054409 -0.25273034 0.22126506
-0.24174981 -0.09421637 0.28897238 -0.16929808 -0.21172167 -0.16810149 0.47059974 -0.20281304
-0.14149664 0.02222184 0.36271095 -0.0808738 -0.06311622 0.08689638 0.22100547 -0.16795792
-0.021041103 -0.16229804 -0.20915207 0.055847615 0.15789752 -0.12988955 0.045172628 -0.13799308
0.17282686 0.13036083 0.28388914 -0.492947 -0.0012675027 -0.075680695 0.19455168 -0.14523274
-0.027822023 0.18006143 0.14676018 0.21261387 -0.0967342 -0.2425344 -0.030290559 -0.4229433
-0.43605334 0.14433935 0.045508437 0.2932215 -0.5405069 0.02879458 0.25667036 -0.042805113

v.net.2.bias f4 [64]
00000000: 60d7 26bf 2c0a fd3e 14fa c8be a4d5 24be
00000010: 319c 5b3f e1cc 113f 5381 6b3e 31dd 36bf
00000020: 7d68 3dbe 6729 07bf 1b1b 893e ca59 713f
00000030: f279 cf3e 2eed 3a3f e54c 5bbe fc89 0d3f
00000040: dbaf 55be af62 bb3e e488 ed3d 0dec bebe
00000050: 2af3 65bf 4879 d7be 05e7 afbe 6878 0c3f
00000060: 04e8 22be 42b8 6c3f 1eb9 c2be 9d10 943e
00000070: b419 ce3e e141 1abf d8eb 93be 6bb7 f43e
00000080: 2e3e 25bf 3740 0e3f 89ff e8be 5be1 34bf
00000090: 98d4 17bf b600 6abf 8945 3dbf b0a6 923e
000000a0: 64bc 403f 89b8 013f 39e7 c03e a5ad 04bf
000000b0: e74b 953e 730c 12bf 7af8 303f 4b45 f33e
000000c0: c943 5f3e 6f66 c7be ea81 54be e623 59be
000000d0: 5898 3c3e 7e1d 61bf 6569 0c3f 4fc2 a9bd
000000e0: 7fb0 8bbe 8160 953e 396d 7e3e 3753 1a3e
000000f0: 2b82 65bd cdb2 013f dbbd 07bf 8f7c 8a3e
-0.65172386 0.49421823 -0.39253294 -0.16097122 0.85785204 0.56953245 0.22998552 -0.7143126
-0.1849689 -0.5279755 0.26778492 0.9427763 0.40522724 0.7301816 -0.21416052 0.5528867
-0.20867865 0.36598727 0.115983754 -0.37289467 -0.89824164 -0.42084718 -0.3435594 0.54871225
-0.1590882 0.92468655 -0.38031858 0.28918925 0.40253985 -0.60256773 -0.28890872 0.47796187
-0.64548004 0.55566734 -0.45507458 -0.70656365 -0.5930877 -0.91407335 -0.7393423 0.28642797
0.7528746 0.50672203 0.3767641 -0.5182746 0.2915947 -0.57050246 0.69129145 0.47513804
0.21803202 -0.38945338 -0.20752683 -0.212051 0.1841749 -0.87935627 0.5484832 -0.082890145
-0.27283093 0.2917519 0.24846353 0.15070806 -0.05603234 0.50663453 -0.5302407 0.27048156

v.net.4.weight f4 [1, 64]
00000000: 7f5c e93d 8e2c b6bd 39c4 233e 18c0 cd3d
00000010: 78d1 17be 7b50 94bd 592a babd 85d7 143e
00000020: d3d3 3c3d 7b3d 113e 5017 f4bd 49bb 5abe
00000030: fd84 89bd a01b f6bd 7da8 ff3d 38e4 a1bd
00000040: c035 733e c42b d5bd 6378 ebbd 4100 a53d
00000050: 5e76 6a3e 2114 513e 7ce7 8a3d 1187 a9bd
00000060: 5551 b23d df8e a1be ca16 203e 2f87 90bd
00000070: 0792 e9bd 3a4b 1f3e 2831 243e a12f 90bd
00000080: 2f4a 053e 0b0d 06be 4da7 1f3e aa74 1b3e
00000090: 0c81 f73d e286 4a3e 5fda 703e 7285 0abe
000000a0: 1450 1fbe f86b 8dbd 8dc6 c3bd 7871 023e
000000b0: cfac 42bd 51d9 be3d 2991 34be 1231 23be
000000c0: 7e8a 50bd 7fcd b23d 72e1 bd3e 017f 923d
000000d0: bfbb 9dbd 72db 183e 2ad8 c2bd 764f c63e
000000e0: 9a5a d03d 81da 50be d2c5 1cbe c477 b5be
000000f0: 1a8d fa3e 3ba3 cbbd 8159 a93d 2955 b3bd
0.11394595 -0.08895217 0.15992822 0.100464046 -0.14826 -0.07241913 -0.090901084 0.14535339
0.04610045 0.14183609 -0.11918509 -0.21360506 -0.067148186 -0.12016988 0.124833085 -0.079048574
0.23750973 -0.10408738 -0.11497571 0.08056689 0.22896716 0.20417835 0.067824334 -0.08277715
0.08706919 -0.31554314 0.15633693 -0.07057034 -0.11404806 0.1555604 0.16034377 -0.070403345
0.1301658 -0.13090913 0.15591164 0.15181223 0.120851606 0.19778016 0.23520802 -0.13527468
-0.15557891 -0.06905359 -0.09559355 0.12738597 -0.047528084 0.093187936 -0.17633499 -0.15936688
-0.050913326 0.087306015 0.37086064 0.0715313 -0.07701825 0.14927462 -0.09513886 0.387325
0.10173531 -0.20395853 -0.15309837 -0.35442936 0.48935777 -0.09943243 0.08269025 -0.087564774

c.net.0.weight f4 [64, 40]
00000000: 3f1f ee3d bac6 51bd 4237 9dbd cd33 e13b
00000010: 6aa4 b5bd 141e 1d3d 9cb1 dcbd 3015 04bd
00000020: f7d7 db3c 51f5 8b3d 2387 8cbc c2d9 113e
00000030: 33f0 6c3d b59f 99bd 15fb 013e c007 e23c
00000040: 9ade afbd bd0b 1abe 3f8d 363d 350d 9d3d
00000050: de4f 01be b658 b9bc 0151 013e ab71 b53c
00000060: c10b 6d3d 99d0 b53d 34b9 b63c 8029 9abc
00000070: 1ef4 8fbc d00b 06bd cd8e b03d 95c5 afbd
00000080: 00cc 0abe 7fa5 a13d bff9 dfbc 6184 013e
00000090: 8ead a0bd 2210 08bd 2554 ac3d cfad 153e
000000a0: 24d5 043e 2ed4 43bd c49f 8c3d 16d5 dcbd
000000b0: a98c 1abe 4c57 0abb 85e7 1a3e 265d 9cbd
000000c0: 9e38 983d 11a4 d83d 42b0 8ebd f19e d93d
000000d0: ee88 3b3d f412 20be 1a38 f8bd 00b3 85bd
000000e0: 0231 963d ce41 c6bd cd93 b33d 15f7 263d
000000f0: d523 5bbc 8e54 0f3e 5582 d7bd 8c1c bf3d
00000100: adfd 83bd 89ad cd3d 6220 99bd 036d bbbd
00000110: 7784 10be 9eb6 1ebe ad00 933d 72e1 cf3d
00000120: 48dd 3ebd 82f6 f1bd 1e35 e3bc 9ed3 653d
00000130: a983 563d 508f 0e3d e39b b23c 57d7 4c3d
00000140: 3d2e 04be 3eb1 543d 95e8 7e3d a34e 213e
00000150: 0b0e 463d 51ff 17be 9f21 be3d 5ca9 013e
00000160: e5ca f23d 9ab3 b23c ce7e 27bd 1563 ed3d
00000170: 90e6 0b3e a7c3 c73d 858f a3bd b3ad b33c
00000180: 181f 05bd 99af 36bd e109 cc3d 657a 203d
00000190: 3ee9 f23d 133e 00bd ca1a 943d 3abd 96bd
000001a0: 84c3 ccbd 9666 49bd 5dda f6bc 1c40 ff3d
000001b0: a412 9ebd e63f ae3d 7c4a 50bc 8f65 1abe
000001c0: ab76 e2bc 36cb e73d c061 803c 83fb 023e
000001d0: 34bc 8cbd 1dc5 283d 9de7 a73d 403f 1c3e
000001e0: aa0b a53d 4e5e 2c3d c0a4 10bd a870 68bd
000001f0: c7d0 0cbe 1cc2 9b3b 1a1e 8e3d 3487 82bd
00000200: 4e16 013e 6a62 923d 3a1f 7bbd 7cba 533d
00000210: bbbe 18be e929 eebd 47a7 0dbe 05c8 a2bd
00000220: 8157 8dbd bcc6 90bd 1c2d 0ebe 1b95 04be
00000230: c711 f83d 603d 06be f508 623d 7041 07bd
00000240: b789 d1bc 2e45 15bd 539a 42bd d36f 6b3c
00000250: 576d 25bd e69d d5ba 362c a13c f098 113e
00000260: bf4f 473c a7ab 0fbe b943 ed3d 36af 4b3d
00000270: 09c3 653d 593a a5bc 923b d03d f75b 043c
00000280: bd1d 86bd fd54 28bd aeba 0abe 3a8e 68bd
00000290: 05f9 acbd 1992 a9bd 8df4 6c3c 0e62 183e
000002a0: e291 55bc 10ef d53d ac19 413d 2cc1 0a3d
000002b0: 2806 e8bd 163b 0cbe 5738 a83d fa08 b3bd
000002c0: 50e3 553d ca12 103d c34a 4d3c 3465 acbd
000002d0: 29a4 1a3c 38cd 253d 6391 113c ed23 b03d
000002e0: 67c9 7c3c 2ca2 1fbe a89a 6bbd f340 a8bc
000002f0: db79 fbbd 6415 1fbd efd4 5abd 69b3 0cbd
00000300: 759e f4bd fb7d 753d 9f81 39bd 5f7d 06be
00000310: ac8a 02bd 155b 0c3e bfe2 0cbe 4dbb f2bd
00000320: 6ab1 19be a8e2 51bc da9a 00be 8d8d ae3c
00000330: af44 58bd 1ae8 203e 7605 af3d 2c39 efbd
00000340: d99e dd3d 7f3e 0c3e c2f6 d53b bfee 1c3e
00000350: 294e 233d d0bb 173e 595c bcbc 3108 e93d
00000360: 3fad a3bd d60e 12be 67b3 983c 0493 a9bd
00000370: c75c d03d abec 00be 1d00 f73c a36e b4bc
00000380: 48ae fbbd 6664 0c3e 6477 983d 0345 21be
00000390: f94a fc3d 1a16 05be d62e da3d 50e4 803d
000003a0: 4e4b 1b3d 7e09 223c c29c 063e 41a2 1cbd
000003b0: a742 013e a46f 0d3e c30c e73d 12ad 043e
000003c0: e742 a63d b866 1b3d d3c5 72bb daf8 bebd
000003d0: 7f49 1cbe e66d e6bd 7c54 93bd 2748 d83d
000003e0: f3f5 963d cc34 ccbd 2e5c 973b 57da c2bd
000003f0: 9c4d e43c db1d 153e 48f7 86bd 3b30 12bd
0.116270535 -0.05121491 -0.07676555 0.00687263 -0.0886925 0.038358763 -0.10776064 -0.03224677
0.026836378 0.068339 -0.017154282 0.14243224 0.05784626 -0.07501165 0.12693436 0.027591586
-0.0858738 -0.1504354 0.044568297 0.07668535 -0.12628123 -0.022625308 0.12628557 0.022148928
0.057872538 0.088776775 0.022305109 -0.018818617 -0.017572459 -0.03272611 0.08620987 -0.08582608
-0.13554382 0.07892894 -0.027340768 0.12648155 -0.07845603 -0.03321851 0.08414487 0.14617084
0.12971932 -0.047809772 0.068664104 -0.107828304 -0.1509272 -0.0021109162 0.1512738 -0.07634954
0.07432674 0.10578168 -0.06967212 0.10626019 0.045784883 -0.1563223 -0.121200755 -0.06528282
0.07333566 -0.0968052 0.08768425 0.04076298 -0.013375242 0.13997099 -0.10522906 0.09331617
-0.06444869 0.10042865 -0.0747688 -0.09151652 -0.14113031 -0.1549935 0.07177863 0.10150422
-0.04659775 -0.11814596 -0.02773529 0.056110017 0.052371655 0.034804642 0.021802848 0.05001005
-0.12908264 0.051926844 0.062233526 0.15752654 0.048353236 -0.14843489 0.092837565 0.12662262
0.11855105 0.021814156 -0.040892415 0.11591164 0.13662171 0.097541146 -0.079863586 0.021933412
-0.032500356 -0.044601057 0.09962822 0.039179225 0.11860894 -0.0313092 0.07231672 -0.07360311
-0.09998229 -0.0491701 -0.03013342 0.124634 -0.07718399 0.085082814 -0.012713071 -0.15077804
-0.027644476 0.11318056 0.01567161 0.12791257 -0.068718344 0.041203607 0.081984736 0.15258503
0.08058865 0.042082123 -0.035313368 -0.056748062 -0.13751517 0.0047533643 0.06939335 -0.06373444
0.12606165 0.07147677 -0.061309077 0.051691517 -0.14916508 -0.116290875 -0.13833342 -0.07948307
-0.06901456 -0.070691556 -0.13884395 -0.12947504 0.12112766 -0.1310935 0.055184323 -0.03302139
-0.025578363 -0.036442928 -0.047510456 0.014369923 -0.040387478 -0.0016297668 0.019674402 0.14218497
0.012165009 -0.14030324 0.11585183 0.04972764 0.056094203 -0.020169424 0.10167612 0.008078567
-0.06548641 -0.041096676 -0.13547775 -0.056776263 -0.08445934 -0.08279819 0.014462602 0.14881155
-0.013035269 0.10445988 0.047143623 0.03387563 -0.11329299 -0.13694414 0.08213871 -0.087419465
0.052218735 0.03517417 0.012530032 -0.084177405 0.009438553 0.040478915 0.008884761 0.08600602
0.015428877 -0.15589207 -0.05752054 -0.020538783 -0.122791015 -0.03883876 -0.053425726 -0.034350786
-0.11944286 0.059934597 -0.045289632 -0.13133763 -0.03187053 0.1370662 -0.13758372 -0.11852131
-0.15009084 -0.012810387 -0.12559071 0.021307731 -0.052799877 0.1571354 0.085459635 -0.116808265
0.108213134 0.13695715 0.00652966 0.1532545 0.03986946 0.14817739 -0.022993254 0.113785155
-0.079920284 -0.14263472 0.018640233 -0.08279994 0.10173946 -0.12590282 0.030151421 -0.022025412
-0.12289101 0.13710174 0.07444647 -0.15748982 0.123189874 -0.12996712 0.106534645 0.06293547
0.037913613 0.009889958 0.13145736 -0.038240675 0.12623082 0.13812119 0.11281731 0.12956646
0.08118229 0.037939757 -0.0037044182 -0.093248084 -0.15262412 -0.1125143 -0.071938485 0.10560637
0.0737113 -0.09971008 0.004619143 -0.09514301 0.027869038 0.1456217 -0.06590134 -0.035690527

c.net.0.bias f4 [64]
00000000: a31c c4bc 4d32 913d 351c 58bd f90e a33c
00000010: 91a1 033e 7d8a 78bd db93 17be 00da ebba
00000020: e8f4 4f3d 6b27 013e c426 873d f069 14be
00000030: 8bff 9e3d ee0c bdbd 12a6 0c3e b2a1 cf3c
00000040: 0e71 a33d abe6 e8bd 683a f53c e06a aebd
00000050: 11b4 ec3d b661 9f3d 69b5 043e fb14 60bd
00000060: 597d d8bd 7fcf a13d 6750 c0bd eac0 e4bd
00000070: 17f9 1ebd 6f8f 653d eff1 c1bd 1294 1f3e
00000080: e8af 3fbc 4016 ba3c 8efb 103d 2e3f 0cbe
00000090: 1a1d 1cbc d3cf 183d d596 89bd 0783 1dbe
000000a0: 48f6 243d 3b20 0dbd 5878 61bd d6c1 4c3c
000000b0: 74da e1bc fe0a ffbd 4c9c 11bc 8837 5a3b
000000c0: 8a95 d03d 42a0 46bd ebc0 ce3d b100 20be
000000d0: 06cb ffbd 80d7 06bd 93db 033d 8de8 85bc
000000e0: 8730 e93c f42a d23d 105d 1a3e 29c6 a3bd
000000f0: a801 1c3e 3132 63bc f083 a13d 6173 b53d
-0.023939436 0.07089672 -0.052761275 0.0199046 0.12854601 -0.060678948 -0.14802496 -0.0017994046
0.05077067 0.12612693 0.06599191 -0.14493537 0.07763585 -0.09230982 0.13735226 0.025345657
0.07980548 -0.113721214 0.029935077 -0.085164785 0.115577824 0.07782309 0.12959827 -0.05470751
-0.10570783 0.07900905 -0.093903355 -0.11169608 -0.03881177 0.056044992 -0.09469973 0.15583828
-0.011699654 0.022715688 0.03539615 -0.13695976 -0.009528423 0.03730757 -0.06718222 -0.15382014
0.040273935 -0.034454565 -0.05504641 0.012497386 -0.027569987 -0.124532685 -0.008887362 0.003329726
0.10184772 -0.048492678 0.1009539 -0.15625264 -0.124898955 -0.03292036 0.032191824 -0.01634624
0.028465522 0.10262099 0.15074563 -0.079967804 0.15235007 -0.013866947 0.07886493 0.088598974
