experiments/07_control_structure_hypothesis/checkpoints/PWM/DroneCircleBulletEnv-v0/ppo/2021-12-14__03-37-44/seed_00017/torch_save/model.pt (torch, 82448 bytes, 19 tensors)

obs_oms.mean f4 [40]
0.24836053 -5.2999676e-05 1.006034 0.00042429316 0.00041253775 -0.14945973 0.9757017 2.5152323e-05
0.00025893352 -0.01781651 0.05346018 0.040991478 -0.051569592 0.001553151 8.569194e-05 -0.0060339957
0.29108897 0.29785016 0.27297884 0.30129397 0.24836169 -5.1495033e-05 1.0058422 0.00060371787
0.0005089872 -0.14978206 0.9751865 0.00015053448 0.0001134414 -0.019641146 0.0607607 0.0446561
-0.05063254 0.0015525488 8.5936095e-05 -0.0058423425 0.28940725 0.29742947 0.27177563 0.30144635
00000000: 3952 7e3e f84b 5eb8 b9c5 803f aa73 de39
00000010: e149 d839 f90b 19be 96c7 793f 34fe d237
00000020: 78c1 8739 eef3 91bc 10f9 5a3d aee6 273d
00000030: a33a 53bd 1a93 cb3a 83b5 b338 d3b8 c5bb
00000040: 9d09 953e d17f 983e e2c3 8b3e 3443 9a3e
00000050: 8752 7e3e 5ffc 57b8 70bf 803f d242 1e3a
00000060: 8e6d 053a 7860 19be d3a5 793f cbd8 1d39
00000070: 63e7 ed38 78e6 a0bc 36e0 783d 51e9 363d
00000080: 1164 4fbd e57e cb3a 9738 b438 1f71 bfbb
00000090: 302d 943e ad48 983e 2d26 8b3e 2d57 9a3e

obs_oms.std f4 [40]
0.17611578 0.17668925 0.038805366 0.093646355 0.08855628 0.10308389 0.044139415 0.39348674
0.39695 0.16162212 2.069113 1.8803041 0.43011627 0.034273177 0.033514183 0.03880527
0.58132094 0.5752822 0.5052913 0.5747706 0.17617022 0.17674881 0.039518088 0.09550491
0.09016843 0.103170484 0.047978655 0.3954398 0.39893055 0.17244668 2.1038175 1.909893
0.43355346 0.034659613 0.033928923 0.039518088 0.58066976 0.5738003 0.5043915 0.5735541
00000000: b257 343e 07ee 343e 60f2 1e3d a9c9 bf3d
00000010: ff5c b53d a61d d33d 88cb 343d 1877 c93e
00000020: 083d cb3e 4580 253e 596c 0440 cead f03f
00000030: 3338 dc3e 0862 0c3d 2b46 093d 46f2 1e3d
00000040: 73d1 143f b245 133f c55a 013f 2b24 133f
00000050: f765 343e a4fd 343e b8dd 213d 1498 c33d
00000060: 3aaa b83d 0c4b d33d 4485 443d 1677 ca3e
00000070: a040 cc3e dd95 303e f2a4 0640 6077 f43f
00000080: b8fa dd3e 3df7 0d3d 0ef9 0a3d b8dd 213d
00000090: c6a6 143f 94e4 123f cd1f 013f 71d4 123f

pi.log_std f4 [4]
-4.5100417 -4.5100417 -4.5100417 -4.5100417
00000000: 4352 90c0 4352 90c0 4352 90c0 4352 90c0

pi.net.0.weight f4 [50, 40]
-0.13872784 -0.026229419 -0.07655366 0.05604962 -0.26236227 -0.13476785 -0.13420738 0.025890606
-0.084942155 -0.052559126 -0.00032647094 -0.28521466 -0.018576806 -0.03248085 0.074012384 0.11660938
0.046328366 -0.0015828146 -0.22680116 -0.100975335 -0.105647855 0.16437952 0.14598627 0.10873055
-0.18251474 -0.18769695 -0.07632059 0.14186548 0.13565981 -0.1386662 -0.13874376 0.0339326
-0.13924345 0.06077126 0.06399496 0.05839974 -0.09311161 0.08447828 0.03191881 -0.35701588
0.053592056 0.10393925 -0.0733934 -0.18059312 0.053888403 -0.17003444 0.19588017 0.049236823
0.10742036 0.0041550337 0.100217775 -0.14619192 0.017831458 0.09569213 -0.12578963 -0.11369954
-0.115879215 -0.0013598565 0.12542489 0.12342483 0.21085535 0.0033885322 -0.06933239 -0.28379166
0.011689517 -0.1506846 0.2490284 0.07815202 0.18249479 0.06638644 -0.19251399 0.1656826
-0.1120063 0.0404133 0.014261846 -0.07178911 -0.0640797 0.049214367 0.082702056 0.27852353
-0.10798399 -0.10525881 -0.03452212 -0.08981178 0.1466011 -0.17252901 -0.00033342393 -0.119374625
0.07509192 -0.07414154 -0.10817082 0.08648142 -0.106689826 0.03114754 -0.24498942 -0.04920362
0.02161204 -0.06777399 0.20048901 0.06490135 0.12326216 -0.04033194 0.059657417 0.14475188
0.05375465 -0.14362209 -0.121199585 -0.05212618 -0.036946267 -0.023809811 -0.068881 0.26422027
-0.14841087 -0.13927576 0.015021685 -0.084381446 -0.08837733 -0.05478691 0.22083558 -0.18758135
-0.0655606 -0.06472168 -0.09663969 -0.047075696 -0.025429726 0.054840803 -0.075929485 0.22058572
-0.1336009 -0.14608894 0.06857857 0.17107646 -0.030179039 -0.020150555 -0.044128217 0.11959577
-0.10414209 -0.10508753 0.17348503 0.08660072 0.04539242 -0.0445384 -0.17806122 -0.09734119
0.21895984 0.0012999119 -0.023353027 0.11741204 0.015026466 -0.14897998 -0.083263665 -0.0042482233
0.18873559 -0.106066674 -0.015529199 0.19415267 -0.034913547 -0.035126697 0.22867256 -0.15651312
0.06635044 0.17382485 0.04708876 -0.04610906 -0.045888152 -0.013315665 -0.04938685 0.16189633
0.117633164 -0.08252013 -0.09353557 -0.04844857 0.07169474 -0.03541878 -0.073626265 0.12577409
-0.11875954 0.17950778 -0.16999474 -0.06604985 0.087262735 0.032951 0.15728325 -0.043211516
0.17910215 -0.03851269 -0.0094112335 -0.08574254 0.11675959 -0.14204513 0.24505478 0.2979465
0.16957024 -0.057632215 -0.21653081 0.032979473 0.14713547 0.025207229 0.062245905 0.014914425
-0.2077637 0.18714145 0.026779378 0.0728195 -0.0040339227 0.05791456 -0.15969801 0.16104162
-0.1802076 -0.22323327 -0.113864854 -0.19439898 -0.13380472 -0.16020389 0.11945054 0.06941169
0.020709492 0.032035638 0.02896333 -0.10971346 -0.15394236 0.13762377 -0.23962952 -0.04047471
-0.019693002 -0.030608404 -0.07188934 0.17431834 -0.21153952 -0.13255699 -0.23412035 -0.003899553
-0.078472875 -0.31134093 -0.04920933 0.085090876 -0.078487925 0.013179392 -0.12838167 0.13420945
-0.08669344 -0.024813902 -0.11167 -0.035875265 0.13151065 0.046679113 0.06520517 -0.17235163
0.20060201 0.0008864142 -0.28034908 0.18106535 0.0073904702 0.106400825 -0.06720358 0.09794627
00000000: ac0e 0ebe 14df d6bc 2ac8 9cbd 4994 653d
00000010: 5954 86be 9500 0abe a96d 09be 8918 d43c
00000020: 27f6 adbd 3d48 57bd 302a abb9 a807 92be
00000030: 632e 98bc a40a 05bd ce93 973d e6d0 ee3d
00000040: d0c2 3d3d 7276 cfba 903e 68be 28cc cebd
00000050: e75d d8bd 1b53 283e 6d7d 153e 1fae de3d
00000060: 25e5 3abe a133 40be f84d 9cbd 2f45 113e
00000070: 68ea 0a3e 83fe 0dbe d812 0ebe e9fc 0a3d
00000080: d695 0ebe 49eb 783d ca0f 833d 9134 6f3d
00000090: 4db1 bebd f302 ad3d 4cbd 023d c9ca b6be
000000a0: 5883 5b3d 1ade d43d 474f 96bd 67ed 38be
000000b0: 16ba 5c3d 821d 2ebe d094 483e 8dac 493d
000000c0: 35ff db3d f326 883b fa3e cd3d 56b3 15be
000000d0: 4713 923c 3cfa c33d ffce 00be 4edb e8bd
000000e0: 1552 edbd 363d b2ba 626f 003e 28c6 fc3d
000000f0: 77ea 573e 2312 5e3b 24fe 8dbd 244d 91be
00000100: 6385 3f3c 104d 1abe 4d01 7f3e 2b0e a03d
00000110: eadf 3a3e 9df5 873d 6322 45be b3a8 293e
00000120: 8f63 e5bd 6b88 253d 85aa 693c 2b06 93bd
00000130: 383c 83bd 0195 493d b25f a93d a39a 8e3e
00000140: b626 ddbd ee91 d7bd 1167 0dbd 3def b7bd
00000150: 991e 163e 72ab 30be 67cf aeb9 af7a f4bd
00000160: cbc9 993d 85d7 97bd aa88 ddbd 2c1d b13d
00000170: 3280 dabd 2029 ff3c 82de 7abe bc89 49bd
00000180: bc0b b13c 17cd 8abd fe4c 4d3e 00eb 843d
00000190: df70 fc3d 1b33 25bd 565b 743d d639 143e
000001a0: d62d 5c3d ab11 13be 7d37 f8bd 4382 55bd
000001b0: f854 17bd cb0c c3bc 7b11 8dbd e147 873e
000001c0: 05f9 17be 4e9e 0ebe 831d 763c 2ed0 acbd
000001d0: 2cff b4bd 3d68 60bd b922 623e 5315 40be
000001e0: a344 86bd cd8c 84bd 08eb c5bd 72d2 40bd
000001f0: 0052 d0bc c0a0 603d eb80 9bbd 39e1 613e
00000200: adce 08be 5798 15be ec72 8c3d ab2e 2f3e
00000210: 083a f7bc c712 a5bc cabf 34bd a1ee f43d
00000220: 7348 d5bd 2238 d7bd 0fa6 313e b85b b13d
00000230: 67ed 393d e66d 36bd ae55 36be d15a c7bd
00000240: 0237 603e ce61 aa3a d94e bfbc b975 f03d
00000250: 9131 763c 358e 18be 2486 aabd ae34 8bbb
00000260: e743 413e 7c39 d9bd 2e6e 7ebc f5cf 463e
00000270: 8201 0fbd 03e1 0fbd 2429 6a3e fa44 20be
00000280: bde2 873d 24ff 313e 25e0 403d dbdc 3cbd
00000290: 37f5 3bbd f229 5abc de49 4abd 27c8 253e
000002a0: a8e9 f03d 5000 a9bd 948f bfbd 0272 46bd
000002b0: b1d4 923d 4813 11bd 5ec9 96bd ecca 003e
000002c0: 3438 f3bd e3d0 373e 1a13 2ebe 2545 87bd
000002d0: ceb6 b23d a1f7 063d dc0e 213e 8ffe 30bd
000002e0: 8e66 373e 7cbf 1dbd 9331 1abc c999 afbd
000002f0: a71f ef3d 4774 11be a4ef 7a3e 728c 983e
00000300: d2a3 2d3e c20f 6cbd 41ba 5dbe 7c15 073d
00000310: aeaa 163e 647f ce3c 90f5 7e3d a25b 743c
00000320: 02c0 54be 02a2 3f3e 6d60 db3c 6422 953d
00000330: ff2e 84bb d137 6d3d e087 23be 18e8 243e
00000340: 5788 38be 4397 64be fa31 e9bd 8710 47be
00000350: 1b04 09be 7d0c 24be 7ca2 f43d b727 8e3d
00000360: f4a6 a93c cd37 033d 8144 ed3c 73b1 e0bd
00000370: 11a3 1dbe 3fed 0c3e 7161 75be cfc8 25bd
00000380: 3853 a1bc 7abe fabc b83a 93bd 8280 323e
00000390: d19d 58be 05bd 07be 3fbd 6fbe a58f 7fbb
000003a0: 63b6 a0bd 1468 9fbe b98f 49bd 2044 ae3d
000003b0: 47be a0bd 60ee 573c 7c76 03be 346e 093e
000003c0: 558c b1bd 8646 cbbc 3eb3 e4bd f1f1 12bd
000003d0: baaa 063e 9932 3f3d 4a8a 853d f27c 30be
000003e0: 9d6a 4d3e 405e 683a ea89 8fbe 3269 393e
000003f0: c22b f23b ade8 d93d 08a2 89bd 0e98 c83d

pi.net.0.bias f4 [50]
0.030475741 0.12584099 0.010838104 0.03361993 -0.15666321 -0.17875281 0.17040329 0.39131132
-0.13668811 0.12255412 0.2589393 0.07853933 -0.15732852 -0.05376695 0.07972822 -0.016096517
0.3198697 0.2659743 0.084523484 0.2005492 -0.08310281 -0.03563966 0.06533743 0.23469746
0.38729265 -0.05442673 0.511687 0.050076287 0.29603866 0.1756116 0.049664143 -0.07526583
0.025845444 0.20395234 0.129436 0.20404193 0.11246973 0.13592006 -0.03588228 0.19088893
-0.077724576 0.2139225 0.19200902 -0.1737201 0.22908084 0.14949808 0.055530906 0.011197203
0.44166794 0.07814208
00000000: 43a8 f93c 76dc 003e 4e92 313c 0db5 093d
00000010: 526c 20be fa0a 37be 337e 2e3e f559 c83e
00000020: f8f7 0bbe a8fd fa3d b193 843e 3ad9 a03d
00000030: ba1a 21be bc3a 5cbd 8d48 a33d d8dc 83bc
00000040: f6c5 a33e c92d 883e a61a ad3d c55c 4d3e
00000050: ce31 aabd e4fa 11bd a1cf 853d 8854 703e
00000060: 394b c63e 90ee 5ebd ebfd 023f cb1c 4d3d
00000070: 6192 973e 87d3 333e a16c 4b3d f924 9abd
00000080: d3b9 d33c e2d8 503e df8a 043e 5ef0 503e
00000090: 8856 e63d a12e 0b3e 4cf9 12bd 6378 433e
000000a0: 102e 9fbd 800e 5b3e 039e 443e afe3 31be
000000b0: 2b94 6a3e 0616 193e 6074 633d 7974 373c
000000c0: 4d22 e23e f408 a03d

pi.net.2.weight f4 [50, 50]
-0.10345157 0.092127554 -0.028158687 -0.07153749 0.14889546 -0.062086526 -0.13668132 0.092026666
0.067978494 -0.13303731 0.22590683 -0.18036908 0.04961933 0.10266096 -0.019333387 -0.019554967
-0.099616334 -0.06999857 0.014485935 0.19222668 0.008573706 0.15157345 0.13973315 0.07630004
-0.00011416544 0.044586893 -0.12354117 -0.057116367 -0.001800781 0.22988044 0.10686991 0.0289987
0.14520203 -0.008921878 0.17841691 0.09478679 0.030163169 0.017209737 -0.12359447 -0.049808122
0.08661085 0.087343805 0.12657988 0.08406694 0.083178505 0.097855 0.29427418 0.09463884
-0.08597105 0.09359649 0.09874796 0.06703486 -0.037651785 -0.07129321 0.05158372 0.09497054
-0.047908295 0.10371805 -0.27952144 0.12856545 -0.2255248 0.04996834 -0.10128122 -0.185839
-0.04479755 -0.19728544 0.18376558 -0.11127981 0.255404 -0.06904061 0.13926248 0.027482461
0.13407706 -0.1302438 0.07663573 0.08915411 0.18736742 0.20856208 0.24195136 0.09464985
0.10857047 -0.09370348 -0.025411326 0.20452507 -0.12476187 -0.11755402 -0.005100264 0.14289519
-0.13840607 0.08969582 0.15174718 0.27560624 0.02866338 -0.3640872 0.093766645 0.09573313
-0.12825482 -0.182385 0.18608443 0.23275621 0.014989885 -0.112885706 0.10299313 0.09668996
-0.046411473 0.03357583 0.0030068979 -0.026749581 0.11081775 0.07711151 0.051048387 -0.089321546
-0.17473015 0.0810012 0.004449902 -0.10264535 -0.029818654 -0.15861288 0.11431452 0.075060256
0.107400656 0.22534387 -0.19112772 0.09310998 0.10458588 0.026224317 -0.10038396 0.095890164
-0.12899649 -0.16955534 0.03835727 0.048553344 0.005832972 0.0069427714 0.1886173 0.119138464
0.08389413 -0.06914873 0.045814853 0.200935 0.13094407 -0.052734636 0.090595014 0.09647854
-0.16397561 0.17477429 -0.00509324 0.16223736 0.04777914 -0.06754797 -0.020606715 -0.0020877444
0.12705849 0.06858497 -0.025370998 -0.12930204 -0.08448852 0.06838375 -0.10566155 0.14081335
-0.29743627 0.021475846 -0.011652608 0.08466567 0.05854563 -0.0035715888 0.0847743 -0.0043093357
0.0045464337 0.040320028 0.005096763 -0.003013146 0.08974825 -0.0016037113 -0.12077487 0.17201559
-0.18864968 -0.04613841 -0.10500591 -0.010403838 0.22626494 0.15856224 -0.058933184 -0.16355813
0.06373125 -0.10907865 0.17811641 -0.18702233 -0.0062819514 0.054744106 0.07973653 -0.24324203
0.044794753 0.089817196 0.20440981 0.10047519 0.11521134 -0.039009895 -0.08301586 0.11577262
0.19599691 0.08613244 -0.10510472 -0.018404093 0.0992391 0.074592896 -0.07718681 -0.1576951
-0.006166081 -0.22339275 0.2706712 0.16095434 -0.13290213 -0.2625841 -0.013028396 -0.19328372
-0.10942252 -0.098676294 -0.0028601324 0.20546554 0.044927247 -0.16228336 -0.0054660006 -0.0681837
0.21316284 -0.1065184 0.13716011 0.14025283 0.04343907 0.5515356 -0.0063019553 -0.098069504
-0.18103983 0.014581745 -0.06930059 0.009635377 0.025614576 0.040059414 -0.13677771 0.109348655
-0.12805597 0.33454683 0.14945543 0.07201346 0.18659219 0.005410835 0.00023651721 -0.14551434
0.3160058 0.1632722 0.016372576 0.07386735 0.019527793 -0.00040954043 -0.16849339 0.009938221
00000000: 6bde d3bd 5fad bc3d 0cad e6bc 3f82 92bd
00000010: 0d78 183e 714e 7ebd 30f6 0bbe 7a78 bc3d
00000020: 4f38 8b3d ef3a 08be 1f54 673e acb2 38be
00000030: a33d 4b3d e93f d23d 0d61 9ebc bd31 a0bc
00000040: a603 ccbd 695b 8fbd 6a56 6d3c 12d7 443e
00000050: bb78 0c3c 1236 1b3e 3516 0f3e 3243 9c3d
00000060: 1b6c efb8 bfa0 363d 2703 fdbd daf2 69bd
00000070: 2f08 ecba c765 6b3e 9dde da3d af8e ed3c
00000080: d7af 143e 122d 12bc ecb2 363e 941f c23d
00000090: c018 f73c 6ffb 8c3c 191f fdbd 9a03 4cbd
000000a0: 0861 b13d 4fe1 b23d 289e 013e 4a2b ac3d
000000b0: 7e59 aa3d 3468 c83d 1bab 963e 02d2 c13d
000000c0: 9711 b0bd 84af bf3d 5f3c ca3d 9349 893d
000000d0: c238 1abd 2d02 92bd 7349 533d ea7f c23d
000000e0: 7d3b 44bd 216a d43d 6f1d 8fbe a9a6 033e
000000f0: f9ef 66be 9aab 4c3d 876c cfbd 944c 3ebe
00000100: a37d 37bd 3205 4abe 0b2d 3c3e abe6 e3bd
00000110: 50c4 823e 2a65 8dbd d39a 0e3e e622 e13c
00000120: 7f4b 093e a15e 05be 32f3 9c3d 6e96 b63d
00000130: 3fdd 3f3e 4c91 553e 19c2 773e c8d7 c13d
00000140: 325a de3d 9ce7 bfbd 6a2b d0bc 056f 513e
00000150: 2783 ffbd 29c0 f0bd 1e20 a7bb 1e53 123e
00000160: 52ba 0dbe 71b2 b73d 9d63 1b3e 431c 8d3e
00000170: 77cf ea3c a369 babe ba08 c03d bb0f c43d
00000180: 3b55 03be 22c3 3abe eb8c 3e3e a557 6e3e
00000190: 2298 753c 9f30 e7bd 10ee d23d 6305 c63d
000001a0: f519 3ebd cf86 093d 600f 453b f021 dbbc
000001b0: 6bf4 e23d a4ec 9d3d 1d18 513d 37ee b6bd
000001c0: 76ec 32be f5e3 a53d 7cd0 913b ba37 d2bd
000001d0: 4046 f4bc 6a6b 22be bb1d ea3d 31b9 993d
000001e0: e0f4 db3d 8bc0 663e fcb6 43be 72b0 be3d
000001f0: 1f31 d63d 61d4 d63c 1b96 cdbd 1062 c43d
00000200: a817 04be ea9f 2dbe 831c 1d3d dfdf 463d
00000210: 8422 bf3b 3080 e33b e524 413e defe f33d
00000220: b0d0 ab3d d99d 8dbd 5ba8 3b3d e8c1 4d3e
00000230: 3416 063e 4600 58bd e189 b93d 8a96 c53d
00000240: 39e9 27be 08f8 323e 32e5 a6bb 8d21 263e
00000250: 0fb4 433d 9756 8abd 6acf a8bc 8ad2 08bb
00000260: 9f1b 023e 4776 8c3d d7d6 cfbc c167 04be
00000270: 5108 adbd c80c 8c3d 1565 d8bd 6031 103e
00000280: 9149 98be 1dee af3c 95ea 3ebc 3265 ad3d
00000290: 8bcd 6f3d 5111 6abb 269e ad3d 5435 8dbb
000002a0: 40fa 943b 9d26 253d bf02 a73b 3478 45bb
000002b0: eecd b73d 9f33 d2ba d158 f7bd db24 303e
000002c0: 622d 41be a1fb 3cbd 570d d7bd dc74 2abc
000002d0: ffb1 673e 245e 223e ec63 71bd c87b 27be
000002e0: 8885 823d a164 dfbd 2664 363e c882 3fbe
000002f0: d4d8 cdbb 5b3b 603d e84c a33d 7014 79be
00000300: b47a 373d 14f2 b73d ce50 513e f0c5 cd3d
00000310: ecf3 eb3d d7c8 1fbd 3804 aabd 321a ed3d
00000320: 6ab3 483e 3466 b03d 2541 d7bd 2ec4 96bc
00000330: df3d cb3d 29c4 983d 1e14 9ebd d37a 21be
00000340: d60c cabb 12c1 64be 6a95 8a3e 37d1 243e
00000350: 7f17 08be 6c71 86be 0e75 55bc 2bec 45be
00000360: ea18 e0bd cc16 cabd 0f71 3bbb 8f65 523e
00000370: a205 383d 9c2d 26be 231c b3bb e5a3 8bbd
00000380: 5c47 5a3e 5226 dabd b373 0c3e 709e 0f3e
00000390: 2bed 313d 7031 0d3f a280 cebb aad8 c8bd
000003a0: 8162 39be 45e8 6e3c 78ed 8dbd b3dd 1d3c
000003b0: a9d5 d13c 5715 243d 750f 0cbe 30f2 df3d
000003c0: 1b21 03be b949 ab3e d80a 193e cb7b 933d
000003d0: 0612 3f3e 604d b13b 9b01 7839 b601 15be
000003e0: 83cb a13e d430 273e c81f 863c c447 973d
000003f0: c0f8 9f3c 96b7 d6b9 8889 2cbe ecd3 223c

pi.net.2.bias f4 [50]
0.054426137 0.22098362 -0.067297146 -0.02757765 0.098732635 -0.18219484 0.010154089 0.008592218
0.2222909 0.13636914 0.14775544 0.16915254 0.11352422 -0.07860477 0.13325606 -0.005703516
-0.0117197465 0.13173775 0.038095348 -0.015336696 0.024102837 0.025021011 0.17144047 0.047289506
-0.057252325 0.09383583 0.24358445 -0.14397888 -0.11202491 -0.12848315 0.099338494 -0.09066036
-0.16208495 0.16516335 0.13327155 -0.035108164 -0.17578797 -0.00251506 0.15820932 0.16674757
0.15925014 -0.1588511 0.15924966 0.07736228 -0.05694239 0.10912062 0.07304549 0.10776711
0.06529849 -0.10229187
00000000: f1ed 5e3d 8849 623e 16d3 89bd 86ea e1bc
00000010: 5634 ca3d 4991 3abe 565d 263c 60c6 0c3c
00000020: 3aa0 633e 5aa4 0b3e 344d 173e 5336 2d3e
00000030: 637f e83d 8afb a0bd 4774 083e 8fe4 babb
00000040: 2e04 40bc 43e6 063e de09 1c3d c446 7bbc
00000050: 5073 c53c ddf8 cc3c 178e 2f3e a4b2 413d
00000060: 6a81 6abd 002d c03d 346e 793e 336f 13be
00000070: 516d e5bd 1691 03be fb71 cb3d 24ac b9bd
00000080: 99f9 25be 9520 293e 5678 083e 94cd 0fbd
00000090: c301 34be b4d3 24bb a001 223e e0bf 2a3e
000000a0: 7812 233e dda9 22be 5812 233e 1d70 9e3d
000000b0: 6c3c 69bd a27a df3d e098 953d 01b5 dc3d
000000c0: 37bb 853d 667e d1bd

pi.net.4.weight f4 [4, 50]
0.18446085 -0.16794872 -0.020633563 -0.017178893 0.2491696 -0.23684743 -0.079656735 -0.0010640704
0.48691565 -0.34353018 -0.10397793 0.16207914 -0.31718525 -0.08838706 -0.13650487 -0.07228682
0.12090042 0.13696797 0.15905504 -0.12913528 -0.008697255 -0.45034185 -0.09979735 0.058863305
-0.38861424 0.038944773 0.24485768 -0.27043805 -0.25378552 -0.17524487 0.36016482 -0.13682945
0.10812981 -0.16931352 0.04939341 -0.01176855 0.048736103 -0.0783572 -0.021458158 0.6210982
0.17288166 -0.17577748 0.23334846 0.33136147 -0.19818158 -0.2888476 -0.052998334 -0.0981302
-0.04777586 -0.14366098 -0.17539579 -0.21921968 0.21622261 -0.16210952 -0.5412998 -0.08845087
0.12476063 -0.16988476 0.029601954 -0.0802536 0.42324206 0.44606555 0.14192142 0.16234873
0.29531702 0.10411696 0.42626122 -0.104641914 -0.09575201 0.24725883 -0.36367443 -0.22793783
0.25340852 0.105612256 -0.35292363 -0.034682762 0.20125318 0.128069 0.017209997 0.13095702
0.2320916 0.059459932 0.34948394 0.29518586 0.25504795 -0.26049265 -0.39912346 0.250619
-0.21117267 0.2067663 0.11517427 -0.35832357 -0.07214063 0.26068112 -0.117415026 -0.100451335
0.23916833 0.10744766 -0.17351286 0.12321362 -0.19639632 0.42161718 -0.13813506 0.01776856
-0.17401509 -0.265447 -0.12110368 -0.050877765 -0.18144143 0.3005877 0.24475092 0.25921223
-0.017009957 -0.25409728 -0.06769108 0.33170605 0.31885976 0.1907207 -0.11943594 -0.27294934
-0.42098925 -0.43127432 -0.04539443 -0.24657917 0.24960388 0.23037651 0.14012712 -0.21118605
-0.059871215 -0.14611486 -0.18681298 -0.009993801 -0.39463076 0.27084288 0.079086125 -0.04650483
-0.078201935 -0.15899102 0.20647664 -0.20435214 0.14960197 -0.19044584 0.02131586 -0.059498474
0.11757716 0.24307951 0.21538347 0.14711787 -0.05637062 0.33125985 -0.11721675 0.09300291
0.017443253 -0.26102942 0.10030393 0.14162208 0.06982047 0.070983276 0.05260899 -0.26590517
-0.10766521 -0.36996382 0.37059966 0.29550475 -0.32498 0.17024727 0.12074076 0.18038453
-0.048605792 -0.056205884 -0.10932199 0.07371061 -0.097609855 0.26401204 0.63277185 0.1730784
-0.25089526 -0.25788587 0.030511694 0.08053664 -0.22702412 0.32611185 -0.13769695 0.09404137
-0.14600135 0.21624383 -0.0809833 -0.25049064 0.34949374 0.3675264 -0.12794691 -0.13891375
0.26128295 0.14488071 -0.3888452 0.003871853 0.17661251 0.1377696 -0.26096147 0.21009481
00000000: 4ee3 3c3e c0fa 2bbe b807 a9bc c0ba 8cbc
00000010: 5126 7f3e 2288 72be 1223 a3bd 4778 8bba
00000020: 024d f93e 30e3 afbe 62f2 d4bd 13f8 253e
00000030: 1b66 a2be 4604 b5bd efc7 0bbe 1d0b 94bd
00000040: a49a f73d 5541 0c3e 53df 223e 0a3c 04be
00000050: ee7e 0ebc 3593 e6be 8e62 ccbd a61a 713d
00000060: 72f8 c6be 8e84 1f3d f9bb 7a3e db76 8abe
00000070: 2df0 81be 6473 33be 8667 b83e 051d 0cbe
00000080: 2973 dd3d 8660 2dbe bf50 4a3d e0d0 40bc
00000090: 829f 473d bd79 a0bd 05c9 afbc 4b00 1f3f
000000a0: e407 313e 03ff 33be e6f2 6e3e 36a8 a93e
000000b0: 1df0 4abe d5e3 93be c814 59bd 7cf8 c8bd
000000c0: 9fb0 43bd dd1b 13be f49a 33be 207b 60be
000000d0: 7669 5d3e 0a00 26be a092 0abf bb25 b5bd
000000e0: 8082 ff3d 45f6 2dbe cc7f f23c 005c a4bd
000000f0: 2fb3 d83e b462 e43e d953 113e bf3e 263e
00000100: cb33 973e 463b d53d e93e da3e 804e d6bd
00000110: a119 c4bd 6b31 7d3e 8933 babe 8968 69be
00000120: c3be 813e 3d4b d83d 68b2 b4be 830f 0ebd
00000130: 5015 4e3e 8524 033e fbfb 8c3c 9919 063e
00000140: 6ca9 6d3e 428c 733d 8fef b23e 9a22 973e
00000150: a595 823e 4b5f 85be e959 ccbe 2251 803e
00000160: a63d 58be 8cba 533e 7de0 eb3d 3076 b7be
00000170: 77be 93bd ff77 853e 4a77 f0bd 6eb9 cdbd
00000180: 8be8 743e 850d dc3d 5bad 31be 6c57 fc3d
00000190: 1e1c 49be 35de d73e 4773 0dbe 5f8f 913c
000001a0: 0331 32be abe8 87be 3505 f8bd 3465 50bd
000001b0: c8cb 39be a2e6 993e fc9f 7a3e 77b7 843e
000001c0: 7758 8bbc 0a19 82be 9fa1 8abd 60d5 a93e
000001d0: 9641 a33e 4a4c 433e d59a f4bd 04c0 8bbe
000001e0: e78b d7be fdcf dcbe 83ef 39bd 407f 7cbe
000001f0: 2998 7f3e d2e7 6b3e 7c7d 0f3e 2841 58be
00000200: 853b 75bd 229f 15be e74b 3fbe 0abd 23bc
00000210: 0b0d cabe ebab 8a3e e8f7 a13d d97b 3ebd
00000220: 5628 a0bd 8bce 22be 9d6e 533e b041 51be
00000230: 4231 193e 3c04 43be 999e ae3c acb4 73bd
00000240: 4bcc f03d d6e9 783e 7c8d 5c3e 11a6 163e
00000250: e1e4 66bd e49a a93e 560f f0bd 4f78 be3d
00000260: 27e5 8e3c a6a5 85be 266c cd3d 6105 113e
00000270: 09fe 8e3d ae5f 913d 867c 573d b924 88be
00000280: 947f dcbd e66b bdbe 3dbf bd3e 664c 973e
00000290: c763 a6be 4d55 2e3e ee46 f73d b9b6 383e
000002a0: de16 47bd 2438 66bd 35e4 dfbd 97f5 963d
000002b0: ade7 c7bd 962c 873e 56fd 213f 773b 313e
000002c0: 5875 80be 9e09 84be a9f3 f93c 65f0 a43d
000002d0: 0379 68be 22f8 a63e 6e00 0dbe c398 c03d
000002e0: 6181 15be 066f 5d3e 93da a5bd 4f40 80be
000002f0: d8f0 b23e 6c2c bc3e 8404 03be 683f 0ebe
00000300: e1c6 853e 9c5b 143e b816 c7be eabe 7d3b
00000310: e9d9 343e 7913 0d3e be9c 85be 1823 573e

pi.net.4.bias f4 [4]
-0.08464528 0.10180955 0.18886052 0.12519503
00000000: 815a adbd 8681 d03d a764 413e 2033 003e

v.net.0.weight f4 [64, 40]
-0.27962485 -0.5963457 0.030559462 -0.27950516 -0.10164971 0.25210533 -0.10199886 -0.22394478
0.15319332 0.14409183 -0.1893143 -0.104371354 0.15710871 -0.3851407 -0.20205304 -0.043239597
0.08491833 -0.019799002 -0.053119447 0.033232525 -0.4371006 -0.5136393 0.2815224 -0.22399342
-0.24223416 -0.04894518 0.03844337 -0.19556098 0.1357845 0.08156279 -0.2632625 -0.26929957
0.14801143 -0.28495005 -0.11563742 -0.25891918 0.072765656 -0.04592045 -0.055160068 0.022243317
0.124792345 -0.041112997 0.016246816 0.044372328 0.20875564 -0.056868598 0.27961567 0.12154044
0.022726435 -0.21878414 -0.02783084 0.019757904 0.11158186 0.106260955 0.0018142356 0.049790047
-0.016682765 0.029923549 0.039227497 -0.02486123 0.060535997 -0.10549714 -0.051326647 0.1093288
0.039050847 0.13390023 0.5180307 0.023020677 -0.07301012 -0.020367349 0.05827666 0.1439217
0.051556975 -0.074680604 -0.18907268 0.0013230756 0.00269716 0.062021434 0.021324256 -0.012761278
-0.5449356 0.29093266 0.23851956 0.03199173 0.05402898 0.021857588 -0.08865586 0.30345035
-0.16155007 -0.034418613 -0.055593636 -0.06605958 -0.016035121 -0.20179313 0.06274846 -0.10745976
-0.019771969 -0.07106618 -0.005939265 0.025200905 -0.61202514 0.3631564 0.1898666 0.0012642782
0.088727735 0.16906083 0.19044337 0.30295998 -0.16221704 -0.16875306 0.091574565 0.021121496
-0.065708615 -0.11615091 0.12028396 -0.10762938 -0.019034414 -0.08893437 -0.013991028 -0.010071829
-0.6979236 0.60729027 -0.08681042 -0.04547193 0.08720171 0.021221401 -0.24255608 0.23685911
-0.2351429 -0.1091775 0.18161362 -0.09294376 -0.052605774 -0.22403507 0.14915188 -0.16610485
-0.06481095 -0.021612173 0.09353777 0.04261373 -0.5853339 0.5321148 0.025452891 0.085325554
0.059975795 -0.022460824 -0.5007366 0.26577005 -0.14092581 -0.13347392 0.36069626 0.094416894
-0.12583558 -0.2657129 0.10363529 -0.1620679 -0.022163145 -0.074447066 0.00081848685 0.008081894
-0.4210684 0.6694502 -0.089116015 0.096127264 0.012116567 0.0128922 0.15857965 0.1709967
0.17785275 0.078292675 0.1357845 -0.07738354 0.024821809 -0.10439946 0.13908939 -0.27662802
-0.014239815 0.07450172 0.026757292 -0.009608858 -0.47462654 0.67008376 0.08962457 -0.009367855
-0.053308584 -0.08312844 0.36266664 0.26682982 -0.060415797 0.10499368 0.14592311 0.10107739
0.09212917 -0.23579848 0.23706089 -0.18287335 0.060182657 0.14497013 0.020561038 -0.014749386
0.054086443 0.67347974 0.040268566 -0.083972804 0.101532646 0.11563421 0.21341889 0.3666297
-0.10461571 -0.020358184 -0.11184996 0.107964225 -0.10009909 -0.06259853 0.07056488 -0.22751321
-0.047685355 -0.028369106 -0.00079498027 0.030082665 -0.024794329 0.52025485 0.030908067 -0.0445282
0.040506523 -0.06944467 0.6693447 0.43390763 -0.017164024 0.019236652 0.06517809 0.33327314
0.012947751 -0.052651223 0.084078565 -0.16048095 -0.03660367 -0.019418156 0.0322025 0.04722842
-0.13763103 -0.11141927 0.046299197 -0.24356015 0.07133564 0.14878002 -0.050348967 0.06958895
0.04589768 0.11219934 0.07504868 -0.05612282 -0.01877716 -0.1678964 -0.053074658 0.13329972
00000000: fd2a 8fbe 1daa 18bf d657 fa3c 4d1b 8fbe
00000010: b92d d0bd f313 813e c7e4 d0bd c851 65be
00000020: b6de 1c3e cf8c 133e 9cdb 41be a6c0 d5bd
00000030: 1be1 203e 2931 c5be fee6 4ebe 011c 31bd
00000040: a9e9 ad3d 8431 a2bc c793 59bd d41e 083d
00000050: a6cb dfbe dd7d 03bf b423 903e 885e 65be
00000060: 3b0c 78be be7a 48bd cc76 1d3d 2341 48be
00000070: 180b 0b3e 640a a73d 58ca 86be a2e1 89be
00000080: 4f90 173e f9e4 91be 50d3 ecbd 0e91 84be
00000090: 2906 953d 1517 3cbd 86ef 61bd 9e37 b63c
000000a0: 2193 ff3d 1a66 28bd 0b18 853c c2bf 353d
000000b0: 0ac4 553e 0cef 68bd c929 8f3e 32ea f83d
000000c0: ca2c ba3c f308 60be 80fd e3bc 54db a13c
000000d0: 0885 e43d 589f d93d a5cb ed3a a6f0 4b3d
000000e0: 4baa 88bc 3b22 f53c 03ad 203d c7a9 cbbc
000000f0: 98f4 773d e20e d8bd e43b 52bd c7e7 df3d
00000100: c8f3 1f3d 241d 093e a99d 043f dc95 bc3c
00000110: 5486 95bd 6dd9 a6bc 82b3 6e3d 3660 133e
00000120: 682d 533d 25f2 98bd 459c 41be 0d6b ad3a
00000130: d6c2 303b 300a 7e3d 35b0 ae3c ae14 51bc
00000140: e680 0bbf 20f5 943e 793e 743e c309 033d
00000150: 7e4d 5d3d af0e b33c 3491 b5bd d85d 9b3e
00000160: 626d 25be 88fa 0cbd 27b6 63bd 3f4a 87bd
00000170: 165c 83bc dca2 4ebe 4482 803d dd13 dcbd
00000180: d3f8 a1bc 258b 91bd 2a9e c2bb 2172 ce3c
00000190: aead 1cbf a3ef b93e 646c 423e 23b6 a53a
000001a0: e3b6 b53d 481e 2d3e 9603 433e 921d 9b3e
000001b0: 391c 26be 9acd 2cbe 728b bb3d fd06 ad3c
000001c0: 3d92 86bd 87e0 edbd 7057 f63d cb6c dcbd
000001d0: 0fee 9bbc 3923 b6bd a03a 65bc 5004 25bc
000001e0: 1fab 32bf 6077 1b3f a9c9 b1bd c640 3abd
000001f0: cf96 b23d 81d8 ad3c 9f60 78be 328b 723e
00000200: 4dc9 70be 7498 dfbd ecf8 393e 4c59 bebd
00000210: 2779 57bd 7369 65be 45bb 183e 6417 2abe
00000220: 9abb 84bd 030c b1bc bb90 bf3d bc8b 2e3d
00000230: 71d8 15bf ad38 083f 9582 d03c 2abf ae3d
00000240: 2ea9 753d c3ff b7bc 4630 00bf 0313 883e
00000250: db4e 10be 63ad 08be 2ead b83e a55d c13d
00000260: 0bdb 00be 850b 88be bd3e d43d 21f5 25be
00000270: 7c8f b5bc b477 98bd b98f 563a ec69 043c
00000280: 4796 d7be 1761 2b3f 7582 b6bd 5fde c43d
00000290: 9184 463c ce39 533c b462 223e c219 2f3e
000002a0: 081f 363e e957 a03d 180b 0b3e 437b 9ebd
000002b0: 1b57 cb3c 62cf d5bd 736d 0e3e 30a2 8dbe
000002c0: 1d4e 69bc 5c94 983d 1c32 db3c 796e 1dbc
000002d0: 4002 f3be 9c8a 2b3f 168d b73d a27b 19bc
000002e0: 1a5a 5abd 3e3f aabd 71af b93e eb9d 883e
000002f0: 8e76 77bd ed06 d73d de6c 153e aa01 cf3d
00000300: 38ae bc3d 2875 71be 17c0 723e 2743 3bbe
00000310: 1782 763d 0d73 143e 9f6f a83c 69a7 71bc
00000320: bf89 5d3d 2b69 2c3f a7f0 243d eff9 abbd
00000330: 59f0 cf3d a1d1 ec3d 7b8a 5a3e e3b6 bb3e
00000340: c340 d6bd 35c6 a6bc 9811 e5bd 591c dd3d
00000350: c000 cdbd a833 80bd 5284 903d 39f9 68be
00000360: b851 43bd 5466 e8bc 3966 50ba ec6f f63c
00000370: 7a1d cbbc 6c2f 053f ea32 fd3c 3463 36bd
00000380: 2bea 253d 0239 8ebd 2d5a 2b3f 2429 de3e
00000390: 919b 8cbc 2f96 9d3c 177c 853d c7a2 aa3e
000003a0: ce22 543c cfa8 57bd 6231 ac3d 1e55 24be
000003b0: bbed 15bd d312 9fbc c5e6 033d 9672 413d
000003c0: 26ef 0cbe c92f e4bd 3aa4 3d3d d567 79be
000003d0: 6c18 923d ca59 183e b83a 4ebd a784 8e3d
000003e0: 35ff 3b3d c4c8 e53d 1fb3 993d 0be1 65bd
000003f0: 8fd2 99bc 09ed 2bbe d064 59bd b97f 083e

v.net.0.bias f4 [64]
-0.13264033 -0.9329739 0.5694118 -0.13120285 0.37169906 -0.08472571 -0.14330596 1.3447266
-0.13263409 -0.19262506 1.3847167 -0.58645785 -0.111529686 -0.29754817 0.16162866 0.7379251
-0.25199696 1.2464259 -0.8186987 0.27116063 0.2530854 -0.33321813 0.8331725 0.28579867
1.6001927 -0.05271361 -0.7620658 -0.2458136 -0.6769932 0.3875783 -1.669936 0.4400037
-0.6890484 -1.3292344 0.10267889 -1.051832 0.023275692 -0.24747112 0.18988626 -0.20414923
0.29712254 -0.31530964 -1.6724783 0.20738752 -0.025726896 0.36993298 -0.2644048 0.2517748
-0.37348548 0.20159976 -0.2438625 -0.12693456 -0.5872779 0.26011744 -1.0172632 1.7393222
-0.3278494 0.23528337 0.61030716 -1.0442368 0.54228294 -0.62122566 -0.08785668 -0.09165087
00000000: ded2 07be 61d7 6ebf f9c4 113f 0a5a 06be
00000010: 574f be3e ac84 adbd ccbe 12be 0020 ac3f
00000020: 3bd1 07be 813f 45be 663e b13f 1a22 16bf
00000030: ad69 e4bd 3c58 98be fc81 253e a9e8 3c3f
00000040: bf05 81be e28a 9f3f 3d96 51bf 91d5 8a3e
00000050: 6994 813e 919b aabe cb4a 553f 3454 923e
00000060: 1dd3 cc3f 3aea 57bd bf16 43bf 8fb6 7bbe
00000070: 6d4f 2dbf aa70 c63e 76c0 d5bf 2a48 e13e
00000080: 7a65 30bf 5a24 aabf 4f49 d23d 6ea2 86bf
00000090: aaac be3c 1269 7dbe 8b71 423e 7f0c 51be
000000a0: 7220 983e 4470 a1be c513 d6bf 655d 543e
000000b0: 36c1 d2bc db67 bd3e 1160 87be a0e8 803e
000000c0: 7d39 bfbe 2b70 4e3e 17b7 79be 22fb 01be
000000d0: d857 16bf 1d2e 853e ae35 82bf 1ca2 de3f
000000e0: e0db a7be 20ee 703e 173d 1c3f 8da9 85bf
000000f0: 0ed3 0a3f a508 1fbf 34ee b3bd 74b3 bbbd

v.net.2.weight f4 [64, 64]
0.12099667 0.09341648 0.047506656 0.13496931 0.13090816 0.20153601 -0.06745208 0.028479401
-0.12921883 0.053215455 -0.10357663 0.020152314 -0.10119852 0.09673111 0.1536224 0.013600037
-0.06339251 0.018561516 -0.119452536 0.097248144 -0.058285736 -0.06231127 0.113130145 0.14788419
0.07289932 0.03716823 0.06414817 0.14270687 -0.15808766 0.022652045 -0.11842884 -0.082133375
-0.0015262852 0.12459098 -0.17362943 0.02788324 -0.07344511 0.009994137 -0.21738419 0.2737121
0.18722664 0.28950244 -0.09435396 0.32640713 0.06552026 -0.13897488 0.030476173 0.022717921
0.015674796 -0.13148451 0.090638295 -0.04896722 0.024048727 0.387156 -0.09125442 0.08257159
-0.12147838 -0.026448295 0.0038958916 -0.094378926 -0.033989575 -0.16337508 0.16091283 0.08322248
0.061287902 0.046896424 -0.13375954 -0.059321776 -0.019320112 -0.027041547 0.057744816 0.14390175
0.067936525 -0.12543109 0.12026988 0.044766653 -0.029842328 0.17546438 -0.03756095 -0.21747285
-0.044610247 0.17988938 -0.23456456 0.13698795 -0.03247067 -0.08440779 -0.062137507 -0.1283555
0.045448523 -0.0690598 -0.13938275 -0.001555946 -0.08405138 0.07479689 -0.072494514 -0.014781326
-0.01445948 -0.08156915 -0.058129948 -0.17466182 0.0971197 0.23778725 0.0074660173 0.06982387
-0.10248071 -0.010086958 -0.08426255 0.039257336 0.12576935 0.06466088 0.02305613 -0.11383983
-0.07174537 0.06897514 -0.024379494 -0.05453771 -0.09139914 0.10441217 0.010295775 0.10919164
-0.08702622 0.040973734 0.046514202 -0.049395103 -0.0010147059 -0.0034773566 -0.12061309 0.01875635
-0.12944819 -0.09634882 -0.039612625 -0.14950983 0.013257058 0.019340567 -0.1820324 0.058256768
-0.047749307 -0.051315565 0.20448238 -0.3123279 0.058106005 -0.09170714 -0.027943762 0.021642843
0.1371988 0.2721675 -0.27311528 0.028851377 -0.06211993 0.0041094366 -0.16873772 -0.08017654
0.19825003 0.031088095 -0.016097898 0.10319358 -0.34320885 0.097088486 -0.41072848 -0.046140093
0.15265566 -0.17811838 -0.07299048 -0.13800718 0.23892172 0.29802975 -0.02146039 0.09086201
-0.0570555 0.031887673 -0.17658196 0.04493029 0.07293123 0.072117075 -0.035673793 0.16434075
-0.13862379 0.14121556 -0.29451856 -0.04610674 0.20177956 0.1043515 -0.034409802 0.37177846
-0.020808257 0.037356503 0.16274324 -0.20595829 0.068949975 0.26868585 -0.1266395 -0.049071707
0.02730127 0.30145717 -0.0047241896 -0.012380017 -0.004996508 0.120705664 0.07301339 -0.101041734
0.09145079 0.13680899 -0.22279571 0.2376182 0.0162426 0.23854251 -0.25114456 0.036032543
-0.023392426 -0.05031909 0.22025263 0.00065342255 0.10875851 0.03994474 -0.19128598 0.15266463
0.12832355 -0.01465169 -0.049293146 0.12442127 0.51729274 -0.02861294 0.07877853 -0.016339676
0.091582604 0.088399164 0.069471285 0.022950564 -0.030209063 -0.14261833 0.10600273 -0.16937298
0.07297712 -0.079756215 -0.013508768 -0.06821653 0.24857602 -0.22325583 0.1274128 0.03780822
0.030471599 -0.08361804 0.041122314 0.08372138 -0.08741184 0.07038995 -0.049173974 -0.13755426
0.1807377 -0.09870623 -0.024981199 -0.065338716 -0.22591862 -0.12842034 0.11019587 -0.0024266664
00000000: 1acd f73d 2451 bf3d 5796 423d 6535 0a3e
00000010: ca0c 063e 755f 4e3e 5124 8abd a24d e93c
00000020: f151 04be 73f8 593d fc1f d4bd 7716 a53c
00000030: 2b41 cfbd f61a c63d 314f 1d3e b1d2 5e3c
00000040: efd3 81bd 520e 983c 88a3 f4bd 092a c73d
00000050: 06bd 6ebd 1a3a 7fbd c7b0 e73d f46e 173e
00000060: 3d4c 953d b73d 183d 1e60 833d c021 123e
00000070: bbe1 21be c890 b93c d28a f2bd 8b35 a8bd
00000080: a20d c8ba 8e29 ff3d eacb 31be 646b e43c
00000090: 646a 96bd 73be 233c f699 5ebe fe23 8c3e
000000a0: 57b8 3f3e aa39 943e a63c c1bd d61e a73e
000000b0: 7c2f 863d 6e4f 0ebe 2ba9 f93c ef1a ba3c
000000c0: 6e68 803c e0a3 06be 92a0 b93d da91 48bd
000000d0: d601 c53c 5039 c63e 99e3 babd 4b1b a93d
000000e0: a8c9 f8bd 18aa d8bc 3752 7f3b bd49 c1bd
000000f0: a738 0bbd cc4b 27be 55c6 243e 8c70 aa3d
00000100: 0609 7b3d 7716 403d 43f8 08be 64fb 72bd
00000110: 3645 9ebc 3c86 ddbc d485 6c3d fb5a 133e
00000120: 4e22 8b3d 0271 00be 0e50 f63d 3d5d 373d
00000130: e677 f4bc efac 333e 83d9 19bd 34b1 5ebe
00000140: 3cb9 36bd ec34 383e b131 70be 9246 0c3e
00000150: f7ff 04bd fedd acbd e683 7ebd a06f 03be
00000160: 3b28 3a3d 396f 8dbd 5aba 0ebe e2f0 cbba
00000170: 2123 acbd 1d2f 993d 0178 94bd 602d 72bc
00000180: 74e7 6cbc ba0d a7bd ab19 6ebd 8cda 32be
00000190: b1e6 c63d 807e 733e 7ea5 f43b d1ff 8e3d
000001a0: 68e1 d1bd c543 25bc d891 acbd 4dcc 203d
000001b0: aec9 003e ec6c 843d 36e0 bc3c db24 e9bd
000001c0: 3def 92bd d742 8d3d 81b7 c7bc ef62 5fbd
000001d0: 792f bbbd 0cd6 d53d 9caf 283c de9f df3d
000001e0: ce3a b2bd 13d4 273d ad85 3e3d 8552 4abd
000001f0: e1ff 84ba 5de4 63bb ff03 f7bd eba6 993c
00000200: 118e 04be 8852 c5bd d940 22bd 1b19 19be
00000210: 2234 593c 1c70 9e3c b466 3abe a69e 6e3d
00000220: c794 43bd 4530 52bd d463 513e 71e9 9fbe
00000230: 9000 6e3d f4d0 bbbd 51ea e4bc 554c b13c
00000240: d87d 0c3e 8a59 8b3e c4d5 8bbe b959 ec3c
00000250: 7871 7ebd 74a8 863b 95c9 2cbe 9933 a4bd
00000260: 0e02 4b3e 76ac fe3c bddf 83bc 2857 d33d
00000270: 12b9 afbe 54d6 c63d 014b d2be 65fd 3cbd
00000280: c451 1c3e aa64 36be 087c 95bd c151 0dbe
00000290: e5a7 743e 5b97 983e b3cd afbc dd15 ba3d
000002a0: 07b3 69bd a69c 023d e7d1 34be d308 383d
000002b0: f85c 953d 1eb2 933d af1e 12bd f148 283e
000002c0: 65f3 0dbe d09a 103e 23cb 96be 6cda 3cbd
000002d0: 4d9f 4e3e 3db6 d53d 4bf1 0cbd bf59 be3e
000002e0: 1476 aabc 2203 193d 2aa6 263e bbe6 52be
000002f0: a535 8d3d 3191 893e c9ad 01be 6aff 48bd
00000300: eaa6 df3c 9858 9a3e 60cd 9abb 8ed5 4abc
00000310: bfb9 a3bb 8834 f73d 0b88 953d f8ee cebd
00000320: 8d4a bb3d a817 0c3e 8f24 64be 2f52 733e
00000330: 330f 853c 7d44 743e 0596 80be dc96 133d
00000340: 79a1 bfbc 641b 4ebd e889 613e 724a 2b3a
00000350: c8bc de3d 189d 233d 79e0 43be 1e54 1c3e
00000360: 4067 033e a40d 70bc 9ce7 49bd 94d0 fe3d
00000370: 4c6d 043f af65 eabc a356 a13d c9da 85bc
00000380: a98f bb3d 9f0a b53d f646 8e3d d202 bc3c
00000390: ff78 f7bc 8a0a 12be f617 d93d 1c70 2dbe
000003a0: 0775 953d 3a57 a3bd e153 5dbc 1cb5 8bbd
000003b0: b68a 7e3e 2d9d 64be 8078 023e cbdc 1a3d
000003c0: 939f f93c ef3f abbd df6f 283d 1d76 ab3d
000003d0: fb04 b3bd 9b28 903d a66a 49bd 06db 0cbe
000003e0: 4e13 393e 7e26 cabd 5fa5 ccbc 4ed0 85bd
000003f0: 3657 67be 9f80 03be 5fae e13d b508 1fbb

v.net.2.bias f4 [64]
-0.20809269 0.35197443 -0.10383634 -0.14632845 -0.23148263 0.5208034 -0.7384327 0.8938274
-0.075151905 0.43668327 -0.4004995 -0.03378183 -0.11806211 -0.16502012 0.06269359 -0.37546352
-0.42479047 -1.0666007 0.5052283 -0.28216887 0.35126027 -0.30775264 -0.3829285 -0.33406648
0.27920794 0.22433972 0.42542908 0.07650082 -0.43648356 0.24793707 0.25555035 -0.23106566
0.3406465 -0.26685953 0.3790424 -0.17642531 -0.344947 0.29954943 0.13216048 -0.31972042
-0.23206316 -0.31605077 -0.31762403 0.055465434 -0.24273351 0.33521104 0.6382273 -1.0378932
-0.38556933 0.07317447 -0.4956856 -0.47405788 -0.307397 -0.33280998 0.32296044 0.22718982
0.015406023 0.42136294 -0.2686349 0.13324241 0.39525914 -0.2626014 0.35844603 -0.12988156
00000000: 4016 55be fe35 b43e 26a8 d4bd 20d7 15be
00000010: c809 6dbe 5f53 053f ed09 3dbf dfd1 643f
00000020: 3ee9 99bd f394 df3e 450e cdbe d15e 0abd
00000030: 8cca f1bd 09fb 28be 7f65 803d c13c c0be
00000040: 237e d9be 5f86 88bf a456 013f 7078 90be
00000050: 63d8 b33e c191 9dbe 340f c4be c30a abbe
00000060: 58f4 8e3e 50b9 653e d7d1 d93e 76ac 9c3d
00000070: c67a dfbe 37e3 7d3e 7fd7 823e 7a9c 6cbe
00000080: 3869 ae3e d0a1 88be d811 c23e d6a8 34be
00000090: e59c b0be 8b5e 993e 1455 073e 65b2 a3be
000000a0: f7a1 6dbe 68d1 a1be 9e9f a2be b92f 633d
000000b0: 228f 78be c8a0 ab3e dd62 233f afd9 84bf
000000c0: 5869 c5be 7fdc 953d 81ca fdbe b7b7 f2be
000000d0: 2463 9dbe 1266 aabe 125b a53e 73a4 683e
000000e0: 8b69 7c3c e2bc d73e 838a 89be b370 083e
000000f0: 685f ca3e b173 86be 3d86 b73e acff 04be

v.net.4.weight f4 [1, 64]
0.08664744 -0.032626886 0.054262638 -0.07006262 0.011479819 -0.10178916 0.12518029 -0.21697146
0.004733511 -0.10196872 0.043216784 0.0012804486 0.01811376 0.06953515 -0.008745159 0.08915768
0.05910865 0.21447724 -0.11216174 0.05051504 -0.07500048 0.056777257 0.07188399 0.07730102
-0.042924784 -0.045745075 -0.05399784 0.20528379 0.1104361 -0.07478916 -0.07006209 0.094388746
-0.05079506 0.023941841 -0.095183745 0.07330942 0.064937286 -0.07851657 -0.036607917 0.03535081
0.079042226 0.040528987 0.028013878 -0.20318678 0.018898994 -0.042552643 -0.14801006 0.18492608
0.024501787 -0.0048954734 0.09661774 0.062400494 0.09066157 0.07127072 -0.07615239 -0.065083414
-0.15781511 -0.084566094 0.02588033 -0.107151106 -0.10459142 0.08319882 -0.07081861 0.26823702
00000000: 3774 b13d c5a3 05bd 8042 5e3d fe7c 8fbd
00000010: da15 3c3c d676 d0bd 432f 003e c42d 5ebe
00000020: 911b 9b3b fad4 d0bd 1504 313d bad4 a73a
00000030: 4f63 943c 7268 8e3d db47 0fbc 4d98 b63d
00000040: e91b 723d ec9f 5b3e 0eb5 e5bd dce8 4e3d
00000050: da99 99bd 458f 683d ea37 933d ff4f 9e3d
00000060: e6d1 2fbd 305f 3bbd d72c 5dbd ea35 523e
00000070: 522c e23d 0f2b 99bd b77c 8fbd e34e c13d
00000080: 7b0e 50bd ae21 c43c b2ef c2bd 4023 963d
00000090: d7fd 843d 4ccd a0bd 2ff2 15bd 03cc 103d
000000a0: e4e0 a13d b901 263d 5c7d e53c 3210 50be
000000b0: 10d2 9a3c ae4b 2ebd f38f 17be 435d 3d3e
000000c0: f9b7 c83c 356a a0bb 86df c53d a997 7f3d
000000d0: c6ac b93d 62f6 913d c9f5 9bbd 744a 85bd
000000e0: 499a 21be fd30 adbd fc02 d43c 0a72 dbbd
000000f0: 0734 d6bd 2564 aa3d 5909 91bd 5d56 893e

c.net.0.weight f4 [64, 40]
-0.1052263 0.03364624 -0.0938391 -0.042725123 0.08070013 0.14700295 0.067562155 0.0064375848
-0.07841356 -0.061515357 0.084511474 -0.12119318 -0.12172961 0.15265614 -0.053763907 0.06988029
-0.116485015 0.11815376 -0.08124928 -0.15326881 0.12299264 -0.12746799 0.0033582628 -0.037648562
-0.15263669 -0.11746633 -0.011556405 0.06958989 -0.01293443 -0.0492323 -0.10496996 -0.115981944
-0.012778476 0.05573391 -0.024029627 0.022406306 0.07090079 -0.07455121 0.10455654 -0.041130096
-0.031688415 0.057015885 0.07446626 -0.120327495 -0.11651434 0.07540006 -0.1392168 0.13523303
-0.0027387457 -0.074362256 0.120007746 0.016866596 -0.088344626 -0.050424173 0.007680219 -0.11875671
-0.06355787 0.14089347 -0.0718601 -0.12938604 -0.088959284 0.018197177 0.0022315662 0.007563565
-0.028615953 0.13499999 -0.026586482 -0.12850617 0.13641126 0.07597091 -0.12811618 0.09955814
0.14013323 0.055404928 0.10077118 -0.12661953 -0.06968257 0.08292416 -0.08334772 -0.07372664
-0.031732444 -0.049776383 -0.0068299193 -0.143443 -0.106317885 0.15771005 -0.115043394 0.15296112
-0.15174487 0.030556329 -0.025958277 0.13080405 -0.12636454 -0.11768897 -0.08799862 -0.077223
0.029687293 0.054909624 -0.13352406 -0.004115356 0.15157029 0.014709501 -0.07057117 0.15003565
0.035664327 0.10369029 -0.028084705 0.02063966 -0.008822014 -0.0996983 0.14125136 -0.021346107
-0.053835873 0.10634171 0.022100732 0.13203715 -0.11575174 -0.006517107 0.08247282 0.08390504
-0.13941586 -0.09796513 0.051966786 0.056752644 0.030508 0.11980471 0.110914804 0.0967126
0.06820355 0.11981389 0.038059387 -0.00073257135 0.030406745 0.13109697 -0.09249887 -0.05433815
0.1374124 0.030937862 0.03345857 0.07161925 0.03509561 -0.056586456 0.1273836 -0.12021848
-0.04345694 0.11321002 -0.025971282 -0.034544002 -0.05215043 -0.03198021 0.05589518 -0.044230603
-0.049956877 0.13557182 -0.12930377 -0.051320482 0.11547397 -0.005591318 0.08906022 -0.12248987
0.06867545 0.008227376 -0.078158066 -0.15483722 0.10140218 0.13680714 0.1560517 -0.1342863
-0.08166054 -0.09572661 -0.15485246 0.113815986 -0.15230136 0.14463118 0.018900232 -0.0028285028
0.09125748 -0.109530486 -0.14686495 -0.14214256 -0.13176937 0.11704231 0.13096185 0.07657936
-0.12919876 0.048310447 -0.14763367 0.056238264 0.102861926 0.061325192 -0.070504725 0.12643075
0.0694336 0.038595784 0.07180855 0.07827708 -0.09218751 0.09410809 -0.13648427 0.14523214
0.106478095 -0.033323403 -0.038567964 0.15361018 0.024671517 0.033634312 -0.10068559 0.09153248
0.012874905 -0.06861375 -0.15067634 0.006223577 -0.107794076 -0.08468319 -0.028084649 -0.04338709
-0.08867169 0.10379057 0.14964727 -0.05198307 0.08168991 0.06764145 -0.02195064 -0.027565274
-0.15543878 0.08121492 0.14718221 -0.02621492 0.0037086215 0.072889835 -0.12664922 0.14082417
-0.069975644 -0.08545121 -0.11622686 -0.0917034 0.13164355 0.122642905 -0.062708326 0.1437632
0.10752949 -0.0966264 -0.14334047 -0.027137598 0.07570541 -0.0722641 -0.04571927 0.14296962
0.08680403 -0.031052744 0.035795704 0.068529256 0.045797568 0.08566231 0.13297588 0.08314782
00000000: e380 d7bd a4d0 093d b72e c0bd 8a00 2fbd
00000010: 1c46 a53d f187 163e 075e 8a3d 60f2 d23b
00000020: 4a97 a0bd 87f7 7bbd 5a14 ad3d 2134 f8bd
00000030: 604d f9bd e451 1c3e 8b37 5cbd 661d 8f3d
00000040: b28f eebd 99fa f13d 0666 a6bd 80f2 1cbe
00000050: 91e3 fb3d f886 02be 4d16 5c3b 6135 1abd
00000060: cb4c 1cbe 3092 f0bd 1357 3dbc 2585 8e3d
00000070: eeea 53bc cfa7 49bd 7efa d6bd f187 edbd
00000080: d05c 51bc 3e49 643d c8d9 c4bc 6e8d b73c
00000090: 6f34 913d 4eae 98bd bd21 d63d 0878 28bd
000000a0: b6cb 01bd 7d89 693d c481 983d 436e f6bd
000000b0: 129f eebd 596b 9a3d d98e 0ebe 877a 0a3e
000000c0: 877c 33bb 3d4b 98bd 9fc6 f53d d12b 8a3c
000000d0: 07ee b4bd 9489 4ebd 59aa fb3b b836 f3bd
000000e0: a12a 82bd 6146 103e 632b 93bd c67d 04be
000000f0: 4930 b6bd 3f12 953c 783f 123b c8d7 f73b
00000100: 016c eabc 703d 0a3e e5cb d9bc 1f97 03be
00000110: 65af 0b3e a396 9b3d e330 03be 23e5 cb3d
00000120: 167f 0f3e 47f0 623d 1f61 ce3d 8da8 01be
00000130: bcb5 8ebd 24d4 a93d 36b2 aabd fefd 96bd
00000140: e1f9 01bd 52e2 4bbd 84cd dfbb b9e2 12be
00000150: 31bd d9bd be7e 213e df9b ebbd d7a1 1c3e
00000160: 0263 1bbe 4451 fa3c 74a6 d4bc 7ff1 053e
00000170: b565 01be ea06 f1bd 9f38 b4bd 1827 9ebd
00000180: c432 f33c eae8 603d 88ba 08be 1cda 86bb
00000190: 3e35 1b3e 1e00 713c 9e87 90bd f2a2 193e
000001a0: c214 123d 935b d43d e511 e6bc 8114 a93c
000001b0: 358a 10bc 9f2e ccbd 32a4 103e 08de aebc
000001c0: 0183 5cbd afc9 d93d 980c b53c bf34 073e
000001d0: 400f edbd 758d d5bb 83e7 a83d 68d6 ab3d
000001e0: 08c3 0ebe f1a1 c8bd 20db 543d 7675 683d
000001f0: eaeb f93c 2c5c f53d 4d27 e33d 4111 c63d
00000200: 4eae 8b3d fc60 f53d 29e4 1b3d 080a 40ba
00000210: 9117 f93c 493e 063e 0c70 bdbd ae91 5ebd
00000220: d6b5 0c3e 6671 fd3c da0b 093d 1dad 923d
00000230: 6ac0 0f3d 33c7 67bd d970 023e 1b35 f6bd
00000240: e8ff 31bd a8da e73d bac1 d4bc 037e 0dbd
00000250: b09b 55bd aefd 02bd 58f2 643d 262b 35bd
00000260: 959f 4cbd 57d3 0a3e 3568 04be 6d35 52bd
00000270: 9e7d ec3d 6037 b7bb 3465 b63d f8db fabd
00000280: b7a5 8c3d 1ecc 063c 5611 a0bd a68d 1ebe
00000290: f2ab cf3d 2c17 0c3e 04cc 1f3e 5982 09be
000002a0: a43d a7bd 500c c4bd a591 1ebe 5b18 e93d
000002b0: e3f4 1bbe 321a 143e a9d4 9a3c 675e 39bb
000002c0: 34e5 ba3d 8551 e0bd c463 16be d28d 11be
000002d0: 8dee 06be e1b3 ef3d dd1a 063e a4d5 9c3d
000002e0: ae4c 04be 2de1 453d 482d 17be 185a 663d
000002f0: 46a9 d23d 2030 7b3d c864 90bd 1077 013e
00000300: 3433 8e3d 9d16 1e3d 5c10 933d bc4f a03d
00000310: cecc bcbd bebb c03d 88c2 0bbe bcb7 143e
00000320: 3011 da3d 1f7e 08bd 71f9 1dbd fd4b 1d3e
00000330: ec1b ca3c 22c4 093d 3f34 cebd 6275 bb3d
00000340: 44f1 523c 5e85 8cbd e64a 1abe 26ef cb3b
00000350: 24c3 dcbd 616e adbd c711 e6bc a9b6 31bd
00000360: 8199 b5bd 2690 d43d 223d 193e 33ec 54bd
00000370: 0a4d a73d 9a87 8a3d d4d1 b3bc 92d0 e1bc
00000380: 582b 1fbe 0254 a63d efb6 163e acc0 d6bc
00000390: 580c 733b 4447 953d 55b0 01be 3634 103e
000003a0: 644f 8fbd 0b01 afbd 5908 eebd fece bbbd
000003b0: 91cd 063e 342c fb3d 396d 80bd a936 133e
000003c0: 6c38 dc3d 10e4 c5bd d8c7 12be ab4f debc
000003d0: 700b 9b3d 33ff 93bd 2144 3bbd a166 123e
000003e0: 50c6 b13d 5362 febc 849e 123d 1159 8c3d
000003f0: 3b96 3b3d b96f af3d d42a 083e 6749 aa3d

c.net.0.bias f4 [64]
0.03437653 0.079067744 0.026840053 0.11983423 -0.08598178 0.062875025 -0.095513806 0.005156461
0.032761674 0.14305514 0.09346179 -0.06616716 0.052805588 -0.062055238 0.1420609 0.058710303
0.065771796 -0.11883979 0.039545134 0.020918922 -0.060190767 0.025102869 0.14814849 -0.12266639
-0.09738237 0.12557837 0.03055267 0.06879949 -0.00798487 -0.0902687 0.066666745 0.09430061
0.008168549 -0.110583276 0.1204761 -0.14782037 0.03178522 0.09581532 0.033099916 -0.064606026
-0.07726988 0.13776773 0.05412469 -0.07648842 -0.010264877 0.012170512 0.115574114 -0.09305338
0.09364783 -0.0701333 -0.0074743163 0.08059363 -0.1302812 0.0888605 0.07949459 0.07235001
-0.14879635 0.14374594 0.13518615 0.093307815 -0.09700328 -0.09797749 0.145637 -0.11920568
00000000: 68ce 0c3d 45ee a13d acdf db3c a66b f53d
00000010: 3717 b0bd 9fc4 803d be9c c3bd 88f7 a83b
00000020: 1b31 063d 0c7d 123e e568 bf3d a682 87bd
00000030: ac4a 583d a22d 7ebd 6a78 113e 377a 703d
00000040: 5db3 863d 4762 f3bd 14fa 213d 295e ab3c
00000050: 988a 76bd 88a4 cd3c 3db4 173e 8438 fbbd
00000060: 6870 c7bd 9e97 003e 9849 fa3c bfe6 8c3d
00000070: f9d2 02bc ccde b8bd 9388 883d ae20 c13d
00000080: 61d5 053c 7c79 e2bd 2cbc f63d 395e 17be
00000090: 3831 023d d33a c43d c793 073d 2a50 84bd
000000a0: ac3f 9ebd fc12 0d3e dab1 5d3d f6a5 9cbd
000000b0: 042e 28bc d466 473c 1fb2 ec3d c592 bebd
000000c0: 6fca bf3d 0ca2 8fbd 1ceb f4bb 460e a53d
000000d0: 6f68 05be 7efc b53d 0fce a23d 3e2c 943d
000000e0: 125e 18be 2332 133e 3d6e 0a3e 2b18 bf3d
000000f0: a8a9 c6bd 6ca8 c8bd de21 153e 1c22 f4bd
