experiments/07_control_structure_hypothesis/checkpoints/PWM/DroneCircleBulletEnv-v0/ppo/2021-12-20__11-09-14/seed_00102/torch_save/model.pt (torch, 82448 bytes, 19 tensors)

obs_oms.mean f4 [40]
00000000: e679 7d3e c378 01bb edf5 803f b413 d83a
00000010: b4d1 0dba 25af 2f3d 68f5 7c3f 9c8d aeb7
00000020: 00ab 083b 9fb3 2abc a411 2a3d db9d 15bc
00000030: 149f a93c 8efc 063b 2aec ef3a 27ed f5bb
00000040: 21e4 aa3e c700 903e 466f 953e 33f3 8f3e
00000050: fa79 7d3e 0c1b 00bb 30f2 803f b1f3 e03a
00000060: 90e7 11ba 81fc 2f3d f1db 7c3f 1c18 4738
00000070: 1b95 083b cced 3fbc 9510 3e3d 7f94 20bc
00000080: bf91 ac3c a6c6 063b 0d4f ee3a fa33 f2bb
00000090: 3d4e aa3e 60c6 8f3e f6d5 943e f594 8f3e
0.24753532 -0.0019755817 1.007505 0.0016485364 -0.00054099713 0.04289164 0.9881196 -2.0808358e-05
0.0020853877 -0.010418802 0.04152073 -0.009131874 0.020705737 0.0020597312 0.0018304635 -0.0075050774
0.33377174 0.28125593 0.29186457 0.28115234 0.24753562 -0.0019547371 1.007391 0.001716247
-0.00055658165 0.042965416 0.98773104 4.746775e-05 0.0020840827 -0.01171441 0.046402533 -0.009801029
0.02106559 0.002056518 0.0018181518 -0.00739145 0.33262816 0.28081036 0.2906949 0.28043333

obs_oms.std f4 [40]
00000000: 3a4d 363e 1e1e 353e 82e1 0e3d 96c3 a63d
00000010: 6c88 a03d 1564 db3d 9beb 3a3d c11f ca3e
00000020: 6c5c c93e c2fe 053e f052 de3f 8c20 d33f
00000030: 8ef2 d93e 067b ff3c e279 053d 65e1 0e3d
00000040: f8d8 2e3f 123c 073f 33a5 0f3f 285e 043f
00000050: fb5d 363e 3d2d 353e 0a11 113d 7ef0 a93d
00000060: 674a a33d 5534 dc3d d1dc 483d b11c cb3e
00000070: 655f ca3e a0e2 0f3e 0908 e33f 6511 d63f
00000080: 5728 dc3e 2f48 013d 31f1 063d 2911 113d
00000090: a98f 2e3f a2f8 063f 235e 0f3f 2a0b 043f
0.17802897 0.1768727 0.03488303 0.08142774 0.078385204 0.107124485 0.045634847 0.3947735
0.39328325 0.13085464 1.736906 1.6494308 0.42567867 0.031186592 0.03258694 0.03488292
0.6829982 0.52826035 0.5611145 0.5170617 0.17809288 0.17693038 0.03541664 0.08297823
0.079731755 0.10752169 0.049038712 0.39670327 0.39525905 0.14051294 1.7736827 1.6724058
0.42999527 0.03156298 0.03294486 0.035416756 0.6818796 0.52723134 0.56003016 0.51579535

pi.log_std f4 [4]
00000000: 4352 90c0 4352 90c0 4352 90c0 4352 90c0
-4.5100417 -4.5100417 -4.5100417 -4.5100417

pi.net.0.weight f4 [50, 40]
00000000: 09db bf3b ef1a 97be 7d3f 633e c075 cd3d
00000010: 53d0 2f3e f2f7 d73d c2be 2e3e b76e 503e
00000020: e29e 133b bef2 903e 8841 c43d 82f8 453d
00000030: caa4 7b3d 1476 0d3d fe61 d0bd aee1 14be
00000040: dfb4 123e 3e4a 7f3d 29fe 56bd ac51 b33b
00000050: edf8 47bd 6b49 adbe cc17 f03c 0db7 813d
00000060: 9ccc 083e 192d 9c3d ffd4 c83e 022f 493e
00000070: 9352 78be f835 e73e 1b7a babd 8736 983e
00000080: ec90 623b e1f6 b0bc 266a 913d a7a6 b2bd
00000090: 2547 87bd b04d ae3d d403 443d bb54 f338
000000a0: 332f 0b3e 4231 6f3d 6157 b23c f653 7b3e
000000b0: a3c9 2c3d e47d 61bd 6819 81bd 0551 e1bd
000000c0: cf1a b4bd 314e ad3c d933 c83d 459b 5c3e
000000d0: 8ac8 1d3e afac 3e3e eb37 4dbe c568 3f3d
000000e0: add3 98bd a187 be3d 831e 2f3e 8f11 213d
000000f0: 0706 eebd 4fc9 123e 7b50 fbbd b445 a63e
00000100: e141 253e 8bc0 39be 1d7f a8bc fe54 37be
00000110: 6632 363d 6c69 bcbe 55ea 373e 936b f63d
00000120: 95a0 803d cea8 433e e6a5 41be 316a 613e
00000130: 0388 f8bc e98b 70bc be4e 9abe 2756 8ebd
00000140: 271e 083e 693b df3c 1de0 0fbd 0337 49be
00000150: 985f 1cbe d1f3 313d 9395 623e f250 59be
00000160: b3e4 91bd 039d 2b3d 517d e9bd 8b10 bfbd
00000170: c99a f6bd 6499 f43d bd02 b53c 0743 c53a
00000180: 4dc7 063e fe1c b0be 77bc cb3d 1865 4f3e
00000190: d2d3 dbbd 5834 b0bc cd1f 483e 0aaa 15be
000001a0: 6b35 97be a00f 1bbe 8575 74bd fca2 92be
000001b0: a645 483e ed52 8c3d 1ef1 47bb 7c9f 00be
000001c0: 4c80 19bd ffee 533c 4141 32be 3c16 043d
000001d0: 5f56 b03a 16d2 563e 105a 8a3e a81b 38bc
000001e0: 85bc 64bd ccee e83d 9e99 6d3d acc5 523e
000001f0: 7f98 46be 4317 f8bc 4c52 f13e 1676 36be
00000200: 3493 0cbe 76b8 733e 507d 113e 7b6e edbd
00000210: d44c 0d3d 3ec5 143e 6278 393d ce2c 83bd
00000220: 8915 0dbd abe6 97bd 1ce1 c43c 3962 d83c
00000230: fc89 1cbe 76ba 323e fcf5 673c e060 073e
00000240: fcdf 92be 39b8 b8bd 5628 8a3e 11c3 96be
00000250: 88ea 55be 1a64 393e 6517 603d 2850 bfbe
00000260: fe57 1bbe 75af 81bd 74fb 533e fbd8 d5bd
00000270: 62ea 013e 914f ecbc 4f55 93bc 4b21 d73d
00000280: 3942 1e3d f178 87bd 7620 82bd 4011 fb3c
00000290: 85df 04be f419 eabd 87ac 3cbd 63f0 fb3c
000002a0: 21c7 333d cdfb 33bd 59a6 c8bd eb25 39be
000002b0: 07ed 08bd 378c 21be 69e9 9d3d 470d 4abc
000002c0: 38f4 ac3d ad57 7f3b 10b4 95be 1fd6 ef3c
000002d0: 7b8a 173e 6ae3 67bb d518 553e 47b0 0fbe
000002e0: a368 a8bd e6cb 77be 2884 c13d 55a3 7e3d
000002f0: e4ef 5c3e f40f 143d 5ac4 59be 1735 95be
00000300: 3ef6 59bd 35c1 32be 077b 97bd cc2b 00be
00000310: a946 d03d ade2 923d ff7e 103e 44fe 453e
00000320: dd78 e43d 7790 ac3d 631a 5b3e 182f 17be
00000330: 8393 f73d 983f 853e 3261 3d3d 96fb 57bd
00000340: 210d e43d ec00 5abe 1b90 523e ca5c 213e
00000350: 4494 9d3d c4b8 48be 39f7 153c 5f21 a739
00000360: 1518 13be dadf 473d ad2b 633a 3bae b9bd
00000370: 9998 d1bc 6d96 713d 5bf4 40bd 0cba 3b3e
00000380: 557f 043e ddf6 8e3d 67b9 abbd 20c8 f8bb
00000390: 8773 a7bd 9786 32be a54f b23e fae6 743e
000003a0: 3d3d de3d bd64 f0bd cd98 4dbd 858a a8bd
000003b0: abc1 903e 7a0b 0ebe 703d 26bd e85c 303e
000003c0: bfde 08bd 9429 bf3d 4a09 ab3d 4705 613d
000003d0: 99ec 5cbe 890a 4ebd c287 11be 8288 3d3d
000003e0: 87d6 0d3e e984 ea3d 6ab6 89bd c620 1b3d
000003f0: dd6c ab3d 90b1 bcbd d72e ab3d 5647 91bb
0.0058549684 -0.29512736 0.22192188 0.10032225 0.17169313 0.10545339 0.17064956 0.20354734
0.0022525121 0.28310198 0.095828116 0.0483327 0.061436452 0.034536436 -0.101749405 -0.14539215
0.1432681 0.062326662 -0.05248848 0.0054723825 -0.04882138 -0.33845076 0.029308222 0.06333742
0.13359302 0.07625789 0.39225003 0.19646838 -0.2425025 0.45158362 -0.09105321 0.297291
0.0034571243 -0.021602096 0.07100324 -0.08723193 -0.066053666 0.085109115 0.047855213 0.00011602925
0.13592224 0.058396585 0.021770181 0.24543747 0.042184483 -0.0550517 -0.06303674 -0.110017814
-0.08794176 0.021155449 0.09775514 0.21543606 0.15408531 0.18620561 -0.20040862 0.046730775
-0.07462249 0.09303213 0.17101483 0.039323386 -0.116222434 0.14334606 -0.1227121 0.32475054
0.16138412 -0.18139856 -0.020568425 -0.17903516 0.044481657 -0.3679918 0.17960484 0.12032237
0.062806286 0.19107363 -0.18910941 0.22013165 -0.030338293 -0.014681795 -0.301382 -0.06950026
0.13292752 0.027250009 -0.03512584 -0.19649892 -0.15270841 0.043445412 0.2212737 -0.21222284
-0.07123699 0.041897785 -0.11400855 -0.09329327 -0.12041242 0.119433194 0.022096032 0.0015049883
0.13161965 -0.3439712 0.09948056 0.20253408 -0.10733761 -0.021509334 0.19543381 -0.14615646
-0.29532942 -0.15142679 -0.059682388 -0.28639972 0.19557819 0.06851754 -0.0030508707 -0.12560838
-0.03747587 0.012935399 -0.17407705 0.032247767 0.0013453475 0.20978579 0.27021837 -0.0112370625
-0.05584385 0.11373672 0.05800783 0.20583218 -0.1939411 -0.03028453 0.471331 -0.17818484
-0.13728029 0.23800835 0.14207959 -0.11593338 0.034497097 0.14528367 0.04528082 -0.0640503
-0.034444366 -0.07417043 0.024033122 0.026414024 -0.15287012 0.17453942 0.014157768 0.13220549
-0.28686512 -0.09019513 0.269839 -0.294457 -0.20890248 0.18104592 0.05470981 -0.37365842
-0.15170285 -0.06332294 0.2070139 -0.10441776 0.12687066 -0.028846534 -0.017985014 0.10504397
0.038637374 -0.066148646 -0.06353848 0.030647874 -0.12975891 -0.114307314 -0.046062972 0.030754274
0.043891076 -0.043941308 -0.09797353 -0.18080871 -0.033429172 -0.15776144 0.07710535 -0.012332267
0.084450185 0.003896217 -0.2923894 0.029276906 0.1479892 -0.0035383352 0.20810254 -0.14032088
-0.08223083 -0.24198875 0.09449035 0.062167484 0.21575886 0.036148027 -0.21266308 -0.29142067
-0.05321335 -0.17456515 -0.073965125 -0.12516707 0.10169727 0.07172141 0.14110945 0.19335276
0.11155865 0.08425992 0.21396784 -0.14764059 0.120886825 0.2602508 0.04623527 -0.052730165
0.11135317 -0.21289414 0.20562784 0.15758052 0.07694295 -0.19601732 0.009153181 0.00031877586
-0.14364655 0.048797466 0.0008665871 -0.09066435 -0.02558546 0.058981348 -0.047108036 0.1833269
0.12939198 0.06980679 -0.08384972 -0.007592216 -0.08176332 -0.17434154 0.3482639 0.23916236
0.10851524 -0.11737964 -0.05019455 -0.082295455 0.28272757 -0.13871565 -0.040585935 0.17222941
-0.033415552 0.09334102 0.08351381 0.054936673 -0.2157463 -0.050303016 -0.14211944 0.046272762
0.13851367 0.11451132 -0.06724246 0.037873052 0.083703734 -0.09213555 0.08358543 -0.0044335527

pi.net.0.bias f4 [50]
00000000: 4cfd 2e3e 4720 b03d 42a3 22bd 1e4a 363d
00000010: 4dc6 7abd 8426 5bbe cddf 0fbd 0b8c 24be
00000020: 5940 393e c2d8 abbd 3492 9c3d 7b74 873e
00000030: 32a6 c53d 269a 333e a4fa b53e a5e5 9e3d
00000040: 13ea 2d3e 0c66 93bd dbd6 d13d c266 073e
00000050: 11cf 903e 764d 053e 583e 383e a7b1 033d
00000060: a70a d33e 1988 903e 0cbf c53b f9cf 9b3e
00000070: 24a9 7f3e 33b3 413d 2b73 d1bd 767a d53d
00000080: f778 763d 6a3c 27be 6c8c 88bd 2bbb 23be
00000090: 0311 4d3e afb8 963e 6526 7b3e f1a2 803d
000000a0: 4858 c83b a067 a4be 7b45 833e 0b9e 683e
000000b0: ec86 2a3d 6717 323e 0bc9 45be 91dc 513d
000000c0: 44df 993e 926c 043f
0.17088813 0.085999064 -0.039706476 0.044504277 -0.06122427 -0.21401411 -0.035125542 -0.16069047
0.18090953 -0.08390953 0.076450735 0.26456055 0.0965084 0.17539272 0.35542786 0.07758645
0.16983823 -0.07197198 0.102460586 0.13222793 0.2828298 0.1301783 0.17992532 0.032151844
0.41219065 0.28228834 0.0060347375 0.30432108 0.24966866 0.04729004 -0.10227045 0.10423748
0.060173955 -0.1633164 -0.06667408 -0.15989368 0.2002602 0.29437777 0.24526365 0.062810786
0.0061140396 -0.3211031 0.25638947 0.22716539 0.041632578 0.1739174 -0.19314973 0.05123574
0.3005315 0.51728165

pi.net.2.weight f4 [50, 50]
00000000: 4413 3dbe 2b3d d2bd 5474 083e 6cdd dbbc
00000010: 022f 203e 339d 7cbd f4da 78bd 7668 45be
00000020: 70d0 733d 5b1c 363b 8f93 16bd d909 7a3e
00000030: 979f 973d 7eb8 16be ad7c 153e a56d 0abe
00000040: 90a2 8a3e bd31 d73d 1d7c cc3d ae1f 473d
00000050: 2396 1ebd 01ff b43d b6ab 2fbd cb50 3fbd
00000060: 01c3 5bbe dbcd 713e f4d9 9a3c 0d61 883d
00000070: 0791 893e 9d6b 05be 10c5 4cbe 8144 cfbd
00000080: 54fc f7bd 290f 64bd 799f f1bd 64f9 193e
00000090: b489 01be 7449 4a3e 5118 f23d 4fb3 b63c
000000a0: caf2 33be 231b 19bc 5759 d43e 1af2 183e
000000b0: 5b4b eb3d 9fd4 94bd 51f4 96bd edc1 643e
000000c0: e882 e7bd f832 853e fc37 1f3e f208 adbd
000000d0: 9aab 17bd e309 8cbc f809 cb3d 7e2e 4dbe
000000e0: a2f5 123e c120 a5bd 70a8 06be 1f20 0d3e
000000f0: 9bda a9bc 42dc 0e3e 8054 b8bd 2ee4 913c
00000100: 5002 223d b48c f1b8 7c15 8b3e 88a3 223e
00000110: 25f7 853d 1e28 2ebe 5ac5 203c 7944 28be
00000120: 1d1b dd3b 9740 583d 3b55 77be d980 0a3d
00000130: 4d65 d33d d908 9e3e e802 3b3e d8f0 623d
00000140: 2e46 e8bd 88f6 84bd 8b43 303e b126 f53d
00000150: 831c 3cbe cf62 b63d d955 80be f5f5 d03d
00000160: fd36 6c3e 7e06 823d a84e 773c 26a1 02bd
00000170: 5c85 253e f6d9 27bc 454d 243e f717 e23d
00000180: 19b2 cc3d d449 093e b493 6a3c b4ce 0c3e
00000190: 9758 47be 80c0 a6bd 3c78 cbbc 7ad1 88bc
000001a0: d0bb bf3d 4443 adbe 8993 383e d9e0 fabd
000001b0: 8c25 5f3e 26a1 e4bd 191c cebd 6ea4 afbb
000001c0: 8f92 0cbe 6d54 54be e3f0 0e3d 6dd0 85bd
000001d0: 3ab5 12be ff52 c43d b59b 45be 1bf7 283e
000001e0: ae8b 02be 7f3b 80bd 47e8 813d bcaa ad3d
000001f0: 4a12 163e c0ee 063e c22b acbc aa30 e0bd
00000200: cf2d e73d 1e31 6a3c bfd4 533b 1a2e 70bc
00000210: 9b92 093d 6f33 19be b473 a63d afe2 31bd
00000220: 763a c23d cf97 af3d a493 0b3e a58c 313e
00000230: 8b72 c3be 88e0 4a3c da23 613e 0b33 04bd
00000240: 21dc 1d3e 4394 0bbe c90e c83b 0e45 48be
00000250: 09ae 793e a567 5b3e eef1 6dbd 99a9 ad3d
00000260: ce31 49be ac09 2abe ddbb 26be 641d eb3c
00000270: 106b 513d 6019 0f3e f74c ccbd cf6c 05be
00000280: ac26 c1bc 1a08 86be da8f 9bbd 2736 223e
00000290: 8279 e6bc 1886 21bd e0c4 333d cbf3 b03d
000002a0: 082b 11be 1c3d d2bd 66a9 e2bc 6e84 d5bd
000002b0: c837 0a3e 820a 2bbd 39b1 1ebc b4c3 8dbe
000002c0: 2de0 033e d1f6 56be fc09 35be 3d28 72be
000002d0: ddf4 e3ba 7ce8 9abd de63 46bc 3984 94be
000002e0: 9e8f b6bd 1647 0bbe 2eb5 f83c fb18 5a3e
000002f0: 03cf b6bc efdd 473e a955 7b3e 0363 143e
00000300: 28c4 073e 99f4 4abe a7c6 55be 0a48 123d
00000310: 7ca2 a0bd 91a2 053e 5792 05be 77c4 52be
00000320: 2d14 4a3e a946 143e 000e 80be 892e 97bd
00000330: fc4e 06be 2f0b ad3d dbb0 433d d9b7 17be
00000340: bbb5 663e 29cf 933d e889 91bd 12ec de3d
00000350: 8652 ba3d 1d14 b93d 6bb7 853d 36ff 353e
00000360: 1e34 523e d1c7 03bd 615d 173c 48d8 dfbd
00000370: 5865 8bbc 7558 3ebd 529b 043e 9608 bfbb
00000380: 00d2 9cbe c294 18be 60dd 863d 3a05 573e
00000390: 92fc 29bd c527 b8bd b289 3a3e 9dd6 ec3d
000003a0: 8028 ccbc bc6d b9bd f02a 103e 0e48 cabc
000003b0: 3e3c 80bd 8d5f d93d dad7 fd3d fa2f 11be
000003c0: a310 c2bd 12d9 143e d323 30be 36be 98bd
000003d0: 53cc 0fbd 0d65 743d 5377 3cbe c3bd c5bb
000003e0: 45fc 80bc 8f38 dc3d 90cb 513d 2da8 c63d
000003f0: 235e f1bc de06 0b3e dff9 1a3e b713 acbd
-0.1846438 -0.10265573 0.13325626 -0.02683898 0.15642932 -0.061673354 -0.060755685 -0.1927813
0.059524953 0.0027787897 -0.036761817 0.24417819 0.07403486 -0.14718816 0.14598341 -0.13518389
0.2707715 0.10507534 0.0998461 0.048614196 -0.0387174 0.08837701 -0.042888366 -0.04670791
-0.21461107 0.23613684 0.018902756 0.06659136 0.2686846 -0.13029332 -0.19997048 -0.10120488
-0.12108675 -0.05567852 -0.11797995 0.15036541 -0.12650186 0.19754583 0.11821044 0.022302298
-0.17573085 -0.009344849 0.4147441 0.14936104 0.11488982 -0.07267117 -0.073708184 0.22339602
-0.11304265 0.2601545 0.155487 -0.08448972 -0.037028886 -0.017094558 0.09914011 -0.20037267
0.14351514 -0.08062888 -0.13150191 0.13781784 -0.020734122 0.13951209 -0.09000492 0.017809
0.039552987 -0.000115179835 0.2716483 0.15882695 0.0654128 -0.17007491 0.009812677 -0.1643237
0.006747617 0.052795973 -0.24153607 0.033814285 0.10322056 0.30866125 0.18262827 0.055405468
-0.11341511 -0.064923346 0.17213266 0.119702704 -0.18370251 0.08905565 -0.25065497 0.102031626
0.23067851 0.063488945 0.015094437 -0.031891964 0.16164154 -0.010244837 0.16045101 0.11039727
0.09994907 0.1340707 0.014317442 0.13750726 -0.19467388 -0.08142185 -0.024837606 -0.016701449
0.09361994 -0.33840382 0.1802503 -0.122499175 0.21791667 -0.11163549 -0.10063953 -0.0053601777
-0.13727783 -0.20735331 0.034897696 -0.06533895 -0.14326945 0.09586143 -0.19297679 0.16500513
-0.12748596 -0.06261348 0.063431315 0.084798306 0.14655414 0.13177013 -0.02101696 -0.10946782
0.11288034 0.014293937 0.0032322851 -0.014659429 0.03358708 -0.14961027 0.08127537 -0.043429073
0.09483807 0.08573877 0.13630539 0.17338808 -0.38173327 0.012382634 0.21986333 -0.03227524
0.15416004 -0.13630776 0.006105278 -0.19557592 0.24382795 0.21426256 -0.05809205 0.08479614
-0.19647905 -0.16605252 -0.16282602 0.028700538 0.051127493 0.13974524 -0.099756174 -0.13029788
-0.02357801 -0.26178056 -0.07595797 0.1584097 -0.028134111 -0.039434522 0.043888927 0.0864025
-0.14176571 -0.10265562 -0.027668666 -0.104256496 0.13497841 -0.041758068 -0.009685808 -0.27688372
0.12878485 -0.2099259 -0.1767959 -0.23648162 -0.00173917 -0.07563874 -0.012108771 -0.29007128
-0.089141116 -0.13601336 0.03035983 0.21298592 -0.022315508 0.19518255 0.24544396 0.14490895
0.13258421 -0.19819869 -0.20876561 0.035713233 -0.078434914 0.13050295 -0.13044105 -0.20582758
0.19734259 0.1448008 -0.2501068 -0.07381923 -0.13116068 0.08449399 0.047776084 -0.14816226
0.22530262 0.07217247 -0.07106382 0.108848706 0.09097771 0.090370394 0.06529125 0.17773136
0.20527694 -0.03217298 0.009238572 -0.10929924 -0.017016098 -0.046471078 0.12949875 -0.005829881
-0.30628967 -0.14900497 0.06585193 0.20998088 -0.041500635 -0.089919604 0.18216589 0.11564372
-0.024921656 -0.09054133 0.1407888 -0.024692561 -0.0626149 0.10613928 0.12394686 -0.14178458
-0.094758295 0.14535931 -0.17201166 -0.07458155 -0.035106968 0.059666682 -0.18404894 -0.0060345843
-0.015745291 0.10752975 0.051219523 0.09700046 -0.029463833 0.13576838 0.15134381 -0.08402198

pi.net.2.bias f4 [50]
00000000: 89b7 f73d bb65 ecbd d753 dc3d 53e4 403b
00000010: 21e1 363d 7ba1 1b3e 91f0 693e d216 2e3d
00000020: e85b e5bd 54ba 013c 7704 febd 6aa8 c23d
00000030: 6795 4a3d b368 433e 0a7f 5e3e d19f 25be
00000040: 069d e3bc 7e1e 6e3d 180a a43d 419f 3ebe
00000050: 8061 8fbd 145c efbd 51df 7bbc e2f5 de3d
00000060: 485c a1bd b79c e33d 600d 84bd e6b9 973c
00000070: 586e cdba 8158 4d3e 09a5 0abe 1648 9d3d
00000080: 1364 ed3d 0fe8 033e b780 1fbd 9aa7 283e
00000090: f849 f03d ba8b 23bc 4b95 b6bc 3390 8abd
000000a0: ea75 493d 56e3 363d 8d62 213e b188 d7bd
000000b0: eb14 143e 277c 803c f121 153e ad7c b6bd
000000c0: 1e6d 523e 2aae 573e
0.120955534 -0.11542841 0.10758179 0.0029432967 0.044648293 0.15198319 0.22845675 0.042502232
-0.1119917 0.007917959 -0.12403195 0.09504779 0.049458887 0.19082908 0.21728149 -0.16174246
-0.027784836 0.05813455 0.08009738 -0.18615438 -0.070010185 -0.116874844 -0.015373067 0.10886742
-0.078789294 0.11113875 -0.064478636 0.01852126 -0.0015673144 0.20053293 -0.13539518 0.07679765
0.11591353 0.12881492 -0.03894111 0.16470185 0.117328584 -0.009982044 -0.022287985 -0.06765785
0.049184717 0.0446504 0.1576025 -0.10524119 0.14461105 0.0156842 0.14563729 -0.08910499
0.20549437 0.21062532

pi.net.4.weight f4 [4, 50]
00000000: 22e3 c2be e05d 16be 43c6 46be c6d5 cdbe
00000010: 282b 423e eae5 acbe db7e 213e 3d2f 03be
00000020: 974a e03d 19aa 8ebe 2f84 f8bd bc46 b03e
00000030: 4586 493e 9786 c63c e1ce 1abe 7ddb 9ebe
00000040: cbbf 513e af02 d83c 6913 94be cd9c 29be
00000050: c838 d5be dd81 3cbd 25bf d6bd 21dc 923e
00000060: 06d6 953d 3e05 1d3e 00b6 7abe 8f25 883e
00000070: 1a9e df3e 48ee 2ebe 3024 b13e efd9 da3d
00000080: 6a5f 5abd 9074 5d3e 7c8b 16be 672f 163e
00000090: 2a95 b93e 66f2 19be 51f2 b23d ca15 bcbb
000000a0: ba51 b5be 0308 dbba 9b7c 273e b0dd 1c3f
000000b0: c1df 85be 1a2f e6bd 8aaa ab3d 66d0 283a
000000c0: d3ff 453e 5cbf c1be 9dca ecbb af13 b3be
000000d0: bbf9 873e e9f0 b5be b9c5 33be 61a4 4b3d
000000e0: 9e3c 053e 43e3 16bd 13d0 92be df20 0fbe
000000f0: dbe6 38be 2a8d fd3d 64ed d7bd 2b83 333e
00000100: fcb4 883e 00ca 563e fa01 0fbe 5a8e 613e
00000110: a766 053e a62b e5bd bc9b 5abe f412 9d3e
00000120: af33 603e f7f3 893e c4ee 873e c669 703e
00000130: 0cb8 33be 3aa8 22be e676 7fbe 3a60 b63c
00000140: b175 84be f962 643e 274d 5cbd 093e 8a3e
00000150: 77aa 553d 3f75 07bd 0c0c f93c 033c cfbe
00000160: 2932 4e3e f844 ea3d 0866 28be c96f 07bd
00000170: 97b2 9d3c d927 923c 0420 423e 2407 2cbe
00000180: 99da 753e 3e2c e8be 0f3f 9d3d bdba 1e3e
00000190: 8474 8c3e 475a 643d cb52 7ebd de5b 33be
000001a0: 36f7 9b3c 00a8 dfbc 2f59 773e b5b0 9cbd
000001b0: 5580 dc3d e04d 2d3e b81b dbbe fca3 2dbe
000001c0: 00e6 e5be 33eb 2c3e ab55 9b3e af0f 8bbe
000001d0: 6ded c0bd 4b53 77be 8b47 f5be 1841 7d3e
000001e0: 2ae0 90be eaa4 8d3d 21fd 1ebe fd84 8a3d
000001f0: aa92 9bbc f208 2cbe 36ad c9be 753f 40be
00000200: 9ee5 203e 84f2 bebe 22a1 923e 32f0 813d
00000210: cb74 a4be 3544 c23d 9289 b33d 510b a5be
00000220: 6afe 093e 9656 8abe 49c1 cf3d 5f35 4e3e
00000230: e1fd 873e 2bbf 4a3e 2564 ad3d f827 35be
00000240: 739d 30bd 9831 1e3d ced2 7dbc 8c87 873e
00000250: 6916 a7be 0d8b 20be b283 993e 3ae9 103e
00000260: 77aa 0e3e 7e6c 5a3e 7331 063e 3554 1fbe
00000270: fe81 463e b3c7 023e 94f3 c5bd 4e48 acbc
00000280: 43e8 2cbe 3b8a 973e 1a5e 28be 2464 063d
00000290: 12fa 083d b2de 04bf 61bc 513e 91b4 8abe
000002a0: 6866 f5bd 585a 613d 4c3c d83d e876 84be
000002b0: 2bf6 3b3e f519 2abe 3cc2 2fbe 1f7e 4bbd
000002c0: 9b45 cdbe e66a 46be 51fe 243d 0dd9 0bbe
000002d0: fc72 713d 9ace 613e f9b1 3b3e a30c 503e
000002e0: 2613 08be 92c6 54be 2ff8 a43e aa68 5e3e
000002f0: 411f 8e3d f0e8 1bbe e571 563e 8adc c2bd
00000300: 3f59 803d 1460 4e3e ba76 253e c4e6 0a3d
00000310: 169b b8be 8cf0 1fbd 46df 2d3e be6c 423e
-0.38063914 -0.14684248 -0.19411568 -0.4020216 0.18961775 -0.3376916 0.15771048 -0.12810989
0.10951727 -0.2786415 -0.12134587 0.34428966 0.19680126 0.0242341 -0.1511798 -0.3102683
0.2048332 0.026368467 -0.2892106 -0.16563721 -0.41644883 -0.046022285 -0.10485677 0.2868357
0.07316212 0.15334031 -0.2448349 0.26591155 0.4367531 -0.17083085 0.3459792 0.10686099
-0.05331365 0.21626496 -0.14701647 0.1466652 0.36246616 -0.15033874 0.087376244 -0.005739902
-0.35413915 -0.0016710762 0.16356127 0.6127577 -0.26147273 -0.11239453 0.08382137 0.0006439745
0.1933587 -0.37841308 -0.007226302 -0.34975955 0.26557717 -0.35535362 -0.17555894 0.04971731
0.13011405 -0.036837827 -0.28674373 -0.13977383 -0.18056814 0.123804405 -0.105433255 0.17530505
0.2670058 0.20975494 -0.13965598 0.22026959 0.1302744 -0.11189966 -0.2134847 0.30678523
0.21894716 0.26943943 0.2654935 0.2347785 -0.17550677 -0.15884486 -0.249477 0.022262681
-0.2587104 0.2230338 -0.053784516 0.27000454 0.05216452 -0.0330708 0.030401252 -0.40475473
0.20136322 0.11438936 -0.16445172 -0.03306559 0.019250197 0.017841266 0.18957525 -0.16799599
0.2400917 -0.45346254 0.07678043 0.15500923 0.27432644 0.055750158 -0.062090676 -0.17515513
0.019038778 -0.027301788 0.24155115 -0.07650892 0.10766665 0.16924238 -0.42794585 -0.16957086
-0.4490204 0.16886596 0.30338797 -0.27160403 -0.094202854 -0.24152867 -0.47906145 0.24731863
-0.28296024 0.069162205 -0.15526249 0.06763647 -0.018990833 -0.16800287 -0.39389962 -0.18774207
0.15712592 -0.372944 0.2863856 0.06344642 -0.32120356 0.09485666 0.08766474 -0.32235196
0.13475958 -0.27019185 0.10144288 0.20137547 0.26560882 0.19799487 0.08466367 -0.17691028
-0.043118905 0.038621515 -0.015492154 0.26470602 -0.32634285 -0.15678044 0.29983288 0.14151469
0.13932215 0.21330449 0.13104801 -0.15559466 0.19385526 0.12771492 -0.096655995 -0.021030571
-0.16885476 0.2959765 -0.16442147 0.032810345 0.03344161 -0.51902306 0.20482017 -0.27090886
-0.11982423 0.0550178 0.10558376 -0.25871968 0.18355624 -0.16611464 -0.17163938 -0.049680825
-0.40092167 -0.19376716 0.040281598 -0.13657017 0.05894755 0.22051468 0.1832961 0.2031732
-0.13288555 -0.20778874 0.322206 0.21719614 0.06939555 -0.15225577 0.20941885 -0.09514721
0.06267022 0.20153838 0.16158572 0.03391148 -0.3605582 -0.039047763 0.16979703 0.18986794

pi.net.4.bias f4 [4]
00000000: 8774 2bbd 01c1 023e d866 153e 587b 323e
-0.041859176 0.12768938 0.14590013 0.17429864

v.net.0.weight f4 [64, 40]
00000000: 57fe 803f 2ac9 a83e 4e9c 593e ed9c 263e
00000010: f87c f13d a926 06be 9eae 0e3f 7da9 cc3c
00000020: f7a6 1dbe 2910 1a3d 43b2 bbbd 698b ed3d
00000030: 4f58 66bd 8642 133e 1876 4dbc 76af 56bd
00000040: 9419 fabc 574b 793c cac5 a2bd 5a3d abbd
00000050: 3e6d 7c3f 3a1e 3d3e 3939 843e bc51 213e
00000060: 5dfe e53a d884 8e3c ff30 f33e 0fea 09be
00000070: 0ff3 50be 589e e03d a3b0 47be 8e56 4ebd
00000080: 8eb4 67bd dbce cb3c a055 c73c 1fc7 5ebd
00000090: 5db9 15bc 5f09 293d 0efd 0ebe e4ef 0ebe
000000a0: 00af 713f 6f29 3e3e d88d 183d 3f4c 9f3e
000000b0: 4a17 033e 9fc6 3fbd 7563 23be ec2c 363e
000000c0: d2b3 d1be 8824 e5be 9c02 403e 52fb 4cbd
000000d0: a3b1 a03d f01f 21be 50a8 a03c b052 1f3e
000000e0: 721c 36bc 9946 0abd e86a 813d d58f 91bd
000000f0: 039e 7b3f 1821 8d3e eb07 4e3e 1512 cf3e
00000100: 36e8 883e e13e 1ebe 4096 35be 7c46 743e
00000110: 4128 bbbe ef03 aebe 907e 813e 593d e5bc
00000120: a35f 8b3d 0540 133d 1ea2 4b3e d679 5c3e
00000130: cc01 24ba 6b1f ebbd e216 923d 24f7 c83c
00000140: 7d07 553f 1b38 07bf ebe5 f7bd b403 7a3e
00000150: 287a 253e db4b a03d a7a0 77bd 9af0 843e
00000160: f31c b2be e4cd dbbc 7732 da3d ede6 9c3d
00000170: cf40 d83d 2e70 da3d f415 53bd 16f7 dbbc
00000180: cd72 183d e520 c43d 2ac8 9b3d c833 773d
00000190: 1b8a 4c3f 3c3c 97be 62ee b8bc cc21 843d
000001a0: 2f7d b9bb 2faf c13c 20e2 d9bd 3c56 ae3d
000001b0: 0474 19bf e27e 94bc 445c cb3d 445c 2d3d
000001c0: caf3 003e a5c2 a7bc d486 bcbb f343 15bd
000001d0: d679 c43d 3eab be3d 6c95 883d 2f8b 1f3e
000001e0: a44a 31bf ad56 5dbe 86a4 3d3d fc2a 50be
000001f0: b6de 67bd 9c5d 35bd a9ff 46bd 385f 0dbf
00000200: 531d ae3e 71ea 53bd 3d07 38be a75b ab3c
00000210: b30f 413e c38b 143b a1f7 0dbe e6ca 8b3e
00000220: 54ae 3bbd ed42 1d3c 5e20 00bd 8e8d e0bc
00000230: c599 41bf 021b afbd cb59 443d f2f4 c1bd
00000240: 4c9b 8abd f97b 023d 5f82 20bb 716c eebe
00000250: 170c dd3e e2db 22be b99b 5ebe 81a7 6cbd
00000260: a881 803d ed9a a1bc 159c b2bd a1bc d23d
00000270: 3808 be3c 1215 323c f2e6 0abe 3272 6dbd
00000280: d8d6 9cbc afb6 fb3d 64c3 f1bc 43ba a6bd
00000290: dad1 86bd 7d34 aabc c3c0 45be f119 9fbd
000002a0: 5285 013e 33b1 3abe 4496 bf3d 510c 943d
000002b0: 329f 1d3b bb69 203c 9dc8 1bbe 50c0 a73d
000002c0: bf90 c5bc 1ad2 5d3c a560 9fbc 5692 76bc
000002d0: c5a2 44bd bc78 103e 437b c13d 5383 25be
000002e0: ed0f 85bd 86ad ba3d b202 83bf e3d2 44be
000002f0: e9fe a53e 1543 c8be 047b 573d 2abc e7bd
00000300: 9c38 6b3d df83 413e 26a4 00be e2c2 3d3e
00000310: 6a4a 18bd 8991 0abb 3aa1 0e3d 394e 013d
00000320: e199 ec3d 70b0 d6be b3e1 a1bd 6734 e03d
00000330: 644b 99be 3c4f 483d e1ff 33be 8488 703e
00000340: ef1f 9fbc 48aa 563e b857 4cbd 56f8 b13c
00000350: 0b92 d13d d7c7 433e 3bf6 023d a65c 0f3e
00000360: 2b90 6abc 6f21 ce3d 45bb 98bd b77c b8bc
00000370: 480f 17be 4bf7 c6be b9d3 31be 8b10 b53d
00000380: fe94 99be 6ebf 233d 5e6f d7be e865 af3d
00000390: cfc1 89bd cfa6 073e 9fe8 2fbd f000 503e
000003a0: 9772 5a3d f359 dbbb a0c8 143c be6a 00bd
000003b0: ee3b a1bd 2d07 1a3e 65e1 32bd 045a f9bc
000003c0: 3788 46be 51b9 923e 3465 cf3c 7453 a73e
000003d0: b3d4 68be 0839 713d 46d6 263e 72bc 99bd
000003e0: f1db 2c3e f958 ffbd aef6 4fbd 7233 4a3d
000003f0: 77ce 8e3d 2bda 113d d951 423d 7706 18be
1.0077618 0.32965976 0.21251032 0.162708 0.11791414 -0.13100685 0.55735195 0.024983162
-0.15395723 0.037613068 -0.0916486 0.11598856 -0.05623656 0.14380845 -0.012540363 -0.052413426
-0.030529775 0.015215716 -0.079478815 -0.08361311 0.9860419 0.18468562 0.25824907 0.15753835
0.001754712 0.01739733 0.4749832 -0.13468193 -0.2040522 0.10967702 -0.19500975 -0.050375514
-0.056568675 0.02487891 0.024332821 -0.054389115 -0.009138432 0.041268703 -0.1396372 -0.13958699
0.94407654 0.18570493 0.037244648 0.3111286 0.12801853 -0.04682028 -0.15955909 0.17790574
-0.40957505 -0.44754434 0.18750995 -0.050044365 0.078463815 -0.1573484 0.019611508 0.15558887
-0.01111518 -0.033758733 0.06319219 -0.07107512 0.9828798 0.2756431 0.20120208 0.40443483
0.26739663 -0.15453674 -0.17733097 0.23855013 -0.3655415 -0.33987376 0.25291872 -0.027983354
0.06805351 0.035949726 0.19886062 0.21530852 -0.0006256371 -0.11480602 0.07133271 0.024531908
0.8321455 -0.52819985 -0.121044 0.24415475 0.1615988 0.07826968 -0.060455944 0.25964814
-0.34787712 -0.026831575 0.10654157 0.07661233 0.10559236 0.10665928 -0.051534608 -0.026851218
0.037218858 0.09576587 0.07606538 0.060352117 0.7989823 -0.29538143 -0.022574607 0.06451759
-0.005660675 0.023643104 -0.10638833 0.08512542 -0.5994265 -0.018126909 0.09929708 0.04232432
0.12592998 -0.020478556 -0.0057533775 -0.036441755 0.09593551 0.093100056 0.06669125 0.15580438
-0.6925452 -0.21615095 0.04629948 -0.20328897 -0.056608878 -0.044278726 -0.04858366 -0.5522342
0.34006748 -0.051737253 -0.17971511 0.020917727 0.18853645 0.0022666312 -0.13863994 0.27303237
-0.04582055 0.009598476 -0.031280868 -0.027411249 -0.7562526 -0.08550073 0.047937196 -0.09470548
-0.06767902 0.03185651 -0.002449177 -0.4656711 0.43173286 -0.15904191 -0.21739091 -0.05777693
0.0627473 -0.019727195 -0.087211765 0.10289884 0.023197278 0.010869281 -0.13564661 -0.057970233
-0.019145414 0.122907035 -0.029512115 -0.08140995 -0.06582995 -0.020776981 -0.19311814 -0.0776862
0.12648514 -0.18231659 0.09354833 0.07228912 0.0024051187 0.009790833 -0.15213247 0.081909776
-0.024116872 0.013538862 -0.019455263 -0.015049538 -0.04800679 0.14108557 0.094473384 -0.16163377
-0.06497178 0.09115128 -1.0235198 -0.19221072 0.32421044 -0.3911368 0.05260755 -0.11315186
0.057427034 0.18897961 -0.12562618 0.18531373 -0.03718034 -0.0021143875 0.034821726 0.03156874
0.115527876 -0.41931486 -0.07904377 0.10947495 -0.2994033 0.04890369 -0.17578079 0.23489577
-0.019424407 0.20963395 -0.049888343 0.021724861 0.102329336 0.19119202 0.031973105 0.14000186
-0.014316599 0.10064971 -0.07457594 -0.022520406 -0.14751923 -0.38860545 -0.17365922 0.08841046
-0.29996485 0.039977483 -0.42077154 0.08564359 -0.06726419 0.13247226 -0.042946454 0.20312858
0.053331938 -0.0066940724 0.009081036 -0.031351797 -0.07872759 0.150418 -0.043671984 -0.03043843
-0.193879 0.2865701 0.025316812 0.32680857 -0.22737388 0.05889228 0.16292676 -0.07506646
0.16880776 -0.12468142 -0.05077236 0.04936547 0.06972974 0.03560845 0.047441337 -0.14846216

v.net.0.bias f4 [64]
00000000: 960a 143e c574 243d c5e0 82bd 0f16 bd3e
00000010: f001 ddbf 113d 333f f820 41bf ca08 ea3e
00000020: d37c 2f3f 256f ba3e 73ed ff3e e777 ea3c
00000030: 2392 23bf f038 c9be 0325 97be 3916 5d3f
00000040: 84d1 9f3e 0e93 a43e 3f38 403f 1427 c03e
00000050: b5b5 1f3f b7f0 253e 6a52 cc3d 4655 a2bc
00000060: ed04 c73e e5bf 5ebf cd02 533e 4e72 5f3e
00000070: fbd1 2dbd eaf5 27bf 124d cc3e 29cc a53e
00000080: d112 37bf a1fc 5abf 1266 5e3f d806 cdbd
00000090: fbb9 febe 8d31 78bf 3ff5 d63e b4f1 d53e
000000a0: a9fb bbbe b4ca 7a3d c036 7b3f 9429 e33e
000000b0: be86 0f3e ae97 bf3e 5e95 13bf 2c01 ed3e
000000c0: 6bc5 82bf ef38 d6be f20f 5e3f e77f 49bf
000000d0: b35f 1bbf fb69 d23b 5815 4ebb 866a a93f
000000e0: 4f0d 613d 5419 1e3d 49f4 aebf f9ec 1abc
000000f0: 5c21 c03f 1055 43be 6462 aebe 6681 4ebe
0.14457163 0.040150423 -0.06390528 0.36930892 -1.7266216 0.70015055 -0.7544093 0.4570983
0.6854984 0.36412922 0.49985847 0.028621627 -0.6389486 -0.39301252 -0.29520425 0.86362034
0.31214535 0.32143444 0.75085825 0.37529814 0.6238664 0.16205107 0.09976657 -0.019816052
0.38870946 -0.8701156 0.20606537 0.21820948 -0.04243658 -0.6560961 0.3990255 0.32382324
-0.71513087 -0.8554173 0.86874497 -0.10011071 -0.49751267 -0.9695061 0.41983983 0.41785967
-0.3671544 0.06122847 0.98130417 0.4436766 0.14016244 0.3742041 -0.5764979 0.46289957
-1.0216497 -0.41840312 0.8674308 -0.7871079 -0.606929 0.0064213253 -0.0031445827 1.3235633
0.054944333 0.038598374 -1.36683 -0.009455913 1.501018 -0.19075418 -0.3405944 -0.20166549

v.net.2.weight f4 [64, 64]
00000000: f57c bcbd c25e 093e 1bdf 9d3d acfb 1abe
00000010: 2669 4b3c b292 9a3b cf4a 9a3d e2b5 64bd
00000020: 2f2e d5bc c171 af3d d217 b9bc 2c27 bbbd
00000030: ecb3 c1bc 22e6 ddbd 70f3 723d a1bd 5abe
00000040: 363f 71bd 9ce3 d43d 8e39 013e c51c f83c
00000050: d0c0 b7bc e7c0 913e 4ce7 623e 33f1 8d3a
00000060: 85ba 8e3d 08f0 71bd f3a3 ba3d a4e7 053e
00000070: 53a5 29be f1d8 e63c 69dd 60be e4e8 89bd
00000080: 172f 5c3c d731 40bd d87c e7bd 00d8 3dbc
00000090: afd8 083e 7d6c d8bd 1c7b a63d 8b2d ce3d
000000a0: 1ec7 ecbd e134 383e 91a9 9b3d f31e 473e
000000b0: 1f3f c13c dc62 09be 8730 843d 8584 afbd
000000c0: 078f 983c 4a29 98bd 62c5 333e 2679 d13d
000000d0: 588c 10bd 2bb4 383e 73ba 973b dd0e 18be
000000e0: c9ff 43bd 67c0 f9bd 32c6 1f3c 06ae 493e
000000f0: 0a82 59bd ff1d 903e f286 e73d 69c7 5dbd
00000100: b8e7 c1bd ad25 10be 1ec1 0a3e f462 063d
00000110: 2e2b ddbd f55d afbc 1770 c63d 6def 663c
00000120: dab6 803b 379f 783d ba9c dcbd aa28 f7bc
00000130: 435e 8d3d c271 b63c 5ea1 97bc 981f f93c
00000140: c54b c2bd 8770 54bd aa37 9fbd 66cc 6bbc
00000150: 0978 aebd 351b 2fbe 8052 afbe 246a 4e3d
00000160: 613f 643d 3f79 22be 3b30 61bc 1d5f afbe
00000170: 8da6 413e 036b ff3d 7cc0 433e 4b6f ee3d
00000180: 65ca bb3d 36ce bb3d b9fb d43c 9dae 673e
00000190: f205 5dbe bbb0 e0bd cf54 8f3d 3c3a e7bd
000001a0: 9385 6a3e 722c 89bc 61c9 a73c 515e 48be
000001b0: f481 103c 5254 d6bd 9432 333e 4a5f 1f3e
000001c0: 9fe1 8fbd e6ca 053e f6dc d6bd 8e03 4a3e
000001d0: 10b7 013d 384d febd 79e0 a73d fe10 b73d
000001e0: fef7 af3d ea24 ec3d 9b41 32be d07c 43bd
000001f0: 6626 113e 6d48 abbe c31f 383b 507e a13d
00000200: efe3 c2bd edda b1bd 7cba ab3c d1c7 283e
00000210: f1c8 94be 8165 92bd 1537 0b3e 0a77 4c3d
00000220: a8d9 593c d215 d73b 7f16 a1bd 3f97 893d
00000230: 76cc 35bd 7f23 f6ba 0a4c bbbc eb2c ad3c
00000240: 5e70 a8bd 4774 d1bd f47b 15bd 6f50 243d
00000250: 3fcd 27be b757 53be e02c 7bbe 1f56 82bd
00000260: ac0b 533d 2944 dabd 7dae 2c3d 06fc 21be
00000270: e88c d538 8e62 b63c e208 913e 1ae8 343e
00000280: cf06 1b3e ec95 b33d 9f48 b73c 7e35 263e
00000290: d8b4 a1be a224 7bbe fb83 843e 7c4d 4dbe
000002a0: c1de ec3d a078 393d 63fe b63d b3e6 4abe
000002b0: 1325 a0bd 2039 59bd 2358 423e 0688 223e
000002c0: 904c 46bd 4338 a33d eb47 52bd bf0b 833e
000002d0: 0a73 193d 04fb 1bbe 4c39 043e e2d4 e73d
000002e0: 6882 5e3b d486 723e 4686 63be 1ee5 9bbd
000002f0: 98f8 d63e 4f28 5ebe 6a0e b53d 2080 983c
00000300: 5fe0 303c 17da 033e ffa0 763e c6b0 ae3d
00000310: 2493 74bd cf7e 61bd bcc5 37bd 8bb8 a73d
00000320: cda7 c43d 5ca7 56bd ffc8 e23c db8e 3fbe
00000330: 2f7e c0bc 9f36 003e 6970 c9bd 8587 8dbc
00000340: 075a 27be 9527 21be 44c2 cc3d eceb 93bd
00000350: d2df 353d 28e1 b0bc 9c1d 97bd 5b0f 9c3e
00000360: ce2f cb3c 3c91 363d 469e 9a3d d44a 4dbe
00000370: f4a8 b03d a14a dd3d 0eae 24bd 87e3 7d3d
00000380: b077 07bc 4820 243d 8142 dabd e8c1 40bc
00000390: f1b5 033e 4be0 5a3d 378a f03c 0d4a 703c
000003a0: 8066 723d 35eb 96be 36bd 1e3e 46ed fdbc
000003b0: 0f96 483d b609 033d 8051 f23d e168 f0bd
000003c0: 0c49 7ebc 1b54 0a3d 850a cb3c ce25 6b3d
000003d0: bdcd f13c 6609 96be 1c4e 84bd bb8f 593c
000003e0: 31d8 f8bd 02e2 45be 6424 a83d 00d6 62be
000003f0: 2384 713d 9c1e 23be 7325 02bd e027 413e
-0.09203521 0.13415053 0.077085696 -0.15135068 0.012415206 0.0047171945 0.075338 -0.05583752
-0.026022999 0.08566619 -0.022594366 -0.09138331 -0.023645364 -0.1083491 0.05931419 -0.213614
-0.058898173 0.103949755 0.12619612 0.030287156 -0.022430807 0.28467485 0.22158545 0.0010829329
0.069691695 -0.059066802 0.09113302 0.13076645 -0.16566972 0.028179618 -0.21959461 -0.067338735
0.0134389615 -0.04692253 -0.11303109 -0.011587143 0.13363908 -0.105675675 0.0812895 0.100672804
-0.11561416 0.17988922 0.076007016 0.194454 0.023589669 -0.13416618 0.06454568 -0.08570198
0.018622888 -0.0742975 0.17555764 0.10228185 -0.035290092 0.18037479 0.004630381 -0.1484942
-0.047851358 -0.12194901 0.009751843 0.19695291 -0.05310253 0.28147885 0.11305036 -0.05414525
-0.09468025 -0.14076872 0.13550231 0.032809213 -0.107992515 -0.021407107 0.09689348 0.0140951695
0.0039280476 0.060698714 -0.10772081 -0.030170757 0.069027446 0.02227104 -0.018509563 0.030410573
-0.09487108 -0.051865127 -0.07774289 -0.014391994 -0.08518989 -0.17100222 -0.3424263 0.050394192
0.055724505 -0.15866564 -0.013744409 -0.34252253 0.1891119 0.12471583 0.19116396 0.11642321
0.09169463 0.09170191 0.025998937 0.22625203 -0.21584299 -0.10971209 0.06998598 -0.11290404
0.22902517 -0.016744826 0.020481767 -0.19567229 0.008820046 -0.104653016 0.17499763 0.15563694
-0.07025456 0.13065681 -0.10491364 0.19727919 0.031668723 -0.12417072 0.08197112 0.08938788
0.08592223 0.11530478 -0.17407839 -0.047726452 0.14174804 -0.33453694 0.0028095103 0.0788542
-0.09516131 -0.08684335 0.020962946 0.16482474 -0.29059556 -0.071482666 0.13595231 0.049918212
0.013296522 0.0065638805 -0.07865619 0.06718301 -0.044384442 -0.0018778889 -0.022863407 0.021139583
-0.08224557 -0.10227256 -0.036495164 0.04011577 -0.16386889 -0.2063893 -0.24528837 -0.063640825
0.051524803 -0.10657532 0.042158592 -0.15818796 0.00010182877 0.022263791 0.2832709 0.17666665
0.15139316 0.0876883 0.022373496 0.16231343 -0.31583285 -0.24525693 0.25881943 -0.20049089
0.115659244 0.045281053 0.08935239 -0.19814567 -0.07819571 -0.053032994 0.18978934 0.15872201
-0.04841286 0.079697154 -0.051338118 0.255949 0.037463225 -0.15232474 0.12912482 0.11319901
0.003395224 0.23684245 -0.2221919 -0.0761206 0.41986537 -0.21695064 0.0884064 0.018615782
0.010795682 0.12876163 0.24084853 0.085298106 -0.059710637 -0.055052575 -0.04486631 0.08189496
0.09602318 -0.0524057 0.027683733 -0.18706839 -0.023497669 0.12520836 -0.09835894 -0.017276535
-0.16342936 -0.15737756 0.09997991 -0.07222733 0.044402905 -0.021591738 -0.073786944 0.30480465
0.024803068 0.0445721 0.075497195 -0.20048076 0.08625975 0.1080525 -0.040205054 0.061984565
-0.008268282 0.04006985 -0.10657216 -0.011764981 0.12862374 0.05343656 0.029362781 0.014666093
0.059179783 -0.29476324 0.15501866 -0.03099693 0.048971232 0.031991683 0.11831951 -0.11738754
-0.015520345 0.033771615 0.02478529 0.0574091 0.029517049 -0.29304045 -0.06460211 0.013278897
-0.1215061 -0.19324496 0.08210066 -0.22151947 0.058963906 -0.15929645 -0.031773996 0.18862867

v.net.2.bias f4 [64]
00000000: 028d 67be 1220 aebe 86ba b6be c28f 7d3e
00000010: 24c7 9abe 2d79 7abe 3ce1 b03e 5435 993e
00000020: 595e abbe a098 ef3e 30c5 cfbe a3fa ddbe
00000030: 8a2d 87be e429 e3be ea8e 873e a8f1 b8bd
00000040: 40b7 a2be 18bb a83e 2160 a6be b3e9 e4be
00000050: 06fb 76be f47c 92be 83a3 a43e b8bb e23e
00000060: e902 c33e 0101 ae3e ae6d ae3e 1fd2 d43e
00000070: 4ee9 b63e 0c52 2bbe c843 b63e 3d4b 863e
00000080: 43d8 c9be f2b5 46bf 4d63 e43e f1bf d53e
00000090: b962 3d3e 01ab d5bc 87ff 67be b0cf cb3e
000000a0: 9b29 063e 534d 7cbe 9617 d7be d1a4 c4be
000000b0: a323 e7be 7520 8fbe 8f37 613e 03bc e13e
000000c0: eeaa c4be 6d65 debe 2037 95be c10a dfbe
000000d0: c8fc d23e fbec 62be 3133 c03e 3a3c 883e
000000e0: c5b2 8bbe d175 6fbe 0a42 f1be 6b89 17bf
000000f0: ed35 64bc 6889 82be 5ca1 fb3d 068d a33e
-0.22612384 -0.34008843 -0.3568918 0.2476187 -0.30230057 -0.24460287 0.3454684 0.299235
-0.3347042 0.4679613 -0.4058013 -0.43355283 -0.2640193 -0.44367898 0.26476222 -0.09030467
-0.31780434 0.3295524 -0.32495216 -0.44709548 -0.24119195 -0.28610957 0.32156 0.44283843
0.38088158 0.3398514 0.34068054 0.4156656 0.35724872 -0.16730517 0.35598588 0.26229277
-0.39422807 -0.77621377 0.4460701 0.41748002 0.18494691 -0.026082518 -0.2265607 0.3980689
0.13101809 -0.24638872 -0.42010182 -0.38406995 -0.45144376 -0.2795445 0.2199385 0.44088754
-0.3841166 -0.43436757 -0.2914362 -0.43562892 0.41208482 -0.22160713 0.37539056 0.2660845
-0.27284828 -0.23384787 -0.47120696 -0.5919406 -0.0139288725 -0.25495458 0.12286636 0.3194353

v.net.4.weight f4 [1, 64]
00000000: 52b9 ef3c 8c46 ed3d b32d ff3d 18b9 f0bd
00000010: c9b1 9e3d 33ab 753d 4ec2 fdbd 3d66 42bd
00000020: 6c34 273d 6028 d4bd aeab 0b3e 50e6 903d
00000030: 7bae d83d b144 923d b9d5 3bbd 51b6 cd3d
00000040: c49b 9d3d df55 adbd d213 953d 362d 7b3d
00000050: bc55 ec3c cb33 b83d 5214 17bd fd39 7ebd
00000060: 0f3f 07be e1e6 02be 4cca 83bd f59d 74bd
00000070: fd89 1bbe b74b ff3b 3483 a5bd 1705 a0bd
00000080: e985 183d bdd9 3a3e 6ab3 c8bd 9063 01be
00000090: e4a7 8dbd 144b 8f3d 207b 973c 6de4 b6bd
000000a0: 0491 c0bc cf09 d83b 0160 563d b059 863d
000000b0: dd58 993d 8d97 073d afea a23e 0fde 99bd
000000c0: 7e5d 893d 2cb2 873d 6fd8 193d 17be c93d
000000d0: 7787 f2bd 80b7 e13d efdc 12be c312 7dbd
000000e0: 6cfe 2b3d a2ec b23d 3c77 343d 2517 913d
000000f0: 330a 1ebd 7b52 9c3c 5ec5 2cbe c52e 78bd
0.029263172 0.115857214 0.12459888 -0.11754054 0.077487536 0.05997772 -0.12390576 -0.047460783
0.040821478 -0.103592634 0.1363971 0.070751786 0.105801545 0.07142008 -0.04585812 0.1004454
0.076957256 -0.08463644 0.07279171 0.061322413 0.028849475 0.08994254 -0.036884613 -0.06206702
-0.13207649 -0.12783386 -0.064350694 -0.059720952 -0.15189357 0.0077910083 -0.08081666 -0.07813471
0.03723708 0.18247123 -0.097998455 -0.12635636 -0.06916788 0.06996742 0.018491328 -0.089302875
-0.023506649 0.006592966 0.05233765 0.06560075 0.074876525 0.033103514 0.31819674 -0.075130574
0.06707285 0.066257805 0.037559923 0.0985071 -0.11842244 0.11021328 -0.14342092 -0.06178547
0.041990682 0.087365404 0.044059023 0.070844926 -0.038583945 0.019082299 -0.16872165 -0.060591478

c.net.0.weight f4 [64, 40]
00000000: ea4d 933d 0b0e 99bb b88c ac3d 2f1e e5bd
00000010: d010 0b3e 4df8 9e3d 3ece 18bd 19bf 573d
00000020: 6206 78bd b3a2 04bd f48e a1bd 0f7c 94bd
00000030: 7059 08bd 6bdb 1a3d 8db7 ebbd 91fd fabd
00000040: ac3c 03bd 39de 1fbe 62b7 1cbd f589 62bd
00000050: 9e8e 0ebe 3d6e c53d 5fef 1b3e 3184 a43d
00000060: 15c4 213c 49e8 0a3e f7a0 a03d e7c9 46bd
00000070: f62c debd df8a bc3d 6069 91bd 21b8 efbd
00000080: 36b3 463d 2d1a f9bc ebdc 7d3d 1c9b 1fbe
00000090: 6288 f63d c8e9 f63d a4d6 f5bd 1820 bcbd
000000a0: c714 2f3c f1b4 9eb8 8e8d 933d 8903 f1bd
000000b0: 6067 0e3e afde 0f3e 85d1 a1bc 928d 6bbd
000000c0: 5a8e 973d 5740 97bd e245 8dbd 1f6c f33d
000000d0: 0a16 be3d 901e c13d 3fe0 8e3c e816 07bd
000000e0: f999 46bd bc28 213c c848 0fbe 8cbf 893c
000000f0: 9537 a53d 24cd 76bd 7dd0 10be 5c99 153e
00000100: 98c4 7bbc 9445 c6bd 6fe3 083d a904 cfbd
00000110: 6269 b43b c559 8e3b 3428 0e3d 68bc 57bd
00000120: d8d8 b6bd 313e 10bd 09ea e43d 7e0b e6bc
00000130: ad43 0a3e dea2 733d a2b2 08be 94ad f6bb
00000140: a688 1abd ca1f 02bd c849 583d 699e 053e
00000150: 30ef 913d 1f91 6a3c 616e b2bd 3c93 70bd
00000160: 9601 88bc 0043 b13c 963a a83b 0830 72bd
00000170: 2c37 eebd 71ed 083e 1224 fb3c 5555 b63d
00000180: 08cb fd3d 2d0d 1a3e 5256 1e3e aef3 b23d
00000190: 4646 99bd 5e26 efbc 45cb ec3d 0db1 aebc
000001a0: 4b64 bebd 93ed d13d 0239 a23d f0c2 8bbd
000001b0: d29b a9bd 5ad7 01be e6cc 05be 0110 90bd
000001c0: 92d8 ddbc 48f8 b3bd ce50 f63c 70a7 f7bc
000001d0: 62ab f43d 27e2 fbbd 8b80 d2bd ab84 99bc
000001e0: 5d28 8d3d 0301 b8bc 1ba4 1ebd f5c1 663c
000001f0: 23c3 0b3e f9a7 aabb 1303 50bd a6af 35bc
00000200: 9d9f f4bd eb9e 123e de2a 37bd 222d fbbd
00000210: e0a2 54bd 1556 b63d a5ee 70bd 7387 22bd
00000220: 8d5e 9cbd 3e58 8b3d 810a 1cbe 8f1a e2bd
00000230: 303d f43c 3ec6 d93d d5a2 c53d f97d 8bbd
00000240: 4c6f e53d 5779 8dbd 533f f33d 35ff d63d
00000250: 1052 913c 37eb abbd d632 96bd 15ae 513c
00000260: 890a a13d 643d e53d 0f89 1c3e b358 613d
00000270: 917b 053e 4f7e e7bc 7990 64bd 8f4e ec3d
00000280: 1e60 da3d 6ef8 83bc defd 473d ec65 1a3e
00000290: a07d 2b3d c2b8 1bbe b155 eabd 7a72 8bbb
000002a0: c854 fa3d 9502 ed3d 27bb 153d 7f23 c3bd
000002b0: c26c 20bd 9470 01bd 8470 64bd 36e2 0f38
000002c0: d16d 023d b269 1d3e 645c 233d c457 b6bd
000002d0: 7c42 8d3d 59be e13c 8aca d23d e144 bbbd
000002e0: d568 053e e6f4 08be d496 79bd 4314 a8bd
000002f0: 2a87 67bd 67e3 d73c 5d3b a93c 9847 bc3b
00000300: f6b6 9b3d 3617 12be 0413 013d 9fc7 173e
00000310: c194 82bd 280f fe3d c545 0abe d1c7 c93d
00000320: 3a6d f33d 84ac c23d b903 8abd 0a45 a6bd
00000330: 457b 083e ab64 a93d cb1f b3bc e470 15be
00000340: 5469 6f3d bbd1 c0bd e2b6 c03d 52c7 0cbe
00000350: d6d1 a13c 8941 97bc b557 60bb 37a7 9c3d
00000360: 7ac6 6fbd 6545 12be 8ac5 f43d a8ca 50bd
00000370: 96ad b4bd 91f3 0bbe 61b8 c1bc c9e5 c23a
00000380: 8a34 05bd 3b42 a13d fb37 73ba d78c 343d
00000390: d545 083d 7288 16bd f067 aabb f534 9c3d
000003a0: 86de c73c 4bf0 1f3e cc20 49bd 3a6d f6bc
000003b0: dd56 c43c 56a8 b0bd 16ab 11be 56b0 f63d
000003c0: 3b2d acbd c298 a13d 87df a33d a2e5 d53d
000003d0: 0191 193e 2732 c3bd b8bb 6b3d a97d 343d
000003e0: f962 e03c e36a 8e3c a5db aabd e3b2 023e
000003f0: 0ca4 8b3d c1ad b23d fb3a a33d 13eb a43d
0.07192595 -0.0046708635 0.084252775 -0.11187398 0.13580632 0.07762203 -0.037306063 0.05267248
-0.060552962 -0.032381725 -0.07888594 -0.07250225 -0.03328842 0.03780691 -0.11509619 -0.12255395
-0.032040283 -0.15612115 -0.038260825 -0.055307347 -0.13921592 0.09640167 0.15228032 0.08033026
0.00987341 0.13565172 0.078432016 -0.048532393 -0.10848419 0.09206175 -0.07100177 -0.11705042
0.048510753 -0.03040799 0.061978262 -0.15586513 0.12037732 0.12056309 -0.1200383 -0.09185809
0.010686106 -7.56773e-05 0.07204734 -0.117682524 0.13906622 0.14049791 -0.019753227 -0.05750806
0.07400198 -0.07385319 -0.06898095 0.11885857 0.09281547 0.094296575 0.017440913 -0.03298083
-0.048486684 0.009836372 -0.13992608 0.01681497 0.08067242 -0.06025423 -0.14142032 0.14609283
-0.015366696 -0.0968124 0.033420023 -0.10108311 0.0055057267 0.0043441975 0.03470631 -0.052669913
-0.089280784 -0.03521556 0.11177451 -0.028081652 0.13502379 0.059481494 -0.13349393 -0.0075280163
-0.037727974 -0.031768598 0.05280474 0.1304871 0.071256995 0.014316826 -0.08712459 -0.058734164
-0.016602319 0.021638393 0.005133937 -0.059127837 -0.11631617 0.13371827 0.030656848 0.089029945
0.12392241 0.15044089 0.15462616 0.087378845 -0.07484107 -0.0291931 0.11562208 -0.021324659
-0.09296473 0.10250392 0.079210296 -0.06824291 -0.082816735 -0.12679806 -0.13066444 -0.070343025
-0.027080808 -0.0878759 0.030067828 -0.030231208 0.11946751 -0.122989945 -0.10278424 -0.018740019
0.06892464 -0.02246142 -0.038730722 0.014084329 0.13648658 -0.005208012 -0.05078418 -0.011089241
-0.11944506 0.14318435 -0.044718616 -0.12264468 -0.051913142 0.089031376 -0.05882134 -0.039679956
-0.07635222 0.0680394 -0.15238382 -0.11040222 0.029814333 0.10633515 0.09650198 -0.06811137
0.11202869 -0.06907909 0.118773125 0.10497896 0.017739326 -0.08394473 -0.07333915 0.012797852
0.078633375 0.1119335 0.15286659 0.05501623 0.13035418 -0.02825847 -0.055801842 0.11538421
0.10662864 -0.016109671 0.04882609 0.15077943 0.041867852 -0.15207198 -0.114421256 -0.00425559
0.12223202 0.11572758 0.036555436 -0.09528255 -0.03916622 -0.031601503 -0.055771366 3.4304532e-05
0.03184301 0.15372351 0.039883032 -0.08903459 0.068974465 0.027556585 0.102925375 -0.09143997
0.13028271 -0.13374671 -0.060934857 -0.082069896 -0.056525387 0.026353551 0.02065819 0.0057458393
0.076032564 -0.14266667 0.031512275 0.14822243 -0.06376029 0.124052346 -0.13503177 0.09852565
0.11886068 0.09505561 -0.06738991 -0.08118637 0.13328274 0.08271154 -0.021865746 -0.14593846
0.058450058 -0.09415003 0.09409882 -0.1374791 0.019753378 -0.018463867 -0.0034231965 0.07649081
-0.05853889 -0.14284284 0.1195174 -0.050974518 -0.088221714 -0.13667132 -0.023647489 0.0014869507
-0.03252081 0.078739606 -0.0009278056 0.044079628 0.033269722 -0.03675122 -0.0052003786 0.07627288
0.0243981 0.15619008 -0.049103543 -0.03008138 0.0239672 -0.086258575 -0.1422542 0.12045352
-0.084070645 0.07890464 0.08001619 0.104441896 0.14996721 -0.0953105 0.05755207 0.04406515
0.027390944 0.017384952 -0.08342675 0.12763552 0.06818399 0.08724547 0.07970234 0.08052649

c.net.0.bias f4 [64]
00000000: 553c b0bd 1009 663d 054e 633d bf93 56bd
00000010: 983b 113e b099 143e e6f2 67bd 7b9b a83d
00000020: cff6 103e 98e4 91bc 82ec d93d 25c7 d8bd
00000030: f1bc f43b b51d b83c 4943 e13d 1eea 15be
00000040: ace7 5a3b dad3 37bd aacc ecbd 0811 77bb
00000050: 9a8d aebd 0bae 13be 7565 2cbc 5f0e 06be
00000060: c78c 0d3c dbd5 023e 3c57 2dbd 99f0 f63d
00000070: 7ddb 1a3e 9d7e 1cbe 1157 38bd 386f 7fbd
00000080: 8a2d 4bbc 0b63 6f3c 0c1d 4abd f919 93bd
00000090: df4e 833d 4e15 783d 2396 8f3d d599 e6bc
000000a0: 426b 9f3d 1626 d33d 217e 20bc f2c2 66bd
000000b0: f59d 123e 9889 643d fb3e 363a ea44 febc
000000c0: 9276 f43d d5bd 2dbd 37a7 d93c 2fe5 eebd
000000d0: 6223 b7bd cf50 02be 443b 09be 52a5 503c
000000e0: 9312 babc 4b04 ecbc 6d93 213e f5be b7bd
000000f0: 2c41 8c3d c8eb 4d3d 0f71 a4bd 828b 153e
-0.086052574 0.056160986 0.055494327 -0.052386995 0.1418289 0.14511752 -0.05662813 0.082327805
0.1415665 -0.017809197 0.106408134 -0.10584859 0.0074688126 0.022475103 0.10999162 -0.1464009
0.0033402247 -0.04487977 -0.11562474 -0.003769936 -0.08523102 -0.14421861 -0.010522236 -0.1309142
0.008639521 0.12776892 -0.04231952 0.12057609 0.1512279 -0.15282674 -0.045004908 -0.062361926
-0.012400994 0.014611016 -0.049344108 -0.07182688 0.06411528 0.060567193 0.07011058 -0.028149525
0.0778413 0.10309999 -0.0097956965 -0.056338258 0.14318068 0.055795282 0.0006952134 -0.03103872
0.11936678 -0.042417366 0.026568992 -0.11664807 -0.089422956 -0.12726139 -0.13401514 0.012734728
-0.022713935 -0.02881064 0.15778895 -0.08971969 0.06848368 0.050273687 -0.08029377 0.14604
