experiments/07_control_structure_hypothesis/checkpoints/PWM/DroneCircleBulletEnv-v0/ppo/2021-12-14__10-00-22/seed_00039/torch_save/model.pt (torch, 82448 bytes, 19 tensors)

obs_oms.mean f4 [40]
0	0x3e810519	0.25199202
1	0xba24ed6e	-0.00062914833
2	0x3f80c45b	1.0059923
3	0xba6e23d7	-0.000908432
4	0xba6d1cdb	-0.00090451323
5	0xbd0d9dd1	-0.034574334
6	0x3f7d0fe2	0.9885236
7	0x3ab517d0	0.0013816301
8	0x3946d95c	0.00018963724
9	0xbc89733e	-0.016778585
10	0xbb75b3ef	-0.0037491282
11	0xbd2ec4e5	-0.042668242
12	0x3b069ce6	0.0020540296
13	0xbacb6df0	-0.0015520435
14	0x3a37a26a	0.00070050976
15	0xbbc458e1	-0.0059920405
16	0x3e9aa12f	0.30201098
17	0x3ea50e15	0.32237306
18	0x3eaedca7	0.3415272
19	0x3ea3891d	0.31940547
20	0x3e8106c4	0.25200474
21	0xba2436b3	-0.00062642543
22	0x3f80be73	1.005812
23	0xba752f7f	-0.0009353086
24	0xba83fb04	-0.0010069315
25	0xbd0de73e	-0.034644358
26	0x3f7cf366	0.98808897
27	0x3aa8b008	0.0012869844
28	0x398e2e78	0.00027118973
29	0xbc9704d8	-0.018434927
30	0xbb14e9eb	-0.0022722434
31	0xbd422393	-0.047397207
32	0x3b15347a	0.0022766874
33	0xbacceeaf	-0.0015635098
34	0x3a3480e3	0.00068856607
35	0xbbbe723c	-0.0058119576
36	0x3e9a2b30	0.30111074
37	0x3ea487eb	0.32134947
38	0x3eae16b8	0.34001708
39	0x3ea3353d	0.31876555

obs_oms.std f4 [40]
0	0x3e365207	0.17804728
1	0x3e35fac1	0.17771436
2	0x3d18c433	0.037296485
3	0x3daf4fba	0.085601285
4	0x3db86252	0.09003128
5	0x3d937ad3	0.07201161
6	0x3d36b2b3	0.044604015
7	0x3ecebd9d	0.40379038
8	0x3ece8f39	0.40343645
9	0x3e1ebb14	0.15501052
10	0x3fc33d24	1.5253034
11	0x3fd9c4d0	1.7013187
12	0x3edbe0d0	0.42944956
13	0x3d1cf0be	0.038315527
14	0x3d1dfac1	0.038569216
15	0x3d18c433	0.037296485
16	0x3f115c1b	0.56781167
17	0x3f1eaf45	0.6198619
18	0x3f291c48	0.6605878
19	0x3f19c7aa	0.6007029
20	0x3e366507	0.17811976
21	0x3e360f1c	0.17779201
22	0x3d1b8d76	0.037976705
23	0x3db21a10	0.08696377
24	0x3dbbdfd7	0.091735534
25	0x3d946758	0.07246274
26	0x3d44a732	0.048011012
27	0x3ecff6ae	0.4061789
28	0x3ecfb557	0.4056804
29	0x3e285d75	0.16441901
30	0x3fc60943	1.5471576
31	0x3fddc3e6	1.7325408
32	0x3edea24a	0.43483192
33	0x3d1e9418	0.038715452
34	0x3d1f8b7d	0.038951386
35	0x3d1b8d82	0.03797675
36	0x3f11520d	0.56765825
37	0x3f1e9339	0.61943394
38	0x3f29006a	0.66016257
39	0x3f19a02a	0.60010016

pi.log_std f4 [4]
0	0xc0905243	-4.5100417
1	0xc0905243	-4.5100417
2	0xc0905243	-4.5100417
3	0xc0905243	-4.5100417

pi.net.0.weight f4 [50, 40]
0	0xbe075941	-0.13217641
1	0x3dd202c3	0.10254433
2	0x3cb31f92	0.02186564
3	0xbdda0371	-0.10645188
4	0xbd87fac9	-0.0663963
5	0xbe1f1611	-0.15535761
6	0xbe0e0f9b	-0.1387314
7	0x3c969a90	0.018384248
8	0xbe6b9e0a	-0.23009506
9	0xbea834ff	-0.32852933
10	0xbdba99a4	-0.09111336
11	0xbe1b036f	-0.15138029
12	0x3e151e37	0.14562307
13	0x3e002c85	0.12516983
14	0x3dbcd176	0.09219639
15	0x3e967c21	0.29391578
16	0xbde82603	-0.11335375
17	0x3e010854	0.12600833
18	0xbdb19df9	-0.08672709
19	0x3e06ddac	0.13170499
20	0xbd97e8e5	-0.07417468
21	0xbdb7c065	-0.08972243
22	0xbe0945b1	-0.13405491
23	0x3dd538a4	0.10411194
24	0x3d0f2a9e	0.034952752
25	0xbcb13f8a	-0.021636743
26	0x3d491d41	0.049100164
27	0xbc39f516	-0.011349937
28	0xbe452004	-0.19250494
29	0xbeb65fc8	-0.3561995
30	0xbe97e531	-0.29667047
31	0x3e50086b	0.20315711
32	0x3d135a82	0.035974987
33	0x3e8b0b08	0.27156854
34	0x3e484c03	0.19560246
35	0x3e48a1ad	0.19592924
36	0x3cd36b35	0.025807956
37	0x3e00975a	0.12557736
38	0x3d177586	0.036977313
39	0x3e865508	0.2623675
40	0xbe651c6a	-0.2237412
41	0xbe5b2ae5	-0.21403082
42	0x3dd19096	0.10232656
43	0xbd714ffe	-0.058914177
44	0x3e151f24	0.1456266
45	0x3b67112b	0.0035258036
46	0x3cc6478b	0.024204036
47	0xbcdc27e1	-0.026874484
48	0x3cf15055	0.02945725
49	0x3e2cb061	0.16864158
50	0xbebcb4cd	-0.3685669
51	0xbd2c699e	-0.042092912
52	0x3d577b3f	0.05260777
53	0xbd81aa10	-0.06331265
54	0x3dabd97d	0.08391092
55	0xbde56713	-0.112013005
56	0xbe9e651e	-0.3093652
57	0x3bf1e7e2	0.007382379
58	0xbdef26c1	-0.116773136
59	0x3e0aa777	0.13540445
60	0xbe3479b5	-0.17624553
61	0xbe0c1da0	-0.13683176
62	0xbd503a60	-0.05083692
63	0x3bb7e165	0.005611586
64	0x3d895bea	0.06706984
65	0x3dc3e19f	0.09564518
66	0x3e644f85	0.2229596
67	0x3dad9e37	0.08477443
68	0xbd10cf7e	-0.03535413
69	0x3e804543	0.25052842
70	0x3e755778	0.23959148
71	0x3d663e13	0.056211542
72	0x3d400c7c	0.046886906
73	0xbd9c4a84	-0.076314
74	0x3cb760c2	0.022385005
75	0xbddd4785	-0.10804657
76	0xbddb61cb	-0.10712012
77	0x3ea7defc	0.3278731
78	0x3c1c2e4f	0.009532525
79	0x3d91704b	0.07101496
80	0x3e4295f0	0.19002509
81	0xbe4197c5	-0.18905552
82	0xbd83a064	-0.064270765
83	0xbe107eaa	-0.14110819
84	0x3dd0df13	0.10198798
85	0x3dbed923	0.09318759
86	0x3edf19a5	0.43574253
87	0x3e842d3c	0.2581576
88	0xbd190298	-0.03735599
89	0x3da87f8e	0.08227454
90	0x3e723b77	0.23655497
91	0xbddec9fb	-0.108783685
92	0x3db56570	0.08857238
93	0x3d96d4e8	0.073648274
94	0x3c6459f9	0.013937467
95	0xbe5d10f1	-0.21588494
96	0x3d57e6ef	0.05271047
97	0x3dbf9d91	0.09356225
98	0x3daca5d2	0.08430065
99	0xbe1845d9	-0.14870395
100	0x3dfe9271	0.12430275
101	0xbdbf1be7	-0.09331494
102	0xbd22ff58	-0.039794296
103	0xbdd34652	-0.10316147
104	0x3e9ea50f	0.30985305
105	0x3d3939b8	0.04522106
106	0x3f11382d	0.5672634
107	0x3e5a2004	0.21301275
108	0x3e8960b0	0.2683158
109	0x3e95b57e	0.2924003
110	0xbf0ea771	-0.55724245
111	0x3f15a846	0.5845989
112	0xbc6cf25e	-0.014462082
113	0xbdef5356	-0.11685817
114	0xbe2da6a4	-0.169581
115	0xbd997eb3	-0.07494869
116	0xbc6a5462	-0.014302345
117	0x3da3749b	0.07981225
118	0x3da14814	0.07875076
119	0xbc11a84d	-0.008890224
120	0x3d0e817a	0.034791447
121	0x3dd97b52	0.106192246
122	0xbe05ca83	-0.13065533
123	0xbdfc1946	-0.12309508
124	0xbe2202d2	-0.15821388
125	0xbdadcf73	-0.084868334
126	0x3e8b84f4	0.27249873
127	0xbdfa9d85	-0.12237076
128	0xbc662acc	-0.0140482895
129	0x3dd8deb7	0.105893545
130	0x3c849b65	0.01618738
131	0x3e3a7d4b	0.18211858
132	0xbdb5a133	-0.08868637
133	0x3e157fc0	0.14599514
134	0xbc6ed86a	-0.014577964
135	0xbda913ac	-0.08255705
136	0xbcee95ee	-0.029124226
137	0x3e19b35f	0.15009831
138	0xbdfbdfac	-0.122985214
139	0x3e287eb5	0.16454585
140	0x3c972b2e	0.018453207
141	0x3dc7064c	0.09717998
142	0x3d93cc33	0.07216682
143	0xbe1c0225	-0.15235193
144	0xbe37be31	-0.17943646
145	0xbe5e7602	-0.21724704
146	0x3e396110	0.18103433
147	0x3dd4d134	0.10391465
148	0x3e45bd80	0.1931057
149	0xbd6d412a	-0.057923473
150	0xbe13bdda	-0.14427891
151	0xbe9f5769	-0.31121376
152	0xbe824d68	-0.2544968
153	0x3e686155	0.22693379
154	0x3d27e251	0.040987317
155	0x3e326bb7	0.17423902
156	0x3e1856ad	0.14876814
157	0x3e048882	0.12942699
158	0x3dbb2ba1	0.09139181
159	0x3ae85b6a	0.0017727439
160	0xbda4eafd	-0.08052633
161	0xbd087b13	-0.033320498
162	0xbd6649ba	-0.056222655
163	0x3e6bf7ac	0.23043698
164	0xbd042577	-0.03226229
165	0xbdd5d3e2	-0.10440804
166	0x3e2b6ab9	0.1673993
167	0x3cd3cf32	0.025855634
168	0xbe465efc	-0.19372171
169	0x3e570474	0.20997792
170	0xbe85177e	-0.25994486
171	0xbe6b2378	-0.22962749
172	0x3e00e66e	0.12587902
173	0xbc719be8	-0.014746644
174	0xbd727ed1	-0.059202973
175	0xbe04cd9c	-0.12969059
176	0xbdc5acdc	-0.09652111
177	0xbd9eb3d2	-0.07749142
178	0x3d25696a	0.040383734
179	0xbd3ad701	-0.0456152
180	0xbd88821d	-0.06665442
181	0x3e01d407	0.12678538
182	0x3d91dda9	0.071223564
183	0x3dfcbb1e	0.12340377
184	0x3e4e7cef	0.20164846
185	0xbd0c4552	-0.034245797
186	0x3e37e2bd	0.17957588
187	0x3dadb3e9	0.08481581
188	0xbe307c7f	-0.17234991
189	0xbc16c872	-0.009203063
190	0x3ecb80a2	0.39746577
191	0xbd1018f3	-0.035180043
192	0xbe0e719d	-0.13910528
193	0x3e0a4478	0.13502681
194	0x3e15db44	0.14634424
195	0xbdde3d69	-0.10851557
196	0xbdc0b583	-0.094096206
197	0xbb7adb04	-0.0038277516
198	0xbc9fd64d	-0.019511366
199	0x3cdf2936	0.02724133
200	0xbcda49c6	-0.026646506
201	0x3e03c15d	0.12866731
202	0x3de29e66	0.11065368
203	0xbd8c2204	-0.068424255
204	0x3c807f04	0.015685566
205	0x3da59b1d	0.08086226
206	0x3eddce39	0.43321398
207	0xbe9466b1	-0.28984597
208	0xbdba98f8	-0.09111208
209	0x3e331b3b	0.17490856
210	0x3c90f3c5	0.017694363
211	0x3db444d5	0.08802191
212	0x3e527d9c	0.20555729
213	0x3df63f64	0.120238096
214	0x3dd02036	0.10162394
215	0xbe2437e4	-0.16036946
216	0x3c99c0b8	0.018768653
217	0xbcdc17e5	-0.026866863
218	0xbdcf024d	-0.10107861
219	0x3dcfdbe2	0.10149361
220	0xbe62c40d	-0.221451
221	0x3dc82860	0.09773326
222	0x3e3efd44	0.186513
223	0x3e8b72d2	0.27236038
224	0xbe50284f	-0.20327877
225	0xbc8087bd	-0.015689725
226	0x3ebfaeed	0.37438145
227	0xbe5c958d	-0.21541424
228	0xbd137030	-0.035995662
229	0x3e9bac47	0.30404875
230	0x3e9c9d0d	0.3058857
231	0xbed075e7	-0.40714952
232	0x3ea86488	0.328892
233	0x3d0aec80	0.03391695
234	0x3dc2a7fb	0.09504696
235	0xbe026d75	-0.12737067
236	0x3d78c694	0.060736254
237	0x3d24c0a8	0.040222794
238	0x3d3541a3	0.04425205
239	0xbc2a683f	-0.010400831
240	0x3e019744	0.1265536
241	0x3e20dbd9	0.15708865
242	0xbdf44e88	-0.11929041
243	0x3cadef8c	0.021232389
244	0xbbd59c69	-0.0065188897
245	0xbe34586c	-0.17611855
246	0xbc96a7e2	-0.0183906
247	0x3db27561	0.087137945
248	0x3e41a53d	0.1891069
249	0xbdfb8f75	-0.12283222
250	0x3e889be5	0.26681438
251	0x3dcd24d7	0.10016792
252	0xbd32b4c7	-0.043629434
253	0xbe16161b	-0.1465687
254	0xbd2beae3	-0.041972052
255	0x3ead31fb	0.33827195

pi.net.0.bias f4 [50]
0	0x3dee2692	0.116284505
1	0xbb8c02ff	-0.004272818
2	0x3e422075	0.18957694
3	0x3e6e4ba7	0.23271047
4	0x3cd72e06	0.026267063
5	0x3e9116d0	0.28337717
6	0x3dde4376	0.10852711
7	0x3e23dce0	0.16002226
8	0x3def701f	0.11691307
9	0x3e00b04f	0.12567256
10	0xbeb4a717	-0.3528373
11	0xbc906b24	-0.017629214
12	0x3ea749c7	0.32673475
13	0x3e51e419	0.20497169
14	0x3e8f08b5	0.2793633
15	0xbd879589	-0.066203184
16	0xbe036024	-0.12829643
17	0x3ea79742	0.32732588
18	0x3e6e2f28	0.23260176
19	0xbe4ab2b4	-0.19794732
20	0x3e76e698	0.24111402
21	0xbd17bd4b	-0.03704576
22	0x3e6901c5	0.22754581
23	0x3d1b6147	0.037934568
24	0xbe6de1a6	-0.2323061
25	0x3dae1f7a	0.085020974
26	0x3e769cde	0.24083278
27	0x3e267e75	0.16259177
28	0x3dde7a9f	0.10863232
29	0xbdb31187	-0.087435775
30	0xbddb713c	-0.10714957
31	0x3e535fd5	0.20642026
32	0x3e98c72a	0.2983945
33	0x3dbe348b	0.092873655
34	0xbd354d6b	-0.044263285
35	0x3e8c1c6a	0.27365428
36	0x3d995fa5	0.07488946
37	0xbd770a69	-0.060312662
38	0x3ddc1cc4	0.10747674
39	0xbdaeea14	-0.085407406
40	0x3e933896	0.2875411
41	0x3e893ce1	0.2680426
42	0x3d9ef1da	0.07760973
43	0x3d97b9e8	0.07408506
44	0x3da9dbed	0.08293901
45	0x3e3e3301	0.18574144
46	0x3e2022a4	0.15638214
47	0x3dd110b0	0.10208261
48	0xbea3f331	-0.32021478
49	0xb6eb476e	-7.0118613e-06

pi.net.2.weight f4 [50, 50]
0	0x3d2d65cb	0.042333405
1	0xbd63eb72	-0.05564446
2	0x3ee483ea	0.44631892
3	0x3e0bad0b	0.1364023
4	0xbdf9100d	-0.121612646
5	0xbe54f7b2	-0.20797613
6	0xbe883b0d	-0.26607552
7	0x3e1b141f	0.15144394
8	0xbdcddcc0	-0.1005187
9	0x3ce263f5	0.027635554
10	0xbda3c9d0	-0.07997477
11	0x3e08e406	0.13368234
12	0x3e5d9e43	0.21642403
13	0x3bb88eba	0.0056322487
14	0x3b96de62	0.004604147
15	0x3def23c8	0.116767466
16	0x3da03171	0.0782193
17	0x3e8fdd16	0.28098363
18	0x3e8a4ea5	0.27013126
19	0xbec21db3	-0.37913284
20	0x3e13230c	0.14368838
21	0x3e8441b9	0.25831392
22	0x3e5acd26	0.2136732
23	0x3ceef280	0.029168367
24	0xbda3189e	-0.0796368
25	0xbd5846f7	-0.052802052
26	0x3e18abe3	0.1490932
27	0xbd75b49b	-0.059986692
28	0xbcc60df3	-0.024176573
29	0x3e17de7d	0.14830966
30	0xbec42c91	-0.3831525
31	0xbe2374cd	-0.15962525
32	0xbe376472	-0.1790941
33	0xbddf9dec	-0.10918793
34	0x3ccc11b8	0.024910793
35	0xbc39be01	-0.011336804
36	0x3dabff5e	0.08398317
37	0xbe2ede3a	-0.1707696
38	0xbdac6c36	-0.08419077
39	0xbd4b28d9	-0.049599502
40	0xbc5d2c13	-0.013499278
41	0x3e142c40	0.14470005
42	0xbe96314b	-0.29334483
43	0x3e8070c5	0.25086036
44	0xbe4981dd	-0.19678445
45	0xbd4dc8cd	-0.050240327
46	0x3e132478	0.1436938
47	0xbe24811e	-0.1606488
48	0xbe389e59	-0.18029155
49	0x3e1b29b5	0.15152629
50	0xbcbbd3be	-0.022928115
51	0x3ca8e567	0.0206172
52	0xbddab997	-0.1067993
53	0x3a86d486	0.0010286726
54	0x3e98674a	0.29766303
55	0x3db1a982	0.08674909
56	0x3d3fcd97	0.046826925
57	0xbd3a6a6f	-0.04551166
58	0x3cce7de4	0.025206514
59	0xbe40cc4b	-0.18827932
60	0xbd9d3162	-0.07675435
61	0x3deec22b	0.11658128
62	0xbcf9d936	-0.030499082
63	0xbc78ca42	-0.015184941
64	0x3e48b32e	0.19599602
65	0x3da1b727	0.07896262
66	0xbc00803a	-0.007843072
67	0xbe20df28	-0.15710127
68	0x3e0c9930	0.13730311
69	0xbdaa9370	-0.08328903
70	0xbd10353f	-0.03520703
71	0x3e8a991a	0.27069932
72	0xbdc4c6cb	-0.09608229
73	0x3d5dc882	0.054146297
74	0xbdf45803	-0.119308494
75	0xbdbb6ec5	-0.09151987
76	0x3dc8806f	0.09790122
77	0x3e5ec236	0.21753773
78	0xbe1a4c97	-0.15068279
79	0xbbd2cc9d	-0.006433083
80	0xbda85452	-0.08219208
81	0xbda2ca5c	-0.07948753
82	0x3d1924cd	0.03738861
83	0x3e0d8dd1	0.1382363
84	0x3e0819db	0.13291113
85	0xbe3b115d	-0.18268342
86	0x3e688abe	0.22709176
87	0x3db3b805	0.08775333
88	0x3e33dde8	0.1756512
89	0x3d0e3031	0.034713928
90	0x3cfd2f13	0.030906236
91	0xbe3784cd	-0.17921753
92	0x3c67d92b	0.014150898
93	0xbd5d8908	-0.05408576
94	0x3d1097f4	0.035301164
95	0xbc64957d	-0.013951656
96	0x3e16f4ef	0.14741872
97	0xbcb515f0	-0.022105187
98	0x3e45e1fa	0.19324484
99	0xbe145c3e	-0.14488313
100	0x3dc29120	0.09500337
101	0xbdbdc36f	-0.092657916
102	0xbd6f2230	-0.058382213
103	0xbb1657e2	-0.0022940566
104	0x3c4adfa3	0.012382421
105	0x3e14e5a6	0.14540729
106	0x3d86b302	0.06577112
107	0x3df89f62	0.12139775
108	0x3da48c2d	0.08034549
109	0xbe261502	-0.16218951
110	0x3d4f76bd	0.050650347
111	0x3e174102	0.14770892
112	0xbe4db215	-0.20087464
113	0x3e195f2e	0.14977714
114	0xbd52c1e6	-0.051454447
115	0x3e41367f	0.18868445
116	0xbe811b98	-0.25216365
117	0x3dea0b4e	0.114279374
118	0xbc3ffb58	-0.01171764
119	0x3d687d36	0.056760035
120	0x3d91cad9	0.07118768
121	0x3d8f2c0c	0.06990823
122	0xbdb97b07	-0.09056669
123	0xbe3566ae	-0.1771495
124	0x3e16f3d2	0.14741448
125	0x3b655981	0.0034995975
126	0xbdbb018a	-0.09131153
127	0xbcb7e6ab	-0.022448858
128	0x39b5081b	0.0003452905
129	0x3dca227c	0.098698586
130	0x3c0d716d	0.008633
131	0xbdeef177	-0.116671495
132	0xbc0f957a	-0.008763665
133	0x3e12f5c2	0.14351562
134	0x3d00c8f1	0.031441633
135	0x3e32a92c	0.17447346
136	0xbc142b48	-0.009043522
137	0x3d660af6	0.056162797
138	0x3e26ea9b	0.16300432
139	0x3dd9d2e5	0.10635928
140	0xbdbede53	-0.09319749
141	0x3e234f8e	0.15948316
142	0xbe24b588	-0.16084874
143	0xbd0b0d91	-0.033948485
144	0xbe5bc3cd	-0.21461411
145	0x3e6a9fee	0.22912571
146	0xbed46083	-0.41479883
147	0xbd4b6ab5	-0.04966231
148	0xbe2ea6a0	-0.1705575
149	0xbd115aab	-0.03548686
150	0xbe00dff8	-0.12585437
151	0x3da41df4	0.080135256
152	0x3d0dc4e9	0.034611616
153	0xbdc28d01	-0.094995506
154	0x3e416228	0.188851
155	0x3e652299	0.22376479
156	0x3e17eb62	0.14835885
157	0x3c59b197	0.01328697
158	0x3dc9ed3f	0.09859704
159	0xbe366f9f	-0.17816018
160	0xbdaadd64	-0.08343008
161	0xbe1a10c4	-0.15045458
162	0x3da015c5	0.07816652
163	0xbd2a2b8b	-0.041545432
164	0x3e317e93	0.1733344
165	0x3db456b0	0.08805597
166	0xbd800cbb	-0.06252428
167	0x3ca7465d	0.020419294
168	0xbdc5c99b	-0.09657594
169	0xbb88ba8b	-0.0041726283
170	0xbe64021e	-0.22266433
171	0xbdcba876	-0.09944241
172	0x3e1fadbc	0.15593618
173	0xbd87d48f	-0.06632339
174	0xbcb07baa	-0.021543343
175	0x3d996cbc	0.074914426
176	0x3df17b2e	0.11791073
177	0x3e348e03	0.17632298
178	0xbe2fbaf6	-0.17161164
179	0xbde0b9dc	-0.1097295
180	0x3cc7c404	0.02438546
181	0xbd55eeea	-0.0522298
182	0xbd833104	-0.06405833
183	0x3df5ff98	0.12011641
184	0x3db38357	0.087652855
185	0x3e040f45	0.1289645
186	0x3d1c6314	0.038180426
187	0xbd7250a5	-0.05915894
188	0xbe2f0b34	-0.17094117
189	0xbd98d704	-0.07462886
190	0x3e07b71b	0.13253443
191	0x3dfa6aa5	0.12227372
192	0x3b61e7dd	0.0034470477
193	0x3dad5827	0.08464079
194	0x3d9142f5	0.07092849
195	0xbd34e4cc	-0.04416351
196	0x3c89b97f	0.016812084
197	0x3cc63259	0.02419393
198	0x3e16d0ab	0.14728038
199	0x3e223190	0.15839219
200	0x3e239673	0.1597536
201	0x3d135cb4	0.03597708
202	0xbe84e3a5	-0.2595493
203	0x3e0997f3	0.1343687
204	0x3d7f659d	0.062352765
205	0xbce3ed27	-0.027823044
206	0xbeac7db2	-0.33689648
207	0x3e329c5d	0.1744246
208	0xbdabb2f9	-0.08383746
209	0xbeba4224	-0.36378586
210	0xbe6ab4ca	-0.22920528
211	0x3e32ed3c	0.1747331
212	0xbe7c297b	-0.24625199
213	0x3c6293ed	0.013829214
214	0xbd71089e	-0.05884611
215	0xbe95193b	-0.29120812
216	0xbebbeeee	-0.36705726
217	0x3e1b3085	0.15155227
218	0xbe07c954	-0.13260394
219	0xbda4af26	-0.080412194
220	0x3df2547a	0.11832519
221	0x3e1dfaf3	0.15427761
222	0xbe1c23db	-0.15248053
223	0xbd34834c	-0.044070527
224	0xbd6ae5c3	-0.057348024
225	0x3df7730e	0.12082492
226	0xbd5ba27e	-0.05362176
227	0x3d3033d8	0.043018192
228	0x3e82421d	0.25441065
229	0x3d876a7a	0.06612106
230	0xbe825654	-0.25456488
231	0xbdccf08c	-0.10006818
232	0x3d4126a3	0.047155987
233	0xbdfef6eb	-0.124494396
234	0x3d4c6b87	0.049907234
235	0xba9efd27	-0.0012129889
236	0x3def88a7	0.11695986
237	0x3d6a0171	0.05713028
238	0xbdadb3f3	-0.08481588
239	0x3e9e3cb7	0.30905697
240	0xbded62e1	-0.11591125
241	0xbe8c8d9b	-0.27451786
242	0x3bcfe98f	0.006344981
243	0x3dccdf35	0.10003511
244	0xbc704355	-0.014664491
245	0xba3561e0	-0.00069191866
246	0xbddd76ae	-0.10813652
247	0xbdc88ed5	-0.09792868
248	0xbd22f45e	-0.039783828
249	0x3e106f02	0.14104846
250	0x3c91bd94	0.017790593
251	0x3d665b37	0.056239333
252	0x3e7066f8	0.2347678
253	0xbd79e409	-0.061008487
254	0x3d087128	0.03331104
255	0xbd6a605a	-0.057220794

pi.net.2.bias f4 [50]
0	0x3e1c7a6f	0.1528108
1	0x3df02c46	0.117271945
2	0xbe639191	-0.22223498
3	0xbc85e5d0	-0.016344935
4	0xbc6d453a	-0.014481837
5	0x3deaa0cb	0.1145645
6	0xbce91a8a	-0.028455038
7	0x3da1dc3f	0.07903337
8	0x3d300ec4	0.04298283
9	0xbd2364dd	-0.039891113
10	0x3dc79d9a	0.09746857
11	0xbe15b0e0	-0.14618254
12	0xbc80704b	-0.015678545
13	0xbe281b3e	-0.16416642
14	0x3d98b36a	0.074560955
15	0x3dd7d200	0.10538101
16	0xbe16075c	-0.14651245
17	0x3e4b0c52	0.19828919
18	0xbd495c49	-0.049160276
19	0xbddba25f	-0.10724329
20	0x3e09065a	0.13381329
21	0x3e56ee4a	0.20989338
22	0x3d9f26f7	0.07771104
23	0x3d3158e4	0.043297663
24	0x3e0173bb	0.12641804
25	0x3e501bc1	0.20323087
26	0x3bb6fab8	0.005584087
27	0xbd067c7d	-0.032833565
28	0x3e3b1c77	0.18272577
29	0xbd97cc7a	-0.07412048
30	0x3de62066	0.11236648
31	0x3e69debe	0.22838876
32	0x3acc0bca	0.0015567478
33	0xbe1b77a9	-0.15182365
34	0x3db8a13a	0.090151265
35	0x3d369e0a	0.04458431
36	0xbd61e8a0	-0.05515349
37	0x3d25fe84	0.04052593
38	0x3da93b04	0.082632095
39	0xbd441bb2	-0.047877975
40	0x3dff5dbb	0.124690495
41	0x3c6464f4	0.013940085
42	0x3c31594f	0.0108245155
43	0x3d16dc7c	0.036831364
44	0x3e19411b	0.14966242
45	0xbd4c7c8d	-0.04992347
46	0x3e9e0381	0.30862048
47	0x3d1f8cac	0.038952515
48	0xbd664017	-0.056213465
49	0x3d048352	0.0323518

pi.net.4.weight f4 [4, 50]
0	0x3e2946f1	0.16530968
1	0x3e5801c1	0.21094419
2	0x3d72e38f	0.059299048
3	0x3d0524b9	0.032505725
4	0x3e7668a8	0.2406336
5	0x3e84cea1	0.25938895
6	0x3e2f4072	0.17114428
7	0xbe692bed	-0.22770663
8	0x3d4491b1	0.047990505
9	0x3de5bdcd	0.11217842
10	0x3e491bf3	0.19639568
11	0x3e8f65c0	0.28007317
12	0xbebc391a	-0.36762315
13	0xbe4e67dd	-0.20156808
14	0x3dda2d9f	0.10653233
15	0x3dbc4983	0.09193709
16	0xbdcdeef3	-0.100553416
17	0x3d8ec798	0.06971663
18	0xbebee275	-0.37282148
19	0x3dd26089	0.10272319
20	0x3e9bcf34	0.3043152
21	0x3e412e28	0.18865263
22	0xbdce981b	-0.100876056
23	0xbcb6ed9e	-0.022330102
24	0x3e9e7f58	0.3095653
25	0x3c634474	0.013871301
26	0xba4b442d	-0.00077539944
27	0xbe5d5f8f	-0.21618484
28	0x3e79db87	0.2440015
29	0xbee38215	-0.44435182
30	0x3c4eddc5	0.012626116
31	0x3d154749	0.036444936
32	0xbe3448cc	-0.17605895
33	0xbd2b1e57	-0.04177698
34	0xbe40cd4d	-0.18828316
35	0xbd893f4d	-0.06701527
36	0xbeb171c8	-0.3465712
37	0x3dd68a08	0.10475546
38	0xbe77a507	-0.24184047
39	0xbdaa7146	-0.083223864
40	0xbe00a462	-0.12562707
41	0x3e5bca52	0.21463898
42	0xbe960478	-0.29300284
43	0xbe2346e9	-0.15945019
44	0x39d8f807	0.00041383525
45	0x3e56e3d3	0.20985346
46	0xbec35f0f	-0.3815846
47	0xbd9b60d9	-0.075868316
48	0x3df773dd	0.12082646
49	0xbe1ba056	-0.15197882
50	0xbf18b0ab	-0.59644574
51	0x3daa4bad	0.08315215
52	0xbe7234c4	-0.23652941
53	0xbe14fe70	-0.14550185
54	0xbd9083a3	-0.07056358
55	0x3e09f2cb	0.13471524
56	0x3e5d2704	0.21596915
57	0x3dd4a80d	0.10383616
58	0xbec8d126	-0.39222068
59	0xbe84c1c6	-0.25929087
60	0xbe89e8d2	-0.2693544
61	0x3c919fea	0.017776448
62	0x3d925564	0.07145193
63	0xbe360238	-0.17774284
64	0x3ea77b55	0.32711282
65	0xbe574e7c	-0.21026033
66	0x3e9fd7d8	0.31219363
67	0x3d3b25d9	0.04569039
68	0xbdc11309	-0.09427459
69	0x3dd6b962	0.10484578
70	0x3e4b350b	0.19844453
71	0x3eb053a2	0.34438807
72	0x3c7697ba	0.015050823
73	0xbebf53b4	-0.37368548
74	0x3e27983d	0.16366668
75	0xbd2df39f	-0.042468663
76	0xbe455d76	-0.19273934
77	0xbe8920f5	-0.26782957
78	0x3e6824c0	0.22670269
79	0x3e6f41c7	0.23364936
80	0xbe1e1b3a	-0.15440074
81	0x3ee162f9	0.44020823
82	0xbbe30d83	-0.006929101
83	0xbe41ebe5	-0.18937643
84	0x3c66444b	0.014054368
85	0xbeacdd0a	-0.3376239
86	0xbe45c30e	-0.19312689
87	0xbdab2902	-0.08357431
88	0x3dcc6338	0.09979862
89	0x3e887595	0.26652208
90	0x3dd66476	0.1046838
91	0x3dceb529	0.10093147
92	0x3e1c662d	0.15273352
93	0xbe51d7a8	-0.20492423
94	0x3e897e08	0.26853967
95	0x3e328d94	0.1743682
96	0x3edeeff6	0.4354245
97	0xbebec9df	-0.3726339
98	0x3e9ef7df	0.31048486
99	0x3ddf7b07	0.109121375
100	0x3df02e1f	0.11727547
101	0xbd14fe34	-0.03637524
102	0xbf0b2c31	-0.54364306
103	0xbc8f8eb7	-0.017524106
104	0xbf15da92	-0.58536637
105	0xbf03bcb1	-0.51459795
106	0xbe515871	-0.20443894
107	0x3e1e0f1e	0.15435454
108	0x3eea04ae	0.45706695
109	0xbdba6d4d	-0.09102879
110	0xbe46dd29	-0.19420303
111	0xbe1b89cb	-0.15189283
112	0xbe238ded	-0.15972109
113	0xbde238a1	-0.11045957
114	0xbe64ef7d	-0.22356983
115	0xbde4ea1e	-0.11177467
116	0x3d10fb08	0.035395652
117	0x3e0a7d94	0.13524467
118	0xbd60ffc7	-0.05493143
119	0xbe23eca9	-0.16008247
120	0x3e430f92	0.19048908
121	0x3e160818	0.14651525
122	0x3ec59432	0.38589627
123	0x3eb421aa	0.35181934
124	0xbeb198f3	-0.34687003
125	0x3ece0f65	0.4024612
126	0xbd82f0e8	-0.063936055
127	0xbe1504eb	-0.14552657
128	0x3e67a7e8	0.22622645
129	0x3d626241	0.055269483
130	0xbd15f7a3	-0.036613118
131	0x3ea026cd	0.31279603
132	0x3e20fe16	0.15721926
133	0xbe681f5b	-0.22668211
134	0x3e3116c1	0.17293836
135	0xbdc31dd1	-0.095271714
136	0xbd80025d	-0.06250451
137	0xbd041cc7	-0.032254007
138	0xbe5a3c9d	-0.21312185
139	0x3dbcfcb0	0.09227884
140	0x3e86bb4d	0.26314774
141	0x3e51bd7f	0.20482443
142	0x3e24277e	0.1603069
143	0xbd8d6c60	-0.069054365
144	0xbd7a3cb0	-0.061093032
145	0x3e235a82	0.15952495
146	0x3eca3198	0.39490962
147	0xbe85d529	-0.2613919
148	0x3e8da885	0.27667633
149	0x3df1cda0	0.11806798
150	0x3ecbef0c	0.39830816
151	0xbe9d4822	-0.30719095
152	0xbd49c008	-0.0492554
153	0xbe7fde3e	-0.24987122
154	0x3ee0d462	0.43912035
155	0x3ea002be	0.31252092
156	0x3ddb30cb	0.10702666
157	0x3ea635d7	0.32462952
158	0xbe9ebcbf	-0.31003377
159	0x3e07615a	0.1322073
160	0x3e7fb3bd	0.24970908
161	0xbe675974	-0.22592717
162	0xbd850b5c	-0.06496307
163	0xbd1e426e	-0.03863757
164	0xbe84642a	-0.2585767
165	0xbdaa9e15	-0.08330933
166	0x3e988f41	0.29796794
167	0x3e3c9f90	0.18420243
168	0x3e0939d2	0.13400963
169	0xbe2f2df7	-0.17107378
170	0x3e32e535	0.17470248
171	0xbe7d3dfd	-0.24730678
172	0x3e6d7766	0.23190078
173	0x3da04e2e	0.078274116
174	0xbdb113c8	-0.08646351
175	0x3db9b4f5	0.09067718
176	0x3e76601a	0.24060097
177	0xbe0ca756	-0.13735709
178	0x3d707290	0.058703005
179	0x3c8e3137	0.017357452
180	0x3e92706f	0.28601405
181	0xbd71be24	-0.059019223
182	0xbc9c6ac7	-0.019093884
183	0x3d72b898	0.059258074
184	0xbd2d2a79	-0.042276833
185	0xbe3023e2	-0.17201188
186	0xbe09423b	-0.13404171
187	0xbeba9ce3	-0.3644782
188	0xbdd6fc2b	-0.10497316
189	0xbe64c7a3	-0.2234178
190	0xbdbe689a	-0.09297295
191	0x3e15335d	0.14570375
192	0x3eacf194	0.3377806
193	0x3e053cc5	0.13011463
194	0x3dfc822e	0.12329517
195	0x3eb56d17	0.3543479
196	0xbea7636b	-0.32693037
197	0xbe2df8d9	-0.16989459
198	0xbd56506a	-0.052322783
199	0x3e47ebc2	0.19523528

pi.net.4.bias f4 [4]
0	0x3e3201ce	0.17383501
1	0x3d1daa28	0.03849235
2	0x3e1fcde4	0.15605885
3	0x3e0afdee	0.13573429

v.net.0.weight f4 [64, 40]
0	0x3db36948	0.08760315
1	0xbf88d91f	-1.069126
2	0xbdb33a58	-0.087513626
3	0xbe1fa014	-0.15588409
4	0xbeb76b83	-0.35824212
5	0x3dd02f0d	0.10165224
6	0xbedfb1f1	-0.43690446
7	0xbebbc217	-0.36671516
8	0xbede4387	-0.43410894
9	0xbf06a9d9	-0.52602917
10	0xbdbd10ae	-0.09231697
11	0xbeb995e7	-0.3624718
12	0x3e9dd1a3	0.30824003
13	0x3d64ff08	0.05590728
14	0xbdeeb925	-0.11656407
15	0x3ef35f31	0.47533563
16	0x3d06c85f	0.032905933
17	0xbd060fa6	-0.032729767
18	0xbe257eca	-0.16161647
19	0x3d34a3c1	0.04410148
20	0x3b1a2adc	0.0023524081
21	0xbf825b80	-1.0184174
22	0xbe08a0d2	-0.13342598
23	0xbd7063d3	-0.05868895
24	0xbf1354c7	-0.57551235
25	0x3ddeacdd	0.10872815
26	0xbe9c29e6	-0.30500716
27	0xbefdb39f	-0.49551103
28	0xbf1ed77f	-0.6204757
29	0xbed8c84d	-0.42340317
30	0xbeb28fa2	-0.34875208
31	0xbf010583	-0.50399035
32	0x3e5dccc6	0.21660146
33	0x3d61620c	0.055025145
34	0x3e011bfd	0.12608333
35	0x3f1a30f9	0.60230976
36	0xbd812d33	-0.06307449
37	0x3d1fdbef	0.039028104
38	0xbe503a68	-0.2033478
39	0x3d7d8f28	0.061904103
40	0xbeae17c1	-0.34002498
41	0xbe147ea1	-0.1450143
42	0xbd2b0790	-0.04175526
43	0xbe154322	-0.1457639
44	0xbd9380ae	-0.07202278
45	0x3e09c88c	0.13455409
46	0xbee013c7	-0.4376509
47	0xbd9416f6	-0.07230942
48	0xbdbe4461	-0.09290386
49	0x3e22d987	0.15903293
50	0x3c864937	0.016392333
51	0x3c2e781e	0.010648755
52	0x3c0dcc6b	0.008654694
53	0xbd02b86a	-0.031914152
54	0xbd1cc141	-0.03827024
55	0x3cc3644b	0.023851534
56	0x3bd25548	0.0064188577
57	0xbc42f486	-0.011899119
58	0x3d922172	0.071352854
59	0x3cbd7d5b	0.023131063
60	0xbe797f38	-0.24364936
61	0xbd5f4fd0	-0.054519475
62	0x3cf9e21e	0.030503329
63	0xbe8271ae	-0.25477356
64	0xbe54f929	-0.20798172
65	0x3e85357e	0.26017374
66	0xbf6cc394	-0.9248593
67	0xbd85f89b	-0.06541558
68	0x3dd1ea79	0.102498
69	0x3dce1bc3	0.10063889
70	0x3e002d60	0.12517309
71	0xbe03bbec	-0.12864655
72	0xbd7abd44	-0.061215654
73	0xbd147de0	-0.036252856
74	0xbd156a83	-0.03647853
75	0xbbbc761c	-0.0057513844
76	0x3d1e72da	0.03868375
77	0xbcaa6f9e	-0.020805176
78	0x3d55855b	0.05212913
79	0x3d9f08ec	0.077653736
80	0x3e04449b	0.12916796
81	0xbe89ef76	-0.26940507
82	0x3dbb4add	0.091451384
83	0x3c7c0c9d	0.015383867
84	0x3e21a792	0.15786579
85	0x3bbbbccb	0.005729293
86	0xbe109591	-0.14119555
87	0x3e82af65	0.2552444
88	0xbe021b45	-0.12705715
89	0xbde2a26c	-0.11066136
90	0xbd9e6cdd	-0.07735608
91	0x3d43198f	0.047631796
92	0xbcd417ed	-0.025890315
93	0xbe1329aa	-0.14371362
94	0xbd1dd49d	-0.038532842
95	0xbd72da54	-0.059290245
96	0xbb38569a	-0.002812779
97	0x3c1038d3	0.00880261
98	0xbc881627	-0.016612126
99	0xbd574205	-0.052553196
100	0xbb63f3a9	-0.0034782684
101	0xbda4655c	-0.08027145
102	0x3d3188ec	0.04334347
103	0xbd43c343	-0.047793638
104	0x3e9a1663	0.30095205
105	0x3d5b9f30	0.05361861
106	0x3eda8b63	0.4268447
107	0x3ebe9ed9	0.37230566
108	0xbdb7b21a	-0.08969517
109	0x3cac9840	0.021068692
110	0xbea6688d	-0.3250164
111	0x3eea45d6	0.45756406
112	0xbce0e218	-0.02745156
113	0xbe637756	-0.22213492
114	0x3e2e9932	0.17050627
115	0xbe267fc9	-0.16259684
116	0x3c34fae7	0.011046148
117	0x3d5ecb4f	0.05439311
118	0xba36cd06	-0.00069733
119	0xbd4b7ebe	-0.049681418
120	0x3f1b5940	0.6068306
121	0x3f1288c9	0.5723997
122	0xbc9057b2	-0.017619941
123	0x3d027a74	0.03185506
124	0x3e88e71f	0.2673883
125	0xbc029dd5	-0.0079722
126	0x3ec1e74b	0.37871775
127	0x3eb91ae7	0.36153337
128	0xbecd0545	-0.40043083
129	0x3d6f13bb	0.058368426
130	0x3de5e4f2	0.112253085
131	0xbd90446e	-0.07044302
132	0xbdbe95ad	-0.09305892
133	0xbd994f0f	-0.07485782
134	0x3ce41e74	0.027846552
135	0xbe243977	-0.16037546
136	0xbc665aee	-0.014059765
137	0xbdb9fb14	-0.090810925
138	0xbc9c882b	-0.019107899
139	0xbbc6f364	-0.006071495
140	0x3f51027a	0.81644404
141	0x3ea2d97f	0.3180656
142	0x3e54270a	0.20718017
143	0x3dddec43	0.10836079
144	0x3e1b53d7	0.15168701
145	0x3d2780cf	0.040894326
146	0x3f782316	0.96928537
147	0x3ea32171	0.3186145
148	0xbeae7732	-0.34075314
149	0x3e3814c9	0.17976679
150	0x3dcd787a	0.10032745
151	0xbd8902fe	-0.06690024
152	0xbda763ef	-0.08173358
153	0x3ce753a0	0.028238118
154	0x3d8ff404	0.07028964
155	0xbdea36eb	-0.11436256
156	0x3d0aca28	0.033884197
157	0xbe1b6373	-0.15174656
158	0xbcea7755	-0.028621355
159	0x3cf570d8	0.029961035
160	0x3eb1e2a4	0.34743226
161	0xbdeab312	-0.11459936
162	0xbdd32241	-0.10309268
163	0x3edf91d8	0.43665957
164	0xbe3198d3	-0.17343454
165	0x3e179e2a	0.14806429
166	0xbec1cd28	-0.37851834
167	0x3e36922f	0.17829202
168	0x3e5753e5	0.21028097
169	0xbc332915	-0.010935088
170	0x3d215d37	0.039395537
171	0xbd6cf4be	-0.05785059
172	0xbd99f8ba	-0.07518144
173	0x3b498c40	0.0030753762
174	0x3e1db00a	0.15399185
175	0x3d43ac6b	0.047771852
176	0x3c89933a	0.016793836
177	0x3da0d7d2	0.078536645
178	0xbca7c2eb	-0.020478686
179	0xbcb65375	-0.022256592
180	0x3e99972c	0.29998147
181	0xbe294638	-0.16530693
182	0x3d75827d	0.059938896
183	0x3eb895b6	0.3605172
184	0xbe2232c0	-0.15839672
185	0x3ddd37b7	0.108016424
186	0xbf99e9a9	-1.2024432
187	0x3dab1eb0	0.083554626
188	0x3d62e6e6	0.055395983
189	0x3d30d4d3	0.043171715
190	0xbe6b71ec	-0.22992676
191	0x3e449d83	0.19200711
192	0xbd9be863	-0.076126836
193	0x3e1807ad	0.14846678
194	0x3c8474d7	0.016168995
195	0x3e0dae95	0.13836129
196	0x3a487ca8	0.000764797
197	0x3dff2504	0.12458232
198	0xbcb645a2	-0.02225
199	0x3b951866	0.0045500277
200	0x3d9713ea	0.07376845
201	0x3e6c8d0c	0.2310068
202	0xbcafd1c1	-0.021462323
203	0xbd8cbf2c	-0.06872401
204	0xbb97dbc1	-0.004634351
205	0xbe0e6aad	-0.13907881
206	0x3e0791cb	0.1323921
207	0x3f01f4c9	0.5076414
208	0xbe2612a1	-0.16218044
209	0xbe8b9449	-0.2726157
210	0x3db9fec8	0.09081799
211	0xbd9e3c75	-0.07726375
212	0xbaf66963	-0.0018799718
213	0xbea7b58f	-0.32755706
214	0x3d9a010d	0.07519732
215	0x3e8d7891	0.27631047
216	0x3c5684e7	0.01309321
217	0xbd8152f2	-0.06314649
218	0xbd649a2e	-0.0558111
219	0x3c3e7d2c	0.011626523
220	0xbe44ae1f	-0.19207047
221	0x3e95adfb	0.292343
222	0xbab04f28	-0.0013451325
223	0xbdb89355	-0.09012476
224	0x3bb162fe	0.005413412
225	0xbe51ce8b	-0.20488946
226	0xbecbf809	-0.39837673
227	0x3f081d12	0.5316936
228	0xbdd7aa1a	-0.10530491
229	0xbf1cade6	-0.6120285
230	0xbcbaea05	-0.022816667
231	0xbdb43a86	-0.08800225
232	0xbda80368	-0.08203775
233	0xbef1dbe7	-0.47238085
234	0x3deaa496	0.114571735
235	0x3eb20461	0.34768966
236	0x3a85583b	0.001017339
237	0xbd807b2d	-0.06273494
238	0xbd92a1f7	-0.071597986
239	0x3b46799f	0.0030284894
240	0xbeb713a1	-0.35757163
241	0xbf7c363f	-0.9852027
242	0xbe6cd24e	-0.231271
243	0xbe012f9d	-0.1261582
244	0xbca9d174	-0.020729758
245	0x3ddc4184	0.107546836
246	0x3de21f34	0.11041108
247	0x3c7cb555	0.015424092
248	0x3e85e83b	0.2615374
249	0xbe8685b1	-0.26273873
250	0x3d29766d	0.041372705
251	0xbcdfc10f	-0.027313737
252	0x3e09b6ef	0.1344869
253	0xbe60f5e0	-0.21968794
254	0xbee353d5	-0.44399896
255	0x3ecdc8b8	0.401922

v.net.0.bias f4 [64]
0	0x3db6eae9	0.08931524
1	0x3f4b1c14	0.7933972
2	0x40006bbd	2.0065758
3	0xbdbdd643	-0.09269383
4	0x3ef47c5e	0.47751135
5	0xbf6fd0ad	-0.9367779
6	0x3df37350	0.118872285
7	0xbd4d362d	-0.050100494
8	0xbefc4f7a	-0.49279386
9	0x3ebaa460	0.36453533
10	0x3ed93c5d	0.42428866
11	0x3e274860	0.16336203
12	0x3ddd9b59	0.10820646
13	0xbdcf631f	-0.10126328
14	0xbf3ad3fc	-0.7297971
15	0x3f388b76	0.720878
16	0xbf1e2e7f	-0.617897
17	0xbe80d0d3	-0.2515932
18	0x3f22d3ca	0.63604414
19	0x3dfec1a4	0.12439278
20	0xbf914e19	-1.1351959
21	0xbf032308	-0.5122533
22	0x3fc4ecab	1.5384725
23	0x3f096d0d	0.53682023
24	0xbe8e8356	-0.27834576
25	0x3efcea42	0.49397475
26	0x3ec4a185	0.3840448
27	0x3d186641	0.037206892
28	0xbd27f696	-0.041006647
29	0xbf270e54	-0.6525624
30	0x3e9501ee	0.29103035
31	0x3fc2a319	1.5206023
32	0x3cc65bd0	0.024213701
33	0xbd2ddb6a	-0.042445578
34	0x3eee4b9f	0.4654207
35	0xbfd6cc41	-1.6781083
36	0x3eb2adbe	0.3489818
37	0xbfbef4c7	-1.491845
38	0xbea89ee5	-0.32933727
39	0x3f866459	1.0499374
40	0x3d9cb85e	0.07652353
41	0x3e73b710	0.23800302
42	0x3da2a12e	0.07940899
43	0xbf00227f	-0.50052637
44	0xbe944a0b	-0.2896274
45	0xbf0ebcef	-0.5575704
46	0x3c8bfe9f	0.017089186
47	0xbcb2e4a5	-0.021837542
48	0xbdb86d33	-0.09005203
49	0xbf90847f	-1.1290435
50	0xbe808fe2	-0.25109774
51	0x3e3522a5	0.17688997
52	0x3d5d763a	0.054067828
53	0x3d17f9ce	0.037103467
54	0xbebd2648	-0.3694327
55	0x3e0ee172	0.13953188
56	0xbed2b4ff	-0.41153714
57	0x3e8fe5f9	0.28105143
58	0xbe77b4a8	-0.24190009
59	0xbfc682c9	-1.5508662
60	0x3f07e1d5	0.5307897
61	0x3f5d186e	0.863654
62	0xbdc5365f	-0.09629511
63	0xbf41d3cc	-0.757138

v.net.2.weight f4 [64, 64]
0	0x3ed95e50	0.42454767
1	0x3e317bb8	0.17332351
2	0xbdcfe688	-0.10151392
3	0xbe08397d	-0.1330318
4	0x3d1f9979	0.038964722
5	0x3e3d9908	0.18515408
6	0x3e820e70	0.2540164
7	0x3d0e7104	0.03477575
8	0xbe89487d	-0.26813117
9	0x3d781803	0.060569774
10	0x3de47125	0.11154393
11	0x3d663949	0.056206975
12	0x3e4f3b7c	0.20237535
13	0x3c975497	0.018472953
14	0xbe01dd05	-0.12681969
15	0x3cce760b	0.025202772
16	0xbd5e5de4	-0.05428876
17	0x3e77fd12	0.24217632
18	0x3dc8b1d4	0.09799543
19	0x3e253437	0.161332
20	0x3ea62264	0.32448113
21	0xbdfc6c73	-0.123253725
22	0xbe2bb8d1	-0.1676972
23	0x3e36ffcc	0.17871016
24	0x3d138aec	0.036021158
25	0x3d850558	0.0649516
26	0x3e5bf4d3	0.21480112
27	0xbd572672	-0.0525269
28	0x3d7048d5	0.058663208
29	0xbe42636c	-0.18983239
30	0x3d685e3f	0.056730505
31	0x3dc773d3	0.097388886
32	0x3de7baba	0.11314912
33	0x3d17bf79	0.037047837
34	0x3e8260e8	0.2546456
35	0x3de04e7c	0.1095247
36	0xbdc53706	-0.096296355
37	0x3c056e90	0.008144036
38	0x3f042dae	0.516322
39	0xbe267b93	-0.16258077
40	0x3e9769d3	0.29572925
41	0x3e3ab028	0.18231261
42	0xbe46fce6	-0.1943241
43	0xbd5dacea	-0.05411998
44	0x3ec9242b	0.39285406
45	0xbcd71265	-0.026253888
46	0x3e7cc015	0.24682648
47	0x3d8b7606	0.068096206
48	0xbdb48e14	-0.08816162
49	0x3e1a0130	0.15039515
50	0x3e060e06	0.13091287
51	0x3dd512f8	0.104040086
52	0xbca87629	-0.020564156
53	0xbd2cbc0e	-0.04217153
54	0xbe8a1083	-0.26965722
55	0x3e038dcc	0.1284706
56	0xbe3dc003	-0.18530278
57	0xbdb9e663	-0.09077146
58	0x3f06bc02	0.5263063
59	0x3dacf6bd	0.08445499
60	0xbd4802d6	-0.04883083
61	0x3ed5cbaa	0.41756946
62	0x3dc91f86	0.09820466
63	0xbb21f5d1	-0.0024713168
64	0x3d548c4e	0.051891617
65	0xbd9d0393	-0.07666697
66	0x3e1b2d41	0.15153982
67	0xbdcb732e	-0.09934078
68	0xbd7b70c5	-0.061386842
69	0xbcfdfe45	-0.031005034
70	0x3dfa4275	0.12219707
71	0x3b4e3d3c	0.0031469604
72	0xbe7a71f4	-0.24457532
73	0x3c386d64	0.0112565495
74	0xbdcb1051	-0.099152215
75	0x3b0ecea2	0.0021790643
76	0xbd88942a	-0.06668885
77	0x3e48faf3	0.1962698
78	0xbd9024b6	-0.07038252
79	0xbe030eff	-0.1279869
80	0xbd9c2a03	-0.076252006
81	0xbd8f6229	-0.070011444
82	0x3e17eacf	0.14835666
83	0xbd5b1f80	-0.053496838
84	0x3db2850c	0.08716783
85	0x3db101ac	0.08642897
86	0x3d8bacd0	0.06820071
87	0x3e89a8fb	0.26886734
88	0xbe03d8d2	-0.12875679
89	0xbe8df004	-0.2772218
90	0x3e0d2061	0.13781883
91	0xbe86537d	-0.26235572
92	0x3e910762	0.28325945
93	0xbe9d9a78	-0.30781913
94	0xbd853f00	-0.06506157
95	0x3d70b551	0.058766667
96	0x3e6230f9	0.22088994
97	0x3c272ead	0.0102039995
98	0x3ee13755	0.43987527
99	0xbe9a82b6	-0.3017785
100	0xbdd6ddbc	-0.10491511
101	0xbe9a76ce	-0.30168766
102	0x3e547a8a	0.2074987
103	0x3c263ec5	0.010146801
104	0xbd825e03	-0.063655876
105	0xbdbe2851	-0.092850335
106	0xbe3f4ddf	-0.18682049
107	0x3e474eaf	0.19463609
108	0x3de2be5e	0.11071466
109	0x3e596de3	0.21233325
110	0x3e08c5b3	0.13356666
111	0x3e53bf58	0.2067846
112	0xbe690a90	-0.22757936
113	0x3d3350c3	0.043778192
114	0xbdeb0ebd	-0.114774205
115	0x3e417e7c	0.18895906
116	0x3e58109b	0.21100084
117	0xbd9bcb38	-0.0760712
118	0xbe10e69a	-0.14150468
119	0x3d5153eb	0.05110542
120	0x3c9ba3e7	0.018999053
121	0x3de88d5a	0.11355086
122	0x3e04614c	0.12927741
123	0xbddd09f0	-0.10792911
124	0xbc877003	-0.016532904
125	0x3d97eda7	0.074183755
126	0x3d74458c	0.059636638
127	0xbdb8ddc1	-0.09026671
128	0x3d89986a	0.06718524
129	0xbd9126cf	-0.0708748
130	0x3dfc4f78	0.12319845
131	0xbd310791	-0.043220107
132	0xbe474b64	-0.19462353
133	0x3bd73011	0.0065670093
134	0x3c8e42e8	0.017365888
135	0x3d6e1efc	0.058135018
136	0xbdda0ad4	-0.106465966
137	0xbe414d31	-0.18877102
138	0xbe01a884	-0.1266194
139	0x3e18328a	0.14863029
140	0xbc0f912b	-0.008762638
141	0x3d0c8e2e	0.03431528
142	0x3e5472b7	0.20746885
143	0x3d9d0a54	0.076679856
144	0x3e4c3aea	0.19944349
145	0xbb903b01	-0.004401565
146	0x3dc03b48	0.09386307
147	0xbe73b204	-0.23798376
148	0xbd9be70f	-0.0761243
149	0x3d4dbb87	0.050227668
150	0x3de20abf	0.11037206
151	0xbab1abda	-0.0013555244
152	0xbdfb08d4	-0.12257543
153	0xbe48bcff	-0.19603346
154	0x3dadc9b8	0.084857404
155	0x3d942b02	0.072347656
156	0x3e1ab9cc	0.15109938
157	0xbbb5a25d	-0.005543037
158	0x3e08e607	0.13368998
159	0xbc9aedee	-0.018912282
160	0x3e195598	0.14974058
161	0x3caeb0cf	0.021324543
162	0xbdf7d4ba	-0.12101121
163	0xb8aea739	-8.328114e-05
164	0x3e334ce2	0.17509797
165	0xbd83dfcc	-0.0643917
166	0xbd6a6131	-0.057221595
167	0xbd6faad1	-0.058512513
168	0x3d7640c0	0.060120344
169	0xbe2c5cac	-0.16832227
170	0xbe1580a3	-0.14599852
171	0x3d90515e	0.070467696
172	0xbdc2d232	-0.09512748
173	0x3d4942c6	0.049135946
174	0x3e500dc8	0.20317757
175	0x3d096180	0.03354025
176	0xbd148ce6	-0.036267184
177	0x3d4147a7	0.047187474
178	0xbde68dc4	-0.112575084
179	0xbdcc6798	-0.099806964
180	0x3e47a6b7	0.1949719
181	0x3dbf33e0	0.09336066
182	0x3c4b316f	0.012401923
183	0xbe5e6cf4	-0.2172125
184	0x3e8b19f8	0.2716825
185	0x3e2dde21	0.16979267
186	0x3d6a13e2	0.057147868
187	0xbe2b5a5a	-0.16733685
188	0x3c2e5339	0.010639959
189	0x3db50477	0.08838742
190	0xbdc80f43	-0.09768536
191	0xbcfb09c7	-0.03064431
192	0x3e9b099b	0.30280766
193	0x3e03ca1c	0.12870067
194	0xbcf30433	-0.029665088
195	0xbe059755	-0.1304601
196	0xbda4ff29	-0.080564804
197	0x3d6eb72c	0.058280155
198	0x3ecd3a64	0.4008361
199	0x3d4619b5	0.04836436
200	0xbe738c6b	-0.23784034
201	0xbcc9bf6f	-0.024627415
202	0x3d0357fc	0.03206633
203	0xbe07a22d	-0.13245459
204	0x3d7fc2ca	0.062441625
205	0x3d71c30b	0.059023898
206	0xbd967601	-0.07346726
207	0x3d0acb59	0.033885334
208	0x3d2d6ea5	0.042341847
209	0x3ccb75d5	0.02483646
210	0x3e214352	0.15748337
211	0x3e5f2b33	0.21793823
212	0x3e0d608e	0.13806364
213	0x3cef3869	0.029201703
214	0xbd98c7f6	-0.074600145
215	0x3e5ab41a	0.21357766
216	0x3da30aee	0.07961069
217	0x3d7ebd0a	0.062192
218	0x3dd79645	0.105267085
219	0xbe03c8e4	-0.12869602
220	0x3e881f71	0.26586488
221	0xbe789a04	-0.24277502
222	0xbd84fdd0	-0.064937234
223	0xbcdbfe42	-0.026854638
224	0x3e037299	0.12836684
225	0xbd6590fc	-0.05604647
226	0x3e92cfe2	0.28674227
227	0x3d8e6cad	0.06954322
228	0xbd80c034	-0.0628666
229	0xbc994a08	-0.018712059
230	0x3e7cac6f	0.24675153
231	0xbdb089fd	-0.08620069
232	0x3e390cca	0.18071285
233	0x3ce3f505	0.027826795
234	0xbe4e0ae3	-0.2012134
235	0xbac2ff1e	-0.0014877056
236	0x3ea948d9	0.3306339
237	0xbce5aa0b	-0.028035184
238	0x3e62b950	0.22141004
239	0x3e3e5be7	0.18589745
240	0xbe9cb794	-0.3060881
241	0x3c1297fb	0.008947368
242	0x3e05388b	0.1300985
243	0x3d0e938b	0.034808677
244	0x3db2b0e2	0.08725144
245	0x3dde8f75	0.10867206
246	0x3cbc0a85	0.022954235
247	0xbbaba7c3	-0.0052385046
248	0xbda02759	-0.07820005
249	0xbe424759	-0.1897253
250	0x3ea1d929	0.31610993
251	0x3e468ae5	0.19388922
252	0x3d14b9e5	0.036310095
253	0x3e0ba619	0.1363758
254	0x3e16aa82	0.14713481
255	0xbe1a0fde	-0.15045115

v.net.2.bias f4 [64]
0	0x3f26b954	0.6512654
1	0xbf2c9788	-0.6741872
2	0x3ef0958e	0.469891
3	0x3f2550ee	0.64576614
4	0xbf2aebd8	-0.6676612
5	0x3f1b0636	0.6055635
6	0x3f01eeb9	0.50754887
7	0xbeef8013	-0.467774
8	0x3ee4256c	0.445598
9	0xbf409ea8	-0.7524209
10	0x3eda527d	0.4264106
11	0xbf4e9ce2	-0.80708134
12	0xbf065d52	-0.52486145
13	0xbf1fa7bf	-0.62365335
14	0x3f257f87	0.64647716
15	0x3ec23aee	0.37935585
16	0x3f02572c	0.50914264
17	0xbf046d64	-0.51729417
18	0x3de6a990	0.1126281
19	0x3f274a49	0.65347725
20	0x3ed41f91	0.41430333
21	0x3efe33b0	0.4964881
22	0x3cb2fee2	0.021850053
23	0xbf2a992a	-0.6663996
24	0xbf114066	-0.5673889
25	0x3f0bc4bc	0.5459707
26	0x3e9e3993	0.309033
27	0x3e101b25	0.14072855
28	0x3f362cb5	0.7116197
29	0x3ef53598	0.4789245
30	0xbf186706	-0.595322
31	0xbe99ab5a	-0.30013543
32	0xbf30b31f	-0.6902332
33	0xbf0a85e2	-0.5411054
34	0xbf0e0fb6	-0.55492723
35	0x3f0e02d1	0.5547305
36	0xbede6199	-0.43433836
37	0xbeed218b	-0.46314654
38	0x3f0474cc	0.5174072
39	0xbeb79108	-0.35852838
40	0xbf4830fb	-0.7819974
41	0x3f2b25b5	0.6685441
42	0x3e367be1	0.17820694
43	0x3f20bc4f	0.62787336
44	0xbeb7061b	-0.35746846
45	0xbf1a1acb	-0.6019713
46	0xbf39d428	-0.7258935
47	0x3ef58468	0.4795258
48	0xbf276223	-0.6538412
49	0x3f182715	0.59434634
50	0xbf2471f9	-0.6423641
51	0xbed04ba7	-0.40682718
52	0xbf1772d5	-0.59159595
53	0x3ee24858	0.4419582
54	0x3f08599e	0.53261745
55	0xbe09d0ac	-0.13458508
56	0xbe894e19	-0.26817396
57	0xbed4a273	-0.4153019
58	0x3f461a47	0.77383846
59	0xbeda7631	-0.42668298
60	0xbf8ae661	-1.0851556
61	0x3f189261	0.59598356
62	0xbf349231	-0.7053557
63	0xbedfb4a5	-0.43692508

v.net.4.weight f4 [1, 64]
0	0xbdcd29f9	-0.10017771
1	0x3d97c277	0.07410138
2	0xbc332336	-0.010933688
3	0xbdbf131b	-0.09329816
4	0x3d9f5efb	0.07781788
5	0xbdec64af	-0.11542641
6	0xbd9df981	-0.07713605
7	0x3cf3df67	0.029769612
8	0xbdd6449b	-0.10462304
9	0x3df97e6c	0.12182316
10	0xbdc3dc3d	-0.095634915
11	0x3dd447d6	0.10365264
12	0x3e00d8ed	0.1258275
13	0x3dbac26b	0.091191135
14	0xbe1fcaf3	-0.15604763
15	0xbd9b9604	-0.075969726
16	0xbe265cb4	-0.16246301
17	0x3d45b46a	0.04826776
18	0xbe21191b	-0.15732233
19	0xbd56e6e5	-0.052466292
20	0xbdea4bbf	-0.11440229
21	0xbd03e463	-0.03220023
22	0xbdc9b003	-0.09848025
23	0x3db82819	0.08992023
24	0x3dab804b	0.08374079
25	0xbdd6861a	-0.104747966
26	0xbdb02dac	-0.08602461
27	0x3a4e7595	0.00078757975
28	0xbe17682b	-0.1478583
29	0xbddf0347	-0.10889297
30	0x3e2bfb99	0.16795196
31	0x3df556f8	0.119794786
32	0x3dd5c3f6	0.10437767
33	0x3dc606d4	0.09669271
34	0x3d80667d	0.06269548
35	0xbdddbf58	-0.108275115
36	0x3cd7bb2d	0.02633437
37	0x3d9eea94	0.07759586
38	0xbd9b13bc	-0.075721234
39	0x3decf4c1	0.115701206
40	0x3d9e3581	0.07725049
41	0xbdf96df9	-0.12179179
42	0xbe909630	-0.28239584
43	0xbd8126a6	-0.063062
44	0x3dfd9731	0.12382353
45	0x3d6ca186	0.05777123
46	0x3dd54268	0.104130566
47	0xbd02c002	-0.031921394
48	0x3dec5bda	0.11540957
49	0xbd9849a6	-0.07435922
50	0x3d713c52	0.058895417
51	0x3db61ea0	0.0889256
52	0x3c938b55	0.018010775
53	0xbcfd7c17	-0.03094296
54	0xbe12adf1	-0.14324166
55	0x3cc08925	0.023502896
56	0x3ed49f16	0.41527623
57	0x3d3318d3	0.043724846
58	0xbe0783c8	-0.13233864
59	0x3de16804	0.110061675
60	0x3eafd1b3	0.34339675
61	0xbe018146	-0.1264697
62	0x3dd12f3c	0.10214087
63	0x3e12fe86	0.14354905

c.net.0.weight f4 [64, 40]
0	0xbe1cc302	-0.15308765
1	0xbd8cd2d6	-0.06876151
2	0x3dd31bd9	0.10308046
3	0xbccf6880	-0.025318384
4	0x3e0db9e1	0.13840438
5	0x3da4fa97	0.08055609
6	0x3c75ca36	0.015001824
7	0xbd48d44f	-0.0490306
8	0xbd41589f	-0.047203656
9	0x3d30082d	0.042976547
10	0x3dbd49bf	0.092425816
11	0xbd986fe6	-0.07443218
12	0xbdb57896	-0.088608906
13	0xbd4069b6	-0.046975814
14	0xbde4b07b	-0.111664735
15	0xbdcddd64	-0.100519925
16	0x3dbe57da	0.092941
17	0x3d954eb7	0.07290404
18	0xba96303d	-0.0011458468
19	0x3e0b59b9	0.13608445
20	0xbd23e8a3	-0.04001678
21	0x3d5e31e2	0.05424679
22	0xbc9117b8	-0.017711505
23	0x3d8da54e	0.06916295
24	0x3ca6e176	0.02037118
25	0xbe0b46a4	-0.13601166
26	0xbde3491c	-0.11097929
27	0xbd965317	-0.07340067
28	0x3df4ee97	0.1195957
29	0xbdb5d4f4	-0.08878508
30	0x3d66a75a	0.056311943
31	0xbd7d7d00	-0.061886787
32	0x3e171ca4	0.1475702
33	0x3ddf8164	0.10913351
34	0xbe1acbd5	-0.15116818
35	0x3bf2ddb3	0.0074116825
36	0xbd99e59d	-0.075144984
37	0x3bcb1989	0.0061981124
38	0xbdc27bb8	-0.09496254
39	0x3d84a858	0.064774215
40	0x3df10305	0.11768154
41	0x3daeae50	0.08529341
42	0xbdf3525b	-0.118809424
43	0x3de20c3d	0.110374905
44	0x3dd673d6	0.10471313
45	0xbdadb7d5	-0.08482329
46	0xbd81f03f	-0.063446514
47	0x3d9dbd6a	0.077021435
48	0x3d4d8618	0.05017671
49	0xbd86b015	-0.06576554
50	0xbe064f6c	-0.13116235
51	0xbdd48b56	-0.10378139
52	0xbd9134af	-0.07090127
53	0x35d1f9a9	1.5644374e-06
54	0x3e17b213	0.14814024
55	0x3cf01ff3	0.02931211
56	0xbe163356	-0.1466802
57	0x3cb4581b	0.022014668
58	0x3d7bee0a	0.06150631
59	0x3cc77667	0.02434845
60	0x3d9d83c1	0.07691146
61	0x3e20e8fb	0.15713875
62	0xbd5be113	-0.053681444
63	0x3c9a529c	0.01883822
64	0xbde56206	-0.11200337
65	0xbe0a41ba	-0.13501635
66	0xbd736979	-0.05942676
67	0xbccafcd7	-0.024778767
68	0xbe104b6f	-0.14091276
69	0x3b5db166	0.0033827662
70	0x3ccc83f9	0.024965273
71	0x3da52a69	0.0806473
72	0xbd415479	-0.0471997
73	0x3d8d26c3	0.06892159
74	0x3d313928	0.0432674
75	0xbda558b7	-0.08073562
76	0x3e0a08a7	0.13479863
77	0xbc839712	-0.016063247
78	0xbe0962b7	-0.13416563
79	0xbd74c23d	-0.059755553
80	0xbd7287dd	-0.0592116
81	0x3e092c7b	0.13395874
82	0x3dcd2d6c	0.10018429
83	0x3d41adc9	0.047284875
84	0xbce91f92	-0.028457437
85	0xbdc9bfb9	-0.09851021
86	0x3c84335e	0.016137775
87	0x3d907a19	0.07054538
88	0xbcecd006	-0.028907787
89	0xbde7a82e	-0.113113746
90	0xbdb4b960	-0.0882442
91	0xbe1955e8	-0.14974177
92	0xbe142d3c	-0.1447038
93	0xbd27f1b2	-0.041001983
94	0x3dadd856	0.084885284
95	0x3da43e0c	0.08019647
96	0xbcf6d808	-0.030132309
97	0xbd1453dc	-0.036212787
98	0x3d287b7e	0.041133396
99	0xbd01f41c	-0.03172694
100	0xbc4633da	-0.012097323
101	0x3e0c8201	0.13721468
102	0xbdc7d80f	-0.09758007
103	0x3dcf50d7	0.10122841
104	0x3d1b01c8	0.037843496
105	0x3e20f4a4	0.15718323
106	0xbdaf2de9	-0.085536785
107	0xbda7a74d	-0.08186207
108	0xbb05abf4	-0.0020396682
109	0xbc62b47e	-0.013836978
110	0xbe0c3940	-0.13693714
111	0xbd896eb3	-0.06710567
112	0x3e1e2bf4	0.15446454
113	0x3db302ca	0.08740766
114	0xbb78010c	-0.003784242
115	0xbda7fda7	-0.08202677
116	0x3e1a2810	0.15054345
117	0xbdc3be61	-0.09557796
118	0xbdacebce	-0.08443414
119	0xbdf10d70	-0.11770141
120	0xbde3d866	-0.11125259
121	0xbc068ad1	-0.008211807
122	0xbda0f621	-0.07859445
123	0x3df1ab3f	0.11800241
124	0x3dd27586	0.10276322
125	0xbe1e268c	-0.15444392
126	0x3bf58fb5	0.007493938
127	0xbd8aca85	-0.06776909
128	0xbd0b9bc9	-0.034084115
129	0x3e14b26e	0.1452119
130	0xbd216851	-0.039406125
131	0x3d8cebb8	0.06880897
132	0x3d82e673	0.06391611
133	0x3cf45e64	0.029830165
134	0x3d8725e0	0.06599021
135	0x3d8f44c2	0.069955364
136	0x3dd4d5bd	0.1039233
137	0x3e19761e	0.14986464
138	0x3e03516c	0.12824029
139	0xbdce71ee	-0.10080324
140	0xbd1a29ae	-0.037637405
141	0xbdb9ccea	-0.090722874
142	0xbd09a1e1	-0.033601645
143	0xbda98337	-0.0827698
144	0x3e045554	0.12923175
145	0xbe10f647	-0.14156447
146	0xbd3da73d	-0.04630207
147	0xbdbc7362	-0.09201695
148	0x3e0e5c3b	0.1390237
149	0xbd447b26	-0.047969006
150	0xbb62fcc0	-0.0034635514
151	0xbd244569	-0.040105257
152	0xba1eb4f1	-0.0006054184
153	0x3de8a60f	0.11359798
154	0xbb9b49c8	-0.00473902
155	0x3d3700f7	0.044678655
156	0x3c5fe355	0.01366504
157	0x3e15a987	0.14615451
158	0x3ddc8417	0.10767382
159	0x3e0c3228	0.13691008
160	0xbdb28940	-0.087175846
161	0x3d66d12c	0.056351826
162	0xbd098024	-0.03356947
163	0xbd6b0885	-0.05738117
164	0x3dc2151a	0.09476681
165	0xbd9f6f64	-0.07784918
166	0x3d926da4	0.071498185
167	0x3daa00cc	0.08300933
168	0xbc82aad9	-0.015950607
169	0xbd8270da	-0.06369181
170	0xbdca1985	-0.09868149
171	0x3e1e6c95	0.15471108
172	0xbd8ac8af	-0.067765586
173	0x3e02fcf7	0.12791811
174	0xbd829894	-0.06376758
175	0x3e0b997c	0.13632768
176	0xbdf443ae	-0.119269714
177	0x3d797a12	0.06090743
178	0xbde63845	-0.11241201
179	0xbde8b3fc	-0.11362454
180	0xbd20e320	-0.039279103
181	0x3d23cfdf	0.039993163
182	0x3c302142	0.010750117
183	0x3dc49bb6	0.09600012
184	0xbdbede75	-0.09319774
185	0xbdff97ec	-0.12480149
186	0x3dc54cd4	0.096337944
187	0x3d4ee442	0.050510652
188	0x3d3640fa	0.04449556
189	0xbded490b	-0.115861975
190	0xbe01f1a4	-0.12689835
191	0x3d6c86bd	0.057745684
192	0x3e029f0d	0.12755986
193	0x3d3d2d14	0.046185568
194	0x3d0162a0	0.031588197
195	0xbe14f979	-0.14548291
196	0xbdd05d45	-0.1017404
197	0x3c94a56d	0.018145287
198	0x3d1e9973	0.03872056
199	0xbd8b56c0	-0.068036556
200	0xbd92972f	-0.07157742
201	0xbdec5253	-0.115391396
202	0xbdb8a58a	-0.09015949
203	0xbc0de9bf	-0.008661686
204	0x3e01514d	0.1262867
205	0x3e010fa6	0.12603626
206	0xbdecf90e	-0.11570941
207	0x3bd698d4	0.0065489803
208	0xbe206bd9	-0.1566614
209	0xb90eea4a	-0.00013629455
210	0xbe1c1e5a	-0.15245953
211	0x3dc666dd	0.09687588
212	0xbd512917	-0.051064577
213	0x3cf33759	0.029689478
214	0xbdcc2c93	-0.09969439
215	0xbdfe9cf7	-0.124322824
216	0xbdde08f1	-0.10841549
217	0x3cf7ca6b	0.030247888
218	0xbe0540eb	-0.13013045
219	0xbced85b3	-0.028994417
220	0xbe08138d	-0.13288708
221	0xbe0ab798	-0.13546598
222	0xbd855142	-0.06509639
223	0x3e1d20c9	0.15344538
224	0x3dede7f7	0.116165094
225	0xbde921b5	-0.11383382
226	0xbdb63329	-0.08896477
227	0xbc8e0617	-0.017336888
228	0x3df4f142	0.11960079
229	0xbcd23fdd	-0.025665218
230	0x3d8c3e33	0.06847801
231	0x3dbb5c2c	0.0914844
232	0x3d9804a6	0.074227616
233	0x3df613a5	0.12015466
234	0xbdfac726	-0.12245016
235	0xbcd4e099	-0.025986003
236	0x3ba20799	0.0049447534
237	0x3b9b332c	0.004736325
238	0xbd877b63	-0.06615331
239	0xbd65f264	-0.056139365
240	0x3d089ad6	0.033350788
241	0x3d8f3962	0.06993367
242	0xbd9c1519	-0.076212116
243	0x3e14fb90	0.14549088
244	0x3daf7a5e	0.085682616
245	0xbe0172ae	-0.12641403
246	0xbdc3f7f7	-0.0956878
247	0x3bbf51fd	0.005838631
248	0xbdc291f4	-0.095004946
249	0x3d465573	0.048421334
250	0x3e0f0ecb	0.13970487
251	0xbdab64ca	-0.08368833
252	0x3df698ef	0.120408885
253	0x3db3b84b	0.087753855
254	0x3e1455b4	0.14485818
255	0xbdf258e5	-0.118333615
