experiments/07_control_structure_hypothesis/checkpoints/AttitudeRate/ppo/2021-12-14__19-26-24/seed_00069/torch_save/model.pt (torch, 82448 bytes, 19 tensors)

obs_oms.mean f4 [40]
000000 08 10 81 3e 63 6c c2 bb 5a d3 80 3f 5e 2f 9d 3a
       0.25207543 -0.005933331 1.0064499 0.0011992266
000010 56 dd 3e ba 10 73 9f bd 8f a9 7d 3f 11 ae e7 37
       -0.00072809064 -0.07785618 0.9908685 2.7618402e-05
000020 d8 2b 87 ba ce e1 c5 bb ed 28 43 3c 63 c3 3c bc
       -0.0010312749 -0.006038881 0.011911613 -0.011521193
000030 a8 13 f0 bc 98 be 19 bb 0b f5 c0 3b 67 61 d3 bb
       -0.029306248 -0.002345955 0.0058885864 -0.0064508202
000040 e1 92 cb 3e 06 42 82 3c 0e fa 1b bb cf 6c 54 bd
       0.39760497 0.015900623 -0.0023800167 -0.05186158
000050 0d 10 81 3e 24 c9 c2 bb 3f d1 80 3f 43 29 a2 3a
       0.25207558 -0.005944388 1.0063857 0.0012371916
000060 eb f1 3f ba 2c e2 9f bd 06 ab 7d 3f 31 72 21 37
       -0.00073221204 -0.07806811 0.99089086 9.622935e-06
000070 aa d6 93 ba 2d aa d7 bb c4 db 47 3c 53 fd 3c bc
       -0.0011279185 -0.006581566 0.012198392 -0.011535007
000080 91 f5 ed bc fd cd 19 bb 1d 81 c1 3b 04 41 d1 bb
       -0.02904776 -0.0023468726 0.005905284 -0.0063859243
000090 a1 ab cc 3e ce 7f 82 3c b9 3b 06 bb be 77 4c bd
       0.39974692 0.015930083 -0.0020482375 -0.049918883

obs_oms.std f4 [40]
000000 21 49 32 3e 2f 3a 32 3e e6 95 fc 3c f7 12 60 3d
       0.17410709 0.17405008 0.030833196 0.054705586
000010 2c 4d 62 3d 7b e8 ad 3d ec ac d5 3b 2a df be 3e
       0.055249378 0.08491608 0.006520858 0.37279636
000020 15 2a bd 3e 06 96 19 3e 9a cb 18 3f 9d 9d 1b 3f
       0.3694617 0.14998636 0.5968567 0.60787374
000030 d1 ae b1 3e 7a b9 59 3d 09 0e 64 3d 20 96 fc 3c
       0.34703687 0.0531554 0.055677447 0.030833304
000040 91 7d 2e 3f fd 95 21 3f 96 79 24 3f 67 79 f5 3e
       0.6816035 0.6311949 0.64248025 0.47944185
000050 8e 82 32 3e bb 72 32 3e e9 03 00 3d f1 fe 5e 3d
       0.17432615 0.17426579 0.03125373 0.05444235
000060 96 4e 61 3d 51 cb ad 3d 05 67 d5 3b 3f f0 bf 3e
       0.055006586 0.08486045 0.006512525 0.3748798
000070 39 2c be 3e 0f 5b 1c 3e 85 df 18 3f d9 b1 1b 3f
       0.37143114 0.15269111 0.59716064 0.6081825
000080 7a d0 b1 3e 57 66 5d 3d 97 b7 67 3d e4 03 00 3d
       0.34729367 0.054052677 0.05657157 0.03125371
000090 75 d1 2d 3f e4 be 20 3f a4 71 23 3f 47 4c f5 3e
       0.6789773 0.62791276 0.63845277 0.47909757

pi.log_std f4 [4]
000000 43 52 90 c0 43 52 90 c0 43 52 90 c0 43 52 90 c0
       -4.5100417 -4.5100417 -4.5100417 -4.5100417

pi.net.0.weight f4 [50, 40]
000000 ed e9 f0 bd 32 dd 84 be d1 a5 40 3e 72 3a 52 3c
       -0.11763368 -0.2595001 0.18813254 0.012831317
000010 fd fd b3 bc 8f f7 1f 3e c0 77 60 3d 36 fb 01 be
       -0.021971697 0.1562178 0.054801702 -0.12693486
000020 c0 1f d0 bd 01 a4 4a 3d c5 f9 a8 bd 5a d5 50 bd
       -0.10162306 0.049472813 -0.08250765 -0.050984718
000030 ec a0 7e 3e 1a 78 bf 3d ea 87 14 be c3 ad 5d be
       0.24866074 0.093490794 -0.14504972 -0.21648316
000040 43 06 ed bc fc f3 ee 3d 0e a6 50 3d 1c b2 8c be
       -0.02893365 0.1166763 0.050939612 -0.27479637
000050 1f 7b 6f be b3 2b 80 be f6 4f 60 3e 76 e5 00 3e
       -0.2338681 -0.2503334 0.21905503 0.12587532
000060 c0 b7 0f bd 6b 3c 2b 3e 7e 55 ff 3d 20 90 2f be
       -0.035087347 0.16722266 0.12467478 -0.17144823
000070 66 0f e3 bd a0 9a 88 be e4 58 a9 3c d2 ca 22 bd
       -0.110869214 -0.2668047 0.02067227 -0.039744206
000080 8c b4 aa bd d5 04 cb bd 17 c2 0a be 4e 30 74 be
       -0.08335218 -0.09913031 -0.13550602 -0.23846552
000090 a1 a4 05 3d b9 d7 22 be 11 45 84 3d 51 a4 1e be
       0.032627705 -0.15902604 0.06458486 -0.15492369
0000a0 98 4b dc be e9 4f 84 3e fb 83 ef bc ba a3 1c 3c
       -0.43026423 0.25842217 -0.029237738 0.00956052
0000b0 22 16 84 be aa e2 06 3e 56 7b 8c bd 8d 9a 9d be
       -0.25798136 0.13172403 -0.06859462 -0.30781975
0000c0 6f 11 2c be 3f 69 e0 bd a5 2a 5d be 2c 1b a4 bc
       -0.16803525 -0.10957574 -0.21598299 -0.020032488
0000d0 e1 7b 1f 3e 11 2c f9 bd b3 0b 6e 3e a7 c2 5a bd
       0.155746 -0.12166608 0.2324665 -0.05340829
0000e0 fb e5 e2 bd ec da 6e 3e 82 42 95 be d7 fa 88 3c
       -0.110790215 0.233257 -0.29152304 0.016721172
0000f0 90 92 e4 be dc e5 1e 3c 20 53 2a 3e 71 8f 44 3e
       -0.44643068 0.009698357 0.16633272 0.19195344
000100 f9 7d 9b be 78 41 c4 3d 1d 4e e0 bc c4 28 d9 bd
       -0.30369547 0.095828 -0.027380997 -0.106034786
000110 96 96 85 be 7a 14 82 bd ce b8 08 be 49 7e f8 bc
       -0.2609145 -0.06351562 -0.13351747 -0.030333655
000120 c9 3a eb bc d4 02 d8 bc 44 4c 75 3e 4e d5 7d 3d
       -0.028714554 -0.026368536 0.23954874 0.061971
000130 ae a3 16 3e 84 02 5f 3c f4 1c 5d 3e 01 9f 16 be
       0.14710876 0.01361144 0.21593076 -0.14709093
000140 e6 8f 37 be af 1c a7 3d fd d5 e1 3d 49 23 7f 3e
       -0.17925987 0.08159768 0.11027143 0.24915804
000150 39 85 94 be f0 89 f1 bd 87 6a 23 bd b3 1a 66 be
       -0.2900789 -0.117938876 -0.039896514 -0.22471122
000160 76 92 8f be ca 5c b2 3d f1 8e 22 be bd 4f 85 3d
       -0.28041428 0.08709104 -0.1587484 0.065093495
000170 5b 01 20 3d 92 84 89 3d dd 63 32 3e 27 b4 37 bd
       0.039063793 0.06714739 0.17420907 -0.04484954
000180 40 23 cf 3d 11 77 39 3d 7b d1 be 3d a5 73 9b bd
       0.10114145 0.045279566 0.09317299 -0.07590417
000190 7b 59 92 be 21 ac 15 3d 0a 05 77 3e a2 d6 0d 3e
       -0.28583893 0.036541108 0.24123016 0.13851407
0001a0 2f b6 46 be bd 32 c5 3d ed 6b 56 3e 8e 29 cf be
       -0.19405435 0.09628818 0.20939608 -0.4046139
0001b0 2c b5 43 be 4b f4 80 3e aa c2 f9 3d 20 73 75 bd
       -0.1911208 0.2518638 0.12195332 -0.059924245
0001c0 19 f7 27 3c e8 bd b8 3d 77 7f 65 3e dc e4 61 3d
       0.010251784 0.09020597 0.22411905 0.055149898
0001d0 19 f6 1f 3e aa cf 87 bd 1e 0b 42 3e 39 20 80 bd
       0.15621223 -0.06631406 0.18949553 -0.06256146
0001e0 ba fd c6 3d 8d 37 69 3c 6e b2 7d 3d 7c 5f cd bd
       0.09716363 0.014234436 0.061937742 -0.10027978
0001f0 b7 79 a6 be 02 86 80 3e 9d c1 0d 3e dc 55 c8 bd
       -0.32514736 0.2510224 0.13843389 -0.097820014
000200 49 29 e6 3c a8 1e 52 bd 07 73 31 be cd a4 a2 3d
       0.028095858 -0.051298767 -0.17329036 0.079415895
000210 58 2e 29 be 0a 5c 72 bd 7e 11 11 bc 6f 42 cc 3b
       -0.16521585 -0.059169807 -0.008854268 0.0062335054
000220 79 a0 8b 3e 52 fd 45 3e 46 50 6f be 35 b5 15 3e
       0.27270868 0.19334915 -0.23370466 0.14619906
000230 2d bf 9d bc 12 ef 26 be 06 d4 a9 bd be 0b fc bd
       -0.019256199 -0.16302136 -0.082923934 -0.12306927
000240 8a ea 4a be d9 4b ab 3e 2b 5b 2c 3e 75 69 04 bd
       -0.19816032 0.33456305 0.16831653 -0.032327134
000250 72 59 05 be e6 74 48 3d b9 13 04 be ed 95 ee 3d
       -0.13022402 0.048939608 -0.12898149 0.1164969
000260 1b fe 39 3e 78 6c 36 be 4b a5 dc 3c b2 dd 20 3d
       0.1816334 -0.17814815 0.026934287 0.039273925
000270 dd ef 21 be 21 80 e3 3c 55 e5 0a 3d 59 fd 46 3c
       -0.15814157 0.027771058 0.033910114 0.012145364
000280 a0 8f 74 bc dd c3 b4 bd 74 63 35 be 35 87 a9 bc
       -0.014926821 -0.088264205 -0.1771372 -0.020694355
000290 ef e7 88 3b 61 87 5c 3d c6 39 b5 bc 23 e8 94 3d
       0.0041780393 0.053840045 -0.022122275 0.07270839
0002a0 97 20 db 3c 5b 41 0d be 5a 93 84 3c 8c d9 e5 3d
       0.026748938 -0.13794462 0.016183544 0.112231344
0002b0 32 83 6f 3c e4 3c c3 bc ac 74 c4 3d e3 50 3a bd
       0.014618682 -0.023832746 0.09592566 -0.045487296
0002c0 33 63 cb bd e7 b1 20 3d 82 4d 24 3d c4 30 b4 bd
       -0.0993103 0.03923216 0.04011298 -0.08798364
0002d0 06 3d f5 3d 89 da 4c 3e 3b 19 08 be 91 0d 31 bd
       0.1197453 0.2000524 -0.13290875 -0.04322583
0002e0 de 7e 6e bd e7 71 b9 3d 18 e2 c5 3c 41 63 8a bc
       -0.05822646 0.09054928 0.024155661 -0.016893031
0002f0 83 8c 88 3d 4c c0 a2 be a5 2b f6 bd f9 9d 6a 3d
       0.066674255 -0.31787336 -0.12020043 0.05727956
000300 14 c1 41 be dd 22 5a bd 84 b5 41 3e e9 27 82 ba
       -0.1892131 -0.053255904 0.18916899 -0.0009930107
000310 61 af 71 3e 27 c7 97 bd 64 4d 09 3d 73 50 c4 be
       0.23602058 -0.07411032 0.03352107 -0.38342628
000320 d0 82 d7 3d 3e 33 64 bd 85 22 41 3d 18 13 8a bd
       0.105229974 -0.05571293 0.04715206 -0.06741923
000330 57 01 2a bd f6 8f 30 be b8 57 7e be 87 e3 1a 3d
       -0.041505184 -0.17242417 -0.2483815 0.037814643
000340 21 c7 96 3c 78 cd 5e be f0 df 42 bb f4 62 04 3e
       0.018405499 -0.21758068 -0.0029735528 0.12928373
000350 63 cd 4f 3e 9b a0 b2 bd ac 7d 7e 3e 28 c3 0c 3c
       0.20293193 -0.08722039 0.24852628 0.008591451
000360 71 32 24 be 67 86 11 3d c1 8c 89 3d ed e5 aa 3e
       -0.16034867 0.035528567 0.067163 0.33378544
000370 81 85 22 3e ce dd 1d bb 26 38 d0 bc 46 12 5d be
       0.1587124 -0.0024088505 -0.025417399 -0.21589002
000380 15 85 b0 bc 52 d3 dc bd e9 3d f8 bd 8c 57 e3 3d
       -0.021547833 -0.10782494 -0.121211834 0.111006826
000390 04 fa 35 bd 01 cc 64 bd 31 2c 5e be b8 54 0d 3d
       -0.044427887 -0.055858616 -0.21696545 0.034504622
0003a0 ef 29 6d bd 08 d4 a9 bc 7e 18 6c 3e 38 8a 2c 3e
       -0.05790132 -0.020730987 0.23056218 0.16849601
0003b0 79 63 00 3e 2b 6d 73 3d a0 e0 80 3b 4d c0 62 3e
       0.12537946 0.059430283 0.0039330274 0.2214367
0003c0 f8 34 c9 bd ff d6 3b 3e f8 0c b9 3d d8 3e 15 be
       -0.09824556 0.18343733 0.09035677 -0.14574754
0003d0 7a 21 53 bd 7e 70 13 3e 32 60 d2 bc f4 4b dc 3c
       -0.051545598 0.14398381 -0.025680635 0.026891686
0003e0 33 9c b4 3d 57 41 32 3b 70 2d 25 bd 0b 5c 98 be
       0.08818855 0.002719959 -0.040326536 -0.29757723
0003f0 b4 91 94 be 25 c3 5f 3e 66 1c 9c 3d 0d df 0f be
       -0.29017413 0.21851785 0.07622604 -0.14049931

pi.net.0.bias f4 [50]
000000 e4 ca a1 3e b8 b8 b2 3d fc 8f ce 3d 3e 85 74 3e
       0.31600106 0.087266386 0.100860566 0.23878953
000010 46 c2 93 3e b6 69 bb 3c 98 78 f6 bc e6 bd d3 3d
       0.28859156 0.022877555 -0.0300868 0.10338955
000020 e2 b9 82 3e aa cb 19 be 4e e8 b8 3e 0c 0e 82 3e
       0.25532442 -0.15019098 0.36114734 0.25401342
000030 da ed 62 bd 9b e7 e4 bc 94 bf 29 3d 0e 0f b6 3c
       -0.055402614 -0.02794247 0.04144247 0.022223976
000040 7a 77 d9 3e 10 7c 7d bd 59 19 3f 3d b2 b5 be 3e
       0.42473966 -0.061885893 0.046655033 0.37247998
000050 ee e7 2b be 76 e3 d8 3e 92 36 5d 3d 50 1a 46 3e
       -0.16787693 0.4236104 0.05400712 0.19345975
000060 db 20 e5 bb 59 b7 be 3e 5e 30 b9 3d 4a 7d ab ba
       -0.006992442 0.37249258 0.090424284 -0.0013083604
000070 2b 0d 39 bd 73 b2 10 bd 8b 05 4d be 3d 7a 86 3e
       -0.045178574 -0.035326432 -0.20021646 0.26265135
000080 fa b0 0a 3e b8 a3 c8 3d 99 7a 04 3e f3 30 fd 3c
       0.13544074 0.09796852 0.12937392 0.03090713
000090 b1 ab 27 3e 31 ef 6d 3d 13 1c 5f 3e 0b 7d 25 3e
       0.16374089 0.05808944 0.21788053 0.16160981
0000a0 53 05 99 bc 80 86 ae 3e 22 ed da 3e 23 4a d0 3d
       -0.018679297 0.3408699 0.42759043 0.101703905
0000b0 91 45 9b 3e b1 85 c9 3e 54 9a f3 bd 68 ac ff bd
       0.30326512 0.3935981 -0.1189467 -0.12484056
0000c0 3d 37 32 3e ce 07 86 be
       0.17403884 -0.2617783

pi.net.2.weight f4 [50, 50]
000000 50 5b 2e 3d 45 c1 21 3c dd 9c 45 bd bc 5f 8f 3e
       0.04256755 0.009872739 -0.0482453 0.28002727
000010 1a 78 ed bc 9b b6 1a be 7e dd 73 bd be a9 49 be
       -0.028987933 -0.15108721 -0.059537403 -0.19693658
000020 39 cf 37 3e 18 ca 8f be 13 26 8a 3e 77 69 a2 3d
       0.17950143 -0.28083873 0.26982173 0.07930272
000030 d8 04 66 be 66 c7 17 3e 50 58 06 3d ea d4 8d be
       -0.22462785 0.14822158 0.032799065 -0.27701503
000040 c2 2c f8 bd 72 54 2a 3d 99 97 a0 bd f3 4f ea bc
       -0.12117912 0.04158444 -0.07841415 -0.028602576
000050 6c 81 52 be 24 05 20 be a5 72 4a 3e 3d 08 80 3d
       -0.20557183 -0.15626961 0.19770296 0.06251571
000060 38 ef 8a bd 4b 7a 17 3e e7 aa 23 3c 36 ba 0f 3e
       -0.067839086 0.14792745 0.009989477 0.14035878
000070 f3 ad 88 be ec e2 fb bd 38 39 2c be c6 97 e1 bd
       -0.26695213 -0.12299141 -0.16818702 -0.110152766
000080 df 35 24 3e 63 a4 53 3e 36 30 16 3e e2 b6 2e be
       0.16036175 0.20668177 0.14666829 -0.17061952
000090 f7 d9 49 be 25 7f a3 3b ca 6b 03 3e 31 fd e1 3d
       -0.19712053 0.004989522 0.12834087 0.110346206
0000a0 af cf e4 3c 83 eb e5 bd 63 33 93 be 1b 26 e5 3d
       0.027931063 -0.11226561 -0.28750142 0.11188909
0000b0 b4 ad b7 3c 46 c0 62 be b0 58 e7 3b 21 1e d4 bd
       0.022421695 -0.22143659 0.007060133 -0.10357309
0000c0 d8 28 90 3e f4 8f 20 3e f1 a3 d5 3d fd f6 c1 bd
       0.2815616 0.15679914 0.1043166 -0.094709374
0000d0 35 a2 85 bc 71 22 a5 3d fc 35 04 3e 47 1a 88 3d
       -0.016312698 0.0806321 0.12911218 0.06645637
0000e0 a1 f5 01 3e e3 94 39 bd a0 ab 87 bd e4 f8 08 3e
       0.12691356 -0.045308005 -0.06624532 0.13376194
0000f0 21 cc a4 bd ec 46 9f 3b ce 55 35 bd fe 81 bb 3d
       -0.08046747 0.0048607495 -0.044271283 0.091556534
000100 38 4b 54 be 26 da be 3d 10 5e c0 3c 58 1e 84 be
       -0.20731819 0.09318952 0.023482352 -0.258044
000110 59 96 76 be 93 be 7e 3d 5b 5f 1e be 91 23 40 3d
       -0.2408079 0.062193464 -0.15466063 0.04690892
000120 0f 5c 01 3d 7c 7e b7 be 06 d6 a7 3d 59 bd 5b be
       0.031581935 -0.35838687 0.081951186 -0.21458949
000130 54 6c 18 3d b2 c4 a1 3e c7 40 93 3d 8a f1 b2 3c
       0.037212685 0.3159538 0.0719009 0.02184369
000140 5d 5c 2e 3e d7 9d d3 3c 94 67 25 3d f3 83 78 3d
       0.17027421 0.0258321 0.040381983 0.06067271
000150 19 5c 82 3c 55 12 97 3b e8 49 83 3c 18 ff 2c 3e
       0.015913056 0.0046103396 0.016026452 0.16894186
000160 97 d4 da bb 19 89 e8 3d 15 22 63 3d a5 16 02 be
       -0.0066781747 0.11354274 0.055452425 -0.1270395
000170 3b 66 75 be 05 8d 93 3d c2 52 9d 3d de 4c d1 bd
       -0.23964779 0.07204632 0.076818004 -0.102197394
000180 d5 0f 8f 3e 13 1b 25 3e 38 81 ec 3d 45 9a 91 bd
       0.27941766 0.16123609 0.11548084 -0.07109503
000190 ad fd f9 bd 79 8f 22 bd 63 98 45 3e 4d 00 77 3c
       -0.12206588 -0.039687607 0.19296412 0.015075755
0001a0 32 52 5b bc 63 de 1e be 7e 4f 89 be 38 f8 9e 3d
       -0.013386296 -0.15514521 -0.2681846 0.07762188
0001b0 eb a7 9c bd 94 2a 14 be b3 a8 0e bf b5 9e 42 3e
       -0.07649215 -0.14469367 -0.55726165 0.19005854
0001c0 f5 5d 8a 3d 2f 87 09 be 75 94 19 be 85 ed 8f bd
       0.06756202 -0.13430475 -0.14998038 -0.07027725
0001d0 da 3f 13 bd 7e 3e 06 3e 25 7d 24 be d7 78 4b 3d
       -0.035949565 0.13109776 -0.16063364 0.04967579
0001e0 27 cb f3 3b 23 ad 33 3e 5d 52 1f 3d fb c4 52 38
       0.007439989 0.17546515 0.038896907 5.0251354e-05
0001f0 3e 2f 8a 3d be 21 01 be 40 75 5a 3e 88 b1 6a be
       0.06747292 -0.12610528 0.2133379 -0.22919285
000200 de 5e 21 3d 60 61 a3 3d 6f 2b fe 3d fd e8 b7 bd
       0.039397113 0.07977557 0.12410628 -0.08979986
000210 14 d4 1b 3d 3c 4d e3 bd 52 e2 c1 bc 87 a5 49 3d
       0.03804405 -0.11098716 -0.023667488 0.049230125
000220 e3 02 10 3e 88 a8 1a be 28 21 13 be 3c 0a 21 3d
       0.14063601 -0.15103352 -0.14368117 0.0393164
000230 2a ff 95 3d 37 58 21 be b7 58 93 3e d6 c4 dc bd
       0.07324059 -0.15756308 0.28778622 -0.10779731
000240 51 5a 64 bd ac 43 32 3e ba 77 68 3d 4a 29 04 3e
       -0.055750195 0.17408627 0.056754805 0.12906376
000250 df 2f 0e 3e 50 62 9b 3e 1f 74 32 3d 96 55 94 3d
       0.13885449 0.30348444 0.043567773 0.07242887
000260 3b 33 6e 3d 52 09 47 3e 20 12 3e 3e 55 35 70 3d
       0.058154326 0.19437149 0.18561602 0.05864461
000270 ec b2 96 bd 24 9f d1 bd 89 27 03 3e ea 5b 1c 3d
       -0.073583454 -0.10235432 0.1280805 0.038173594
000280 4a c2 8b bd 0a 86 1c 3e b3 46 0e be de 81 b7 3d
       -0.06824167 0.15285507 -0.13894157 0.08960317
000290 d6 29 6d bd f5 f7 81 3e 32 08 28 3e 2f 37 af 3c
       -0.057901226 0.2538449 0.16409376 0.021388618
0002a0 33 d4 37 3d 95 16 04 bd 0b 5a 05 be 44 5e 1a bd
       0.044880103 -0.0322481 -0.1302263 -0.037687555
0002b0 52 87 2a 3e fd 96 86 be b5 8d 4b 3a 0c 05 99 3d
       0.16653183 -0.2628707 0.00077649514 0.07471666
0002c0 df de ec 3d 9d 17 95 3d c6 c2 cc bd 38 f3 55 3b
       0.11565947 0.072798945 -0.099980876 0.003264619
0002d0 aa f9 45 bd 92 7e 24 be eb cf dd bd 60 d5 0c be
       -0.0483338 -0.16063908 -0.10830673 -0.13753271
0002e0 99 03 83 3d 44 16 15 bc 4d 92 06 be d0 c4 43 3e
       0.063971706 -0.009099547 -0.13141747 0.19118047
0002f0 78 26 8f bd 6a bb 39 3e e2 eb ee bb 94 2b e1 bd
       -0.06989759 0.18137899 -0.007291303 -0.1099464
000300 e3 dc 4f be 7e e1 dd 3c 60 31 48 3e 76 95 c0 bd
       -0.20299105 0.027085062 0.19550085 -0.094035074
000310 95 b4 32 3d 5c 77 60 3e 99 91 38 3e 61 58 41 3e
       0.043629248 0.21920532 0.18024291 0.1888137
000320 04 ea 18 3e 9d c5 87 bc 5b d3 41 3e 3d 31 10 be
       0.1493302 -0.016573722 0.18928282 -0.14081283
000330 17 42 06 bd 39 30 b6 bc f1 17 97 3d e8 62 09 be
       -0.032777872 -0.022239791 0.07377613 -0.13416636
000340 1a cd 34 bd 9a 15 3b bd e0 02 9f 3d 91 66 6d 3e
       -0.044140913 -0.045674898 0.0776422 0.23183657
000350 51 83 dc 3c 25 41 b7 bd a6 b4 b5 3d 8d d5 11 be
       0.026918085 -0.08947972 0.088723466 -0.1424162
000360 4c 81 61 3e 0b 4c db ba dc 8b 88 be 51 d3 9f 3e
       0.22021979 -0.0016731037 -0.26669204 0.3121591
000370 ed 10 04 3e 88 d6 1b be 09 3a 12 be 86 9a c9 bd
       0.12897082 -0.15218556 -0.14279951 -0.09843926
000380 d2 67 01 3e b9 26 7f 3e 18 82 28 be 7b 90 83 3c
       0.1263726 0.24917115 -0.16455877 0.016060105
000390 fd 15 80 3d 63 9a 16 3e 87 08 ff 3d 0e 2d d6 3c
       0.06254194 0.14707331 0.12452798 0.02614453
0003a0 5e 82 21 3e cb dc e2 3b 4b 9b 76 3d 28 f8 a6 bc
       0.15772387 0.006923293 0.060206693 -0.020382002
0003b0 8e c0 9d be c1 00 10 bd f3 55 b4 bd ca 10 0d 3e
       -0.3081097 -0.03515697 -0.08805456 0.13775936
0003c0 20 63 69 3d b2 19 8d bc 22 0a 28 bf 6d 2b 06 3d
       0.0569793 -0.017224167 -0.6564046 0.032756258
0003d0 25 e2 01 3e f3 e9 2d bd 78 6e 12 bd 20 73 ea bd
       0.12683924 -0.04245944 -0.035749882 -0.114477396
0003e0 e3 ab 05 be 45 37 25 be 39 60 2d 3d f9 79 f6 bd
       -0.13053851 -0.16134365 0.042328093 -0.12034983
0003f0 6c 16 12 be 02 55 50 3e 66 50 69 be fd bc 0e be
       -0.14266366 0.20344928 -0.22784576 -0.13939281

pi.net.2.bias f4 [50]
000000 dc 4f e7 3d 90 41 d4 3d 9d ca 92 be bc ab ea 3d
       0.11294529 0.103640676 -0.28670207 0.11458537
000010 b8 ce a4 3e f7 01 17 3c 66 07 e4 bd 0f 8d 94 3d
       0.32188964 0.009216777 -0.11134224 0.07253467
000020 71 75 19 be 11 b4 83 3e ea 81 27 3e 69 be a5 3d
       -0.14986207 0.25723317 0.16358152 0.080929585
000030 b8 b1 70 be f5 ee 97 3e 52 59 b6 3d 7a 8e 1c 3e
       -0.23505294 0.29674497 0.08903755 0.15288725
000040 44 0f 11 be 52 57 47 be 3f 94 28 be b0 e2 48 3e
       -0.1416598 -0.19466904 -0.16462801 0.19617724
000050 01 f2 07 3e 20 79 61 3d 0c 3f 74 3e 12 5e 66 bd
       0.13275911 0.055047154 0.23852175 -0.056242056
000060 2b 1b f1 3d 53 66 9a bd 4f fa 69 be fd df ac bc
       0.1177276 -0.07539048 -0.22849391 -0.0211029
000070 a8 82 10 3e 37 39 ff 3c 61 41 13 3e d1 b4 d7 bd
       0.14112341 0.031155212 0.14380409 -0.10532535
000080 29 37 2b 3a 84 a8 ea 3c 02 ae 1a 3d cf d4 60 3d
       0.0006531352 0.028644808 0.037763603 0.05489045
000090 65 d7 27 3e 3b a0 b0 bc bf 2f fb 3c 04 45 bd 3d
       0.1639076 -0.021560779 0.030662416 0.09241679
0000a0 66 5a 55 3d 2f 67 88 bd 4c 70 01 be 80 42 6a bd
       0.052088164 -0.06660306 -0.12640494 -0.057192326
0000b0 eb 17 18 3e 35 47 6b bd 8a d4 9b 3d 03 7b db 3d
       0.14852874 -0.057440955 0.07608898 0.10716822
0000c0 23 c9 99 3d ca db 4d 3e
       0.07509067 0.20103374

pi.net.4.weight f4 [4, 50]
000000 66 72 45 be 77 08 f6 3e 59 04 b2 be a5 73 55 3e
       -0.19281921 0.48053333 -0.34768942 0.20844896
000010 d7 27 b2 3d 14 37 d8 3d f7 35 b9 3d cb 4a 68 be
       0.08699005 0.1055738 0.09043496 -0.22684781
000020 79 4d 36 3e 03 e1 4f 3e 48 0e 8c 3e 16 bc 5c be
       0.17802991 0.20300679 0.27354646 -0.21556124
000030 a4 bb 0d 3e c1 69 25 be 18 16 ba be f7 3a 80 3e
       0.1384111 -0.16153623 -0.3634498 0.25044987
000040 cc 82 ed 3e ee f3 85 3e 0a 18 ef be 82 6d 93 be
       0.46388853 0.26162666 -0.46698028 -0.28794485
000050 62 85 9f 3e 40 e2 f6 3d 93 c1 41 3e 6f ca b7 be
       0.3115645 0.120548725 0.18921499 -0.35896632
000060 91 48 ea 3d 52 61 c9 be 78 26 9c be dd fc 25 be
       0.11439622 -0.39332062 -0.304981 -0.16209741
000070 e8 c1 7f 3d c5 9e 29 3e a5 4a 30 be 6b 41 ad be
       0.062440783 0.16564472 -0.17215975 -0.33838972
000080 40 06 68 3e eb 7f 85 3e c5 9e 29 bd ac 25 76 3c
       0.22658634 0.26074156 -0.04141118 0.01502363
000090 db 57 b4 3b 6a e2 e1 3d d8 5e 5b 3e 86 59 9f be
       0.0055036373 0.11029513 0.21422899 -0.31122988
0000a0 3c 6b 98 be 11 dc 11 3f 42 c1 c9 bd 14 30 82 3e
       -0.29769313 0.5697642 -0.09851314 0.25427306
0000b0 78 4e 95 be 95 91 85 be 0a 8e ca 3e c8 77 c7 3d
       -0.2916143 -0.26087633 0.39561492 0.09739643
0000c0 4b e0 15 3e 58 0c 07 be ef c7 d1 3e 7e 5d 13 3e
       0.14636342 -0.13188303 0.4097285 0.14391133
0000d0 e4 94 19 3f 73 a2 a9 3c 23 fc 76 3e f7 82 c6 bd
       0.59992814 0.020707345 0.2411962 -0.09692948
0000e0 88 0f 5d bd d3 02 88 be f1 17 d7 3e d1 dd 08 3f
       -0.05396989 -0.26564655 0.42010453 0.53463465
0000f0 ed e1 a2 3e f0 1b 91 3d f5 99 a3 3e 29 f2 b8 3d
       0.31812993 0.07085407 0.31953397 0.090305634
000100 8b 7b 86 3e b1 84 50 be 23 fd aa be b1 a6 60 be
       0.2626613 -0.20363118 -0.33396253 -0.21938588
000110 63 58 50 3c ef 8c 08 be 8a 79 90 3e ed 6a 58 3e
       0.012716386 -0.13335012 0.28217727 0.21134539
000120 f1 e0 a0 3e 6b d0 f9 bc f8 dd 99 be 84 36 b9 3e
       0.31421617 -0.03049489 -0.3005216 0.36174405
000130 fa 42 9c be d9 bd bf be 25 99 c8 be 9c 65 01 be
       -0.3051985 -0.3744953 -0.3917934 -0.12636417
000140 e6 75 18 3e d5 a1 35 3e 32 5b 1a be 2c 02 6e be
       0.14888725 0.17737515 -0.15073851 -0.23243016
000150 f9 a6 93 bd 82 af 83 3e 7b 42 f8 3e ea 95 14 be
       -0.07209582 0.2571984 0.4848822 -0.14510313
000160 1d d2 1f be a1 c6 2e be 8c 89 00 3d 70 e7 d1 3e
       -0.15607496 -0.17067958 0.031381175 0.40996885
000170 41 48 0a 3f ae 40 cf bd 7c 0e d0 bc 06 00 87 3e
       0.540165 -0.101197585 -0.025397532 0.26367205
000180 72 8e ab be e4 5d b3 be 2d e6 3c be 03 49 62 bd
       -0.33507115 -0.3503257 -0.1844718 -0.05524541
000190 ea 2d 9a 3e b4 dd 16 3e 22 ff ae 3e d3 85 6e 3e
       0.30113155 0.1473301 0.34179026 0.23293237
0001a0 c0 5c 68 3e 36 60 a6 be 50 38 86 be 37 0b 19 3e
       0.22691631 -0.32495278 -0.26214838 0.14945684
0001b0 df d4 1c be 98 ad c8 3d 0f ab 5d be f1 81 15 bd
       -0.15315579 0.097987354 -0.21647285 -0.036500875
0001c0 29 5c e1 3d 33 34 e0 3e b1 e4 c1 3e 65 90 c8 3e
       0.11003906 0.43789825 0.3786979 0.39172664
0001d0 f6 95 67 3e 37 9b 9b bd f8 a6 aa be 9c de ae be
       0.226158 -0.07597964 -0.33330512 -0.34154212
0001e0 e6 e9 59 be 4a 1d e0 bd fa ff d6 3e 8c ca 49 be
       -0.21280631 -0.109430864 0.4199217 -0.19706172
0001f0 98 d7 67 3e a0 de 98 be 57 14 da 3e a6 bd cf 3d
       0.22640836 -0.2985735 0.42593643 0.101435944
000200 9e fb 49 3e ea 7f 74 3e d0 17 36 be 2f 94 91 3e
       0.1972489 0.2387692 -0.17782521 0.28433368
000210 95 95 9e bd 5f ab 29 bf 8e 4f ad bd d8 4a 8f be
       -0.07743374 -0.66277117 -0.084624395 -0.2798679
000220 2b 6f a2 3e ca 96 59 be fd 24 1c be 35 bb b7 b9
       0.3172544 -0.21248928 -0.15248485 -0.0003504396
000230 65 b4 ff bd 39 54 c1 3e b8 a2 b9 39 5a 43 c1 be
       -0.124855794 0.3775957 0.00035407185 -0.37746698
000240 75 07 90 bd f1 65 b7 3e bd 10 d6 3e ee 67 b9 3a
       -0.07032672 0.35819963 0.41809645 0.0014145353
000250 fa 44 fc bb ae 2c 2d be 62 21 b8 3e ab 7a 06 bd
       -0.0076986523 -0.16911575 0.3596297 -0.03283183
000260 03 ca a6 bd 17 0b 31 3d 7a 0a d2 be 6b b2 49 3e
       -0.081439994 0.043223467 -0.41023618 0.19696967
000270 ab 69 73 3e 1d 4e a6 3d 42 ca 7c be 5f e9 15 3e
       0.23770778 0.08120368 -0.2468653 0.14639805
000280 6e 67 0a bc 1d 51 32 3e 26 60 97 3e b1 af 9e 3d
       -0.008447511 0.17413755 0.29565543 0.07748354
000290 66 d5 b0 be 60 8e d0 3d a0 b2 1c 3f fd 49 39 3e
       -0.3453781 0.10183406 0.6121006 0.1809463
0002a0 7e 99 c2 be 21 68 98 bc 2b c2 eb be ee a3 50 be
       -0.3800773 -0.01860434 -0.46046576 -0.20375034
0002b0 51 5c 6e be 0a b4 cd 3e 28 8c 2b 3e 76 bb 82 be
       -0.23277403 0.4017642 0.16752684 -0.25533646
0002c0 25 67 c8 3e c7 68 97 3c d8 34 06 3e bb 44 7b bd
       0.39141193 0.018482579 0.13106096 -0.061344843
0002d0 87 d0 0d be 94 e2 c5 3e db 3a 39 3e 85 4a 0f 3d
       -0.13849078 0.38649428 0.18088858 0.034983177
0002e0 9d 11 5e 3e e7 55 03 3d 5c 9f a5 be b0 7c 29 3e
       0.21686406 0.032064345 -0.32348144 0.16551471
0002f0 80 a1 2e 3e 2a 62 8b bc 22 41 cd 3d d6 0d 30 bd
       0.17053795 -0.017014582 0.10022189 -0.042981945
000300 5f 59 6d bd 54 65 29 be de 9e a6 3d 1c 9e 69 bc
       -0.05794656 -0.1654256 0.0813577 -0.014258888
000310 4a d5 a4 be b0 15 9d be 35 04 64 be ad b6 90 be
       -0.32193977 -0.3068061 -0.2226723 -0.2826437

pi.net.4.bias f4 [4]
000000 c1 e0 8b bd 51 e3 05 bc f9 d8 09 be 4c b0 e0 3b
       -0.06829978 -0.008171872 -0.13461675 0.0068569537

v.net.0.weight f4 [64, 40]
000000 4b 75 67 bb 53 9d 02 be ce eb c6 bc 43 ca 9b 3e
       -0.0035317715 -0.12755327 -0.024282362 0.3042775
000010 9d b4 07 3f 0d 15 1d 3e 94 05 0c bd a8 17 21 3e
       0.5300997 0.15340061 -0.034185007 0.1573168
000020 6c ed 44 3f f1 3f 09 bd 75 82 9a bd 16 9c 88 3d
       0.7692478 -0.033508245 -0.07544414 0.06670396
000030 ef 41 0c 3e 1c 93 04 be 43 05 2f bd e1 3d 14 be
       0.13697027 -0.12946743 -0.042729627 -0.1447673
000040 9d fe 52 bd 14 9b 76 bd 87 76 ed 3d a6 86 22 3c
       -0.05151235 -0.060206488 0.11594873 0.009919798
000050 b4 43 05 be 11 85 0e be fd 93 b0 bd b9 40 8a 3d
       -0.13014108 -0.13917948 -0.086219765 0.06750626
000060 cd 4b f8 3e 72 7f a2 bd 6b 95 4c bd c8 61 33 3e
       0.4849533 -0.079344645 -0.049947184 0.1751777
000070 be 5f 42 3f aa ac 3b bd a8 1c 97 3b b1 a1 3e 3d
       0.7592734 -0.045818962 0.0046115704 0.04654092
000080 89 10 02 3e d1 a0 71 be 52 8b ed 3d 71 f2 76 bd
       0.1270162 -0.23596503 0.11598839 -0.060289804
000090 94 65 15 bd 4a bd 5a bd 20 ac 50 3e c2 e1 41 3d
       -0.036473826 -0.053403176 0.2037816 0.04733444
0000a0 c4 00 7a be 37 f9 9e bc e8 0e 8c bd 52 53 8b 3e
       -0.24414355 -0.019405944 -0.06838781 0.27212006
0000b0 f2 5b 55 be 48 bf 84 bb 42 0d 6e 3c 7b 63 e9 3d
       -0.20835856 -0.004051123 0.014529528 0.113959275
0000c0 c8 9b 8c 3e 43 c9 20 be f8 b7 75 3d 59 46 38 3d
       0.27462602 -0.15701775 0.0599899 0.044988964
0000d0 3b 8f 03 3d 01 84 e0 3a 6a 65 32 3d 11 28 f1 bc
       0.032119017 0.0017129184 0.043553747 -0.02943805
0000e0 68 b4 87 3a 28 ab 29 bc f4 45 94 bc aa 9b 8e bb
       0.0010353448 -0.010355748 -0.018099762 -0.0043520527
0000f0 17 40 4c bd 65 1a cb bd 33 63 e3 bd 19 0c 93 3e
       -0.04986581 -0.09917144 -0.11102905 0.28720167
000100 ee 77 95 3a 17 ba bf bd d0 e6 ad 3d ac ee dd bc
       0.001140354 -0.09361666 0.084912896 -0.027091347
000110 22 b7 cd 3e 59 ef c5 3c 1c b0 a4 bd e4 8b 00 bd
       0.40178782 0.024161981 -0.08041403 -0.03138341
000120 2a 9f dc 3b 7d 12 22 be a0 b5 85 3d 33 6d 1b be
       0.006732841 -0.15827365 0.06528783 -0.15178375
000130 5a 85 f0 ba 7e d8 b8 bb 24 16 3e bd c0 fd 10 3c
       -0.0018350289 -0.0056410423 -0.046407834 0.008849561
000140 8b 3a 02 be e2 1d c1 3e 00 3f 01 3e 6b 01 a9 3d
       -0.12717645 0.3771811 0.12621689 0.082522236
000150 83 d5 86 be 60 5e 0d 3e a2 c6 ae 3d 9d 83 05 3e
       -0.26334772 0.13805532 0.0853398 0.13038488
000160 a1 81 5f bd 62 88 bd bd 87 06 8a 3c de cf eb bc
       -0.054566983 -0.092545286 0.016848816 -0.028785642
000170 86 6d 1d bd d4 61 df 3d 9a a2 bd 3e 67 45 a8 3d
       -0.038434528 0.10907331 0.37038118 0.082163624
000180 fc c1 4b bd 1b 08 10 bd 74 db 39 3d 45 8d 35 3c
       -0.049745545 -0.03516398 0.045375302 0.011081045
000190 b2 09 ee 3d 48 ad 9d 3e fc 7d 68 3e f1 47 14 3e
       0.11622943 0.30796266 0.22704309 0.14480568
0001a0 2b 7b b6 be 2e c4 96 3e c2 0b f6 3c ec d4 a6 3e
       -0.35640845 0.29446548 0.030034903 0.32584321
0001b0 cb 3f 3d 3c b2 6d f6 bc e5 02 04 bd 54 98 d2 3d
       0.011550854 -0.030081604 -0.032229323 0.102829605
0001c0 e9 bd 81 bd 7c f2 20 3e 13 d9 c6 3e a1 56 e8 3c
       -0.063350506 0.157175 0.3883749 0.02836162
0001d0 5b d6 96 bb 8f 2d 7a bd b9 4b 50 3d 5f 82 e4 3c
       -0.00460319 -0.061078604 0.050853465 0.027894197
0001e0 68 2d 54 3f 38 f1 29 bd 8b 84 16 3e bd 90 00 be
       0.82881784 -0.04148981 0.14698999 -0.12555213
0001f0 84 3a f0 be 4e 73 ad 3d a8 2e c9 bc 2d 87 0c bf
       -0.46919644 0.08469258 -0.02455838 -0.5489376
000200 48 41 9b 3e a2 1b 93 3e e4 a5 88 3b e9 06 30 3e
       0.30323243 0.2873202 0.0041701663 0.17190136
000210 94 b2 8d bd 00 37 a7 3e a2 2b 20 3e e5 90 2f 3e
       -0.06918827 0.3265915 0.15641645 0.17145117
000220 f3 ee fc 3c 65 04 6c 3d 8c ec 6d bc 14 b4 cc bb
       0.030875659 0.05762138 -0.014521729 -0.006247053
000230 08 cf 3f 3f 80 45 6c 3e 25 3b df 3d 99 56 fe bd
       0.7492528 0.23073387 0.10899953 -0.12418861
000240 83 56 30 bf 32 cc 41 3e 9a b3 35 be 89 a9 14 bf
       -0.68882006 0.1892555 -0.17744294 -0.5807119
000250 6c dc c1 3e 23 0a 2c 3e 08 52 72 be d5 29 8f be
       0.3786348 0.16800742 -0.23664105 -0.27961603
000260 3d 37 c0 bd 63 0c f7 3e 08 64 cd bb c5 1a 9e 3d
       -0.09385536 0.48251638 -0.006268028 0.0771995
000270 65 87 8e 3d 97 be 14 bc 3f 74 4a bd 22 78 d2 bc
       0.06959418 -0.009078643 -0.049427267 -0.02569205
000280 84 b4 a7 be f8 0d 02 3e eb 8b 94 bd 98 57 fa 3d
       -0.3275491 0.12700641 -0.0725325 0.122237384
000290 d4 b4 a8 be 6b 18 56 be 28 c4 b0 bd 3d ab 1e be
       -0.3295046 -0.20907752 -0.08631164 -0.1549501
0002a0 4f 6d 39 be 6d ee 1f bd fd cb ba bc b9 fd 09 3d
       -0.18108104 -0.03904574 -0.022802347 0.033689234
0002b0 55 e8 fe bc 1d fd c7 be 1e 92 99 3e 29 ef 8f 3b
       -0.031116644 -0.39060298 0.2999429 0.004392524
0002c0 8d 6c 27 3d 0a 17 9b bc 26 32 90 bc 41 63 18 bc
       0.040875006 -0.018931884 -0.017602038 -0.009301008
0002d0 65 13 92 be d5 8c bb 3d 92 c3 8a bd ec 62 08 3e
       -0.28530422 0.09157721 -0.06775583 0.13318986
0002e0 5e cf 20 be 4d 36 30 be 59 76 12 3d c0 c4 68 be
       -0.15704104 -0.17208214 0.035757396 -0.22731304
0002f0 65 e9 af be 97 e0 bf bc 73 92 7f 3c 66 81 d5 bd
       -0.34357753 -0.023422522 0.015598881 -0.104250714
000300 3e 62 7d bd f8 51 a3 be ed 5f 46 3e 9f 6c 83 3c
       -0.06186127 -0.31898475 0.1937253 0.016043006
000310 e9 98 44 bd 08 95 90 3b ff 05 9c b9 2c 77 83 bc
       -0.04799739 0.004412297 -0.00029759106 -0.016048037
000320 e3 ea 21 3e a9 9e 4e 3f d2 a8 0d be 8d 7d a6 be
       0.15812258 0.80710846 -0.13833931 -0.32517663
000330 6a e0 eb 3e ad f4 ec 3d 07 ef 15 3d c1 67 4b 3f
       0.46069652 0.11570106 0.036604907 0.7945519
000340 66 f5 74 3f a0 75 a8 3d e7 f6 3f 3d 91 6d 57 bd
       0.9568695 0.0822556 0.046866324 -0.052594725
000350 73 ec a3 bd 9d 5d a8 3e 2e a0 b3 be b7 71 81 bb
       -0.080040835 0.3288392 -0.35083145 -0.0039503234
000360 12 2e 71 3d 7b 2e 69 bc ec 11 bb 3d 87 7a 19 3d
       0.058881827 -0.014232273 0.09134278 0.037470367
000370 46 f0 c8 3d 59 c9 4e 3f 98 36 29 be dd 52 fe be
       0.098114535 0.8077598 -0.16524732 -0.49672595
000380 86 64 a1 3e 8c da 27 3d fc 42 a3 bc 63 81 3a 3f
       0.31522006 0.040979907 -0.019929402 0.7285368
000390 f4 a9 51 3f 0a 81 fb 3d b6 23 f7 bd dd 6b 50 3e
       0.8189995 0.122804716 -0.12067358 0.20353647
0003a0 c3 8f c9 bc e9 a4 2e 3e 3c 65 fc be c2 73 76 3d
       -0.024604684 0.17055096 -0.49295986 0.06016899
0003b0 68 0d 98 3d 40 1e 96 bd 2e a2 b3 3d 1f d2 52 bc
       0.07424432 -0.073299885 0.08771168 -0.01286748
0003c0 db 38 9a be 56 07 3d 3f 73 8e 7c bb ba 59 b8 be
       -0.30121502 0.7383932 -0.0038537055 -0.36005956
0003d0 db 61 3d 3d c2 42 eb 3c d8 e5 74 bc fc ef 34 3e
       0.0462359 0.028718356 -0.014947377 0.17669672
0003e0 c0 c4 82 3f 07 e9 b0 bd 34 73 8c 3d 07 05 5e be
       1.0216293 -0.086381964 0.06857911 -0.21681605
0003f0 51 a5 e5 3c f7 f3 e6 3e 0e f7 31 bd 07 a3 76 3b
       0.02803293 0.45108005 -0.0434485 0.0037633793

v.net.0.bias f4 [64]
000000 53 35 a2 be 17 eb 7d bf 31 eb 1a 3e d4 83 9c 3e
       -0.31681308 -0.99186844 0.15128781 0.30569327
000010 11 f9 53 bf e9 c2 c1 be f2 57 a2 bd 8b 04 6a bf
       -0.8280192 -0.37844017 -0.079269305 -0.9141318
000020 4e 42 b9 3e 33 66 f9 be f6 50 a1 3f 1d c4 ae 3f
       0.361834 -0.48710784 1.2602832 1.3653599
000030 7f 69 80 3f fa 76 be 3f 30 e5 9b 3d cf 56 9e 3e
       1.0032195 1.4880059 0.076120734 0.30925605
000040 d3 54 2a be ff a7 88 be 46 8e 0c be e4 e8 5c bf
       -0.1663392 -0.2669067 -0.13726148 -0.8629286
000050 77 24 79 bf c4 fb 13 bf 54 fa df bd 5f 9b 6b 3f
       -0.97321266 -0.5780604 -0.10936418 0.9203395
000060 21 b8 3e be 9e 4e 46 bf 06 a8 86 3e cd 43 c4 3f
       -0.18624927 -0.7746371 0.26300067 1.5333191
000070 42 91 5d bf 51 90 0a be 0c 60 0d bf 9f 4a 01 3f
       -0.8654977 -0.13531615 -0.5522468 0.5050449
000080 bb e4 3d bf f7 7e 0d be b0 d7 82 3f 6d 30 46 3e
       -0.7417714 -0.13817964 1.0222073 0.1935441
000090 d7 c2 7b 3d 00 b1 c8 bf 1d 84 d6 3c b5 9d 87 bf
       0.06146511 -1.5679016 0.026186043 -1.0595003
0000a0 6c 23 5d be c9 04 83 3f 2f 86 89 bf 23 88 32 bf
       -0.21595544 1.0235835 -1.0744075 -0.6973898
0000b0 f0 bb 9d 3c 69 5d b1 be ba 9e 06 be 62 1e 24 3e
       0.019254655 -0.3464158 -0.13146487 0.16027215
0000c0 6b 6e 09 be 0c 0c 99 bf e3 a5 04 be fa e4 e1 3d
       -0.13421027 -1.1956801 -0.12953906 0.11030002
0000d0 43 30 4c bf 2c 59 b4 3f 6a 23 38 3f 81 08 04 3f
       -0.7976114 1.4089713 0.7192904 0.51575476
0000e0 2d 00 16 be 02 d2 36 3f 31 04 8e 3f 0e 72 3e 3e
       -0.14648505 0.71414196 1.1095029 0.18598196
0000f0 f0 28 2d bf cd 24 9e bd f2 07 72 be 6f d4 b5 3e
       -0.6764059 -0.07721863 -0.23635843 0.35513636

v.net.2.weight f4 [64, 64]
000000 37 68 87 3e 5d d6 55 3c 83 7e 27 3e be 6a 07 3e
       0.26446697 0.0130515965 0.16356854 0.13224313
000010 40 0b 99 bd f2 c3 8d be f7 10 8a be 58 85 a7 bd
       -0.07472849 -0.27688557 -0.26966068 -0.0817973
000020 00 07 b3 bd 6d e3 77 be 07 a5 88 bd 31 ea 63 be
       -0.087415695 -0.2420785 -0.066721015 -0.22257306
000030 74 2e 07 3d 8b bc a9 be d8 6f 40 be f2 33 b2 3e
       0.033003286 -0.3315166 -0.18792665 0.34805256
000040 20 ac 53 bd 25 61 0d bf 64 79 fa 3e 7f 2f ea 3e
       -0.051677823 -0.55226356 0.4892074 0.45739362
000050 7b 3a 40 be 3e 12 20 3e 27 74 bb be 55 86 24 3e
       -0.18772309 0.15631959 -0.36612055 0.16066869
000060 c3 60 19 be 94 a7 1d 3e 57 ee 89 3e 75 82 dc 3c
       -0.14978318 0.15395957 0.2693965 0.026917676
000070 81 a3 62 be bb 16 cb bc f7 f5 bc be a0 2f 06 3e
       -0.22132684 -0.024791112 -0.36906406 0.13104105
000080 6e b0 31 be 8a 87 ed 3d 55 1a 87 3e 94 40 7c be
       -0.17352459 0.11598118 0.26387277 -0.2463401
000090 96 9b 08 bd eb b5 db 3e 77 d7 e6 3e 5a 34 c4 bc
       -0.033351503 0.4291223 0.45086262 -0.023950744
0000a0 a8 40 ab 3d 69 17 34 be 1e 6e 30 3e f5 2a 41 be
       0.083619416 -0.17587055 0.17229506 -0.18864043
0000b0 83 b7 dc 3d e9 1a f9 3d 40 2b 81 be 06 fd 0a be
       0.107771896 0.12163336 -0.2522831 -0.13573083
0000c0 bb ac 8c 3e 32 51 63 be 73 93 b9 be 1b 0d ad 3e
       0.27475533 -0.22198942 -0.36245307 0.3379906
0000d0 83 84 2a be d8 3c 8a be fc cb dd 3d 0d 1f 24 3b
       -0.16652112 -0.26999545 0.108299226 0.0025042922
0000e0 a3 84 53 be f4 d7 5c 3c 1d 44 81 3e 40 9b 67 be
       -0.20656066 0.013479222 0.2524728 -0.22617817
0000f0 31 00 4d 3d e6 68 87 3e 22 2b 64 3e d9 76 8b be
       0.05004901 0.2644722 0.22282079 -0.2723911
000100 a3 73 d5 bd 1b 6c 7f be b0 50 6c 39 49 d9 56 3a
       -0.104224466 -0.24943583 0.00022536772 0.000819583
000110 bc b6 66 bc 9f 5d 9b 3e a3 52 57 3e 6c 4e 04 bc
       -0.014081653 0.30344865 0.21027617 -0.008075338
000120 86 ea 75 3e 17 b3 bc be 26 57 8e be fb 08 08 3e
       0.24015245 -0.36855385 -0.27800864 0.13284676
000130 81 f8 4a 3e 4c 87 82 be 61 b6 2c be 84 98 c0 3d
       0.19821359 -0.25493848 -0.16866447 0.0940409
000140 d2 dd 2a bf 7b f7 ef 3e 1d 15 0b be 6e d3 10 be
       -0.6674472 0.468685 -0.13582273 -0.14143154
000150 65 7a f4 bd 12 48 12 3e 92 68 d1 3e 90 9e 2d 3e
       -0.119374074 0.14285305 0.40900093 0.16955018
000160 6a 9c 1c bd 7b 59 5f be d3 5f c7 3d cb c6 b6 3e
       -0.038235106 -0.21811478 0.09735074 0.35698542
000170 92 23 c2 bb 12 b3 7c 3e 53 d5 f0 be dd 3a 08 3e
       -0.0059246505 0.24677685 -0.47037753 0.13303705
000180 d5 00 24 bd 5e 6b 31 bf 12 07 84 3d bb 97 46 be
       -0.040039856 -0.69304454 0.06446661 -0.19393818
000190 d0 3f bf bb 92 c0 0b 3e c8 0a 31 be 42 fa b5 bd
       -0.0058364645 0.13647678 -0.17289269 -0.088856235
0001a0 09 a3 58 bd 1e bd 5e 3e 4d b7 56 3e 79 00 fe 3d
       -0.052889857 0.2175183 0.20968361 0.12402434
0001b0 af a5 34 be 7a 8b 07 bf 04 8f 37 3e 90 9d 91 3c
       -0.17641328 -0.529472 0.1792565 0.017775327
0001c0 1d 94 13 bd 1f 88 63 be 95 42 87 be 58 6c 4b be
       -0.036029924 -0.22219895 -0.26417986 -0.19865549
0001d0 fa a6 79 3d 08 ca 6b 3e c2 46 22 3e 6a a8 f9 bd
       0.060950257 0.23026288 0.15847304 -0.121903256
0001e0 16 ae 78 3e ef 78 11 3e fd ea 55 3d bd 6f d5 bd
       0.24285159 0.14206289 0.052226055 -0.10421703
0001f0 28 51 f4 bd 69 d9 0d be 27 70 84 bd ab dd 25 3e
       -0.11929542 -0.13852467 -0.06466704 0.16197841
000200 49 76 60 bd bd 03 2e 3e e5 8b be 3c 97 50 ec bd
       -0.054800306 0.16993614 0.023260066 -0.11538809
000210 4f 98 12 3e e0 50 8a 3e d9 dc 01 3e 91 7b 05 bd
       0.14315914 0.27014828 0.12681903 -0.032588545
000220 37 eb 81 3e c2 b4 44 be 86 67 6f be 80 29 90 3e
       0.25374767 -0.19209579 -0.23379335 0.28156662
000230 d7 bd 64 3d dd 5b 04 bf 14 18 d9 bb b3 2c 41 be
       0.055845108 -0.5170267 -0.006625185 -0.18864708
000240 92 7b b4 3d e1 10 72 3e c2 3f 66 be ef 0b f5 be
       0.08812632 0.23639251 -0.22485259 -0.47860667
000250 89 2e f9 3c 7a 1f 69 bd 24 d8 94 3e 51 97 08 be
       0.030417698 -0.056914784 0.29071152 -0.13338973
000260 8c 13 ac 3c 91 8b bc 3d cd d7 ff bd 22 47 94 3d
       0.021005414 0.09206308 -0.124923326 0.0724013
000270 1e dc 95 3d ef 95 39 3e 3b bd c9 bd f2 0f e7 3d
       0.07317375 0.18123601 -0.09850546 0.11282338
000280 7c 3d 46 bc 2f 99 d4 be 51 7d b9 3b 4c aa ce bd
       -0.01209962 -0.4152312 0.005660691 -0.10091075
000290 88 23 0a 3c 36 15 a5 be 31 38 03 be c2 30 a1 be
       0.008431323 -0.32242745 -0.12814404 -0.31482512
0002a0 fa 54 49 3d 98 1d 9d 3c 4b 0e 1f be 48 5e 44 3e
       0.049153306 0.01917915 -0.15532796 0.1917659
0002b0 d2 ff ab 3d c0 94 34 bf a3 25 e1 3e 4c a8 85 be
       0.08398403 -0.70539474 0.43974027 -0.26104963
0002c0 38 06 45 3d 52 e0 3a be fd e2 54 3d 57 8c db bd
       0.048101634 -0.18249634 0.051974285 -0.10720127
0002d0 3b 71 d9 3d 8d 9b 0a be 0f f2 6e 3e 33 00 4c be
       0.106173 -0.135359 0.23334526 -0.19921951
0002e0 76 e0 7c 3e 43 61 8b 3e 17 47 82 3e a8 f5 d7 bd
       0.24695 0.27222642 0.25444862 -0.10544902
0002f0 ac 86 03 be 07 37 18 be 93 c1 fb 3c c6 5d c4 3d
       -0.12844342 -0.14864741 0.030731952 0.09588198
000300 53 be 47 3d 60 c8 b1 be 45 d1 c9 3c ef e9 12 3e
       0.04876549 -0.34723186 0.02463592 0.14347051
000310 4b 83 96 bc 44 6b 23 3e 04 6b 8d 3e 1d 11 97 bc
       -0.018373152 0.15958887 0.2762071 -0.018440777
000320 58 d3 1d 3d 11 4f b4 3d 23 d9 7a 3e 27 00 32 3e
       0.03853163 0.08804143 0.24496894 0.1738287
000330 fc bf 1e 3e 85 f2 8f 3e 4f 2e 06 bd 86 ce 2c be
       0.15502924 0.28114715 -0.032759007 -0.16875657
000340 a7 62 bf 3e 0d 70 7d 3c 70 a9 27 3e ab ed ff 3d
       0.37379953 0.0154686095 0.16373229 0.124965034
000350 c8 54 71 3d b1 79 db bd 7b 00 81 3d 86 a7 6c 3e
       0.058918744 -0.1071657 0.0629892 0.2311078
000360 5a b5 1d 3e c8 c4 32 3b 1b 1e 85 bd 00 09 dd bd
       0.15401211 0.0027277935 -0.06499883 -0.10792732
000370 72 bc ce bd 72 bf 28 be c4 f2 9c bd de 48 25 bc
       -0.10094537 -0.1647928 -0.07663491 -0.010088174
000380 1c 47 82 bd 93 4f c7 3b 10 7a 64 3e bf 02 86 3d
       -0.06361219 0.006082484 0.22312188 0.065434925
000390 21 b0 0f be b6 3c a6 bd 12 95 81 3e be 46 11 be
       -0.14032032 -0.081170484 0.25309044 -0.14187142
0003a0 9f b9 bc bd 16 db 06 bd cf 61 c1 bd ec bf 32 bc
       -0.09215092 -0.03292378 -0.09442484 -0.010910016
0003b0 8b 3d cc 3d 30 a0 97 bd 17 1b c1 3d d0 52 cf bd
       0.09972676 -0.074036 0.09428995 -0.10123217
0003c0 3c f5 0c be 06 53 fb bd 30 0b a5 bd f4 ed a7 be
       -0.13765424 -0.12271695 -0.080587745 -0.3279873
0003d0 f2 be a4 bd ea 90 ab 3e 0c bb e9 3d 5d bb 61 3e
       -0.080442324 0.33508998 0.114126295 0.2204413
0003e0 01 de b9 3d a6 a9 57 3d 83 05 2c bd 32 d1 08 3e
       0.09075547 0.052652024 -0.041997444 0.13361052
0003f0 f8 0a ae bd 33 cf a0 be 66 5a d7 bc 79 39 5f 3d
       -0.08498186 -0.3140808 -0.026288223 0.05449817

v.net.2.bias f4 [64]
000000 43 9c 10 3f 39 e3 41 be 3b f6 e0 3e a1 38 3d be
       0.56488436 -0.18934335 0.4393786 -0.18478633
000010 e9 bd 0c bf 36 25 07 bd 35 7e c5 3e dd bf fc 3e
       -0.5497728 -0.03299447 0.3857285 0.4936513
000020 1b 1b 03 be 70 46 24 3f cf 66 65 bf d7 91 d5 be
       -0.12803309 0.6416998 -0.8961 -0.4171283
000030 b0 aa 1d bf 29 de fe be 5d 73 05 3f 81 48 09 bf
       -0.61588573 -0.4977887 0.52129155 -0.5362626
000040 94 7c 9a be b5 2a 16 bf d6 51 eb 3e 85 65 1d 3f
       -0.3017317 -0.58658916 0.45960873 0.6148303
000050 02 b3 ec 3e df 3d 4d 3e 2a 15 23 3e 3f 43 af 3e
       0.46230322 0.20043133 0.15926042 0.34230992
000060 2b 3f 5a 3e ce d5 e8 be d7 61 1d 3f bd ed 18 bf
       0.21313159 -0.4547562 0.61477417 -0.5973776
000070 d7 0f dc be de b5 06 3f ce 59 a5 be ec a9 20 3e
       -0.42980835 0.5262126 -0.32295078 0.1568982
000080 c0 3c 0f bf 55 54 e1 be b9 05 f0 be 90 cc 86 3e
       -0.5595207 -0.44009653 -0.46879366 0.26327944
000090 d8 6f d4 3e 78 9b 61 bf 99 7f ac 3e 1a 96 b7 be
       0.4149158 -0.8812785 0.336911 -0.35856706
0000a0 1f 47 db bd 8b 30 f9 3e 7d a3 08 bf 65 59 6e 3e
       -0.10706925 0.48669848 -0.53374463 0.23276289
0000b0 50 25 e5 be 7d 67 5f 3e 6a 7d ab 3e 40 5e f6 3e
       -0.4475503 0.21816821 0.3349412 0.48118782
0000c0 5e 77 1c 3e ee 68 12 bf 95 21 9e be 27 f3 03 3f
       0.1527991 -0.5719136 -0.30884996 0.51542896
0000d0 52 d0 84 3e f5 b2 ab be 62 6b f5 3e 53 7a 48 be
       0.25940186 -0.3353497 0.4793349 -0.19577913
0000e0 96 5c a8 be c7 30 a7 3e bf 1a 80 3e 1b 8a 43 3f
       -0.32883137 0.32654402 0.25020406 0.7638261
0000f0 fa d6 27 3e e7 36 6f be a5 14 b0 3e 3b 74 3e be
       0.16390601 -0.23360787 0.3439075 -0.18599026

v.net.4.weight f4 [1, 64]
000000 49 0c f4 bd f2 a5 fa 3d 9b 9e e0 bd 3f eb c5 3d
       -0.11916406 0.12238683 -0.109677516 0.0966401
000010 24 59 f9 3d 47 ce 92 bd 53 27 db bd df 37 44 be
       0.12175205 -0.071682505 -0.1070086 -0.19161938
000020 98 5c 08 3e f0 22 28 be 5e 5d 4a 3e b7 77 fe 3d
       0.13316572 -0.16419578 0.1976218 0.124251775
000030 18 25 02 3e 9e b0 11 3e c2 7e ba bd 38 07 1e 3e
       0.12709463 0.1422753 -0.091062084 0.15432441
000040 39 a0 ae 3d 04 50 26 3e 7b 99 32 be 14 aa 93 be
       0.08526654 0.16241461 -0.1744136 -0.28840697
000050 c2 19 a2 bd 6c 41 1a be 71 f6 50 be 4d 13 3b be
       -0.07915069 -0.15064019 -0.2040651 -0.18269081
000060 b1 93 16 bf ad 3b 36 3e 9e 12 be bd ef c9 0c 3e
       -0.5881911 0.17796202 -0.09280895 0.13748907
000070 75 64 da 3d 3a 74 1f be d9 7c 63 3d 45 c4 bd be
       0.10663692 -0.1557168 0.055538986 -0.37063804
000080 a4 d8 c2 3d 8f ab 13 3e 66 52 20 3e a5 fe a1 bd
       0.09513977 0.14420913 0.15656433 -0.07909898
000090 80 b1 32 be 20 3c 8b 3e 38 2c 36 be 9e bb cf 3d
       -0.17450523 0.2719431 -0.17790306 0.10143207
0000a0 a3 86 1d 3e 13 51 ef bd 46 1d 87 3d 53 a9 a1 bd
       0.15383391 -0.116853856 0.0659738 -0.07893624
0000b0 8b f1 03 3e d9 b9 40 bd 43 6a eb bd 1b bb be bd
       0.1288511 -0.047052238 -0.11494877 -0.09313031
0000c0 5e 57 09 be 18 31 2d 3e 81 c5 b1 3d 3e 06 bc bd
       -0.13412234 0.16913259 0.08680249 -0.09180878
0000d0 12 12 17 be 07 bb 97 3d 4e 37 62 be 89 7f 9b 3d
       -0.14752987 0.074087195 -0.2209141 0.07592685
0000e0 88 8a fe 3c b1 bc 10 be 10 66 c4 bd 9a 17 5b be
       0.031071916 -0.1413448 -0.095897794 -0.21395722
0000f0 01 7b 8e be 95 2f fc 3d b6 88 bc bd 38 ca 11 3e
       -0.2782822 0.12313763 -0.09205763 0.14237297
