experiments/07_control_structure_hypothesis/checkpoints/Attitude/ppo/2021-12-14__00-05-15/seed_00002/torch_save/model.pt (torch, 82448 bytes, 19 tensors)

obs_oms.mean f4 [40]
0	0x3e7dafdc	0.24774116
1	0x3b8ad5f4	0.004236931
2	0x3f8100c7	1.0078362
3	0xba24ea24	-0.0006290993
4	0x3a810c74	0.000984563
5	0x3cb2be27	0.021819187
6	0x3f7f3887	0.9969563
7	0xba1517d0	-0.0005687447
8	0x3c31fe77	0.010863892
9	0xbb6ad860	-0.0035834536
10	0x3b657e0d	0.003501776
11	0x3b6ffa80	0.0036617815
12	0x3cae0ecb	0.021247288
13	0xb93389d0	-0.0001712211
14	0xbb71c91d	-0.0036893554
15	0xbc0061d9	-0.007835829
16	0x3e505a38	0.20346916
17	0xbc136c25	-0.008997952
18	0x3c939d56	0.01801936
19	0x3e951ca5	0.29123417
20	0x3e7dae9b	0.24773638
21	0x3b8e6b39	0.004346278
22	0x3f80ff66	1.0077941
23	0xba23ec4d	-0.0006253168
24	0x3a830232	0.0009995161
25	0x3cb32cc2	0.021871928
26	0x3f7f3bfa	0.9970089
27	0xb9f51812	-0.00046747975
28	0x3c341bc4	0.010992948
29	0xbb76214f	-0.0037556475
30	0x3b6d0e61	0.00361719
31	0x3b703ead	0.0036658451
32	0x3cae48ec	0.021275006
33	0xb921e38f	-0.00015438929
34	0xbb75a0d7	-0.0037479901
35	0xbbff6864	-0.0077944268
36	0x3e4fc56f	0.20290159
37	0xbc13fa81	-0.009031893
38	0x3c92195a	0.017834354
39	0x3e9592a8	0.29213452

obs_oms.std f4 [40]
0	0x3e31c9d6	0.1736215
1	0x3e31e507	0.17372523
2	0x3d04e50d	0.032445002
3	0x3d42d93f	0.047570463
4	0x3d40d8cd	0.047081757
5	0x3d0c33f3	0.03422923
6	0x3b388e50	0.0028160997
7	0x3eb77ab9	0.35835817
8	0x3eb92f27	0.36168787
9	0x3dd83c87	0.1055842
10	0x3f14c82e	0.5811795
11	0x3f141db2	0.5785781
12	0x3eb6b974	0.35688365
13	0x3d5d020c	0.05395703
14	0x3d6426c0	0.055701017
15	0x3d04e50d	0.032445002
16	0x3f47addb	0.7799966
17	0x3f441259	0.76590496
18	0x3f3b8ab9	0.7325855
19	0x3f27061c	0.652437
20	0x3e31e354	0.17371875
21	0x3e32012b	0.17383258
22	0x3d066600	0.03281212
23	0x3d4149ba	0.04718945
24	0x3d3f4043	0.046692144
25	0x3d0a339c	0.033740625
26	0x3b2f2ee6	0.0026730835
27	0x3eb7d378	0.35903525
28	0x3eb988ff	0.36237332
29	0x3dda8bc3	0.10671189
30	0x3f14d1ca	0.5813261
31	0x3f142221	0.57864577
32	0x3eb6cb18	0.35701823
33	0x3d5f4ed7	0.054518547
34	0x3d667ced	0.056271482
35	0x3d0665ff	0.032812115
36	0x3f47bc47	0.78021663
37	0x3f43e12e	0.7651547
38	0x3f3b2a4c	0.73111415
39	0x3f270001	0.6523438

pi.log_std f4 [4]
0	0xc0905243	-4.5100417
1	0xc0905243	-4.5100417
2	0xc0905243	-4.5100417
3	0xc0905243	-4.5100417

pi.net.0.weight f4 [50, 40]
0	0x3e2e471a	0.1701931
1	0xbdb98990	-0.09059441
2	0xbe229a21	-0.15879108
3	0x3e151ce3	0.145618
4	0x3dd79367	0.10526162
5	0x3e9b1a7c	0.30293643
6	0x3c0b29cc	0.008493852
7	0x3c99aaee	0.018758263
8	0x3e2129cd	0.15738602
9	0x3e1f0d81	0.15532495
10	0xbe241f24	-0.16027504
11	0x3e028e83	0.12749676
12	0xbe9f578a	-0.31121475
13	0x3ce9b500	0.02852869
14	0xbe1a0f1b	-0.15044825
15	0x3dd15930	0.10222089
16	0x3d4dd4ee	0.050251894
17	0x3dbb7f21	0.09155107
18	0x3d55a5f4	0.05216022
19	0x3ecd349b	0.40079197
20	0x3e80eaa2	0.2517901
21	0x3df3de96	0.11907689
22	0xbe0bdbc3	-0.13658051
23	0x3e54fac4	0.20798784
24	0x3dee417c	0.11633584
25	0x3e7d1dc2	0.24718383
26	0xbc6ad850	-0.0143337995
27	0xbd8d8e98	-0.06911963
28	0x3e1259c9	0.14292063
29	0x3e289360	0.16462469
30	0x3d3975b2	0.04527826
31	0x3e14fa40	0.14548588
32	0xbe0c0ee0	-0.1367755
33	0xbe932e28	-0.28746152
34	0xbe13175f	-0.14364384
35	0xbc9e4706	-0.019320976
36	0x3d8320a0	0.06402707
37	0x3dbac0f2	0.09118833
38	0xbdfbe690	-0.12299836
39	0xbdff0fde	-0.12454198
40	0x3d28361e	0.041067235
41	0x3dba7726	0.09104757
42	0xbe1b462a	-0.15163484
43	0x3e0a6d4c	0.13518256
44	0x3e1de9b9	0.1542119
45	0xbd1ab6ff	-0.037772175
46	0x3d8c86d4	0.06861654
47	0x3df3531b	0.118810855
48	0x3e7be793	0.24600057
49	0xbc93fe44	-0.01806558
50	0x3e278ee1	0.16363098
51	0xbcc5fdf0	-0.024168938
52	0x3d13bdb1	0.036069576
53	0xbc309be8	-0.010779358
54	0xbd1e0596	-0.038579546
55	0xbd32db3c	-0.04366611
56	0x3e224cec	0.15849656
57	0x3e7314e4	0.23738438
58	0x3dd65741	0.10465861
59	0x3e0cee63	0.13762812
60	0xbc36f6e0	-0.011167258
61	0x3ea61f65	0.32445827
62	0xbe06ccca	-0.13164058
63	0x3e39e54f	0.1815388
64	0xbd85e56c	-0.065378994
65	0xbdf68afa	-0.120382264
66	0xbcac1689	-0.02100684
67	0x3e121779	0.14266767
68	0x3de79de2	0.11309411
69	0x3e22b7e2	0.15890458
70	0xbdfa184c	-0.122116655
71	0xbda0d46c	-0.07853016
72	0xbe49602b	-0.19665591
73	0xbd97b0b2	-0.07406749
74	0x3dfda121	0.123842485
75	0x3e0427ff	0.12905882
76	0x3e1a3243	0.15058236
77	0xbdd64bd4	-0.10463682
78	0x3df7b66e	0.120953426
79	0x3e50bde3	0.20384936
80	0xbdf07c4a	-0.11742456
81	0x3e972c6c	0.2952608
82	0xbcf1524c	-0.029458188
83	0x3e206a5f	0.15665577
84	0x3bc544d0	0.006020166
85	0x3d172488	0.036900073
86	0xbe672816	-0.22573885
87	0xbe394ef0	-0.18096519
88	0xbe14dfa4	-0.14538437
89	0x3eab1ad6	0.33418912
90	0x3e7e576d	0.24838038
91	0x3e5cd5b9	0.21565904
92	0x3dec59cd	0.11540566
93	0x3de40e7d	0.11135576
94	0x3e3679c1	0.17819883
95	0xbd09bf4f	-0.03362971
96	0x3e3260b7	0.17419706
97	0x3c4acac8	0.012377448
98	0x3dfd2cbd	0.12362049
99	0xbb5ad0d9	-0.0033388643
100	0x3a0e309d	0.0005424114
101	0x3e4e232d	0.20130606
102	0x3dfe01eb	0.124027096
103	0x3e31e6b0	0.17373157
104	0xbe2ec058	-0.17065561
105	0x3e515220	0.20441484
106	0xbe042bff	-0.12907408
107	0xbea98468	-0.3310883
108	0x3df762cb	0.1207939
109	0x3e949b05	0.2902452
110	0x3d8de365	0.06928138
111	0x3d9b44e3	0.075814985
112	0x3d30b740	0.04314351
113	0xbc165578	-0.009175651
114	0x3dce3c8e	0.10070144
115	0xbdfe9b64	-0.12431982
116	0x3ea36af8	0.31917548
117	0x3dd4e680	0.10395527
118	0xbe366379	-0.17811383
119	0xbd0a0f1c	-0.033705816
120	0x3e17103d	0.14752288
121	0x3e18effe	0.149353
122	0x3d8181cb	0.06323584
123	0xbd96f02e	-0.073700294
124	0x3e80cb4f	0.25155112
125	0xbdb1b96c	-0.086779445
126	0xbe930832	-0.2871719
127	0x3d4905ad	0.04907768
128	0xbe368780	-0.17825127
129	0xbe3a545a	-0.1819624
130	0xbe3b1540	-0.18269825
131	0xbe196c28	-0.14982665
132	0x3e30e2b5	0.17273982
133	0xbe254d7f	-0.16142844
134	0xbdf1ed95	-0.11812893
135	0xbcdef4b7	-0.027216299
136	0x3cc236c5	0.023707757
137	0xbd13a1c3	-0.03604294
138	0xbda94c9f	-0.082665674
139	0xbe934232	-0.2876144
140	0x3d6e977a	0.058249928
141	0x3e16c9ed	0.14725466
142	0x3d2b25bc	0.041784033
143	0xbe2cc4c9	-0.16871943
144	0x3ea3593a	0.31904012
145	0xbdddb386	-0.10825257
146	0xbe83db68	-0.2575333
147	0xb97dd03c	-0.00024205534
148	0xbe4b1693	-0.1983283
149	0xbecd5c2b	-0.4010938
150	0xbdd48d9b	-0.103785716
151	0x3dbd7965	0.0925167
152	0x3da1639b	0.07880326
153	0x3c821913	0.015881097
154	0xbe42a4d9	-0.19008197
155	0x3e16c230	0.14722514
156	0x3c9740d9	0.018463539
157	0xbdeb908a	-0.11502178
158	0xbe910da6	-0.28330725
159	0x3ee3b35a	0.44472772
160	0x3e958321	0.29201606
161	0x3d7e3fff	0.06207275
162	0xbe74b930	-0.23898768
163	0x3e5f685f	0.21817158
164	0xbdc28a93	-0.09499087
165	0x3e0520e5	0.1300083
166	0x3d75495b	0.05988441
167	0x3dab7b3f	0.08373117
168	0x3ca0424b	0.019562861
169	0x3e25283d	0.16128631
170	0x3dff2b5f	0.12459444
171	0x3e00387e	0.1252155
172	0xbd0e67b2	-0.03476686
173	0xb99fb73f	-0.00030463372
174	0xbe109366	-0.14118728
175	0x3e84653a	0.2585848
176	0xbd8580b5	-0.065186895
177	0x381d00c3	3.7432426e-05
178	0xbe1b6bdb	-0.15177862
179	0xbd8eb55f	-0.069681875
180	0x3ee95e76	0.4557988
181	0x3d752070	0.059845388
182	0x3bcc92b7	0.0062430757
183	0x3dfd2f54	0.12362543
184	0xbd72be55	-0.059263546
185	0x3d379a6d	0.044825006
186	0xbd800842	-0.06251575
187	0x3dd995b8	0.1062426
188	0x3e2b258f	0.16713546
189	0x3be82d92	0.0070855105
190	0x3ad75067	0.001642716
191	0xbd792489	-0.06082586
192	0x3991d899	0.00027817933
193	0xba24fcfb	-0.00062938005
194	0xbe849355	-0.25893655
195	0x3dc9c06b	0.09851154
196	0x3d18ec24	0.037334576
197	0x3e90679a	0.28204042
198	0xbd43fe40	-0.047849894
199	0xbdd3335f	-0.10312533
200	0xbedc661e	-0.4304666
201	0x3ebecb1f	0.37264344
202	0x3d834452	0.064095154
203	0x3e5812c9	0.21100916
204	0x3d77bf6b	0.060485285
205	0xbe4d4d6b	-0.20049064
206	0xbd09cd2a	-0.033642925
207	0xbc97f67f	-0.018550156
208	0xbd2a8167	-0.041627314
209	0xbcbe544b	-0.023233553
210	0xbe33af24	-0.1754728
211	0x3dc3fd60	0.09569812
212	0xbecc0cdb	-0.39853558
213	0x3e0d6d49	0.1381122
214	0x3e99e031	0.30053857
215	0x3de58877	0.11207669
216	0xbbed28ca	-0.0072375285
217	0xbdeb1ff7	-0.11480706
218	0x3e53ddf6	0.2069014
219	0x3d682617	0.05667695
220	0xbeaf7bf2	-0.3427425
221	0x3e19fc93	0.15037756
222	0xbdc13d12	-0.09435476
223	0x3e3bd7cb	0.18344037
224	0x3e442c4c	0.19157523
225	0xbe458148	-0.19287598
226	0xbd4e3bbf	-0.050349947
227	0x3d43af39	0.047774527
228	0xbe210e02	-0.15728
229	0xbe3d4f2e	-0.18487236
230	0xbe1e1f88	-0.15441716
231	0xbe0a8927	-0.13528882
232	0xbeb48d12	-0.35263878
233	0x3dccbe1a	0.099971965
234	0x3e2c9b0e	0.16856024
235	0x3d72a4f2	0.059239335
236	0x3cbe94ad	0.023264254
237	0xbd347e47	-0.04406574
238	0xbd116a28	-0.03550163
239	0x3d834b78	0.06410879
240	0xbe4869de	-0.19571635
241	0xbeb02b43	-0.34408006
242	0x3e3edee1	0.18639709
243	0x3e1a4833	0.15066604
244	0x3dbf813f	0.093508236
245	0xbd74d151	-0.059769932
246	0x3db54ef7	0.08852952
247	0x3d819339	0.063269086
248	0xbe9f67a7	-0.31133768
249	0x3eb002a1	0.34377006
250	0xbe826794	-0.2546965
251	0x3e067725	0.13131388
252	0x3e4d336f	0.20039152
253	0xbe1afc77	-0.1513537
254	0xbdfe089b	-0.12403985
255	0xbe187427	-0.14888059

pi.net.0.bias f4 [50]
0	0xbd8b8583	-0.06812575
1	0x3e9b6f86	0.30358523
2	0x3e350ec6	0.17681417
3	0x3dcff243	0.1015363
4	0xbde53797	-0.111922435
5	0xbe09cf53	-0.13457994
6	0x3d3213cc	0.04347591
7	0x3e814a8f	0.25252196
8	0x3ec1e2fe	0.37868494
9	0x3e9acf13	0.3023611
10	0xbe006fe9	-0.1254269
11	0x3e9234f1	0.28556016
12	0x3e016ef7	0.12639986
13	0x3df207ab	0.11817869
14	0xbdeb957d	-0.11503122
15	0xbb9f2c9f	-0.004857614
16	0x3e3130ea	0.17303815
17	0xbd8eab23	-0.069662355
18	0x3d91f074	0.07125941
19	0x3ea7866b	0.3271974
20	0xbdde5f11	-0.10857976
21	0x3d6cc4ec	0.057804987
22	0x3e5892c8	0.21149743
23	0x3ebc8c3d	0.36825743
24	0x3e9aaf9b	0.302121
25	0x3de4c90f	0.111711614
26	0xbe51166c	-0.2041871
27	0x3da302e5	0.079595365
28	0xbea47173	-0.32117805
29	0x3d787a18	0.060663313
30	0xbddd1d43	-0.10796597
31	0x3e074c70	0.13212752
32	0xbc225ea8	-0.009910263
33	0xbd601fde	-0.05471789
34	0x3e8d6979	0.27619532
35	0xbe3faa51	-0.18717314
36	0x3e905fcb	0.28198084
37	0xbe10092b	-0.14065997
38	0xbd80a049	-0.06280572
39	0x3e6c95d9	0.23104037
40	0x3d009ea8	0.031401306
41	0x3e363e02	0.17797092
42	0x3e48d5f0	0.1961286
43	0x3c3efd44	0.011657063
44	0x3ec89390	0.3917508
45	0x3c20b17a	0.009807939
46	0x3ead5acd	0.33858338
47	0x3eaf0945	0.3418676
48	0x3e6573c0	0.22407436
49	0x3d9621b5	0.07330648

pi.net.2.weight f4 [50, 50]
0	0x3dcae83e	0.09907578
1	0x3de42ff8	0.11141962
2	0xbdf50f9c	-0.11965868
3	0x3e59f380	0.21284294
4	0x3e1ee515	0.15517075
5	0xbe05c371	-0.13062836
6	0x3e3e7708	0.18600094
7	0xbdb4314d	-0.08798466
8	0xbdb2ee8b	-0.08736905
9	0xbcb1f450	-0.021722943
10	0xbd1601ae	-0.036622696
11	0xbe596e09	-0.21233381
12	0x3dca4204	0.09875873
13	0x3e517f57	0.20458733
14	0xbd969af6	-0.07353775
15	0xbbae85ed	-0.005326024
16	0xbe2bc554	-0.16774493
17	0xbe23c6f6	-0.15993866
18	0x3da8b17b	0.08236977
19	0x3e4abaf1	0.19797875
20	0xbeac511b	-0.3365563
21	0x3d77681f	0.060402032
22	0xbd93118f	-0.071810834
23	0xbd264e31	-0.040601913
24	0x3db05fb8	0.08612007
25	0xbe163d58	-0.14671838
26	0x39bbca43	0.00035818116
27	0x3e3e79af	0.18601106
28	0x3cb915d4	0.022593416
29	0xbd743bfe	-0.059627526
30	0x3d312ce5	0.043255705
31	0x3e1afd91	0.1513579
32	0x3dc98bbd	0.09841106
33	0xbdb2b48a	-0.08725841
34	0x3dc8a758	0.09797543
35	0x3eaa9373	0.3331562
36	0x3c450599	0.01202526
37	0xbe29170a	-0.16512695
38	0xbe5dcf32	-0.2166107
39	0x3cd8c4af	0.026460974
40	0xbe24a8e5	-0.16080053
41	0xbe4648a0	-0.19363642
42	0xbea5705c	-0.32312286
43	0x3e6294e3	0.22127108
44	0x3e2577d5	0.16158994
45	0xbe8a37fe	-0.26995844
46	0xbed9b602	-0.42521673
47	0xbe61d1b6	-0.22052655
48	0xbe4c35b5	-0.19942363
49	0xbddeedc5	-0.10885195
50	0xbd3aad03	-0.045575153
51	0x3df62aff	0.120199196
52	0xbe28d73a	-0.16488352
53	0x3d97fae2	0.07420899
54	0x3cd7446b	0.026277741
55	0xbe19398e	-0.14963362
56	0x3e685f24	0.22692543
57	0xbc4faa1f	-0.012674837
58	0x3d29ea7b	0.041483384
59	0xbe14ad5b	-0.14519255
60	0xbbab72dc	-0.005232198
61	0xbde8b822	-0.113632455
62	0xbd6814a7	-0.05666032
63	0xbe8013fe	-0.25015253
64	0x3e44f3fe	0.192337
65	0x3df2ca0e	0.11854945
66	0x3e08da6b	0.1336457
67	0x3e092152	0.13391617
68	0xbd91b28f	-0.071141355
69	0xbe9a8a1d	-0.30183497
70	0x3de63c21	0.112419374
71	0xbdfc987a	-0.1233377
72	0x3e29f856	0.16598639
73	0xbedf5de7	-0.4362633
74	0x3e57e21c	0.21082348
75	0x3dd1c1ae	0.102420196
76	0xbd97ce19	-0.07412357
77	0xbc52f16b	-0.012874941
78	0xbdb51585	-0.08841995
79	0x3cf8a0df	0.030350147
80	0xbd8942d5	-0.067022
81	0xbed69a13	-0.41914424
82	0x3e8707fb	0.26373276
83	0xbd424487	-0.047428634
84	0x3e8693c0	0.262846
85	0x3e00493d	0.12527938
86	0x3e25218e	0.16126081
87	0x3df11690	0.117718816
88	0x3ebdb7cd	0.3705429
89	0xbe3773a3	-0.17915206
90	0xbcc47282	-0.023980383
91	0xbc2d3510	-0.010571733
92	0x3db4bba6	0.088248536
93	0x3e0af851	0.13571288
94	0x3e55d9d1	0.20883872
95	0xbbee7d82	-0.0072781453
96	0xbe91fd81	-0.2851372
97	0x3d109536	0.03529855
98	0xbdefb7fc	-0.11705014
99	0x3d9da116	0.0769674
100	0xbc474c64	-0.012164209
101	0x3e43b7e2	0.19113114
102	0x3da9b3ab	0.08286222
103	0x3d335c10	0.04378897
104	0x3d653ad1	0.055964295
105	0x3d7c2c77	0.061565842
106	0xbd986d6d	-0.07442746
107	0xbe146079	-0.14489926
108	0x3e5e8f0f	0.2173426
109	0x3e1aac5c	0.15104812
110	0xbd1bfa95	-0.03808077
111	0x3eb88374	0.3603779
112	0x3d67aec5	0.056563158
113	0x3dc2fdcf	0.095210664
114	0x3dd4904d	0.10379086
115	0xbdd37c62	-0.103264585
116	0x3d1d239b	0.038364034
117	0xbdb435c2	-0.08799316
118	0xbdce24b9	-0.10065598
119	0xbdd32938	-0.10310596
120	0x3c35a120	0.0110857785
121	0x3d410f1b	0.047133546
122	0x3d3d144c	0.046161935
123	0xbd94a2b2	-0.07257594
124	0x3e3832c7	0.1798812
125	0xbdcae8fa	-0.09907718
126	0x3ddd9f19	0.10821361
127	0x3d2bb6ba	0.04192231
128	0xbca0806b	-0.019592484
129	0xbe1c129e	-0.15241477
130	0x3d70f244	0.058824793
131	0x3c9a8066	0.018860053
132	0x3df156a1	0.11784101
133	0x3e08e374	0.13368016
134	0xbc48593e	-0.012228308
135	0xbe024662	-0.12722161
136	0x3e22dfd2	0.15905693
137	0xbd65b152	-0.05607731
138	0x3cca49cd	0.024693394
139	0x3ddb532f	0.107092254
140	0xbda17a8e	-0.078847036
141	0xbdcb27f0	-0.09919727
142	0x3d744fbc	0.059646353
143	0x3cbf164f	0.023326067
144	0xbe01a972	-0.12662295
145	0x3cdf7532	0.027277563
146	0x3e28fda4	0.16503006
147	0x3e4427ec	0.19155854
148	0xbcabe438	-0.020982847
149	0xbe3a2eb3	-0.18181877
150	0xbd27d942	-0.040978678
151	0x3d73c51b	0.059514146
152	0x3e23f9b1	0.16013218
153	0xbd6e4160	-0.058167815
154	0xbe963b69	-0.293422
155	0xbdd6fc00	-0.10497284
156	0xbe23ade1	-0.15984298
157	0x3e9a6a89	0.30159405
158	0x3dc3bdbb	0.095576726
159	0x3e0614a3	0.1309381
160	0x3dcb1064	0.09915236
161	0x3dc1ea61	0.09468532
162	0xbe1a048d	-0.15040798
163	0xbd9ef053	-0.07760682
164	0x3dcda4f2	0.100412264
165	0xbd9a129b	-0.0752308
166	0x3c900add	0.017583305
167	0xbbbe1465	-0.005800771
168	0xbd5679d4	-0.052362278
169	0xbda9dc65	-0.0829399
170	0x3dc2a2ad	0.09503684
171	0x3ddb33e7	0.10703259
172	0xbea43dcd	-0.320784
173	0x3e372de0	0.17888594
174	0xbe2018a2	-0.15634397
175	0x3d7f290d	0.06229501
176	0xbe906896	-0.28204793
177	0xbd8cdb3d	-0.06877754
178	0x3e3e2263	0.18567805
179	0xbe05b7b9	-0.13058366
180	0x3d49e988	0.04929498
181	0x3e181582	0.14851955
182	0x3e6ceb1f	0.23136567
183	0x3d1a5c99	0.037685964
184	0xbe0cec87	-0.13762103
185	0x3e76ee6c	0.24114388
186	0xbdeba8aa	-0.115067795
187	0x3d8e5be9	0.06951124
188	0xbc2c9037	-0.01053243
189	0xbd875630	-0.06608236
190	0x3d0e481e	0.034736745
191	0xbe982b05	-0.2972032
192	0x3e4ebbe2	0.20188859
193	0xbd1ef1fc	-0.038804993
194	0x3d8ba779	0.06819052
195	0x3e0f213f	0.13977526
196	0xbd91d1d0	-0.07120097
197	0x3d856400	0.06513214
198	0x3e300cbb	0.17192356
199	0xbe1df6ee	-0.15426227
200	0x3e121937	0.14267431
201	0x3dfc3776	0.12315266
202	0x3e6d0493	0.23146276
203	0xbd0cc9aa	-0.03437201
204	0x3e0f66ca	0.14004055
205	0xbd3b9506	-0.045796417
206	0xbe9ed03b	-0.31018242
207	0x3e5e452e	0.21706077
208	0x3d38f063	0.045151126
209	0x3d3261c7	0.04355028
210	0xbe2a26be	-0.16616341
211	0xbd311fe5	-0.043243308
212	0xbdc85893	-0.09782519
213	0x3e78ce79	0.24297513
214	0x3e315bc8	0.17320168
215	0x3e038ddc	0.12847084
216	0x3d8bd8b2	0.06828441
217	0xbdbc020c	-0.09180078
218	0x3d570df6	0.05250355
219	0xbc21d778	-0.009878032
220	0xbd924ce8	-0.07143575
221	0x3e04397d	0.12912555
222	0x3d6deecf	0.058089074
223	0x3dab3f12	0.08361639
224	0xbe0844bd	-0.13307472
225	0x3e2701a1	0.16309215
226	0xbe170283	-0.14747052
227	0x3dd1b903	0.10240366
228	0x3e36452e	0.17799827
229	0x3cde9324	0.027169771
230	0x3bdfd95c	0.006831331
231	0xbcb5ad1d	-0.022177273
232	0xbe8e8b62	-0.27840716
233	0x3dafed16	0.085901424
234	0x3e844f1f	0.25841615
235	0x3d3a5cdd	0.045498718
236	0x3e0632dd	0.1310534
237	0x3e2b5607	0.16732036
238	0xbdce8d34	-0.10085526
239	0xbd864042	-0.06555225
240	0x3dc65e21	0.096859224
241	0x3cd6229c	0.02613955
242	0x3db0f05e	0.086395964
243	0xbe4ef664	-0.20211178
244	0x3d72fdb7	0.059323993
245	0xbdb0a311	-0.086248524
246	0x3da0aa9b	0.078450404
247	0x3d476303	0.04867841
248	0xbe6ada1d	-0.22934766
249	0x3df9eaca	0.122029856
250	0x3e4748fe	0.19461438
251	0x3dd55ff2	0.10418691
252	0x3d8e1fe7	0.06939679
253	0x3da88441	0.082283504
254	0xbda3fb66	-0.08006935
255	0x3c5c5f1d	0.013450411

pi.net.2.bias f4 [50]
0	0xbe716291	-0.23572756
1	0x3c544330	0.012955472
2	0x3e02a502	0.12758258
3	0xbc4e3090	-0.01258482
4	0xbcf31b3c	-0.029676072
5	0x3d484d2b	0.048901718
6	0x3d949c90	0.072564244
7	0x3dbbf9c2	0.09178497
8	0xbd267cb1	-0.04064626
9	0x3e7a2cc0	0.24431133
10	0x3e580fa6	0.2109972
11	0x3e0ea241	0.13929082
12	0x3d7339b9	0.05938122
13	0xbde39f65	-0.111143865
14	0xbdb6b533	-0.0892128
15	0xbdb5ca47	-0.08876472
16	0xbdc96f47	-0.098356776
17	0x3e8ced39	0.27524737
18	0xbdfa2002	-0.12213136
19	0xbd6e04e3	-0.05811013
20	0x3e232ae5	0.15934332
21	0x3de0c8dc	0.10975811
22	0x3e344bf2	0.17607096
23	0x3dd4295a	0.1035945
24	0x3daf35a0	0.0855515
25	0x3e177379	0.14790143
26	0x3e142b68	0.14469683
27	0x3e08df2a	0.1336638
28	0xbd1b065e	-0.03784787
29	0x3e832832	0.25616604
30	0xbde4b2dd	-0.11166928
31	0x3e74299e	0.23844
32	0xbd12bcd9	-0.03582463
33	0x3dbfa719	0.09358043
34	0x3e5e6b6e	0.21720669
35	0xbbe3329e	-0.0069335243
36	0x3e3e06e4	0.18557316
37	0xbd3550e8	-0.04426661
38	0x3cd24180	0.025665998
39	0x3d7ad282	0.061235912
40	0x3e0db802	0.13839725
41	0x3e1251da	0.14289036
42	0xb9d0b7be	-0.0003980975
43	0xbd789f2d	-0.060698677
44	0xbe3f35fe	-0.1867294
45	0x3dd7165c	0.105023116
46	0x3c79fed8	0.015258513
47	0x3d56313b	0.052293044
48	0x3e7460bb	0.23865025
49	0x3db8d52e	0.09025036

pi.net.4.weight f4 [4, 50]
0	0xbf126e7a	-0.57199824
1	0x3ece710d	0.40320626
2	0xbe733c53	-0.2375348
3	0xbeed46ce	-0.46343082
4	0xbd178648	-0.036993295
5	0x3e9c51a7	0.30531046
6	0xbea767b6	-0.32696313
7	0x3e5f1e1d	0.21788831
8	0xbc07c666	-0.008287048
9	0x3e985089	0.29748943
10	0x3e3e2576	0.18568978
11	0x3d531e39	0.051542494
12	0x3e24f904	0.16110617
13	0xbee00978	-0.43757224
14	0x3e85d8f5	0.26142088
15	0xbefb0d83	-0.49033746
16	0x3abe138b	0.0014501674
17	0x3e8d493e	0.27594942
18	0xbee2762c	-0.44230783
19	0x3e620d41	0.22075368
20	0xbdd8a89a	-0.10579033
21	0xbd78d83d	-0.060753096
22	0x3eba4f68	0.36388707
23	0xbec76f31	-0.3895202
24	0xbe9d127d	-0.30678168
25	0xbe943eae	-0.2895407
26	0x3e0d5042	0.13800147
27	0x3c4506ed	0.012025577
28	0x3dc3f6fe	0.095685944
29	0x3e837461	0.25674728
30	0x3dae9d52	0.085261
31	0x3e1c7519	0.15279044
32	0xbdab78d5	-0.08372656
33	0xbe0643f1	-0.13111855
34	0x3ea942fd	0.3305892
35	0x3cfa64fd	0.030565733
36	0xbe28ab92	-0.16471699
37	0xbc3ffacc	-0.0117175095
38	0x3e941d74	0.2892872
39	0xbe394860	-0.18094015
40	0xbe8776bb	-0.26457772
41	0xbe95ff1a	-0.2929619
42	0x3e4991fc	0.19684595
43	0xbe73a503	-0.23793416
44	0x3e303c66	0.1721054
45	0xbe5d5069	-0.21612705
46	0x3e01853f	0.12648486
47	0x3ecd3d85	0.40085998
48	0x3dc5c8a4	0.0965741
49	0x3e95dcd7	0.2927005
50	0xbe982a0f	-0.29719588
51	0xbddb553f	-0.10709619
52	0x3e693116	0.22772631
53	0x3e87a43c	0.26492488
54	0x3ea42dba	0.32066137
55	0x3e0817b1	0.13290288
56	0xbdfb9fc4	-0.12286332
57	0xbe8f111e	-0.27942747
58	0x3e52b4ef	0.20576833
59	0x3e698526	0.22804698
60	0x3dd5404e	0.10412656
61	0x3e7f5392	0.24934223
62	0x3ce34f30	0.02774772
63	0x3ecf0d86	0.40440005
64	0x3e98ce55	0.2984492
65	0x3e5f3027	0.21795712
66	0xbec9ccbe	-0.39414018
67	0xbea3d6c3	-0.31999788
68	0x3e765266	0.2405487
69	0x3ed922e6	0.42409438
70	0xbee2c154	-0.44288123
71	0xbe1fee33	-0.1561821
72	0xbe15a6dc	-0.14614433
73	0xbe6f6fcf	-0.23382495
74	0x3f116117	0.5678877
75	0x3e3bc36c	0.18336266
76	0x3de71da7	0.112849526
77	0xbeb8bd27	-0.36081812
78	0x3dcec0d6	0.10095374
79	0xbeb8fdd0	-0.36131144
80	0xbe417e8a	-0.18895927
81	0xbd576f39	-0.052596305
82	0xbeba23e2	-0.363555
83	0xbe516132	-0.20447233
84	0xbddb0a0e	-0.10695277
85	0xbdfc4ee3	-0.12319734
86	0x3eaf479b	0.34234318
87	0xbe265b51	-0.16245772
88	0x3e445592	0.19173267
89	0xbeb1dad6	-0.3473727
90	0xbe95916e	-0.29212517
91	0x3e3d75c2	0.18501952
92	0xbca82740	-0.020526528
93	0xbd88a0f5	-0.06671325
94	0x3dfd0f89	0.12356479
95	0xbe77d7ef	-0.24203466
96	0x3e91b78d	0.2846035
97	0xbe746f4a	-0.23870578
98	0x3dc95cea	0.09832175
99	0x3d305b9e	0.043056123
100	0x3eb6adad	0.3567938
101	0xbe462e40	-0.1935358
102	0xbe92b639	-0.2865465
103	0x3e8b71bb	0.27235207
104	0x3dd1cb94	0.102439076
105	0x3e12a744	0.1432162
106	0x3d373f1d	0.044737924
107	0xbea6e4ac	-0.32596338
108	0xbd00188a	-0.031273402
109	0xbe7ff90f	-0.24997352
110	0x3e840ffb	0.25793442
111	0x3e93e8a2	0.28888422
112	0xbba22c65	-0.00494914
113	0x3e475fa3	0.19470076
114	0x3e0763af	0.1322162
115	0x3d982cff	0.07430457
116	0xbeca20b8	-0.39478087
117	0xbdf00169	-0.11719019
118	0x3e92f902	0.28705603
119	0xbe379962	-0.17929605
120	0xbd6794c7	-0.05653837
121	0x3e6cd71f	0.23128937
122	0x3eac1544	0.33609974
123	0xbe928c3e	-0.2862262
124	0x3e57f103	0.21088032
125	0xbdc2ff76	-0.095213816
126	0x3ea9b426	0.33145255
127	0xbec8de2b	-0.39232
128	0x3e80f461	0.25186446
129	0xbdb27ac0	-0.08714819
130	0x3cd9edee	0.026602712
131	0x3e9b4591	0.30326512
132	0x3e8d9565	0.2765304
133	0x3e8c0750	0.2734933
134	0xbeab6342	-0.33474165
135	0x3e11e955	0.14249165
136	0xbd866065	-0.065613545
137	0xbdf0fa23	-0.1176646
138	0xbdb7925a	-0.08963461
139	0x3ef9423e	0.4868335
140	0xbe82c432	-0.2554031
141	0xbecb19c4	-0.39668095
142	0x3e500ea6	0.20318088
143	0xbe4f7860	-0.20260763
144	0xbecccb7c	-0.39998996
145	0x3e89e538	0.26932693
146	0xbdd237b6	-0.10264532
147	0x3ecff0c7	0.40613386
148	0xbecb35f0	-0.3968959
149	0xbed0c8c8	-0.40778184
150	0xbdff9fe0	-0.124816656
151	0x3e592bf2	0.2120817
152	0xbd8bf7bf	-0.06834363
153	0x3eafe7aa	0.34356433
154	0xbe636e48	-0.22210038
155	0x3d96f647	0.073711924
156	0xbe14692d	-0.14493246
157	0xbd7724e2	-0.06033791
158	0xbea272ba	-0.31728154
159	0xbb9c2b52	-0.0047659064
160	0x3ed01ccd	0.40646973
161	0x3d9e1ec2	0.0772071
162	0x3e962342	0.29323775
163	0x3e6761c2	0.22595885
164	0xbf02f5d8	-0.5115638
165	0x3f2df684	0.6795428
166	0x3e312c8a	0.17302147
167	0x3ec2a0c4	0.3801328
168	0x3dfab3ff	0.12241363
169	0x3dc3fb26	0.09569387
170	0x3d120ab6	0.035654746
171	0x3dffb2b4	0.12485257
172	0xbe177906	-0.1479226
173	0x3e476072	0.19470385
174	0x3ea4db97	0.32198784
175	0x3ef8e6ca	0.48613578
176	0x3d6ed2f9	0.058306668
177	0xbcfde9f7	-0.030995352
178	0xbdf65499	-0.120278545
179	0xbdc640f7	-0.0968036
180	0x3e68ff29	0.22753586
181	0x3dce5062	0.100739256
182	0xbea74b8c	-0.32674825
183	0x3d2ee57b	0.04269932
184	0x3cffef0d	0.031241918
185	0x3d48e5e3	0.049047362
186	0xbe0b3e26	-0.13597926
187	0xbe3d5f45	-0.18493374
188	0xbe826189	-0.25465038
189	0x3d7d6b6e	0.06187003
190	0xbc02ae35	-0.0079761045
191	0xbf5c7483	-0.8611528
192	0x3e3b190a	0.1827127
193	0xbe0b0fa8	-0.13580191
194	0xbe8ae298	-0.27126002
195	0xbda68e31	-0.081325896
196	0xbe73c55e	-0.23805758
197	0xbede4f6a	-0.43419963
198	0x3e941528	0.2892239
199	0x3e9fc483	0.31204614

pi.net.4.bias f4 [4]
0	0x3c9afb16	0.018918555
1	0x3e06cbd7	0.13163696
2	0xbc905471	-0.01761839
3	0x3dec44e9	0.11536581

v.net.0.weight f4 [64, 40]
0	0x3f1eae5b	0.61984795
1	0xbe2e31ca	-0.1701118
2	0xbcd52bb4	-0.026021816
3	0x3db12e14	0.08651367
4	0xbe7ea36c	-0.24867028
5	0xbe5e0bc0	-0.2168417
6	0x3d909204	0.070591
7	0x3d48d027	0.049026635
8	0xbeaf6099	-0.34253386
9	0x3d3cb13c	0.04606746
10	0x3d210948	0.039315492
11	0x3dde393e	0.10850762
12	0xbc0499f2	-0.008093344
13	0x3e1ca2ec	0.15296525
14	0x3d872f07	0.06600767
15	0xbe5ee04b	-0.21765248
16	0xbd9e0b4e	-0.07717
17	0x3d35ee3d	0.044416655
18	0xbc560cd3	-0.013064581
19	0xbcd4662a	-0.025927622
20	0x3f0f8d70	0.5607519
21	0xbd205bf4	-0.039150193
22	0xbd8ff37b	-0.07028862
23	0x3d8fad07	0.07015424
24	0xbe6a0071	-0.22851731
25	0xbe416d02	-0.1888924
26	0xbd75e9d2	-0.06003744
27	0x3e0bc577	0.13649546
28	0xbe8a43b8	-0.2700479
29	0x3de1382c	0.10997042
30	0xbcfbd497	-0.03074102
31	0xbc1cd112	-0.009571331
32	0xbcb66bb4	-0.022268154
33	0x3e86390e	0.26215404
34	0x3dbfb54f	0.09360754
35	0xbeb54d4d	-0.35410538
36	0xbda0cc39	-0.078514524
37	0x3ce66dbc	0.028128497
38	0xbccf34cc	-0.02529373
39	0xbd1fbd27	-0.03899875
40	0xbeaae01f	-0.33374116
41	0xbf40f561	-0.7537442
42	0xbe96c04b	-0.29443583
43	0xbeb4b084	-0.3529092
44	0x3ce77af1	0.028256865
45	0xbd5f60d8	-0.054535717
46	0x3bcb6454	0.0062070284
47	0x3e41a72b	0.18911426
48	0x3f8e7754	1.1130166
49	0xbdfb79ce	-0.12279092
50	0x3ddaf88d	0.106919385
51	0x3cfb86f9	0.030704008
52	0x3cbf1485	0.023325214
53	0xbef7f9fc	-0.4843291
54	0xbf384661	-0.7198239
55	0xbdc82e84	-0.09774497
56	0x3d338501	0.043828014
57	0x3c851fb8	0.016250476
58	0x3d8f0292	0.06982912
59	0xbd6f9566	-0.058492087
60	0xbe675e63	-0.225946
61	0xbf04d091	-0.5188075
62	0xbd9aa265	-0.075505055
63	0xbea27fc9	-0.31738117
64	0x3e249b7d	0.16074939
65	0x3d4338d5	0.04766162
66	0x3ccc725a	0.02495687
67	0x3e4d49db	0.20047705
68	0x3f97274a	1.1808865
69	0xbd782aa7	-0.06058755
70	0xbe67c248	-0.22632706
71	0xbc9326d4	-0.01796285
72	0x3c485790	0.012227908
73	0xbea229cb	-0.3167251
74	0xbf3d308e	-0.73902214
75	0xbd9eab1a	-0.07747479
76	0x3dae129a	0.08499642
77	0x3d252810	0.04032141
78	0x3d839256	0.06424396
79	0xbd0559b8	-0.032556266
80	0xbfc7f00a	-1.5620129
81	0xbde29fdb	-0.11065646
82	0xbd44ab46	-0.0480149
83	0xbda4fb91	-0.08055795
84	0xbd9deb69	-0.077109165
85	0xbdb4635f	-0.08808016
86	0xbd81212c	-0.06305155
87	0xbeef1e98	-0.4670303
88	0x3eb1e697	0.3474624
89	0x3e52a044	0.20568949
90	0x3cefc9cc	0.029271029
91	0x3ded6002	0.11590578
92	0xbc9e8dc5	-0.01935471
93	0x3e1140a1	0.1418481
94	0xbe382de4	-0.17986256
95	0xbd32629f	-0.043551084
96	0x3c894722	0.016757552
97	0xbdd7486c	-0.1051186
98	0x3d090c14	0.033458784
99	0x3c6df611	0.014523999
100	0xbfc1d34a	-1.5142605
101	0xbe08f227	-0.13373624
102	0xbe0528df	-0.13003872
103	0x3c36d3d0	0.0111588985
104	0xbe4f94f7	-0.2027167
105	0xbd35ffcc	-0.0444334
106	0xbdf01a42	-0.11723758
107	0xbf3b518c	-0.73171306
108	0x3eb0b6b4	0.3451439
109	0x3e76ffb7	0.24120985
110	0xbaf6ac46	-0.0018819652
111	0xbd5a599b	-0.05330811
112	0xbd358740	-0.044318438
113	0x3da0f0df	0.078584425
114	0x3da65c58	0.08123082
115	0xbda8099e	-0.08204959
116	0xbc83ff40	-0.016112924
117	0xbe04bf0a	-0.129635
118	0x3d9b9933	0.0759758
119	0x3c4c4b7f	0.012469172
120	0x3e20e3b3	0.1571186
121	0x3ef6e7c1	0.4822369
122	0xbe55381f	-0.2082219
123	0x3d57cfd7	0.052688446
124	0x3e9da244	0.3078786
125	0xbae5ca13	-0.0017531536
126	0x3d92d726	0.071699426
127	0x3f638364	0.8887236
128	0xbeffc5c5	-0.49955574
129	0xbe424884	-0.18972975
130	0xba883c35	-0.001039392
131	0xbd88479d	-0.06654284
132	0x3ba4d061	0.0050297235
133	0xbe1eec95	-0.15519936
134	0x3e212c0d	0.1573946
135	0x3b4c5065	0.0031175849
136	0xbd9f5278	-0.077794015
137	0xba99e94e	-0.0011742504
138	0xb968187e	-0.00022134368
139	0xbded641f	-0.11591362
140	0x3d8c31d9	0.06845445
141	0x3f111983	0.5667955
142	0xbded71fd	-0.11594007
143	0x3de4a461	0.11164165
144	0x3ea7a0f6	0.3273999
145	0x3d913cd1	0.07091678
146	0x3de5dba9	0.112235375
147	0x3f510d8f	0.81661314
148	0xbef5c97b	-0.4800528
149	0xbe932cc2	-0.28745085
150	0x3de190ed	0.110139705
151	0x3e22c531	0.15895535
152	0xbbe16cbb	-0.0068794168
153	0xbe96b6cd	-0.2943634
154	0x3e8059e4	0.2506858
155	0x3d311fb3	0.04324312
156	0xbd8eb067	-0.0696724
157	0xbc3e2907	-0.011606461
158	0xbd03749f	-0.03209364
159	0xbde30f70	-0.11086929
160	0x3e7292d2	0.2368882
161	0x3e5c48aa	0.21512094
162	0x3d99c139	0.075075574
163	0x3eb93660	0.36174297
164	0xbe60f895	-0.21969827
165	0x3c7cc7af	0.015428468
166	0x3d3c084c	0.04590635
167	0xbcc9c55b	-0.02463024
168	0xbb9b8875	-0.0047464916
169	0xbd6e62e7	-0.05819979
170	0x3d481bd7	0.048854675
171	0xbcfdda45	-0.030987868
172	0xbce891f8	-0.028389916
173	0xbd34d1ff	-0.04414558
174	0x3e43e438	0.19130027
175	0x3d8bdfe9	0.06829817
176	0xbd028dde	-0.031873576
177	0xbcf3b10f	-0.029747514
178	0xbd73e40a	-0.059543647
179	0x3c8cf11f	0.01720482
180	0x3dce3364	0.10068396
181	0x3df82a73	0.121174715
182	0x3e426f1c	0.18987697
183	0x3e968e12	0.29405266
184	0x3cdd76aa	0.027034122
185	0x3dc0b242	0.09409
186	0xbb8f4081	-0.004371703
187	0x3e5f6b1a	0.218182
188	0x3e16a450	0.14711118
189	0x3d2a0b1e	0.04151451
190	0xbd4a50fb	-0.049393635
191	0x3cdf5066	0.027260017
192	0xbd04657c	-0.032323346
193	0xbcd2c5d6	-0.025729101
194	0x3e8adf33	0.27123412
195	0x3e3cbc59	0.18431224
196	0xbc77fbba	-0.0151357
197	0xbce68ad5	-0.028142372
198	0xbda861b3	-0.0822176
199	0x3bd5bcaa	0.0065227346
200	0xbf5eb131	-0.8698912
201	0xbf42d202	-0.76101696
202	0x3df8d07b	0.121491395
203	0x3d9c6e88	0.0763827
204	0x3ba814fe	0.0051294556
205	0x3d88b569	0.06675226
206	0xbbb2f764	-0.00546162
207	0xbdd2fe8a	-0.10302456
208	0x3e30389c	0.17209095
209	0x3d82b275	0.06381694
210	0xbc1a5fa2	-0.009422215
211	0xbb765e07	-0.0037592666
212	0x3d8cf29c	0.068822116
213	0xbe928df5	-0.2862393
214	0xbe8dda75	-0.27705732
215	0x3d362d0f	0.044476565
216	0xbcf38a39	-0.029728996
217	0xbcfa9b12	-0.030591521
218	0x3cadf61d	0.02123552
219	0x3d5a2699	0.053259466
220	0xbf3d3732	-0.73912346
221	0xbf1793db	-0.59209985
222	0xbc26f503	-0.010190251
223	0xbafd4c04	-0.0019325023
224	0xbdfbe742	-0.12299968
225	0x3d340bed	0.043956686
226	0xbd3a0d99	-0.045423124
227	0xbe0cabab	-0.13737361
228	0x3ccb0b32	0.024785612
229	0x3ec271b2	0.37977368
230	0xbc8e46b7	-0.017367704
231	0xbc011c33	-0.007880258
232	0x3d4c84e4	0.049931422
233	0xbe13832c	-0.14405507
234	0xbea95691	-0.33073857
235	0xbdda53db	-0.106605254
236	0xbd4466b8	-0.047949523
237	0xbce97df1	-0.028502436
238	0x3abf8b9a	0.0014613748
239	0x3d68019a	0.056642152
240	0x3e9c95aa	0.30582935
241	0xbea4c970	-0.32184935
242	0xbd4b3b4d	-0.0496171
243	0x3d9cec32	0.07662238
244	0x3ea4235c	0.32058227
245	0x3c876ea4	0.01653225
246	0x3b247260	0.0025092587
247	0xbdda2206	-0.10651021
248	0xbcc627b1	-0.024188848
249	0x3db82d2d	0.089929916
250	0x3c4a57b1	0.012350009
251	0x3d3bdca0	0.0458647
252	0xbd0cc294	-0.03436525
253	0xbd025822	-0.03182233
254	0xbe269250	-0.16266751
255	0xbe00cbf4	-0.12577802

v.net.0.bias f4 [64]
0	0xbf7b6e47	-0.98215145
1	0x3dae2988	0.08504015
2	0xbf1fb250	-0.6238146
3	0xbf041bea	-0.51605093
4	0x3f96e224	1.1787763
5	0x3f639e37	0.8891329
6	0xbfab761b	-1.3395418
7	0x3df14ea4	0.11782578
8	0xbe924e4f	-0.2857537
9	0xbf848fcd	-1.0356385
10	0x3d80339b	0.06259843
11	0x3e95a792	0.29229409
12	0xbc9363ce	-0.017991927
13	0x3f7b294b	0.98109883
14	0xbe3a291d	-0.18179746
15	0x3e3ba03a	0.1832284
16	0x3eab7738	0.33489394
17	0xbf875de0	-1.0575523
18	0x3e9ee5e0	0.31034756
19	0xbd29ef9e	-0.041488282
20	0x3f0a900c	0.5412605
21	0x3eb77e62	0.3583861
22	0xbf51f8f8	-0.8202052
23	0x3d2f0d77	0.04273745
24	0xbecbc2c7	-0.3979704
25	0x3e8ef085	0.27917877
26	0x3e6f7c81	0.23387338
27	0xbed9d45e	-0.42544836
28	0x3df1c1bb	0.11804529
29	0x3f374810	0.71594334
30	0xbe7eed4c	-0.24895209
31	0xbf3238c8	-0.6961789
32	0x3e95c34d	0.29250565
33	0x3f472241	0.7778664
34	0x3e5b4118	0.2141155
35	0x3f3ee89f	0.745737
36	0x3dd5852c	0.10425791
37	0x3d835e95	0.064145245
38	0xbf6c6222	-0.9233724
39	0xbf66fe2a	-0.90231574
40	0x3f4d37de	0.8016337
41	0xbe855442	-0.26040846
42	0xbf505fe7	-0.81396335
43	0x3eb880a1	0.36035636
44	0x3e37b675	0.17940696
45	0xbe337de6	-0.17528495
46	0x3d8aeef2	0.067838565
47	0x3f65ddfb	0.8979184
48	0x3eeb2747	0.45928404
49	0xbd30ce7e	-0.043165676
50	0xbe3bbd89	-0.1833402
51	0x3df1420e	0.11780177
52	0x3ebba080	0.3664589
53	0x3dacff7f	0.084471695
54	0x3fc9f737	1.5778569
55	0x3f948633	1.1603454
56	0x3f44ae74	0.76828694
57	0x3eb98d38	0.36240554
58	0xbe7e5036	-0.24835286
59	0x3fa4689c	1.2844424
60	0xbf806afc	-1.0032649
61	0x3dbaf737	0.09129184
62	0xbfc41897	-1.5320004
63	0x3e961d53	0.29319248

v.net.2.weight f4 [64, 64]
0	0x3da71531	0.08158339
1	0xbe343879	-0.17599668
2	0xbe6491a2	-0.2232118
3	0xbccf5ba7	-0.025312258
4	0xbd1a75cc	-0.037709996
5	0xbc287fc7	-0.010284371
6	0x3cdf38aa	0.0272487
7	0xbf276253	-0.65384406
8	0x3ec1d4be	0.37857622
9	0xbda83ac4	-0.08214334
10	0x3ea8731f	0.3290033
11	0x3ce5b810	0.02804187
12	0xbe560091	-0.20898654
13	0x3d95619b	0.072940074
14	0xbeaf8ead	-0.3428854
15	0xbe794bc2	-0.24345306
16	0x3db6656f	0.08906066
17	0xbda3805d	-0.07983468
18	0x3ee4643a	0.44607717
19	0x3d97e3b6	0.07416479
20	0x3e268ad1	0.16263892
21	0xbe9c1ba7	-0.30489847
22	0xbe2969a5	-0.16544206
23	0xbede222f	-0.43385455
24	0xbad42b94	-0.0016187304
25	0x3e3f59c7	0.18686591
26	0xbdf29cf5	-0.118463434
27	0x3d2dc2c7	0.042422082
28	0x3edffa33	0.43745574
29	0x3d9357ff	0.07194518
30	0xbed7c167	-0.42139742
31	0xbe169629	-0.14705719
32	0xbe185fb3	-0.14880256
33	0x3cf2ae5a	0.029624153
34	0xbec2de41	-0.3806019
35	0x3dc20415	0.09473435
36	0xbd0ea458	-0.0348247
37	0xbe3181cd	-0.17334671
38	0x3cf4dbda	0.02988999
39	0xbe469c02	-0.1939545
40	0x3e856d16	0.26059788
41	0x3de46783	0.11152556
42	0xbeb14e97	-0.34630272
43	0x3e8e62cf	0.2780976
44	0xbf64c934	-0.8936951
45	0x3e2c5cfb	0.16832344
46	0x3eaf5880	0.34247208
47	0x3cd0b5f2	0.025477383
48	0x3dd09e90	0.101864934
49	0xbf2e7aac	-0.6815593
50	0xbf04df98	-0.51903677
51	0xbe629905	-0.22128685
52	0x3e231f15	0.15929826
53	0xbea84fb4	-0.3287331
54	0xbe818412	-0.25296074
55	0x3e330351	0.17481734
56	0x3deac1d5	0.11462752
57	0xbea597f0	-0.32342482
58	0x3cc0d2d3	0.023538029
59	0xbd2c17ee	-0.04201501
60	0xbdd90210	-0.105960965
61	0x3ec97fa4	0.39355195
62	0xbe51d7f3	-0.20492534
63	0xbd9caf6a	-0.07650645
64	0xbd86849c	-0.06568262
65	0x3f1ec587	0.6202015
66	0x3e4ef4ab	0.20210521
67	0xbdaeb074	-0.085297495
68	0x3e3a7784	0.18209654
69	0xbd811af2	-0.063039675
70	0xbe046933	-0.12930755
71	0x3f70fde4	0.94137406
72	0xbf033cfc	-0.5126493
73	0xbe8c2d52	-0.27378327
74	0xbf0ac8de	-0.5421275
75	0x3b617c8c	0.003440651
76	0x3c297f1e	0.0103452485
77	0xbe21560e	-0.15755484
78	0x3e8edab3	0.2790123
79	0x3f0f9a48	0.5609479
80	0xbd2f5eeb	-0.04281513
81	0xbe32ff51	-0.17480208
82	0x3e923198	0.28553462
83	0xbe0c28d9	-0.13687457
84	0x3e94ba15	0.2904822
85	0xbf34e2d0	-0.7065859
86	0x3ee65625	0.44987598
87	0x3f025113	0.5090496
88	0xbd5ee652	-0.05441887
89	0x3e9907fa	0.29888898
90	0x3e68bd92	0.22728565
91	0x3dc9d5bb	0.09855219
92	0xbe70cc0c	-0.23515338
93	0x3d19dc80	0.0375638
94	0x3f1ed2b2	0.62040246
95	0xbdc1c8a5	-0.09462098
96	0xbf083787	-0.5320973
97	0x3ee9c5d3	0.4565874
98	0x3ebf9d31	0.37424615
99	0x3e4089a7	0.1880251
100	0x3d30c59c	0.043157205
101	0x3f043860	0.5164852
102	0xbe8f890b	-0.28034243
103	0xbebd59d3	-0.36982593
104	0x3e1a3de1	0.15062667
105	0xbd812f6c	-0.06307873
106	0xbed15211	-0.40882924
107	0x3c84f474	0.016229846
108	0xbdc12b36	-0.0943207
109	0xbedffeeb	-0.43749174
110	0xbdd9bd6f	-0.10631835
111	0x3e8f2372	0.2795673
112	0xbe22f414	-0.15913421
113	0xbf015f4a	-0.50536025
114	0xbf058fd0	-0.52172565
115	0x3e2bc5c6	0.16774663
116	0x3d6f2732	0.05838699
117	0xbe1f97f9	-0.15585317
118	0xbe7f8d97	-0.24956356
119	0x3c95ee25	0.018302033
120	0x3f371f71	0.7153235
121	0x3e638a2d	0.22220679
122	0xbed71e8f	-0.42015502
123	0x3e5b747c	0.21431154
124	0x3d922dcc	0.07137641
125	0xbe2fc599	-0.17165221
126	0x3eab9667	0.33513185
127	0xbe8f46ce	-0.27983707
128	0x3b72fbc2	0.003707633
129	0x3edc4bcc	0.43026578
130	0xbd34e4ac	-0.04416339
131	0xbd3dbaf0	-0.046320856
132	0xbe23cca5	-0.15996034
133	0xbe67891d	-0.22610898
134	0x3ebb0e2d	0.36534253
135	0x3f040f87	0.5158619
136	0xbd6c8654	-0.057745293
137	0x3de7b38c	0.11313543
138	0xbe8afbc0	-0.27145195
139	0xbdd74444	-0.105110675
140	0x3ea2fee3	0.31835088
141	0xbed5c42a	-0.41751224
142	0x3e6ab21f	0.2291951
143	0x3ef80987	0.4844477
144	0xbbb86005	-0.005626681
145	0x3e43a790	0.19106889
146	0xbe3aa789	-0.18227972
147	0xbe161307	-0.14655696
148	0xbcc3150b	-0.023813745
149	0x3ddfaca7	0.10921603
150	0x3da98ca0	0.08278775
151	0x3ed229b8	0.41047454
152	0xbb87788f	-0.0041342448
153	0xbe00db7b	-0.12583725
154	0x3e835f23	0.2565852
155	0xbd15b41f	-0.03654873
156	0xbe34645b	-0.17616408
157	0xbd7573a2	-0.05992473
158	0x3ec27102	0.37976843
159	0x3e438419	0.1909336
160	0x3e81fc28	0.25387692
161	0xbda8df31	-0.082456954
162	0x3eeb8335	0.4599854
163	0x3d3868fc	0.045021996
164	0x3d127535	0.03575631
165	0x3eabb7ad	0.3353857
166	0x3d8d7cca	0.06908567
167	0x3e6a7a19	0.22898139
168	0xbe789e03	-0.24279027
169	0x3d03d4b9	0.03218529
170	0x3e9783b4	0.2959267
171	0xbe704a5d	-0.23465867
172	0x3eb0c207	0.3452303
173	0xbe48f2df	-0.19623898
174	0xbe4b6807	-0.19863902
175	0xbd93e610	-0.07221615
176	0xbe5ea766	-0.21743545
177	0x3ea9b3ec	0.33145082
178	0x3ea661d0	0.324965
179	0x3e310966	0.17288741
180	0x3e341bcb	0.17588727
181	0x3e23a377	0.15980326
182	0xbe429545	-0.19002254
183	0xbe6fe22c	-0.23426121
184	0x3d1fd434	0.039020732
185	0x3ead5d60	0.33860302
186	0xbe4241a0	-0.18970346
187	0xbcc27cb2	-0.0237411
188	0x3e4f0e86	0.20220384
189	0xbe571f25	-0.21007974
190	0x3d929567	0.071574025
191	0xbe1d6c83	-0.15373425
192	0x3dbba7cb	0.09162863
193	0x3eeb5f2b	0.45971045
194	0x3dc5da60	0.09660792
195	0xbe485d1e	-0.19566771
196	0x3df35c89	0.11882884
197	0xbd514245	-0.05108859
198	0xbda9fb97	-0.0829994
199	0x3f105774	0.5638344
200	0xbe8cedee	-0.27525276
201	0xbd3cfc02	-0.04613877
202	0xbe7286e2	-0.23684266
203	0x3e59f384	0.212843
204	0x3eb44e11	0.3521581
205	0x3b3ba1be	0.0028630341
206	0x3de46845	0.111527
207	0x3ebf8f26	0.374139
208	0x3e39999f	0.18125008
209	0xbe0d90e0	-0.13824797
210	0xbb17c390	-0.0023157336
211	0xbc179fa7	-0.009254373
212	0x3ebf6dfd	0.37388602
213	0x3f00cc9a	0.503122
214	0x3e8ae3cb	0.27126917
215	0x3e8c037c	0.27346408
216	0xbea84ce7	-0.32871172
217	0xbddcbbd8	-0.10778016
218	0xbe68fd9f	-0.22752999
219	0xbdbda612	-0.09260191
220	0xbe11c20a	-0.14234176
221	0xbd90b4eb	-0.07065757
222	0x3afccbae	0.0019286775
223	0xbec14d85	-0.37754455
224	0x3f08d61d	0.5345171
225	0x3e02c658	0.12770975
226	0x3eff1a34	0.4982468
227	0x3ce84c6b	0.028356751
228	0x3eacd7ba	0.33758336
229	0xbf28faba	-0.6600758
230	0xbe98952c	-0.2980131
231	0x3ddac768	0.10682565
232	0x3d8c2f41	0.068449505
233	0x3e2ac030	0.16674876
234	0x3d13ab91	0.03605229
235	0xbe909252	-0.28236634
236	0x3f22c9ef	0.63589376
237	0xbeb48939	-0.35260943
238	0xbee3e690	-0.44511843
239	0x3ebc3e87	0.36766455
240	0xbd73ead1	-0.05955011
241	0x3e90dd32	0.2829376
242	0x3ea4e55b	0.32206234
243	0x3e9ab6d6	0.30217618
244	0xbeaad2a8	-0.33363843
245	0x3e15a86e	0.14615032
246	0x3c7ed3fa	0.015553469
247	0xbe2ee4da	-0.17079487
248	0x3e1604eb	0.14650314
249	0x3e9d20fe	0.30689234
250	0xbeabf438	-0.33584762
251	0x3d87ba5c	0.06627342
252	0xbc0928d4	-0.008371551
253	0xbbbcd3cb	-0.0057625524
254	0x3ee7f56a	0.45304424
255	0xbe31f74b	-0.17379491

v.net.2.bias f4 [64]
0	0x3ee2de83	0.44310388
1	0x3f17fd5c	0.5937097
2	0xbedf9d60	-0.43674755
3	0x3f391933	0.72304076
4	0xbf236fc9	-0.63842446
5	0x3f400f82	0.75023663
6	0x3eec4e2a	0.46153384
7	0x3eb549cb	0.35407862
8	0xbeb49717	-0.35271522
9	0xbeb0745a	-0.3446377
10	0x3ec59049	0.38586643
11	0xbebf2f2c	-0.37340677
12	0x3e142b01	0.1446953
13	0xbeaed9be	-0.341505
14	0x3e8891bb	0.26673684
15	0x3ecc7d05	0.39939132
16	0x3e9b5bb8	0.30343413
17	0xbf3ee43e	-0.7456702
18	0x3f17d386	0.59307134
19	0x3ebdb618	0.3705299
20	0xbe8f002c	-0.2792982
21	0xbf27803c	-0.65430045
22	0xbf295d67	-0.66158146
23	0x3f17e2fd	0.5933073
24	0x3ead9fde	0.3391103
25	0x3ed7af52	0.42125946
26	0x3ed850d6	0.42249173
27	0x3ef33eff	0.47509
28	0xbf03f3d7	-0.51543945
29	0x3ed277e9	0.4110711
30	0xbf066703	-0.52500933
31	0x3efb94b1	0.4913688
32	0x3e2f22fc	0.17103189
33	0x3f2ccaf6	0.67497194
34	0xbe880408	-0.26565576
35	0x3d493615	0.049123842
36	0xbe87433f	-0.26418492
37	0xbeeb82d2	-0.45998245
38	0xbf28b6cf	-0.65903944
39	0xbf07c7c0	-0.5303917
40	0x3f0858a0	0.5326023
41	0x3dcb7121	0.09933687
42	0x3e4b17c7	0.19833289
43	0x3ef689fb	0.48152146
44	0xbe184673	-0.14870624
45	0x3eef9c6a	0.46799022
46	0xbe40f09b	-0.18841784
47	0x3ebf99b3	0.3742195
48	0x3f0ad4b6	0.5423082
49	0xbf13584d	-0.5755661
50	0xbeb7429c	-0.35793006
51	0xbf0431f2	-0.5163871
52	0xbe3f6f17	-0.18694721
53	0xbf0eba69	-0.5575319
54	0x3e9c9841	0.3058491
55	0xbee74ca9	-0.45175675
56	0x3f12b8b9	0.57313114
57	0x3f07a159	0.5298057
58	0x3f04ed46	0.5192455
59	0x3ed00d7f	0.40635297
60	0x3e5699f7	0.2095717
61	0xbd8d1bc3	-0.06890061
62	0xbda02c74	-0.07820979
63	0xbee1de4d	-0.44114915

v.net.4.weight f4 [1, 64]
0	0xbe19faa4	-0.15037018
1	0xbe4689f8	-0.19388568
2	0x3e350782	0.17678645
3	0xbd8f0703	-0.06983759
4	0x3e2f950a	0.17146698
5	0xbe0a04c9	-0.13478388
6	0xbe1d2045	-0.15344341
7	0xbda11fdd	-0.078674056
8	0x3dae9ec0	0.08526373
9	0x3d7d6425	0.061863083
10	0xbdb6242b	-0.08893617
11	0x3e66578c	0.22494334
12	0xbd6e2a4a	-0.0581458
13	0xbea10e63	-0.3145629
14	0xbe48e9be	-0.19620416
15	0xbdcfe706	-0.10151486
16	0xbe15e3f5	-0.1463774
17	0x3e7149c3	0.23563294
18	0xbe577915	-0.21042283
19	0xbe2c1056	-0.16803107
20	0x3d223754	0.039603546
21	0x3e2bf4df	0.1679263
22	0x3e52aef1	0.20574547
23	0xbe040f2f	-0.12896417
24	0xbd3dac13	-0.04630668
25	0xbda3d2fd	-0.07999227
26	0xbe274b89	-0.16337408
27	0xbdd2d0d7	-0.10293739
28	0x3e44f9ab	0.19235866
29	0xbe3ad55e	-0.18245456
30	0x3da9992c	0.08281168
31	0xbe4a19b0	-0.19736362
32	0xbe5c0952	-0.2148793
33	0xbe4f6932	-0.20254973
34	0x3df708db	0.12062236
35	0xbe52ace9	-0.20573772
36	0x3e159ae8	0.14609873
37	0x3e2f5a1b	0.17124216
38	0x3e3a6ee8	0.1820637
39	0x3e07212e	0.13196251
40	0xbe52a88b	-0.20572107
41	0xbd9f4a65	-0.077778615
42	0xbe6b3f61	-0.22973396
43	0xbe031ed6	-0.12804732
44	0x3e0eb0c7	0.13934623
45	0xbde1ac56	-0.110191986
46	0x3e81a29f	0.25319383
47	0xbdd8eefa	-0.10592456
48	0xbe35bc36	-0.17747578
49	0x3e06be90	0.13158631
50	0x3ce215a4	0.02759821
51	0x3dfd86dd	0.12379239
52	0x3e3fbeae	0.18725082
53	0x3e28c4eb	0.16481368
54	0xbdfde30c	-0.123968214
55	0xbe989ec4	-0.2980863
56	0xbe5bc3b3	-0.21461372
57	0xbde559b8	-0.11198753
58	0xbe22e217	-0.15906559
59	0xbe339560	-0.17537451
60	0xbdb1c347	-0.08679824
61	0x3ebf82b9	0.3740442
62	0x3e067293	0.13129644
63	0x3e3b0b5f	0.18266056

c.net.0.weight f4 [64, 40]
0	0x3dc27f30	0.09496915
1	0xbc5a0217	-0.013306162
2	0x3dd6e254	0.104923874
3	0x3e1f1109	0.15533842
4	0xbd13b244	-0.03605868
5	0x3df6b2e5	0.1204584
6	0xbb971f4e	-0.004611886
7	0x3ca76698	0.020434663
8	0x3d3f21ce	0.046663098
9	0xbde00b26	-0.109396264
10	0x3d6bb3ef	0.057544645
11	0x3e15e73d	0.14638992
12	0x3e02d533	0.12776642
13	0x3d75705d	0.05992161
14	0xbd663c5e	-0.056209914
15	0x3d5ad916	0.053429686
16	0xbe153709	-0.14571775
17	0x3e0629e3	0.13101916
18	0x3d0e1c9a	0.034695245
19	0xbe098b35	-0.1343201
20	0xbca04b19	-0.01956706
21	0xbbd93699	-0.006628823
22	0x3dbebe2f	0.093136184
23	0xbd8e3cc7	-0.06945186
24	0x3c20fab9	0.009825402
25	0xbbada0f9	-0.0052987305
26	0xbd80f603	-0.06296923
27	0x3d9bbf10	0.07604802
28	0x3dd2c56e	0.10291563
29	0xbe1139a7	-0.14182149
30	0x3d90cb54	0.07070032
31	0x3da9405a	0.08264227
32	0x3e01e088	0.12683308
33	0xbd4cd992	-0.05001218
34	0x3c3889e6	0.011263346
35	0x3bba532a	0.0056861835
36	0xbe1e8387	-0.15479861
37	0xbe05b50d	-0.13057347
38	0xbd183869	-0.037163172
39	0x3c991232	0.018685434
40	0xbdd8b98c	-0.10582265
41	0x3e0bbee4	0.13647038
42	0x3d0b1bda	0.03396211
43	0xbc993083	-0.01869989
44	0xbcb975d8	-0.0226392
45	0x3e004ecd	0.1253006
46	0xbdcddf78	-0.10052389
47	0x3bd6b707	0.0065525803
48	0x3e2096eb	0.1568257
49	0x3e012f7d	0.12615772
50	0x3d1ec3d3	0.03876097
51	0xbd4bebf2	-0.04978556
52	0x3e11d269	0.14240421
53	0x3d62d8f5	0.055382688
54	0x3deb5f3e	0.114927754
55	0xbd65699a	-0.056008913
56	0xbd898860	-0.067154646
57	0x3c5b42aa	0.013382593
58	0x3d2ddc68	0.042446524
59	0xbe0938ed	-0.13400622
60	0xbceb7a4d	-0.028744841
61	0x3e1d0661	0.15334465
62	0xbcd801cd	-0.026368046
63	0xbe04ebda	-0.12980595
64	0x3e04ba37	0.1296166
65	0xbe122069	-0.14270176
66	0xbd86fe91	-0.065915234
67	0x3dc4d81c	0.09611532
68	0xbdc69c2b	-0.096977554
69	0xbdde4dc0	-0.108546734
70	0x3d210315	0.03930958
71	0x3d434d91	0.047681395
72	0xbd7bab56	-0.061442696
73	0xbd73a728	-0.059485584
74	0xbc8c22db	-0.017106464
75	0x3c44c622	0.012010129
76	0xbdda1819	-0.106491275
77	0x3e08bd3d	0.13353439
78	0xbdeb5099	-0.11489982
79	0xbe1661f0	-0.14685798
80	0x3c950e4c	0.018195294
81	0x3dd6ecf9	0.10494418
82	0x3d49d567	0.049275782
83	0x3e0cd725	0.13753946
84	0xbd494238	-0.049135417
85	0xbdf1d92b	-0.11809
86	0xbd177c19	-0.036983583
87	0x3da4ae73	0.08041086
88	0xbd43cd20	-0.047803044
89	0x3dde0f5e	0.10842775
90	0x3c82a945	0.015949855
91	0xbc83603f	-0.016037105
92	0x3d84cdb0	0.06484544
93	0xbd2b04b0	-0.041752517
94	0xbe027ae4	-0.12742192
95	0x3cbdebfb	0.023183813
96	0x3d12a41c	0.03580104
97	0xbd909238	-0.07059139
98	0x3c979ff8	0.018508896
99	0xbd7d662c	-0.061865017
100	0xbe1e71ff	-0.15473174
101	0xbdd1fc9d	-0.1025326
102	0x3c9f9c07	0.01948358
103	0xbdd56ba9	-0.10420925
104	0x3c087285	0.008328085
105	0xbd043799	-0.032279585
106	0x3e1d9f5f	0.15392826
107	0x3c90fba7	0.017698122
108	0x3e1c75b6	0.15279278
109	0x3d04d255	0.03242715
110	0x3c3b3a2b	0.011427443
111	0xbc10a2b7	-0.008827857
112	0x3e1f8429	0.15577759
113	0x3da32cf5	0.07967559
114	0x3e1d3bfd	0.15354915
115	0xbd4ba06d	-0.04971354
116	0xbdd1d546	-0.10245757
117	0x3ca56283	0.020188576
118	0x3da58725	0.080824174
119	0xbd60277b	-0.05472515
120	0x3caab588	0.020838514
121	0x3df77f1c	0.12084791
122	0xbe20bc25	-0.15696771
123	0x3dcc3395	0.09970776
124	0xbcb4963f	-0.0220443
125	0xbe10e739	-0.14150704
126	0x3e0bcb64	0.13651806
127	0xbd1f02f4	-0.038821176
128	0x3e1101e8	0.14160883
129	0x3d37e4e8	0.044896036
130	0x3e1cd1f7	0.1531447
131	0x3dc5476f	0.096327655
132	0xbdeaa0b7	-0.11456435
133	0x3dee8ead	0.11648307
134	0xbd1db7c3	-0.038505327
135	0xbdd6d609	-0.10490043
136	0xbe0971ca	-0.13422313
137	0xbdb8f222	-0.09030558
138	0xbd174fb5	-0.03694125
139	0xbdb62822	-0.088943735
140	0xbd7b0d2f	-0.06129187
141	0x3d59d368	0.05318013
142	0xbd3f0414	-0.04663475
143	0xbd63875b	-0.055549007
144	0xbdcbdd7d	-0.09954355
145	0xbe11c687	-0.14235888
146	0x3e045152	0.12921646
147	0x3e08a117	0.13342701
148	0x3de59441	0.11209918
149	0x3dff5d48	0.12468964
150	0x3d6c3420	0.057666898
151	0xbd5e3a9a	-0.054255106
152	0x3e18988a	0.14901939
153	0x3e1c3d3c	0.15257734
154	0xbc3a5b3a	-0.011374289
155	0x3c71f230	0.014767215
156	0x3dbfbb62	0.09361912
157	0x3e219a46	0.15781507
158	0x3da1ebcc	0.07906303
159	0x3ce38fea	0.027778585
160	0xbc658c87	-0.014010555
161	0xbdefa055	-0.11700503
162	0x3e1e2796	0.15444788
163	0x3d28b001	0.041183475
164	0x3dc9a755	0.09846369
165	0xbda027ff	-0.07820129
166	0x3d0b41fa	0.033998467
167	0xbd7cbb1d	-0.061701883
168	0x3d2c46aa	0.042059578
169	0xbe0b6202	-0.13611606
170	0x3d313266	0.043260954
171	0xbd9e8599	-0.077403255
172	0xbc9101d2	-0.017701063
173	0x3c0e9ef2	0.008704888
174	0xbc809709	-0.01569702
175	0x3d7c8bc2	0.06165672
176	0x3c0135e6	0.007886386
177	0x3e0a8132	0.13525847
178	0xbe1db770	-0.15402007
179	0x3da3c5c1	0.07996703
180	0x3e12f3bb	0.14350788
181	0xbbde1cea	-0.006778349
182	0xbc5a5bfa	-0.013327593
183	0x3ddc0bf2	0.10744466
184	0xbca1dd2f	-0.019758789
185	0xbd37c8fb	-0.044869404
186	0xbd13ac7f	-0.036053177
187	0x3d43a5da	0.04776559
188	0x3d27f347	0.04100349
189	0x3d3024bc	0.043003783
190	0x3dcc07d3	0.0996243
191	0x3e0de6e8	0.13857615
192	0x3d3ecfd2	0.04658491
193	0xbd446c3f	-0.047954794
194	0x3df46943	0.119341396
195	0xbbd28d2e	-0.0064255213
196	0xbd8b7b8f	-0.06810676
197	0xbd9387ec	-0.072036594
198	0xbd7a9d42	-0.06118513
199	0xbdacf5ae	-0.08445297
200	0xbd74e1fb	-0.059785824
201	0x3d51002d	0.05102556
202	0x3be38a94	0.00694401
203	0x3dd1cab6	0.10243742
204	0x3c32747a	0.010892028
205	0x3d92dfa6	0.07171564
206	0x3d3cc1f9	0.046083424
207	0x3df59c93	0.11992755
208	0xbd55c85a	-0.052193023
209	0x3e18a51f	0.14906739
210	0xbcc23c86	-0.0237105
211	0x3c053fe2	0.008132907
212	0x3d5dd1a2	0.054155
213	0xbda22cda	-0.07918711
214	0xbca31d99	-0.019911574
215	0x3e028238	0.12744987
216	0xbe18d90f	-0.14926551
217	0x3e21ab1d	0.15787931
218	0xbc962493	-0.018327987
219	0x3d843b62	0.06456639
220	0xbde3c33b	-0.11121222
221	0xbc27e886	-0.010248309
222	0x3b2ac58a	0.0026057684
223	0x3e051363	0.12995677
224	0xbcc6633f	-0.024217246
225	0x3df44237	0.11926692
226	0xbbfb2079	-0.007663783
227	0xbd33913d	-0.043839682
228	0xbc8d5aa8	-0.017255142
229	0x3e0fe8b6	0.14053616
230	0x3dc86cec	0.097864
231	0xbda9a924	-0.08284214
232	0x3d4d29ef	0.05008882
233	0xbde5a86a	-0.11213763
234	0x3df48c71	0.119408496
235	0x3cc2e911	0.023792775
236	0xbc97239d	-0.018449599
237	0xbdbe95e7	-0.09305935
238	0x3debf75e	0.11521791
239	0xbc912c97	-0.017721457
240	0x3e04220d	0.12903614
241	0xbe0263b7	-0.1273335
242	0xbd345b7d	-0.044032563
243	0x3d1dfefe	0.038573258
244	0xbd5d81e2	-0.054078944
245	0xbd6570bd	-0.05601572
246	0x3d98ed79	0.07467169
247	0xbdf2c5d8	-0.11854142
248	0x3e117aea	0.14207044
249	0x3df5f5fa	0.12009807
250	0xbd0b70ae	-0.034043007
251	0x3dbd2522	0.09235598
252	0x3e20b217	0.15692936
253	0x3daba17c	0.0838041
254	0x3e1dc87c	0.1540851
255	0x3e0d76f2	0.13814905

c.net.0.bias f4 [64]
0	0x3e1a4158	0.15063989
1	0x3c6252b3	0.013813662
2	0xbd972395	-0.073798336
3	0x3d875860	0.06608653
4	0xbbb77cca	-0.005599593
5	0xbd869874	-0.06572047
6	0x3cd1d953	0.025616324
7	0x3daaa773	0.0833272
8	0xbd4031cc	-0.04692249
9	0xbdbea878	-0.093094766
10	0xbdfcd69e	-0.123456225
11	0x3bcc7e3e	0.006240635
12	0xbdd94471	-0.10608757
13	0x3cdaa317	0.026689095
14	0xbdfc2668	-0.12312013
15	0x3dd713cd	0.105018236
16	0x3da69cb9	0.08135361
17	0xbda00721	-0.0781386
18	0x3e01a9e8	0.1266247
19	0x3e04ecd8	0.12980974
20	0xbd79d900	-0.060997963
21	0x3da0ff59	0.07861204
22	0x3c612c4a	0.0137434695
23	0xbd8a205f	-0.067444555
24	0x3deecfe9	0.116607495
25	0xbc18d871	-0.009328947
26	0xbc1d17df	-0.009588211
27	0xbbce5729	-0.0062970114
28	0xbc64aa30	-0.0139565915
29	0xbdc3542d	-0.0953754
30	0x3ca08e93	0.019599235
31	0xbcdd35b6	-0.02700315
32	0x3dfd899f	0.12379765
33	0x3dc730ef	0.0972613
34	0x3d358d15	0.044324
35	0xbc4d3e45	-0.012527053
36	0xbde9a3c1	-0.11408187
37	0xbd1de395	-0.038547117
38	0xbde00126	-0.10937719
39	0x3db2b3c3	0.08725693
40	0x3d60a2d9	0.054842804
41	0xbd9814ef	-0.07425868
42	0x3d0c6a80	0.034281254
43	0xbd3cc259	-0.046083782
44	0x3e1a8b65	0.15092237
45	0xbce101a3	-0.0274666
46	0xbc34c28f	-0.0110327145
47	0xbdeff0b7	-0.117158346
48	0x3c12b43d	0.008954105
49	0x3dabbacb	0.08385237
50	0x3dfc5635	0.1232113
51	0x3e051fba	0.13000384
52	0x3e043137	0.12909399
53	0xbdc8ff84	-0.09814361
54	0xbd94f3b1	-0.07273043
55	0xbdccf6c4	-0.10008004
56	0xbe18e9b6	-0.14932904
57	0x3d355dd8	0.04427895
58	0xbbd18fb9	-0.006395307
59	0x3e1ec0b8	0.15503204
60	0x3c08123a	0.008305127
61	0xbe1060c9	-0.1409942
62	0xbd8ba4a6	-0.068185136
63	0xbb74d365	-0.0037357446
