experiments/07_control_structure_hypothesis/checkpoints/Attitude/ppo/2021-12-20__18-02-58/seed_00124/torch_save/model.pt (torch, 82448 bytes, 19 tensors)

obs_oms.mean f4 [40]
00000000: 6cf8 7f3e 5dc7 67bb ceb3 813f e87d eb39
00000010: b33b 5b3a 5ee0 a2bc 081e 7f3f 2c24 f33a
00000020: 0dfd 86bb 535a 88bb 2f33 c03b fd4f 933b
00000030: 0bb4 8d3a 5bdb 973a 1658 573b b5e5 59bc
00000040: 30be 0e3e 009b 3d3c 4926 743c e7c5 82be
00000050: 5dfd 7f3e 537e 6abb 6cb2 813f f58b ec39
00000060: cfac 5f3a 3846 a3bc 8121 7f3f 6282 fb3a
00000070: 26d1 88bb f74a 8ebb bddd c03b f2b6 943b
00000080: 31a1 a03a 64a2 943a 7084 583b 8a36 59bc
00000090: d52e 0d3e 7b80 3c3c 1488 773c 4ab1 82be
0.24997109 -0.0035366633 1.0132997 0.000449165 0.0008363083 -0.019882377 0.996552 0.0018550209
-0.0041195215 -0.004161158 0.0058654766 0.0044956193 0.0010811103 0.0011585759 0.00328589 -0.013299395
0.13939738 0.011572599 0.014901706 -0.25541613 0.24998994 -0.0035780862 1.0132575 0.00045117704
0.00085325254 -0.019930944 0.996605 0.0019188637 -0.004175323 -0.0043424326 0.0058858083 0.0045384103
0.001225507 0.00113399 0.0033037923 -0.013257632 0.13787396 0.0115052415 0.015108127 -0.25525886

obs_oms.std f4 [40]
00000000: 09bf 2e3e 004a 313e 8df4 1e3d 57c3 473d
00000010: dd60 473d a0e7 2c3d f40e 573b 98af b23e
00000020: 1695 b63e 8676 e33d c9b7 3e3f fad7 433f
00000030: 0d48 f83e 4985 683d 1809 663d 98f4 1e3d
00000040: 4b6b 703f 0629 383f 72f3 2f3f 293e 313f
00000050: 6fd2 2e3e a963 313e efb2 203d 8838 463d
00000060: 64cd 453d 7d5c 2b3d 5532 4f3b 2802 b33e
00000070: 7ef6 b63e 801f e63d d2f6 3e3f a110 443f
00000080: f7ba f83e 5ce1 6a3d 824d 683d e0b2 203d
00000090: 8784 703f 23cd 373f 7fae 2f3f 154c 313f
0.17065062 0.17313385 0.03880744 0.048770275 0.04867636 0.042213082 0.003281531 0.34899592
0.3566062 0.11106591 0.74499184 0.7650143 0.4849247 0.056767736 0.056161016 0.03880748
0.93913716 0.71937597 0.68730843 0.69235474 0.17072462 0.17323174 0.039233144 0.048393756
0.04829158 0.04183625 0.0031615694 0.34962583 0.35734934 0.11236477 0.7459537 0.76587874
0.48580143 0.057343826 0.056714542 0.03923309 0.9395222 0.7179739 0.68625635 0.69256717

pi.log_std f4 [4]
00000000: 4352 90c0 4352 90c0 4352 90c0 4352 90c0
-4.5100417 -4.5100417 -4.5100417 -4.5100417

pi.net.0.weight f4 [50, 40]
00000000: 9152 adbe e00f 50bb 2673 d23c 29c0 80be
00000010: e5a1 643e fff1 3bbd b16e 0e3d 26c6 77be
00000020: 3b6a 24be bf9b 3ebe e181 5d3e c415 353e
00000030: 9cd2 6fbc fa92 d5bd ed54 ea3c 9d91 ce3d
00000040: 0af5 273e 7679 e0bc b6a8 993d 1ff0 8c3e
00000050: 1dc3 9cbe e424 9d3d e4e0 0abc ae31 7abc
00000060: b7fc 1fbd 0d3f 353e 3ad2 073e ceef 5ebe
00000070: 8088 bdbc 4ce4 14be 0c35 903b 6e3a 3e3d
00000080: 249f f4bd a69b 0f3e 9544 cc3d 0522 28be
00000090: f598 03bd 23c7 f3bd 6f26 94be 3124 323e
000000a0: 136b 1f3e 0a0a a33e 44fd da3d 138c 5cbe
000000b0: 83aa 50bd c433 a8bd d8ce e03c 7cfb 113e
000000c0: 1af1 7b3d c6a6 debc 787a 13bd 2a04 8b3c
000000d0: 61e5 49be 44ed b8bc 2b54 af3d e43a aebd
000000e0: 182a 52bc c562 083e da49 4d3c 9020 d03d
000000f0: 4abf 1a3d 0fe6 203e 9a36 75bd d060 443b
00000100: 5a51 38be 052e a33d 62f2 c13d 33ad d43c
00000110: f324 563e 6918 2fbe 4545 923e 52bb 84bd
00000120: 7274 4fbe 6684 bc3d 98e7 c93d 8819 3cbd
00000130: 2ecd 9dbc a148 413e e1e4 76be 51ca 0c3d
00000140: 2235 413d b748 8fbe 1754 c43d 8d15 80bd
00000150: bc79 693d b867 3f3e b6ac 2e3d 5cb1 0d3e
00000160: 4c87 0abd dcca 18be c5f2 eebd 9660 47bd
00000170: df4e 70bd 0287 91be 2f31 073c b1f3 1f3e
00000180: e00d 813d 8c10 e43d 63e1 bf3c d043 a53c
00000190: 179a db3d aec5 92be b0df 11be 1a95 cab9
000001a0: 11f0 febd 2dec 4c3e d4b2 acbc e531 463e
000001b0: cc27 9abd 8530 d0bd 0c20 a2bd 5b1e c83c
000001c0: 9369 2ebe b28a 9abe cd0a 273e 763c f03d
000001d0: 0676 acbb c01c 0c3e 944f 09be 0447 67bd
000001e0: 4232 2e3e 577f 99be 9fe6 b6bd f3c5 613e
000001f0: ab02 ffbb 1006 123e 2e66 253e 21d1 a8be
00000200: 865a e6bd a31e 8bbc 208b 62bd 6ad8 97bc
00000210: 78b6 21be ce60 5cbd e9b1 3f3d 7c8c d33c
00000220: f407 dd39 1535 9c3d cde5 ebbd 406e 9e3e
00000230: 9a17 be3d 418b 9ebd 915a 07be 6b60 d73d
00000240: ba77 b9bd 0078 0bbd 6618 ba3e 6b79 0dbe
00000250: 8cff fdbb 1815 12be b952 373e 0196 23be
00000260: 09e4 31bd 3a17 00be ac8a 383e 3bef 1e3e
00000270: 1877 01be 9914 babd 02a1 513e 5a19 253d
00000280: 8963 9a3d f518 963e d70d bdbd 7ca1 913d
00000290: 0337 c3bd 0559 443e 35e3 613c 23e0 c23e
000002a0: 35dd 7dbe ee02 cb3d 595c 0b3e a8e4 b4be
000002b0: 6922 2d3d ebf8 f53c 78da 81bd 1870 a53c
000002c0: e52d fd3e 6d1c 30be 1ed6 b43b dc9e 51be
000002d0: ee78 15be dce6 a23e 34f3 233e 3983 da3d
000002e0: 8387 433d a839 303e 498f e83d fd60 5f3e
000002f0: ad0c a5be e9e3 7e3e b4f1 1e3e 287d 79be
00000300: 2e5b 07bc f62a 16be cf3e 70be a9cb dfbd
00000310: f4b5 68be a910 923d ada5 28be 6276 253b
00000320: 989f c63d d359 bc3c 512f fdb9 ba88 533e
00000330: 977e 5f3d 36d2 2a3c e118 583e 8822 093e
00000340: c22c 6d3e 7f85 1e3e ce2a 02bd 23ab 883d
00000350: 4522 e6bd ca5f 42be d65c 073e 72b6 94be
00000360: 0c6c a2be 788b 45be 9ea6 de3d 2e7a 833d
00000370: 742e 373e 0562 0e3b 4cf8 a03e d612 083e
00000380: da7f b9ba 5c33 833d 8128 d83e 0bea 363e
00000390: 719b 373e f633 b63e 9ee3 4fbe 8e23 86bd
000003a0: b4f7 c43d fcfc 3bbe ce35 473d f3c1 9bbe
000003b0: 0039 6c3e 4558 f03c 5279 f3bd 2a40 a13e
000003c0: f188 913d 98ba 503d 174b 2f3e 3e5e 473e
000003d0: a45c 0f3e 918d 3e3e 0b9f 05bd 0eba 4d3d
000003e0: bdfa bb3d 7e6a 84be 1986 28bd 4ec1 f1bd
000003f0: 7e07 8f3e f52d 3b3e 78da 08be be6e 4c3b
-0.33852056 -0.0031747743 0.025689673 -0.25146607 0.22327383 -0.045885082 0.034773532 -0.24196681
-0.16056149 -0.186141 0.21631576 0.17684084 -0.0146376155 -0.10428424 0.028604949 0.10086367
0.16402069 -0.027401667 0.07502882 0.27526948 -0.3061761 0.07673052 -0.00847647 -0.015270634
-0.039059367 0.17699833 0.13263789 -0.21771166 -0.023136377 -0.14540213 0.004400855 0.04644244
-0.11944416 0.14024219 0.099740185 -0.16419227 -0.032128293 -0.11903217 -0.28935573 0.17396618
0.1556819 0.31843597 0.10692838 -0.21537809 -0.050943863 -0.082129985 0.02744238 0.1425609
0.06150923 -0.027179133 -0.036005467 0.016969759 -0.19716407 -0.022574075 0.08560976 -0.08507326
-0.012827419 0.13318928 0.012529815 0.10162461 0.037780084 0.1571276 -0.059866525 0.0029964931
-0.17999783 0.07967762 0.09470059 0.025961494 0.20912533 -0.17099155 0.28568473 -0.06481041
-0.20259264 0.092049405 0.09858626 -0.045922786 -0.019262876 0.18875362 -0.24110748 0.03437263
0.047169812 -0.27985165 0.09586351 -0.062541105 0.05700086 0.1869191 0.04264518 0.13837188
-0.033820435 -0.14921135 -0.11667398 -0.048676096 -0.058668967 -0.28423315 0.008251472 0.15620305
0.063014746 0.111359686 0.023422902 0.020173937 0.1072275 -0.28666443 -0.14245486 -0.00038639532
-0.12448133 0.20011969 -0.021081366 0.19354971 -0.07527122 -0.10165504 -0.07916269 0.024428537
-0.17032461 -0.3018394 0.16312714 0.11730282 -0.005263093 0.13682842 -0.13409263 -0.05646421
0.1701136 -0.29979965 -0.08930706 0.22048168 -0.0077823005 0.14260125 0.1615226 -0.32972053
-0.11247735 -0.016982382 -0.05530846 -0.018535811 -0.15792263 -0.053803258 0.046800528 0.025823824
0.0004215833 0.07627312 -0.115184404 0.3094349 0.092818454 -0.07741404 -0.13218142 0.10516437
-0.09056039 -0.034049988 0.3634674 -0.13815849 -0.007751411 -0.14265859 0.1790265 -0.1597519
-0.043430362 -0.1250886 0.18021649 0.15520947 -0.12643087 -0.0908596 0.20471576 0.04030738
0.07538516 0.29315916 -0.09231155 0.07110879 -0.09531977 0.19174583 0.0137870805 0.38061628
-0.24791415 0.09912668 0.13609447 -0.353307 0.042269144 0.03002592 -0.06340498 0.020195052
0.49449077 -0.17198344 0.005518689 -0.20470756 -0.14596912 0.31816757 0.16010743 0.1066956
0.047736656 0.17209494 0.113554545 0.21814342 -0.32236233 0.24891628 0.1552189 -0.2436415
-0.008261485 -0.14664826 -0.2346146 -0.10927517 -0.2272566 0.07132084 -0.1646945 0.0025247564
0.09698409 0.02299205 -0.00048291174 0.20657626 0.054564085 0.010426095 0.2110324 0.13392079
0.23161605 0.15480612 -0.031779103 0.06673267 -0.11237005 -0.18981853 0.13219008 -0.29045445
-0.31723058 -0.19291484 0.108716235 0.06419788 0.17888814 0.0021725905 0.31439435 0.13288435
-0.0014152483 0.064062804 0.42218402 0.17862718 0.1793039 0.35586518 -0.20301673 -0.0654975
0.09617558 -0.18358225 0.048635297 -0.3042141 0.23068619 0.029338965 -0.118883744 0.31494266
0.071061976 0.0509592 0.17118488 0.19469544 0.14000183 0.18608691 -0.03262238 0.050226264
0.09178684 -0.25862497 -0.04114351 -0.11804448 0.27935404 0.1827925 -0.13364589 0.0031193937

pi.net.0.bias f4 [50]
00000000: 67a4 4f3c c87b e23d 9be1 bd3e e2eb 5f3d
00000010: 1aa7 d63d 67fc 1cbc 4e3a 553e 885a df3d
00000020: 71df 903d 188d ba3d dd1c 863e a241 963d
00000030: a4cf a9bd fbac 09be bfcb 28bd c666 1f3e
00000040: d48b e1bc e6c3 383e 0140 9c3e 587a a63d
00000050: aaf2 f93d 5ccc e23e 79e5 993e 2966 09be
00000060: e8f4 44bd 9e4f b33d 3818 863e 871e e43c
00000070: e9cf 283e 5a21 10be 2b0a ec3e 1952 973d
00000080: 7894 f73e 648e 233d 7a52 f83d 1905 203e
00000090: 4397 d53e bf53 4cbe b27e 4a3d 358c fcbd
000000a0: 2292 fa3b 9d09 633d 9b02 5c3e 4166 8c3e
000000b0: e7c7 a13e 2b97 a83e 9d33 473e 27e3 ae3b
000000c0: 6fd0 243e 3c70 a2bb
0.012673474 0.11058766 0.37086186 0.054668315 0.10481091 -0.009581662 0.20823023 0.10905939
0.07073868 0.09108943 0.26193896 0.07336737 -0.082915574 -0.13444893 -0.041209932 0.15566549
-0.027532496 0.1804348 0.3051758 0.08128804 0.122044876 0.4429654 0.30057886 -0.13417877
-0.048085123 0.0875542 0.26190352 0.027846588 0.16485561 -0.14075223 0.46101508 0.07388706
0.4835546 0.039930716 0.12125106 0.15626945 0.41716966 -0.19953822 0.049437232 -0.1233143
0.007646815 0.05542909 0.21485369 0.27421764 0.31597826 0.32927832 0.19453283 0.0053371373
0.16095136 -0.004957227

pi.net.2.weight f4 [50, 50]
00000000: 0d89 15bd 759f 90be 2432 03be 46a6 9e3e
00000010: 9f28 30be 6c8e c4bd edb4 7d3d 5450 1fbb
00000020: 297f 89bc 5466 d83d 05d7 4b3d d47c 2cbd
00000030: e211 263d 7ff1 9ebe 4e61 ea3d aa49 e63d
00000040: 7433 233e 764f f93d ef68 0a3d 7d8a a73d
00000050: 1257 bfbe f6ae 4b3e d230 cd3d 99c2 223c
00000060: b6e2 f43d 1eff 263e c5ea a9be c4bb 103e
00000070: bcf5 babd 1c73 c83c 405d 3abe c394 29be
00000080: 2db9 11be 5257 59be c2f5 4cbc 3186 6d3c
00000090: ab7a ebbd 8a64 173e 9184 fe3d 9c47 0f3e
000000a0: a40f 6abd e3e3 3f3e 3274 053e 77ee e9bd
000000b0: e45a b4bd c488 953e 3c1e cf3c 48ce ce3d
000000c0: 1dbe 073d f31a 91bc 2077 1a3d ef4b 17be
000000d0: 6b85 783e 914c 2d3d 16c5 c53d 3576 20bd
000000e0: 36e6 493e 2fe6 d6bd 2292 55bd 674e 54be
000000f0: 09d9 173e 4b0b 5a3d 2653 74bd 66a7 a13e
00000100: 7c31 b0bc c791 12bc 5bb1 0ebe ac62 463e
00000110: ab7b 2d3e 2544 1abe 3ea0 5c3d 8ca6 9e3d
00000120: 9729 5f3e 4d78 183c 6004 123e 5e41 16be
00000130: 5efd f13b ac7b d33d 689d 1fbe d7fd cf3d
00000140: 3135 7abd 16f0 a43d f88b 14be 86fd 3abe
00000150: 2558 dabd a6d8 2d3d bc2a 7d3e dd9a 1abe
00000160: cc1b febb 658d 21be 6fd8 3ebd b048 85be
00000170: 7aba 133e a1ba f03d 4864 b0bd 54b6 e53d
00000180: 72c0 ea3c af2b c2bc a03b f6bd aa80 4f3e
00000190: 6343 db3d 1afb dc3d eebd 113e 1330 01be
000001a0: fb16 92bd 419a 8d3e 034a a53d 1919 f8bd
000001b0: 45a1 6d3c 01cf a2be 0228 2ebe e40f 5a3e
000001c0: 05ed c4bd a59a 2d3e 5fa6 a7be 4811 0cbe
000001d0: b973 1c3e 6056 56be 306d 39be 034a 4b3e
000001e0: 9a75 2fbc 990e 19bb ffa9 51be 85b5 a43d
000001f0: 4427 323e 0006 bebe 4135 3a3d 32f8 d43d
00000200: 00d1 8a3d 43ef 01be 0393 35be 6b29 80bd
00000210: 180d 2e3b 6005 5d3e 6697 73be 5074 9cbc
00000220: 7c97 5d3e 5c15 a13e 4b4f cfbd 6966 b23d
00000230: 52b3 123e 846a ac3d 3912 4a3e 6876 94bd
00000240: b0ff 683e ca35 21be fb21 543e ddc6 78bd
00000250: 12f1 e4bd 3afa 973c 1e0b 8bbd 7712 c13c
00000260: c3a8 753d 3a8a 933c af4c afbd c32a fbbd
00000270: 719d 163e d2b5 cb3b f82a dc3d d623 ba3c
00000280: 260b fc3b 6e6f 86be 3379 053e 0a32 803d
00000290: 709c a7bc 90bb 8ebd 16cf b83d 51d9 44bd
000002a0: 8e6f 23be 5383 ab3c 2359 c7bc 4509 1abe
000002b0: 9335 32bd a48c 6ebd a528 223e 544f 123d
000002c0: 0906 2e3d 02c4 1dbe 9f7c ac3d 59bf 89be
000002d0: 7de1 0b3e 89cb d13c 7451 4abc f238 9ebe
000002e0: 13c0 3b3d 0fe3 3e3e 573a 063e 391f 30bb
000002f0: 8f8f b2bc 5cda ca3c 3d4e 093e 2f02 febd
00000300: 24ee 3c3e d6a8 ddbd 8b16 e53d ac35 733e
00000310: bcef 6cbe d292 f53d bfda a73d 2cd3 34bd
00000320: 2a42 6e3e 039f 08be 123e f13d 787b c8ba
00000330: 8adc cbbe d2c9 81be 62d1 6bbd 707c 06be
00000340: 135c 9c3d b27f b23c 2920 cebd 7156 22be
00000350: c277 4e3e 53c4 003e 844c b63c c83e a2bd
00000360: 0e2a c63c 34bc 023e f6ac c43d 7e5f 373d
00000370: 8970 d43d 70f2 d93d 780f 223d 4ad5 393e
00000380: 52b3 663e 747a 00be 9d72 e0bd 97a1 ef3c
00000390: 2d96 f13c 68a8 3d3e fdd6 dc3d 4140 9a3e
000003a0: 714b a1be 98db 25bd a11d e5be 4911 283d
000003b0: 3a6e 6bbe 8260 7fbd 4a78 a2bc bfa1 96be
000003c0: 778c 27be d639 ce3c 56a1 abbd b7f0 f7be
000003d0: ba30 61be 4357 61be 016f 053c bbdf 70bd
000003e0: 0c85 3c3d 1750 713e 3a61 cd3d db80 3f3c
000003f0: 036e f4bd 3363 88be 038b 2f3e 3046 acbe
-0.036507655 -0.28246656 -0.12812096 0.30986232 -0.17202996 -0.09597477 0.061940122 -0.0024309354
-0.016784268 0.105663925 0.049765605 -0.042111233 0.040544398 -0.31043622 0.11444341 0.11244519
0.15937597 0.12173359 0.03379148 0.081807114 -0.37371117 0.19890961 0.10019077 0.009934091
0.11957304 0.16308257 -0.33186927 0.14134127 -0.09128901 0.02446895 -0.18199635 -0.16560654
-0.14230795 -0.21224716 -0.012509765 0.014497326 -0.114980064 0.14784446 0.12427629 0.1399216
-0.057143822 0.18739276 0.13032606 -0.11422437 -0.088063985 0.29205906 0.025282972 0.10097939
0.03314029 -0.017713046 0.037711263 -0.1477506 0.24269645 0.042309348 0.09656732 -0.03917523
0.19716725 -0.10493123 -0.052141316 -0.20733033 0.14828886 0.053233426 -0.05964961 0.31573027
-0.021507971 -0.008945889 -0.13934843 0.19373578 0.16941707 -0.15065058 0.053863756 0.0774661
0.21793209 0.009306026 0.14259481 -0.14673373 0.00738494 0.10326323 -0.1558739 0.10155838
-0.061085884 0.08053605 -0.14506519 -0.18260774 -0.106613435 0.04244294 0.24723333 -0.15098138
-0.0077547785 -0.15776594 -0.046593126 -0.2603202 0.14426604 0.11754347 -0.08612877 0.11216417
0.028656218 -0.02370247 -0.12023091 0.20263925 0.10706212 0.10790081 0.14232609 -0.12615995
-0.071332894 0.2765675 0.08070757 -0.12114162 0.014503782 -0.31798556 -0.1700745 0.21295124
-0.096155204 0.16953523 -0.3274412 -0.13678467 0.1527852 -0.20931387 -0.18108058 0.19852452
-0.010709191 -0.0023354648 -0.20475005 0.080424346 0.17397791 -0.37113953 0.045460943 0.10398902
0.06778145 -0.12688927 -0.17731862 -0.062579 0.0026558097 0.21584082 -0.23788223 -0.01909843
0.21639818 0.31461608 -0.10122546 0.087109394 0.14326218 0.08418754 0.19733514 -0.07249147
0.22753787 -0.15743175 0.20716088 -0.060736526 -0.11178793 0.018551935 -0.0678923 0.023568375
0.059975397 0.018010247 -0.08559548 -0.122640155 0.14708497 0.006216743 0.10750383 0.022722166
0.0076917587 -0.2625689 0.13034515 0.06259544 -0.020460337 -0.069693685 0.090238735 -0.04805881
-0.15960523 0.020936644 -0.024334496 -0.15042599 -0.043508124 -0.058239594 0.15835817 0.035720184
0.042486224 -0.15406802 0.08422207 -0.269038 0.13660236 0.025609748 -0.0123485215 -0.3090282
0.045837473 0.18641303 0.13108192 -0.002687408 -0.02179697 0.024762325 0.13408752 -0.1240276
0.18450218 -0.108232185 0.1118594 0.23750943 -0.23138326 0.119908944 0.081960194 -0.0441467
0.23267427 -0.13341908 0.11779417 -0.0015295586 -0.39816695 -0.2534929 -0.05757273 -0.13133407
0.07634749 0.021789405 -0.10064728 -0.15853287 0.20162871 0.12574892 0.022253282 -0.07922131
0.024189975 0.12767106 0.09603302 0.044768803 0.10373027 0.106419444 0.039565533 0.1814777
0.22529343 -0.12546712 -0.10959361 0.029251857 0.029490555 0.18521273 0.10783193 0.30127147
-0.3150287 -0.040492624 -0.44749168 0.04103211 -0.22991267 -0.062347896 -0.019832749 -0.29420277
-0.16362177 0.025174063 -0.08380382 -0.48425838 -0.21991244 -0.22005944 0.008144141 -0.058807116
0.04602532 0.23565708 0.1002831 0.011688436 -0.119350456 -0.26638183 0.17142873 -0.336473

pi.net.2.bias f4 [50]
00000000: 8f00 613d 5114 3cbd d923 82be 325f 743e
00000010: dfe4 cbbc ed07 dcbd 607b 263e 4c2a 333e
00000020: 5904 89bd 3f5d 663e bd13 8f3d ed7f f5bd
00000030: d0c1 1f3e 0a83 143e c4bd 05be e676 94bd
00000040: 683f e63d 1878 623d d86e c4bc 34f3 2a3e
00000050: 068f 373e 3551 fa3b 03bc 9d3d 7411 083e
00000060: 6ba6 24be af2c 76bd 40a6 03be 06c1 143d
00000070: 2910 f53c 71ba 96bc 80a2 843d 51ce 213e
00000080: 83b3 9dbd 4b07 613d ee6b 503c fabb 1b3e
00000090: b3cd 473e 78aa e33d b524 4d3e 2a50 403d
000000a0: b504 e03d fb78 6fbd c9aa 953c e107 223e
000000b0: f8ac 6d3d 0468 453e e369 163e 7bc3 c0bd
000000c0: 41fa 0a3e a5fd 643c
0.054932173 -0.045917813 -0.25417975 0.23864439 -0.024889408 -0.10743699 0.16258001 0.17496604
-0.066902824 0.22496508 0.06986187 -0.119872905 0.15601277 0.14503112 -0.13060671 -0.072492406
0.112425625 0.05529031 -0.023978636 0.16694337 0.17925653 0.007639075 0.07701876 0.13287908
-0.16079108 -0.060101207 -0.12856388 0.036316894 0.029914932 -0.018399449 0.06476307 0.1580136
-0.07700255 0.054938596 0.012721045 0.15208426 0.19512062 0.11116499 0.20033534 0.04695145
0.10938398 -0.058464985 0.018269913 0.15823318 0.058026284 0.1927796 0.1468883 -0.09412285
0.13572027 0.013976489

pi.net.4.weight f4 [4, 50]
00000000: 3387 9ebd 8f77 a33d 5723 173f 127a 1b3e
00000010: a150 633e c387 d2be 4465 ebbc 2d6e 793e
00000020: 45e3 ca3d 05a2 d0bd cea6 a83e 121f 73bc
00000030: 4f42 1fbd a1b8 5ebe a3f1 04bf a826 b63d
00000040: d08c ce3e 303f 63bd 64c8 fd3d b9f7 ccbd
00000050: dd8d 623e 99e2 a53e ba8e 8cbd 811d 333e
00000060: cb0f 91bd 2228 fdbd a0ea d7bd 974a 95be
00000070: 681d a63d 7110 47be 0446 71be b205 033f
00000080: b3f5 713e 5251 d8be 7d3d 6e3e b12a ff3c
00000090: 5ab3 e4bd 3829 58be fe15 aebe 321f 4d3e
000000a0: 2961 f13e 4789 31be eb80 0b3e ed96 d73d
000000b0: 6da6 9dbe 6ce4 f83e 3925 21be b1c6 a23d
000000c0: 9b7b 4d3e 44de b8be aaef 7cbe bf2a 62be
000000d0: 6c23 48bc 894b 63bd 4150 1dbe ba39 643e
000000e0: 0313 5abe 19af 7fbe 761d 23bd 7883 8bbe
000000f0: 76be 023e 792b d33e a83f b7be 835b 4d3e
00000100: 9269 813d e36f b83e c662 56be 0861 8e3e
00000110: a37f 67be 6370 8b3e 5aaf adbe 0161 cbbe
00000120: 6a49 73be 5cd5 a03e 91a6 3c3e 6239 f6bd
00000130: f123 b73e 68ee 4c3e fd40 d0bd 5dae 9bbe
00000140: e131 92bd d2d7 f33e 65da b73e 285e ffbd
00000150: f0e3 573e 8296 ad3e 96d9 d73c 61cd 333e
00000160: 156b 01bc bea0 3e3e c01a 42bd 8373 873e
00000170: b22f c73e 7dba c6be b9b2 8dbd 4790 d53d
00000180: 43dc 93be e2ab fd3b 4855 30be 7d6b 1fbe
00000190: f685 a8be f576 5f3e cb29 b43e 1f9b 85be
000001a0: 8b84 b5be a5f5 1e3f 8a90 2a3e 6770 c0be
000001b0: 0416 053d 60ff aabd 08c0 fabd 3278 24be
000001c0: 76ca 55be 65bf 05be ff72 a43c 8eb0 1b3e
000001d0: 5334 e3bc b5f7 333e d433 fdbd 826f fbbd
000001e0: 454f b5be ceb2 3d3e f8c6 bd3e 8bd1 45be
000001f0: d9ff f43b 7d51 63bd 47d4 bbbe d1d4 b5be
00000200: 9450 2c3e 2714 5b3e 880e 8ebd 964a edbd
00000210: 90ea b1be c3e4 04be 92dc d13e 255e 983e
00000220: 7a67 f8be b90b 813d 8e1c 693e bc05 fc3d
00000230: 48ec aebe 73f8 1c3e 6b1a 8e3e d515 54bc
00000240: 8f53 77be 792e 443c 4828 7fbe 73e7 9f3e
00000250: 9a62 ee3d 1461 273d 5016 b13e 55f7 9e3d
00000260: 2c0b ab3e d308 babc 9ffc be3e 4167 c53e
00000270: 0693 dbbc ef2c dd3e fc49 b53e 98ee 49be
00000280: 4886 253f f2f3 213f eecc 1d3d 8c79 533d
00000290: 7892 3e3e 0eee 5fbe 1852 a53e 2a3f 2a3b
000002a0: c4eb adbe e84c acbe e6fb 0cbd c9e7 96be
000002b0: 84ba b83d e192 d73d 87e0 a03e 528c dc3e
000002c0: 34d7 743e 353a ecbe 3ef8 29bd 8619 ed3e
000002d0: ffa2 09bf d4a5 67be 89f6 b3be bf17 0e3e
000002e0: 64d4 8439 2c43 21be 9964 0dbe 484d 99be
000002f0: 9f53 b7bd d71e 0e3d 656e b3be a559 2abd
00000300: aa74 50be e873 8fbe 801b 183e 8f53 4e3e
00000310: b31f 5e3e 6e5d de3d 8b28 b4bc 8f9e 6dbd
-0.07740631 0.07981788 0.590383 0.15183285 0.22198726 -0.41119203 -0.02873481 0.24358435
0.099066295 -0.10187153 0.32939762 -0.014838951 -0.038881596 -0.21750118 -0.5193121 0.08894092
0.40341806 -0.055480182 0.12391737 -0.10008187 0.22124429 0.32399443 -0.068631604 0.17491724
-0.070830904 -0.1236117 -0.10542798 -0.2915847 0.081110775 -0.19439866 -0.23561865 0.51180565
0.23628883 -0.42249542 0.23265643 0.031148287 -0.11167021 -0.21109474 -0.34001154 0.20031431
0.4714444 -0.17337523 0.13623397 0.10526834 -0.30791035 0.48611772 -0.15736856 0.07948054
0.20066683 -0.36107075 -0.247008 -0.22086619 -0.0122154765 -0.055491958 -0.15362646 0.22287646
-0.21296315 -0.24969138 -0.039823018 -0.2724874 0.12767968 0.41244105 -0.35790753 0.2005444
0.06318964 0.36022863 -0.20936117 0.27808404 -0.22607283 0.27234182 -0.33922845 -0.39722446
-0.23758474 0.3141278 0.18422915 -0.12022664 0.3576961 0.2001282 -0.101686455 -0.30406466
-0.0713842 0.47625595 0.3590881 -0.12469131 0.21083045 0.3390389 0.02634887 0.17558815
-0.0078990655 0.18616006 -0.047388792 0.26455316 0.38903576 -0.38814154 -0.06918854 0.10427909
-0.28878984 0.0077414373 -0.17220032 -0.15568347 -0.32914704 0.21822722 0.35188136 -0.2609491
-0.35452685 0.62093574 0.166567 -0.37585756 0.0324917 -0.0834949 -0.12243658 -0.16061476
-0.20878014 -0.13061292 0.020074366 0.15204069 -0.027734911 0.17574961 -0.12363401 -0.12277128
-0.3541204 0.1852524 0.37065864 -0.19318216 0.0074767885 -0.055497635 -0.36685392 -0.3551393
0.16827613 0.21394406 -0.06936365 -0.11586492 -0.3474927 -0.1297789 0.40988594 0.29759327
-0.48516446 0.06301064 0.22764799 0.12305781 -0.34164643 0.15329151 0.2775453 -0.012944658
-0.24152969 0.011973971 -0.2491771 0.3123127 0.116399005 0.040864065 0.34587336 0.077620186
0.3340696 -0.022709286 0.3730211 0.3855534 -0.026803505 0.43198344 0.35408008 -0.19719923
0.6465802 0.63262856 0.038525514 0.051629588 0.18610561 -0.21868154 0.32289195 0.002597759
-0.33968937 -0.33652425 -0.034419917 -0.29473713 0.0901995 0.10526062 0.314213 0.43075806
0.23910218 -0.46138158 -0.041496508 0.46308535 -0.5376434 -0.22621852 -0.3514903 0.13876246
0.00025335245 -0.1574828 -0.13807906 -0.29941773 -0.08951496 0.03469738 -0.35045162 -0.041589398
-0.20357004 -0.28018117 0.1485424 0.20149063 0.2169178 0.10857664 -0.021991989 -0.05801254

pi.net.4.bias f4 [4]
00000000: 3e2a 043e 4ab1 913d 9f97 de3d 1234 07be
0.12906739 0.07113893 0.10868763 -0.13203457

v.net.0.weight f4 [64, 40]
00000000: a95a e4be fef7 52be 6d17 a23d ce3e 11be
00000010: ac85 1fbe 28b5 d43d 8551 df3c 225d b23e
00000020: 7b88 203f a751 bdbb 46fc dbbd eefe e63d
00000030: 5857 35bb 2046 90be bf61 a3be 5cef 20bd
00000040: 6637 9abc f6de 6fbc 562a 65bd 8234 74bc
00000050: 125f 04bf dd2c e7bd 0235 0dbd ba8e 98bd
00000060: af85 f13c 88d8 93bd 9faf 36be 9837 873e
00000070: 3069 313f 53e2 b83d 2218 45bd d257 61bd
00000080: 3fbd 7bbd 88cf 05bf 954a c5be 6867 a8bc
00000090: 8183 80bd 9df1 933c 9d05 9bbd 8382 acbb
000000a0: 2e7a 21bf 1b33 cebe 2635 c83d 1d8d 7d3e
000000b0: aa13 123c c3da 4abc d441 9cbd 5ad2 9e3e
000000c0: b590 8abf 94f6 333e 5fd9 9abe aa52 2c3d
000000d0: debd 22bc 3568 9dbd be9f 6bbd 0c09 883e
000000e0: 5671 883c 3f07 97bd 43c9 a5bc d971 d23c
000000f0: 4e55 26bf c624 d9be 3c66 a53d 15e6 a03e
00000100: 48f5 cc3d 15c7 073e 81ae 063d 2e74 8e3e
00000110: 6c82 84bf 1a27 0abe d5c3 e03e 5a1d 2c3d
00000120: 1ecb 3f3c d6c8 06be 44c5 29be e3a7 f53d
00000130: 7d32 753b f9e6 bcbd a510 ab3c cbc0 b439
00000140: 2cee 3a3f 75fe 6d3f 387e 823d d62c 4e3d
00000150: 6551 81be 4071 a43d d68b db3d c71b 87bf
00000160: 531d 6dbe 9a13 123d 90bb 87bd 163b af3e
00000170: d965 12bc e1c8 1a3f 9f6c 043f a196 f03c
00000180: 4696 5d3d a129 1b3c ee6c 843c dcac 263d
00000190: 6e43 203f 27ac 5c3f e654 233e 9bf7 d83d
000001a0: 5b41 b9be 2600 3a3d d653 eabd 139e 77bf
000001b0: 288b 23be 1f8c 043e 1e27 c63d 569f c1be
000001c0: f48a eab8 3ff2 2b3f 056b b63e 92f4 29bd
000001d0: 1ed4 e33c 2167 f73b c86e 083d fabc 013d
000001e0: a5e7 2fbf 4ada 9c3e 95de 313e f26d a7be
000001f0: 1398 953c f437 a83d d96f b6bd 9b41 9abe
00000200: ca3d 073f 6408 4d3d 4731 24bb 14c3 a43d
00000210: fbbc 86bd 3337 3dbe 5b1a 9e3e edc1 cbbe
00000220: b74c afbd e521 a8bd 98f3 dc3b 9c73 41bd
00000230: 2d72 31bf 63a0 c23e 488c 1e3e 2005 3abe
00000240: b91b 22bc 9f69 083e b05d 023e c84d cfbd
00000250: 92fb 183f 91bb 36be 01e7 36be 218e d9bc
00000260: 63e0 c6bc d9ee 45be f761 133e 5f80 b6be
00000270: 967b b9bd 4268 3dbd d86b 49bc d574 58bd
00000280: 68c9 a73e f529 853f 5557 b93c e65f feba
00000290: f3d0 ffbd b162 c23d 9f8e 10be bcfc a63e
000002a0: 7ebe a83e aa27 84be d92f f8bb bd5f d83c
000002b0: c3f8 b03d 51a7 b1bd 01aa 733e d52e 053e
000002c0: c424 64bd 11a4 0b3e cdd9 b6bd 3feb cf3d
000002d0: 2b36 bc3e fb2d 6a3f e7fe 193e cc18 543e
000002e0: 7044 9b3d b182 9f3c 05c1 33be fae6 a73e
000002f0: 0d75 243e 5343 d33d 482b 543d 40ff b1bc
00000300: 100c dd3d d8c6 1a3d 4431 6f3e 9b39 0c3e
00000310: ed51 cabd 0307 993d b58b a1bd 3183 c93d
00000320: cebf 373f e082 0ebf 7274 803d 83f7 b93c
00000330: 882f a0bd 3f3d f33d 9877 893d 5b1a 86be
00000340: 8208 c6be ed91 573e 535c 943d a546 63bb
00000350: 9abe debb 3eaf 683e 4a47 e4bd 1614 50be
00000360: 421e 11be 72f4 633c bd03 793c b202 423c
00000370: aa8b 2e3f 7f41 28bf 39cf b73c 31c6 8dbd
00000380: cd73 d0bd 4606 033e 368c 253d 0ffb 10be
00000390: 69ac e5be 13d0 b8be 80a5 403e c4ab 77bd
000003a0: b3a6 143d 35c6 343e 3957 59bd 0d9b 29be
000003b0: 0ac3 c0bd 9d04 313d c5b5 8f3b 8a65 a33c
000003c0: d859 603f 9771 45bf 597a 8bbe 3337 3f3c
000003d0: c859 893d eba1 e13d f074 3a3c d08a 95bd
000003e0: 80dc 23bf afee bbbd 0897 a6bd 7632 27bd
000003f0: b42c 443d 9f50 d53e f325 6f3e 0efd 61bd
-0.44600418 -0.20602414 0.07914624 -0.14184114 -0.15578336 0.10386115 0.027260551 0.3483668
0.6270825 -0.005777556 -0.10741477 0.11279093 -0.002767047 -0.281785 -0.31910512 -0.03929077
-0.018825244 -0.01464056 -0.055948578 -0.014905097 -0.51707566 -0.11287854 -0.03447438 -0.07449098
0.02948269 -0.072190344 -0.17840432 0.26409602 0.6930113 0.09027543 -0.048118718 -0.055015393
-0.061459776 -0.5226979 -0.38533464 -0.02055712 -0.062750824 0.018059546 -0.0756943 -0.0052645816
-0.63077056 -0.40273365 0.09775762 0.24760862 0.008915821 -0.012381258 -0.07629743 0.3101986
-1.0825411 0.17574531 -0.30243966 0.042071022 -0.009932963 -0.076858915 -0.05752539 0.26569402
0.016655605 -0.07374429 -0.02023757 0.025689052 -0.64973915 -0.42410868 0.0807614 0.3142554
0.10007721 0.13259538 0.032881264 0.27823013 -1.0352302 -0.13491479 0.43899408 0.04202018
0.011706142 -0.1316255 -0.16579157 0.119949125 0.0037414127 -0.09223742 0.02088196 0.00034475917
0.7301967 0.92966396 0.063717306 0.050335728 -0.25257412 0.08029413 0.10720031 -1.0555352
-0.23155718 0.035663225 -0.066275716 0.34224766 -0.008935415 0.60462767 0.5172824 0.0293687
0.05409839 0.009470374 0.016165223 0.040692195 0.6260289 0.86200184 0.15950355 0.10594102
-0.36182675 0.045410298 -0.11441772 -0.9672558 -0.15971053 0.12944077 0.0967543 -0.37816876
-0.000111838715 0.67166513 0.35628524 -0.041493006 0.027811106 0.0075501357 0.033308774 0.031674363
-0.68712837 0.3063529 0.17370065 -0.3270107 0.018260991 0.08213797 -0.08908052 -0.30128178
0.5282866 0.05005683 -0.0025053786 0.08045021 -0.06579014 -0.18478088 0.30879483 -0.3979639
-0.08559554 -0.0820959 0.006742906 -0.047229394 -0.69314843 0.3801299 0.154832 -0.18166018
-0.009894305 0.13321541 0.12731051 -0.101222575 0.59758866 -0.17844988 -0.17861558 -0.02655703
-0.024276918 -0.19329394 0.1439284 -0.35644814 -0.09056775 -0.046242006 -0.012293778 -0.052845795
0.32770848 1.0403429 0.022624651 -0.0019407242 -0.12491026 0.0949148 -0.14116906 0.32614696
0.32957834 -0.2581151 -0.0075740633 0.02641284 0.086411975 -0.08674491 0.2379532 0.13006146
-0.055699125 0.13636805 -0.08928261 0.101522915 0.36760077 0.9147641 0.15038644 0.20712584
0.07581413 0.019471498 -0.175541 0.3279341 0.16060276 0.103155755 0.05179909 -0.021728158
0.10793316 0.03778729 0.23358637 0.1369385 -0.09878907 0.074720405 -0.07887975 0.09839476
0.71777046 -0.5566845 0.0627221 0.02270103 -0.07821566 0.11876916 0.06712264 -0.26191983
-0.38678366 0.2105176 0.07244172 -0.0034679559 -0.006797624 0.227231 -0.1114641 -0.20320162
-0.14171699 0.013913261 0.015198645 0.011841463 0.6818186 -0.6572494 0.022437679 -0.06922568
-0.10178337 0.12795362 0.04041692 -0.14158271 -0.448581 -0.36096248 0.18813133 -0.060466543
0.03629179 0.17653735 -0.053061698 -0.16563053 -0.09412201 0.04321729 0.0043856823 0.019945879
0.8763709 -0.7712645 -0.2724178 0.011670875 0.067065775 0.110172115 0.011380419 -0.07301867
-0.6400833 -0.09176385 -0.08134276 -0.040819608 0.047894195 0.41663072 0.2335432 -0.055172972

v.net.0.bias f4 [64]
00000000: 90bb e7be f783 113e b204 97be b711 a4be
00000010: 1dc3 a43e 8a68 8ebf 5f45 63bc 2e04 093f
00000020: 7f77 9f3d a2ab 2bbf ddf1 5c3f 8e56 80bf
00000030: dd5d 063e 5933 ce3e be7c ebbd 7da3 22bf
00000040: bb68 343f 6efd b0be 07c2 0840 1138 5abf
00000050: 7766 77bf a005 30bf a103 223e 87a7 d33e
00000060: 63fc b93f 2057 483f 3992 e53e 4118 253e
00000070: a4b5 9e3f 54c4 8b3e 7112 35bf bb1d 533e
00000080: 22d5 dcbe 7a9c 4b3f 41dc 763f 89c7 2e3f
00000090: a06b f33d 610a 063f c7c5 8dbf fc77 663d
000000a0: 6b93 d93e decb ccbc a567 963f 6613 dcbd
000000b0: afe0 a4bf ce33 19bf 6b82 0040 6a00 563e
000000c0: e9d5 9cbf 6769 1c3f 710d 58be 693d a2be
000000d0: 1dad 10bd 6b41 d3bb a649 9b3e 97a9 823f
000000e0: 192e 103f fcce b6be 26bf 5dbf b09e 033f
000000f0: ce4a 32be fdba a53d acfe d13d 1ea4 7a3d
-0.45260286 0.14210497 -0.2949577 -0.32044765 0.3218011 -1.1125653 -0.01387152 0.53522
0.07786464 -0.67058766 0.86306554 -1.0026414 0.13121744 0.4027355 -0.11498402 -0.63530713
0.70472306 -0.34568352 2.1368425 -0.852418 -0.96640724 -0.68758583 0.15821697 0.4133875
1.4530147 0.7825794 0.44838122 0.16122533 1.2399182 0.27298224 -0.70731264 0.2061681
-0.43131357 0.7953564 0.9642983 0.68273216 0.11885762 0.52359587 -1.1075982 0.05626677
0.42495283 -0.024999555 1.175038 -0.107458875 -1.2881068 -0.5984467 2.00796 0.20898595
-1.225278 0.6109833 -0.21098877 -0.31687477 -0.035321344 -0.0064470074 0.30329627 1.0208005
0.5632034 -0.35704792 -0.86619794 0.5141401 -0.17411348 0.08092306 0.10253653 0.06119167

v.net.2.weight f4 [64, 64]
00000000: 30e6 a83d 0345 6bbe 3ac1 063f d3d0 87bd
00000010: c2f6 babc b1bc a0be 0381 ca3c 6bc0 c43d
00000020: 0b0e d83d 7ca4 0a3e 8dd0 d0bd c0d2 43be
00000030: 9876 cf3e 9594 89be eed5 78be 68ae 61be
00000040: 996a bd3c 4ee9 963e f561 6ebe 6c1a 5abe
00000050: c89c b0bd eb27 af3d 027a c2be 3753 ad3e
00000060: d3cc fdbc 4a32 e03d ab67 dabc f787 0dbe
00000070: b54d 8dbe 3475 b8be 503a fd3d 176b db3e
00000080: e2a6 62be a063 30bd d30f 9d3e 912e 493d
00000090: c9e2 a03e 75ec debd 6c82 39be 4b4f a13e
000000a0: 976e 543e b2e4 703e a866 8bbe 5222 4dbe
000000b0: 016b 1abe 034e 9cbd 6512 3ebe e26f 0b3d
000000c0: 02bd 7b3d e139 183e af08 aabe 33a5 04bf
000000d0: ed16 063f 9213 c23d 7da6 91be 0769 b6be
000000e0: 578c eebd 6dc1 52be 0db8 28be 5a12 adbd
000000f0: b01d b9be 780e 58bf 0c5f 94bd 124c 8fbd
00000100: 598f 45be 523d ebbe 8807 e63e e593 dcbc
00000110: 6108 7ebc df2f 59be 25da 133e 77f5 e3bd
00000120: 1476 01be 161d b3bd 099d 81be 482b 9cbd
00000130: a65a 56be 6f06 24be 1738 f3bc d4c2 ce3e
00000140: 392d 0bbe 758c 63be a13a febd 53e3 6dbe
00000150: 42a7 29be 82f2 6a3e 584b 9ebe d5c4 fa3e
00000160: 00ba 063e 0b78 8bbd 04d9 35be 65c0 95be
00000170: 2448 5cbe 33fc c5be 61bf a43d 0cbb d8bd
00000180: ed7e 813d 022f f8bd 2add e6bd a6f9 0dbe
00000190: ac0a 13bd 07a6 2d3e 7472 acbc 3a76 ea3e
000001a0: 6e77 ffbe e46d 833d 8301 61be c3d0 2dbe
000001b0: 1e71 293d 0014 ac3e 231e f1bd ffc0 a43e
000001c0: 16e0 8c3e 1f33 7cbe d47a cd3c ae00 afbe
000001d0: 2a30 853e 3b11 e03b 71ea d8be ba56 f4bd
000001e0: 16b2 b1bd e039 003d 1036 af3e 1bde 273c
000001f0: 965f 4dbe 7860 00bf 5ecb b0be 2149 02bf
00000200: ab81 853d d949 993e dc0a c7be c63e d6bc
00000210: 3357 d23c a0c5 033e fcba 2fbe 4573 e2bd
00000220: 8233 1c3e 5d30 09bc a603 913d f8f1 f8bc
00000230: 5160 d7bc ed16 533e f058 903e 2e1b d63c
00000240: 0f72 0d3e eb9c 3cbe c01f 5b3e cf91 c63d
00000250: f1f1 a33c a697 bfbb 78e0 8e3e 88a5 6fbd
00000260: e568 52be 4938 0fbe a3f7 083e e55d 4f3e
00000270: d89d e83d a947 e93e 2e81 23be 8e48 37bf
00000280: 7ba7 39bd c992 8c3d 551c 0cbe aff8 e13d
00000290: 2bb6 bdbe 03be a5bd 3286 d13d a4c4 5abe
000002a0: cea1 5b3e 1287 cbbc 113e 673e 2f18 063e
000002b0: a249 90be 5b64 02be 20c4 21be 7886 6abe
000002c0: 838b 293d 7e5b 5bbd 6c57 4f3d 0556 d33e
000002d0: 8900 a0be 6381 76bd c0b1 943e b0aa 773d
000002e0: 2949 a9bd 1864 1d3e 0e16 15bc f19b 9fbe
000002f0: 44c2 ea3d 27c7 243f ee27 153f 7b48 d3bd
00000300: 3535 26bb 4a82 e9be c039 1c3f 7a6e 2a3d
00000310: 4a6a 223e 2217 abbe 8ca4 34be 39fc 953e
00000320: 9c5b 8c3c b410 d7bc 3e0d 18be af5d a9be
00000330: fbd0 823c ed2e fcbd 1fd0 c5bd 362b dcbe
00000340: 5287 873d 13f9 be3d 2bd7 92be a8a2 efbe
00000350: af75 92bd adf3 e33e 5cd7 a7be e233 803e
00000360: 4879 7abe 0007 363e ba51 623e 19f5 163e
00000370: c10d 5fbe f537 19bf 265e 0d3e 0f6c 623e
00000380: a7d8 5bbe 2b28 203b d9bd 813e 0170 533d
00000390: 2573 2b3e e9c4 d7bd dd3a dfbc a560 a13e
000003a0: 91a1 163c a516 ae3d 48fe 3fbe ee7a f7bd
000003b0: 7821 45be 6123 e03d a7a5 babd 5f31 393e
000003c0: 1846 763d 731f 333e da6e 913d a4f3 edbd
000003d0: 1edc 113f 2f52 c6bd 09cd 98be 9252 013d
000003e0: f7dc f33d 1939 3cbe 74dd 88be 3838 9abd
000003f0: e178 3bbe f8df 41bf 56f0 b6be 94f5 9fbe
0.0824703 -0.22975545 0.5263859 -0.06631627 -0.022822741 -0.3139396 0.02471972 0.09607013
0.105495535 0.13539308 -0.10196028 -0.19123363 0.40520167 -0.26871172 -0.24300358 -0.22039187
0.023122119 0.29474872 -0.23279555 -0.21299142 -0.08623654 0.085525356 -0.3798371 0.3385255
-0.030981457 0.10947092 -0.02666076 -0.13821398 -0.27598348 -0.3602692 0.12364638 0.4285514
-0.22133973 -0.04306376 0.30676135 0.049116675 0.31423023 -0.10884944 -0.18116158 0.31505808
0.20745312 0.2352474 -0.27226758 -0.20032623 -0.15079881 -0.07632067 -0.18561704 0.034042247
0.06145955 0.14865829 -0.3320975 -0.51814574 0.5237873 0.09476389 -0.28447333 -0.35627005
-0.116478615 -0.20581599 -0.1647646 -0.08450766 -0.36155462 -0.8439708 -0.07244691 -0.06996931
-0.19292964 -0.4594522 0.4492762 -0.02692599 -0.015504927 -0.21209668 0.14438684 -0.11130803
-0.126427 -0.08745782 -0.2531512 -0.07625443 -0.20933017 -0.16018079 -0.029689832 0.40383017
-0.1359147 -0.22221549 -0.12413526 -0.23231249 -0.1656771 0.22944072 -0.30916858 0.48978296
0.13156891 -0.06810006 -0.17758566 -0.29248348 -0.21511894 -0.38668975 0.08044315 -0.10582551
0.06323037 -0.12118341 -0.112726524 -0.13864765 -0.03589885 0.16957866 -0.02105067 0.45793325
-0.49895805 0.06417444 -0.21973233 -0.16974168 0.041367643 0.3360901 -0.11773326 0.32178494
0.27514714 -0.24628876 0.025082983 -0.34180206 0.2601331 0.0068379915 -0.42366365 -0.11930604
-0.08676545 0.031305194 0.34220934 0.010245825 -0.20055994 -0.501472 -0.34530157 -0.50892836
0.06518873 0.29939154 -0.38875473 -0.02615298 0.025676345 0.12868357 -0.17161173 -0.11057142
0.15254024 -0.008373347 0.07080774 -0.030388817 -0.026291044 0.20614214 0.28192854 0.026136007
0.13813041 -0.18419234 0.2139883 0.096957795 0.020012828 -0.0058469353 0.2790563 -0.058507472
-0.20547827 -0.13986315 0.13375716 0.20250662 0.11358231 0.45562485 -0.15967247 -0.71595085
-0.045325737 0.068639345 -0.13682683 0.11033761 -0.37053046 -0.080928825 0.10230674 -0.21364075
0.21448442 -0.02484468 0.2258227 0.13095163 -0.28181177 -0.12733595 -0.15797472 -0.22902858
0.041392814 -0.05355405 0.05062048 0.41276565 -0.31250408 -0.060181987 0.29041862 0.060465515
-0.08265907 0.15370214 -0.0090994965 -0.3117366 0.114628345 0.6436638 0.5826405 -0.10316559
-0.0025361304 -0.45607215 0.6102562 0.041609265 0.15860859 -0.33416086 -0.17640895 0.29293993
0.017133527 -0.026253082 -0.14848801 -0.33079287 0.01596879 -0.12313638 -0.096588366 -0.43001717
0.06617607 0.09324851 -0.28679785 -0.46803784 -0.071513526 0.44521847 -0.32781494 0.25039583
-0.24460328 0.17776108 0.22101489 0.14741935 -0.2178259 -0.5985101 0.13805446 0.22111534
-0.21469365 0.0024438004 0.25340155 0.051620487 0.16743143 -0.105356045 -0.027249748 0.31519046
0.009193794 0.08500413 -0.18749344 -0.12083994 -0.19251049 0.10944248 -0.09113627 0.1808524
0.06012544 0.17492466 0.071012214 -0.116187364 0.569765 -0.09683644 -0.2984393 0.031572886
0.1190738 -0.18381156 -0.26731455 -0.07530254 -0.1830783 -0.75732374 -0.35730237 -0.3124205

v.net.2.bias f4 [64]
00000000: 1478 103f e243 d8be 9043 d03e 6a36 193f
00000010: 81b8 2fbf 3508 cf3e 269b 13bf afa3 193f
00000020: 0c0f 113f 33fc 133f 1ba6 12bf 80e9 1a3f
00000030: 2c49 9bbe f5a3 31bf 92ea d53e f26a 033f
00000040: 287b 31be e153 b1be 2f89 edbe 76b2 073f
00000050: 5dee 303f d386 2bbf b3e5 a33e 662a 65be
00000060: f76a 1fbf f9c4 eabe 8028 463f aac5 68be
00000070: 8c20 393f 1a59 3cbf 928e 29bf c884 05bf
00000080: 3c4a 2bbf 72cb 9cbe 86e1 e13e f7d1 fb3e
00000090: 8a5c cebe cb99 023f 6da3 e23e 317a e0be
000000a0: 1519 1d3f 37e3 093f 9e65 803e 56be f53e
000000b0: db7a e13e ddac 05bf b175 2bbf 3c83 bdbe
000000c0: c675 463e 7390 fd3e b6a9 94be 1447 a73e
000000d0: 6277 ff3e 0e28 f3be c295 0abf a091 033f
000000e0: d995 19bf be6d 293f b0de 2e3f 95c0 29bf
000000f0: 8c75 113e 05f8 08bf a059 a43d 306a acbe
0.56433225 -0.4223929 0.40676546 0.59848654 -0.68640906 0.4043595 -0.5765861 0.60015386
0.56663585 0.578067 -0.57284707 0.6051254 -0.30329263 -0.69390804 0.41780525 0.5133506
-0.17332137 -0.34634307 -0.46393725 0.53006685 0.69113714 -0.670026 0.32011184 -0.22379455
-0.6227259 -0.45853403 0.7740555 -0.22731653 0.7231529 -0.7357346 -0.6623317 -0.52155733
-0.6691015 -0.30623966 0.44117373 0.49183628 -0.40304977 0.5101592 0.4426531 -0.43843225
0.613664 0.5386233 0.25077528 0.47996777 0.44039044 -0.52216893 -0.6697646 -0.37014186
0.19380865 0.49524269 -0.2903573 0.32671416 0.4989577 -0.47491497 -0.5413476 0.5139408
-0.59994274 0.6618308 0.68308544 -0.6630948 0.14204997 -0.5350345 0.08024907 -0.33674765

v.net.4.weight f4 [1, 64]
00000000: 9959 08be 0364 293e e2ee 0bbe 6a63 24be
00000010: 25c2 313e 4ed3 8cbd db07 1f3e 8b56 fbbd
00000020: 45b1 a6bd 37d2 acbd e6a9 023e 3fa9 d6bd
00000030: bf81 b03d a1aa ac3d 87e8 ffbd c769 d6bd
00000040: 19eb 853e 5038 f33d 8d41 2d3e 8824 33be
00000050: e07c 22be 081c 1c3e 2210 e3be ba3b bd3d
00000060: 3272 0d3e 38c7 0b3e b12d 76be 7691 91be
00000070: a873 49be 6035 2f3e 0d31 0c3e 9c54 1c3e
00000080: 007d 093e fce8 f03d 13b9 9dbd c09a 97bd
00000090: 7f83 773d f1a4 cfbd d3ee 1ebe 88d6 813d
000000a0: c0ab 15be 8e81 46be a70b f8bd 1003 edbd
000000b0: bcfc 08be 69d7 043e d6d8 213e 9255 0a3e
000000c0: c0d9 913e 069d 18be 7007 af3d 053c 3dbe
000000d0: deda 1fbe 26b8 7b3e f6ba 1b3e 5811 17be
000000e0: ab86 193e 5a63 84bd ef00 1fbe db25 4d3e
000000f0: ec56 31be 798e 0d3e a1b5 40be 9d12 803d
-0.13315429 0.16542058 -0.13665345 -0.16053548 0.17359217 -0.06876241 0.1553034 -0.12272366
-0.0813928 -0.08438533 0.12760124 -0.104815 0.08618497 0.084309824 -0.12495523 -0.10469394
0.26155928 0.11875975 0.16919537 -0.17494404 -0.15867949 0.15245068 -0.44348246 0.092399076
0.13813093 0.13650215 -0.24040867 -0.2843129 -0.19673026 0.17110205 0.13690586 0.15266651
0.1342659 0.11763188 -0.07701316 -0.07402563 0.06042814 -0.10138882 -0.15520792 0.06339747
-0.14616299 -0.19385359 -0.121115975 -0.1157285 -0.1337766 0.12972797 0.15805373 0.13509205
0.28486443 -0.1490365 0.085463405 -0.18479927 -0.15610835 0.24581966 0.15208039 -0.1475271
0.14992778 -0.06464262 -0.155277 0.20033972 -0.17318314 0.1382388 -0.18819286 0.0625355

c.net.0.weight f4 [64, 40]
00000000: 69f0 ee3b 43ca d73c 31af e53c ab46 083e
00000010: f636 f4bd 18cb 1a3d 2b08 423d f954 19be
00000020: 741d 383d dd6a 9c3d 9d76 fb3d 2e5a 74bd
00000030: c66e 0d3d 8d0f 053e 67c8 88bd cdf3 ebbd
00000040: 8d68 d6bd 7308 193e 95b3 17be c93b fbbc
00000050: 6def 9ebd 63dc 883d 5881 17be 746c ac3c
00000060: 3d41 afbd 8261 333d 524e 403d f97c 1cbe
00000070: 1aad f13d 7cff 5d3d 6ad5 c6bd 9684 16be
00000080: ea8c 04be 7ff7 dcbd 7845 47bd e334 9fbd
00000090: b1eb d5bd 10d0 653d 8d97 8cbd f38e 13bd
000000a0: 01b8 6b3c f1c1 1a3e 41a9 c0bb 25b0 e4bd
000000b0: 6f07 fd3d d2ad 6d3d 68ac 483d 04b4 fabd
000000c0: ecc8 17be acee 943c 73da 10bd 976f eb3c
000000d0: 946c f7bb b802 60bd 68ba 0bbe 09b9 d8bd
000000e0: 5bf7 6fbd 3a6d 76bb 903f 02be ebfc 08be
000000f0: a5d9 2b3d 8190 113e 9445 f1bd 4a38 753d
00000100: 774b 6f3d 050c 483d 8f5c cdbd b95d 113e
00000110: 1fb5 013d 227f 003e 0394 8fbd 7f37 203e
00000120: a830 80bc 1153 1d3e 0973 2c3d b058 e4bd
00000130: 58be a8bd f2fa cc3d 5881 12be b777 f23a
00000140: 43f3 dd3d 40cb 23bc a676 6fba b333 093e
00000150: eb8d 18be f626 08bd b0a0 48bc de89 c6bc
00000160: 1d69 22bd 48bd 7e3d f777 f43d e3f0 ce3d
00000170: 0e44 193e f2da 9aba c231 c63d f9fc 1c3d
00000180: b9a5 c4bc 7f5c 14be 2b06 a3bd 8200 bd3d
00000190: beac 3bbd fb8f 27bb f5b8 ff3c 7277 633d
000001a0: a950 55bd d153 febc 0ea1 743d c7c3 c03c
000001b0: 3257 953d 1681 2f3c b7fd 9ebd 89a2 403d
000001c0: 9924 fa3d 76ef fcbd 3d35 f73d 0366 e33d
000001d0: dac8 3c3d da4c 0cbe 42d7 cf3d 7b62 8dbb
000001e0: 1216 e73c fcd8 cdbb d949 663d 37c1 07bd
000001f0: aaf7 d1bd c308 12be 0167 edbd 179d 28bd
00000200: 2943 6b3d 8845 e83d d7e6 f2bd 11b9 4dbd
00000210: ebca 07be 3993 84bd 0de1 643d 21db 52bb
00000220: f53d e1bd 18cc 1f3c b143 0a3e 6f50 033e
00000230: 506c 9b3d 4095 f8bd 5252 193e f75a f03a
00000240: 94fb 44bc c3ea e8bd a411 c03d 087b e33d
00000250: 02ba bcbd e184 13be 9c55 bebd 3dd7 42bd
00000260: bb0c 123e 7a68 653d 087c 863b c640 95bd
00000270: 5555 18be 69f9 25bd a8d4 40bd 6434 d7bd
00000280: 04a2 12be 382d 7e3d efe5 113e 8772 d2bd
00000290: 2c8a 1d3e a07a f9bd d557 11bc 02fa 1e3e
000002a0: 2862 493d 854e cabb 3cf3 183e 7d4d 913d
000002b0: 53da 9c3c dbc0 bd3c b97f 1e3e 564c 8abd
000002c0: 6e23 ed3d bca3 b2bd 28ab 9abc 390a aabd
000002d0: 042a 6e3d c160 a4bd 6c8c 093e df11 0dbe
000002e0: 3da2 83bd 06b9 c3bb c1ad 593d def5 aeba
000002f0: fede 993d a619 86bd 8f3e d5bd 7952 083e
00000300: 78fd ffbd 1051 1b3e 1484 933b 1ae8 debd
00000310: c475 cb3d 2bf1 0bbe 1e00 bc3d faad edbc
00000320: 908b 66bd d271 71bd 06c9 9ebb beab 1d3e
00000330: f044 913d a904 83bd 4953 b43c f689 323d
00000340: 42b3 61bd 0af3 003e 2ea0 b9b8 16d3 8b3a
00000350: 786d 9bbd 641b 1b3e 6d88 a83d 0890 1cbd
00000360: 8961 073d 5e70 b23a d3f4 14be b476 0b3e
00000370: 55e8 2b3d a056 bfbd 58de 1fbe d568 abbd
00000380: b1a0 9cbc b8aa bfbd 86f4 103e f817 d5bd
00000390: 4b1e 6abd c3cc 083e 4794 df3d e04d d73d
000003a0: 933f b83d 1433 693d ee5d 00be dcbe fe3d
000003b0: 1977 f33d 15c5 ad3d 6465 b6bd 18d4 16be
000003c0: 85bd 01bd 5d0d 14be 3489 4ebd 6f69 36bc
000003d0: f2bd c8bd a55b aabd 6286 0c3e 6931 b43c
000003e0: 0099 72bc ec69 01be 4b5e 97bd ad90 083e
000003f0: 4a4f 883d bdd9 cabc e27a a13d e21a 75bd
0.0072918427 0.026341563 0.02803764 0.13308208 -0.119245455 0.03779134 0.04737107 -0.14973821
0.044949964 0.0763757 0.12278483 -0.059656315 0.03452947 0.12994213 -0.06678849 -0.11521111
-0.1046916 0.1494463 -0.14814599 -0.030668156 -0.077605106 0.066826604 -0.14795434 0.021047808
-0.08557365 0.043794163 0.046949692 -0.15282048 0.11800595 0.054198727 -0.09708674 -0.14699015
-0.1294438 -0.10789394 -0.048650235 -0.07773759 -0.10445345 0.056106627 -0.068648435 -0.036025
0.014387132 0.15113045 -0.0058795516 -0.111664094 0.123549335 0.058027096 0.048992544 -0.122413665
-0.1482274 0.018180214 -0.03536458 0.028739734 -0.0075507853 -0.054690093 -0.13645327 -0.10582168
-0.058585506 -0.0037601725 -0.1271956 -0.1337773 0.04195561 0.1421528 -0.11780849 0.059868135
0.05842158 0.048839588 -0.1002742 0.14195909 0.03166687 0.12548497 -0.07010653 0.1564617
-0.015648201 0.15363719 0.042101894 -0.11149728 -0.0823943 0.100088015 -0.14307153 0.0018498813
0.10837414 -0.009997189 -0.00091348065 0.13398628 -0.14897887 -0.03324028 -0.012245342 -0.024235662
-0.039651025 0.06219223 0.11936944 0.10104539 0.14967367 -0.0011814518 0.09677459 0.03832719
-0.024004804 -0.1448841 -0.07960161 0.092286125 -0.045819037 -0.0025567997 0.031216124 0.055533834
-0.052078877 -0.031045826 0.059723906 0.023530854 0.07292022 0.010711929 -0.07763236 0.047030006
0.12214012 -0.12350361 0.12070701 0.111034416 0.046089984 -0.13701192 0.10148479 -0.0043147183
0.028208766 -0.00628197 0.05622277 -0.03314325 -0.10252316 -0.14261155 -0.11591912 -0.041165438
0.057437096 0.11341387 -0.118604355 -0.05022532 -0.13261001 -0.06473393 0.055878688 -0.0032174068
-0.109981455 0.00975325 0.13502385 0.12823652 0.07589018 -0.12137842 0.14972809 0.0018337657
-0.0120228715 -0.11372902 0.09378365 0.11107451 -0.09215166 -0.14406158 -0.092936724 -0.04756855
0.14262669 0.05600784 0.004104141 -0.07287745 -0.14876302 -0.04052106 -0.047077805 -0.105080396
-0.14319617 0.062054843 0.14247869 -0.102757506 0.1538474 -0.12181592 -0.008871038 0.15525058
0.049165875 -0.006173911 0.14936537 0.07094858 0.019147074 0.02316325 0.1547841 -0.06752841
0.11579023 -0.08722636 -0.018880442 -0.08302731 0.058145538 -0.08026267 0.13432473 -0.13776349
-0.06427429 -0.0059729842 0.05314422 -0.0013348421 0.075132355 -0.06547861 -0.10412323 0.13312711
-0.12499517 0.15167642 0.004501829 -0.108841136 0.099345714 -0.13666217 0.0917971 -0.029013623
-0.05628544 -0.058946438 -0.004845741 0.15397546 0.07093227 -0.06397373 0.02201237 0.0435886
-0.055102594 0.12592712 -8.851323e-05 0.0010667767 -0.07589239 0.15147167 0.08229146 -0.038223296
0.033052 0.001361381 -0.14546518 0.136195 0.041969616 -0.09342694 -0.15612161 -0.083696045
-0.019119592 -0.09358734 0.14155778 -0.10404962 -0.057157796 0.1335936 0.109169535 0.105129
0.08996501 0.056933478 -0.12535831 0.12438747 0.118879505 0.08484856 -0.089060575 -0.14729345
-0.03167488 -0.14458223 -0.050423816 -0.011133536 -0.09801854 -0.08318261 0.13723138 0.021996217
-0.014806986 -0.12638062 -0.07391032 0.1333644 0.06655748 -0.024762029 0.07884766 -0.05984009

c.net.0.bias f4 [64]
00000000: 8108 dabd 01c9 003e abcf 92ba 1a60 f63d
00000010: b09c 27bd a90c 12be 1912 a5bd 10a5 08be
00000020: de94 4bba d9e9 e9bd 2596 113e 026a 70bd
00000030: 67be ea3d c4b4 9b3d 73e2 c63d c274 393d
00000040: 2492 ddbd f5b0 87bd c61f bb3d b00c eebc
00000050: 1a02 adbd 7e2d 14be 2254 2dbd 2ac0 e73d
00000060: fa9d e3bd 13bd 04be 67ba 69bd 11d2 70bd
00000070: eddc 94bd 2b14 d4bd 53ba df3d 9bf0 fc3d
00000080: d5d3 e6bd a2b3 213e 88f0 94bb 2afa 02bd
00000090: 7eeb cebd 5bdb 133c d3fb e63d 83d1 1cbc
000000a0: 0a2b dabc 8850 a83d 861a 3e3d 4199 123e
000000b0: c039 273d 5a07 b43d 1970 08be 3b8b 703d
000000c0: 477a e7bd 3be3 783c eb42 803c 3d8f bf3d
000000d0: 7af1 973d f5da 593c 2c50 943d 1ed9 b23d
000000e0: 7c90 c4bd 93c6 073e 73ef 69bd b10d f2bd
000000f0: 137a 9c3c 14a0 1fbe 0002 c03d 708f 023d
-0.10646153 0.12576677 -0.0011200806 0.12030049 -0.040920913 -0.14262642 -0.080600925 -0.13344216
-0.00077660184 -0.11421556 0.14217432 -0.058694847 0.114620976 0.07602838 0.097111605 0.045277365
-0.1081889 -0.06625549 0.0913692 -0.029058784 -0.084476665 -0.14470479 -0.042316563 0.11315949
-0.11114116 -0.12962751 -0.057062533 -0.058794085 -0.07268701 -0.10355409 0.109242104 0.12350579
-0.112708725 0.1579118 -0.004545275 -0.031976856 -0.1010351 0.009024466 0.112785004 -0.009571436
-0.02663185 0.08218485 0.046412013 0.14316274 0.04082656 0.08790465 -0.13324012 0.05872653
-0.113026194 0.015190895 0.015656909 0.093534924 0.07419105 0.013296832 0.07241854 0.08732818
-0.09597871 0.13259344 -0.057113122 -0.11819018 0.019101178 -0.15588409 0.093753815 0.031875074
