experiments/07_control_structure_hypothesis/checkpoints/PWM/DroneCircleBulletEnv-v0/ppo/2021-12-14__00-26-56/seed_00006/torch_save/model.pt (torch, 82448 bytes, 19 tensors)

obs_oms.mean f4 [40]
0	0x3e7e4731	0.24831845
1	0x39bfb07f	0.0003656186
2	0x3f813126	1.0093124
3	0xb97a632e	-0.00023878805
4	0x3a441823	0.00074804033
5	0x3dee873f	0.1164689
6	0x3f7a81ff	0.9785461
7	0xbad3aed9	-0.0016150131
8	0x3856a999	5.1179526e-05
9	0xbc5e2cf5	-0.013560523
10	0x3bedc422	0.007256047
11	0x3d13e4c7	0.03610685
12	0x3d983fb6	0.07434027
13	0x3ae35bd2	0.001734609
14	0xb9c5c865	-0.00037724074
15	0xbc18949a	-0.009312773
16	0x3ea70e85	0.32628265
17	0x3e924ca3	0.28574094
18	0x3e920b5f	0.285243
19	0x3e96c10a	0.29444152
20	0x3e7e42ec	0.24830216
21	0x39bff1ed	0.00036610608
22	0x3f812c59	1.0091659
23	0xb95d88e8	-0.00021127204
24	0x3a509bf0	0.0007957807
25	0x3def18dd	0.11674664
26	0x3f7a62ba	0.97806895
27	0xbad82e6a	-0.0016493325
28	0x38371ec9	4.365927e-05
29	0xbc77c69e	-0.015123038
30	0x3c0893e0	0.008336037
31	0x3d23a002	0.039947517
32	0x3d98d3b8	0.07462257
33	0x3ae576f8	0.0017506769
34	0xb9c695f2	-0.0003787722
35	0xbc162a49	-0.009165355
36	0x3ea706f8	0.32622504
37	0x3e91f6ec	0.285087
38	0x3e91fda8	0.28513837
39	0x3e967eda	0.29393655

obs_oms.std f4 [40]
0	0x3e343f42	0.17602256
1	0x3e352319	0.1768917
2	0x3d308908	0.043099433
3	0x3dab1187	0.083529525
4	0x3db7d66f	0.08976447
5	0x3e0e02d5	0.13868268
6	0x3d3cf3c6	0.046130918
7	0x3ec9e851	0.39435056
8	0x3ec97626	0.39347953
9	0x3e179096	0.14801249
10	0x3fffe3df	1.9991416
11	0x400b9924	2.181222
12	0x3ef3fbec	0.4765314
13	0x3cf80923	0.030277794
14	0x3cf79fa1	0.030227484
15	0x3d30891e	0.043099515
16	0x3f28ea00	0.65982056
17	0x3f09989a	0.53748477
18	0x3f0adf89	0.5424734
19	0x3f117d3a	0.56831706
20	0x3e344f24	0.17608315
21	0x3e353116	0.17694506
22	0x3d32e35a	0.04367385
23	0x3dad9638	0.084759176
24	0x3dbbf126	0.09176855
25	0x3e0e40f3	0.13891964
26	0x3d4c2f93	0.049850058
27	0x3ecb1583	0.3966485
28	0x3eca62cc	0.395285
29	0x3e21d847	0.1580516
30	0x4000f158	2.0147305
31	0x400e0e28	2.219614
32	0x3ef63fff	0.480957
33	0x3cfbffe1	0.030761661
34	0x3cfaed83	0.030630833
35	0x3d32e34d	0.043673802
36	0x3f288469	0.6582704
37	0x3f091c7d	0.53559095
38	0x3f0a6b50	0.54069996
39	0x3f110d60	0.56661034

pi.log_std f4 [4]
0	0xc0905243	-4.5100417
1	0xc0905243	-4.5100417
2	0xc0905243	-4.5100417
3	0xc0905243	-4.5100417

pi.net.0.weight f4 [50, 40]
0	0xbc92b98d	-0.017910743
1	0x3e2b76ae	0.16744491
2	0xba2bd4b6	-0.0006554829
3	0x3d5f51c0	0.054521322
4	0xbb3efc84	-0.002914221
5	0x3d9d49f2	0.076801196
6	0x3dbe8de8	0.0930441
7	0x3d504f9a	0.050857164
8	0x3d81af28	0.063322365
9	0xbe47b9d0	-0.19504476
10	0x3dd581ed	0.10425172
11	0x3e7a7079	0.24456967
12	0xbcfe4783	-0.031039959
13	0x3e4e5cc3	0.20152573
14	0xbe630a37	-0.22171865
15	0xbd6f32c8	-0.05839804
16	0xbe38bf0c	-0.18041629
17	0x3db02a7d	0.08601854
18	0x3d89fa27	0.06737166
19	0x3cd8af55	0.026450792
20	0xbd600a0b	-0.054697078
21	0xbc26396f	-0.010145529
22	0x3e1903fa	0.14942923
23	0x3e5a316c	0.21307915
24	0x3e269ff8	0.1627196
25	0x3d956c3b	0.07296034
26	0x3e01a428	0.12660277
27	0xbe3e6516	-0.18593249
28	0x3caf1f80	0.021377325
29	0xbe6de781	-0.23232843
30	0x3ed7fa5f	0.42183205
31	0x3e0f9a1a	0.14023629
32	0x3e4ffae9	0.20310558
33	0x3c896d9f	0.016775904
34	0x3b8ddc83	0.0043292656
35	0xbca7ce9a	-0.020484257
36	0x3e21d3c0	0.15803432
37	0x3e1561cf	0.14588092
38	0x3e08ad58	0.13347375
39	0x3cb9beca	0.022673983
40	0x3dab28d5	0.083573975
41	0xbe09b1c1	-0.13446714
42	0x3ca0db5a	0.019635845
43	0x3d702b83	0.058635246
44	0x3e72bb6e	0.23704311
45	0xbd31a53e	-0.043370478
46	0xbe4dcfcd	-0.20098801
47	0x3e5318d4	0.2061494
48	0xbe130afe	-0.14359662
49	0xbe5a72c5	-0.21332844
50	0x3e08e111	0.13367106
51	0x3dc3179e	0.09525989
52	0xbd9ec167	-0.07751732
53	0x3c90e7b3	0.017688608
54	0x3e0525d7	0.13002716
55	0x3e18625e	0.14881274
56	0xbe1a3a36	-0.15061268
57	0xbc8c3920	-0.017117083
58	0xbcb92dd9	-0.02260487
59	0x3d8d455b	0.06897994
60	0xbd975262	-0.0738876
61	0xbdd4f03c	-0.103973836
62	0xbdf2c3fb	-0.118537866
63	0xbd167cd1	-0.036740128
64	0x3e848190	0.25880098
65	0xbd0a97ae	-0.03383606
66	0xbc3e315c	-0.011608448
67	0x3aa1595a	0.0012309954
68	0x3ddbb9df	0.107288115
69	0xbe20082d	-0.15628119
70	0xbe075de2	-0.13219407
71	0x3bc5f6ab	0.006041368
72	0xbe5cdc63	-0.21568446
73	0x3dbeac94	0.093102604
74	0xbd9ecfda	-0.07754488
75	0x3e12c38a	0.14332405
76	0xbb9fad8b	-0.004872983
77	0x3df8d3e5	0.12149791
78	0x3cc5698d	0.024098182
79	0x3d8e394c	0.06944522
80	0xbdff59b9	-0.12468285
81	0xbd62a825	-0.055336136
82	0xbe5d9d2c	-0.21641988
83	0x3d265d44	0.04061629
84	0xbd81dd64	-0.06341055
85	0xbe1ec52b	-0.15504901
86	0xbe069b0a	-0.1314508
87	0xbdc70b3e	-0.09718941
88	0xbdda056a	-0.10645564
89	0xbce9468c	-0.028476022
90	0xbddccc42	-0.107811466
91	0x3d2a4e3b	0.041578513
92	0x3cde48da	0.027134348
93	0x3df51a8b	0.11967953
94	0x3dcab840	0.09898424
95	0x3e3d739f	0.18501137
96	0xbde00b5e	-0.10939668
97	0x3e2b24ee	0.16713306
98	0xbd945a6b	-0.07243808
99	0x3cdef5c3	0.027216798
100	0x3d466989	0.04844049
101	0x3d80d544	0.06290677
102	0xbdea5097	-0.114411525
103	0xbca5ca2b	-0.020238003
104	0x3db23b3b	0.087027036
105	0x3dd3d0fb	0.10342594
106	0xbde77463	-0.11301496
107	0xbe0d3345	-0.13789089
108	0xbdd842b7	-0.105596
109	0xbe5b1d5c	-0.21397918
110	0xbe2f43e1	-0.17115737
111	0x3ecc85a2	0.39945704
112	0x3d90f553	0.07078042
113	0x3e4199e1	0.18906356
114	0x3e98767a	0.2977789
115	0x3e7ac494	0.24489051
116	0x3e02cdf9	0.12773885
117	0x3b965c18	0.004588615
118	0xbd4ac93a	-0.04950831
119	0x3d95ccdb	0.07314464
120	0x3d4e6666	0.050390624
121	0xbe0f04bd	-0.13966651
122	0x3dee90a9	0.116486855
123	0x3d47bc26	0.048763417
124	0x3dea40d4	0.11438146
125	0xbd3b20b8	-0.0456855
126	0x3f18e95e	0.5973109
127	0x3d3ee8c9	0.04660872
128	0xbe3b9e79	-0.18322171
129	0x3d687302	0.056750305
130	0x3de9a6ee	0.114087924
131	0xbebbae11	-0.3665624
132	0x3b49b315	0.0030776907
133	0x3d0505db	0.032476287
134	0xbdca3fd6	-0.09875457
135	0xbde88700	-0.11353874
136	0x3d2260cd	0.039643098
137	0x3b22f7ab	0.002486686
138	0x3e1beb8b	0.15226571
139	0x3dd7ff45	0.10546736
140	0xbd0bc09b	-0.03411923
141	0xbc0cd7a0	-0.008596331
142	0x3c89a040	0.016800046
143	0x3e066d81	0.1312771
144	0xbd447ab9	-0.0479686
145	0x3e61a559	0.22035731
146	0x3ec640a2	0.38721186
147	0xbaac4ac0	-0.0013144836
148	0xbd0c4bed	-0.034252096
149	0x3e9f7014	0.31140196
150	0x3ddbd42d	0.10733829
151	0x3e79cac9	0.24393763
152	0xbe3d652e	-0.18495628
153	0xbca6bd7b	-0.020354023
154	0xbd71d75b	-0.05904327
155	0xbd8aa9d2	-0.06770672
156	0xbd83cba8	-0.06435329
157	0xbdc400a9	-0.095704384
158	0xbd823f6e	-0.063597545
159	0x3cd4a67f	0.025958298
160	0xbe3b40f7	-0.18286501
161	0x3de3f748	0.111311495
162	0xbd4c075e	-0.049811713
163	0xbcc0f919	-0.023556279
164	0x3c840483	0.016115433
165	0xbda3bdf6	-0.079952165
166	0x3eea5132	0.45765072
167	0xbdb7023e	-0.089359745
168	0xbe49ae80	-0.19695473
169	0x3e6d5c1b	0.23179667
170	0xbe2d255f	-0.16908787
171	0x3e3e0947	0.18558227
172	0xbe509950	-0.20370984
173	0xbce3a1ca	-0.027787108
174	0x3e204fda	0.15655461
175	0xbd9a7c7e	-0.07543276
176	0x3c78297e	0.015146611
177	0x3d3a1f81	0.0454402
178	0x3dbf2e58	0.09335011
179	0x3d02b62b	0.03191201
180	0xbdde9235	-0.108677305
181	0xbd93a5e5	-0.07209376
182	0x3de0ab4f	0.109701745
183	0x3e5b1ece	0.2139847
184	0xbde4beec	-0.11169228
185	0xbe69181d	-0.22763105
186	0x3ef71853	0.48260745
187	0x3d5538e4	0.05205621
188	0xbe53cecd	-0.20684357
189	0x3ea1a584	0.3157159
190	0x3ecd571d	0.40105525
191	0xbe127816	-0.14303622
192	0xbe3141a9	-0.17310204
193	0xbd77a7b5	-0.060462672
194	0x3d9402be	0.072270855
195	0xbd7c8144	-0.061646715
196	0xbc8b30aa	-0.016990978
197	0xbd2caa3f	-0.042154547
198	0x3d94f4cd	0.072732545
199	0x3a980566	0.0011598289
200	0x3c3a80e3	0.011383268
201	0xbe971182	-0.29505545
202	0xbd167307	-0.036730792
203	0x3c2584fe	0.010102509
204	0xbd8f9b0c	-0.07011995
205	0x3dd7bad1	0.10533679
206	0x3b372a27	0.0027948709
207	0xbda9c88a	-0.08290203
208	0x3e4cd71f	0.20003937
209	0x3d62034f	0.055178937
210	0x3e585da7	0.21129476
211	0x3e320f32	0.17388609
212	0xbdeadee1	-0.11468292
213	0xbdf3ab2c	-0.11897883
214	0xba85827b	-0.0010185981
215	0x3a05b998	0.0005101203
216	0x3e4eec31	0.20207287
217	0x3e16dda9	0.14732994
218	0xbdabcba4	-0.08388451
219	0x3bf08c15	0.007340918
220	0x3c512ea4	0.012767468
221	0xbd726d09	-0.059186015
222	0x3e7b4824	0.24539238
223	0xbd9e5f4e	-0.07733022
224	0x3d78fa38	0.060785502
225	0xbda99630	-0.08280599
226	0x3ca790d9	0.020454811
227	0xbe00681a	-0.12539712
228	0xbcfc9eb2	-0.03083739
229	0x3e83e9fe	0.2576446
230	0x3ebb8442	0.36624342
231	0x3e0e2e34	0.13884813
232	0xbd239948	-0.039941102
233	0xbe03e72c	-0.12881154
234	0x3e7717be	0.2413015
235	0x3b353780	0.0027651489
236	0x3e73d0f6	0.23810181
237	0x3de2116d	0.1103848
238	0xbdb8e9f7	-0.09029
239	0xbe16ca64	-0.14725643
240	0x3ccd4d2b	0.02506121
241	0x3db910ea	0.09036429
242	0x3e0d7220	0.13813066
243	0xbdfddbcb	-0.12395438
244	0x3d9c5b6f	0.07634627
245	0x3ddac94c	0.106829256
246	0x3e9a719a	0.30164796
247	0x3daacd23	0.08339908
248	0x3e0e9ff9	0.13928212
249	0x3df9da38	0.12199825
250	0x3d202637	0.039098945
251	0xbdd7f0e1	-0.10543991
252	0xbccebb79	-0.025235878
253	0x3e23bf90	0.15991044
254	0xbe2a33cb	-0.1662132
255	0xbe9d1748	-0.30681825

pi.net.0.bias f4 [50]
0	0xbd98f827	-0.07469206
1	0xbe24d7dc	-0.16097969
2	0x3ca619f3	0.020276045
3	0x3e11eba7	0.1425005
4	0x3e9698db	0.29413494
5	0x3d854ad6	0.065084144
6	0x3e23b634	0.15987474
7	0x3d2714d2	0.04079134
8	0x3d34ff46	0.04418876
9	0xbe05b738	-0.13058174
10	0x3e9d3f77	0.30712482
11	0x3e974353	0.29543552
12	0x3e5dc4c1	0.21657087
13	0x3da177f4	0.07884207
14	0xbd9a0800	-0.07521057
15	0x3eb69d73	0.35667
16	0x3ddaff54	0.10693231
17	0x3ddf98c7	0.10917812
18	0x3c74028a	0.0148931835
19	0x3ec26986	0.37971133
20	0x3e94b7d1	0.2904649
21	0xbe5e3a85	-0.21702011
22	0x3e8477f6	0.25872773
23	0x3dd9467e	0.106091484
24	0x3d4322b6	0.047640525
25	0x3e97e3ed	0.2966608
26	0x3d3c390c	0.04595284
27	0x3ec79e72	0.38988072
28	0x3e217ef9	0.15771092
29	0x3e218565	0.15773542
30	0xbda56e7b	-0.08077713
31	0x3c941ba0	0.018079579
32	0x3e090970	0.13382506
33	0x3e9067ac	0.28204095
34	0x3e98d875	0.29852644
35	0x3e0167af	0.12637208
36	0x3e9b34df	0.30313775
37	0x3ce21ab3	0.027600622
38	0x3e5dbfcc	0.21655196
39	0x3e7f38f4	0.2492407
40	0xbb5caaa3	-0.0033671043
41	0x3e8e9725	0.2784969
42	0xbcafcaa6	-0.021458935
43	0x3e28beda	0.16479054
44	0xbdf8654a	-0.12128694
45	0xbe0bbe65	-0.13646848
46	0x3e64041c	0.22267193
47	0x3e1a5966	0.15073165
48	0x3e87292f	0.26398608
49	0xbd67def9	-0.056609128

pi.net.2.weight f4 [50, 50]
0	0xbcf29ba4	-0.02961523
1	0xbc2f175f	-0.010686724
2	0xbda1b76e	-0.078963146
3	0xbbc91c1c	-0.006137384
4	0xbd22036b	-0.03955404
5	0xbcdfddf8	-0.027327523
6	0x3e2e6888	0.17032063
7	0xbd182238	-0.03714201
8	0x3e0950ea	0.13409773
9	0xbe96f57c	-0.29484165
10	0x3abef2f1	0.0014568252
11	0x3e1330b2	0.14374045
12	0x3d4d5e7b	0.05013893
13	0x3db88e68	0.09011537
14	0x3e28e07c	0.16491884
15	0x3e88fe95	0.2675673
16	0xbedc4f6b	-0.4302934
17	0xbd0ec9d3	-0.034860443
18	0xbd2fc3af	-0.042911228
19	0x3e1c46e7	0.15261422
20	0xbeac5c4e	-0.33664173
21	0xbe804bd0	-0.2505784
22	0x3d877444	0.06613973
23	0xbc128118	-0.008941911
24	0xbd265fdd	-0.040618766
25	0x3e7c2639	0.24623956
26	0xbc6ad938	-0.014334016
27	0x3e662f21	0.22478916
28	0x3e35f32b	0.17768542
29	0xbe58e616	-0.21181521
30	0x3e286c47	0.16447555
31	0xbdc14b58	-0.09438199
32	0xbd79d50e	-0.0609942
33	0xbc893637	-0.016749484
34	0xbe35535f	-0.17707585
35	0x3de1cf1a	0.110258296
36	0xbe0a5552	-0.1350911
37	0x3d17065b	0.036871295
38	0xbdf2df9c	-0.11859056
39	0xbdb7883f	-0.08961534
40	0xbe4776df	-0.1947894
41	0x3cffa667	0.031207277
42	0xbe30931b	-0.17243616
43	0x3d189fae	0.037261657
44	0x3decc5ff	0.11561202
45	0xbd3a5fd0	-0.04550153
46	0xbdb79d6d	-0.089655735
47	0xbdab1caf	-0.0835508
48	0x3d83d0eb	0.06436332
49	0xbdf0c4cc	-0.11756286
50	0x3e6d0c9e	0.23149344
51	0x3e06d381	0.1316662
52	0x3df2d1fb	0.11856457
53	0xbe42e921	-0.19034244
54	0xbedb8ef0	-0.4288249
55	0x3cccf6f9	0.02502011
56	0xbdc77e88	-0.09740931
57	0x3cc72160	0.024307907
58	0x3e70477e	0.23464772
59	0x3e0bba07	0.13645183
60	0xbe528550	-0.20558667
61	0xbea0506e	-0.31311363
62	0x3dccfccf	0.10009157
63	0xbe02fc03	-0.12791447
64	0x3e0b2c66	0.13591155
65	0xbd25e7ae	-0.04050415
66	0x3d484d4b	0.048901837
67	0xbd9a93bd	-0.0754771
68	0x3e7ed79b	0.24886934
69	0x3e070174	0.13184148
70	0xbd5cb293	-0.05388124
71	0x3df33150	0.1187464
72	0xbe1a6332	-0.15076903
73	0xbc4d54ca	-0.012532422
74	0x3d23afa6	0.039962433
75	0xbdbfec62	-0.09371258
76	0xbdb783c9	-0.08960683
77	0x3e32a9fa	0.17447653
78	0x3e2063a7	0.15663014
79	0x3db2a1af	0.08722245
80	0x3e150244	0.14551646
81	0x3d61603f	0.055023428
82	0x3e2dbc5f	0.16966389
83	0x3c30a759	0.010782086
84	0x3dbb443c	0.09143874
85	0xbcf55722	-0.029948775
86	0xbcc2b064	-0.02376575
87	0xbe0fc8c9	-0.14041437
88	0xbd6d83c9	-0.05798701
89	0x3e4e2496	0.20131144
90	0xbd89ddcc	-0.067317575
91	0x3dd99258	0.10623616
92	0x3e6e5729	0.23275436
93	0x3e617664	0.22017819
94	0xbda2aba9	-0.07942898
95	0xbd6e91df	-0.058244582
96	0x3de24aa9	0.110493965
97	0xbd8c0d0b	-0.06838425
98	0x3de0d3f4	0.10977927
99	0x3dd1797d	0.1022825
100	0xbd47a362	-0.0487398
101	0x3db24321	0.0870421
102	0xbd38ab13	-0.045085024
103	0x3e7b48a4	0.24539429
104	0x3dcc4086	0.09973244
105	0xbd5dc8e4	-0.054146662
106	0x3eadeb9e	0.33968824
107	0xbd0640dd	-0.032776702
108	0xbd4adc2c	-0.04952638
109	0x3da65b0d	0.08122835
110	0x3e30df38	0.17272651
111	0xbd96c0fe	-0.07361029
112	0x3da5055b	0.08057662
113	0xbe4afc14	-0.19822723
114	0xbd79b699	-0.060965154
115	0x3da978d5	0.08275
116	0x3dcd0f0b	0.10012635
117	0xbcf808c2	-0.030277614
118	0xbd292ef7	-0.041304555
119	0xbd231834	-0.039818004
120	0xbe5f402a	-0.2180182
121	0xbde133cc	-0.109962076
122	0x3d0a88ea	0.033821978
123	0xbd941bc9	-0.07231862
124	0x3d758679	0.059942696
125	0x3d7a6d13	0.061139178
126	0x3debc0d2	0.11511387
127	0x3dee4e1f	0.11635994
128	0x3e99f612	0.3007055
129	0x3c859763	0.016307538
130	0x3e332628	0.17495024
131	0xbdcce565	-0.10004691
132	0x3d7a663a	0.061132647
133	0xbbb91109	-0.0056477827
134	0x3dd583d7	0.10425537
135	0x3b8b6573	0.004254037
136	0xbd9a08b2	-0.0752119
137	0x3cc62cb4	0.024191238
138	0x3df6a4db	0.120431624
139	0x3daccec3	0.08437874
140	0xbde00776	-0.10938923
141	0xbce565fd	-0.028002733
142	0x3db4a866	0.08821182
143	0x3e099765	0.13436659
144	0x3d3cb8a1	0.046074513
145	0x3de50dad	0.11184249
146	0x3dc5ccd9	0.09658212
147	0xbdd36e9a	-0.1032383
148	0xbd47432a	-0.048648037
149	0xbdd7a28a	-0.10529049
150	0xbdbe6b5e	-0.092978224
151	0x3cec006c	0.028808795
152	0xbd2dac2e	-0.04240053
153	0x3e044488	0.12916768
154	0x3e89cc4b	0.26913676
155	0xbdb7defb	-0.08978077
156	0x3da70989	0.081561156
157	0x3d98f7bb	0.07469126
158	0xbc794b5e	-0.015215723
159	0xbd46ceb7	-0.048536982
160	0xbe127cae	-0.14305374
161	0x3dfc3741	0.12315226
162	0x3e226802	0.15859988
163	0x3e4c1b0f	0.19932197
164	0x3d7aab67	0.06119862
165	0xbcfee746	-0.03111614
166	0x3c693f3c	0.014236268
167	0xbd648abb	-0.055796366
168	0xbe7cc944	-0.24686152
169	0x3ce68243	0.028138286
170	0xbe6e19fc	-0.232521
171	0xbd0a524b	-0.033769887
172	0xbd028b19	-0.031870935
173	0x3e23b2a8	0.1598612
174	0xbd7279cc	-0.059198186
175	0xbe147dd6	-0.14501128
176	0xbcc75112	-0.02433065
177	0x3d2b06a2	0.041754372
178	0xbcc6e711	-0.024280103
179	0x3d02017e	0.031739704
180	0x3dd613c3	0.10452988
181	0x3d603ad8	0.054743618
182	0x3cbaf37a	0.022821177
183	0xbdd766d5	-0.105176605
184	0x3e0b9049	0.13629259
185	0x3b6eaf9d	0.0036420592
186	0xbd9a1ae5	-0.07524661
187	0x3c85030e	0.016236808
188	0xbd9b2e76	-0.07577221
189	0xbd22d5ee	-0.0397548
190	0x3d2b42a0	0.041811585
191	0x3dafd4a5	0.085854806
192	0xbc9f685e	-0.019458946
193	0x3a8bb4d3	0.0010658748
194	0xbbfcd1c6	-0.0077154366
195	0x3c631d6f	0.013861998
196	0xbe0d766a	-0.13814703
197	0xbd312eb1	-0.04325742
198	0xbd2903af	-0.04126328
199	0x3e1a7121	0.15082218
200	0x3dc0a190	0.094058156
201	0xbe24cbb2	-0.16093329
202	0xbdcc09fc	-0.09962842
203	0x3dd6f87a	0.10496612
204	0x3e8b502a	0.27209598
205	0x3c0728de	0.00824949
206	0xbd25ec1f	-0.040508386
207	0xbdb3983f	-0.08769273
208	0x3d03f4d2	0.0322159
209	0xbd43a3ba	-0.047763564
210	0xbc99690f	-0.018726854
211	0x3dffaaae	0.124837264
212	0xbe4a9115	-0.19781907
213	0x3dfec5dc	0.124400824
214	0xbc9e2ce6	-0.019308519
215	0x3d66c66c	0.056341574
216	0x3e4aed55	0.19817097
217	0x3d91af84	0.07113555
218	0x3d853149	0.06503541
219	0x3e1d2f16	0.15349993
220	0xbdc9d7b9	-0.09855599
221	0xbdafdf10	-0.08587468
222	0xbdf89523	-0.121378206
223	0xbdd360f8	-0.1032123
224	0xbd28147d	-0.041035164
225	0x3dd5d136	0.104402944
226	0x3e4d748f	0.20063995
227	0x3e080d89	0.13286413
228	0xbe132ab8	-0.14371765
229	0x3dfefa95	0.124501385
230	0x3c9f6c7a	0.019460905
231	0x3e079577	0.1324061
232	0x3e0f79c4	0.14011294
233	0x3ccd092b	0.025028786
234	0x3d8cfc33	0.06884041
235	0xbdafed36	-0.08590166
236	0x3e74556b	0.2386071
237	0x3e821cde	0.2541265
238	0xbbf2b1c1	-0.007406444
239	0xbe072f86	-0.13201723
240	0x3e0e9510	0.1392405
241	0x3d5f1f9e	0.054473512
242	0x3dbec81e	0.09315513
243	0xbdd00c5d	-0.10158608
244	0x3e28b2c3	0.16474442
245	0x3e152081	0.1456318
246	0x3cc735b3	0.024317598
247	0x3e3fb2b8	0.1872052
248	0xbe616e36	-0.22014698
249	0xbda9b785	-0.08286957
250	0x3e32ea4c	0.1747219
251	0x3d58eb6e	0.0529589
252	0x3db523a4	0.088446885
253	0xba98bc21	-0.0011652746
254	0x3dbd2b78	0.09236807
255	0x3e280a47	0.1641017

pi.net.2.bias f4 [50]
0	0x3e334982	0.1750851
1	0xbcaae340	-0.020860314
2	0xbd26ae4d	-0.04069357
3	0x3dd2550b	0.10270127
4	0x3d94e03b	0.07269331
5	0x3d90b425	0.0706561
6	0x3e0b10aa	0.13580576
7	0x3dac2354	0.08405176
8	0x3dce1f8e	0.10064612
9	0x3d26af71	0.040694658
10	0xbd5257d8	-0.051353306
11	0xbe5159b6	-0.20444378
12	0x3ddf70ee	0.109102115
13	0xbc57ffd9	-0.013183557
14	0xbc2a4583	-0.010392549
15	0x3d94ec7c	0.07271668
16	0x3db70bb7	0.08937781
17	0x3e3925fa	0.18080893
18	0x3b7c6c8b	0.0038516845
19	0x3e4fd310	0.20295358
20	0x3e2b25e4	0.16713673
21	0x3dec65bd	0.115428425
22	0x3dc80069	0.09765703
23	0xbe0de49d	-0.1385674
24	0x3b67e972	0.0035386947
25	0xbcf1d205	-0.02951909
26	0x3d43bfbf	0.047790285
27	0x3e0d0941	0.13773061
28	0x3ca81f88	0.020522848
29	0xbdcda396	-0.10040967
30	0xbae05ffa	-0.0017118447
31	0x3e2ff5ef	0.1718366
32	0x3e72d696	0.2371467
33	0xbd6f7506	-0.05846121
34	0x3d22df70	0.039763868
35	0xbdf1f3a4	-0.11814049
36	0xbbf75773	-0.0075482666
37	0x3e36aee6	0.17840156
38	0x3d94e22a	0.072697
39	0xbd654e32	-0.055982776
40	0x3c9d85e2	0.01922888
41	0xbbb3266a	-0.005467226
42	0xbd7f9a03	-0.062402736
43	0x3e013720	0.12618685
44	0x3e159321	0.14606906
45	0xbdb4c2bf	-0.08826207
46	0x3e147cab	0.14500682
47	0xbc975a9b	-0.018475821
48	0x3e679015	0.22613557
49	0xbd1398f1	-0.03603453

pi.net.4.weight f4 [4, 50]
0	0xbc596a2b	-0.013269941
1	0x3e122527	0.14271985
2	0xbe81c724	-0.25347245
3	0xbdc66a86	-0.096882865
4	0xbcf4529a	-0.029824544
5	0x3e93fa67	0.2890198
6	0x3e8309ec	0.25593507
7	0x3c9fb8f2	0.019497368
8	0x3e0a05db	0.13478796
9	0x3d166a94	0.036722735
10	0xbded2a5d	-0.11580346
11	0x3b8a08b3	0.004212463
12	0x3e5c3206	0.21503457
13	0xbe4ca4a8	-0.19984686
14	0xbe446ae0	-0.19181395
15	0xbe590cfa	-0.21196356
16	0x3e46459e	0.19362494
17	0xbe386d34	-0.18010408
18	0xbead372e	-0.3383116
19	0x3e77833d	0.24171157
20	0xbeca014d	-0.39454117
21	0xbe997369	-0.29970863
22	0xbd9bb24f	-0.07602369
23	0xbe259078	-0.16168392
24	0x3decd8b6	0.11564772
25	0x3e1107fd	0.14163204
26	0xbe6dd14c	-0.23224372
27	0xbe9722b8	-0.29518676
28	0xbe47aaa4	-0.19498688
29	0x3dfab2fa	0.12241168
30	0x3dfcf3cc	0.12351188
31	0x3e53c769	0.20681538
32	0x3d85dc1b	0.065361224
33	0xbe2df383	-0.16987424
34	0xbe17a188	-0.14807713
35	0x3e7ac7e6	0.24490318
36	0x3e739880	0.23788643
37	0xbe605c57	-0.21910225
38	0xbde43f6e	-0.11144911
39	0x3e07f89e	0.13278434
40	0x3e435630	0.19075847
41	0x3e135daa	0.14391199
42	0xbde6051b	-0.112314425
43	0x3e5503d2	0.20802239
44	0x3f09d682	0.5384294
45	0x3e4c1d88	0.1993314
46	0xbe4bf3fc	-0.19917291
47	0x3e14f9cc	0.14548415
48	0xbdf46374	-0.11933032
49	0x3e9e8cb8	0.30966735
50	0xbdad6a95	-0.084675945
51	0xbe6a9cd5	-0.22911389
52	0xbe9ddc55	-0.30832162
53	0x3e00a006	0.12561044
54	0x3db2c398	0.08728713
55	0x3d9a0d56	0.07522075
56	0xbdf29188	-0.11844164
57	0x3e85108b	0.25989184
58	0x3e6aadd4	0.22917873
59	0xbe8b6b0b	-0.27230105
60	0x3c46cf5c	0.012134399
61	0xbeb0d9c8	-0.34541154
62	0xbe4d67f2	-0.20059183
63	0xbdb98358	-0.09058255
64	0xbdebdb09	-0.11516387
65	0xbebe5046	-0.3717062
66	0xbdc94fc1	-0.09829665
67	0x3d95149a	0.0727932
68	0x3ccb6620	0.02482897
69	0x3e579ec0	0.21056652
70	0x3e5d2f79	0.2160014
71	0x3e4f1162	0.20221475
72	0x3e4807d9	0.19534244
73	0x3d433872	0.047661252
74	0xbdb191eb	-0.0867041
75	0x3c46c817	0.012132666
76	0x3e36a85d	0.17837663
77	0xbe5db373	-0.21650486
78	0xbd4c5538	-0.04988596
79	0xbe324e7f	-0.17412756
80	0x3e90072b	0.2813047
81	0xbe07d600	-0.13265228
82	0x3e00cb90	0.12577653
83	0xbe5d4a4a	-0.2161037
84	0x3ec0143d	0.3751544
85	0xbdfd9048	-0.12381035
86	0x3d60e00b	0.054901164
87	0xbd87903e	-0.06619309
88	0x3d8c7672	0.06858529
89	0x3eb68abf	0.3565273
90	0x3b6b5849	0.0035910776
91	0xbea6d119	-0.32581404
92	0x3e3e1d63	0.18565898
93	0x3e7457fa	0.23861685
94	0x3e8dc70d	0.27690926
95	0xbdd9ec30	-0.10640752
96	0x3e91b5d2	0.2845903
97	0x3e495cc3	0.19664292
98	0xbe62b269	-0.2213837
99	0xbda92d75	-0.08260623
100	0xbee3d9aa	-0.44502002
101	0x3ed07373	0.4071308
102	0xbe200a54	-0.1562894
103	0xbe33f9e6	-0.17575797
104	0xbe85cc84	-0.26132596
105	0xbe781a8c	-0.24228877
106	0x3ca9df72	0.02073643
107	0xbd83d194	-0.06436458
108	0x3d4a658e	0.049413256
109	0x3e6f61ee	0.23377201
110	0x3d8ee89a	0.06977959
111	0xbe1d9b37	-0.15391241
112	0xbe59b717	-0.2126125
113	0x3d54c6a2	0.051947244
114	0xbcf5c58f	-0.03000143
115	0xbe7f0a9a	-0.24906388
116	0xbe513e0d	-0.20433827
117	0x3e58c255	0.21167882
118	0xbea4220a	-0.3205722
119	0xbe166001	-0.1468506
120	0xbd8c021d	-0.068363406
121	0x3e356c40	0.17717075
122	0x3e6a7d7e	0.22899434
123	0xbdf1222d	-0.11774097
124	0x3d04e34c	0.03244333
125	0xbe04c5c8	-0.12966073
126	0xbe3d2415	-0.18470795
127	0x3e4496eb	0.19198196
128	0xbe138021	-0.14404346
129	0x3e996a6d	0.2996401
130	0xbd59e5bf	-0.05319762
131	0x3ceb9432	0.028757188
132	0x3e12e9b6	0.14346966
133	0x3e890998	0.26765132
134	0xbe4bb7ac	-0.19894284
135	0x396a81a8	0.0002236428
136	0x3db9d32e	0.090734825
137	0x3eb06d07	0.3445818
138	0x3e89f9e0	0.26948452
139	0xbdec0104	-0.11523631
140	0x3e117e63	0.14208369
141	0xbdfa39e7	-0.12218075
142	0x3e2cc57e	0.16872212
143	0xbc385bd7	-0.011252365
144	0xbea28a47	-0.31746122
145	0xbe0c3611	-0.136925
146	0x3e42f5ff	0.19039153
147	0x3e99dfb0	0.30053473
148	0x3c9f9124	0.019478388
149	0x3e40befc	0.18822855
150	0xbe7ea272	-0.24866655
151	0x3d72b5d1	0.059255425
152	0x3bb041da	0.005378944
153	0xbe4c3cd9	-0.19945087
154	0x3e7b9f04	0.24572378
155	0x3d0b0b41	0.03394628
156	0x3e80fb9e	0.2519197
157	0x3e33b4a6	0.1754938
158	0xbe72397a	-0.23654738
159	0x3edbf835	0.42962804
160	0x3e54a209	0.20764937
161	0xbe474d34	-0.19463044
162	0x3e39c4b4	0.18141443
163	0x3e886330	0.26638174
164	0xbebd1c67	-0.36935732
165	0xbd2eb970	-0.042657316
166	0x3b7f70bf	0.0038977114
167	0x3e6ed055	0.2332166
168	0xbe9795f8	-0.29606605
169	0x3e9acdac	0.3023504
170	0xbc17735e	-0.009243814
171	0xbe39f21e	-0.18158767
172	0xbe25d080	-0.16192818
173	0xbea61ce9	-0.32443932
174	0x3eac87dc	0.33697402
175	0xbeb87c1c	-0.36032188
176	0xbeb3b957	-0.3510234
177	0xbc827c79	-0.015928494
178	0xbd95a4f5	-0.07306854
179	0xbe816fce	-0.25280613
180	0xbe5d3eb1	-0.21605946
181	0x3e29ef0e	0.16595098
182	0xbca1a44e	-0.019731667
183	0x3e97cd1d	0.29648677
184	0xbda20268	-0.07910615
185	0x3e12fc52	0.14354065
186	0xbe98eb1b	-0.2986687
187	0x3e18033a	0.14844981
188	0x3ccecc01	0.025243761
189	0x3e5dd78a	0.21664253
190	0x3e9f273b	0.31084618
191	0x3c6bbca9	0.014388242
192	0xbe60588d	-0.2190878
193	0x3d866f88	0.06564242
194	0x3e3073dd	0.17231698
195	0xbea86e34	-0.32896578
196	0x3cfae4f4	0.030626751
197	0xbe1c9c9b	-0.15294115
198	0x3eb9467f	0.36186597
199	0xbe295895	-0.16537698

pi.net.4.bias f4 [4]
0	0xbd1ca16b	-0.038239878
1	0x3e2bb9f2	0.16770151
2	0x3dbe826e	0.09302221
3	0x3e0b2fef	0.13592504

v.net.0.weight f4 [64, 40]
0	0x3ced9e1a	0.029006053
1	0x3f66f128	0.90211725
2	0xbe01f0f7	-0.12689577
3	0x3e5bdbea	0.2147061
4	0xbdc573f5	-0.09641258
5	0x3e2a6524	0.16640145
6	0xbda7ca9f	-0.08192944
7	0x3e321723	0.17391638
8	0xbee5cb69	-0.44881752
9	0xbc4a3dcf	-0.012343838
10	0xbe1b5927	-0.15170728
11	0x3cd6bfa8	0.026214436
12	0x3e4ef6a2	0.2021127
13	0x3dbbd0fe	0.091707215
14	0x3e839dc4	0.25706303
15	0x3e5554e4	0.20833164
16	0x3d0656b0	0.032797515
17	0x3c7f610d	0.015587104
18	0x3d85c511	0.06531728
19	0x3d596006	0.05307009
20	0xbe2facc6	-0.17155752
21	0x3f6c3357	0.9226584
22	0xbea3c9cd	-0.319899
23	0x3e20f34f	0.15717815
24	0x3b0c0608	0.00213659
25	0xbc6eb544	-0.014569584
26	0x3e3ebd3b	0.18626873
27	0x3e735aed	0.23765154
28	0xbf0e49d7	-0.5558142
29	0x3cd5b7fe	0.02608871
30	0x3e394ffe	0.18096921
31	0xbc68424a	-0.014175961
32	0x3e31b01e	0.1735234
33	0x3d186c0b	0.037212413
34	0x3e650e01	0.22368623
35	0x3dd4fa9c	0.103993624
36	0x3c178bc8	0.009249635
37	0x3adc18f0	0.00167921
38	0x3da8eb69	0.08248026
39	0xbbd16d56	-0.0063912077
40	0xbecb60bf	-0.3972225
41	0x3f8258c8	1.0183344
42	0xbd79a543	-0.06094862
43	0x3e51b10f	0.20477699
44	0x3e79e2ef	0.24402975
45	0xbc1b3b3f	-0.009474575
46	0x3d574aa8	0.052561432
47	0x3f0a22f7	0.539596
48	0x3d263509	0.040577922
49	0x3df8e2e5	0.12152652
50	0x3e07cc7d	0.132616
51	0xbe1692ab	-0.14704387
52	0x3c271231	0.010197208
53	0xbeb78c7a	-0.35849363
54	0x3dbea329	0.09308464
55	0xbcef9fa0	-0.02925092
56	0x397ef067	0.00024312884
57	0x3d371873	0.04470105
58	0x3d97e8bc	0.074174374
59	0x3d4a43f9	0.04938123
60	0xbec5061d	-0.38481227
61	0x3f8781ef	1.0586528
62	0xbde2a985	-0.110674895
63	0x3e55a54e	0.2086384
64	0x3e54e4f1	0.20790459
65	0x3dde929b	0.108678065
66	0x3ca0a35a	0.019609142
67	0x3ea76d6c	0.3270067
68	0xbd930cab	-0.071801506
69	0xbcc1711d	-0.023613507
70	0x3e9fd51c	0.31217277
71	0x3d93e77f	0.07221889
72	0x3e01a704	0.12661368
73	0xbe9668b1	-0.29376748
74	0x3e4fa916	0.20279345
75	0xbcdbb017	-0.026817365
76	0x3c97bf37	0.018523796
77	0x3da783ab	0.081794105
78	0x3dcde11b	0.10052701
79	0xbc2b31a6	-0.010448849
80	0xbf37671d	-0.71641713
81	0x3f052e0c	0.52023387
82	0xbead9b53	-0.33907565
83	0xbe1f7d5a	-0.15575162
84	0x3d155217	0.03645524
85	0x3da94e4f	0.08266889
86	0xbf0ef71e	-0.5584582
87	0xbd563b2f	-0.052302536
88	0xbdb3f055	-0.08786074
89	0xbe4d598c	-0.2005369
90	0xbe2b7e7a	-0.16747466
91	0x3c95a8d6	0.018268984
92	0x3d180fe7	0.03712454
93	0xbd9c3f8b	-0.07629307
94	0x3e9b75fe	0.30363458
95	0x3e38f233	0.18061142
96	0xbd0f8dd4	-0.035047367
97	0x3d5ae778	0.053443402
98	0x3c0e397d	0.008680698
99	0xbe0506fc	-0.12990946
100	0xbf397a44	-0.7245219
101	0x3f36ea73	0.7145149
102	0xbe99f5f9	-0.30070475
103	0x3cb8d743	0.022563582
104	0x3e1e19c8	0.15439522
105	0x3d4bea64	0.04978408
106	0xbf328b9a	-0.69744265
107	0xbda75cae	-0.08171974
108	0x3dcaa946	0.098955676
109	0xbe6c4ba4	-0.2307573
110	0xbea557c6	-0.32293528
111	0x3e2ecf27	0.1707121
112	0xba172fe2	-0.0005767328
113	0xbdc83606	-0.09775929
114	0x3e7f8cab	0.24956004
115	0x3eed0a00	0.46296692
116	0x3cc4a1c3	0.024002915
117	0x3c6da62e	0.014504952
118	0x3c4bf05b	0.012447442
119	0xbdeb3b33	-0.11485901
120	0x3bf40bc0	0.00744769
121	0xbe9204a1	-0.28519157
122	0xbf013ccd	-0.504834
123	0xbdbc152b	-0.09183725
124	0xbeb2b12b	-0.34900793
125	0x3d97676d	0.07392774
126	0xbf42ec1e	-0.76141536
127	0xbeacdd7c	-0.3376273
128	0x3ed9afb9	0.42516878
129	0xbe3640d2	-0.17798164
130	0xbd8bf759	-0.06834287
131	0x3cdefbf5	0.027219752
132	0x3e4154c3	0.1887999
133	0x3e880f8e	0.26574367
134	0xbe3b97e1	-0.18319656
135	0x3df0eea6	0.117642686
136	0x3dab9856	0.08378665
137	0x3db590b2	0.08865489
138	0xbc2d92b5	-0.01059406
139	0x3d8fbdf5	0.07018653
140	0x3cfe7889	0.031063335
141	0xbe3a4715	-0.18191178
142	0xbea0bdbf	-0.31394765
143	0xbe83b90a	-0.2572711
144	0xbdb2fe75	-0.0873994
145	0xbdb08ce2	-0.08620621
146	0xbeb11913	-0.34589443
147	0xbeb49d29	-0.35276154
148	0x3e6b65a2	0.22987989
149	0x3da399cc	0.07988319
150	0xbe1aacaf	-0.15104936
151	0xbd8917ae	-0.0669397
152	0x3da40881	0.080094345
153	0x3e2bc103	0.16772847
154	0xbeb06186	-0.34449404
155	0x3e7b72eb	0.24555556
156	0x3dc31eae	0.09527336
157	0x3d9c5b00	0.076345444
158	0xbbdccb8b	-0.0067381314
159	0x3d7bbf02	0.061461456
160	0xbe9524bd	-0.29129592
161	0xbcfe737f	-0.031060932
162	0xbcae4e79	-0.021277653
163	0xbcacc39a	-0.021089364
164	0xb9cc335a	-0.00038948172
165	0xbab8be78	-0.001409485
166	0x3e5268df	0.20547818
167	0x3ced6e45	0.028983245
168	0x3f0dc490	0.55378056
169	0xbd2000bf	-0.03906321
170	0xbc8d39bf	-0.01723945
171	0x3c9b5190	0.01895979
172	0xbd852600	-0.065013885
173	0xbcbf94c5	-0.023386369
174	0x3d09f3d2	0.03367979
175	0xbbfe5479	-0.007761535
176	0x3c85d6cb	0.016337773
177	0x3cd12c72	0.025533888
178	0x3cb824ac	0.022478424
179	0xbd13f3a9	-0.036121044
180	0xbf01f463	-0.5076353
181	0xbe4d8b42	-0.20072654
182	0xbe601c0b	-0.21885698
183	0xbdb407f9	-0.08790583
184	0x3d018f69	0.031630907
185	0xbe02d3e7	-0.12776147
186	0x3ef8ddd1	0.48606732
187	0xbd9559d2	-0.072925225
188	0x3efd52d7	0.49477264
189	0x3e2f44dd	0.17116113
190	0xbe0d4133	-0.13794403
191	0xbbaaf07d	-0.0052166567
192	0xbddc5428	-0.10758239
193	0xbdcea5d0	-0.1009022
194	0x3cfcb47f	0.030847786
195	0x3bb30cda	0.0054641785
196	0x3c1744d1	0.009232716
197	0xbb8c5839	-0.004282978
198	0x3cb43e5c	0.022002392
199	0xbd8fe9cd	-0.07027016
200	0xbf6065dd	-0.8765543
201	0xbf2239c7	-0.6336941
202	0xbd146785	-0.036231536
203	0xbe597cb0	-0.21238971
204	0xbd0a6592	-0.03378827
205	0x3d76c900	0.060250282
206	0xbe32e497	-0.17470013
207	0xbdab5b06	-0.08366971
208	0x3bcf1ca8	0.0063205548
209	0xbc5e6023	-0.0135727255
210	0xbc9947e1	-0.018711032
211	0x3d39bf30	0.045348346
212	0xbd812321	-0.063055284
213	0x3d818e9f	0.06326031
214	0xbe5b1d4b	-0.21397893
215	0x3e17f432	0.14839247
216	0xbc32bdc7	-0.010909504
217	0xbd1ade6d	-0.037809778
218	0xbbb91a3c	-0.0056488793
219	0xbdb3c412	-0.08777632
220	0xbf389575	-0.72103053
221	0xbf34c090	-0.7060633
222	0xbe8d8176	-0.27637833
223	0xbe84f333	-0.25966796
224	0xbe5105ba	-0.20412341
225	0xbe3acf6a	-0.18243185
226	0xbf022b84	-0.5084765
227	0xbe018328	-0.12647688
228	0xbe36bfdd	-0.17846628
229	0xbe7716dd	-0.24129815
230	0xbd989164	-0.07449606
231	0xbdeeb510	-0.11655629
232	0xbd63a348	-0.05557564
233	0xbd8214d1	-0.06351627
234	0xbe764a17	-0.240517
235	0x3d80d6c6	0.06290965
236	0x3d93515b	0.07193252
237	0xbcaf1beb	-0.021375617
238	0xbca52349	-0.020158427
239	0x3c5cc37a	0.01347434
240	0xbf55ec55	-0.8356374
241	0xbed5be75	-0.4174687
242	0x3d27a750	0.040931046
243	0x3e4e5747	0.20150481
244	0xbce59906	-0.028027069
245	0xbde18116	-0.11010949
246	0xbdc13c60	-0.09435344
247	0xbe4c7202	-0.19965366
248	0xbc4a5c58	-0.012351118
249	0xbe4f7278	-0.2025851
250	0x3c9ac49e	0.018892583
251	0x3beb849e	0.00718744
252	0x3d086370	0.033297956
253	0xbe3f7991	-0.18698718
254	0x3d9ed5e1	0.07755638
255	0xbdcb3503	-0.099222206

v.net.0.bias f4 [64]
0	0xbef2be16	-0.4741065
1	0x3e60ecee	0.21965382
2	0xbdf22e02	-0.118251815
3	0x3d944e81	0.07241536
4	0x3e286931	0.16446377
5	0xbadf6b5e	-0.0017045548
6	0x3e9b3389	0.30312756
7	0xbde9e046	-0.1141973
8	0x3e989a4e	0.29805225
9	0xbeb2dd1c	-0.34934318
10	0x3ef265fd	0.47343436
11	0x3ea4b002	0.32165533
12	0xbf17ec8a	-0.59345305
13	0xbf574267	-0.84085697
14	0x3f4460f0	0.76710415
15	0x3d6f54d4	0.058430508
16	0xbc1e84fe	-0.0096752625
17	0x3ed037f2	0.40667683
18	0x3f06d20b	0.5266425
19	0xbd23995b	-0.039941173
20	0xbe0f6856	-0.14004645
21	0xbe21d5ed	-0.15804262
22	0x3fb97b3b	1.4490732
23	0x3f3b4d86	0.73165166
24	0xbfa8e1a2	-1.3193858
25	0x3ea8bcea	0.3295663
26	0xbf9d5850	-1.2292576
27	0xbdc88733	-0.09791412
28	0x3d9fb371	0.077978976
29	0xbcc6c853	-0.024265444
30	0xbf410506	-0.7539829
31	0xbefb6ebe	-0.49107927
32	0x3e12a91e	0.14322326
33	0xbf02873d	-0.5098761
34	0x3e04ff7c	0.12988085
35	0x3f77d1b2	0.96804345
36	0x3e9e4c21	0.30917457
37	0xbe763c0b	-0.24046342
38	0x3f62053f	0.88289255
39	0x3fa93c10	1.3221455
40	0x3d3f6c31	0.04673404
41	0x3e97eccf	0.29672858
42	0xbf0aed61	-0.5426846
43	0xbc987565	-0.018610666
44	0x3e773a59	0.24143352
45	0x3e4a2820	0.19741869
46	0x3eae21f5	0.34010282
47	0xbeb68d11	-0.356545
48	0x3ede6715	0.4343802
49	0x3e0f12cf	0.13972019
50	0xbca4ea86	-0.02013136
51	0xbd07366d	-0.03301089
52	0xbe27a4ae	-0.16371414
53	0xbea70082	-0.32617575
54	0x3d0818a1	0.033226613
55	0xbe453fbb	-0.19262592
56	0x3faa051e	1.3282812
57	0xbce671dd	-0.028130466
58	0xbebbfade	-0.36714834
59	0xbe7f5ed9	-0.24938525
60	0xbd9dad87	-0.07699113
61	0xbd57bc7f	-0.05267
62	0x3f2851be	0.6574973
63	0xbf480dd3	-0.78146094

v.net.2.weight f4 [64, 64]
0	0x3dbea598	0.09308928
1	0x3d665b1a	0.056239225
2	0xbd3dfc10	-0.046382964
3	0xbe86d379	-0.26333216
4	0xbe20c91a	-0.15701714
5	0xbe170335	-0.14747317
6	0xbe64fc78	-0.22361934
7	0xbda0d1c3	-0.07852509
8	0x3d612032	0.054962344
9	0xbe292d34	-0.1652115
10	0xbe01429c	-0.12623066
11	0x3c71e915	0.014765044
12	0x3a0c2d61	0.0005347338
13	0xbc9f22b1	-0.019425722
14	0xbdcf2770	-0.10114944
15	0xbea539a6	-0.32270545
16	0x3d780b35	0.060557563
17	0x3d481708	0.04885009
18	0x3d418c6c	0.047253057
19	0x3e51b901	0.2048073
20	0xbca15fd6	-0.019699018
21	0xbdba4320	-0.09094834
22	0xbe6cc616	-0.23122439
23	0x3de47b95	0.11156384
24	0x3e028bd3	0.12748651
25	0xbc5ee3da	-0.013604129
26	0x3ddd8bea	0.10817702
27	0x3e377903	0.17917256
28	0x3c396b7e	0.011317132
29	0xbcbb8d40	-0.022894502
30	0x3bb172a8	0.0054152794
31	0xbd4e845d	-0.0504192
32	0x3e5f75fd	0.21822353
33	0x3ea09934	0.31366885
34	0xbdc737e9	-0.09727461
35	0xbdbdb174	-0.09262362
36	0xbe1aefa7	-0.15130483
37	0xbc8e26ca	-0.01735248
38	0x3d73dbbf	0.059535738
39	0xbda83a40	-0.08214235
40	0x3d4b07b1	0.049567882
41	0x3dd5a749	0.10432298
42	0xba7e2052	-0.0009694147
43	0xbe556aee	-0.20841572
44	0x3deb2f42	0.11483623
45	0x3dd65555	0.104654945
46	0x3d10e464	0.03537406
47	0xbde03ed2	-0.10949482
48	0xbc16d904	-0.009207014
49	0x3e25b930	0.16183925
50	0x3dee0caf	0.11623513
51	0xbdce4d4e	-0.100733384
52	0xbdc08a5b	-0.09401389
53	0xbe6119d8	-0.21982515
54	0x3e9fb280	0.31190872
55	0xbdeefdc8	-0.11669499
56	0xbdd42473	-0.10358515
57	0xbe52ded9	-0.20592822
58	0x3d8a938e	0.06766425
59	0xbce4de5b	-0.027938059
60	0x3a9e33a8	0.0012069838
61	0x3e63a6ec	0.22231644
62	0x3da11894	0.07866016
63	0xbcbad155	-0.022804895
64	0xbdee2830	-0.11628759
65	0xbe91e3e2	-0.28494173
66	0xbe80b86b	-0.251407
67	0x3d3b19df	0.04567897
68	0xbe800a96	-0.25008076
69	0x3e24cacb	0.16092984
70	0xbe16faf0	-0.14744163
71	0x3d53306e	0.051559858
72	0xbd0c2184	-0.03421165
73	0xbdef88e4	-0.11696032
74	0xbd8cdd75	-0.06878177
75	0xbdc06e48	-0.093960345
76	0xbd700ad2	-0.05860407
77	0xbda7a0f6	-0.08184998
78	0x3d51e2b3	0.051241588
79	0x3a902eb7	0.001100025
80	0x3c48a659	0.012246692
81	0xbda87662	-0.08225705
82	0xbbb70ceb	-0.0055862567
83	0xbd878377	-0.06616872
84	0xbdcc259e	-0.099681124
85	0x3e428e3f	0.18999575
86	0xbeb9a6e8	-0.36260152
87	0xbcf5db6d	-0.030011857
88	0x3ea7ef7b	0.32799897
89	0x3dfbad48	0.1228891
90	0x3dc6b73c	0.09702918
91	0x3dde8b41	0.10866404
92	0xbdd06c9c	-0.101769656
93	0x3bd3b785	0.006461086
94	0x3bdbcc78	0.006707724
95	0x3da67acc	0.081288904
96	0xbe0d7b6b	-0.13816611
97	0xbe5a136f	-0.21296476
98	0x3c9efcf3	0.019407725
99	0xbd117791	-0.035514418
100	0xbe0c6da4	-0.137137
101	0xbdc6f663	-0.09714963
102	0x3d634cd1	0.05549318
103	0xbe9e090f	-0.30866286
104	0x3e934aa4	0.28767884
105	0x3d631693	0.05544145
106	0xbe64f987	-0.22360812
107	0x3d38f918	0.04515943
108	0xbded24aa	-0.11579259
109	0x3e5fa699	0.21840896
110	0xbe155e5f	-0.14586781
111	0xbe3cd179	-0.18439282
112	0xbd6e7b12	-0.058222838
113	0xbe48edfa	-0.19622031
114	0xbdb1941a	-0.08670826
115	0x3e0ef329	0.13959946
116	0xbd1b5d1e	-0.0379306
117	0x3dda7b31	0.10668028
118	0xbe68e30a	-0.22742859
119	0x3c4f97a7	0.012670434
120	0xbeacef24	-0.337762
121	0x3e9b40d9	0.30322912
122	0x3df99377	0.1218633
123	0x3ea6bc49	0.32565525
124	0x3d0ada66	0.033899687
125	0xbe0470eb	-0.129337
126	0xbb350fac	-0.002762775
127	0xbc10b006	-0.00883103
128	0x3e0f60a0	0.14001703
129	0xbccf5606	-0.025309574
130	0x3c352dc0	0.011058271
131	0x3ca32fa1	0.019920172
132	0x3e2462e6	0.16053352
133	0xbec2d9ce	-0.38056797
134	0xbd6452e0	-0.0557431
135	0x3e15db39	0.14634408
136	0x3d8e8d0d	0.06960497
137	0x3cfab786	0.030605089
138	0x3de90a60	0.11378932
139	0xbe958dd1	-0.2920976
140	0x3de7c40e	0.11316691
141	0x3dd663cc	0.104682535
142	0xbd893fb9	-0.06701607
143	0xbe47e175	-0.19519599
144	0xbd7fb841	-0.062431578
145	0xbd292902	-0.041298874
146	0x3c2be6a2	0.010491999
147	0x3ec98414	0.3935858
148	0xbe7adb50	-0.24497724
149	0x3d29aaf2	0.04142279
150	0x3e882ecc	0.26598203
151	0xbded5c1f	-0.11589836
152	0xbe68ab6d	-0.22721644
153	0xbe27f823	-0.1640325
154	0xbdfd69ab	-0.1237367
155	0x3e5bc37b	0.21461289
156	0x3e631a10	0.22177911
157	0x3d8a548d	0.06754408
158	0x3ddba67d	0.107251145
159	0x3cdd2b94	0.026998319
160	0x3e149355	0.14509328
161	0x3ea6f286	0.32606906
162	0x3d8f5177	0.0699796
163	0xbdcadc0b	-0.09905251
164	0xbeb441cb	-0.35206446
165	0xbc95fba6	-0.018308472
166	0xbda6133a	-0.08109136
167	0x3e8ff6b0	0.28117895
168	0x3d459d5f	0.048245784
169	0x3df63b49	0.120230265
170	0x3e5e33ac	0.21699399
171	0xbe2a30ae	-0.16620132
172	0x3d440bd3	0.04786284
173	0xbe03021b	-0.12793772
174	0x3d04aef9	0.03239343
175	0x3e004687	0.12526904
176	0xbe4fb6c9	-0.20284571
177	0x3e35b809	0.17745985
178	0x3d320fe6	0.043472193
179	0xbdfa10c3	-0.12210228
180	0x3e5c6cea	0.21525922
181	0x3cb8a5b7	0.022539956
182	0x3ec75d6e	0.3893847
183	0x3dff56c9	0.12467725
184	0x3e49235a	0.19642392
185	0x3dd206da	0.10255213
186	0xbaabc328	-0.0013104426
187	0xbe61c90c	-0.2204935
188	0xbe048891	-0.12942721
189	0x3eb41222	0.35170084
190	0x3d94e036	0.07269327
191	0x3d087cc3	0.033322107
192	0xbd38fe38	-0.045164317
193	0xbe125b0b	-0.14292543
194	0xbdb06838	-0.08613628
195	0x3cb1b67a	0.021693457
196	0xbda6700a	-0.081268385
197	0xbd9b32aa	-0.07578023
198	0xbdf6a1d1	-0.12042583
199	0x3e4056ff	0.18783186
200	0xbda2ab0f	-0.07942783
201	0xbcbd2b76	-0.023092013
202	0x3de5478b	0.11195286
203	0xbe1fe695	-0.15615304
204	0x3a03f271	0.000503338
205	0xbd5ef63f	-0.054434057
206	0x3e274620	0.16335344
207	0x3e0dc90a	0.13846222
208	0xbde2b2f6	-0.1106929
209	0x3ca9f667	0.020747377
210	0xbd007bfb	-0.031368237
211	0xbc87b579	-0.016566025
212	0xbb4abaa1	-0.0030933993
213	0x3c71112c	0.014713567
214	0xbdd32646	-0.103100345
215	0xbd4e2cb1	-0.05033559
216	0x3e0852b6	0.13312802
217	0x3dded200	0.10879898
218	0xbd951b7d	-0.072806336
219	0x3c437564	0.011929844
220	0xbd8be101	-0.068300255
221	0xbc854d16	-0.016272109
222	0xbdd25414	-0.10269943
223	0x3df693bf	0.12039899
224	0xbdb41a1c	-0.087940425
225	0xbdd85c19	-0.10564441
226	0x3e03e0a8	0.12878668
227	0x3d34106a	0.043960966
228	0xbd2f2250	-0.042757332
229	0xbd93c723	-0.07215717
230	0x3ded8156	0.115969345
231	0xbddabe28	-0.10680801
232	0x3e5b514e	0.21417734
233	0xbd821a77	-0.06352704
234	0x3cacd6be	0.02109849
235	0x3e0ded53	0.13860063
236	0xbdf701a9	-0.120608635
237	0x3d2a6327	0.041598465
238	0xbde84a5a	-0.113423064
239	0x3b1835b2	0.0023225364
240	0xbde04cc3	-0.10952141
241	0xbe409428	-0.18806517
242	0xbb777e40	-0.003776446
243	0xbc88bb8c	-0.016690992
244	0x3d0a6299	0.033785436
245	0x3e09fdf3	0.1347578
246	0xbc921d06	-0.017836105
247	0xbde2896b	-0.11061367
248	0x3e06ed1c	0.13176388
249	0x3de7cfd3	0.11318936
250	0x3d8d7d08	0.069086134
251	0x3e6acf9e	0.22930762
252	0x3d87e85d	0.06636117
253	0x3d2df962	0.042474158
254	0x3b958b90	0.0045637563
255	0x3d4a4164	0.049378768

v.net.2.bias f4 [64]
0	0x3eb1718a	0.34656936
1	0x3eb70842	0.35748488
2	0xbedbd81f	-0.42938325
3	0xbea8f195	-0.32996812
4	0x3eaeb29e	0.3412065
5	0x3ea56905	0.32306686
6	0xbe8db674	-0.27678263
7	0xbe64bd0e	-0.22337744
8	0xbd172c81	-0.036907677
9	0x3e050fbd	0.12994285
10	0xbec4628b	-0.38356432
11	0x3eabc886	0.33551425
12	0xbeb29df7	-0.34886143
13	0xbeb04972	-0.34431034
14	0xbe826738	-0.25469375
15	0xbe78f808	-0.24313366
16	0xbe2f53d4	-0.17121822
17	0x3debaea5	0.1150792
18	0xbe73b3ae	-0.23799011
19	0x3e88d21a	0.26722795
20	0xbe23143a	-0.15925685
21	0xbe822873	-0.25421485
22	0x3e990a52	0.29890686
23	0x3e779676	0.2417849
24	0x3e198650	0.14992642
25	0xbe80bf3f	-0.2514591
26	0xbcccc0c9	-0.02499427
27	0x3d486531	0.04892463
28	0xbe97269d	-0.29521647
29	0xbec8d1a2	-0.39222437
30	0xbebb10dd	-0.36536303
31	0x3eabae98	0.33531642
32	0xbea69a97	-0.32539818
33	0x3e9c776a	0.30559856
34	0x3e920ad9	0.285239
35	0xbee7b220	-0.45253086
36	0xbed16d1d	-0.4090356
37	0x3e8e51b2	0.27796704
38	0x3d00fcbf	0.031491037
39	0xbe7d03e8	-0.24708521
40	0x3ee8617a	0.4538687
41	0x3ebc3955	0.3676249
42	0xbc46975c	-0.012121048
43	0x3ed639c9	0.41840962
44	0xbeb0434e	-0.3442635
45	0xbef987a3	-0.48736295
46	0xbe72758d	-0.23677655
47	0xbec339b9	-0.38129976
48	0x3e9bafa9	0.30407456
49	0xbec36dbe	-0.38169664
50	0x3ea49651	0.32145932
51	0xbea5b658	-0.3236568
52	0x3ed7b476	0.42129868
53	0x3ef3e3da	0.47634774
54	0x3ec48672	0.38383824
55	0xbdc441db	-0.095828734
56	0x3e50e37e	0.20399281
57	0xbec69688	-0.3878672
58	0x3ec98d21	0.39365485
59	0xbe45ceaa	-0.19317117
60	0xbeae4dbf	-0.3404369
61	0xbeb98e94	-0.3624159
62	0x3e945a4b	0.28975138
63	0x3e8c7713	0.27434596

v.net.4.weight f4 [1, 64]
0	0xbdc1959f	-0.09452366
1	0xbd48d7a4	-0.049033776
2	0x3d9f8c6f	0.077904575
3	0x3de885d6	0.11353652
4	0xbda9e667	-0.08295899
5	0xbd7e2997	-0.062051382
6	0x3d414726	0.047186993
7	0x3d7e35de	0.06206309
8	0x3c71a152	0.014747934
9	0xbdc5a64d	-0.0965086
10	0x3e1b4d8a	0.15166298
11	0xbdca9db2	-0.09893359
12	0x3d7a1d49	0.061063085
13	0x3db1c48a	0.08680065
14	0x3e02e805	0.12783821
15	0x3da6de98	0.08147925
16	0x3d9afcfd	0.07567785
17	0xbd934b81	-0.071921356
18	0x3e01043e	0.12599275
19	0xbd41b24e	-0.047289185
20	0x3c8011aa	0.015633423
21	0x3e145e31	0.14489056
22	0xbdb0c713	-0.086317204
23	0xbd56b858	-0.052421898
24	0xbd1811f1	-0.037126485
25	0x3dd66986	0.10469346
26	0xbd649a70	-0.055811346
27	0xbe135e91	-0.14391543
28	0x3dc356e4	0.095380574
29	0x3df664c9	0.12030942
30	0x3e00b113	0.12567548
31	0xbe0ca7d9	-0.13735904
32	0x3dd57518	0.104227245
33	0xbdf78f70	-0.120879054
34	0xbdc197ab	-0.094527565
35	0x3dd17ddc	0.10229084
36	0x3d8f2472	0.06989373
37	0xbdd2d49d	-0.10294459
38	0xbcee816d	-0.02911445
39	0x3da0a7bf	0.07844495
40	0x3e5fce9e	0.21856162
41	0xbd7d7674	-0.061880544
42	0x3d4439fe	0.04790687
43	0xbdc60a9d	-0.09669993
44	0x3dcf72b4	0.101293
45	0x3dc7fee8	0.097654164
46	0x3d3185cb	0.043340486
47	0x3d8c70f1	0.06857479
48	0xbdc57d00	-0.096429825
49	0x3d93293d	0.071856
50	0xbd9d54ab	-0.07682165
51	0x3dc4ec55	0.09615389
52	0xbdfe4ae2	-0.124166265
53	0xbdbb3298	-0.09140509
54	0xbd8527d1	-0.06501735
55	0x3d2c530b	0.042071383
56	0xbc8c7a1e	-0.017148074
57	0x3dffea98	0.12495917
58	0xbdc7ecb4	-0.097619444
59	0x3d3b7d73	0.045773935
60	0x3dceafa9	0.10092098
61	0x3dbad303	0.091222785
62	0xbd963ce3	-0.07335832
63	0xbd8680da	-0.06567545

c.net.0.weight f4 [64, 40]
0	0xbd89f9d2	-0.067371026
1	0xbc148008	-0.009063728
2	0x3c230193	0.009949106
3	0xbd997bda	-0.07494326
4	0x3d05baae	0.032648735
5	0x3d469082	0.048477657
6	0x3de5074c	0.111830324
7	0xbdba1de6	-0.09087734
8	0xbde46327	-0.11151724
9	0xbde8ccd1	-0.11367191
10	0x3dd5c70a	0.10438354
11	0x3b502461	0.0031759965
12	0xbbc120f2	-0.00589382
13	0x3e1a92c2	0.15095046
14	0x3e032d98	0.12810361
15	0x3e028657	0.12746559
16	0xbbac6d71	-0.00526207
17	0x3e11d6a6	0.14242038
18	0xbde20b70	-0.11037338
19	0xbe005213	-0.12531309
20	0xbd2a4207	-0.041566875
21	0x3d2c27da	0.042030193
22	0x3d045317	0.032305803
23	0x3bbeeccc	0.005826568
24	0x3dfd90a8	0.123811066
25	0x3dc6db55	0.09709803
26	0x3ddbe9a2	0.10737921
27	0xbc9546a0	-0.018222153
28	0xbc06194a	-0.00818474
29	0x3d4ebe69	0.050474558
30	0x3db40421	0.0878985
31	0x3dd6bacd	0.10484848
32	0x3e21c98b	0.15799539
33	0x3d81c1a4	0.06335762
34	0xbd305a7e	-0.04305505
35	0xbda65ac2	-0.081227794
36	0xbe0928f9	-0.13394536
37	0xbe122a27	-0.14273892
38	0xbd84a126	-0.06476049
39	0xbd248b14	-0.040171698
40	0xbdffa7a7	-0.12483149
41	0xba62a6bc	-0.0008646061
42	0x3dc13875	0.094345964
43	0x3de0a3e0	0.10968757
44	0xbc15862f	-0.00912623
45	0xbdd73367	-0.10507851
46	0x3c0f0868	0.008730032
47	0xbd3fe26d	-0.046846796
48	0xbdc13bd3	-0.09435239
49	0x3e08527c	0.13312715
50	0xbdd9a500	-0.106271744
51	0xbce10e68	-0.02747269
52	0x3d4d96c6	0.050192617
53	0x3d617c00	0.055049896
54	0xbe0a9161	-0.1353202
55	0xbcbc3b61	-0.022977533
56	0x3e112115	0.14172776
57	0x3cea047b	0.02856659
58	0x3d5ae6c3	0.053442728
59	0x3dade98a	0.0849181
60	0xbceb2995	-0.028706351
61	0xbe21a7cb	-0.15786664
62	0xbd30e348	-0.043185502
63	0x3d9e2fa5	0.07723931
64	0xbd2f91b6	-0.04286357
65	0x3d492ac7	0.04911306
66	0xbdd7ebaa	-0.10542996
67	0xbd876ad1	-0.066121705
68	0xbdfb676d	-0.12275586
69	0xbe09708c	-0.1342184
70	0x3d3b7835	0.045768935
71	0x3df77171	0.12082184
72	0x3ce93fb5	0.02847276
73	0xbe0381b9	-0.12842454
74	0xbd75ce3e	-0.06001114
75	0xbd7dbd6f	-0.061948236
76	0xbd092cae	-0.033489875
77	0x3c2cd6ab	0.010549228
78	0x3d9903a8	0.074714005
79	0xbdfc5edd	-0.12322781
80	0x3bab3bf8	0.0052256547
81	0xbdccc01b	-0.09997579
82	0xbde12745	-0.10993818
83	0x3d225be9	0.039638434
84	0x3e1689b2	0.14700964
85	0x3d0d2661	0.03446043
86	0xbdb99987	-0.09062486
87	0x3d4b721f	0.04966938
88	0xbd14deec	-0.036345407
89	0xbd671d53	-0.05642445
90	0x3c20ef57	0.009822688
91	0x3dad90ae	0.08474861
92	0xbe051b9f	-0.12998818
93	0xbdb56fda	-0.088592246
94	0x3c498630	0.012300059
95	0xbdea4bf0	-0.11440265
96	0xbe07770e	-0.1322901
97	0x3ca42a6f	0.020039765
98	0xbcb82940	-0.022480607
99	0x3d132e2f	0.035932716
100	0x3e13af20	0.14422274
101	0xbdb73c81	-0.08947087
102	0x3e20aca0	0.15690851
103	0x3d86cb00	0.06581688
104	0x3e0cc263	0.13746028
105	0xbc9b656a	-0.018969256
106	0xbbc2475b	-0.0059289164
107	0x3db4c83d	0.08827255
108	0xbd348cb3	-0.044079494
109	0x3adbe965	0.0016777931
110	0xbdf1151b	-0.11771604
111	0xbdca3f27	-0.098753266
112	0xbb2218ac	-0.0024733944
113	0xbc0f6302	-0.008751633
114	0xbe14b137	-0.14520727
115	0xbdf4638f	-0.11933052
116	0xbd8e633d	-0.06952522
117	0x3e1c5e79	0.15270413
118	0x3d3aff4a	0.04565362
119	0xbe0a4a2d	-0.13504858
120	0xbe04f2e5	-0.12983282
121	0xbe10d7b9	-0.14144792
122	0xbdc8ed41	-0.098108776
123	0x3c089067	0.008335209
124	0x3df6c79b	0.120497905
125	0xbe0163a8	-0.12635672
126	0xbe07e00d	-0.13269062
127	0xbda7cb22	-0.081930414
128	0x3e07e1be	0.13269708
129	0xbdbb3f72	-0.091429606
130	0xbe20eea9	-0.15716042
131	0xbe1ce136	-0.15320286
132	0xbe1a1eb0	-0.15050769
133	0x3db9a6ff	0.09065055
134	0xbddda5f7	-0.10822671
135	0xbe003b7a	-0.12522689
136	0x3deae5e4	0.114696294
137	0x3cb844ec	0.022493802
138	0x3daf8271	0.085698016
139	0x3da4ee79	0.080532975
140	0xbdb2d703	-0.087324165
141	0x3b98dc8e	0.004664964
142	0xbde53472	-0.11191644
143	0x3d0eb6d7	0.03484234
144	0xbde6155d	-0.112345435
145	0xbdbc05b1	-0.09180773
146	0x3e2005b5	0.15627177
147	0xbddc33a7	-0.107520394
148	0x3cf64fbd	0.030067319
149	0xbdedd975	-0.11613742
150	0x3ce1cb28	0.027562693
151	0x3daefd57	0.085444145
152	0x3dcc8c16	0.09987657
153	0x3e131bc4	0.1436606
154	0xbd551d14	-0.052029684
155	0x3d89ad28	0.0672248
156	0x3e00c2de	0.12574336
157	0x3dd61b44	0.10454419
158	0xbdd2cfc2	-0.10293533
159	0x3ddf0471	0.10889519
160	0x3d81b4e0	0.06333327
161	0xbe1f3ae5	-0.1554981
162	0x3dcc76b6	0.0998358
163	0xbde8823a	-0.11352964
164	0xbd532b41	-0.051554922
165	0xbe1b8041	-0.15185644
166	0x3e0ac367	0.13551103
167	0x3d0446db	0.032294136
168	0xbdd449ed	-0.10365663
169	0x3deadd3a	0.11467977
170	0xbd1cf9bb	-0.0383241
171	0x3c72315b	0.014782275
172	0xbcfcb761	-0.03084916
173	0x3e14b3db	0.14521734
174	0xbd79fb82	-0.061030872
175	0xbdf7957e	-0.1208906
176	0x3e0ee3a3	0.13954024
177	0xbc33b0b4	-0.010967422
178	0x3cdb0e7d	0.026740307
179	0xbe1c5856	-0.15268072
180	0x3dffcac1	0.12489844
181	0x3e1f90e1	0.1558261
182	0xbde91acc	-0.11382064
183	0x3db0fd67	0.08642083
184	0xbe0b32b9	-0.13593568
185	0xbd4d6b79	-0.050151322
186	0xbc5d4252	-0.0135045815
187	0x3d876846	0.066116855
188	0x3d23531f	0.039874192
189	0x3d8ec758	0.069716156
190	0xbd39fac2	-0.045405157
191	0xbde3cd1b	-0.11123105
192	0x3d361a19	0.044458482
193	0x3d5397a4	0.051658288
194	0x3b7bbacb	0.0038410898
195	0xbbf18f9b	-0.0073718554
196	0x3dfa3750	0.12217581
197	0xbdd65b29	-0.10466606
198	0xbe0f6f7d	-0.14007373
199	0x3d43360c	0.047658965
200	0xbd63b1f3	-0.055589627
201	0xbdabe785	-0.08393768
202	0x3c65661b	0.014001395
203	0x3dfc7c8a	0.123284414
204	0xbcf66533	-0.030077552
205	0x3dd50c6d	0.10402761
206	0x3e0c805d	0.13720842
207	0xbdd6b9b7	-0.10484641
208	0xbe201493	-0.15632848
209	0x3dece7d7	0.115676574
210	0x3dd6d65f	0.10490107
211	0xbceffc05	-0.029294977
212	0xbdcfaa35	-0.10139886
213	0x3ded9f80	0.11602688
214	0xb9fb276e	-0.00047903828
215	0x3cec3d37	0.028837783
216	0x3dad1953	0.08452096
217	0xbd7390b4	-0.05946417
218	0xbdd75077	-0.10513394
219	0x3db294b4	0.08719769
220	0x3c87caf5	0.01657627
221	0x3d6c9f58	0.05776915
222	0xbdf04d5c	-0.11733505
223	0xbc9638d0	-0.018337637
224	0x3ddeee19	0.10885257
225	0xbe18e90a	-0.14932647
226	0xbc027406	-0.007962232
227	0xbd8639d5	-0.06553999
228	0x3d739a36	0.05947324
229	0x3c979cb0	0.018507332
230	0xbca15e6a	-0.01969834
231	0xbdddf457	-0.1083762
232	0xbdb8a3c0	-0.09015608
233	0xbe1f6916	-0.15567431
234	0xbd36f1d3	-0.044664215
235	0xbdf0fc27	-0.11766844
236	0xbd594ec5	-0.053053636
237	0x3de0f3e2	0.10984017
238	0x3e12af64	0.14324719
239	0xbe13f6a5	-0.14449556
240	0x3cdeb86b	0.027187547
241	0xbb129b2d	-0.0022370324
242	0xbd8ee262	-0.06976773
243	0xbe1c563a	-0.15267268
244	0xbd1ac7f4	-0.037788346
245	0xbda91f95	-0.08257977
246	0xbd3c20f4	-0.045929864
247	0x3d0ac881	0.03388262
248	0xbdfbbec1	-0.12292243
249	0x3cd21ebd	0.025649423
250	0xbd3c9086	-0.046036266
251	0x3e14f907	0.14548121
252	0x3e02bf28	0.12768233
253	0xb9b69f1d	-0.00034832294
254	0x3e0e2527	0.1388136
255	0x3dc5c6da	0.096570686
