experiments/07_control_structure_hypothesis/checkpoints/AttitudeRate/ppo/2021-12-15__00-34-18/seed_00085/torch_save/model.pt (torch, 82448 bytes, 19 tensors)

obs_oms.mean f4 [40]
0.24761537 -0.0025105707 1.0073614 0.0010841604 0.00044719412 -0.015681101 0.99519455 0.0013329642
-0.003187183 -0.0047270125 -1.5689868e-05 0.007230271 0.008695702 0.0026590887 0.0029049637 -0.0073603285
0.41734052 0.0034958408 0.0107244 -0.022464296 0.24762943 -0.0025431125 1.0073092 0.0010670037
0.0004784924 -0.015735388 0.9952258 0.0013851719 -0.0032788008 -0.00527011 -0.00065451517 0.007599669
0.0085664885 0.0026533331 0.0029316063 -0.0073088333 0.41594607 0.0034141478 0.0113635 -0.022309564
00000000: e28e 7d3e 6388 24bb 38f1 803f 631a 8e3a
00000010: 6175 ea39 a775 80bc 12c5 7e3f dbb6 ae3a
00000020: 0fe0 50bb 0ee5 9abb bc9d 83b7 e9eb ec3b
00000030: 6b78 0e3c 1b44 2e3b 3461 3e3b e92e f1bb
00000040: a8ad d53e 7a1a 653b 65b5 2f3c 0b07 b8bc
00000050: 9292 7d3e 59aa 26bb 82ef 803f b4da 8b3a
00000060: 2ade fa39 80e7 80bc 1ec7 7e3f a88e b53a
00000070: 26e1 56bb e3b0 acbb c593 2bba a506 f93b
00000080: 755a 0c3c 8be3 2d3b 3120 403b f07e efbb
00000090: e2f6 d43e e5bf 5f3b f92d 3a3c 8cc2 b6bc

obs_oms.std f4 [40]
0.1757726 0.17397685 0.030740973 0.054251444 0.054517318 0.05920227 0.005797357 0.37020954
0.36965773 0.1405167 0.6324852 0.7329342 0.2761482 0.054515865 0.054083373 0.03074086
0.69162434 0.6056702 0.5869138 0.45775405 0.17597592 0.1741985 0.03125178 0.054033842
0.054268852 0.059099145 0.005774676 0.37206227 0.37176788 0.14407967 0.63299423 0.7334902
0.27603823 0.055378795 0.054965727 0.031251736 0.69189304 0.6036505 0.58425105 0.4574998
00000000: bcfd 333e fd26 323e 7ed4 fb3c c336 5e3d
00000010: 8d4d 5f3d 147e 723d c1f7 bd3b 1b8c bd3e
00000020: c743 bd3e 9ce3 0f3e 8dea 213f 93a1 3b3f
00000030: 4c63 8d3e 074c 5f3d 8786 5d3d 42d4 fb3c
00000040: 4b0e 313f 340d 1b3f fc3f 163f bd5e ea3e
00000050: 0833 343e 1761 323e de01 003d 9752 5d3d
00000060: 0449 5e3d f211 723d 7e39 bd3b f27e be3e
00000070: 5c58 be3e 9f89 133e e90b 223f 04c6 3b3f
00000080: e254 8d3e e0d4 623d be23 613d d201 003d
00000090: e71f 313f d788 1a3f 7a91 153f 6a3d ea3e

pi.log_std f4 [4]
-4.5100417 -4.5100417 -4.5100417 -4.5100417
00000000: 4352 90c0 4352 90c0 4352 90c0 4352 90c0

pi.net.0.weight f4 [50, 40]
-0.010717691 -0.2004447 0.059430014 0.16717777 0.079243675 -0.08254101 -0.21945934 -0.029372396
-0.22382753 -0.23473538 -0.23303059 -0.07765183 0.08787977 -0.20871077 0.17639941 0.10039849
0.12870681 -0.07391144 0.056153387 -0.10945861 -0.21442282 0.064884335 0.03850463 0.2466479
-0.11522463 0.017579528 -0.08521734 0.15806401 -0.33297363 -0.2587181 -0.14436173 -0.011211653
0.14926584 -0.2168052 0.15872993 -0.08217809 -0.5057511 0.05182444 0.042833626 0.30811596
0.0296737 -0.2670023 -0.033987902 0.011517403 0.2756924 0.24447814 -0.017730173 0.12219319
0.34110698 -0.051627662 0.056771245 -0.17898749 -0.10566401 -0.24374168 -0.08480071 0.1264242
-0.048389785 0.07506916 0.14633258 -0.26498067 0.036326427 -0.24691391 -0.01662092 -0.04900288
0.08486181 0.018657194 -0.09883703 0.02243034 0.3040382 -0.036462177 -0.056570306 -0.023753386
-0.24750619 -0.10177158 -0.3069587 0.1956572 0.4150205 0.08661644 -0.07608053 -0.2330394
-0.0017454788 -0.20910303 0.068684645 -0.15914312 -0.03208089 -0.11676251 0.068578325 -0.02724817
0.05629498 0.045167197 -0.33431765 -0.0932858 -0.23555371 -0.10203406 0.0010404685 -0.293455
-0.09233255 -0.075331174 0.15166335 0.13230513 0.051269416 -0.040408824 0.20921016 -0.012812648
0.077409156 0.048714034 -0.089841045 -0.19305721 0.1651394 -0.02939645 -0.3624691 0.012806994
0.05024182 -0.11807637 -0.18177028 -0.18778697 -0.14865465 -0.037977803 0.00028830906 0.15530284
-0.09665103 0.22365922 -0.15373048 0.07509272 -0.10627012 -0.39560097 0.015821889 0.020695833
0.003398824 -0.17476521 0.002075689 -0.24063608 0.09762347 -0.21824035 -0.023519276 -0.049139507
-0.028796777 0.18332644 -0.052361988 0.10621928 0.11242682 -0.009401748 -0.03182475 -0.024950378
-0.29074022 -0.39214703 0.04161021 -0.07386819 -0.012148384 -0.2796757 0.19853891 -0.31310177
0.15887038 -0.019919794 -0.07071463 0.076535374 -0.03763248 0.09413822 0.16048078 0.000662167
0.18943097 -0.14284243 -0.058284473 -0.13580377 0.0969227 -0.13919628 -0.16688615 0.37932223
0.039147303 0.17113903 0.098266706 0.1648705 0.046820406 -0.031154852 -0.121913895 -0.14032999
0.4175713 -0.120934345 -0.028759262 0.23616 0.08484777 -0.14370316 0.10064707 -0.07243496
0.18236485 0.06741705 -0.10807734 0.42398414 0.035456404 0.0037528933 -0.14591172 0.15416697
-0.07053343 -0.024255995 0.032580603 -0.09555592 0.18954143 -0.024095718 0.0018215572 0.090069406
0.15507984 -0.38724658 0.018075392 -0.22373621 0.15289783 -0.117825925 0.15183353 0.35419682
-0.06631136 -0.012419132 0.011641341 -0.103639856 -0.040942162 -0.10439191 -0.03654764 0.053453695
-0.028200066 -0.11905612 -0.10508086 -0.0039391965 0.16340333 -0.358682 0.0016750632 -0.05146438
0.26205117 0.01833367 0.13235223 0.27835366 -0.18304414 -0.02696332 -0.19903749 -0.053181097
-0.08693887 -0.08355686 -0.05610324 0.21693213 -0.08012592 -0.074595794 0.07680055 -0.017754674
-0.19082278 0.15726177 -0.043980118 -0.21013685 -0.1602598 -0.07185026 -0.021770915 0.010343529
-0.10764392 0.10628 0.20651467 -0.36452347 0.0011006653 0.018978406 0.05206097 0.03993432
00000000: 4199 2fbc 6041 4dbe e36c 733d a630 2b3e
00000010: 824a a23d 430b a9bd f3b9 60be 619e f0bc
00000020: 0b33 65be 795e 70be 929f 6ebe ec07 9fbd
00000030: 4ffa b33d 47b8 55be 0ca2 343e b99d cd3d
00000040: b8cb 033e e25e 97bd 1801 663d d62b e0bd
00000050: a891 5bbe 14e2 843d 08b7 1d3d 4491 7c3e
00000060: e4fa ebbd f102 903c 6e86 aebd 88db 213e
00000070: 857b aabe b376 84be 90d3 13be 15b1 37bc
00000080: 25d9 183e 2f02 5ebe 198a 223e fd4c a8bd
00000090: e778 01bf dd45 543d 5072 2f3d 60c1 9d3e
000000a0: 4216 f33c 87b4 88be e636 0bbd 7db3 3c3c
000000b0: 8e27 8d3e 7a58 7a3e de3e 91bc 6c40 fa3d
000000c0: 93a5 ae3e 8777 53bd f788 683d 7f48 37be
000000d0: 5f66 d8bd 6b97 79be ffab adbd 5875 013e
000000e0: 5e34 46bd dcbd 993d 35d8 153e 8cab 87be
000000f0: 05cb 143d 00d7 7cbe 9828 88bc 3eb7 48bd
00000100: 07cc ad3d f9d6 983c 126b cabd d5bf b73c
00000110: e5aa 9b3e 5d59 15bd 44b6 67bd 7696 c2bc
00000120: 4372 7dbe 9e6d d0bd b129 9dbe 5c5a 483e
00000130: 917d d43e f663 b13d 1cd0 9bbd e1a1 6ebe
00000140: 8dc8 e4ba 1b1f 56be 89aa 8c3d 6af6 22be
00000150: 4067 03bd 2f21 efbd cb72 8c3d 8e37 dfbc
00000160: 9195 663d 3d01 393d af2b abbe a00c bfbd
00000170: fe34 71be 3cf7 d0bd 5460 883a bc3f 96be
00000180: d918 bdbd 3b47 9abd a34d 1b3e ff7a 073e
00000190: e1ff 513d b983 25bd 303b 563e 24ec 51bc
000001a0: b188 9e3d 5e88 473d 95fe b7bd cab0 45be
000001b0: 4e1a 293e d3d0 f0bc 8d95 b9be 6dd4 513c
000001c0: 5eca 4d3d 06d2 f1bd fd21 3abe 3a4b 40be
000001d0: ed38 18be 9d8e 1bbd 3028 9739 b507 1f3e
000001e0: faf0 c5bd ec06 653e 866b 1dbe 36ca 993d
000001f0: 26a4 d9bd 368c cabe e89c 813c 4f8a a93c
00000200: cebe 5e3b a7f5 32be 4808 083b 4e69 76be
00000210: d0ee c73d 667a 5fbe 7fab c0bc 8246 49bd
00000220: 38e7 ebbc edb9 3b3e 8679 56bd 7e89 d93d
00000230: 0840 e63d ca09 1abc ab5a 02bd bc64 ccbc
00000240: e7db 94be 7fc7 c8be 786f 2a3d 3548 97bd
00000250: 040a 47bc a731 8fbe c94d 4b3e e04e a0be
00000260: ebae 223e d62e a3bc d5d2 90bd 94be 9c3d
00000270: 8424 1abd 8acb c03d 1355 243e 4695 2d3a
00000280: 31fa 413e 4945 12be b3bb 6ebd 2510 0bbe
00000290: 697f c63d 7889 0ebe 34e4 2abe 8636 c23e
000002a0: ec58 203d 123f 2f3e 0e40 c93d d0d3 283e
000002b0: c1c6 3f3d 7638 ffbc fead f9bd aab2 0fbe
000002c0: e8cb d53e 6dac f7bd 8b98 ebbc edd3 713e
000002d0: abc4 ad3d ec26 13be 0d20 ce3d c858 94bd
000002e0: dabd 3a3e f311 8a3d a757 ddbd 7314 d93e
000002f0: bc3a 113d 1af3 753b e269 15be f2dd 1d3e
00000300: d573 90bd 82b4 c6bc 3d73 053d d2b2 c3bd
00000310: 2617 423e 6264 c5bc 51c1 ee3a 4f76 b83d
00000320: 40cd 1e3e 2f45 c6be d812 943c 1b1b 65be
00000330: 4091 1c3e b84e f1bd 407a 1b3e 4959 b53e
00000340: 40ce 87bd 9d79 4bbc 53bb 3e3c 2241 d4bd
00000350: f8b2 27bd 6dcb d5bd fab2 15bd 43f2 5a3d
00000360: d303 e7bc b2d3 f3bd a234 d7bd 6014 81bb
00000370: 3453 273e 2ba5 b7be cb8d db3a 50cc 52bd
00000380: 922b 863e 7e30 963c 5887 073e 5f84 8e3e
00000390: ec6f 3bbe 2ee2 dcbc 7cd0 4bbe 6cd4 59bd
000003a0: 020d b2bd dc1f abbd 83cc 65bd 7523 5e3e
000003b0: 0f19 a4bd aec5 98bd 9b49 9d3d 4072 91bc
000003c0: 0c67 43be 3b09 213e 7f24 34bd 1d2e 57be
000003d0: 251b 24be 3b26 93bd eb58 b2bc e877 293c
000003e0: 6a74 dcbd 54a9 d93d 9578 533e d2a2 babe
000003f0: 3344 903a 9a78 9b3c e23d 553d 2b92 233d

pi.net.0.bias f4 [50]
-0.17971556 -0.06900242 0.16596238 0.11334886 0.2575354 0.4132934 0.37892172 0.3222049
0.21870159 0.1394073 -0.29581982 -0.08951534 0.1177696 0.15954544 0.009663758 -0.0009424359
0.032136723 -0.22046573 0.037830215 0.0019286169 0.17802413 -0.020042775 0.15387617 -0.52719146
0.04354504 -0.07265619 0.15687932 0.4186158 0.24333033 -0.2369876 -0.023811324 0.4389257
-0.18252072 0.24260657 0.14630759 0.2705652 -0.06253186 -0.12725066 0.04760389 0.4535691
0.122026004 0.426067 0.07052523 0.005506705 0.30884734 0.03987033 0.4904981 -0.3678173
0.19223352 0.14486423
00000000: 5b07 38be 2451 8dbd 0bf2 293e 7223 e83d
00000010: aedb 833e 319b d33e 0702 c23e 0af8 a43e
00000020: 4ff3 5f3e cac0 0e3e b275 97be d253 b7bd
00000030: 3031 f13d e15f 233e bd54 1e3c cd0d 77ba
00000040: cca1 033d c5c1 61be dbf3 1a3d a5c9 fc3a
00000050: f54b 363e bf30 a4bc b791 1d3e 05f6 06bf
00000060: 495c 323d c5cc 94bd f9a4 203e cf54 d63e
00000070: 962b 793e e1ac 72be f70f c3bc dfba e03e
00000080: b6e6 3abe db6d 783e a8d1 153e 8687 8a3e
00000090: b410 80bd ff4d 02be 4cfc 423d 363a e83e
000000a0: c5e8 f93d 7425 da3e 886f 903d 9771 b43b
000000b0: 3d21 9e3e 124f 233d 9122 fb3e 8d52 bcbe
000000c0: ddd8 443e 4a57 143e

pi.net.2.weight f4 [50, 50]
-0.28964725 -0.2724384 -0.15614773 -0.17939018 -0.23412585 0.1911442 -0.022353597 0.081491366
-0.051774457 0.021871123 0.111986645 -0.16512036 0.11887723 0.0807658 -0.16657391 0.16235125
-0.19885467 0.08425373 -0.07063384 0.086396344 0.28515708 0.012989349 -0.036574427 0.29260415
0.3324062 -0.38342083 0.045310605 0.052945 -0.2634379 0.0030291383 -0.11714901 -0.18840708
0.05048205 0.013895846 -0.069063194 -0.022908004 -0.05854861 0.054222487 0.08065499 0.10995703
0.05369315 0.113211945 0.2150097 -0.11267709 0.1803336 0.007069969 0.05033588 0.036340952
-0.07009623 -0.21019082 0.2620106 -0.10431003 6.8489106e-05 0.095550835 -0.010571615 -0.33260012
-0.00838905 0.13698728 0.24444462 0.008172868 0.14180407 -0.1966333 0.11636903 0.05504227
-0.07911006 -0.0008587726 0.062504545 0.0022948843 0.19471923 0.12976427 -0.32278192 -0.07749001
-0.19395998 0.09369912 -0.118343115 0.081158265 -0.0843131 -0.21729705 -0.22092243 -0.036828082
0.18805012 -0.018025953 0.07413444 0.15917493 0.058754995 0.040018223 -0.015813183 -0.25397047
-0.07394333 0.06921081 -0.08711707 -0.097427025 0.037303362 -0.046963803 -0.08818958 -0.010407558
0.03141865 -0.007169324 0.024984386 0.1636152 0.03599162 -0.092877574 0.07704071 -0.11308162
0.076733224 0.03583077 -0.10652072 0.17286758 0.10768722 0.14662574 0.14958033 -0.1466405
-0.029491339 -0.04146248 -0.12490688 -0.07198614 0.13874441 0.1584786 0.014847352 0.24167062
0.0021508134 0.16948797 0.14659008 0.056884155 0.1850296 -0.017493783 0.06368969 0.052210707
-0.07021247 -0.07272491 0.13766131 0.09041876 0.267709 0.036027297 -0.023194736 0.05818866
0.1335545 -0.00074940844 -0.0017021397 -0.065702535 -0.25300565 -0.12978941 -0.13073006 0.02096711
-0.0443545 0.009108687 -0.068495415 -0.2633688 0.04217856 0.0967105 -0.049051497 0.094434634
0.022298867 -0.23744264 0.1940052 -0.12441286 -0.034585997 -0.11341907 -0.014691446 0.18701941
0.1692594 -0.018401006 0.22223142 -0.010429334 0.18359563 -0.05256229 0.2627974 0.04449796
-0.2799221 -0.07244264 0.17016892 0.12011799 -0.03301111 0.30573657 0.091637775 -0.16352573
-0.18567571 -0.0005738252 0.049511593 -0.10224229 -0.11165722 -0.055843625 -0.007652654 -0.019729435
0.079726264 -0.19635841 -0.1524203 -0.05720943 0.03182055 -0.055203713 -0.08725989 0.1713564
-0.00215368 -0.0039603286 -0.0827699 0.14592113 -0.077319875 0.04098946 -0.0045517776 0.22301428
0.09420665 0.008417091 0.057259634 -0.12431993 0.03388853 0.19328828 -0.02239481 0.1809364
0.14831442 0.047087096 -0.09277356 -0.120074324 0.06986971 -0.022891227 -0.14445236 -0.0085853925
-0.1699024 -0.06547399 0.2059838 0.09871753 -0.029159166 0.08787731 -0.09331375 0.09565176
0.03330787 -0.14086062 0.103884384 -0.11545636 -0.016035778 -0.40324357 -0.17249328 0.019826528
0.31111136 0.1525631 -0.30509833 0.10636895 -0.26273176 -0.14836745 0.14781353 0.16790774
0.023592504 -0.07174258 0.07865459 -0.12292049 -0.093404576 -0.09019244 0.12736295 0.07904188
0.009764005 0.05714413 0.014466818 -0.068097755 -0.050842814 -0.041261 -0.24580798 -0.15421164
00000000: a54c 94be 0c7d 8bbe 31e5 1fbe 0fb2 37be
00000010: b0be 6fbe 4ebb 433e e41e b7bc f2e4 a63d
00000020: 7411 54bd 122b b33c 4159 e53d 5015 29be
00000030: e875 f33d 8a68 a53d 5a92 2abe 683f 263e
00000040: 8fa0 4bbe 388d ac3d 7aa8 90bd 91f0 b03d
00000050: 1c00 923e 47d1 543c 11cf 15bd 36d0 953e
00000060: 2531 aa3e bc4f c4be 9d97 393d dbdc 583d
00000070: 55e1 86be 8284 463b d2eb efbd c9ed 40be
00000080: 44c6 4e3d 67ab 633c 0171 8dbd 91a9 bbbc
00000090: abd0 6fbd 6618 5e3d 722e a53d 2731 e13d
000000a0: 59ed 5b3d aadb e73d 812b 5c3e 3fc3 e6bd
000000b0: 5fa9 383e 33ab e73b ff2c 4e3d 40da 143d
000000c0: 9d8e 8fbd 433c 57be 4126 863e 7fa0 d5bd
000000d0: cfa1 8f38 28b0 c33d 9134 2dbc 904a aabe
000000e0: 3a72 09bc 6546 0c3e b14f 7a3e 7ee7 053c
000000f0: 1635 113e 3d5a 49be e352 ee3d 0174 613d
00000100: 7504 a2bd 411f 61ba 6202 803d c565 163b
00000110: 7a64 473e ede0 043e ac43 a5be 15b3 9ebd
00000120: 729d 46be 53e5 bf3d e05d f2bd 4e36 a63d
00000130: 59ac acbd 1e83 5ebe 7d39 62be 0bd9 16bd
00000140: 3690 403e 2aab 93bc ccd3 973d c1fe 223e
00000150: 14a9 703d 26ea 233d a68a 81bc 6b08 82be
00000160: 9a6f 97bd 66be 8d3d 6f6a b2bd d287 c7bd
00000170: 69cb 183d 1e5d 40bd bd9c b4bd 7684 2abc
00000180: d8b0 003d a6ec eabb 0eac cc3c be8a 273e
00000190: f36b 133d 9936 bebd 85c7 9d3d 5697 e7bd
000001a0: 4f26 9d3d 49c3 123d 8927 dabd 3304 313e
000001b0: 1e8b dc3d 0f25 163e 962b 193e ed28 16be
000001c0: d297 f1bc 90d4 29bd 2ecf ffbd 786d 93bd
000001d0: 0413 0e3e 3748 223e 4f42 733c 8178 773e
000001e0: a9f4 0c3b 418e 2d3e b61b 163e 5cff 683d
000001f0: 6678 3d3e 1f4f 8fbc bd6f 823d e5da 553d
00000200: 8ecb 8fbd ccf0 94bd 16f7 0c3e 792d b93d
00000210: 2711 893e 5c91 133d e302 bebc 3b57 6e3d
00000220: 83c2 083e f373 44ba 551a dfba 0d8f 86bd
00000230: f589 81be 84e7 04be 1ade 05be 37c3 ab3c
00000240: 10ad 35bd 9a3c 153c 5347 8cbd 46d8 86be
00000250: 6dc3 2c3d 2810 c63d 39ea 48bd f266 c13d
00000260: 1dac b63c 2a24 73be 4da9 463e 2bcc febd
00000270: 0caa 0dbd 4248 e8bd 64b4 70bc 0482 3f3e
00000280: 5652 2d3e b5bd 96bc a290 633e ccdf 2abc
00000290: 7e00 3c3e 8e4b 57bd 618d 863e 7e43 363d
000002a0: f351 8fbe cf5c 94bd c340 2e3e 6c00 f63d
000002b0: a836 07bd 8189 9c3e 96ac bb3d 4a73 27be
000002c0: c621 3ebe c26c 16ba abcc 4a3d 6864 d1bd
000002d0: 8aac e4bd 49bc 64bd 1dc3 fabb a09f a1bc
000002e0: 8647 a33d 2e12 49be 1114 1cbe 6f54 6abd
000002f0: 4456 023d 4a1d 62bd 50b5 b2bd 0d78 2f3e
00000300: c124 0dbb a5c5 81bb 4483 a9bd 596c 153e
00000310: e259 9ebd 90e4 273d 1427 95bb db5d 643e
00000320: 6bef c03d d7e7 093c 1489 6a3d 739b febd
00000330: b3ce 0a3d 5ded 453e 5275 b7bc 6447 393e
00000340: bcdf 173e 66de 403d 1000 bebd 87e9 f5bd
00000350: da17 8f3d 6286 bbbc 52eb 13be bfa9 0cbc
00000360: e5fa 2dbe 3a17 86bd 6bed 523e 6b2c ca3d
00000370: 34df eebc 05f9 b33d 481b bfbd 12e5 c33d
00000380: d56d 083d c43d 10be 56c1 d43d 6274 ecbd
00000390: 775d 83bc f175 cebe 14a2 30be 3e6b a23c
000003a0: fd49 9f3e 8039 1c3e d935 9cbe f7d7 d93d
000003b0: c784 86be a3ed 17be 6e5c 173e 02f0 2b3e
000003c0: 1145 c13c c6ed 92bd a815 a13d bdbd fbbd
000003d0: e64a bfbd d0b6 b8bd 6f6b 023e b6e0 a13d
000003e0: 35f9 1f3c f70f 6a3d 3c06 6d3c d676 8bbd
000003f0: 8e40 50bd 4b01 29bd 16b5 7bbe a8e9 1dbe

pi.net.2.bias f4 [50]
-0.021690069 -0.010212243 0.06161871 0.06066155 -0.08195613 0.14890005 0.110789984 0.028758153
0.22189952 -0.313585 -0.07806859 0.11239978 0.17176305 -0.12088815 -0.017915448 0.2859042
0.18874954 0.096398 0.044099916 0.14753208 0.066894844 0.018186593 0.040568836 -0.05880235
0.11013813 -0.092671975 0.17098014 -0.120956436 0.005754722 0.0062967096 -0.093202 0.26020846
0.039786812 0.14323382 0.1641816 -0.006004552 0.10296649 -0.012793539 0.009742283 -0.03620784
0.00842191 -0.07469036 0.06409373 -0.32022363 0.034150746 -0.016167134 -0.118201695 -0.0029774932
0.035699856 -0.16974391
00000000: 5faf b1bc 4051 27bc e763 7c3d 3f78 783d
00000010: 9ed8 a7bd 4179 183e dce5 e23d 3896 eb3c
00000020: a139 633e 378e a0be 6de2 9fbd db31 e63d
00000030: a7e2 2f3e 3594 f7bd 6bc3 92bc 0962 923e
00000040: 8f47 413e 516c c53d 1da2 343d a612 173e
00000050: 2a00 893d 0dfc 943c 822b 263d bcda 70bd
00000060: 1a90 e13d ceca bdbd 6b15 2f3e 02b8 f7bd
00000070: 1b92 bc3b a154 ce3b b1e0 bebd 0b3a 853e
00000080: 7ff7 223d e3ab 123e 391f 283e d5c1 c4bb
00000090: 18e0 d23d fe9b 51bc 199e 1f3c ac4e 14bd
000000a0: 0dfc 093c 42f7 98bd 9343 833d 5af4 a3be
000000b0: a7e1 0b3d f070 84bc bb13 f2bd 0c22 43bb
000000c0: 033a 123d 59d1 2dbe

pi.net.4.weight f4 [4, 50]
-0.047471676 0.16164625 0.1722492 -0.01829553 0.31176817 -0.3041235 -0.03627338 0.26845133
-0.3531692 -0.017070351 -0.48230603 -0.459835 0.04535405 0.115489624 -0.091064416 -0.094531834
0.048720818 -0.2436071 -0.37922755 -0.1304379 -0.14978224 0.18727687 0.42303264 0.57142884
-0.093129456 0.26830274 0.067384936 0.4766688 0.13540535 -0.48815513 0.096599676 -0.27419275
0.17030942 0.18246962 -0.27620423 0.05509287 0.51276404 -0.04706614 0.07428327 0.020060865
0.05604139 -0.38964358 -0.26875672 -0.11192524 -0.10229261 0.21777797 -0.39985213 0.6864259
0.34509593 -0.096427426 -0.23290125 -0.05766436 0.15907319 -0.22786734 0.26477945 -0.33636165
0.07320701 -0.003196615 -0.34432495 0.11457679 -0.30779874 0.08668373 0.014689788 -0.0014618261
0.1750518 0.30345035 0.3406108 -0.13801627 0.25688532 -0.013884921 -0.12646665 0.24313527
0.28218907 -0.15186566 0.43600786 -0.36753142 0.17531677 0.29793128 -0.1368974 -0.16887407
-0.45276842 -0.02646081 -0.27763215 -0.5889188 0.35295856 -0.14865094 0.3836295 -0.30093104
-0.28337005 0.21529603 0.10541848 -0.14515103 0.067655005 0.7748208 -0.3411875 -0.19021636
0.32820642 -0.16306302 -0.21348837 -0.23937511 -0.34691182 0.18705332 -0.27323335 -0.24528591
-0.18616617 -0.0034032331 -0.2681876 -0.02079779 0.08047032 0.8497727 0.07942851 -0.39523593
0.29178226 0.42806175 -0.20277388 -0.2576171 0.22950056 -0.025072565 -0.06641273 -0.20404051
-0.017415527 -0.1348144 0.3504861 0.0345936 0.14258407 0.22975494 0.2966074 0.3601876
-0.12754942 0.13316095 0.33679265 0.49572194 -0.19483347 -0.46826714 0.114055336 0.24088968
0.07655336 0.114509895 0.36676165 0.18302867 -0.29673848 0.064262494 0.14113358 -0.0064650658
-0.33101776 0.32905212 0.2159696 -0.10045547 -0.03553732 0.39571688 0.1057396 -0.042276125
-0.24999365 -0.23489706 -0.11283259 0.1299429 0.17559066 -0.12122004 -0.100759 0.0517019
-0.21355288 0.006777205 0.16009253 -0.24507055 -0.40502843 0.011559625 -0.036036447 -0.34872344
0.4406712 -0.265926 0.0525383 0.057874497 -0.38951385 0.22447525 0.33054844 -0.29547715
-0.5519489 -0.06400638 0.07971679 -0.0948598 0.2297546 -0.20008454 -0.22408108 0.05084276
-0.1089286 0.02933655 -0.5469754 -0.08874733 0.29431987 0.27589694 0.16155915 -0.41646236
0.2986897 0.09590767 0.27232376 -0.00014552796 -0.08547684 0.54845726 -0.07899905 0.17265321
00000000: a971 42bd 9886 253e 1862 303e 82e0 95bc
00000010: 14a0 9f3e 13b6 9bbe 6593 14bd 7472 893e
00000020: 98d2 b4be 1fd7 8bbc d1f0 f6be 7e6f ebbe
00000030: 2bc5 393d d385 ec3d fb7f babd e899 c1bd
00000040: 7b8f 473d 2474 79be 1d2a c2be 8391 05be
00000050: 8460 19be 82c5 3f3e bc97 d83e 2949 123f
00000060: a8ba bebd fa5e 893e 1d01 8a3d ef0d f43e
00000070: b3a7 0a3e 78ef f9be 0dd6 c53d fe62 8cbe
00000080: 9865 2e3e 51d9 3a3e a46a 8dbe 10a9 613d
00000090: 8144 033f 6dc8 40bd d421 983d af56 a43c
000000a0: a88b 653d 5d7f c7be 7b9a 89be 0f39 e5bd
000000b0: ca7e d1bd 3001 5f3e 6bb9 ccbe 9cb9 2f3f
000000c0: 6ab0 b03e be7b c5bd aa7d 6ebe 7731 6cbd
000000d0: 15e4 223e 0e56 69be 2c91 873e 9837 acbe
000000e0: 8fed 953d 4d7e 51bb 5c4b b0be 3ca7 ea3d
000000f0: cc97 9dbe 3d87 b13d 70ad 703c bf9a bfba
00000100: c740 333e d85d 9b3e 8a64 ae3e 2354 0dbe
00000110: 7986 833e 947d 63bc 7980 01be 74f8 783e
00000120: 167b 903e ac82 1bbe 6c3c df3e 142d bcbe
00000130: 3d86 333e 738a 983e d52e 0cbe 53ed 2cbe
00000140: 43d1 e7be 57c4 d8bc cd25 8ebe 62c3 16bf
00000150: fcb6 b43e f437 18be 166b c43e a213 9abe
00000160: e115 91be 9076 5c3e a5e5 d73d 79a2 14be
00000170: b58e 8a3d a85a 463f 21b0 aebe 14c8 42be
00000180: ac0a a83e fef9 26be b29c 5abe c01e 75be
00000190: 6d9e b1be e88a 3f3e 3ee5 8bbe 3b2c 7bbe
000001a0: 58a2 3ebe c708 5fbb e34f 89be 2060 aabc
000001b0: a0cd a43d b48a 593f 6aab a23d 5d5c cabe
000001c0: 7c64 953e e92a db3e f5a3 4fbe 63e6 83be
000001d0: 3202 6b3e fb64 cdbc 6603 88bd ffef 50be
000001e0: 02ab 8ebc c90c 0abe ea72 b33e 05b2 0d3d
000001f0: 8f01 123e e144 6b3e eddc 973e 826a b83e
00000200: 519c 02be 585b 083e 1670 ac3e 44cf fd3e
00000210: 6d82 47be b6c0 efbe d895 e93d c9ab 763e
00000220: 02c8 9c3d 2a84 ea3d 2fc8 bb3e de6b 3b3e
00000230: 1bee 97be 0e9c 833d 5285 103e e7d8 d3bb
00000240: 297b a9be 8579 a83e 2327 5d3e 99bb cdbd
00000250: 958f 11bd 679b ca3e 018e d83d bb29 2dbd
00000260: 56fe 7fbe db88 70be c614 e7bd c00f 053e
00000270: 0ace 333e 3642 f8bd bc5a cebd 5fc5 533d
00000280: 9bad 5abe 5113 de3b 4cef 233e c6f3 7abe
00000290: e35f cfbe 9564 3d3c f49a 13bd e18b b2be
000002a0: a89f e13e 7427 88be 6732 573d cf0d 6d3d
000002b0: 5c6e c7be d7dc 653e a53d a93e c848 97be
000002c0: 864c 0dbf c715 83bd 8e42 a33d db45 c2bd
000002d0: ca44 6b3e f6e2 4cbe 8375 65be 7f40 503d
000002e0: f515 dfbd 3453 f03c 9406 0cbf 29c1 b5bd
000002f0: 18b1 963e 5d42 8d3e c36f 253e 8e3a d5be
00000300: dbed 983e 3e6b c43d 056e 8b3e dd98 18b9
00000310: 7b0e afbd b267 0c3f 41ca a1bd 01cc 303e

pi.net.4.bias f4 [4]
-0.09917098 0.05897027 0.07209673 -0.11447931
00000000: 281a cbbd cf8a 713d 73a7 933d 2174 eabd

v.net.0.weight f4 [64, 40]
-0.538783 -0.021191886 -0.023938838 -0.1317417 0.058229074 0.17861079 -0.05209998 -0.23298767
0.54536474 -0.19869424 -0.0043341974 0.068892986 -0.0031507865 -0.11100964 -0.35305786 0.23675413
0.01499652 0.03226601 -0.0062928665 -0.043603096 -0.5957497 -0.15317957 -0.08737208 -0.2936097
-0.2092163 -0.078803994 -0.1484373 -0.15010385 0.5761209 -0.12457735 -0.06852193 -0.1592286
-0.018432673 -0.06387608 -0.41596302 0.16810042 0.0026138073 -0.0050414167 -0.008908121 -0.0489892
-0.17573717 0.19614746 0.10139882 -0.09626217 0.2283391 0.31644508 -0.17720518 -0.12546183
0.0135451825 0.06836984 -0.041201636 0.02184442 0.009476707 0.028482083 0.004471021 0.06759986
0.029614223 -0.031728823 0.0015718231 0.033924535 0.023859922 0.08142702 0.11479374 -0.18507779
0.17244428 0.38330394 -0.13800675 -0.013819655 0.122396216 -0.09117312 0.08369976 -0.08012262
0.011081963 -0.07873579 -0.028959427 -0.0024573407 0.00225301 -0.020923667 0.00490545 0.0051556733
-0.06441599 -0.5407395 -0.18817697 -0.042599134 -0.13118184 -0.05261875 0.029457206 -0.17214815
0.11613444 -0.03587707 0.044585094 -0.09247424 -0.059060317 0.13765179 -0.28032202 -0.0710342
-0.09760978 -0.049527653 -0.020921325 0.00850266 0.00045882305 -0.51386666 0.021970974 0.009332257
0.18461864 0.05538865 0.23913054 -0.16806147 0.06097002 -0.31663874 -0.036158208 0.0014402244
-0.04121811 0.072142474 -0.28639096 -0.017923683 -0.07194252 -0.03688236 -0.05383842 0.004993431
-0.01756707 -0.1544938 -0.040047627 -0.14976072 -0.29125494 0.15279853 0.10532821 0.035495225
0.13083847 -0.01760746 0.01023725 -0.02986512 0.021602368 0.15820035 -0.11443892 -0.1335078
-0.0045257756 0.00838739 0.04554338 -0.07593688 0.20111118 -0.33487332 0.011646791 -0.15603417
-0.24147242 0.16775621 0.49188918 0.125913 0.19674052 -0.12386631 0.15275753 0.023653034
-0.0013569677 0.19660594 -0.12031432 -0.10808078 -0.002851017 0.0042745634 0.056490455 -0.107416615
0.115757406 0.3246945 -0.027409434 -0.16595617 -0.11853381 -0.059668772 -0.04510495 -0.29997918
0.28512266 0.018472161 0.08808516 0.116482325 -0.0049735657 0.19890687 -0.14731188 -0.04318844
-0.009733197 0.007537474 -0.018498816 0.0039286655 0.112089194 0.55244786 -0.036927603 -0.0788542
-0.23186369 0.11085405 0.24074014 -0.4156112 0.39973223 -0.00047108863 -0.1050576 -0.14736594
-0.000578647 0.25995144 -0.040339738 -0.01488281 -0.007303033 -0.010595434 -0.014248912 -0.003926468
-1.010991 -1.0890731 -0.1390469 0.39501816 0.27772173 -0.1424974 0.044652347 0.3375874
-0.4660603 0.1812104 -0.11002163 -0.29050875 0.12168829 -0.5240902 -0.27127218 -0.124811046
-0.020979948 0.028936252 -0.05459449 0.033172302 -0.8542881 -1.2032505 0.036713455 0.3741087
0.33953065 -0.050100695 0.024478093 0.49623284 -0.5854488 0.02233202 0.23579432 0.20892103
0.13238262 -0.582485 0.029405363 0.015984852 -0.002847299 0.04693604 -0.037716158 0.01052098
-0.55126536 -0.55762947 -0.022822969 0.038911935 0.26363572 -0.06232018 0.035176463 -0.06394069
-0.14898115 -0.116855994 -0.061911337 0.047998007 -0.015899843 -0.2103812 -0.03961119 0.08846696
00000000: afed 09bf 9b9a adbc 621b c4bc 4ce7 06be
00000010: 9c81 6e3d bfe5 363e ca66 55bd 5294 6ebe
00000020: 069d 0b3f 8176 4bbe e205 8ebb c417 8d3d
00000030: 6d7d 4ebb 0659 e3bd 00c4 b4be ad6f 723e
00000040: f7b3 753c 5d29 043d 6434 cebb 2999 32bd
00000050: 0d83 18bf 1bdb 1cbe 22f0 b2bd 0354 96be
00000060: cc3c 56be fd63 a1bd f3ff 17be d3b4 19be
00000070: a97c 133f 6922 ffbd 3a55 8cbd d20c 23be
00000080: 1e00 97bc 76d1 82bd 1bf9 d4be 8422 2c3e
00000090: 694c 2b3b 7832 a5bb 5ef3 11bc e6a8 48bd
000000a0: 72f4 33be e1da 483e 2faa cf3d 1a25 c5bd
000000b0: bad1 693e 1705 a23e 4675 35be 1179 00be
000000c0: 9dec 5d3c 7d05 8c3d 0cc3 28bd 12f3 b23c
000000d0: 3144 1b3c 4253 e93c a481 923b cc71 8a3d
000000e0: 8799 f23c 15f6 01bd a205 ce3a 74f4 0a3d
000000f0: e275 c33c 36c3 a63d fb18 eb3d 0885 3dbe
00000100: 3c95 303e 6a40 c43e a451 0dbe d66b 62bc
00000110: deaa fa3d f9b8 babd c86a ab3d 5417 a4bd
00000120: 1f91 353c 3b40 a1bd 523c edbc 560b 21bb
00000130: 3ca7 133b 1c68 abbc e6bd a03b ecf0 a83b
00000140: 88ec 83bd e76d 0abf 77b1 40be 6e7c 2ebd
00000150: 8854 06be c286 57bd 3d50 f13c 9b47 30be
00000160: e5d7 ed3d d6f3 12bd dc9e 363d 2263 bdbd
00000170: 3be9 71bd 97f4 0c3e 5e86 8fbe 617a 91bd
00000180: a3e7 c7bd 82dd 4abd 3363 abbc be4e 0b3c
00000190: 308e f039 c48c 03bf 79fc b33c 53e6 183c
000001a0: ab0c 3d3e 36df 623d a3de 743e 4e18 2cbe
000001b0: b3bb 793d 791e a2be a11a 14bd e9c5 bc3a
000001c0: 52d4 28bd 6fbf 933d d6a1 92be b0d4 92bc
000001d0: 9a56 93bd f511 17bd ad85 5cbd ef9f a33b
000001e0: d1e8 8fbc 9f33 1ebe fb08 24bd e05a 19be
000001f0: 5e1f 95be 3877 1c3e 51b6 d73d 7163 113d
00000200: 85fa 053e 853d 90bc 23ba 273c b2a7 f4bc
00000210: 73f7 b03c 46ff 213e f45e eabd 45b6 08be
00000220: f54c 94bb 436b 093c b28b 3a3d cc84 9bbd
00000230: 17f0 4d3e 8474 abbe 2fd2 3e3c 6cc7 1fbe
00000240: 8c44 77be 49c8 2b3e e6d8 fb3e 56ef 003e
00000250: 5976 493e 9fad fdbd 786c 1c3e 02c4 c13c
00000260: 48dc b1ba 1153 493e 5b67 f6bd 7559 ddbd
00000270: 21d8 3abb a311 8c3b 8962 673d 3efd dbbd
00000280: 3812 ed3d 5c3e a63e c089 e0bc 6af0 29be
00000290: dbc1 f2bd 3e67 74bd f8bf 38bd df96 99be
000002a0: 99fb 913e ee52 973c fe65 b43d 498e ee3d
000002b0: 4bf9 a2bb 3eae 4b3e edd8 16be 5de6 30bd
000002c0: fd77 1fbc eafc f63b d48a 97bc 09bc 803b
000002d0: 058f e53d 396d 0d3f 6641 17bd 507e a1bd
000002e0: ad6d 6dbe 7307 e33d 9584 763e feca d4be
000002f0: b4a9 cc3e 72fc f6b9 7028 d7bd 19e7 16be
00000300: 58b0 17ba 5b18 853e 483b 25bd 08d7 73bc
00000310: 484e efbb 7998 2dbc 4574 69bc 9aa9 80bb
00000320: 2768 81bf bf66 8bbf 5062 0ebe d23f ca3e
00000330: 8b31 8e3e d7ea 11be 61e5 363d 41d8 ac3e
00000340: 759f eebe 388f 393e 0553 e1bd 90bd 94be
00000350: b637 f93d c62a 06bf 30e4 8abe ef9c ffbd
00000360: 24de abbc b80b ed3c 799e 5fbd aedf 073d
00000370: a0b2 5abf 1d04 9abf d960 163d 2d8b bf3e
00000380: f6d6 ad3e 6336 4dbd 4886 c83c 3b12 fe3e
00000390: f9df 15bf a4f1 b63c 1174 713e 65ef 553e
000003a0: 4f8f 073e bd1d 15bf 84e3 f03c aaf2 823c
000003b0: c099 3abb 0140 403d 427c 1abd 3060 2c3c
000003c0: ba1f 0dbf cec0 0ebf 3cf7 babc 1f62 1f3d
000003d0: 43fb 863e 7243 7fbd 3215 103d 56f3 82bd
000003e0: 848e 18be 3252 efbd be96 7dbd 8f99 443d
000003f0: 6340 82bc 2b6e 57be 583f 22bd 2a2e b53d

v.net.0.bias f4 [64]
0.030666955 0.93714726 0.3927605 -1.1714694 1.5387664 0.3849153 -0.32806268 0.107013464
1.033617 0.17914003 -0.20590617 -0.96504563 -0.8912928 1.7795515 0.0052545597 0.037316836
-0.9815636 1.3499906 -0.23205456 1.0778699 0.1231981 -0.47705957 -1.3540397 -0.7311778
0.28000438 -0.17967452 -1.9095875 -0.19329147 0.3162356 0.30139223 -0.6504744 0.7664398
-0.6153664 0.1455641 -0.061757427 -0.39261842 -0.032877725 -0.57900023 -0.6401178 -0.42952076
-0.41290808 0.72811794 -0.78073853 -0.43310127 0.02870716 0.97864366 -0.94126546 0.28937975
-0.7974186 -1.0328946 -0.017669918 -0.06403038 0.3927174 1.1103915 -0.1695309 -0.3311035
0.2912872 -0.04032051 -0.9511723 0.16771437 1.1480333 -1.1475004 0.76993346 1.4936659
00000000: 4439 fb3c e2e8 6f3f e717 c93e b6f2 95bf
00000010: 4cf6 c43f 9e13 c53e d5f7 a7be e029 db3d
00000020: 904d 843f 7c70 373e 11d9 52be 3b0d 77bf
00000030: c42b 64bf 58c8 e33f 712e ac3b 8ad9 183d
00000040: c147 7bbf 7ecc ac3f b69f 6dbe a4f7 893f
00000050: 494f fc3d 2741 f4be 2c51 adbf 782e 3bbf
00000060: bc5c 8f3e 99fc 37be 5d6d f4bf 33ee 45be
00000070: a2e9 a13e 1550 9a3e 7e85 26bf 6635 443f
00000080: a788 1dbf c10e 153e 5bf5 7cbd 4805 c9be
00000090: cbaa 06bd 5c39 14bf c3de 23bf 25ea dbbe
000000a0: b068 d3be f065 3a3f 7bde 47bf 73bf ddbe
000000b0: 472b eb3c 6488 7a3f c6f6 70bf 9529 943e
000000c0: a023 4cbf e435 84bf 81c0 90bc 5c22 83bd
000000d0: 4112 c93e 4f21 8e3f 8299 2dbe 6686 a9be
000000e0: 9923 953e 1e27 25bd 0780 73bf 51bd 2b3e
000000f0: c1f2 923f 4be1 92bf 5c1a 453f 7230 bf3f

v.net.2.weight f4 [64, 64]
-0.12296774 0.07521743 -0.13958892 0.074389584 0.16153616 0.021166446 -0.34507456 0.063346945
0.03964414 -0.034382496 -0.1948286 -0.18923432 -0.112627484 0.27690712 -0.23403911 0.23000742
-0.12033619 0.12889856 -0.06143323 0.010602389 0.03905968 0.40045163 0.05912209 0.04843267
0.27188638 -0.21135715 0.0743924 -0.3052796 0.054359425 0.145536 -0.025372164 -0.011461831
0.124352805 -0.15127762 0.37059668 0.03231508 0.086391315 -0.27317998 0.21583118 -0.015818274
-0.118406065 0.13291283 0.027053524 0.15965939 0.026442135 0.13981071 -0.04564918 -0.20314841
-0.007614951 -0.13339844 0.49783465 -0.12452056 0.22831155 0.10662123 0.2641356 0.457877
0.07077872 0.06867152 0.09915325 -0.041069012 0.20202658 -0.015546763 0.15071388 -0.009788951
0.0866289 -0.008843986 0.25494882 0.005237911 -0.574751 -0.070888214 0.12120441 0.22734731
-0.19922373 -0.17331275 -0.34522113 0.08497179 -0.028571054 -0.037602145 0.14172465 0.2496452
0.076322295 0.08043509 -0.05025285 -0.010239085 -0.090552054 0.3477683 -0.29778457 0.09238324
-0.3575286 -0.34595394 -0.020999005 0.29191864 -0.36015823 -0.11262872 -0.080522984 -0.07527861
0.019264702 0.14933583 -0.21428378 0.23562583 0.002012942 0.17644504 0.066827476 -0.47804165
0.3156826 0.028758507 0.09062033 0.30842945 -0.094257176 -0.044156563 -0.008267577 -0.085238084
-0.05676211 -0.06631482 -0.38121647 -0.02575209 0.292969 -0.17330453 -0.5056626 -0.21310334
0.5674842 0.12019203 0.048838113 0.16544594 0.0032289338 -0.07767529 -0.032916106 -0.023261923
0.22565961 0.051851995 -0.043456208 -0.14568348 0.35572845 0.26065356 -0.016901223 -0.2665967
0.12704343 0.1930629 0.07440725 -0.009541158 0.009613836 0.11289157 -0.12331789 -0.0038552228
0.020578269 -0.0073048254 0.0036023804 -0.055890307 -0.10852882 0.048833057 0.19741587 -0.20431653
0.35095024 0.10137973 0.018597348 -0.19765729 0.20843807 0.08927453 -0.069795705 0.040013444
-0.096729174 -0.17031284 0.5842114 -0.2722474 0.2109635 -0.14115703 0.003869259 0.29051426
-0.30338255 0.11866363 0.13400371 -0.030599589 0.39394712 0.3322718 0.11145287 0.17676526
-0.015530662 0.03941462 0.30023342 -0.13881493 -0.29139578 0.23995027 0.40738267 0.3553319
-0.32502058 0.32972315 -0.01341718 -0.0033543713 -0.08020817 -0.021057684 -0.062118217 0.19625181
-0.08389016 0.12519513 -0.17164414 -0.101305045 0.4726733 0.07197168 -0.14093816 -0.3165634
-0.046337206 0.13990185 0.6930865 -0.2488889 0.0049383123 -0.16491172 -0.049234435 -0.22311863
0.125978 -0.15304396 0.13888578 0.13569926 0.28333732 -0.43684363 0.34356615 -0.18017933
0.30974838 0.3113265 0.20359622 -0.27323356 0.3708123 0.12383719 0.3005596 -0.08030111
-0.17851765 -0.0023424155 0.020020938 -0.094789796 0.13008898 -0.121036716 -0.033605646 0.6213942
-0.31040677 0.013374471 0.006868718 -0.4085265 0.25727853 0.21465217 -0.05034218 0.37172145
-0.017964674 -0.010849861 0.34591684 -0.061688803 -0.35960457 0.0764244 0.38886786 -0.20646365
-0.45047933 -0.22647935 -0.07297047 -0.27887493 0.07232867 0.20646536 -0.10168547 0.025750387
00000000: 83d6 fbbd 990b 9a3d 66f0 0ebe 9159 983d
00000010: bc69 253e 4165 ad3c 9dad b0be 0bbc 813d
00000020: e561 223d a9d4 0cbd 2681 47be a4c6 41be
00000030: 3da9 e6bd c5c6 8d3e f3a7 6fbe 1187 6b3e
00000040: d272 f6bd fcfd 033e 69a1 7bbd a5b5 2d3c
00000050: 0bfd 1f3d ff07 cd3e 012a 723d 5661 463d
00000060: b134 8b3e 026e 58be 0b5b 983d 9c4d 9cbe
00000070: fda7 5e3d 6407 153e 49d9 cfbc 67ca 3bbc
00000080: afac fe3d 85e8 1abe d9be bd3e d15c 043d
00000090: eeed b03d 3fde 8bbe d902 5d3e 5395 81bc
000000a0: e17e f2bd 4d1a 083e 5a9f dd3c c07d 233e
000000b0: 2d9d d83c 8a2a 0f3e a2fa 3abd 2306 50be
000000c0: d786 f9bb 9a99 08be 2fe4 fe3e a304 ffbd
000000d0: 81ca 693e 3b5c da3d c83c 873e db6e ea3e
000000e0: 6ff4 903d a7a3 8c3d dc10 cb3d fb37 28bd
000000f0: 0ee0 4e3e dab7 7ebc bd54 1a3e d661 20bc
00000100: 7e6a b13d 5ee6 10bc a788 823e c8a2 ab3b
00000110: e222 13bf d72d 91bd 053a f83d bccd 683e
00000120: 4e01 4cbe e678 31be d3c0 b0be b105 ae3d
00000130: d80d eabc b504 1abd 4420 113e fea2 7f3e
00000140: dd4e 9c3d 27bb a43d efd5 4dbd d6c1 27bc
00000150: 5b73 b9bd b00e b23e 3877 98be 6d33 bd3d
00000160: fd0d b7be e020 b1be 1b06 acbc 5c76 953e
00000170: a966 b8be e3a9 e6bd 3ce9 a4bd ac2b 9abd
00000180: 02d1 9d3c 7eeb 183e 356d 5bbe e647 713e
00000190: 90eb 033b 02ae 343e d8dc 883d e0c1 f4be
000001a0: 26a1 a13e f696 eb3c 2797 b93d 77ea 9d3e
000001b0: e809 c1bd 83dd 34bd bb74 07bc 4e91 aebd
000001c0: 637f 68bd 10d0 87bd ce2e c3be 0cf6 d2bc
000001d0: 0800 963e be76 31be 1b73 01bf c337 5abe
000001e0: a546 113f 3d27 f63d 790a 483d a96a 293e
000001f0: 859c 533b 3914 9fbd 0ad3 06bd ca8f bebc
00000200: 5013 673e c262 543d 23ff 31bd 0d2e 15be
00000210: 0a22 b63e 6274 853e 6f74 8abc 5d7f 88be
00000220: ac17 023e 48b2 453e d462 983d 8452 1cbc
00000230: 5a83 1d3c b233 e73d 178e fcbd e8a7 7cbb
00000240: c293 a83c 515d efbb ea15 6c3b 3ced 64bd
00000250: 5c44 debd 2c05 483d 6327 4a3e 5a38 51be
00000260: c0af b33e 2da0 cf3d 7759 983c ac66 4abe
00000270: ca70 553e 91d5 b63d 0df1 8ebd 23e5 233d
00000280: f219 c6bd 7d66 2ebe e18e 153f 0364 8bbe
00000290: d106 583e 788b 10be 6593 7d3b 49be 943e
000002a0: f554 9bbe eb05 f33d 4538 093e fdab fabc
000002b0: 70b3 c93e 881f aa3e 6741 e43d f401 353e
000002c0: 5174 7ebc 3971 213d 32b8 993e 8025 0ebe
000002d0: d431 95be 86b5 753e 7694 d03e 10ee b53e
000002e0: 1969 a6be 79d1 a83e bbd3 5bbc 03d5 5bbb
000002f0: 2e44 a4bd 2a81 acbc ac6f 7ebd 3cf6 483e
00000300: 9bce abbd 2733 003e 7bc3 2fbe 0579 cfbd
00000310: 3c02 f23e e365 933d 1852 10be 9914 a2be
00000320: 15cc 3dbd 6e42 0f3e 1e6e 313f bbdc 7ebe
00000330: 91d1 a13b 9ede 28be 0caa 49bd 3679 64be
00000340: 6000 013e 8eb7 1cbe 1338 0e3e bff4 0a3e
00000350: 9711 913e f8a9 dfbe e7e7 af3e ee80 38be
00000360: 5797 9e3e 3066 9f3e 877b 503e 45e5 8bbe
00000370: 1cdb bd3e 5a9e fd3d f3e2 993e e974 a4bd
00000380: 55cd 36be 3683 19bb f302 a43c 2721 c2bd
00000390: 0c36 053e 19e2 f7bd 13a6 09bd b113 1f3f
000003a0: a3ed 9ebe 9920 5b3c fc12 e13b 632a d1be
000003b0: 03ba 833e c7cd 5b3e 9a33 4ebd 4652 be3e
000003c0: a72a 93bc 9ec3 31bc 031c b13e 66ad 7cbd
000003d0: 171e b8be 6584 9c3d b019 c73e 356b 53be
000003e0: 3aa5 e6be 34ea 67be 8b71 95bd b2c8 8ebe
000003f0: 0e21 943d a86b 533e 7940 d0bd 7af2 d23c

v.net.2.bias f4 [64]
-0.32293496 -0.20485286 0.3019166 0.43166214 0.8581685 0.42265663 0.51588047 -0.74210066
-0.38253036 -0.19792286 -0.67519087 0.5649896 -0.6787706 -0.6434558 0.011348185 0.63377017
0.5562562 0.53272915 0.42900282 0.45990485 -0.57656485 0.44564214 0.46358058 -0.5805711
-0.16476823 0.9523165 0.57991654 0.60216016 0.758543 0.47104815 0.33719164 -0.5895826
-0.5199815 -0.44208166 0.6875638 -0.41180897 0.69174486 -0.59524256 0.6372342 -0.21052617
0.2909135 -0.43611062 0.67984444 0.75283664 -0.3568639 -0.29063872 0.625934 0.492338
-0.7140055 0.6356146 -0.32703212 0.5227298 -0.54448706 0.38651037 0.24816974 0.17862825
-0.6097367 0.3399377 -0.45598695 -0.54513127 -0.28165433 -0.22429715 -0.5142602 0.7299712
00000000: bb57 a5be f3c4 51be d094 9a3e d202 dd3e
00000010: eeb0 5b3f 7366 d83e be10 043f 4ffa 3dbf
00000020: 05db c3be 4aac 4abe 4fd9 2cbf 29a3 103f
00000030: e9c3 2dbf 85b9 24bf bded 393c c33e 223f
00000040: ce66 0e3f f060 083f 42a6 db3e a678 eb3e
00000050: c199 13bf 352b e43e 6f5a ed3e 4fa0 14bf
00000060: 01b9 28be 04cb 733f 6975 143f 2b27 1a3f
00000070: e02f 423f 392d f13e 62a4 ac3e e3ee 16bf
00000080: 821d 05bf 8758 e2be 2e04 303f a0d8 d2be
00000090: 3116 313f d161 18bf c821 233f 2c94 57be
000000a0: 9df2 943e e449 dfbe 490a 2e3f e7b9 403f
000000b0: ddb6 b6be 99ce 94be 363d 203f ba13 fc3e
000000c0: 10c9 36bf a3b7 223f c170 a7be 9fd1 053f
000000d0: 8163 0bbf b0e4 c53e 3520 7e3e 53ea 363e
000000e0: b417 1cbf 500c ae3e 1f77 e9be b98d 0bbf
000000f0: ff34 90be 27ae 65be 8ea6 03bf 64df 3a3f

v.net.4.weight f4 [1, 64]
0.10321836 0.10613722 -0.08832451 -0.1655111 -0.20551291 -0.124417864 -0.10435269 0.104708485
0.0906267 0.1665175 0.0776404 -0.07520572 0.14199217 0.12046503 -0.40463024 -0.19945534
-0.13872208 -0.16455354 -0.119243614 -0.16891833 0.18474953 -0.1184444 -0.13394085 0.13363503
0.2435838 -0.18680938 -0.1142331 -0.105304025 -0.19741051 -0.1022718 -0.15511353 0.07959325
0.09433182 0.16963567 -0.11000147 0.10535563 -0.14675255 0.076837376 -0.13364789 0.11258163
-0.20487091 0.19341505 -0.16677256 -0.13809364 0.100984275 0.11416199 -0.07815542 -0.13773943
0.22184707 -0.09255326 0.17719017 -0.0687506 0.2293604 -0.09144583 -0.15017976 -0.098841615
0.069380425 -0.21125333 0.09042294 0.052206982 0.09724334 0.05983414 0.10663408 -0.14081892
00000000: 2664 d33d 795e d93d 7be3 b4bd be7b 29be
00000010: fa71 52be cbce febd ddb6 d5bd 6771 d63d
00000020: 7e9a b93d 9083 2a3e ee01 9f3d 7505 9abd
00000030: 6566 113e 5fb6 f63d b22b cfbe 053e 4cbe
00000040: 290d 0ebe b980 28be ff35 f4bd edf8 2cbe
00000050: fb2e 3d3e fa92 f2bd ca27 09be 9fd7 083e
00000060: 086e 793e f54a 3fbe 0bf3 e9bd a3a9 d7bd
00000070: fb25 4abe e173 d1bd 15d6 1ebe c901 a33d
00000080: 0b31 c13d f9b4 2d3e 7348 e1bd b1c4 d73d
00000090: 4d46 16be ea5c 9d3d feda 08be 3391 e63d
000000a0: aec9 51be 980e 463e 6dc6 2abe 6b68 0dbe
000000b0: d8d0 ce3d c3cd e93d f30f a0bd 910b 0dbe
000000c0: e12b 633e 908c bdbd 5771 353e 1dcd 8cbd
000000d0: 74dd 6a3e f447 bbbd b9c8 19be 796d cabd
000000e0: 5317 8e3d cb52 58be aa2f b93d fdd6 553d
000000f0: 8427 c73d a514 753d f862 da3d d632 10be

c.net.0.weight f4 [64, 40]
-0.024358122 0.040627364 -0.052498825 0.15576434 -0.022669358 0.12472919 -0.028733023 0.04098954
-0.12488847 -0.15699936 0.05602665 0.10804785 0.13758196 -0.11832977 -0.044234224 0.059418652
0.08383573 0.015818497 -0.105119675 -0.0031756195 0.034958314 0.13365547 -0.10038441 -0.12930754
-0.15481788 0.14872949 -0.022557868 0.041087933 0.00054265244 -0.01098073 0.052288964 -0.07550018
0.12355725 0.016256785 0.03770347 0.1577831 0.03724801 0.11126863 0.12835962 -0.096936084
-0.08770091 -0.12915634 -0.0073198895 0.041707978 0.08365795 0.007718067 0.052269418 0.12892696
-0.09853624 -0.10484413 0.060756303 0.025968794 0.12601106 -0.02871029 -0.0021167782 0.016623033
-0.1568506 -0.03053305 0.047517374 0.13894287 0.049776383 -0.017507864 0.04534107 -0.11279285
-0.10986098 0.09778097 0.14451881 -0.08641809 -0.15229566 -0.089529924 -0.13253891 -0.06984868
0.06592285 -0.0074800276 -0.07521822 0.13635716 -0.14247602 -0.08746696 -0.018619878 -0.016940257
0.07859892 0.0741117 -0.14418182 -0.0710324 0.034732677 -0.070792735 -0.07168216 0.073466
-0.10154541 0.13258591 0.097850926 0.048110973 -0.00719104 0.041477155 0.15376337 -0.15617467
0.016910927 0.06790859 -0.12514389 -0.09948638 -0.0389144 0.101655334 0.04844861 -0.11261586
0.1284995 -0.13349752 0.11771434 -0.07810669 0.059405647 0.076418586 -0.10190806 -0.13160235
-0.08160509 -0.097468086 -0.039485667 -0.031431753 -0.03158158 0.029239675 0.13082297 0.045308255
0.10416576 -0.12701833 -0.06429732 -0.13618499 0.13633329 0.11991466 -0.045843314 -0.10139392
0.036844026 -0.051464036 -0.09092182 0.04463189 -0.11365651 -0.08127041 -0.03732265 0.09273502
0.124723904 0.14540963 0.08217801 -0.04768426 0.024950005 -0.092891864 0.02185553 0.15634608
-0.10001929 -0.008629795 -0.036699947 0.04986271 -0.03395894 -0.10589835 -0.13643216 -0.13237195
0.10325023 0.059632566 0.009040205 -0.03871764 0.032389265 -0.09213901 0.13386212 0.039549317
0.073217876 0.13713884 0.0871465 -0.009380725 0.044904463 -0.11158885 0.07029479 -0.11252024
0.07022703 0.05346644 -0.15526614 0.13084392 0.07821224 0.06303563 -0.11149123 -0.041957665
-0.11135302 0.1476939 0.052970495 -0.12216121 -0.03728827 -0.022836639 -0.10043237 0.09917915
-0.037076883 0.07272157 0.15444826 -0.12551789 -0.08730869 0.011286021 0.05846719 0.04316006
-0.03271114 -0.089235 0.04983112 0.10004042 -0.12227338 -0.004480888 0.088043936 -0.15650731
0.11607051 -0.03738728 -0.088038996 0.08237445 0.10803347 0.0008071178 0.15550023 -0.0809335
-0.07786755 0.06864523 0.10271749 -0.0045359824 -0.07124563 0.020828241 0.010598498 0.081035934
0.075929895 -0.05137588 -0.120137915 -0.06758828 -0.05889911 0.07469519 -0.06439675 0.03270645
-0.016488096 0.017819716 0.007855964 -0.14327855 -0.08473223 -0.14181328 0.08684258 -0.13839692
-0.07468155 -0.026313893 -0.1530671 0.011976824 0.038236246 -0.06844661 0.08110732 0.14885952
-0.14044611 -0.038768906 0.016888855 0.13981019 -0.057665654 -0.08815454 -0.07154702 -0.058329258
0.08138671 0.070196345 -0.01749972 0.1160484 0.09800431 -0.054099243 0.073303334 0.0036365252
00000000: af8a c7bc e168 263d 0209 57bd b080 1f3e
00000010: 17b5 b9bc 0472 ff3d 8461 ebbc a6e4 273d
00000020: 87c5 ffbd 71c4 20be 337c 653d 3148 dd3d
00000030: 49e2 0c3e e156 f2bd f22e 35bd f960 733d
00000040: 11b2 ab3d cb95 813c fc48 d7bd 0e1e 50bb
00000050: 7330 0f3d fbdc 083e 5796 cdbd 3269 04be
00000060: 9488 1ebe 8b4c 183e 47cb b8bc d24b 283d
00000070: ca40 0e3a 85e8 33bc f42c 563d d79f 9abd
00000080: 950b fd3d f32c 853c f46e 1a3d e591 213e
00000090: 5f91 183d cfe0 e33d b470 033e 6d86 c6bd
000000a0: 899c b3bd 8f41 04be afdb efbb fcd5 2a3d
000000b0: dc54 ab3d d7e7 fc3b 7518 563d 6e05 043e
000000c0: 5ecd c9bd 85b8 d6bd 9adb 783d 82bc d43c
000000d0: 0b09 013e d831 ebbc a5b9 0abb 072d 883c
000000e0: 729d 20be 7220 fabc 94a1 423d 0a47 0e3e
000000f0: 52e2 4b3d a76c 8fbc 8fb7 393d f0ff e6bd
00000100: cbfe e0bd 6441 c83d bdfc 133e f8fb b0bd
00000110: 65f3 1bbe 775b b7bd 48b8 07be d30c 8fbd
00000120: 8f02 873d 051b f5bb 030c 9abd 36a1 0b3e
00000130: 3ce5 11be e121 b3bd b788 98bc 4bc6 8abc
00000140: 78f8 a03d e0c7 973d 66a4 13be 6f79 91bd
00000150: da43 0e3d c8fb 90bd 19ce 92bd 5875 963d
00000160: 0af7 cfbd 9ac4 073e 1166 c83d 0310 453d
00000170: d1a2 ebbb f3e3 293d 2574 1d3e 41ec 1fbe
00000180: c988 8a3c a913 8b3d b825 00be 84bf cbbd
00000190: b564 1fbd ac30 d03d 0d72 463d 25a3 e6bd
000001a0: 5f95 033e 93b3 08be 3714 f13d 66f6 9fbd
000001b0: 5653 733d 5981 9c3d 2cb5 d0bd c4c2 06be
000001c0: 9220 a7bd 599d c7bd b9bb 21bd 95be 00bd
000001d0: b05b 01bd 0b88 ef3c 75f6 053e 2695 393d
000001e0: dc54 d53d 1811 02be 50ae 83bd 1474 0bbe
000001f0: f49a 0b3e d195 f53d 33c6 3bbd 9ea7 cfbd
00000200: c3e9 163d f4cb 52bd 3835 babd eecf 363d
00000210: bfc4 e8bd 1a71 a6bd a3df 18bd dceb bd3d
00000220: 3f6f ff3d 43e6 143e f24c a83d 9250 43bd
00000230: f463 cc3c 173e bebd 5e0a b33c 3019 203e
00000240: ead6 ccbd fc63 0dbc af52 16bd d73c 4c3d
00000250: 8818 0bbd 3ce1 d8bd dfb4 0bbe 838c 07be
00000260: db74 d33d 4741 743d 5e1d 143c 6396 1ebd
00000270: 9baa 043d 61b3 bcbd 2713 093e 77fe 213d
00000280: 41f3 953d 206e 0c3e dd79 b23d 9db1 19bc
00000290: beed 373d b288 e4bd b7f6 8f3d 0371 e6bd
000002a0: 30d3 8f3d a0ff 5a3d 16fe 1ebe f3fb 053e
000002b0: bd2d a03d d318 813d 8455 e4bd cddb 2bbd
000002c0: 0d0d e4bd 123d 173e 97f7 583d a82f fabd
000002d0: 96bb 18bd e713 bbbc 7daf cdbd 701e cb3d
000002e0: eedd 17bd 0cef 943d af27 1e3e c387 00be
000002f0: e6ce b2bd 01e9 383c 4b7b 6f3d 9ac8 303d
00000300: 1efc 05bd d7c0 b6bd b71b 4c3d fee1 cc3d
00000310: 776a fabd 6ad4 92bb 6150 b43d 7443 20be
00000320: 60b6 ed3d 6823 19bd ca4d b4bd f0b3 a83d
00000330: a740 dd3d c294 533a 743b 1f3e 76c0 a5bd
00000340: 0679 9fbd df95 8c3d 8c5d d23d 94a2 94bb
00000350: 3be9 91bd fd9f aa3c 53a5 2d3c 2bf6 a53d
00000360: 2281 9b3d 846f 52bd de0a f6bd b96b 8abd
00000370: 3140 71bd cbf9 983d 71e2 83bd 33f7 053d
00000380: 0b12 87bc a7fa 913c 4db6 003c 9db7 12be
00000390: 1788 adbd 8037 11be 86da b13d ecb7 0dbe
000003a0: a4f2 98bd 3c90 d7bc 9fbd 1cbe 713a 443c
000003b0: 9c9d 1c3d bc2d 8cbd 981b a63d a16e 183e
000003c0: 1bd1 0fbe 25cc 1ebd 7f5a 8a3c 672a 0f3e
000003d0: d232 6cbd 5e8a b4bd 3e87 92bd a9ea 6ebd
000003e0: 13ae a63d 1ac3 8f3d 935b 8fbc c9aa ed3d
000003f0: 7cb6 c83d 2b97 5dbd 0f20 963d c552 6e3b

c.net.0.bias f4 [64]
-0.005345136 -0.029002013 0.0551507 -0.108307585 -0.051298413 0.13218118 -0.006699694 0.13626388
0.12881859 0.15646096 0.019269872 0.033620477 -0.010464428 0.019598838 -0.13089354 0.008573739
-0.05236611 0.1139608 -0.009287745 -0.08851135 -0.09817753 -0.11142502 -0.0941305 0.08115453
0.00093323406 -0.07548307 0.09303302 -0.022018136 -0.081615664 0.06309116 0.15615124 0.08475257
0.008800677 0.06422694 -0.11260274 0.13384625 -0.0513526 -0.12992693 0.05555415 0.08404499
0.06497003 -0.09125237 -0.12882952 0.05592176 0.13611741 4.8158283e-05 -0.06573779 -0.060433745
0.116391204 0.14949757 0.1508287 0.06619053 -0.10292958 0.0777843 -0.0018607946 -0.074349664
-0.11513341 -0.099328205 -0.02877628 -0.10686994 0.14007859 -0.120274946 -0.008973424 -0.11705473
00000000: 4026 afbb a195 edbc b3e5 613d 5ed0 ddbd
00000010: 491e 52bd 815a 073e 1b89 dbbb c288 0b3e
00000020: 05e9 033e 4d37 203e dadb 9d3c a0b5 093d
00000030: fe72 2bbc be8d a03c f508 06be de78 0c3c
00000040: d97d 56bd 4864 e93d a02b 18bc 7045 b5bd
00000050: 4d11 c9bd cd32 e4bd 7ec7 c0bd 5934 a63d
00000060: 47a4 743a de96 9abd 1988 be3d 615f b4bc
00000070: 1d26 a7bd f035 813d 1ce6 1f3e c192 ad3d
00000080: b730 103c 6a89 833d 449c e6bd fe0e 093e
00000090: 1b57 52bd 910b 05be c08c 633d c81f ac3d
000000a0: 020f 853d 86e2 babd e3eb 03be 370e 653d
000000b0: 5d62 0b3e 90fd 4938 89a1 86bd 6089 77bd
000000c0: 835e ee3d e415 193e d772 1a3e e78e 873d
000000d0: becc d2bd 604d 9f3d e8e5 f3ba a344 98bd
000000e0: 11cb ebbd 966c cbbd 3cbc ebbc a1de dabd
000000f0: c370 0f3e b652 f6bd 4505 13bc 64ba efbd
