experiments/07_control_structure_hypothesis/checkpoints/AttitudeRate/ppo/2021-12-14__22-00-22/seed_00077/torch_save/model.pt (torch, 82448 bytes, 19 tensors)

obs_oms.mean f4 [40]
00000000: 6a25 7d3e 0fed 453b d430 813f 588d bd3a
00000010: 16fe 8cb8 b5f6 243d f278 7e3f 7771 a5ba
00000020: d617 8abb 3973 14bc 90dd 203c 570d d1bb
00000030: 7b8b 023d 6bac 433b d2a1 4dbb 0d6b 18bc
00000040: 8138 fe3e e05d a03a 39a2 debc 0412 a5bc
00000050: 2422 7d3e 000c 433b a52d 813f 253a c33a
00000060: 808f 9fb8 8669 253d d17a 7e3f 564e adba
00000070: c4b3 92bb 27fc 22bc c8ea 203c d544 d2bb
00000080: 9898 023d c153 443b 0a07 4bbb d5d1 16bc
00000090: 4c76 fe3e 1fab bd3a 6edf d5bc 18ae abbc
0.24721304 0.0030201112 1.0093026 0.0014461679 -6.7230474e-05 0.04027434 0.994033 -0.0012622316
-0.0042142672 -0.009060674 0.00981845 -0.006379764 0.0318713 0.0029857408 -0.003137697 -0.009302867
0.49652484 0.0012235008 -0.027176963 -0.020150192 0.24720055 0.0029761791 1.0092055 0.0014894648
-7.60844e-05 0.040383838 0.9940615 -0.0013222198 -0.004476996 -0.009947813 0.009821601 -0.006416897
0.031883806 0.0029957148 -0.0030979537 -0.009205301 0.49699628 0.0014470554 -0.026107516 -0.020957038

obs_oms.std f4 [40]
00000000: 6524 343e c548 303e 4c7e 183d d623 613d
00000010: de39 603d 73df 933d 58fd b13b 37ff be3e
00000020: 196b bd3e ae46 223e 2718 3f3f a1a9 2b3f
00000030: 56a0 8a3e e270 583d 1300 6a3d 427e 183d
00000040: f4b7 573f e618 273f 313e 283f f7fc 023f
00000050: 9857 343e 0792 303e b696 1a3d 9845 603d
00000060: 6446 5f3d 23b8 933d 642a b13b c90b c03e
00000070: 559f be3e 4f4a 263e 5f46 3f3f 08c7 2b3f
00000080: b078 8a3e b320 5c3d 40ad 6d3d 9296 1a3d
00000090: 78c8 573f 773e 263f f855 273f d6f0 023f
0.17592008 0.1721526 0.03722982 0.054965816 0.054742686 0.07220354 0.0054318123 0.37304088
0.36995772 0.15847275 0.7464623 0.6705571 0.27075452 0.05284203 0.057128977 0.037229784
0.84265065 0.65272367 0.65719897 0.51167244 0.1761154 0.17243205 0.037741385 0.05475387
0.05451049 0.07212856 0.0054066647 0.3750899 0.37230936 0.16239284 0.7471675 0.6710057
0.27045202 0.053742122 0.058026552 0.03774125 0.84290266 0.64939064 0.6536555 0.51148736

pi.log_std f4 [4]
00000000: 4352 90c0 4352 90c0 4352 90c0 4352 90c0
-4.5100417 -4.5100417 -4.5100417 -4.5100417

pi.net.0.weight f4 [50, 40]
00000000: def7 9cbd c2a1 c63d 3a6c f63d c9e6 29bd
00000010: c6ea 553d f8f4 4ebe 8b99 75bd cd0b 713d
00000020: 56bf 27be 7f21 2d3d 22ea 2abd 45ae b5bd
00000030: 496b 133e 5015 c8be 7959 9e3e dab3 78bd
00000040: 7647 823e 2ac0 51be 986e 15be 938a 5fbe
00000050: 8525 a5bd c10e b6bc b0e1 2dbd 4ce6 a63d
00000060: 999f 09bc bfde 10bd 668a 2cbd 1d5a 973b
00000070: d3f9 b5bc 4c13 d5bd e19e 90be 1dd9 133d
00000080: d4ec ea3c f8a5 8dbe f4da 873e 3d21 fdbc
00000090: dcf4 d73c b348 15bd cbce 19bd dddc 92be
000000a0: 3400 473e 0e2c a43d d9bb e7bd e63e c5be
000000b0: aa9b 99be 1568 e73d f578 523e ca84 e4bd
000000c0: dc79 373e 370d 173e 8482 d63d 6c51 333d
000000d0: 8560 01be 342a 223e f3e2 15be 8d6f 83ba
000000e0: 9102 5c3d 0624 553e be0f 183d b20d 253d
000000f0: a7b2 f03d a094 9f3e 972f 7ebd 223d 4abe
00000100: ba85 77be 8505 093e 14ca 603e e156 93be
00000110: 29a7 903e 9356 5e3e 39a0 19be 2492 ccbd
00000120: 10c2 863d c149 073e 0d1f 17be 3c47 fdbd
00000130: 4a31 873d bdf4 55bd b7ea a33d add2 ba3d
00000140: 76ba 47be 5e05 8f3e 807d ddbd b8dc 8bbd
00000150: 712a 3fbd 2ac9 54be aa07 2dbe 3d6e 1ebe
00000160: 7ef8 b63d 7045 eebe 19ec 123e 37d8 2f3e
00000170: 6a7a 05be 0e04 8b3e e4b7 823e ed36 4e3e
00000180: 5de0 e1bc eb78 283e 88fd 39bd ea98 80be
00000190: 9d96 57be b397 023e 66ba 8dbc 1da6 24bd
000001a0: 5935 33bd a84c cfbd 51d4 1bbe 0ced 30be
000001b0: 61c6 053d 7a52 ccbe a6fa 07be ee53 88bd
000001c0: 0bb9 0abe c7f4 0c3e c052 803e 6bce e03d
000001d0: d901 a5bd ef1e 96bc 6923 a9bd 8687 273e
000001e0: e3a0 33be 4de0 133d 2c42 2bbd 2491 99be
000001f0: de30 6f3e 31d6 ffbd 712b d33d 3d8e c43e
00000200: 9463 a43e dfbf 073e 9e49 333e 9375 993c
00000210: 8e99 0e3d e3b6 00be cd45 533e ef97 d43d
00000220: c3e8 d33c 903c 5ebe 0418 3cbe 1053 163e
00000230: 39cf 5abe fb1b 0d3e 14d0 333e 6861 a8bd
00000240: 92f9 ab3e c3d7 3ebe bef6 843e 6ca8 9c3d
00000250: 1b7b 0e3e 9a52 1dbe 97fe 263e 0963 2ebd
00000260: 8ceb 83bd b3b2 42be 596b 6b3e 705d 7d3d
00000270: 678f 81bd ec48 1f3e 7934 6abd eb30 543e
00000280: d182 93be a8fd 913e faa7 0dbd bf40 eabc
00000290: 1320 b0be 3c2f 613d e191 acbd 7a18 debe
000002a0: 8756 3d3d 6f30 293e 950a 9ebd e943 233c
000002b0: aecd 8e3d e937 583e 1d55 893d d127 f7bd
000002c0: ee1e 1dbc d4d8 5f3c 5eb7 093e 5280 453b
000002d0: accc c0be 1980 e33d 999f cc3d f48d 01be
000002e0: fe2f b7be 62b0 c2bd f8af 6abd 5142 edbe
000002f0: 4a28 3cbd 44b0 a13d 2b31 513c f59d 7fbd
00000300: c338 dc3b 8698 303e db0e 803e c4d5 1bbe
00000310: 430e 1bbc 783a 80bd b948 f9bd b954 bcbd
00000320: b32a 493d 899f c23d a978 edbc 7458 013e
00000330: d779 bfbd d53a 24bd 2e28 9dbd d660 c9bd
00000340: 965c d6bd 3452 f3bc 434c 513e f9bb d23d
00000350: acbe 76be cc0b 90be 30da 753c 6441 493d
00000360: 7b57 353e 9e68 ebbd dbfb bd3e 70e6 86be
00000370: ce49 463c e954 a93e a24f 20be fa46 0dbe
00000380: 3827 68be e5ca 0bbe 81db c13c 0b65 bebd
00000390: 87d8 e4bd 7201 28bc e690 e5bd 1116 283e
000003a0: 5232 623d b70f 4cbe eb77 01be 25ed 603d
000003b0: 4939 7ebd 4d27 c73d c048 b7bd 0519 c83e
000003c0: ba43 773d 6f72 a83e 9a9b a63d 2343 d43d
000003d0: d44b 97bd 3ec7 a33c 1da1 6d3d 3976 7c3e
000003e0: 5933 ba3d 2b86 e23d 210c 843d b8db 6c3c
000003f0: 0cc8 2e3e 2b0c 6fbe 2766 8d3e 8bbd edbd
-0.076644644 0.096988216 0.12032361 -0.04147986 0.05222585 -0.20210636 -0.059960883 0.058849145
-0.16381583 0.042268272 -0.041727193 -0.0887113 0.14396395 -0.3907876 0.30927637 -0.060718395
0.25445145 -0.20483461 -0.1459297 -0.21830206 -0.08063797 -0.022223832 -0.04245156 0.081493944
-0.008399867 -0.035368677 -0.042124175 0.0046188966 -0.022213852 -0.10404071 -0.28246215 0.036095727
0.028677382 -0.27665687 0.26534235 -0.030899638 0.026361875 -0.036446285 -0.03755073 -0.2868413
0.19433671 0.08016215 -0.11315126 -0.3852455 -0.30001575 0.11299149 0.20553954 -0.1115814
0.1791758 0.14751135 0.10474113 0.04377882 -0.12634476 0.15836412 -0.14637356 -0.0010027752
0.053713385 0.20814523 0.037124388 0.040296264 0.11752825 0.3116808 -0.062057104 -0.19749883
-0.24172106 0.13381012 0.21952087 -0.2877722 0.28252533 0.21712713 -0.15002526 -0.099888116
0.06579983 0.13211729 -0.14757939 -0.123671025 0.06601198 -0.052235354 0.08003753 0.091222145
-0.19504723 0.27933782 -0.10814953 -0.06829208 -0.046671335 -0.20779863 -0.16897455 -0.1547174
0.08934115 -0.46537352 0.14347877 0.17172323 -0.13034979 0.2715153 0.25530922 0.2013814
-0.027572805 0.16452377 -0.045407802 -0.25116664 -0.21053548 0.12753181 -0.017300796 -0.04019748
-0.04375205 -0.10122043 -0.15217711 -0.17277926 0.032659892 -0.39906675 -0.13279209 -0.06656633
-0.13547151 0.1376525 0.25063133 0.10976871 -0.08056993 -0.018325297 -0.08258707 0.16360292
-0.17541842 0.03610258 -0.041811153 -0.29993546 0.23358485 -0.12492026 0.1031102 0.3838977
0.32107222 0.13256787 0.17508551 0.018732822 0.03481441 -0.12569766 0.20632096 0.103805415
0.025867825 -0.2170279 -0.18368536 0.14680123 -0.21368112 0.13780205 0.17559844 -0.08221704
0.33588845 -0.18636994 0.259695 0.076493114 0.13914149 -0.15363541 0.16308056 -0.042574916
-0.064414114 -0.19013481 0.22990169 0.061856687 -0.0632618 0.15555161 -0.057178948 0.20721786
-0.28810742 0.28513837 -0.034584023 -0.028595326 -0.3439947 0.054976687 -0.08426262 -0.4337805
0.046225097 0.16522382 -0.07716862 0.0099649215 0.06972824 0.21115078 0.06705687 -0.12068141
-0.009589894 0.013662536 0.13448855 0.00301363 -0.37656152 0.11108417 0.09991378 -0.12651807
-0.35778803 -0.095062986 -0.057296723 -0.46339658 -0.04593686 0.07894948 0.01276807 -0.0624065
0.0067206337 0.17245683 0.25011334 -0.15218264 -0.0094638495 -0.06261152 -0.12172074 -0.09195847
0.049112987 0.09503085 -0.0289882 0.12631398 -0.09349411 -0.04009517 -0.07673679 -0.09832923
-0.10466878 -0.029702283 0.20439248 0.10289759 -0.24096173 -0.28134 0.015005633 0.049134627
0.17709152 -0.114945635 0.37106213 -0.26347685 0.012102557 0.33072594 -0.15655378 -0.13796607
-0.22671211 -0.13651617 0.023664238 -0.09296616 -0.11174112 -0.010254251 -0.11209278 0.16414668
0.05522377 -0.1992787 -0.12643401 0.05491366 -0.06206635 0.09724293 -0.08949423 0.39081588
0.060367323 0.32899806 0.081351474 0.10364368 -0.0738751 0.019992467 0.058014978 0.24654473
0.09091825 0.11060747 0.06447626 0.014456682 0.170685 -0.23344485 0.27617 -0.11608418

pi.net.0.bias f4 [50]
00000000: 656a 96bd 87d2 8fbc 67e8 37be 19df d9bb
00000010: eb85 933e 7605 1f3d 144e a63e 5373 1b3d
00000020: e7a4 87bc 82e4 d23d 9b5f dbbe c14b d23e
00000030: 713e 863d 9280 0c3e 651d 23be 131c 6e3e
00000040: 867e c3bd 4300 b53e 56f8 4a3e 1ab6 9abb
00000050: 5a20 fcbd cfcc 783e 371c 9a3e 31f7 22be
00000060: c79f f9bd 94dc 893e 768d cfbd cf79 f93d
00000070: b7e7 abbc 8145 51bd b55f edbc 543d 00bc
00000080: 8ecb a03e b321 943e db4e cebd 2541 8f3e
00000090: b575 b13c dfb4 9f3d 3dfd 673e 0133 1abb
000000a0: 58c9 e63c eb57 313e 999a 883e be89 3a3e
000000b0: 5a6f a63e 9ccd 203e 47ec 8a3e d565 fa3a
000000c0: 5c97 2b3e 98f4 09bd
-0.07344512 -0.017556442 -0.17959748 -0.0066489098 0.2881311 0.038823567 0.32481444 0.03795178
-0.016558124 0.10297491 -0.4284638 0.4107342 0.065548785 0.1372092 -0.15929182 0.23252897
-0.09545617 0.35351762 0.19821295 -0.004721415 -0.12310858 0.24296878 0.3009965 -0.15914609
-0.12188678 0.269261 -0.101344034 0.12181436 -0.020984514 -0.051091675 -0.0289763 -0.007827122
0.314053 0.2893196 -0.10073634 0.2797939 0.021662572 0.0779817 0.22655196 -0.0023528936
0.02817218 0.17318694 0.2668045 0.18216607 0.3250683 0.15703434 0.2713339 0.0019103835
0.16756958 -0.03368053

pi.net.2.weight f4 [50, 50]
00000000: ee4c 2cbb 568b b2be 8bb6 d3bd 0b1e 2e3e
00000010: 5886 88be b285 e9bd 82aa 973d c115 9cbc
00000020: ab8e 31be a6be 12be c655 e43d cdb4 babe
00000030: 1568 f43d 9851 803e 6b4c 153e ee70 063e
00000040: 0634 203e feae 263e 008f 763e 2a79 95bd
00000050: 2721 9bbd 66ca 493d 417b 5f3e 09ec e33d
00000060: e0f8 ffbd 47ca 913e c77e 36bc 4ee5 523c
00000070: 5dfc 9c3d c97a 70bc 1562 b63d f6df 96bd
00000080: 0f33 13bf ea78 523e fcc6 503d 5c1c a7bd
00000090: 76d8 973d 5aa8 243e 4a5e d13c 897f 1c3e
000000a0: dfeb c13d 8821 7b3d ca34 4c3b 7267 343a
000000b0: 06b6 d43d ce7c c33d 796d dd3d 3bfb 013e
000000c0: 7407 023e c3e5 02be d7a4 483e 8ebc 013e
000000d0: 3896 d53d 5846 b93c f5d8 75be 569c acbd
000000e0: 0041 473d baf5 243e 4372 9e3c 4163 8bbe
000000f0: 4c3b 163e d583 3f3e c6c4 a2bd 7c9b e53d
00000100: 8ba5 1fbe ef87 f73c 28e7 87bd 76df da3d
00000110: 90e1 a2bd a0b2 68be 8260 50bb 2c7e 163e
00000120: d3d7 ca3d 536d b23d 9396 943e 7d0c 94be
00000130: 58b2 f33c 317f 50bd 0f13 213d b9bd 91be
00000140: 435f 4cbc 1820 353d b5f2 073e c768 e33d
00000150: b287 54be 9d5e 98be da90 56be d83e d93c
00000160: 810c 1f3e 93ce 04be ec5a 42be 1cc1 a03d
00000170: ea67 7bbe 5fa8 e83d 4c2a b1bd 845a 37bd
00000180: db75 963d 707e 283e e931 8e3e e284 bb3d
00000190: fe46 67be d560 9fbe 00d7 c0bd 0ff8 e83d
000001a0: 2f5a 0abe b8f9 c7bd ece6 063d bb37 babd
000001b0: e12c 393e 682a debe fee7 3d3d 4a30 28be
000001c0: ccc6 583e fcd8 663e d275 e63d 3666 743e
000001d0: e40a bdbd f865 353e 8bb6 9bbd 6fea 05be
000001e0: 6809 fa3c bb4d c5bd e28d a4bd 3131 12be
000001f0: d8f6 25be d56a 853e f394 833d b72d edbc
00000200: 85b2 1f3e dc1e 80bd 8e29 6f3e 0aa8 9f3c
00000210: d9dd 69be 1de3 c63d c51c 6abd 1b4c 03bd
00000220: aec4 083e eeac 813e aabd 17be 41fb 953d
00000230: 2f05 e5bd 8a4a 153e 9c7c 07bd 9014 453d
00000240: 2676 b93d 5f79 433d e2f5 b23d d507 f33d
00000250: 0f56 8c3d 08a4 49be aa8b a3bd 7932 673c
00000260: 1b65 583c 7a8a 2c3e 610b c0be ab7e 373e
00000270: b5af 10be 7033 87be 54b5 e83d 136b 76be
00000280: 3622 0b3e 3437 383e 68ab 7c3d e061 4ebe
00000290: 4bc9 22be f181 8cbd 9bb7 273e 29de 723e
000002a0: 54ab 243e 2362 463d 815c 07be 179c d03d
000002b0: 8674 b6bd 8622 bfbe 68fb 9fbd 4bfd 503e
000002c0: 3cc8 18be 1802 3bbe 39f4 2ebe 68c1 31be
000002d0: 9f41 923e c7c5 353e cd90 f43b 8860 80bd
000002e0: 918f a43d e382 3cbe 74bb a53e bd1c d3bd
000002f0: b243 263e 659e 1abd d0a5 8abd bb3a de3c
00000300: 0c4d 013e 518e 0d3d cf5d 5ebb a54f 48bd
00000310: a103 32be 9f36 ebbb 3eb3 ac3b c7dd 893e
00000320: f1c8 ee3d 1f3b c9bd 0160 4abe 88c2 fc3c
00000330: 03ab 8c3d b375 1a3e c4de 67bd e611 3bbe
00000340: 72d6 bd3d 50b8 b4bd ea0b 2dbd bbee 5f3e
00000350: 5d73 eb3d b595 333e 62d4 d7bd 1594 073d
00000360: 50dc 173e 7db6 1dbd 6c1e 1fbe dbde ab3d
00000370: c4f5 55bd aa30 6c3d b7ef e33d 6276 e7bd
00000380: 36bb 8b3d 4281 bf3b 630c f63d 5e04 d0bd
00000390: da56 213e 9e75 b7bd 9365 3b3e 60de 153e
000003a0: dddd 603e 01f2 b83d dd50 44be fd3d cdbd
000003b0: b3c5 8c3d 7d46 b5bd a2fd ef3d f8ea 823d
000003c0: ea4b e93b d99f 9dbc 87aa 293e 3ab0 053e
000003d0: 028b b23d 4ed0 2dbc a536 2cbe a920 ec3d
000003e0: 5b9c 2abd 5ce7 fe3d 43f9 fbba 2a08 06be
000003f0: 118b de3d 1017 4d3d 863c b7bd f8f8 3bbe
-0.002629097 -0.3487193 -0.10337552 0.17003648 -0.26664996 -0.114024535 0.07405569 -0.019053342
-0.1733958 -0.14330539 0.111491725 -0.36466065 0.119339146 0.2506225 0.14579932 0.13129017
0.15644845 0.16277692 0.24077988 -0.07298501 -0.07574683 0.049265288 0.21824361 0.111290045
-0.12498641 0.28474638 -0.0111386245 0.012872053 0.07665322 -0.014677712 0.089054264 -0.07366936
-0.57499784 0.20553938 0.050971016 -0.08159706 0.074143335 0.16079846 0.025557656 0.15283026
0.09468817 0.061311275 0.0031159394 0.00068818696 0.10386281 0.09545289 0.10811896 0.12693493
0.12698156 -0.1278296 0.19594131 0.12669584 0.104290426 0.02261655 -0.24008544 -0.08428256
0.048645973 0.16109362 0.019341594 -0.27224162 0.14671057 0.18702634 -0.07947688 0.11211297
-0.15590493 0.030216185 -0.066358864 0.10687153 -0.07953179 -0.2272439 -0.0031795804 0.14696568
0.099044465 0.08712258 0.2902113 -0.28915778 0.029748127 -0.05090255 0.039324816 -0.2846506
-0.012473884 0.04422006 0.13276179 0.11103969 -0.20754889 -0.29759684 -0.20953694 0.026519224
0.15532114 -0.12969427 -0.18979996 0.07849333 -0.24551359 0.11360239 -0.086506456 -0.044764057
0.07346698 0.16454482 0.27772453 0.09156205 -0.22585675 -0.31128564 -0.09416008 0.113754384
-0.13510965 -0.09764427 0.032935068 -0.09092661 0.18083526 -0.43391728 0.046363823 -0.16424671
0.21169585 0.2254371 0.11252941 0.23867115 -0.09230593 0.17714679 -0.07603177 -0.1307771
0.030522063 -0.096339665 -0.080348745 -0.14276578 -0.16207445 0.2605807 0.06424894 -0.028952463
0.15595444 -0.06255886 0.23355696 0.019489307 -0.22838534 0.09711287 -0.057156343 -0.032055
0.13356277 0.25327247 -0.14818445 0.073233135 -0.11182629 0.14579216 -0.03307782 0.048115313
0.09055738 0.04772317 0.08738305 0.11866728 0.06852352 -0.19691479 -0.07985623 0.014111155
0.013207699 0.168497 -0.3750868 0.17919414 -0.14129527 -0.2640643 0.113627106 -0.24064283
0.13587269 0.17989808 0.061686903 -0.20154524 -0.158971 -0.06860722 0.16378634 0.2371756
0.16080981 0.048433434 -0.13218881 0.10186022 -0.08908944 -0.37331027 -0.07811624 0.20409124
-0.14920133 -0.18262517 -0.17085351 -0.17358935 0.2856569 0.17751227 0.0074635507 -0.06268412
0.080351956 -0.18409304 0.32369578 -0.10308216 0.16236761 -0.037748713 -0.067699075 0.027127614
0.12627047 0.03455955 -0.0033930426 -0.04890408 -0.17384197 -0.007178142 0.005270391 0.26927015
0.1165942 -0.098257296 -0.19763185 0.030854478 0.068685554 0.15083961 -0.05660893 -0.18268546
0.09269418 -0.08824217 -0.04224769 0.21868412 0.11496613 0.17537577 -0.10538556 0.033100206
0.14830136 -0.038504113 -0.15538949 0.08392116 -0.052236333 0.057663597 0.11129706 -0.113018766
0.06822817 0.005844266 0.12014081 -0.10157083 0.15755787 -0.089579806 0.18300466 0.1463561
0.21959634 0.090305336 -0.19171472 -0.10021589 0.06873646 -0.08851335 0.117182985 0.06392473
0.0071196454 -0.01924126 0.16568957 0.13055506 0.0871792 -0.010608746 -0.1681772 0.11529667
-0.04165302 0.12446472 -0.0019224066 -0.13089052 0.108663686 0.050070822 -0.08947091 -0.18356693

pi.net.2.bias f4 [50]
00000000: b334 8f3e 4fab 45bd 8aa8 483e 41c9 b6bd
00000010: 3829 133c fb50 573c af11 9e3c 9e06 2a3d
00000020: a4ff c03e 3bde b13d b111 f13d 6fd3 aebd
00000030: 2969 95bd 7053 6cbe 0824 d23d 9997 0fbd
00000040: 17be d73c a9f9 a23d 8c81 c03d dc16 803d
00000050: 9c71 1e3e ac99 0abe 9540 43bd 993f cd3d
00000060: 8031 0c3e 3a2c 983d d580 203d 4045 53be
00000070: d024 fd3d e1ed 343e ca6c 393c 02dd d13c
00000080: ed57 5e3e 6556 f73d 6908 c33d 0816 ccbd
00000090: ea3f 0f3e bba2 edbd 5aef 5b3e 242b 61be
000000a0: 0069 4b3e 8b0c 68be 5e91 f2bd 09b6 4abb
000000b0: 8db7 963e f00e b23d e950 2a3e 0561 0d3e
000000c0: fc81 77bd 0366 963d
0.27969894 -0.048259076 0.19595543 -0.08925105 0.008981995 0.013141866 0.019295542 0.041510217
0.37695038 0.08684965 0.117709525 -0.085364215 -0.07295448 -0.23078704 0.10260779 -0.035056684
0.02633576 0.07957775 0.09399709 0.0625436 0.15473026 -0.13535184 -0.047669012 0.10021896
0.13690758 0.074303105 0.039185364 -0.20631886 0.12360537 0.17668869 0.011317441 0.02561808
0.21713229 0.12077025 0.095230885 -0.099651396 0.13989225 -0.11603304 0.21478024 -0.21989113
0.19864273 -0.22661035 -0.11844133 -0.0030931255 0.29436913 0.08694255 0.16632427 0.13806541
-0.060426697 0.07343676

pi.net.4.weight f4 [4, 50]
00000000: 4ea0 403d 2344 b4be 0c84 9a3e b3eb 193f
00000010: f0c0 0f3e e315 93be a6c4 06be 14e1 3cbe
00000020: e5ea a6bb 87c0 173e 8d4f 9bbe 3626 e5be
00000030: c3e9 a7be 4b5d e13d 422a a23e 88b6 f43e
00000040: 236b c4be 5649 a63e 187b 01bf 56c4 79be
00000050: 7692 1b3d 9f8e 9b3e ae6f 00bb f85a 403e
00000060: 4208 65bd 66c3 b3bd 874e 7b3e 3109 64be
00000070: ecff 8dbe 49f4 853e 03a6 103e 8a37 d7be
00000080: c45d 33be 2f65 d73d 609f fcbd 09fa 093f
00000090: ca02 b7bc 4ff0 953e 8134 d5be 3728 7cbe
000000a0: 0ff8 a0be 01b1 e8be ebf2 c83e 6734 d9bd
000000b0: 6617 84be f982 6b3e 83b9 9cbe b9b8 1e3e
000000c0: 0323 c7be 855c 233e a958 9dbe d946 c73d
000000d0: 6972 9abe 83a2 a03e 7f79 76bd 4990 dfbe
000000e0: 4e70 60bc e088 a53e bcf5 0cbf fdbb 953d
000000f0: 8787 8f3e 0ff7 abbb fae6 79be 1719 0fbf
00000100: f477 92bc 47bd 593e eb05 d9be 940a 463d
00000110: 0ee4 0fbe 191d aebe 7775 8a3e e480 843e
00000120: 1d55 fb3d 79aa c5bc a558 bc3e 5bec 883e
00000130: 083f 7b3e a461 ebbd 205f 5abe 25ad 17bd
00000140: f9d1 913e d51c a33d 6d15 b9be e98a a93e
00000150: 2e91 ffbe 9e90 9ebd 232e 2f3f 54a7 4c3d
00000160: 46dc b1be e432 8c3d c7b2 bdbd 1c99 e6be
00000170: b707 04bd 0a7b b7be 97b0 8c3e 8faf 4dbd
00000180: 1a62 bd3d f90b aabc d9d6 dc3e 48ef 003f
00000190: 7991 0bbf 7e18 0d3f aa23 94be 9ffd c9be
000001a0: bc1d 873e 3314 a03d 009c 23be d4e6 ee3d
000001b0: f87f 6bbd dd50 b53e 592b 4d3e 0547 c5be
000001c0: d94b 18bd e256 b4bd 45ab 8ebe a4fa 803e
000001d0: 5f3f 4cbe c6b1 7d3e d728 103e 8080 80bd
000001e0: 720f 84be 4219 bf3d 4621 9fbe 9225 b63c
000001f0: 2a25 083e 0052 90be fd31 32be 03ea a73e
00000200: c1e4 c93b 0859 853e 2804 1f3e e440 a03e
00000210: ee5b 693e 27ae b5be b3ea 5e3d 7dbf a9bc
00000220: 494e e63c d111 773d 8653 293f d7f3 45bf
00000230: 3a9d 9abe 88ec b5bc 0cbe 1d3e b6c0 0e3f
00000240: 8e90 1ebe db18 bfbe b32a 3e3e d37a 9bbe
00000250: e6d9 933d dd43 603e 6120 2ebc eba0 3f3c
00000260: d03c 013d 751a fabe dffb 11bd 20a4 5abe
00000270: a64e e03e 19c5 32be f663 8d3e 70b2 1e3e
00000280: eb04 f03c d159 e93e 02ad 24bd d37f 963e
00000290: d78e b1be 02c7 1fbe 67b7 173d 4f7f 20be
000002a0: be30 9dbe 261a c7be 26b7 013e 6abb 0c3e
000002b0: ee31 91be d26c ba3e d9bf 4f3d 351f d5be
000002c0: f70a bc3e eba9 8abe f377 02be bc83 5d3d
000002d0: 7575 efbd aa2a 453e 09bb 87be c854 d4be
000002e0: 494c b03e f283 56be 1573 9b3e 6ee4 a73e
000002f0: 2f60 56be 3445 133e 7001 c33e 9bfc c3be
00000300: b399 1fbc 3dc0 543e 69b0 fa3d 485e 56be
00000310: 7947 6c3e 0cab 37bd 5871 91be 9d45 09be
0.04702788 -0.35208234 0.3017887 0.60125273 0.14038444 -0.28727636 -0.13160953 -0.18445235
-0.0050939196 0.14819537 -0.3033413 -0.44755715 -0.32795534 0.11004122 0.31672865 0.4779551
-0.3836299 0.32477826 -0.5057845 -0.24391302 0.037981473 0.3038225 -0.0019597816 0.18784702
-0.05591608 -0.08777504 0.24541675 -0.22269131 -0.27734315 0.26162937 0.14125828 -0.4203456
-0.17516237 0.10517346 -0.12335086 0.5389715 -0.022340197 0.29284903 -0.4164162 -0.24624716
-0.31439254 -0.45447543 0.39247832 -0.10605698 -0.25799102 0.22999181 -0.30610284 0.15500154
-0.388939 0.15953262 -0.30731705 0.0973031 -0.30165413 0.31373987 -0.06017446 -0.43664768
-0.0136986505 0.3233099 -0.5506246 0.073112465 0.28033087 -0.0052479575 -0.24404517 -0.5589766
-0.017879464 0.2126361 -0.42387328 0.04834993 -0.1405184 -0.34006575 0.27042744 0.25879586
0.122720934 -0.02412914 0.3678638 0.26742825 0.24535763 -0.11493233 -0.2132535 -0.037030358
0.2848051 0.07964484 -0.3614916 0.33113793 -0.4991545 -0.07742427 0.68429774 0.049964264
-0.34738368 0.06845644 -0.09262615 -0.45038688 -0.03223392 -0.3583606 0.27478477 -0.050216254
0.09247227 -0.020757662 0.43132666 0.50365114 -0.5451885 0.551155 -0.2893346 -0.3945131
0.26389873 0.07816353 -0.15977478 0.11665121 -0.057495087 0.35413256 0.20036067 -0.38530746
-0.03718171 -0.08805634 -0.27865043 0.25191224 -0.19946049 0.24774846 0.14078079 -0.062745094
-0.25793034 0.093309894 -0.31080073 0.022234712 0.13295427 -0.2818756 -0.17401882 0.32795724
0.006161303 0.26044488 0.15528929 0.31299508 0.22788975 -0.3548443 0.054423045 -0.020721192
0.028113501 0.060319725 0.6614307 -0.77325195 -0.3019808 -0.022207513 0.15404528 0.55762804
-0.1548483 -0.3732365 0.18570976 -0.30367145 0.07219295 0.21900888 -0.010627837 0.011696081
0.031552136 -0.4884831 -0.035640594 -0.21351671 0.43810004 -0.17458 0.27615327 0.15497756
0.02929922 0.45576337 -0.040204056 0.29394397 -0.3467929 -0.15603259 0.03704014 -0.15673564
-0.3070125 -0.38887137 0.12667522 0.13743368 -0.28358406 0.36411148 0.05072007 -0.41625372
0.36727116 -0.27082762 -0.1274107 0.05408071 -0.11692325 0.19254556 -0.26509884 -0.41470933
0.344332 -0.2094877 0.30361238 0.32791466 -0.20935129 0.14381868 0.38087034 -0.3827866
-0.009741235 0.20776458 0.12240679 -0.20934403 0.2307414 -0.044840857 -0.28406787 -0.13405462

pi.net.4.bias f4 [4]
00000000: 6a22 abbd c5b9 66bc acf8 1dbe 14cf e83b
-0.08356173 -0.014082377 -0.15426892 0.0071047638

v.net.0.weight f4 [64, 40]
00000000: f497 24bf d331 283f 7909 8bbe f08a f23e
00000010: 204c e43d d831 99be a374 17bd 9966 e13d
00000020: be14 8abf 164b 323e 404e c4be d530 d0bc
00000030: 780a 1dbc 6b1b d6be b2ca 1e3f 40d2 a6bc
00000040: b488 77bc 89aa 523c 38b3 ecbc 70f5 0ebc
00000050: e3b6 2fbf c83b 103f 024e b2bd f3e4 213f
00000060: 6138 1e3e 5397 c3bd 34ec 9f3e 3b04 333e
00000070: f857 91bf 6ee5 5fbe 015e b33e fedc 363c
00000080: 7273 3dbd c22f 03bf 32ed 4c3f a026 a63d
00000090: 07d4 293d 8ba3 8f3c 829b 4e3c baf2 8dbc
000000a0: c4e5 493c 6a24 b9bb 0ab3 503e 5656 c6bd
000000b0: 84d3 6cbe f79c 393e fd9f 7ebc e639 16bf
000000c0: b57b dcbc 133b 003d 96b6 3abd b039 a43d
000000d0: f73a 083d 0d89 31be 8688 72bd f85c a0bd
000000e0: c4dd 1b3c 3f49 fb3d 2edf 2539 c65c 13bc
000000f0: c183 733c ef66 083e b34c 823e 0dae 8cbe
00000100: 3356 f1bd ee64 e03e 7a52 3e3e c604 16bf
00000110: 903c 5fbd 79f1 d03d 345c 243e 6fa6 6bbd
00000120: e542 643d e217 a93d 3785 b0bd e6ff 9a3c
00000130: 3461 a8bd a371 b43d 1a7d 4ebd 5d7a 55bd
00000140: a2d6 623b d55b 88bd 263d 033d 3751 4f3d
00000150: d5ac 163e 660a 7b3c 7653 8ebc a11e 043f
00000160: b78b 67bd 63a7 37be 7ba9 08be 644e f6bd
00000170: c352 993c 0bb4 52be fecb a0be 2de4 523e
00000180: 6300 dc3a 28a7 3cbd a698 bd3c 1b22 7a3c
00000190: 3b04 ce3d bb3b 82be 7502 0a3d 06bc 7f3e
000001a0: 7fd3 973e 3528 1a3e 8940 35be 9913 ee3e
000001b0: 97e3 8a3d 24bb b7bd 154d b93d 0cea 473e
000001c0: 875f 2a3d 07ca 24be 01a7 a6be 5773 b63d
000001d0: 9512 4abd 34c4 c7bc c37c c6ba 8870 16bc
000001e0: a413 21bf ed45 0abf be01 ecbd 2d76 053c
000001f0: 786a 87be 57bc 3abe fb17 1e3d c824 4e3d
00000200: 6483 7cbe 6d58 963d df1b e8bd 1d11 773d
00000210: b64c bf3c e442 cbbc 564a 90bd b8fc 09be
00000220: 010b 16bd ecb2 d63b dcdf 18bc a26d 40bd
00000230: bf04 30bf 106d c4be dd62 a23d cc9d 6b3e
00000240: a5ad 94be 0298 f4bd a20a e6bd aaaf 1cbe
00000250: a165 3dbe e6b5 393e 48ce 143e cefc 12be
00000260: 87a9 ab3c 4b12 f4bd 8a6b 12be 34e4 5e3c
00000270: 68d3 50bd fa7d f83c f294 33bd 586c 1cbd
00000280: 245d 243f 5258 2ebf 38e8 c7bd 113d f23e
00000290: 93ad aebd e6d2 c73c 156f 553d 592b efbd
000002a0: f90c aabf 2857 7c3d 49d7 69be 03db fa3d
000002b0: 36c5 323d 811e c33e 4e28 0c3f 523a 2fbd
000002c0: 5354 8bbd 2241 acbc 24e0 46ba 49c1 4cbb
000002d0: 4536 0a3f ea8e 3cbf 30ce acbc d625 203f
000002e0: ba94 1ebe deb9 67bd 095c c73e 2df0 91bd
000002f0: 3f46 adbf 5e41 8fbe 7bb4 c23e fdcf 5bbd
00000300: b5f0 263c e531 b33e e15d 1d3f 9256 843d
00000310: 3266 3a3c ced1 873a f8b8 82bb a39e 193d
00000320: 322e c13e 0da7 e5bf 938a 1839 a9c0 2b3f
00000330: 7d84 39bd 5547 b63d ffb4 b13d 6fdc eebd
00000340: cce1 8ebf 17ae d63c 6851 42be c95c 3cbb
00000350: 0b24 42bd aa64 4f3d 4a29 d73e f7eb 723d
00000360: c633 473d 82c3 473c adb7 9cbc 6c02 9dbd
00000370: ae9f c53e 7ee4 02c0 5563 1cbe 81ca 1e3f
00000380: 55fc e43d 39c5 963d 0b3a 663e cdc3 933a
00000390: 4752 96bf d451 cfbd 7160 c63e 7b93 c03d
000003a0: 7a99 12bd 9a21 f7bc 7a0b a13e 4795 d0bd
000003b0: 35b0 953d 455a 433d 60f5 59bc 3ad2 9dbd
000003c0: 6f6b d43e 7ae7 cbbd 8663 513e 5590 dfbe
000003d0: 926c 553e 8652 2f3e 63a6 a43d e0cd 83bd
000003e0: eb11 2e3d 40dd 113d 7d46 3c3e 0831 b3bd
000003f0: e7c0 b9bd 4dba e83d 7d4c 10be 9e9d 083e
-0.6429436 0.65701026 -0.27155665 0.47371626 0.11147332 -0.2992084 -0.036976468 0.11005897
-1.078758 0.17411456 -0.3834095 -0.02541391 -0.0095850155 -0.41817793 0.6202804 -0.020363927
-0.015108276 0.012858042 -0.028894052 -0.008725509 -0.6863844 0.5634122 -0.08706285 0.63239974
0.15451194 -0.09550347 0.31234896 0.17482083 -1.1354971 -0.21864864 0.35032657 0.011161087
-0.046252675 -0.5124475 0.8004943 0.08112836 0.04146197 0.017534038 0.012610318 -0.017327655
0.012322847 -0.005650093 0.20380798 -0.09684436 -0.23127562 0.18126284 -0.015541074 -0.58682096
-0.026914457 0.031306338 -0.045584284 0.080188155 0.03325936 -0.17337437 -0.05921223 -0.078302324
0.009513322 0.1226983 0.00015818767 -0.008994287 0.014862956 0.13320516 0.25449142 -0.2747654
-0.11784019 0.43827003 0.1858615 -0.58601034 -0.054501116 0.10202307 0.16050798 -0.05753177
0.055727858 0.082565084 -0.08619159 0.01892085 -0.08221665 0.08810737 -0.050412275 -0.052118648
0.0034612794 -0.066581406 0.032040738 0.050614562 0.14714368 0.015322303 -0.017373782 0.51609236
-0.056529727 -0.17934947 -0.13345902 -0.120266706 0.018716222 -0.20576493 -0.31405634 0.20594855
0.0016784783 -0.04605785 0.023144078 0.01526692 0.10059401 -0.25436196 0.03369375 0.24974069
0.29653546 0.150544 -0.177004 0.46499327 0.067816906 -0.08971241 0.09047905 0.19522876
0.04159501 -0.16092692 -0.3254929 0.08908718 -0.049334127 -0.02438555 -0.0015143383 -0.009182103
-0.62920594 -0.5401295 -0.1152377 0.008145851 -0.26448417 -0.18235908 0.03859709 0.050328046
-0.24659497 0.07341085 -0.11333441 0.060319055 0.023352008 -0.02481217 -0.070454285 -0.13475311
-0.036631588 0.006552091 -0.009330716 -0.046979554 -0.6875724 -0.38364458 0.07929013 0.23009413
-0.2903873 -0.11943056 -0.11232497 -0.15301386 -0.184958 0.18135795 0.14531815 -0.1435425
0.02095486 -0.119175516 -0.14298835 0.013604213 -0.050982863 0.030333508 -0.043843217 -0.038189262
0.6420462 -0.68103516 -0.09761089 0.47312215 -0.085292004 0.024392556 0.05210789 -0.1167819
-1.3285209 0.061606556 -0.22836031 0.122488044 0.043645106 0.3810921 0.54749 -0.042780228
-0.06803193 -0.021027151 -0.00075865 -0.0031243137 0.5398906 -0.7365557 -0.021094412 0.62557733
-0.15486422 -0.05657374 0.38937405 -0.07125888 -1.3537062 -0.2797956 0.3802832 -0.05366515
0.010189225 0.34999004 0.6147137 0.064618245 0.011376904 0.0010362209 -0.003989335 0.037504803
0.37730557 -1.7941605 0.00014547473 0.6709085 -0.045292366 0.08900324 0.086771004 -0.11663138
-1.1162658 0.02620606 -0.18976367 -0.0028741828 -0.047397655 0.05063311 0.4202369 0.059307065
0.04863336 0.012192609 -0.019130552 -0.076664776 0.38598388 -2.045196 -0.15272267 0.62027746
0.11180941 0.07361836 0.22483079 0.0011273563 -1.1743859 -0.10123029 0.38745454 0.0940313
-0.035790898 -0.03016739 0.31454068 -0.101847224 0.073089994 0.04769351 -0.013303131 -0.07706113
0.41488215 -0.0995626 0.20448121 -0.43664804 0.20842198 0.17121324 0.08039548 -0.06435752
0.042497557 0.03561139 0.18386264 -0.08749586 -0.09069996 0.11363659 -0.14091678 0.13341376

v.net.0.bias f4 [64]
00000000: 1d24 823f 2350 de3e f40e aebf 244e 133f
00000010: 0437 a03f 4cec 6c3f 3dd1 3a3f 6317 cc3f
00000020: d044 673f fef7 21be 648b 86bf 2542 19be
00000030: f724 1a3e f431 21bf 8332 d43e 926e 3abe
00000040: 500e 393f 7bb1 1ebf e274 b5bb 1b72 8bbd
00000050: 657b 9a3e ee41 2e3f 7037 f33e d681 ecbe
00000060: 458b 793f 32c3 ee3e aef2 1dbf 6ddc 8b3e
00000070: 4a67 b4be 4477 f83e bfa1 0cbf 74e3 1c3f
00000080: 0685 14bf cb58 983d a502 59bf 5362 ca3f
00000090: 3bec 4d3b 5574 2b3f db90 8d3f ecf6 bcbe
000000a0: d5e9 c0bd 463b 9dbe c14e 023f 11db 10bf
000000b0: e7a3 63bf dc1f 77bf bc2b 023e d86d 463f
000000c0: fa37 9b3f 2a0f d53f 2bfd e4be 28c4 453f
000000d0: 92ea 03bf 0a60 07be a790 4fbf a499 873f
000000e0: 60bb 493f 427b 4f3d 47ec eabd 0a02 e43f
000000f0: 5023 2abf 9f0c d43e 26cd aabf 5b81 923f
1.0167271 0.43420514 -1.3598313 0.5754111 1.251679 0.9254806 0.7297552 1.5944637
0.90339375 -0.15817258 -1.0511289 -0.14966638 0.15053163 -0.6296685 0.41444787 -0.18206242
0.72287464 -0.61989564 -0.005537615 -0.06808873 0.30172268 0.6806935 0.47503233 -0.46192807
0.97478133 0.46633297 -0.61698425 0.2731661 -0.35235053 0.48528492 -0.54934305 0.61284566
-0.5801548 0.07438811 -0.8476966 1.5811256 0.0031421322 0.66974384 1.1059831 -0.36907136
-0.094196 -0.30709285 0.5090142 -0.5658427 -0.8892197 -0.9653299 0.12711996 0.7751136
1.2126458 1.6645253 -0.44724402 0.77252436 -0.515298 -0.1322023 -0.81080097 1.0593762
0.78801537 0.050654657 -0.114708476 1.7813122 -0.6646013 0.4141588 -1.3343856 1.1445726

v.net.2.weight f4 [64, 64]
00000000: e17c 3ebd 9f7e f1be 96d8 d63e 9ac6 cdbb
00000010: a3c0 b5be 4184 0dbe d57b 44be 2970 ca3d
00000020: 11f9 713e 7f6b 1e3f ec9b 0abe 647e 0bbf
00000030: d841 143f 86f8 c03e ded1 173d a409 b03b
00000040: e504 a9bc 7508 bdbd a091 963e 08f7 213e
00000050: f064 7d3e b0d2 66be 4ef4 3bbe 29fd 523d
00000060: 46db 1ebe 2611 6abe c782 0a3e 82b7 09bf
00000070: 63c6 59bd 87f2 813e 22bd 193f dfba 8abe
00000080: e43c b2be 5d29 18bf e6c4 653d 616b b43e
00000090: da1d c8be 931a e2bc d5ec 05bd 2b6e 2b3d
000000a0: b771 f83e e854 1cbe ec9d 133e 9683 2cbe
000000b0: 4798 263d cbf2 7b3e 902d 273f f7c0 a8be
000000c0: 0761 5e3e b25e 07bd 5c08 18bd 2d59 96be
000000d0: d35d 5ebd 03c3 943d e452 92bd 5663 d7bd
000000e0: 5a23 bcbe 200d 0cbe c91f babd 2c98 623e
000000f0: 5448 ecbd 46b0 253e 9091 023e 7af9 0e3d
00000100: f1f1 0a3e 6965 533e 83ec c9be 234e 763d
00000110: 676e 05be 33c9 0fbe 3aa4 7fbe 8869 2ebe
00000120: 2c45 7e3d 864d 003f 92fe 8dbc c2de 66be
00000130: 7c7c c3be a81a 63be 32b4 5f3e 3185 81bd
00000140: d51d 223c 70dc 863e 3972 a43d 1f20 2dbe
00000150: a1c5 ecbc ad1a 803e a0df 5abc 605b 913e
00000160: 69e8 823e 326f ad3e b77f 14be 4475 5bbe
00000170: 5c40 1c3d e3e6 d7be 4c66 723d 6d85 563e
00000180: 3529 05bf 68e5 c6bd 1a01 d03d 6537 093e
00000190: c2c0 a33e 773f 2c3b 5a0b 333d 790a 333e
000001a0: cf29 0c3f d224 16be 1f3b b9bd 0da4 8fbe
000001b0: c3df 28be ff16 02be 2c20 96be 2df7 1c3e
000001c0: 9251 a73e ee63 b5be 3a6b d03d 4625 afbc
000001d0: 1afb 84be 08e8 1d3d 8265 1fbe 57a2 2c3e
000001e0: 40d7 08bd 7337 d7bd d1c0 96be faaa 3fbe
000001f0: 15db 8a3d 193b 15bd 474d a0be 500b 423e
00000200: f29d 823d 3085 b73d 7fb5 a93b 80ce c53d
00000210: a17e 543d 7214 2cbe e1dd 73bb 91c7 81be
00000220: 4575 b5bb 5272 c83c 0f5b 56be 9300 663c
00000230: 950a aabe 91ca 71be 7abc e03d 71a4 463c
00000240: 5e2c 4c3d 9ac0 393d 2b0b 533e 97ae efbd
00000250: 064c 82be 40f7 c5bc c05e 373e 230b de3d
00000260: 8898 0cbd 08ab ab3e bb3f a3bc d4cc 893d
00000270: ecbe 433e adad a8be 1d06 dabe 7602 683e
00000280: 080c e4bd f27d 7f3e 745d 343d 2c1d babe
00000290: 29e3 f13e 0b1b 003c 33fc 07bd 3d33 263d
000002a0: 3544 96bd 6a31 c03d 1e1f 41be 030d bebc
000002b0: d60e a63c 8871 293d 159e 89be 7856 62be
000002c0: 4d49 6bbe c3e9 31be 1127 3b3e ddd2 f43d
000002d0: 01a5 3abd c3ce 493e 9358 cf3b 5db2 efbd
000002e0: 8ea5 733e 9768 883a 9188 993d 5dad acbe
000002f0: 0523 353e 7fa1 08be 2fdd a53c 63f6 40be
00000300: d2b4 03bf f653 d73d 0f4e 7dbe 72a8 813d
00000310: c8ac fabe a338 15be 9938 9dbe d79a a9bd
00000320: b86c bc3c ddf3 8ebe 6998 c9bd 9f2f 223e
00000330: 09a9 0a3f 182f 20be 7247 ddbe 8967 e2bd
00000340: 0032 30be 1c78 e53d 64e2 5b3e 68e4 703e
00000350: d2f3 93bc 4bd4 333e aa45 06be 1aa5 973e
00000360: c641 ac3e ab80 16be c614 62be 737a 7cbe
00000370: f3df 05be fa2b b6bd 2e0c 1b3f 7aa9 093e
00000380: 7c2f b83e a191 8ebe 9d76 723d b3c3 cbbd
00000390: 9839 1b3e e009 8e3d 90a7 4a3e 83e8 fa3e
000003a0: 3347 fd3e 2faf a7be e96c 2cbd 8c03 d2bc
000003b0: a4b5 07be 1952 63be dd6b cc3d 13c5 b73e
000003c0: 41ff 853d 5e8e 17be d644 c7be c5ff 9b3e
000003d0: 05cf 17be f337 c3be c602 a43d 75f7 8b3d
000003e0: 7746 c5bc 0c68 0fbe e5b6 8abe 7900 aebe
000003f0: f025 27bd 317d b43e ef31 7f3d deeb 1a3e
-0.046505813 -0.47166917 0.41962117 -0.0062797787 -0.35498533 -0.13819982 -0.19187863 0.09884674
0.23630168 0.61882776 -0.13536042 -0.5448973 0.5791297 0.37689608 0.03706538 0.005372243
-0.020632217 -0.09230129 0.29407978 0.15816891 0.24745536 -0.22541308 -0.18354914 0.051510964
-0.15513334 -0.22858104 0.1352645 -0.53795636 -0.053167712 0.25380346 0.6005422 -0.27095696
-0.3481208 -0.59438115 0.05609598 0.35238174 -0.39085275 -0.027600562 -0.032696564 0.04185311
0.48524258 -0.15266764 0.14415711 -0.16847071 0.040672567 0.24604337 0.653039 -0.3295972
0.217167 -0.033049293 -0.037117347 -0.2936491 -0.054288696 0.07263758 -0.071447164 -0.10516994
-0.3674572 -0.13676882 -0.09088094 0.22128361 -0.11537233 0.16180524 0.1275084 0.03490589
0.13568856 0.20644154 -0.39438257 0.06013311 -0.13030396 -0.14041595 -0.24964991 -0.17032444
0.062077686 0.5011829 -0.017333303 -0.22545913 -0.38180912 -0.22178137 0.21846083 -0.06324232
0.009894808 0.26340055 0.08029599 -0.16906784 -0.02890283 0.25020352 -0.01335898 0.28390026
0.2556794 0.33873898 -0.14501844 -0.21431452 0.038147315 -0.4216834 0.05917959 0.20949335
-0.52016 -0.097117245 0.1015646 0.13400038 0.31983 0.0026282945 0.043711998 0.17484464
0.54751295 -0.14662483 -0.090444796 -0.28054848 -0.16491608 -0.12704085 -0.2932142 0.15328665
0.3267942 -0.35427803 0.10176702 -0.021380078 -0.25972825 0.03855136 -0.15566066 0.16858803
-0.033408403 -0.10508623 -0.29443982 -0.18717566 0.06780068 -0.036433313 -0.31308958 0.18949628
0.06377782 0.089609504 0.0051791067 0.096585274 0.051878575 -0.16804674 -0.0037211108 -0.2534757
-0.0055376613 0.024468575 -0.20933174 0.014038223 -0.33211198 -0.23612429 0.10973449 0.012124167
0.049847 0.045349695 0.20609729 -0.11703222 -0.25448626 -0.02416575 0.17907238 0.10841968
-0.034325153 0.33528924 -0.01992785 0.06728521 0.191158 -0.32945004 -0.4258279 0.22657189
-0.11135107 0.24950388 0.044034436 -0.3635038 0.47243622 0.007818948 -0.0331995 0.04057621
-0.07337228 0.09384425 -0.18859527 -0.023199564 0.020270746 0.041368037 -0.2687842 -0.22103298
-0.22977181 -0.1737433 0.18276621 0.119542815 -0.045567516 0.1970778 0.0063276975 -0.11703942
0.23793623 0.0010407147 0.07496751 -0.33726016 0.1768914 -0.13342856 0.02024707 -0.18843989
-0.51447785 0.10514061 -0.24736808 0.063309565 -0.48959947 -0.14572386 -0.30707243 -0.082814865
0.02300106 -0.27920428 -0.09843523 0.15838479 0.5416418 -0.15642965 -0.4321857 -0.11054904
-0.17206573 0.1120455 0.2147308 0.2352463 -0.018060599 0.17561452 -0.13112512 0.2961815
0.3364393 -0.1469752 -0.22078237 -0.24656086 -0.13073711 -0.088951066 0.6056546 0.13443556
0.35973728 -0.2784548 0.05919515 -0.09949436 0.15158689 0.06935477 0.19790483 0.49005517
0.49468383 -0.32750842 -0.042096052 -0.025636457 -0.13252884 -0.22199287 0.09981511 0.35892543
0.065428264 -0.14800403 -0.38919705 0.30468574 -0.14825065 -0.38128623 0.080083415 0.06834308
-0.024081452 -0.14004534 -0.27092662 -0.33984736 -0.040807664 0.35251763 0.06230348 0.15129039

v.net.2.bias f4 [64]
00000000: ae05 a1be 3b18 91be fd13 a63e 1730 573e
00000010: 23c0 bf3e a04d f73e a9a5 1fbf fdc1 26bf
00000020: 8563 9abe 08db b73e 685c 303f 220f 8e3e
00000030: 41c4 32bf 08ab fcbe c5f5 d63e b942 1d3f
00000040: 446b debe 10d4 b0be b509 f03e b068 2dbf
00000050: c6ab fd3d 1642 183f efaa c5be b063 00bf
00000060: fefe 4d3e 5ddb 113f c6b5 dbbe 3158 d9be
00000070: 20f8 9b3e eb21 973e df02 123f dfad 3d3f
00000080: 95dd 1c3e b22c 443e bcef c6be e3ed 053f
00000090: 6800 6ebe 4571 c03e 8dd8 0f3f ffa4 a3be
000000a0: e10e 18bf a85c 9dbe 8609 fbbe 67b2 92be
000000b0: f536 023f f240 903e 32a9 dabe a2eb 673e
000000c0: 791b c93e d78d cabe 2bd8 07bf 21e2 31bf
000000d0: 05a5 a23e 68ec 0d3f 01de 003f cf02 edbe
000000e0: 8dfa 2e3f f052 0e3f ae4f 013f 4f39 e13e
000000f0: b5e9 0e3e 38cb 293f 685a 333f bb65 aebe
-0.31449646 -0.283388 0.32437125 0.21014439 0.37451276 0.4830141 -0.6236215 -0.6513975
-0.30154052 0.35909295 0.68891 0.2774592 -0.6983071 -0.49349236 0.41984382 0.61429936
-0.43441212 -0.3453679 0.46882406 -0.67737865 0.12386279 0.5947584 -0.38606974 -0.5015211
0.20116803 0.56975347 -0.4291212 -0.42450097 0.30462742 0.29518065 0.5703563 0.7409343
0.15318902 0.19157675 -0.38854778 0.5231611 -0.23242342 0.37586418 0.56189805 -0.3196182
-0.59397703 -0.30734754 -0.49030703 -0.28651735 0.5086511 0.2817455 -0.4270721 0.2264848
0.39278772 -0.3956134 -0.5306422 -0.6948567 0.31766525 0.5543885 0.5033875 -0.46291205
0.6835106 0.555953 0.50512207 0.43989035 0.1395634 0.6632571 0.70059824 -0.3406199

v.net.4.weight f4 [1, 64]
00000000: b2e9 af3d 1cf8 073e f2e1 91bd f0be 29be
00000010: 8868 22be 1639 efbd db7e 173e d0f8 1a3e
00000020: c0b5 be3d 6e43 88bd 2c22 47be 96e8 d6bd
00000030: 6b48 163e 6c48 fd3d 15e3 37be 7363 0ebe
00000040: 2343 263e 100f 883d 5716 c3bd 039a 103e
00000050: 765b 52be 4aaa 3fbe 8ccb 253e 7d6e fd3d
00000060: f769 40be 5128 a5bd 03d1 693e c705 f03d
00000070: 1499 e5bd e299 d8bd ecc9 71be f6e0 1abe
00000080: cdc9 a43e b345 dabd 2c63 0b3e 967a 06be
00000090: 9d02 d03d 148a f2bd f329 efbd d1e5 9e3d
000000a0: 238c d53d 35fb 1d3e e39c 1f3e f06c ea3d
000000b0: 9678 f9bd a193 c4bd 4dce 253e 5009 1abe
000000c0: 600c 20be 7cd9 9e3d 9b34 993d 71ce 2a3e
000000d0: d6e9 05be 23bd 06be 04a4 e3bd dbd0 d63d
000000e0: ae64 2dbe 807d 6abe b5d0 d4bd 9731 0fbe
000000f0: 259d ddbe fbd6 32be 2021 3fbe 11d5 123e
0.08589496 0.1327824 -0.07123174 -0.16576743 -0.15860188 -0.1168081 0.14794485 0.15133977
0.0931201 -0.06653486 -0.1944663 -0.10493581 0.14676063 0.12367329 -0.17957719 -0.13905124
0.16236548 0.06643498 -0.09525745 0.14121251 -0.20542702 -0.18717304 0.16190928 0.123745896
-0.18790422 -0.0806433 0.22833638 0.11719852 -0.11210838 -0.10576226 -0.23612183 -0.15124878
0.32185212 -0.10657825 0.1361205 -0.131327 0.101567484 -0.118427426 -0.11677923 0.07758678
0.104271196 0.15427859 0.15587191 0.114465594 -0.12181203 -0.095984705 0.16191979 -0.15042615
-0.1562972 0.077563256 0.07480737 0.16680314 -0.13077483 -0.13158087 -0.11115268 0.10489055
-0.16932938 -0.22899437 -0.1039137 -0.13983761 -0.43283954 -0.17464821 -0.1866498 0.14339091

c.net.0.weight f4 [64, 40]
00000000: 34e6 21be c720 9c3d 9667 68bd bd4d 153c
00000010: 3f83 293d 8edf 21bd e70b 25bd 3ffb e8bc
00000020: 799b fcbd 661b a23c 8eff 0fbe ef16 afbd
00000030: 9546 b83c 6035 433d f3ea 633c 4284 543d
00000040: 4d29 12be d6bd 87bc c4a1 033d 4359 823c
00000050: 963d 04be 1472 1bbe 87c1 d4bd 4f7f cf3b
00000060: 006f fcbd 6bcc 8db9 e452 01bd 3eeb 9fbc
00000070: bc94 033e b58e d33d ffd0 1b3e cef2 043d
00000080: dceb 773b b5bf a3bd 589b babd d9b4 42bd
00000090: cfb3 7dbd f098 b63d 9c5d 223b 3d11 f43d
000000a0: 5ade 323d 765b 043e 0519 71bb 1a79 ec3c
000000b0: 988a 5cbc 7475 ea3c 036a f9bd a395 c0bd
000000c0: 633c e9bc bf03 20be 7d8b a33c 95f1 b3bd
000000d0: 04ed 1bbe cf78 cb3d e405 6bbc ae46 81bd
000000e0: 19ee 06be 4f2a 103b 366a a43d edcd c5bd
000000f0: 7800 adbd 253b d63d 4e75 f53b 3a40 203e
00000100: 9214 373d b53a 17be 6f9c 133e 4c53 c93d
00000110: 61b8 08be 9b8d ef3d 0eee f23d 0635 ccbd
00000120: 2d65 62bd a888 9f3b 5a93 82bd b599 d6bd
00000130: 2ce3 65bd bca1 b33d 1686 1d3e dc06 1e3c
00000140: b5a2 1fbe fbc9 943d b7b1 9a3c 5479 4dbd
00000150: f05e 1ebe db6a b93d 8a99 e0bd 9b81 813d
00000160: 4623 673c 0719 12bd 24a4 923d d45d eebd
00000170: 1195 ecbd 5e78 01bd f047 03bd 4a8d ec3d
00000180: eed6 98bd 4684 e33d 7ffb 61bd 0d1e 9cbd
00000190: 200c cb3d 0fe8 c93b 44f9 ebbc 0042 f43d
000001a0: b887 e13d 5c4e 953d f256 c83d da64 fabd
000001b0: aa10 fa3d 8da2 e33d 20d1 97bd 3c01 afbd
000001c0: 0846 2f3c 2780 143d f9a0 103d 3eb1 d13b
000001d0: 63c9 ac3c c1dd 913d 8d9d bebd 5b59 d0bd
000001e0: 9857 103e 77bd b73d 9b64 033e 3051 1dbd
000001f0: 2bbe 0ebe 4fae 053d eb72 1cbd 8734 a0bb
00000200: ca50 60bd 2000 82bb a65c 983d 6531 babd
00000210: 6a77 373d 5183 d03d 274f 08be 572d 583d
00000220: 5570 633c 8bec df3d 8a82 44bc c9e0 b23b
00000230: 5cb6 133d 5ea8 c73c 8e35 163e d3a0 d23c
00000240: 5a58 dcbd 4422 04be cf43 613d 7223 1fbd
00000250: dea1 e13d 62ea 78bd ff9d 81bd 1058 183e
00000260: 52ab 52bd 624d bf3d b335 fe3d fcb4 e0bd
00000270: dabd d93d 3df7 92bd def5 0bbe 9d88 b03d
00000280: fcbd 093d a5fd 263d 9ada db3d 479e 183d
00000290: b0bb 16be cbd1 83bd a8c2 87bc fab7 00be
000002a0: e9eb d73d 9d12 e43d d637 113d b124 bc3c
000002b0: 20fc 11be b1c4 12be 346d 6c3c d2cb 16bb
000002c0: 903f 153e 4f83 00be 84c0 e3bd 04d3 17be
000002d0: 0c6a e5bd 647b 683d 4472 0fbb 2f51 833c
000002e0: 9508 18bd eeb7 023e ab3e 2abd c13d e33d
000002f0: df4b 063e 068e bf3d 2819 1abd 3296 123c
00000300: dc96 eebd e680 153e 8a52 45bd 15c4 fb3d
00000310: f546 0c3e 39c7 2e3d cb0e 1f3e 71aa a3bb
00000320: 49b3 9d3d 3fc8 8b3d 8cf3 30bd 4857 2bbd
00000330: 076b f2bc 0f12 1dbd cd81 d33d ecd3 663d
00000340: 06df abbc d573 83bd 70ac ffbd 6c0c 703d
00000350: 4f88 ad3b 364a 17be d3ad 1bbe cae6 c53d
00000360: cded 2a3d ffb5 f6bd 98af a73d 5313 1c3e
00000370: a2b2 ed3d a803 c93d bae7 b9bd c429 f5bc
00000380: 1232 2c3d 2421 02be 671c 5bbd 1864 0c3d
00000390: 1b01 5e3d 53bb d6bd 7be6 76bd b05e 973d
000003a0: 4879 fb3d 6e27 203e 6e86 b83d e400 083e
000003b0: b180 763d a2e0 f83d 8a01 9abb 0746 383d
000003c0: 3438 103e 6e98 b1bd 76b5 d2bd 5317 89bd
000003d0: be41 bf3d 8fac 8dbc c8cd f43d c17e 5fbd
000003e0: 913c 53bd 5edf 05be c201 b13d b4ac abbd
000003f0: 7009 ac3d ced0 213e 46b2 1e3e 04a7 3c3d
-0.15810472 0.07623439 -0.056739412 0.0091127725 0.04138493 -0.03951984 -0.040294554 -0.028440116
-0.123343416 0.019788455 -0.1406233 -0.08549296 0.022494594 0.047658324 0.013910997 0.051883943
-0.14273567 -0.016570013 0.032136694 0.015911704 -0.12914118 -0.15180236 -0.10388475 0.006332315
-0.12325859 -0.0002704592 -0.03157319 -0.019521352 0.12849706 0.103299536 0.15216444 0.03245812
0.0037829792 -0.079955496 -0.09111661 -0.04753575 -0.061939057 0.08915889 0.0024775034 0.119173504
0.043669082 0.12925515 -0.0036788594 0.02886634 -0.013460778 0.02862046 -0.12178423 -0.09403541
-0.028471177 -0.15626429 0.019963974 -0.087863125 -0.15227133 0.09935152 -0.014344666 -0.06312309
-0.13176765 0.0021997874 0.08028071 -0.09658418 -0.08447355 0.104605 0.0074907904 0.156495
0.04469735 -0.14768489 0.14415143 0.09830341 -0.13351585 0.11696931 0.118618116 -0.09971051
-0.05527227 0.0048685856 -0.06375761 -0.10478536 -0.05612485 0.08771083 0.15383181 0.00964519
-0.15589412 0.07265087 0.01888357 -0.050164536 -0.15465903 0.09053584 -0.10966785 0.063235484
0.014107531 -0.0356684 0.071602136 -0.1163899 -0.1155187 -0.03160893 -0.032051027 0.11550386
-0.074628696 0.111092135 -0.055171486 -0.07622919 0.09914422 0.0061616967 -0.028805383 0.11926651
0.110122144 0.072903365 0.097822085 -0.12226267 0.1221021 0.111149885 -0.07412934 -0.08545157
0.010697849 0.036255028 0.035309765 0.0063993027 0.021092122 0.07122374 -0.09307394 -0.10173293
0.14095914 0.089716844 0.12831347 -0.038407505 -0.13939731 0.032636937 -0.03819553 -0.0048890742
-0.054764546 -0.0039673 0.07439546 -0.090914525 0.044791616 0.101812966 -0.13311444 0.052777614
0.0138817625 0.10933789 -0.011994014 0.0054589254 0.036062583 0.024372276 0.14668867 0.025711453
-0.10759039 -0.12903696 0.054996308 -0.038852163 0.11017202 -0.0607704 -0.063289635 0.14877343
-0.051432915 0.093409315 0.12412586 -0.1097202 0.106319144 -0.07176063 -0.1366801 0.08619807
0.03362845 0.040769238 0.10735054 0.03726032 -0.14720035 -0.06436499 -0.016572312 -0.12570181
0.10543043 0.11136363 0.03545364 0.022966715 -0.14256334 -0.14332844 0.014430333 -0.002300967
0.14575028 -0.1255009 -0.11120704 -0.1482659 -0.112018675 0.0567583 -0.0021888176 0.016029922
-0.03711756 0.12765476 -0.04156367 0.11095763 0.1311488 0.09353261 -0.037621647 0.008946942
-0.11649868 0.14599952 -0.04817442 0.12293259 0.13698943 0.042670462 0.15532987 -0.0049946834
0.077002116 0.06825303 -0.043201014 -0.041831285 -0.02959205 -0.0383473 0.10327492 0.05635445
-0.02098037 -0.064185776 -0.12484062 0.058605596 0.0052957903 -0.14774403 -0.15203027 0.0966316
0.04173069 -0.12046432 0.08187789 0.15241747 0.11606337 0.098151505 -0.090774015 -0.029927142
0.04203994 -0.12707955 -0.053493883 0.034275144 0.054200273 -0.10484948 -0.060278397 0.07391107
0.12278992 0.15640041 0.090100154 0.1328159 0.060181323 0.1215222 -0.0046998905 0.04498866
0.1408394 -0.08671652 -0.10288517 -0.06693902 0.09338711 -0.017294196 0.11953312 -0.05456424
-0.051571433 -0.13073489 0.086429134 -0.0838255 0.084002376 0.15802309 0.15497693 0.046057716

c.net.0.bias f4 [64]
00000000: 393c 153e 073a cbbc e62e a2bd 05b7 72bd
00000010: b0b9 013e 133a 82bc 8056 843d d2e8 febd
00000020: 94eb 693d 2835 203e 3340 b7bd 1227 c7bd
00000030: 0714 6cbc 1f5c a1bd d2ee 1cbd cc47 963b
00000040: 28f3 95bd 4329 cd3d d235 983c 898e e2bd
00000050: d265 bd3d 94b6 d73d 29ea 9d3c 946b b8bd
00000060: 3484 04be 7016 da3d c993 1a3e 28b4 c5bd
00000070: 35dc 88bd dd8b b6bd 4b08 5d3d 93a7 ea3c
00000080: 12e1 d73b ce64 4f3d b6fa fd3d 270b e2ba
00000090: a360 1c3d da9b e33d 9e4c b83d 6d73 bd3d
000000a0: 7612 31bc 7774 833d 1796 b93d 97bd c6bd
000000b0: eb85 a2bd cc5f 813b 73b7 0a3e 98f6 95bd
000000c0: cf35 a9bd bb46 77bd 6202 cb3d 654d ee3a
000000d0: 1afc 0e3e a17b 16be e377 21be 2aad 36bd
000000e0: bb91 04be 9ebf e03d 8f59 a23d a9aa 003d
000000f0: 3911 8fbd 42c7 03bc cd28 f6bc b98e fcbd
0.14573754 -0.024807943 -0.079191014 -0.059256572 0.1266849 -0.015896833 0.06461811 -0.12446751
0.05710943 0.15645278 -0.08947792 -0.09724249 -0.014409072 -0.07878899 -0.038313694 0.0045861956
-0.07321769 0.10017636 0.018580351 -0.11062343 0.09247936 0.10532871 0.019276695 -0.09004894
-0.12941056 0.10648811 0.15095438 -0.09653503 -0.06682626 -0.089133956 0.053962987 0.028644359
0.00658811 0.050633244 0.12401335 -0.0017245755 0.038178097 0.11113711 0.089989886 0.09250531
-0.010807624 0.06418698 0.090618305 -0.0970413 -0.07935699 0.0039481875 0.13546543 -0.07322425
-0.08262216 -0.06037019 0.09912564 0.0018181024 0.13963357 -0.14695598 -0.1576839 -0.044598736
-0.12946217 0.10974048 0.07927238 0.031412754 -0.06985707 -0.008043112 -0.030048752 -0.1233191
