experiments/07_control_structure_hypothesis/checkpoints/PWM/DroneCircleBulletEnv-v0/ppo/2021-12-14__05-39-27/seed_00024/torch_save/model.pt (torch, 82448 bytes, 19 tensors)

obs_oms.mean f4 [40]
00000000: 628f 7e3e e8c8 fcb9 2d16 813f 2527 213a
00000010: 3db7 ef39 b84b 8a3d 9a53 7b3f 875b d4ba
00000020: 0cdc 8136 19f4 9fbc 1290 b4ba 89db 3c3c
00000030: 4c6d 323d 9c9d 8f3a 0524 1f3a 9812 0bbc
00000040: 6a1b 9b3e 782b 943e 082f 9c3e 79eb 983e
00000050: ff8a 7e3e fb0e fdb9 380f 813f 98b7 213a
00000060: 2c5e f339 628d 8a3d 182a 7b3f 3e3f ddba
00000070: 65ee 27b8 ce93 b1bc 48f8 21bb 8631 803c
00000080: 7b48 343d 4229 923a 44fa 203a 569c 07bc
00000090: 12b8 9a3e 26df 933e 1c1d 9c3e 5f80 983e
0.24859384 -0.00048214872 1.0084893 0.00061474956 0.00045722155 0.067527235 0.9817444 -0.0016201594
3.8701164e-06 -0.019525575 -0.0013775846 0.011526951 0.043561265 0.0010957005 0.0006070736 -0.00848832
0.30294353 0.28939414 0.30504632 0.2986715 0.2485771 -0.00048267082 1.0082769 0.000616902
0.00046418735 0.06765248 0.98111105 -0.001687981 -4.0037925e-05 -0.021676924 -0.0024714638 0.015648615
0.044014435 0.0011151212 0.0006140808 -0.0082770195 0.3021856 0.28881186 0.3049096 0.2978544

obs_oms.std f4 [40]
00000000: 6134 353e 21e7 353e 8bf6 1f3d cfc2 bd3d
00000010: 03ec cd3d 360e 013e aa4b 603d da31 cf3e
00000020: d4bd cd3e 1d31 313e f537 eb3f 0ba8 0940
00000030: fddb f43e 7920 143d 680f 183d 73f6 1f3d
00000040: 133d 163f 99ea 073f 795e 153f 09ac 113f
00000050: 3249 353e 0efc 353e ef48 233d 7994 c13d
00000060: df43 d23d 8f84 013e b6a8 713d d19d d03e
00000070: 6ae6 ce3e d55a 3d3e 1591 ef3f 1627 0c40
00000080: 73f8 f63e 531f 163d c1d9 193d d348 233d
00000090: 54f5 153f fa73 073f 300c 153f c039 113f
0.17695762 0.1776395 0.03905348 0.092656724 0.10054781 0.12603077 0.05475966 0.4046772
0.4018389 0.17303891 1.8376452 2.1508815 0.47824088 0.03616378 0.037124068 0.03905339
0.5868694 0.5309234 0.5834728 0.5690313 0.17703703 0.17771932 0.039864477 0.09452147
0.10266852 0.12648223 0.058998786 0.40745404 0.40410167 0.18491681 1.871615 2.1898856
0.48236427 0.036650967 0.037561182 0.039864372 0.58577466 0.5291134 0.5822172 0.56728745

pi.log_std f4 [4]
00000000: 4352 90c0 4352 90c0 4352 90c0 4352 90c0
-4.5100417 -4.5100417 -4.5100417 -4.5100417

pi.net.0.weight f4 [50, 40]
00000000: 4139 08bd 9ffd 55bd 6925 763d fb18 babc
00000010: ff47 46be c85d 1dbe 99a6 09be 9e35 0f3e
00000020: c6b0 033b 37cf 2a3e 4263 a43e 72ba f7bd
00000030: 5c80 46bc 5a06 b3bd 1def 5a3d 51ec 35be
00000040: a2b2 05be f0fe ab3d 1331 313d 2e51 793e
00000050: b234 203e e1de 0ebe 458b 0ebe 316a b1bc
00000060: 4b77 63be 7e58 1a3d 25a0 9bbd 3b3b 663e
00000070: c7c5 473d 97cf 37bd df9e af3d ea6c debe
00000080: ecfe cc3d 3f3a b9bd 6ebf 00bd 7654 2b3d
00000090: 7353 db3d 0dea 51be 0ab1 c83d a53b 9c3d
000000a0: e5dc 0fbe ac50 44be bbe7 7b3d 5794 bf3c
000000b0: 9295 1f3e 4f18 13be dd1d e93c 3950 773e
000000c0: 0f18 303d 9660 143e 7a19 823d bde7 34bd
000000d0: 09e9 18be b99a 0f3e 0a54 163e ea42 163c
000000e0: 5f67 583c 3c29 0fbd a23e 9b3d be2f cfbd
000000f0: 613b c7bc d913 56bd 525e 323e e1a0 973d
00000100: e30e 7f3e 8a39 7ebe b802 d3bd d8ab 87bc
00000110: 01d3 e6bc 0384 75bc 0985 a6be 21af 3f3e
00000120: ec75 47be ecd1 0dbe d188 bc3d 1613 acbd
00000130: d36c b43d 0192 06be 5c0b 103e ff77 123e
00000140: b64f 55be 0c93 813d 4646 86be 180f b0bd
00000150: 4967 8bbc 9143 ecbd 44c2 95be 8220 113d
00000160: 2dbc 6fbe 7734 8fbe 31f3 66bd aecb 043e
00000170: fd26 743d 5823 55bd 6274 ba3d 0276 9d3e
00000180: c7fa 8c3d c188 f93d 5156 4bbd dc5b 023e
00000190: 64e9 d23b 711d b6bd a465 2cbe 44be 6d3d
000001a0: bcde 043b 011c 30be 59d9 b7be d9db bd3d
000001b0: 56e8 213d d6c5 3bbe 84fc 0d3d 09a5 f13b
000001c0: 443a 0abc 16a0 263e 7b54 b9bc bb19 883e
000001d0: c8e9 d6bd 1cdf 2a3c 72f8 d1bd 7cd5 ee3d
000001e0: 9642 c33d 3197 67bd 73f7 b1bc da94 f53d
000001f0: 1a07 0ebe 59d6 213d 8ccb a33e 0033 be3d
00000200: b36c 5fbd b9dc 2e3d 73e7 4a3e ac42 4dbc
00000210: d090 243e f80e a83d 535a 6bbd 75d7 853d
00000220: bdc0 c43d 4ba0 5c3d 5d6d 05bb e06c 453e
00000230: c94e 3fbd 02c4 4a3d 9cae 223e 5bc6 ccbd
00000240: 2339 8c3d 5a5e 053e aeed 493d 1ae6 d0bb
00000250: 1201 343e f889 ef3d a190 debe 7944 5b3e
00000260: 40aa 73bd 2a85 cabb 94b7 e5bc cf08 d93d
00000270: f263 ae3d dadb 873d dbcb 393e 4577 a4bd
00000280: 3359 b03d fac8 7ebd 57c1 b9bd e97f f8bd
00000290: 52c1 17bd 409e ea3c 762f 08bf 6dd6 93bd
000002a0: 90dc 2a3d 82ea c3be 09ed 45be 4fca e8bd
000002b0: 06f0 223e e959 afbc 5936 00be 9b86 a1bd
000002c0: 4326 4f3d ae60 8a3c 0422 13bd fb2c 903d
000002d0: 926e 94bd 5dbe 953d 6ae5 5bbd 7f9e ac3d
000002e0: f95a 673d 85cb 9e3d bf87 e1be f3d1 7a3d
000002f0: 28b4 3bbd 4602 b1be 56d0 24be b19f 33be
00000300: c859 bb3d 9f0b 81be f461 213d af17 dbbc
00000310: 76b9 babb f81f 63bd a2c9 51bd 27d2 45ba
00000320: 4456 26bd bcaa 88bb 7884 81bd 6638 813e
00000330: b7e5 0d3e 891a 68be e371 503e d6e3 71be
00000340: 575c 6f3d 9b2d 89bd 11c4 ae3d 7493 09be
00000350: d923 303c 490f 763e f972 cd3d 6a8e bf3d
00000360: 92dd e93d a8fb 393d 527d 913d b53f 84bd
00000370: afc9 32bc cb77 ea3c 945e bdbd 2e67 5e3e
00000380: d175 47bd bf7a 5ebe 0c42 023e fb75 68be
00000390: 84ed d3bd 54e6 50be d831 ef3c 17e0 683e
000003a0: d265 9cbd 7a8e 3a3e 8c4c b7bc 82c2 043e
000003b0: 5bb2 113b 0726 85be 0c75 9bbd 8dd5 15be
000003c0: 1e3b 183e 9d3f ee3d 0efe 023e d625 52bd
000003d0: 201b acbd d91d 0f3b 21fd 163f 763c e6bd
000003e0: fb41 583e a128 673e 0739 613e 1d91 373d
000003f0: 1de5 203d 59a2 0d3e 2660 bebd a915 65bd
-0.033257727 -0.052243825 0.06009427 -0.02271699 -0.19363402 -0.15367806 -0.13442458 0.13985297
0.002009438 0.16680609 0.32106978 -0.120961085 -0.012115564 -0.08741446 0.053450692 -0.17765929
-0.13056424 0.08398235 0.04325969 0.24347374 0.15645102 -0.13952209 -0.13920315 -0.021657081
-0.22213475 0.03768205 -0.075989045 0.22483532 0.0487726 -0.044875707 0.08575224 -0.4344247
0.1000956 -0.09044313 -0.03143256 0.041828595 0.10709276 -0.2049944 0.097993925 0.07628564
-0.14049108 -0.19171399 0.061500292 0.023386164 0.155844 -0.14364742 0.028456623 0.24151696
0.042991694 0.1448997 0.063525155 -0.044166315 -0.14932646 0.14023866 0.14680496 0.009171227
0.013208239 -0.034951434 0.07580306 -0.10116528 -0.024320306 -0.052265022 0.17418793 0.07403732
0.24908023 -0.24826637 -0.10303253 -0.016561434 -0.028176786 -0.014985087 -0.32523373 0.1871915
-0.19478577 -0.1384961 0.09205783 -0.08402078 0.08809819 -0.13141634 0.14066833 0.14303587
-0.20831189 0.06326875 -0.2622549 -0.08596629 -0.017017024 -0.11536325 -0.29249775 0.035431392
-0.23411627 -0.27969715 -0.05638427 0.12968323 0.059607495 -0.05203566 0.091042295 0.30754095
0.068837695 0.12184287 -0.049642865 0.12730354 0.0064365137 -0.08892334 -0.16835648 0.05804278
0.0020274362 -0.17198183 -0.3590801 0.09270448 0.039528213 -0.18337187 0.034664646 0.00737441
-0.008436743 0.16272005 -0.022623291 0.2658213 -0.10493809 0.01042917 -0.10252465 0.11661813
0.09534185 -0.05654067 -0.021724438 0.11991282 -0.13869897 0.03951106 0.3199123 0.09287071
-0.054547023 0.042690966 0.19814853 -0.012528103 0.16070867 0.0820598 -0.057459187 0.06535236
0.096070744 0.053863805 -0.0020359375 0.19279814 -0.046705995 0.049503334 0.1588692 -0.09998771
0.068468355 0.13024274 0.049298935 -0.0063750865 0.17578533 0.11696237 -0.43469718 0.21412839
-0.059488535 -0.006180425 -0.028041638 0.10597383 0.08515157 0.0663373 0.18144171 -0.08030561
0.086107634 -0.062203385 -0.0907008 -0.12133772 -0.0370496 0.028639913 -0.5319742 -0.07218633
0.04171425 -0.38264853 -0.19328703 -0.11366712 0.15911874 -0.021405177 -0.12520732 -0.07887002
0.0505736 0.016891804 -0.03592111 0.07039829 -0.07247652 0.073116995 -0.053685583 0.08428668
0.056483243 0.07753662 -0.4404888 0.06123538 -0.045826107 -0.34572047 -0.16095099 -0.17541386
0.09147984 -0.2520418 0.039400056 -0.026744692 -0.005698378 -0.05545041 -0.051217683 -0.0007546269
-0.040609613 -0.0041707437 -0.063240945 0.2523834 0.1385716 -0.22666372 0.20355944 -0.23622069
0.05843767 -0.06698152 0.085334904 -0.13435155 0.010750734 0.24029268 0.10031695 0.09353335
0.11419214 0.045406014 0.07103981 -0.06457464 -0.010912343 0.028621575 -0.09246555 0.21719047
-0.048696343 -0.21726511 0.12720507 -0.22701256 -0.10348037 -0.20400363 0.029198572 0.22741733
-0.07636608 0.18218413 -0.022375368 0.12964824 0.0022231552 -0.26005575 -0.07590684 -0.14632244
0.14866301 0.11633227 0.12792227 -0.051305614 -0.08403611 0.002183786 0.58979994 -0.11242001
0.2111892 0.22574092 0.2199441 0.044816125 0.039281 0.13831462 -0.092956826 -0.05592886

pi.net.0.bias f4 [50]
00000000: 31bf 6a3d 0302 aa3d 82ea 4fbe a878 b13d
00000010: 2a74 74be 7d51 593d f5ce af3e 457b 743e
00000020: 33d2 a53b 83c1 553e f0e7 9bbd 5d79 913d
00000030: 0226 15bd 1529 133e 152c a03e ea8c bfbe
00000040: a958 a73c 08fc ce3c a3c7 23be 338c 9c3e
00000050: cf13 cfbc 0c3e f23d 1bf5 413e 3b83 163e
00000060: b963 c3ba 367d 47be 33f1 f33d 8830 b23e
00000070: 8a3f 15be f186 833e cf26 263e 4cc6 753e
00000080: 23e5 88bd 0db8 c63c 359d 073e 451e d03c
00000090: 9081 0f3e e80d 5e3e c0cc aa3d de86 793e
000000a0: e604 713d 9b5d 843d 62f3 2f3e 90af a1bc
000000b0: 319e 2d3d 047b b63e 20e3 caba 8ef4 96bd
000000c0: 5a75 ca3e 7698 9d3e
0.05731124 0.08301165 -0.20304301 0.086655915 -0.23872438 0.05305623 0.34337583 0.23875149
0.005060458 0.208746 -0.07612598 0.07103226 -0.0364132 0.1437114 0.31283632 -0.37412196
0.020428019 0.025266662 -0.15994124 0.30575714 -0.025278 0.11828241 0.18941157 0.14698498
-0.0014907039 -0.19481358 0.119112395 0.3480265 -0.1457502 0.2568889 0.16225742 0.24001426
-0.06684329 0.024257684 0.13243563 0.025405059 0.14014268 0.21684992 0.08339834 0.24367854
0.058842562 0.06463166 0.17182687 -0.019737035 0.04238719 0.35640728 -0.0015479065 -0.07370864
0.39542657 0.3078038

pi.net.2.weight f4 [50, 50]
00000000: 792d aabe 5b92 2b3d 9dde 713d 9328 4abb
00000010: 7e0a 2fbe d1fe 1abd 43c8 4b3e 4704 b53b
00000020: d3fb 583e f629 d23d 5426 f43d 661b 91bd
00000030: 9aa4 a6be cda0 4b3d b31b 29bb 9028 2d3d
00000040: afc2 db3c 22fa 74bd d6fb 4abc f6ce dcbc
00000050: 0be3 28be cfb9 ea3d b52e a83d d16b 663d
00000060: e9fe a13d 97c1 b63d 9262 59be 81ac d73d
00000070: bf11 e9bc 2347 33be 7b67 45be 5dab 14be
00000080: fca3 cd3d d25f 573d 7a04 923d e260 bbbd
00000090: 7e1e 933c 694a 363d 5001 67be 4090 233e
000000a0: f0d8 0dbe 2508 bcbc c0a0 18bd b33d 9cbe
000000b0: fff4 f23d 5da8 2abe 91a5 8f3d b87d a2be
000000c0: 9542 083e 637f 803c 7dd0 8d3e 3849 6fbe
000000d0: 2536 8fbd 4739 79be 208d cc3d 4dfa df3d
000000e0: b9d7 063d 86fe 3cbe 165f 2abe 298a 643d
000000f0: 9655 103e 9f92 02bd 67ca ad3c 7119 8c3d
00000100: 84ac 603e 0b3d ec3d 5a71 2cbe 9fa4 203e
00000110: 5ed1 963d 8fc2 603d f52c 063e d14c 803d
00000120: 6f49 8a3e 71d3 1fbe 342b 80bd c88f 9bbe
00000130: fff9 60bd c37d bdbe a170 94ba f354 f3bd
00000140: da2f 9f3d a8f3 c2bc aa79 523e c176 dbbd
00000150: 988c 6cbe 862d 923d a301 8ebc ae08 e2bd
00000160: 35c7 0e3e 01c7 80be 42e0 04bd 638d b8bd
00000170: e427 1a3d 6c4a 0f3e f610 bf3d 19a4 5dbe
00000180: e74f 06be 8d43 6e3d b3d1 04bd beba fa3d
00000190: 6735 2dbe 585d c7bc 6b49 acbd 0fa3 d4bc
000001a0: 9e9a 1fbd 75ba 0f3c fcbc 0bbe 9154 3a3d
000001b0: 22a1 eabd a553 033e 12b2 2ebc b5b3 063e
000001c0: bda7 a2bd 5191 143e 14cc 843e fb09 dc3d
000001d0: d105 a9bd 3fc7 d3bc 8450 093d 5367 0c3e
000001e0: 7e23 dd3c 8197 4dbc 5c5f 753c a985 f8bc
000001f0: 4a41 eabd 24cd f13d 9168 133e e9e1 72bc
00000200: bc99 16bd c020 f1bd 8272 593e cee1 223e
00000210: 7c54 2e3e 1f40 033e 8886 233d d091 b8bc
00000220: a032 023e 3c58 623d d077 01be 39a0 ab3d
00000230: c37b 0f3e 7e63 24bd 9536 23bd 39ee aabd
00000240: 5b4c bbbc d44e cabb 6b1b 253c ff73 e8bc
00000250: 1913 293e 1484 903e 5e78 753d b3b1 63be
00000260: 8e41 42be 93f0 c63c 49e7 aebd c8d7 213d
00000270: 25c5 c23c 4d20 d4bd 651c 21bd b0da 503d
00000280: 3c89 a93c 0556 ffbd 43ae 283e 8d62 a73d
00000290: 8308 473e 73f6 59bd e844 793d 4b47 fbbb
000002a0: bf4f 23bd e9bc 623e dc71 ecbb 4d3d 94bd
000002b0: be49 143e 7f06 593b b9aa 963b 3423 41be
000002c0: fe4a e23d ed9e b5bd e9bb 84be bf34 4c3e
000002d0: 2b9e 97bb ae19 b9bd 92ee 813e 373f f23c
000002e0: df8c f0bd 3e2f ad3c 3cda 64bd b4ef 443b
000002f0: 23d1 103e 6d23 abbd d6de e43d fdd5 7c3d
00000300: f9cf 77be 43c9 dd3d 2ca5 783d 9243 023e
00000310: 57d3 5f3e 7907 d8bc c313 323e 561d dd3e
00000320: 667b 25be 7203 44bc 8bc5 4f3e fd7b 713d
00000330: 4278 0bbe 7cc9 87bc 1a92 94bd 9cf3 eb3d
00000340: 77d8 383e 1d07 f73d de5b 413e 3142 46bd
00000350: 7cc9 2e3d 4511 243e 96ab 95bd 6607 473e
00000360: 4002 ab3d 9db4 8bbc 5664 ac3d 1564 f0bd
00000370: 5d56 11be 0dcd a7bd b335 2bbc f642 ce3d
00000380: 1964 f3bd 0b4d 83bd 4e57 ddbc cea9 e83c
00000390: f639 7cbd a9a2 173e c51a 9fbd e54a d4bb
000003a0: 94a6 efbc 17db af39 9d57 ea3d 403a e73c
000003b0: 6733 d4be e767 06be 29d6 70be 4fb7 4c3e
000003c0: c654 053e 9dda 30be 4ef9 3b3c 91e0 2b3e
000003d0: ae5d c83c 6900 1b3d 5666 c5bd 363f 25bd
000003e0: 2c80 c7bd bdfc 793c 508d 4bbd c86c a4bd
000003f0: 6d5a 05be 50a5 263e efa2 5dbe b3c9 603d
-0.33237818 0.041887622 0.05905019 -0.0030846938 -0.17093846 -0.037840668 0.19900613 0.0055241915
0.21189813 0.1026191 0.11921373 -0.07085304 -0.32547456 0.0497139 -0.0025803864 0.04227501
0.02682623 -0.059808858 -0.012389144 -0.026954155 -0.1649286 0.114612214 0.08212034 0.056255165
0.079099484 0.08923643 -0.21229008 0.105309494 -0.028450845 -0.17507605 -0.19277756 -0.14518495
0.10041043 0.052581616 0.0712976 -0.09149338 0.017958876 0.044504557 -0.22559094 0.15972996
-0.13852286 -0.022953102 -0.03726268 -0.30515823 0.118631355 -0.16665788 0.07014001 -0.3173654
0.13306649 0.015685743 0.27698126 -0.23367774 -0.06992749 -0.24338256 0.09987855 0.10936413
0.032920573 -0.18456468 -0.16637835 0.055795822 0.14095148 -0.03187811 0.021214677 0.0684079
0.2194081 0.115350805 -0.16840115 0.15687798 0.07364152 0.054873046 0.13103087 0.062646516
0.2700915 -0.15608002 -0.0625824 -0.30383134 -0.054925915 -0.3701001 -0.001132507 -0.11881437
0.07772799 -0.023797825 0.20554224 -0.1071601 -0.23100507 0.07137589 -0.017334765 -0.11036812
0.13943179 -0.25151828 -0.03244043 -0.090113424 0.0376357 0.13993233 0.09329407 -0.2164463
-0.13116418 0.05816989 -0.032426547 0.122426495 -0.16914903 -0.024336502 -0.08412441 -0.025956659
-0.038965814 0.008772482 -0.1364631 0.045490805 -0.11456515 0.12824877 -0.010662572 0.1315449
-0.0794215 0.14508559 0.2593695 0.10744091 -0.082530625 -0.025851844 0.03352405 0.1371129
0.026994463 -0.012548328 0.014976349 -0.030337172 -0.11438234 0.118067056 0.14395358 -0.014824369
-0.036767706 -0.11773825 0.21235088 0.1590645 0.17024416 0.12817429 0.03992322 -0.022530466
0.12714624 0.055259928 -0.12643361 0.083801694 0.14012055 -0.040133946 -0.039846975 -0.083462186
-0.022863558 -0.006173948 0.010077338 -0.028375624 0.16511191 0.28225768 0.059929244 -0.22235756
-0.1897032 0.024284637 -0.08540208 0.039512426 0.023775646 -0.103577234 -0.03933372 0.050989807
0.020695321 -0.12467579 0.16472726 0.08173094 0.1943684 -0.053213548 0.06085673 -0.007668411
-0.039870974 0.22142376 -0.0072157215 -0.07238255 0.14481255 0.0033115444 0.0045979884 -0.18861085
0.1104946 -0.08868203 -0.25924614 0.19941996 -0.0046270094 -0.09038101 0.25377327 0.029571159
-0.11745619 0.02114069 -0.055872187 0.00300501 0.1414228 -0.08356366 0.11175315 0.061727513
-0.24200429 0.10829403 0.060704395 0.12721089 0.21857964 -0.02637075 0.17390351 0.43186444
-0.16160354 -0.011963712 0.202902 0.058956135 -0.13620093 -0.016575567 -0.07254429 0.11521074
0.18051325 0.120619036 0.18882701 -0.04840297 0.04267262 0.16022213 -0.07308118 0.19436416
0.083500385 -0.017053897 0.08417575 -0.11737839 -0.14193101 -0.08193407 -0.010449815 0.100713655
-0.118843265 -0.06411179 -0.02701917 0.028401282 -0.061578713 0.14808144 -0.07768778 -0.0064786547
-0.029254235 0.00033541836 0.11442492 0.028226018 -0.41445467 -0.13125573 -0.23519196 0.19991802
0.1302062 -0.17270894 0.011473013 0.16784884 0.024458732 0.037842188 -0.0963866 -0.040343486
-0.09741244 0.015258011 -0.049695313 -0.08028561 -0.13022776 0.16273999 -0.21644185 0.054879855

pi.net.2.bias f4 [50]
00000000: 34cd fb3c 5d96 123e db1e c23d 9bfd bc3d
00000010: 50ce f3bd 306d 543e c1a7 6e3e d282 703e
00000020: 5915 333e fb25 163e 6e7b 79bc eb21 933d
00000030: 2481 fd3d f500 06be feba d03c 807c f53d
00000040: 9b4a 50bd 9759 08bd c4b1 383e 27e0 0d3e
00000050: f3e0 cebd d169 8a3e bb30 c33d 3ab6 bb3c
00000060: 8e64 1dbe 396c b63c d6f7 64bd d1a3 5b3c
00000070: 025b 99bd e59f cd3d 70b6 993e 37be 033e
00000080: a7af 3e3c 7b10 49be 771b 913e 643f 37be
00000090: 6cb4 953d 0dc6 ab3d 3cde c33d e09d 3b3e
000000a0: 2bef 073e 2d69 8f3e aaa3 593d 3e63 ecbd
000000b0: 8156 483d 56d3 3b3d 365f b4bd 6e1e 423d
000000c0: cd58 51bd c6de d0bc
0.030737497 0.14315172 0.094785415 0.09228059 -0.11904585 0.20744777 0.2330618 0.23487404
0.17488612 0.14662926 -0.015227182 0.07184204 0.12378147 -0.13086303 0.02547979 0.11986637
-0.0508524 -0.033288565 0.18036562 0.13855039 -0.101014994 0.27033857 0.09530779 0.02291404
-0.1537039 0.022268401 -0.055900417 0.013405756 -0.074880615 0.10040263 0.30022 0.1286553
0.0116385585 -0.19635193 0.28341267 -0.17895275 0.07309803 0.083873846 0.09563872 0.18321943
0.13274829 0.2800993 0.053134598 -0.115423664 0.04891062 0.045855843 -0.088072225 0.0473923
-0.051110078 -0.025496852

pi.net.4.weight f4 [4, 50]
00000000: d474 8dbe a95d 993e 6913 203d 4b99 413e
00000010: 317b 853e 4809 9b3e 882b 853c 1b44 ca3d
00000020: 85ec d03e 8898 393e 79e5 cdbd 8a3c 11bf
00000030: d378 173d 2b99 9b3e 70a6 4a3e cdb3 203d
00000040: 0c1e 1cbe fce3 883e 7fdb c43d 35ba 8c3e
00000050: 3b3f df3d 3e34 b0bd f889 023e 907d 5abe
00000060: a700 a4be 53f1 2abe 9324 9a3d a6c1 313e
00000070: 79b8 8abd cd3d 2c3e c4ce e0be f8fa 893c
00000080: fdd1 3fbb b098 b9bc cdb2 bb3e 792e d2be
00000090: fb9a 09bd 1490 0e3e 7ba8 debd a58e 82be
000000a0: d7a2 30be dc3e b4be caed f63e 1268 753e
000000b0: 5a27 d73d 69f2 34be 47e4 8a3e ad06 84be
000000c0: 0ed5 fb3b df22 c2be e484 2bbe f169 f53e
000000d0: 6951 003e d8f4 be3e d759 9e3e a520 98be
000000e0: 55d9 073e 9943 adbe f3b7 743e c8b2 5b3e
000000f0: 786a 933c f3b0 cebd 37f0 11bf 68a3 07be
00000100: 4bae 63bc 8b15 a53e ff50 523e b578 123d
00000110: 4182 923e 8117 fabd b727 13be b449 adbe
00000120: 1e4a 163e ff13 723e 37ab 9e3e 62fd a33e
00000130: 9bfc 943e c13d 68be 58d1 7abe 5f61 c63c
00000140: 4afe 19be 2816 2a3e cbde 3b3d 5bb1 10bc
00000150: 3bc8 943e ad7b 78bd 1fc7 63be d8fa bc3e
00000160: cb52 5cbe cdd2 5e3e e7eb 87bd 0842 90bd
00000170: 9870 87bc d38e 683d 6d3c 0fbe 2f1a e73d
00000180: 1083 acbc de90 643d 9ea8 cebd c5bc 1aba
00000190: 4436 ffbd 5861 c93d fa1c c1bd cc0f 143e
000001a0: ba8d 4ebe d478 ea3d c755 303e 84c9 abbd
000001b0: 4fa8 4fbe 3e94 8cbe ca73 88be f72f 7e3d
000001c0: 97c5 05be a80a 043e 165c 57bd 9c28 94be
000001d0: e1ed 923e 9c84 e23e 4e36 263e b8f6 0c3e
000001e0: 4d81 39bf 46e3 683e a17c d4be b091 a7bd
000001f0: 05a2 853d 925f b13e de70 403e e004 94be
00000200: 6a1b b73e 8126 ea3d 350a d33d 6e17 813e
00000210: 3bf5 873d f9bb 9ebe 06d8 debb d23b 563e
00000220: eef3 dbbe 67c6 1ebc 8996 22bc 14bd c43e
00000230: f4e8 043e 7fd1 973e 18f1 91be 3ba4 d2be
00000240: 6997 40bd 720c d03d 994a 583e 3f4f bb3e
00000250: bf8a 763d df1e c8be a24d 7abe 4f2c 28be
00000260: 9604 62be 5155 37be 8212 3cbe 7bea 873d
00000270: 7a4f 533e d1be e33e c7cc 60bd 3347 fa3d
00000280: 01c4 babe 7637 39be e51e d6bd d19f abbe
00000290: 8a11 303e 38a4 bcbd 59f2 78be 73ab 90bc
000002a0: a3f7 c93d 1b18 47be 3bdd 85be d2fd 8f3e
000002b0: 671e 793e 98db 78be 9b27 00bf 4e13 8bbe
000002c0: b5fe a2bd 2230 b63e c216 29be 36bd 153d
000002d0: 4e22 193f 65f5 39be 65eb 48be bb63 6fbe
000002e0: 12fb 863e 814c f9bd 8453 b7be b641 053e
000002f0: e9d8 a53e 5e61 b038 1012 5d3e c676 893d
00000300: 453d fd3c f64a 88bd 1325 903e bdfc 263e
00000310: 642b a5be e8a1 2ebe 2754 ab3d 9c91 8cbe
-0.27628195 0.2995427 0.03908101 0.18906133 0.2607055 0.3028052 0.016256109 0.09876271
0.4080545 0.18124592 -0.10053534 -0.56733 0.03698046 0.30390295 0.19790053 0.03923397
-0.15245837 0.26736438 0.09612178 0.27485815 0.10900732 -0.086037144 0.12747943 -0.21336961
-0.32031748 -0.1669362 0.07526507 0.17359027 -0.067734666 0.1682045 -0.4390775 0.016843304
-0.002926945 -0.022655815 0.36659852 -0.4105108 -0.033595067 0.13922149 -0.10871979 -0.25499454
-0.17249618 -0.35204208 0.48228294 0.23965481 0.105055526 -0.17670597 0.27127287 -0.25786343
0.00768531 -0.3791723 -0.16749913 0.4793239 0.12531056 0.37296176 0.30927917 -0.29712406
0.132665 -0.33840635 0.23898296 0.21454918 0.017995104 -0.10092344 -0.57007164 -0.13245928
-0.013896535 0.32242998 0.2053871 0.035759646 0.28615 -0.12211514 -0.14370619 -0.33845294
0.14676711 0.2364044 0.30990002 0.32029253 0.29098973 -0.22679807 -0.24493921 0.024216352
-0.1503841 0.16610014 0.04586677 -0.008831347 0.29059014 -0.06066482 -0.22243927 0.3691013
-0.21515958 0.21760102 -0.06636792 -0.070438445 -0.016533181 0.056776833 -0.13987894 0.11284291
-0.02105859 0.05580222 -0.10090755 -0.00059027626 -0.12461522 0.0983302 -0.09429355 0.14459151
-0.20171252 0.114488274 0.17220221 -0.083880454 -0.20279048 -0.2745685 -0.2665084 0.06205746
-0.13063656 0.1289469 -0.052578054 -0.28937232 0.28697112 0.44241798 0.16231653 0.1376599
-0.7246292 0.22742948 -0.41501334 -0.081820846 0.065250434 0.34643227 0.18793055 -0.2890997
0.35763103 0.11433125 0.10304681 0.25213188 0.06638571 -0.31002787 -0.0068006543 0.20921257
-0.4295954 -0.0096908575 -0.009923586 0.38425505 0.1297949 0.2965202 -0.28504252 -0.41140923
-0.047019396 0.10158624 0.21122207 0.36583897 0.060190912 -0.39086053 -0.24443677 -0.16423152
-0.22072062 -0.1790364 -0.18366435 0.066365205 0.20635787 0.4448152 -0.05488279 0.122206114
-0.36477664 -0.18087563 -0.104551114 -0.33520368 0.1719419 -0.0921101 -0.24311198 -0.017659878
0.09861686 -0.1944279 -0.26145348 0.28123337 0.24328004 -0.24302518 -0.50060433 -0.27163166
-0.07958738 0.35583597 -0.16512588 0.0365574 0.5981797 -0.18160017 -0.19621046 -0.23377888
0.26363426 -0.12172795 -0.35805905 0.13013348 0.32392052 8.41047e-05 0.21588922 0.06712107
0.030913005 -0.06654923 0.28153285 0.1630735 -0.32259667 -0.1705395 0.0836566 -0.2745484

pi.net.4.bias f4 [4]
00000000: e524 7ebd 85e8 8f3c ea0f 4dbd 8d8a 8fbc
-0.062046904 0.017566929 -0.050064005 -0.01752212

v.net.0.weight f4 [64, 40]
00000000: 546c 76bf 5786 0c3f cfe4 83be 6072 00bf
00000010: bd06 fc3d dfee bfbd ecbd 41be 07da 6e3e
00000020: c2f0 633f b1f4 f3bd 9d01 7dbe 6383 a0bd
00000030: 0ccc d4bd 1abe c1be 1712 94be eecd 033d
00000040: 1384 f63c 35ae eb3c 8c2e fcbc bed9 b8bd
00000050: 9e74 97bf 2d35 033f 8907 75bd a00c bfbe
00000060: 7c0e 1b3e 1b18 123d 91a7 9fbe ebcf 903e
00000070: 61d1 683f ed38 24be a543 0ebf 4e87 203e
00000080: 2466 79be 260b 07bf 95b9 54be e0b4 7d3e
00000090: 056d 20b9 69b4 bebc a3a8 a03c 31e0 aabd
000000a0: 2fa1 6f3d f45c 13bf b7a2 383e 305b 02be
000000b0: 3182 f13c 47d2 c63d 2bd1 79bd bfa7 05be
000000c0: 2e98 aa3e 274c 0abe 9dac dbbd cb3f 99bd
000000d0: d240 9c3d 3bcc 733d 2635 95be 1f01 7abc
000000e0: 418e 13bd 0519 21bb 2d63 bcbd 5c11 b43c
000000f0: 3bc5 33be aca1 ebbe 9c65 f83d 91f8 81be
00000100: 75c3 08bd 7a52 873b 4155 71be e62e ccbd
00000110: 0a4b 883e 0488 b1be 3b0d bbbd 8e32 9ebd
00000120: 6128 fcbc 829c 13be 8e38 eebd 790d 5f3d
00000130: f262 87bd 392e 4bbc 294f 83bd 1faa 153c
00000140: f3e7 07bf e342 813f 96b7 67bd f962 013e
00000150: 4a80 263e 4038 9c3c 42c1 c33e 4cc5 473f
00000160: d649 3a3e e0f3 3abe 9b10 a2bd 8578 f23d
00000170: 4c3d d5bd 67b2 74be 416c 4d3e 5e19 693e
00000180: cc8c 033d b059 0fbd 5a26 633d be1e 463d
00000190: 990b ddbe c04f 783f 9c83 49bd 67d8 cf3d
000001a0: ec72 3c3e 1617 6cbd 7a65 163f 0846 2f3f
000001b0: cb3f 873e 345b 8ebd fe98 593d 9c2f 283e
000001c0: e5ec aebd e4f0 9fbe 30d9 973e 0f60 0d3c
000001d0: c453 6c3d fc60 40bc 58cf 7e3d 25ce f13c
000001e0: ecad 933f b54e 613f d9e0 bdbc 1d85 98be
000001f0: bdaa d33e f9fa 083e 3831 d33e bfc3 0b3f
00000200: b086 f13d bf5d 393e e168 44bc 4ddd e53d
00000210: 78da d8bc 3fa0 f4bd 9283 4cbe e365 39be
00000220: 7038 223a dcd0 163c 8afe 44bc 85a0 6fbd
00000230: 46f9 8b3f 194e 203f 3838 5c3e 6f52 57be
00000240: 21d9 3a3e 61e8 803c 6973 1e3e 0c4e 063f
00000250: 8aea a73e b595 9f3d 75c5 20be 245b e03e
00000260: 404b cebc 44a0 413e 7c9c 27be 8b16 2dbe
00000270: 9ab0 833b b0d1 8fbb 83cc a1ba 9d2f c4bb
00000280: 6eec 13be 6ed9 8bbf 8d87 88bd 450e 49bd
00000290: 1589 b2bd 1df1 4a3d 598c 863e 2bce c63d
000002a0: de1e 2d3e 87e4 e8be 1451 243e b90b 8abe
000002b0: 6ff9 51bc d797 71be 92a9 20be bbd1 4d3e
000002c0: a683 02bc f161 95bd 7948 51be 34e8 27bd
000002d0: 0641 173c c5ab 89bf cc71 263d 815e d6bd
000002e0: 93eb 8bbc afb8 d3bc 80dd 6dbd 9e7b 063d
000002f0: dfd3 583e e2ae 53bf e641 bdbd 6308 2bbe
00000300: bb69 713d 8284 7ebe 9433 b6be f696 2a3e
00000310: a80f 95bd 2fae ccbd ca81 4abe 241a 18bd
00000320: e441 76bf c4b0 a53d 34ce af3e 864e d8bd
00000330: 3e95 493e ddfb 8f3b 6b4f 90be d704 913d
00000340: c7f2 df3d c149 113d 4212 46be 489f 313e
00000350: 10eb 03be 3276 603b 2135 07bd b168 813c
00000360: 6825 59bc cbdb bc3c 694d da3c b720 41bd
00000370: 2cf9 71bf 1dd8 a73e f60b b93e c966 3fbe
00000380: 8df8 4f3e a727 3f3d a890 24be bba1 733e
00000390: e253 3a3e f552 b93d b0ec 28be ea01 133e
000003a0: e3bf 49be e46d 3a3d 124d cabd a382 d2bd
000003b0: 9094 d53c 4cac 24bd 0c0b bc3c 7bea bebc
000003c0: c6da 36be bc5a 5eba 8f26 80be 2ad9 473e
000003d0: 6acc 4abe d278 943d e5d0 d7bc 6dde 1fbe
000003e0: 102d c1be bf48 b3bd 18bf 803c 2aee c9bc
000003f0: eb67 053e 77cf 573d 5645 1cbe 0f05 d43d
-0.96259046 0.54892486 -0.25760505 -0.5017452 0.12305973 -0.09371733 -0.18920106 0.23325358
0.8903924 -0.119119056 -0.24707647 -0.0783756 -0.10390481 -0.37840348 -0.2892005 0.03217881
0.030092275 0.028769592 -0.030783914 -0.09025906 -1.1832464 0.51253015 -0.05982164 -0.3731432
0.15142244 0.03566752 -0.3118253 0.2828363 0.90944487 -0.1603734 -0.5557197 0.15676615
-0.2435537 -0.52751386 -0.20773919 0.2477603 -0.00015299402 -0.023279386 0.019611662 -0.08343542
0.058503326 -0.5756371 0.18030821 -0.12730098 0.029481025 0.09708076 -0.060990494 -0.13052271
0.3331923 -0.13505612 -0.10726283 -0.07482871 0.07629551 0.05952094 -0.29142112 -0.015259056
-0.036024336 -0.0024581563 -0.09198604 0.021980934 -0.17555706 -0.46021783 0.121287555 -0.25384954
-0.033389527 0.004129705 -0.23567678 -0.09969883 0.2661975 -0.34674084 -0.09133383 -0.07724486
-0.030780973 -0.14415172 -0.11631881 0.054456208 -0.06610669 -0.012401157 -0.06411583 0.009134798
-0.530883 1.0098537 -0.056571566 0.12635411 0.16259876 0.01906979 0.38233382 0.78035426
0.18192229 -0.18257093 -0.079133235 0.118393935 -0.10412082 -0.2389618 0.20060827 0.22763583
0.032116696 -0.034997642 0.055456497 0.04836916 -0.4317291 0.9699669 -0.049197778 0.10148697
0.18403214 -0.057639204 0.5874859 0.68466234 0.26415858 -0.06950989 0.05312442 0.16424412
-0.08541278 -0.31238472 0.29657888 0.008628859 0.057697073 -0.011741873 0.062209457 0.029517243
1.1537452 0.8801072 -0.023178505 -0.29789057 0.413412 0.13376988 0.41248488 0.5459556
0.11793268 0.18102168 -0.011987896 0.112238504 -0.026471362 -0.11944627 -0.19972065 -0.18105273
0.00061882194 0.009205069 -0.0120235775 -0.058502693 1.0935447 0.6261917 0.21505821 -0.2102754
0.1824689 0.015735807 0.15473713 0.5246284 0.32796127 0.07792226 -0.15700324 0.43819535
-0.025182366 0.18908793 -0.16368288 -0.1690313 0.0040188553 -0.0043890104 -0.0012344274 -0.0059871213
-0.1444566 -1.0925729 -0.06666479 -0.049085874 -0.087175526 0.04954635 0.26278952 0.09707292
0.16906306 -0.45486853 0.16046554 -0.2696207 -0.012815817 -0.23593079 -0.15689686 0.20099537
-0.007965958 -0.072940715 -0.20437802 -0.04099293 0.009231811 -1.0755545 0.04063587 -0.10467244
-0.017080104 -0.0258449 -0.058072567 0.032832734 0.21174572 -0.82688725 -0.09241085 -0.16702418
0.058938723 -0.24855235 -0.35586226 0.1665915 -0.07278377 -0.099941604 -0.19776073 -0.037134305
-0.9619429 0.08090356 0.34337008 -0.10561852 0.19685838 0.004394038 -0.2818559 0.07081001
0.10934978 0.035470728 -0.19342902 0.17345917 -0.12882638 0.0034250137 -0.033009652 0.015796991
-0.013253547 0.023054024 0.02664824 -0.04715034 -0.9452083 0.3278207 0.36141938 -0.18691553
0.20309658 0.046668675 -0.16070807 0.23792164 0.18196061 0.09049026 -0.16496539 0.14356199
-0.19702105 0.045514956 -0.09877981 -0.10278823 0.026071817 -0.040203378 0.022954486 -0.023305168
-0.17856893 -0.00084821484 -0.25029418 0.19516435 -0.1980454 0.07249607 -0.026344726 -0.15612192
-0.37729692 -0.087541096 0.01571612 -0.024649698 0.13027923 0.05268809 -0.15260825 0.10352527

v.net.0.bias f4 [64]
00000000: 45e3 463d 1b1f 123e 190d e5bc 2725 a8bd
00000010: de72 1d3e c515 983e d6c1 873f 15b3 8cbe
00000020: 6ad9 033e 2712 ffbe 043b bdbe 9fba d63f
00000030: 52c9 93bf 1021 4a3b fafd 1dbf 4122 763f
00000040: 14b7 aa3e 3180 acbf a83e e93e 5837 a9be
00000050: 91eb 3b3e fd88 d23d 76cd 12bf be06 aebe
00000060: e516 25be a686 1d3f 706e c03d 7adc cb3f
00000070: db5d d23e 5a6a fe3e 804b c9be 8ded 4ebf
00000080: 7c5d 4cbf 7293 13bf ce32 8b3e 03c3 d33f
00000090: 3423 48be d035 973d d40c 8c3e 312c 703e
000000a0: 3bbf 0abf 2bf6 e33e 6290 ddbf 675d 27bf
000000b0: 7f5e 53bf 260f dd3e a883 e9bf f7bd 85be
000000c0: 8c7e 0d3e 53f6 8dbe 4683 d5be 45cb c33e
000000d0: 38cd a83e 891d 183e 04d4 1bbe 0117 303f
000000e0: bdc6 12bf 2d7a f33e defd 3ebe 0317 883e
000000f0: dd91 c83f f827 053f 99a3 da3e ae55 59bd
0.048556585 0.14269678 -0.027960347 -0.08210211 0.1537585 0.2970411 1.0606029 -0.2748038
0.12875906 -0.49818537 -0.36959088 1.6775702 -1.1545813 0.003084246 -0.6171566 0.9614602
0.33342803 -1.3476621 0.45555615 -0.33050036 0.1835158 0.10280035 -0.5734476 -0.3398952
-0.16122015 0.6153358 0.09396064 1.5926659 0.4108723 0.49690515 -0.39315414 -0.80831224
-0.79830146 -0.5764686 0.27187198 1.6543888 -0.19544679 0.07383311 0.27353537 0.23454358
-0.54198045 0.4452375 -1.7309687 -0.65376896 -0.82566065 0.4317562 -1.8243303 -0.26121494
0.13817805 -0.27726993 -0.41701716 0.3824102 0.3296907 0.14855017 -0.15217596 0.687851
-0.573345 0.4755415 -0.1865153 0.26580057 1.5669514 0.5201411 0.4270294 -0.053060226

v.net.2.weight f4 [64, 64]
00000000: e2cf 21be 86ec eb3c b929 c33d 7057 eb3d
00000010: 260c 2cbd 278a 09be b9a8 1ebe b54d 193e
00000020: 31d1 f63c 4dce 35be 529b 2cbe 87d2 18be
00000030: b6a6 56bd 089e 91bd 431f 623d fad2 b6bd
00000040: 4129 233e 6114 9a3d c45e 7dbd e17c a83c
00000050: e883 373e 8f6a ce3b 7bee 32bd 2fec 533d
00000060: eb95 b43b a9fe 0b3c 564d a2bd 38a5 febd
00000070: 6ab2 903d 073d 81be 0cee c7bd 0285 5fbd
00000080: 59b9 3f3d 30cd e9bc 5e25 593d 2711 713d
00000090: 7e8b 8a3d 8a28 3fbe 2bc5 8d3d fa7c f8bd
000000a0: bd57 8b3b 43cb ba3d 2a01 9f3c 93fe 4abd
000000b0: cc21 afbb b64b 1f3e 4107 94bd 8153 853b
000000c0: 48ef b7bd d295 553d 0681 c53d 99fa 073e
000000d0: dcd0 f2bd 1494 0f3e 3c6f aebd 1556 a83d
000000e0: 0d49 b5bd 0a68 b9bb 3c64 323e f566 16be
000000f0: fa6c 98bb fc76 d4bc 84b7 dfba cb6b dbbd
00000100: 54e2 c3be 9cd1 583a 5654 61be 7b65 073d
00000110: bbf8 5f3d 65af 68be dfd9 4f3c 40a7 6dbd
00000120: 0bc3 4e3e 0001 bbbd 7ac9 17bd 2207 363d
00000130: 223e dc3d a846 1f3e 02d4 a5bd 628a d9bd
00000140: d4aa 5d3d 36f6 2bbd c29e 213e cf8b a53b
00000150: 3c35 babe 710d 18be 64b3 103d 92a3 763e
00000160: fc78 62bd 3354 173e 12ab 02bd bb6a 8c3d
00000170: 4869 40be d9d7 ac3d 71db 283d 5831 293d
00000180: d380 a1be 918f 1c3e 7755 8d3e 47df a53d
00000190: 0065 bdbd f8e6 f63d e193 c1bc d22a d1bd
000001a0: 6d11 15be 6dc3 d1bd d7c3 19bd 746f c0bc
000001b0: da94 6dbc 685d a9bc d0d8 c13d 5786 a6bd
000001c0: 53f4 cdbd e92e 573e de33 363d 1901 f0bd
000001d0: 55e6 4abd 3b2b 11bc 92db 92be 25cf 683e
000001e0: 6005 eabc b2f8 8a3d dc35 853e 0fb7 02be
000001f0: b6c6 493c 7553 cb3c e933 a63e 136b de3d
00000200: 09bc 21bd d6b9 09bc c214 433e 286c c23e
00000210: 7375 87be 25a2 2fbe b194 f9bd 89c5 1f3e
00000220: 9e79 91bd b6c3 ecbd 2a21 803a 7355 47bd
00000230: 1357 e0bb f74b 47ba 08d6 013d 69f7 fd3d
00000240: e2ec a43e 3a1d 12bd 3635 8dbc 1f53 16bc
00000250: 0932 bf3e e755 aa3b 924f abbd ceac 52bd
00000260: 2dea 6e3e 0956 04bd d9fc 15be 9961 123e
00000270: cbb1 753e 43e7 c5bd a86e a1bc 2eab de3d
00000280: d95e 943d d44d a03d 7d58 f7bc 94d8 2bbd
00000290: c859 013e 626d d4bd 381a 7b3d 7a36 29be
000002a0: 1539 f3bc 0b75 88bd 2198 fe3c 2a4d b2bd
000002b0: b02b a63d 84c6 bfbd a366 1a3d cd73 30bd
000002c0: 1e48 8bbd 0737 ad3c 9273 d03c 573d 05ba
000002d0: 43ef 01be 71c7 063e 15ba 673e 86c6 953c
000002e0: 9610 5e3d a7ff 373c a3a2 4a3e cba6 853d
000002f0: 718c 2b3c 62ad 9fbd 7740 7abc 4fd6 04be
00000300: cdca 113b 7ed4 59be f87a e4bc a5ba 223e
00000310: d0d3 1fbe 500d 36be 6b5a d0bc 173e 18bd
00000320: 4e94 6ebe fe2a 8abd ea03 f5bd 2293 38be
00000330: 36d6 7f3d b059 d7bc 5066 a93c 483b ac3b
00000340: f413 de3d 6b54 f03d c9a1 633d cde0 5a3c
00000350: 1af0 233e 662c b7bd 6711 6ebc ba3a b93c
00000360: 97a1 693d ee07 dabd 3be7 eebd 416c c43d
00000370: 8086 1d3e a16e 22bd 71ad 97bd e93e f83d
00000380: 851f 843d 3805 05be 88a3 6a3c 3b4c fa3d
00000390: 65bb 173e bd20 dcbd c0a2 29bc f727 8ebd
000003a0: 70a9 2ebe 1217 14be 2a2c a43d 16fb 40be
000003b0: 0aa2 343d 289a 88bd 0d85 823d 0ef0 81bd
000003c0: 068a a2bc f59a f33d b79c 3c3d 56e5 b6bd
000003d0: a25e 78be a76f d93d 1c47 bc3c f92a 2c3d
000003e0: 9098 f03d 7779 9a3d ffd6 053e 2e9e 333e
000003f0: 8b66 1f3c 2f36 5c3d 075e 3a3d 4032 27bc
-0.15801957 0.028799307 0.09529442 0.11491287 -0.042003773 -0.13431607 -0.1549405 0.14971049
0.030129047 -0.17754479 -0.16856125 -0.1492406 -0.05240508 -0.0711022 0.055205595 -0.08926959
0.15933706 0.07523418 -0.061857954 0.02056736 0.17921412 0.006299324 -0.043684464 0.051738914
0.0055110357 0.008544602 -0.07924907 -0.12433857 0.0706528 -0.25241873 -0.09762201 -0.054570206
0.04680762 -0.028540224 0.05301415 0.05885425 0.06764887 -0.18667808 0.069223724 -0.121332124
0.0042524026 0.091208 0.019409735 -0.049559187 -0.005344605 0.15556225 -0.07227946 0.0040687923
-0.08981186 0.052144833 0.0964375 0.13279189 -0.11856243 0.14021331 -0.0851731 0.08219544
-0.08851824 -0.0056581544 0.17421049 -0.14687712 -0.004651663 -0.025935642 -0.0017068242 -0.10713919
-0.38258612 0.00082709803 -0.22004828 0.033055764 0.054680567 -0.22723158 0.012686222 -0.05802083
0.2019159 -0.0913105 -0.037057377 0.044440396 0.107540384 0.15554297 -0.08097078 -0.106220976
0.054117993 -0.041982852 0.15783218 0.005052067 -0.3636874 -0.14848877 0.03532733 0.24085835
-0.05529116 0.14778213 -0.031901427 0.06856295 -0.18790162 0.08439607 0.0412249 0.041306823
-0.31543598 0.15289141 0.27604267 0.080992274 -0.0924778 0.120557725 -0.023630084 -0.102132455
-0.14557429 -0.10242353 -0.037540283 -0.023490645 -0.014500821 -0.020674422 0.09465182 -0.08131092
-0.10056367 0.21013989 0.04448306 -0.11718959 -0.049536068 -0.008860405 -0.28683144 0.2273527
-0.028567016 0.06785716 0.26017654 -0.12765144 0.012315443 0.024820069 0.3246148 0.108602665
-0.039485965 -0.008406123 0.19050887 0.37973142 -0.26456794 -0.17151697 -0.12186564 0.15602697
-0.07103275 -0.115607664 0.0009775509 -0.048665475 -0.0068463176 -0.0007602567 0.031698257 0.12400705
0.32211977 -0.035672404 -0.017237287 -0.009175091 0.3734286 0.0051982286 -0.08364786 -0.05143433
0.23331518 -0.032308612 -0.14647235 0.14295043 0.23993604 -0.0966325 -0.019706085 0.10872494
0.07244653 0.078273445 -0.030193562 -0.041954592 0.12631905 -0.103724256 0.0613043 -0.16524687
-0.029690305 -0.06662949 0.0310784 -0.08706124 0.081138015 -0.09364036 0.03769554 -0.043079186
-0.06800865 0.021144403 0.025445733 -0.0005082688 -0.12688927 0.13162018 0.22629578 0.01828314
0.054215036 0.011230386 0.19788603 0.06525954 0.010470496 -0.07796742 -0.015274159 -0.12972377
0.0022246123 -0.21272466 -0.027890667 0.15891512 -0.15608144 -0.17778516 -0.02543374 -0.03716859
-0.23298761 -0.06746481 -0.11963637 -0.18024877 0.062460147 -0.026287884 0.02067867 0.0052560903
0.108436495 0.117348514 0.055574212 0.013359261 0.1600956 -0.08944015 -0.014530516 0.02261101
0.05703887 -0.10646044 -0.116651975 0.0959096 0.15383339 -0.039656285 -0.07406128 0.12121374
0.064513244 -0.12990272 0.014321215 0.12221571 0.14817579 -0.10748432 -0.010353744 -0.069412164
-0.17056823 -0.14461926 0.08016236 -0.18845782 0.044099845 -0.06670028 0.06373034 -0.06344615
-0.019841205 0.1189479 0.046047892 -0.08930461 -0.2425485 0.10616999 0.022983126 0.04203317
0.11747849 0.07542699 0.13070296 0.1754081 0.009729038 0.05376261 0.045499828 -0.010204852

v.net.2.bias f4 [64]
00000000: 356d bc3e 2910 f3be b958 fcbe d93a 883e
00000010: 8c43 e7be b279 a3be 28fa e0be 6d29 5abe
00000020: 317f 433f eca1 64bd dad6 19bd 7fc1 a83d
00000030: 8b61 b3be 3931 f63e 1ae7 c63e afc8 e83e
00000040: 41d5 093f c831 f7be 6d2f 11bf 48ea 7b3f
00000050: e97a 1b3f 6345 c13e 7984 703e c6d7 ad3e
00000060: 5626 013f e166 b3be d728 91be 8761 07be
00000070: 538c 9dbc 9419 c1be 89f3 89be c9ee 62be
00000080: 1559 07bf 310d eb3e 7dfc f73e e739 c1be
00000090: 1cce f7be ac59 033f 8aa4 96be 393b fe3e
000000a0: 92cf 07bf ebf1 4fbe 6719 babe b123 d53e
000000b0: 68fc 89be f67d dd3e 9abe f93c e568 e53e
000000c0: e98b 1c3e 7b9f ecbe 3aea f53e 24fd a43e
000000d0: 9391 27bf 55d9 bebe 13c5 ab3e 291b f83e
000000e0: 2025 2a3f 4fdb 05bf 75c3 ffbe 208d 98be
000000f0: c7a9 17bf 7e96 ce3e 7d27 9cbe 03a2 9abe
0.36802068 -0.47473267 -0.4928644 0.26607397 -0.45168722 -0.31928784 -0.43940854 -0.21304865
0.76365954 -0.055818483 -0.037558414 0.082400315 -0.35035357 0.4808443 0.38848191 0.4546561
0.53841025 -0.48280168 -0.5671299 0.9840436 0.6073442 0.3774825 0.23488034 0.33953685
0.5044912 -0.35039428 -0.2835147 -0.13220797 -0.01923195 -0.37714827 -0.26943615 -0.22161402
-0.52870303 0.45908502 0.4843482 -0.37739488 -0.48399436 0.51308703 -0.29422408 0.49654558
-0.530511 -0.20307128 -0.36347505 0.41628793 -0.26950383 0.43260163 0.030486394 0.4480659
0.15287746 -0.46215424 0.48030263 0.3222438 -0.65456504 -0.37275186 0.33548793 0.48458222
0.664629 -0.52287763 -0.4995381 -0.2979517 -0.59243435 0.4034919 -0.30498877 -0.3020173

v.net.4.weight f4 [1, 64]
00000000: 59fa a4bd c97e af3d 1c41 1f3e baef 12bd
00000010: 8130 733d 63af ee3c ef48 bf3d a590 15be
00000020: 898e 31be 75f0 2f3e a943 ff3d 3698 b2be
00000030: 1407 cc3d e060 cbbd bef8 d3bd 698b d1bd
00000040: 3f80 e2bd 255c 9d3d efca 0b3e b05e 90be
00000050: 42b8 bfbd a8ae b9bd 1058 c4bc 1b03 ffbc
00000060: 3eb4 07be 6723 813d d73f 8a3d 65c6 b13d
00000070: 5dd5 9d3d f8cd ae3d eda9 303d 1d1a c03c
00000080: 964a d33d 39e1 b7bd bb6f 33bd 2eab aa3d
00000090: 8c18 f73d 8750 21be 4f47 b13d 298d d6bd
000000a0: fbe1 fe3d 859c 8c3d 0540 d23d 3d48 09be
000000b0: 82e8 603d 77bf 83bd 73d7 833e 4b9e f2bd
000000c0: d625 b6bc f688 373d fdfb 01be dd08 6fbd
000000d0: e043 7b3d 938f a23d 8d60 dfbd 1b71 88bd
000000e0: 4166 4bbe d711 b03d 802a 043e ebd3 223d
000000f0: 33e8 d93d a77c 8ebd a3c9 793d e698 a53d
-0.080555625 0.08569104 0.15552181 -0.035873152 0.05937243 0.029136365 0.09340083 -0.14605959
-0.17339529 0.17181571 0.12464077 -0.34881753 0.099622875 -0.09930587 -0.10350178 -0.102316685
-0.11059617 0.07683591 0.13651632 -0.2819724 -0.09361316 -0.09066516 -0.023967773 -0.03112941
-0.1325235 0.063055806 0.06750458 0.08680419 0.077067114 0.08535379 0.043130804 0.023449952
0.103169605 -0.08978505 -0.043807726 0.08333431 0.12065229 -0.15753375 0.08656179 -0.10476143
0.12445446 0.06865791 0.10266117 -0.13406463 0.054909237 -0.064330034 0.25750312 -0.11846598
-0.022234838 0.04480835 -0.12693782 -0.058358062 0.061344028 0.07937541 -0.109070875 -0.06662198
-0.19863226 0.08597153 0.12906837 0.039752882 0.106399916 -0.06957369 0.06098331 0.08085804

c.net.0.weight f4 [64, 40]
00000000: 8fdb 1a3d 5060 abbd c183 42ba c03a fb3d
00000010: 8f04 773d 72e7 1b3e a87f 19be c681 c3bd
00000020: 88f2 07be 040c 84bd 9696 b0bd ba7e 1abd
00000030: b6f8 4e3d 3f49 ae3c 74ea 8f3d d17d f1bd
00000040: 5122 cf3d 5699 10be 8ad1 21be 5f74 c1bd
00000050: 51da 143c ec82 723d 51a4 e1bd 142d 0d3d
00000060: f6bd ec3d a149 c93c 2ca7 14be 22dd 963d
00000070: 3807 0b3e d91e 3dbd df72 0a3e acc3 dcbc
00000080: d666 9b3d 21aa e43d ab1e adbd aca2 0f3e
00000090: 8a74 39bd 7f8d 03be 2d52 773d 8e07 213e
000000a0: 8774 9c3d 8323 8dbd f275 f0bd e42a f23d
000000b0: ccea 6ebd 4ff8 43bd c138 0cbe c8bf b9bd
000000c0: c2f9 f1bd a949 193e 60b6 7dbd a311 c9bd
000000d0: 0c9b a23d 36e0 3fbc 1ed9 b23c aa66 1fbe
000000e0: 34a4 d33d 6b99 59bd 73bd 76bd c67e 023c
000000f0: a0a8 21be 33d2 c2bd 4c73 c3bc f80d da3d
00000100: 3101 69bd cb48 b33d 7d03 173e d5e8 103e
00000110: 033c 1cbd 1ffa 6cbd a286 003e 70ce ac3d
00000120: 622b f8bc 16ea 41bd 35ca 8a3d 8577 bd3d
00000130: 6ce8 953d b2ce 863d f646 b23d 906d 84bd
00000140: edd8 1d3c dac1 a0bd 8781 aebd 9b04 d8bc
00000150: 2771 11bd 79dc 3bbc 6f76 a53d 9837 8dbc
00000160: d86a 0cbe 79e3 7c3d 2805 17bd 61a9 fbbd
00000170: 46ec 8bbd 8728 f33c 7071 093e 1c97 6dbd
00000180: fb45 f43d 1062 1f3e 5055 89bd 8795 963d
00000190: 2acb b4bd 3740 bebd 839f 90bd af0e 51bd
000001a0: 16a9 89bd dce0 f0bd 1387 d73d b534 1a3d
000001b0: dec6 fbbd 91aa 783d 8c54 d43b 7dd0 4d3d
000001c0: ecaa 9ebd d0e6 d23d ad55 8f3d 270d 173e
000001d0: 24c6 1bbd bc9a 5b3d e388 b13a 9cb0 163e
000001e0: b1e2 37bc 5934 93bc a2fc 7c3d d15a debd
000001f0: 32ae c33c fc48 df3d ed79 21bc 20cd 0b3e
00000200: 02a0 17bd 1724 6b3d 2385 0bbc 36c5 bbbd
00000210: 01c2 043d 117b dabd 9891 ae3d 7d0f cbbd
00000220: c7df 42bc 64c6 053e e238 99bd d422 e53b
00000230: e62c a8bd 849c 1c3e c65c 11bd 447d 91bc
00000240: 2021 fb3d f3eb fcbb 6d9b 013d 8e12 ffbd
00000250: 8bce 9fbc 6169 f7bd 2a34 f9bd 4d7d 14be
00000260: 54ae 9cbc 3f7b 10bd 6d1d 0dbe 3c47 0abe
00000270: abce 7abd 4350 debc 54e7 f43d e6cd 80bd
00000280: a48f b03d 2161 2fbd 5191 73bd 942c e03c
00000290: 97e0 d4bd 9f83 f5bd bbae 0d3e 84d7 123e
000002a0: 68a9 053e 32b5 803b dcaf 1a3d b358 953d
000002b0: 2772 74bd 60a7 f83d 3c53 32bd 81f1 03be
000002c0: 4341 a9bd 5310 8cbd 4a96 08be 4bcc a4bd
000002d0: 0d35 1bbd 3ce5 123e e682 513d eed6 ca3c
000002e0: 0ba0 503d c121 12be 67b8 1d3e f651 073c
000002f0: c47a b43d 9355 3d3d 6bc1 c23b 9919 c03d
00000300: afbd 9dbd 3aec 19be ed4d 0abd 7fb3 2a3d
00000310: de67 923d c15e bd3d d268 033e 18cd acbd
00000320: 681b c3bd 9050 f53d 4214 043d c72e 8a3c
00000330: 0ecc 02bd ee88 0b3c 0b99 fb3d 4272 f8b9
00000340: 367c 6dbc 58f8 8dbd 7652 093e 0369 423d
00000350: a9dd 52bb 9742 0b3e f783 c4bd 6d12 04be
00000360: 121b f73c f6af 4b3d 1c1a 2ebd e99f 8dbc
00000370: e937 9dbd 7924 9abd 4647 0b3d 725c ccbd
00000380: 38ef 40bd 0ffe 14be 8426 aa3d 2d8b a5bd
00000390: d5ea 1bbe 0950 913d 4469 b3bd 2067 1d3e
000003a0: f14a 18be 0bbc ba3d 56be 013e 91f9 0f3e
000003b0: e6e5 0a3e a710 e0bd 7c10 113e 9154 9dbd
000003c0: e9dd 0abe ede5 c1bd 1ac4 b1bd af47 343d
000003d0: 4ef1 e83d 10d5 383d d6be 53bd 5b30 6dbd
000003e0: 9ca4 903d fc26 563d 3073 1dbe 282f fe3d
000003f0: ea62 67bd 9c93 15be ccc7 993d 5cf1 373d
0.037807044 -0.083679795 -0.00074201456 0.12267065 0.06030708 0.15225008 -0.14990103 -0.09546237
-0.13276112 -0.06447604 -0.08622472 -0.037718512 0.050530158 0.02127516 0.0702714 -0.11791576
0.10113967 -0.14120993 -0.15802589 -0.09446024 0.009085254 0.059206888 -0.11017669 0.034466818
0.1155967 0.024571242 -0.14516896 0.073663965 0.13576972 -0.046171997 0.13520382 -0.026948772
0.07587974 0.11165262 -0.08453115 0.14026898 -0.045277156 -0.12846945 0.060381103 0.15725538
0.07639413 -0.06891539 -0.11741246 0.11824587 -0.05832939 -0.047844227 -0.13693525 -0.090697825
-0.11815216 0.14969505 -0.061941504 -0.09817817 0.07939729 -0.011711171 0.021832045 -0.15566507
0.10334054 -0.053124826 -0.060239267 0.007964795 -0.15786982 -0.095127486 -0.023858689 0.106471956
-0.0568859 0.087541185 0.14747424 0.14151318 -0.03814317 -0.05785572 0.12551358 0.08437812
-0.030294124 -0.047342382 0.06776849 0.09251312 0.073197216 0.06582393 0.08704941 -0.0646621
0.009634239 -0.07849474 -0.08520799 -0.026369384 -0.0355083 -0.011466139 0.0807923 -0.017238423
-0.13712633 0.061740372 -0.03687015 -0.12288166 -0.06832175 0.02968241 0.13422179 -0.058005437
0.1192741 0.15564752 -0.06705725 0.07352739 -0.08827813 -0.09289592 -0.070616744 -0.051039394
-0.06721704 -0.117616385 0.1052381 0.03764792 -0.1229379 0.06070954 0.0064798053 0.050247658
-0.077474445 0.1029793 0.06998763 0.14751111 -0.03803076 0.053614363 0.0013544824 0.14715809
-0.011223481 -0.017969297 0.061764367 -0.108571656 0.023886774 0.109025925 -0.0098557295 0.13652468
-0.03701783 0.057407465 -0.008515629 -0.091684744 0.03241158 -0.10668004 0.085238636 -0.099150635
-0.011894173 0.13063961 -0.07481553 0.006992677 -0.08211689 0.15294081 -0.035488866 -0.017759927
0.122621775 -0.007718557 0.031642366 -0.12454711 -0.019507667 -0.12080646 -0.12168153 -0.14500923
-0.019126095 -0.035273787 -0.13780756 -0.13503736 -0.06123225 -0.027137881 0.11958185 -0.06289272
0.08621147 -0.04281724 -0.059464756 0.027365007 -0.103943996 -0.11987995 0.13836186 0.14340025
0.13052905 0.00392785 0.03776537 0.07292309 -0.059679177 0.12141299 -0.04353641 -0.12885095
-0.08264401 -0.06839051 -0.1333858 -0.08046778 -0.03789239 0.14345258 0.051150225 0.02476069
0.05093388 -0.14270689 0.15402375 0.008259287 0.08812478 0.046224188 0.0059434674 0.09379882
-0.07702195 -0.1503152 -0.033765722 0.041675087 0.07148717 0.092465885 0.12832955 -0.08437556
-0.09526712 0.11978257 0.03224588 0.016868008 -0.031932883 0.008516533 0.1228505 -0.00047387375
-0.014494946 -0.069321334 0.13410363 0.04746343 -0.0032175577 0.13599621 -0.09595483 -0.12897654
0.030164275 0.049728356 -0.04250537 -0.017288165 -0.0767668 -0.07526488 0.03400352 -0.0997857
-0.047103137 -0.1455004 0.083081275 -0.08083186 -0.152263 0.070953436 -0.08760312 0.1537137
-0.14872338 0.091178976 0.12670264 0.14060046 0.13564262 -0.10940676 0.14166445 -0.076821454
-0.13561215 -0.09467683 -0.086799815 0.044013675 0.1137415 0.045125067 -0.051695667 -0.057907443
0.07062647 0.052283272 -0.15375972 0.12411338 -0.056490816 -0.1460709 0.07508811 0.044907913

c.net.0.bias f4 [64]
00000000: bf7d 35bd f43e 95bd ead1 bfbd 1b96 10bd
00000010: f617 85bb 1e91 29bd ace1 e5bb 24e7 bfbd
00000020: 7b5f ac3d 2cf3 23bc 24fd 91bc 6fbd 9e3d
00000030: 0c33 06be 69ac f93d 20ae 9bbd 231b 07bd
00000040: 96b9 783d 3340 ff3c 9eb5 52bd 5b82 6d3d
00000050: 51e5 b0bc 487c 123e af84 cc3d c4d8 e0bc
00000060: f2ff 0e3e 343a 0d3d 0ae2 01be 3bfc debd
00000070: fe70 1e3d b9d4 013d 8bd9 b9bd 3193 d13d
00000080: a877 a53b 9e41 4ebd b627 c2bd 1273 f23d
00000090: 6462 213e f4d7 08be 3f99 95bd 5467 eb3d
000000a0: 745b b8bd 3c9a bd3d a649 e4bd 6c7f 113d
000000b0: ef6d 0cbe 24c3 af3d 7dd8 26bc 5b30 603d
000000c0: bf99 043d 1111 093e 2178 d03d f52d af3c
000000d0: 3c0b e9bd 7103 483d 2109 343d b45d b9bd
000000e0: 9554 0dbe 755e b3bd c22e 673d 0dfa 073e
000000f0: c03f c63d 3d21 85bd 0b26 193e b54d 073e
-0.044309374 -0.07287398 -0.0936621 -0.0352994 -0.0040616943 -0.04139816 -0.0070154276 -0.093702585
0.08416649 -0.010006707 -0.017820902 0.07750975 -0.1310541 0.12191088 -0.07601571 -0.032984864
0.060723864 0.031158542 -0.051442735 0.057985645 -0.021593722 0.14305222 0.09986245 -0.027447112
0.13964823 0.034479335 -0.12683883 -0.10887953 0.038681976 0.03169701 -0.09074696 0.10233153
0.0050496645 -0.050355546 -0.094802305 0.11838354 0.1576019 -0.1336363 -0.0730462 0.11494318
-0.09001818 0.092579335 -0.1114686 0.03552191 -0.13713811 0.08582142 -0.010183451 0.054733615
0.032373186 0.13385417 0.10179163 0.021384219 -0.11379096 0.048831407 0.04395402 -0.090510756
-0.13801797 -0.087582506 0.056441076 0.1327898 0.09680128 -0.0650048 0.14955918 0.13213237
