experiments/07_control_structure_hypothesis/checkpoints/Attitude/ppo/2021-12-14__01-41-49/seed_00007/torch_save/model.pt (torch, 82448 bytes, 19 tensors)

obs_oms.mean f4 [40]
0.24267608 -0.0024860075 1.0146799 5.7490288e-05 -0.0006530152 0.01646657 0.99709624 -0.0055953315
-0.0014431668 3.7384354e-05 -0.0038511564 0.0015219114 0.023287898 0.0065738866 0.001750044 -0.0146796815
0.41276646 0.00045255525 -0.0163554 0.24751556 0.24262016 -0.0025005657 1.0146742 5.0043644e-05
-0.0006506654 0.016513495 0.9971535 -0.005650573 -0.0014516488 -0.00011142185 -0.0039866217 0.0016296664
0.023289785 0.0066146264 0.0017804578 -0.014674289 0.41255465 0.0010533684 -0.015908848 0.24815606
00000000: 1480 783e 49ec 22bb 08e1 813f ba21 7138
00000010: 1c2f 2bba e6e4 863c b341 7f3f 0b59 b7bb
00000020: a428 bdba 25cd 1c38 af63 7cbb df7a c73a
00000030: 43c6 be3c c269 d73b bb61 e53a 0c83 70bc
00000040: 2056 d33e f044 ed39 c3fb 85bc b874 7d3e
00000050: 6b71 783e 88e0 23bb d8e0 813f f4e5 5138
00000060: 6a91 2aba 4f47 873c 7445 7f3f 7128 b9bb
00000070: 4045 beba 26ab e9b8 35a2 82bb 889a d53a
00000080: 38ca be3c 82bf d83b 405e e93a 6e6c 70bc
00000090: 5d3a d33e 2e11 8a3a 4653 82bc 9f1c 7e3e

obs_oms.std f4 [40]
0.16826624 0.17393368 0.034461822 0.046806592 0.046368636 0.034924675 0.0028154857 0.3450149
0.35537258 0.102423035 0.6107774 0.62358403 0.35952944 0.057846896 0.05575006 0.03446186
0.95499283 0.7319942 0.73430616 0.7046925 0.16832405 0.17404312 0.034841202 0.046381146
0.045941774 0.03441599 0.0026585085 0.34569952 0.3560412 0.103781514 0.6109776 0.6238034
0.35957834 0.058439728 0.05639994 0.034841146 0.9555272 0.7302828 0.7315599 0.7046441
00000000: fc4d 2c3e ac1b 323e d727 0d3d 45b8 3f3d
00000010: 0aed 3d3d 2d0d 0f3d 0384 383b cba5 b03e
00000020: 65f3 b53e 2bc3 d13d e85b 1c3f 34a3 1f3f
00000030: 3e14 b83e def0 6c3d 2d5a 643d e127 0d3d
00000040: 697a 743f f963 3b3f 7dfb 3b3f ba66 343f
00000050: 245d 2c3e 5c38 323e a6b5 0e3d 28fa 3d3d
00000060: 712d 3c3d c8f7 0c3d 5f3a 2e3b 87ff b03e
00000070: 084b b63e 678b d43d 0769 1c3f 94b1 1f3f
00000080: a71a b83e 7f5e 6f3d a003 673d 97b5 0e3d
00000090: 6e9d 743f d0f3 3a3f 8247 3b3f 8e63 343f

pi.log_std f4 [4]
-4.5100417 -4.5100417 -4.5100417 -4.5100417
00000000: 4352 90c0 4352 90c0 4352 90c0 4352 90c0

pi.net.0.weight f4 [50, 40]
0.12677184 0.10243857 -0.025985809 -0.14436214 -0.06376243 0.109589554 0.17342082 0.050272573
-0.17294297 -0.26340657 0.12558869 -0.20191568 0.10751164 -0.095850125 -0.045431018 -0.0058569615
0.08323024 -0.0170553 0.17796986 -0.34056297 -0.009378602 0.15510899 -0.0570489 0.017284844
-0.11949013 -0.062581554 0.14916989 0.25212103 -0.0966822 -0.121940345 -0.14892179 0.07100601
0.07214129 -0.22417964 0.22393635 -0.11681869 0.05532846 -0.2607359 0.026769793 0.30099505
-0.06586225 0.40503025 -0.121166095 -0.02286117 0.012411186 0.112066664 0.1383833 0.34752727
0.18011226 -0.32160816 0.026216995 0.053816225 -0.04632189 -0.22084706 0.18217225 0.33419842
0.03468087 -0.2903549 -0.016394148 -0.073160924 0.19974582 0.10708585 -0.21166287 -0.20637111
-0.12805651 0.04626107 0.31764466 0.42543918 0.27654085 -0.2840295 -0.0442132 -0.20811675
-0.14386725 -0.02763195 -0.0007179479 0.09367857 0.2209859 0.11547068 0.22440878 0.058302682
-0.2380084 -0.1135365 0.079475485 0.21801788 0.101070635 0.06486825 0.034420602 -0.1586726
-0.237216 0.25737008 -0.11026648 -0.061827246 -0.08884341 -0.0711099 0.29926428 -0.023621233
-0.05320221 0.11166836 -0.13687123 0.07386914 -0.14487334 -0.03014858 0.026990786 0.11754074
0.03207719 0.043621473 0.0025844164 -0.1824417 -0.30312955 0.40490535 0.19093019 0.01576673
0.017862722 0.03361301 0.069512844 -0.24997847 0.17981306 -0.041576136 0.16535006 0.11503673
0.13783202 -0.06094497 0.031413455 -0.056592453 -0.13287835 0.06135467 0.32067126 0.19992343
-0.109240316 0.26489034 -0.27460927 0.027944686 -0.047115512 0.06761128 0.10401374 0.073606014
0.21135107 -0.08344358 0.10715964 -0.23021382 0.2000635 -0.07857708 0.06928651 0.1196149
-0.0198892 -0.15334766 0.23355226 0.28058222 -0.0023972604 0.41610804 0.03327114 0.082292855
-0.1344204 0.034691066 0.058502138 -0.23253292 0.20813805 -0.0496373 -0.13110042 -0.11386024
-0.119316325 0.23477212 0.09551366 0.18617249 0.10098397 0.11731268 0.23368494 0.15854314
0.30793428 0.101615824 -0.13373591 -0.33523127 -0.15669107 0.05798424 -0.0833323 0.21061686
-0.10673579 -0.04934456 0.20558456 0.011237675 -0.2945374 0.21737838 0.059069265 0.18970618
0.29422355 0.098321974 0.19412442 0.16434032 0.06711269 -0.15396304 -0.07845551 -0.085800484
-0.19610246 0.11674046 -0.10184024 0.011441608 0.048675235 0.14449583 0.0026300764 0.03632946
0.031402726 -0.0123864515 0.13283017 0.18904735 -0.10654393 -0.0744126 -0.056936897 -0.09242288
-0.17919402 -0.22271673 -0.063705266 -0.09862303 -0.17575721 0.027081046 0.4627433 -0.049966857
0.26129705 0.0041106585 0.17737283 -0.040669758 -0.14839904 0.1128597 -0.060237475 -0.058672287
-0.14436886 0.19136313 0.10853081 -0.12340874 -0.2723403 -0.24661759 -0.06353979 -0.2749072
-0.069153845 0.07853045 0.45560977 0.05722616 -0.116261624 -0.02530486 0.23421028 -0.12409397
-0.1511218 0.054565243 -0.0011952621 0.06912936 -0.163134 -0.14398533 -0.12921408 0.16676934
0.22118405 -0.0032478697 -0.011103646 0.18707389 0.04606105 -0.19055891 -0.104232326 -0.124897294
00000000: 7ad0 013e 50cb d13d 31e0 d4bc abd3 13be
00000010: e095 82bd 7d70 e03d 3a95 313e 9dea 4d3d
00000020: f617 31be 3add 86be 529a 003e fcc2 4ebe
00000030: 102f dc3d 124d c4bd e015 3abd c1eb bfbb
00000040: 9e74 aa3d 8eb7 8bbc bb3d 363e 455e aebe
00000050: b5a8 19bc e4d4 1e3e 1bac 69bd f298 8d3c
00000060: 3eb7 f4bd c22a 80bd febf 183e 0216 813e
00000070: 5101 c6bd dcbb f9bd f47e 18be 996b 913d
00000080: d0be 933d 598f 65be 924f 653e a33e efbd
00000090: 18a0 623d 2d7f 85be 534c db3c 061c 9a3e
000000a0: cae2 86bd 2060 cf3e ee25 f8bd 5947 bbbc
000000b0: 4958 4b3c 3583 e53d 5ab4 0d3e 18ef b13e
000000c0: 596f 383e d3a9 a4be 06c5 d63c 676e 5c3d
000000d0: 06bc 3dbd bb25 62be 5d8b 3a3e 0e1c ab3e
000000e0: 870d 0e3d 66a9 94be 054d 86bc 65d5 95bd
000000f0: 2b8a 4c3e d34f db3d 27be 58be f352 53be
00000100: 3f21 03be 3f7c 3d3d 52a2 a23e 2ad3 d93e
00000110: c396 8d3e 516c 91be e718 35bd 8f1c 55be
00000120: f051 13be 665c e2bc ab34 3cba 8dda bf3d
00000130: 214a 623e e47b ec3d 6acb 653e cbce 6e3d
00000140: 79b8 73be d385 e8bd 0bc4 a23d 1440 5f3e
00000150: 1ffe ce3d a5d9 843d 9efc 0c3d 127b 22be
00000160: c0e8 72be 03c6 833e 64d3 e1bd 913e 7dbd
00000170: 89f3 b5bd 11a2 91bd 2b39 993e 5181 c1bc
00000180: 90ea 59bd 62b2 e43d f927 0cbe b448 973d
00000190: ad59 14be 28fa f6bc c81b dd3c 33b9 f03d
000001a0: 5f63 033d 6eac 323d 505f 293b ffd1 3abe
000001b0: cc33 9bbe c14f cf3e 3483 433e 3b29 813c
000001c0: d854 923c ccad 093d c05c 8e3d 5bfa 7fbe
000001d0: ea20 383e bd4b 2abd 8751 293e 6198 eb3d
000001e0: d623 0d3e 6fa1 79bd 65ab 003d 7dcd 67bd
000001f0: 4311 08be 094f 7b3d 062f a43e bab8 4c3e
00000200: 63b9 dfbd b59f 873e 9699 8cbe 41ec e43c
00000210: 32fc 40bd c877 8a3d 2805 d53d c0be 963d
00000220: 6a6c 583e 78e4 aabd 8376 db3d 2cbd 6bbe
00000230: 72dd 4c3e 05ed a0bd 16e6 8d3d a8f8 f43d
00000240: adee a2bc 2b07 1dbe 5328 6f3e 79a8 8f3e
00000250: 5b1b 1dbb 1d0c d53e 5247 083d 2889 a83d
00000260: 80a5 09be 3818 0e3d f09f 6f3d 1c1d 6ebe
00000270: 2422 553e 7b50 4bbd 303f 06be 8f2f e9bd
00000280: 1e5c f4bd 1a68 703e aa9c c33d 00a4 3e3e
00000290: afd0 ce3d a141 f03d 1b4b 6f3e 2259 223e
000002a0: 90a9 9d3e f51b d03d 11f2 08be 6fa3 abbe
000002b0: a073 20be e280 6d3d 20aa aabd f2ab 573e
000002c0: 4b98 dabd 851d 4abd c284 523e 3a1e 383c
000002d0: 9bcd 96be 7098 5e3e 9df2 713d 5642 423e
000002e0: 78a4 963e 085d c93d 8dc8 463e d448 283e
000002f0: 6172 893d 7da8 1dbe 48ad a0bd 2ab8 afbd
00000300: 15cf 48be 9f15 ef3d 9e91 d0bd 9575 3b3c
00000310: af5f 473d b7f6 133e 5c5d 2c3b 33ce 143d
00000320: 25a0 003d 8bf0 4abc a204 083e a195 413e
00000330: b433 dabd a265 98bd aa36 69bd 3548 bdbd
00000340: a37e 37be db0f 64be e877 82bd dffa c9bd
00000350: b3f9 33be 12d9 dd3c b1ec ec3e 0caa 4cbd
00000360: bac8 853e b4b2 863b 39a1 353e 5595 26bd
00000370: ebf5 17be fd22 e73d 92bb 76bd 5a52 70bd
00000380: 6ed5 13be b2f4 433e 6745 de3d b9bd fcbd
00000390: 3070 8bbe 5289 7cbe 2621 82bd a3c0 8cbe
000003a0: 88a0 8dbd 93d4 a03d af45 e93e fa65 6a3d
000003b0: 931a eebd 234c cfbc d2d4 6f3e fb24 febd
000003c0: acbf 1abe ce7f 5f3d 57aa 9cba b293 8d3d
000003d0: 990c 27be e470 13be b250 04be 95c5 2a3e
000003e0: 127e 623e 36da 54bb 11ec 35bc 4c90 3f3e
000003f0: 83aa 3c3d e021 43be c277 d5bd 27ca ffbd

pi.net.0.bias f4 [50]
-0.041199774 -0.03357979 0.289554 0.2156709 0.21928388 -0.3512458 0.09994032 -0.23055957
0.21655603 0.2890598 -0.2069202 0.13807166 0.3057952 0.086316586 0.17449537 0.1967524
0.18632309 -0.026405698 0.11546729 0.034388382 0.25380966 -0.021281317 0.319022 0.0388784
0.41541487 -0.023892922 0.057248 0.25522104 0.04503056 0.058663223 0.0887251 0.22719337
0.08012 -0.12677982 -0.24160022 -0.057698887 -0.009978132 -0.017016655 0.091857344 0.0077840784
0.12061422 0.25704303 0.056649122 -0.081250876 0.02784727 0.151283 0.023576835 0.003989442
0.13102695 0.22538842
00000000: 18c1 28bd f68a 09bd 6c40 943e d5d8 5c3e
00000010: f48b 603e 7dd6 b3be 83ad cc3d cf17 6cbe
00000020: ddc0 5d3e a5ff 933e e4e2 53be a862 0d3e
00000030: 3091 9c3e c0c6 b03d eaae 323e 7679 493e
00000040: 7bcb 3e3e c350 d8bc 1d7a ec3d d5da 0c3d
00000050: 57f3 813e 2856 aebc da56 a33e f53e 1f3d
00000060: 42b1 d43e 17bb c3bc e17c 6a3d 55ac 823e
00000070: f771 383d d948 703d 81b5 b53d 61a5 683e
00000080: f415 a43d 92d2 01be 0c66 77be ab55 6cbd
00000090: 527b 23bc 8366 8bbc b41f bc3d 9511 ff3b
000000a0: 9704 f73d 259b 833e e908 683d dc66 a6bd
000000b0: f51f e43c eee9 1a3e 3524 c13c ddb9 823b
000000c0: ee2b 063e 39cc 663e

pi.net.2.weight f4 [50, 50]
0.06838496 -0.02765325 -0.099092536 0.20952451 -0.016393362 -0.15730192 -0.017682502 -0.010307599
-0.079607554 -0.060600117 0.18711396 -0.20565969 0.32024857 0.04449017 0.1312456 0.13653612
-0.05951953 0.0029530963 0.0066796863 0.10246655 0.13252439 -0.038775902 0.12832755 0.106649674
0.16635346 -0.16761836 0.31846026 -0.29503855 0.09439348 -0.049294047 -0.07463955 -0.0008490312
0.065250546 0.2039965 -0.13671333 0.28841528 -0.0815908 -0.16466203 0.030678889 -0.20618293
0.0087584965 0.064033024 -0.010889949 -0.24953191 0.019229574 -0.2560392 0.14230797 0.064861834
0.055068236 -0.12275042 -0.21529125 0.2733203 0.0346876 -0.008363514 0.1235605 -0.10528173
-0.00028517583 0.09029602 0.16075411 -0.047780585 -0.047575813 -0.0944799 0.059500437 -0.25200513
0.17623237 -0.063216634 0.06443189 0.23072897 0.09109436 -0.17013384 -0.16194151 -0.4211267
-0.047041383 0.12319197 -0.07385829 0.2677338 -0.15529124 0.018021015 -0.26829946 -0.052948978
0.10654265 -0.23580846 0.11107373 0.011373371 -0.15269054 -0.10585011 0.08406756 0.057612214
0.18375802 0.041501503 -0.1067039 0.22976491 -0.19825757 0.062184256 -0.22069363 0.095771104
0.2188057 0.12335324 0.22879106 -0.23040201 -0.13390167 -0.06465671 -0.22425275 0.20989592
-0.0042828857 0.17041047 -0.070535265 -0.24612172 0.055779137 0.07241266 -0.1696305 0.07805948
-0.0054290723 -0.053758867 0.10071836 -0.060725767 -0.15790074 0.013072719 -0.21183783 0.027717184
0.1515847 0.20916973 0.21993971 -0.14037469 -0.062874466 0.15629321 -0.3045576 -0.094715685
-0.11662438 0.104887545 0.17088333 0.049351916 0.19451816 0.13686325 0.18533699 0.010597483
0.10241142 0.11911916 0.12129259 -0.114596725 0.13727064 0.022853294 -0.105956286 0.17542996
0.027200202 0.1877672 -0.098468 -0.04818177 0.008563589 0.0793652 0.116742045 -0.15069118
0.15087612 -0.08214035 -0.036892503 -0.10710003 0.06419179 0.12145837 0.114465676 -0.023810938
-0.021219648 -0.038755447 -0.015731862 0.04197626 -0.004256522 0.1274557 -0.11625065 -0.01821451
0.2794605 -0.4109223 0.030544437 -0.21674998 0.14505531 -0.0475581 0.14178745 -0.22529349
-0.09283754 -0.20766033 0.20893504 0.054494213 -0.08271824 -0.26984906 -0.17580763 -0.034615606
-0.11324957 -0.014362016 -0.13345042 -0.015016715 0.12045441 -0.07392277 0.06417581 0.1016235
0.067539394 0.15160492 0.12657703 -0.09419526 0.21640767 0.10444929 0.1093935 0.09839375
-0.07022908 -0.117526114 0.03168161 -0.036945246 0.09230743 -0.17465827 -0.11195884 -0.07056829
-0.38796502 0.17537338 -0.14252256 0.029903738 -0.020079983 0.07480262 -0.039040394 0.02349766
-0.027424889 -0.065051325 -0.0708472 0.11421943 0.11379573 -0.007684948 -0.10515274 -0.13053934
0.03921802 0.08009246 -0.08343561 -0.018505264 -0.18314594 -0.15505226 -0.09644868 0.02436965
0.14578114 -0.23247951 0.1016974 0.08797161 0.17234935 0.030460855 0.06929162 0.038973328
-0.027274368 0.09007257 0.24949294 -0.10188748 0.15962932 -0.019958736 -0.04306593 0.03103149
0.23463172 0.04970567 -0.087405704 -0.2497266 -0.2861017 -0.16793849 0.0584182 0.07761014
00000000: 6a0d 8c3d 1289 e2bc 07f1 cabd 988d 563e
00000010: 5f4b 86bc c113 21be e5da 90bc 34e1 28bc
00000020: 4909 a3bd d437 78bd cd9a 3f3e 7498 52be
00000030: 9ff7 a33e 533b 363d 3f65 063e 20d0 0b3e
00000040: c0ca 73bd bc88 413b 45e1 da3b fcd9 d13d
00000050: 79b4 073e 7bd3 1ebd 4c68 033e 256b da3d
00000060: 9058 2a3e 26a4 2bbe 390d a33e 4b0f 97be
00000070: 5e51 c13d 8ee8 49bd 9fdc 98bd 8591 5eba
00000080: 14a2 853d 75e4 503e 94fe 0bbe 2bab 933e
00000090: 1419 a7bd 2a9d 28be 4b52 fb3c 9e21 53be
000000a0: cc7f 0f3c bf23 833d c26b 32bc 4b85 7fbe
000000b0: 5787 9d3c 9217 83be 2eb9 113e 48d6 843d
000000c0: 3b8f 613d 9264 fbbd 4f75 5cbe a3f0 8b3e
000000d0: 9614 0e3d 1f07 09bc 4a0d fd3d f39d d7bd
000000e0: a783 95b9 1fed b83d ba9c 243e 93b5 43bd
000000f0: dbde 42bd ae7e c1bd bbb6 733d d106 81be
00000100: 4276 343e b977 81bd def4 833d 3744 6c3e
00000110: ae8f ba3d 9137 2ebe ffd3 25be eb9d d7be
00000120: 77ae 40bd 124c fc3d 0443 97bd 6814 893e
00000130: ab04 1fbe cfa0 933c 8c5e 89be 07e1 58bd
00000140: 0833 da3d c677 71be a07a e33d 6057 3a3c
00000150: e95a 1cbe f1c7 d8bd 9d2b ac3d c9fa 6b3d
00000160: 102b 3c3e 7bfd 293d 9387 dabd 7e47 6b3e
00000170: 0804 4bbe ebb4 7e3d 83fd 61be a423 c43d
00000180: 9a0e 603e a0a0 fc3d 3448 6a3e 81ee 6bbe
00000190: 851d 09be bd6a 84bd 83a2 65be f5ee 563e
000001a0: 7357 8cbb 1580 2e3e cb74 90bd 5507 7cbe
000001b0: aa78 643d 174d 943d 9eb3 2dbe a6dd 9f3d
000001c0: 5ce6 b1bb 4232 5cbd 6d45 ce3d 95bb 78bd
000001d0: bbb0 21be f52e 563c 04ec 58be 260f e33c
000001e0: 0539 1b3e 9730 563e e037 613e 62be 0fbe
000001f0: 54c4 80bd 540b 203e f9ee 9bbe 4cfa c1bd
00000200: c3d8 eebd 48cf d63d 0afc 2e3e 3c25 4a3d
00000210: c52f 473e e125 0c3e fbc8 3d3e 11a1 2d3c
00000220: 14bd d13d bff4 f33d 4068 f83d b0b1 eabd
00000230: ad90 0c3e d536 bb3c 9cff d8bd e9a3 333e
00000240: f5d2 de3c 0b46 403e 97a9 c9bd 3f5a 45bd
00000250: 4c4e 0c3c 398a a23d 7416 ef3d ca4e 1abe
00000260: 457f 1a3e 3339 a8bd 981c 17bd 4357 dbbd
00000270: fc76 833d 2abf f83d fb6c ea3d 280f c3bc
00000280: d4d4 adbc 08be 1ebd 1be0 80bc 4cef 2b3d
00000290: 4b7a 8bbb bf83 023e d214 eebd 9936 95bc
000002a0: 7215 8f3e 6864 d2be 5438 fa3c b5f3 5dbe
000002b0: 6189 143e 48cc 42bd bb30 113e 56b3 66be
000002c0: 9c21 bebd e9a4 54be 11f3 553e 5335 5f3d
000002d0: 2e68 a9bd a829 8abe ea06 34be 18c9 0dbd
000002e0: 64ef e7bd a94e 6bbc 3aa7 08be ab08 76bc
000002f0: cdb0 f63d d264 97bd 9b6e 833d fb1f d03d
00000300: 1852 8a3d 523e 1b3e 699d 013e 72e9 c0bd
00000310: f999 5d3e 82e9 d53d b309 e03d aa82 c93d
00000320: 44d4 8fbd 88b1 f0bd 93c4 013d e653 17bd
00000330: ae0b bd3d 9ed9 32be ad4a e5bd 1c86 90bd
00000340: 5aa3 c6be 1495 333e 6ff1 11be aff8 f43c
00000350: c77e a4bc 1e32 993d d2e8 1fbd 2a7e c03c
00000360: 29aa e0bc a139 85bd 5618 91bd e0eb e93d
00000370: bc0d e93d 04d2 fbbb 525a d7bd 1bac 05be
00000380: 13a3 203d 8407 a43d 4ae0 aabd 5a98 97bc
00000390: 9c8a 3bbe 05c6 1ebe e386 c5bd dca2 c73c
000003a0: a747 153e 1c0f 6ebe ba46 d03d 762a b43d
000003b0: 597c 303e 0b89 f93c c4e8 8d3d 7fa2 1f3d
000003c0: 7f6e dfbc f877 b83d 147b 7f3e 62aa d0bd
000003d0: de75 233e 8180 a3bc e765 30bd c035 fe3c
000003e0: 4c43 703e 2c98 4b3d c301 b3bd 54b8 7fbe
000003f0: ec7b 92be 11f8 2bbe ec47 6f3d 11f2 9e3d

pi.net.2.bias f4 [50]
-0.081659086 0.10548177 0.034730185 0.07725918 0.27694255 -0.005315915 0.02040492 -0.11220705
-0.15887786 -0.1894891 0.12098449 0.0014586108 0.15494749 0.20255278 -0.092552625 0.097748525
0.17172018 0.058244 0.059590217 -0.18295456 -0.18631269 -0.055468015 0.09131228 0.19861627
0.21315905 0.00935723 0.23932545 0.17092173 0.031599417 0.15310712 -0.027601855 -0.03697926
0.12898278 0.02136893 0.1673683 -0.18259498 -0.012796 0.050787628 0.26415065 -0.11456787
0.10131022 0.024855897 -0.09117636 -0.14244844 0.3792119 0.053821817 0.09704902 0.07794915
-0.05362618 0.05582739
00000000: e13c a7bd d406 d83d 3d41 0e3d 103a 9e3d
00000010: 6acb 8d3e 2131 aebb 3828 a73c cfcc e5bd
00000020: e1b0 22be 6e09 42be b7c6 f73d db2e bf3a
00000030: 8eaa 1e3e ff69 4f3e 3b8c bdbd 6130 c83d
00000040: 6ad7 2f3e 4391 6e3d df14 743d 7158 3bbe
00000050: c1c8 3ebe 6e32 63bd ef01 bb3d 1062 4b3e
00000060: 5e46 5a3e 114f 193c bb11 753e 1b06 2f3e
00000070: 646e 013d 1dc8 1c3e 491d e2bc 9177 17bd
00000080: 1014 043e e50d af3c 9862 2b3e 2efa 3abe
00000090: 50a6 51bc b006 503d c13e 873e 8fa2 eabd
000000a0: bc7b cf3d 989e cb3c acba babd 01de 11be
000000b0: 1028 c23e 4474 5c3d a3c1 c63d cea3 9f3d
000000c0: 20a7 5bbd 43ab 643d

pi.net.4.weight f4 [4, 50]
-0.398035 -0.18934374 0.14875321 0.15483654 0.456091 0.3250829 0.2395781 -0.25712818
0.48240438 0.33971488 -0.5461525 -0.031918567 0.24098365 0.1067215 0.050287075 -0.117745675
-0.16789012 -0.2888961 0.3385637 0.34525847 -0.18108019 0.15268002 -0.23962708 0.36366162
-0.4075069 0.2651855 -0.17925268 0.23425072 0.43927136 0.34998 -0.29959193 -0.2901413
-0.25857496 -0.19575736 0.07537797 0.20468132 0.12374872 -0.2596538 0.43646464 -0.3518495
-0.24059594 0.13759963 0.7622602 0.17033355 0.22273089 0.07418291 0.30570963 0.17932616
0.025193144 -0.12308173 0.058286905 0.29582074 0.18983121 -0.02396943 -0.11453924 0.17317812
0.328851 -0.2837853 -0.43739012 -0.328717 0.11126691 -0.14722052 -0.27659822 0.23152326
-0.343626 -0.6849996 0.17484258 -0.08180985 0.28740758 0.027008995 -0.6044069 -0.052006815
-0.13500834 0.067343526 0.06147697 -0.15413836 0.3628147 -0.093332365 0.03677149 0.0959593
-0.011224951 0.06555497 -0.32993832 -0.3385699 -0.24129958 0.25963536 0.30582342 -0.39973336
-0.011384392 0.14495389 0.08822959 0.31111827 -0.08936047 0.099192604 -0.5926216 -0.51053345
0.18430713 0.19909547 0.1561742 -0.17176084 -0.13841283 -0.058718838 -0.34976694 0.21901847
0.105047464 -0.036265995 0.17671145 0.5938123 -0.24068867 0.36453 -0.3820248 -0.30223152
-0.37389234 0.43180415 0.3751448 -0.22378735 -0.25044042 -0.22702828 -0.3061357 0.38486844
-0.7354671 -0.02835125 0.093474686 -0.1716259 0.33303133 0.43155426 0.21265548 -0.37264398
0.17718299 -0.28003675 -0.1512422 0.2556595 0.24050364 0.19945438 0.07809871 0.46651316
0.0677465 0.27662933 0.23596762 -0.37603858 0.19992214 -0.04844576 -0.21846507 -0.5376985
0.42572752 -0.16745469 -0.36315864 0.11333372 0.13234547 -0.083990574 -0.33975306 0.31242573
-0.049498107 -0.50064164 0.18953495 0.20657241 0.41533828 0.17322399 -0.41613013 0.0013292894
0.2415346 -0.31108984 -0.02146667 0.13527909 0.25581124 0.15745759 -0.099922545 -0.09437929
-0.18980385 0.53745466 0.10485743 -0.53990793 -0.18711212 -0.23098563 0.25888792 0.31092358
0.06255537 0.5597037 0.11438386 -0.1624464 0.10103423 -0.20045954 -0.23934421 -0.1642299
0.48328662 -0.36968666 -0.22028574 0.28041884 0.21003652 0.46638048 -0.13072477 0.20278451
0.60051495 0.2602362 0.1476427 0.28568122 -0.16089003 -0.18332261 -0.06753927 0.4534493
00000000: 3ecb cbbe 53e3 41be c352 183e 788d 1e3e
00000010: c284 e93e 4471 a63e f653 753e 4ea6 83be
00000020: b5fd f63e 1cef ad3e a6d0 0bbf 0bbd 02bd
00000030: 6bc4 763e cd90 da3d d2f9 4d3d a524 f1bd
00000040: 63eb 2bbe 31ea 93be 3958 ad3e b8c5 b03e
00000050: 166d 39be 2758 1c3e cd60 75be db31 ba3e
00000060: bfa4 d0be 65c6 873e 048e 37be 6cdf 6f3e
00000070: 2de8 e03e 9430 b33e 1d64 99be 678d 94be
00000080: f063 84be 9e74 48be c45f 9a3d fb97 513e
00000090: f86f fd3d 58f1 84be 4b78 df3e 9e25 b4be
000000a0: c85e 76be ebe6 0c3e 7c23 433f eb6b 2e3e
000000b0: 9113 643e 36ed 973d f985 9c3e 47a1 373e
000000c0: da61 ce3c 4612 fcbd 40be 6e3d d175 973e
000000d0: 1d63 423e 8a5b c4bc 8d93 eabd 9b55 313e
000000e0: 295f a83e 4f4c 91be 99f1 dfbe 984d a8be
000000f0: e8df e33d fac0 16be 489e 8dbe 6f14 6d3e
00000100: bfef afbe 225c 2fbf ef09 333e ec8b a7bd
00000110: 1627 933e f841 dd3c 69ba 1abf 1905 55bd
00000120: a03f 0abe 67eb 893d 46cf 7b3d 72d6 1dbe
00000130: d9c2 b93e 0a25 bfbd b49d 163d 4f86 c43d
00000140: dbe8 37bc af41 863d aded a8be 0959 adbe
00000150: 3d17 77be edee 843e e394 9c3e daa9 ccbe
00000160: 9a85 3abc cb6e 143e b7b1 b43d e54a 9f3e
00000170: 9f02 b7bd 7e25 cb3d 0db6 17bf 52b2 02bf
00000180: 02bb 3c3e afdf 4b3e 21ec 1f3e 13e2 2fbe
00000190: 18bc 0dbe 2a83 70bd a714 b3be 6146 603e
000001a0: 2023 d73d a78b 14bd d9f3 343e 1504 183f
000001b0: 1777 76be ada3 ba3e c198 c3be 17be 9abe
000001c0: d16e bfbe 6f15 dd3e fb12 c03e 8328 65be
000001d0: ba39 80be 1a7a 68be d2bd 9cbe 7a0d c53e
000001e0: 9247 3cbf e140 e8bc a86f bf3d b3be 2fbe
000001f0: 1583 aa3e aef4 dc3e 5cc2 593e 31cb bebe
00000200: 756f 353e fa60 8fbe 3cdf 1abe cde5 823e
00000210: 9646 763e c53d 4c3e 37f2 9f3d d0da ee3e
00000220: adbe 8a3d 5ca2 8d3e 7fa1 713e 2188 c0be
00000230: 64b8 4c3e 106f 46bd 4fb5 5fbe 9ca6 09bf
00000240: f5f8 d93e 3e79 2bbe eeef b9be 821b e83d
00000250: 9285 073e 4003 acbd 1df4 adbe 44f6 9f3e
00000260: 87be 4abd 0d2a 00bf 7315 423e b887 533e
00000270: 38a7 d43e a161 313e 020f d5be 8d3b ae3a
00000280: d954 773e 2b47 9fbe dfda afbc 9a86 0a3e
00000290: b1f9 823e 903c 213e 31a4 ccbd ee49 c1bd
000002a0: f15b 42be a196 093f 7ebf d63d 6837 0abf
000002b0: 529a 3fbe 7f87 6cbe f58c 843e 6031 9f3e
000002c0: 081d 803d be48 0f3f 1642 ea3d 5958 26be
000002d0: 09eb ce3d 4445 4dbe a616 75be e22b 28be
000002e0: 5871 f73e 9247 bdbe 9692 61be 0f93 8f3e
000002f0: d013 573e 6cc9 ee3e b7dc 05be bea6 4f3e
00000300: 59bb 193f ae3d 853e a62f 173e cf44 923e
00000310: 5bc0 24be ecb8 3bbe 0752 8abd 822a e83e

pi.net.4.bias f4 [4]
-0.09754158 -0.080960885 -0.0042633917 0.13152164
00000000: e1c3 c7bd d2ce a5bd ecb3 8bbb 9cad 063e

v.net.0.weight f4 [64, 40]
-0.15818815 0.047315646 -0.060459305 0.09743464 0.019590843 -0.043106034 -0.10796029 -0.15009768
-0.38951808 0.0067231427 -0.03578077 0.029023718 -0.04240681 0.006514166 0.26861012 -0.0771216
0.04228946 -0.025875973 0.027667953 -0.006069461 -0.17353167 -0.034145255 -0.14483698 0.12004677
-0.010445424 -0.023088329 0.14686505 -0.063143454 -0.4036251 0.17962766 0.05223011 -0.029912213
-0.037777327 -0.02806221 0.29829952 -0.114442915 0.08353078 -0.015842516 0.01618317 -0.0040988442
-0.49727404 -0.8856956 -0.10732614 -0.12241002 -0.095334455 0.029506804 0.053760648 -0.018870521
0.3388673 -0.16369157 0.04195708 -0.029595766 0.039350398 0.005818343 -0.45275813 -0.06941239
0.031147756 -0.037709523 -0.05229482 0.031178856 -0.44643974 -0.8115424 0.1324042 -0.17222519
-0.0918379 -0.08435089 0.004874616 -0.2686502 0.31559157 0.1319819 -0.025324602 -0.07896397
0.042317044 0.14684159 -0.3367397 0.1518955 0.02797615 -0.046559613 -0.059621684 -0.0040900875
-0.48207396 -0.804148 0.28790787 0.0082887905 0.12328999 -0.10806042 0.06094819 0.51821125
-0.107403286 0.21324585 0.06783397 -0.095892884 0.039384745 -0.5138446 0.24405934 -0.0029305737
-0.047216486 0.017597618 -0.014081389 -0.050056025 -0.5041711 -0.68174314 0.15646756 -0.13171326
0.18051225 0.028113874 -0.09966628 0.57745296 0.058259353 -0.041446887 -0.058008183 0.098022774
0.043233838 -0.55095536 0.051119935 -0.022159016 -0.05299638 0.046235893 -0.014381647 -0.06455729
-0.7902563 0.1270253 -0.033989258 -0.1580085 -0.14006418 0.11635491 0.022726528 0.1298424
0.34030327 0.08658002 -0.037215386 0.042509947 0.0059524863 -0.16919306 -0.19363168 -0.23177081
-0.041596267 0.055926487 -0.0037292228 0.03350419 -0.6292623 0.28127524 0.08476389 -0.08554876
-0.32369334 0.12918933 0.051954616 0.18225338 0.31776202 -0.13965496 -0.061718 0.067321494
0.024632378 -0.078236304 -0.15514773 -0.023707513 -0.026832044 0.033883594 0.003924735 0.026213074
0.4036345 1.228231 -0.19673084 -0.07433496 -0.06184018 0.0808514 -0.0067036217 0.14969309
0.41310915 0.06873271 0.0814105 0.020302368 -0.041294955 -0.14933008 0.025535678 0.17403525
-0.084696546 0.08342112 0.040578138 -0.027244905 0.46427524 1.0396677 -0.21504772 0.02101846
0.022909818 0.0153678525 0.0005177259 0.15419877 0.10094279 -0.020820092 0.005056034 -0.06874109
-0.059428107 -0.06333551 -0.012815584 0.09355364 -0.07422813 0.07982707 0.04504192 -0.04615245
-0.042413298 -0.005997205 0.13447261 0.14602157 0.30302665 -0.07311595 -0.33816347 -0.23655207
0.21024886 -0.105083175 0.017510423 0.007946753 0.009037432 -0.1131401 0.22709587 0.04561456
-0.07060529 0.03647417 0.016517112 -0.016036145 0.012739284 0.1314406 0.12636805 0.19638944
0.30279902 0.100063734 -0.10343465 -0.2156537 0.22263972 -0.03487148 -0.046569042 -0.07584667
0.021741694 -0.17194152 0.14555293 -0.060960967 -0.07844936 0.080462955 0.0353249 0.012019602
-0.015327457 1.0320868 -0.09825053 0.25097173 -0.016447097 0.074038856 -0.061858423 0.14251894
-0.42606574 -0.31571516 -0.046971537 0.02396327 -0.06309272 -0.30564526 0.51294196 0.4593535
00000000: 13fc 21be 0dce 413d 2da4 77bd d08b c73d
00000010: fa7c a03c f48f 30bd 491a ddbd 35b3 19be
00000020: ea6e c7be cf4d dc3b db8e 12bd 26c3 ed3c
00000030: c3b2 2dbd c974 d53b 4487 893e eef1 9dbd
00000040: b637 2d3d d9f9 d3bc e7a7 e23c 54e2 c6bb
00000050: 49b2 31be e5db 0bbd 2550 14be 15db f53d
00000060: 4923 2bbc bc23 bdbc cb63 163e 5b51 81bd
00000070: f3a7 cebe 50f0 373e 3def 553d 750a f5bc
00000080: 66bc 1abd b8e2 e5bc b7ba 983e 0c61 eabd
00000090: 3012 ab3d 2ac8 81bc 9192 843c 994f 86bb
000000a0: b49a febe f2bc 62bf cfcd dbbd 1bb2 fabd
000000b0: b63e c3bd 41b8 f13c 2034 5c3d 5a96 9abc
000000c0: 0480 ad3e c39e 27be 30db 2b3d d272 f2bc
000000d0: e22d 213d cca7 be3b eacf e7be 1528 8ebd
000000e0: 9429 ff3c 4d75 1abd 1833 56bd cd6a ff3c
000000f0: c093 e4be 3ec1 4fbf f794 073e cd5b 30be
00000100: 8215 bcbd 29c0 acbd 3ebb 9f3b 858c 89be
00000110: 3895 a13e 4326 073e 8a75 cfbc ddb7 a1bd
00000120: a354 2d3d a45d 163e 2569 acbe 7e8a 1b3e
00000130: 3d2e e53c 4bb5 3ebd de35 74bd 2406 86bb
00000140: 66d2 f6be a5dc 4dbf a968 933e b5cd 073c
00000150: 767f fc3d c84e ddbd cfa4 793d 7ea9 043f
00000160: 41f6 dbbd 1f5d 5a3e 89ec 8a3d 7d63 c4bd
00000170: e651 213d 528b 03bf b1ea 793e de0e 40bb
00000180: 1366 41bd e128 903c a0b5 66bc 8c07 4dbd
00000190: 5b11 01bf b886 2ebf 0839 203e d7df 06be
000001a0: 34d8 383e 114f e63c d61d ccbd f5d3 133f
000001b0: 5ca1 6e3d 36c4 29bd fd99 6dbd 2ac0 c83d
000001c0: f715 313d 690b 0dbf 2363 513d d386 b5bc
000001d0: bb12 59bd d961 3d3d 00a1 6bbc 9d36 84bd
000001e0: 3d4e 4abf ec12 023e 5238 0bbd fbcc 21be
000001f0: fc6c 0fbe 7c4b ee3d fc2c ba3c 68f5 043e
00000200: 3b3c ae3e de50 b13d 296f 18bd e91e 2e3d
00000210: 130d c33b f240 2dbe 6247 46be 5455 6dbe
00000220: d960 2abd 2c13 653d fa65 74bb b13b 093d
00000230: 5617 21bf 4f03 903e b198 ad3d 3034 afbd
00000240: 22bb a5be 354a 043e 5dce 543d a1a0 3a3e
00000250: b4b1 a23e b601 0fbe 03cc 7cbd dadf 893d
00000260: d7c9 c93c 5b3a a0bd 0cdf 1ebe 4236 c2bc
00000270: e0ce dbbc 86c9 0a3d 109b 803b cdbc d63c
00000280: 2ea9 ce3e ac36 9d3f cf73 49be ed3c 98bd
00000290: 214c 7dbd 6b95 a53d 0eaa dbbb 2549 193e
000002a0: 0b83 d33e bcc3 8c3d 8cba a63d 2751 a63c
000002b0: e624 29bd fce9 18be 3330 d13c 4c36 323e
000002c0: 6275 adbd b1d8 aa3d 4335 263d b530 dfbc
000002d0: 7cb5 ed3e d513 853f 7835 5cbe e82e ac3c
000002e0: 5fad bb3c 72c9 7b3c ffb7 073a 48e6 1d3e
000002f0: 18bb ce3d e68e aabc 16ad a53b 21c8 8cbd
00000300: e36a 73bd 0cb6 81bd 75f8 51bc 0d99 bf3d
00000310: eb04 98bd 607c a33d e07d 383d 5a0a 3dbd
00000320: 91b9 2dbd 3484 c4bb 30b3 093e ae86 153e
00000330: 4f26 9b3e d1bd 95bd c323 adbe b53a 72be
00000340: 7a4b 573e d935 d7bd 0572 8f3c 1933 023c
00000350: bd11 143c ffb5 e7bd d28b 683e 55d6 3a3d
00000360: 8299 90bd f065 153d e54e 873c 3c5e 83bc
00000370: 6eb8 503c 5d98 063e a066 013e 501a 493e
00000380: 7908 9b3e 37ee cc3d 8cd5 d3bd 53d4 5cbe
00000390: abfb 633e 66d5 0ebd 2ebf 3ebd 8055 9bbd
000003a0: a31b b23c 7011 30be d40b 153e 35b2 79bd
000003b0: 0faa a0bd c3c9 a43d d8b0 103d dded 443c
000003c0: 0420 7bbc 6c1b 843f 9337 c9bd 5e7f 803e
000003d0: 10bc 86bc afa1 973d 425f 7dbd 7cf0 113e
000003e0: 4a25 dabe 6ba5 a1be 3a65 40bd 9f4e c43c
000003f0: c236 81bd 897d 9cbe 2a50 033f 6230 eb3e

v.net.0.bias f4 [64]
1.7346069 1.1803831 0.4046062 -0.9659532 0.26170775 0.3709226 0.31264904 0.87926716
-0.083628014 -0.2515277 -1.0795301 0.9166554 -0.11321904 -0.43693697 0.6765232 -0.33077267
0.013219439 -0.8669703 -0.012475074 -0.10607558 1.2282871 1.3899883 0.83337665 -0.64312774
0.9336431 0.3569488 0.26184574 1.606272 -0.099363156 -0.08656342 0.6744615 0.15734322
-0.12567647 -0.9107144 0.24901183 -0.1690719 0.2902367 -1.2373323 -0.21985483 0.21223061
-0.21282032 -0.33018532 0.16884853 -0.012618556 -0.11720606 0.15024804 0.11352833 -0.57466465
0.22350933 1.389799 0.19648491 -0.7108055 0.8327649 -0.93015575 -1.3893248 1.0443087
0.19341704 0.03504541 -0.06426837 0.7639268 0.70266384 -0.49310428 -0.012405514 0.18654135
00000000: 9907 de3f cb16 973f 8b28 cf3e b548 77bf
00000010: 8ffe 853e 91e9 bd3e 8913 a03e a717 613f
00000020: 2a45 abbd 3dc8 80be 0b2e 8abf eea9 6a3f
00000030: 62df e7bd 34b6 dfbe a030 2d3f 095b a9be
00000040: 5996 583c c4f1 5dbf 4164 4cbc 273e d9bd
00000050: 8338 9d3f 23eb b13f 2c58 553f 05a4 24bf
00000060: 3c03 6f3f fec1 b63e a510 863e 529a cd3f
00000070: e97e cbbd 2a48 b1bd 82a9 2c3f 951e 213e
00000080: 55b1 00be 9424 69bf f5fc 7e3e 2f21 2dbe
00000090: e899 943e e860 9ebf a021 61be fb52 593e
000000a0: 92ed 59be 0d0e a9be a1e6 2c3e 0fbe 4ebc
000000b0: bb09 f0bd 9fda 193e 8b81 e83d 391d 13bf
000000c0: a1df 643e efe4 b13f 5733 493e 59f7 35bf
000000d0: 1530 553f b01e 6ebf 65d5 b1bf e8ab 853f
000000e0: 1e0f 463e c78b 0f3d 239f 83bd b590 433f
000000f0: c7e1 333f 2a78 fcbe 7f40 4bbc b204 3f3e

v.net.2.weight f4 [64, 64]
0.41920832 0.026868153 0.13621935 -0.07698712 0.17728034 0.011058365 0.046078645 0.059286788
-0.036821496 -0.19701129 0.038769774 -0.02915575 0.021812774 0.031251676 0.09539836 -0.5305434
-0.21428625 -0.03867887 -0.31871396 -0.11169796 0.21061872 0.057840057 -0.09950344 0.11356427
-0.23058714 0.16217981 -0.42553517 -0.11144695 -0.41971818 -0.61010194 0.09212864 -0.49141294
-0.28493977 0.077108316 -0.27477285 0.10057128 0.5364995 -0.35006982 -0.29280236 0.0575854
0.5686235 0.106351316 0.07903059 -0.14489824 0.017217834 -0.22199601 -0.49189225 -0.22776842
0.18120284 0.16544506 0.12140727 -0.036583822 -0.0020557498 -0.012069128 0.04751707 -0.11917002
-0.30299777 0.6396277 -0.038559932 0.22213273 -0.18247485 0.09418252 -0.5164658 -0.46880776
0.12621327 0.20544384 0.12976399 -0.21139845 0.1079949 0.11657977 0.15550256 0.14169307
-0.08417241 -0.010282911 0.1740611 0.22821245 -0.22939402 0.18046063 0.08295206 -0.24056254
-0.19241746 -0.09136329 0.12242055 -0.031097598 0.19582674 -0.22542435 -0.13215935 -0.09603857
-0.20288284 0.20656033 -0.40817705 -0.091920055 0.07902851 -0.28999323 0.24068162 -0.33367795
-0.30177152 -0.17000413 -0.39107078 0.31552285 0.5291813 -0.06465332 0.12311532 0.033088
0.37020224 -0.33950937 -0.14785476 -0.31330112 -0.24872419 0.0845201 -0.027082456 -0.09356359
0.14966443 0.07194098 0.031757288 0.0047383276 0.21147528 -0.14129877 0.0937689 -0.11042225
-0.14583689 0.31891927 -0.3078653 0.26050514 0.11038885 0.043326527 -0.33690155 -0.39069963
0.29887345 0.2699899 -0.22534488 0.15215702 0.0025883664 0.00506775 -0.16601539 -0.11202311
0.32571465 -0.08597877 -0.0037796656 -0.07798238 -0.08340628 0.109469876 0.09410798 0.33642885
0.2865408 -0.056837555 -0.15537359 0.037741184 0.060384043 0.06236792 0.0091750845 0.058881532
0.0442786 -0.11558082 0.39260677 0.22593853 0.19006866 -0.29701334 0.00023111115 0.13664499
0.4189119 -0.04038839 0.22567946 -0.5618268 -0.599625 0.10280097 0.44278586 0.08376373
0.25066045 0.21453382 -0.27256465 -0.06038907 0.021905698 -0.06907808 -0.044915985 0.16750957
-0.28533375 0.21512277 -0.079056375 -0.20092222 0.24092221 -0.1369899 -0.2136728 0.011298948
0.17750248 -0.046520177 -0.08722738 0.05196107 0.105066806 0.08618541 0.41680926 0.2630525
-0.08102933 0.01603034 0.42019346 -0.037987247 0.24132948 0.16490583 0.030975427 -0.05187064
-0.17680298 -0.061620805 0.025321921 -0.17614527 -0.105793536 0.11959109 -0.014726084 -0.18888003
0.030390678 0.047215443 -0.23963642 -0.124855235 0.14649382 0.1932279 -0.04465969 0.06344202
0.04217554 -0.054228693 -0.15128145 0.109207675 -0.16394408 -0.53783673 -0.058157083 -0.15830338
-0.28171763 0.057892814 -0.53143775 0.2996661 0.5816329 0.036205545 0.19580184 0.020374548
0.42744514 -0.0070929937 -0.41998282 -0.07050324 0.05745407 -0.148181 -0.35434255 -0.1629354
0.24722111 0.027267434 0.03388499 -0.25604057 0.13012089 -0.089571476 -0.085470594 -0.11918934
-0.14258234 0.29133606 0.08531864 0.02451244 -0.12034542 0.12921 -0.10761656 -0.14948203
00000000: 79a2 d63e 9a1a dc3c 167d 0b3e 6cab 9dbd
00000010: fa88 353e 252e 353c f6bc 3c3d b4d6 723d
00000020: 23d2 16bd 54bd 49be 0ecd 1e3d 0ad8 eebc
00000030: b4b0 b23c c201 003d 3760 c33d b1d1 07bf
00000040: db6d 5bbe bc6d 1ebd 7a2e a3be e6c1 e4bd
00000050: 6fac 573e b2e9 6c3d 76c8 cbbd 6294 e83d
00000060: 091f 6cbe 7712 263e bfdf d9be 4c3e e4bd
00000070: 4de5 d6be a42f 1cbf f1ad bc3d 7a9a fbbe
00000080: a0e3 91be f7ea 9d3d 07af 8cbe 51f8 cd3d
00000090: 0858 093f 5a3c b3be 31ea 95be abde 6b3d
000000a0: 4f91 113f b8ce d93d cada a13d 3460 14be
000000b0: 6a0c 8d3c ec52 63be 4dd9 fbbe 203c 69be
000000c0: 3d8d 393e 6e6a 293e 60a4 f83d ebd8 15bd
000000d0: c2b9 06bb 98bd 45bc 42a1 423d 690f f4bd
000000e0: 8622 9bbe a4be 233f 05f1 1dbd c376 633e
000000f0: b0da 3abe c4e2 c03d 1a37 04bf 9207 f0be
00000100: 0d3e 013e df5f 523e dae0 043e d678 58be
00000110: 6e2c dd3d 60c1 ee3d 103c 1f3e fd17 113e
00000120: 9662 acbd a879 28bc 133d 323e 86b0 693e
00000130: 44e6 6abe acca 383e c5e2 a93d 0756 76be
00000140: 1509 45be ad1c bbbd a0b7 fa3d 64c0 febc
00000150: ce86 483e a4d5 66be c854 07be dfaf c4bd
00000160: 85c0 4fbe 8d84 533e 95fc d0be 9540 bcbd
00000170: b3d9 a13d fe79 94be 3e75 763e d6d7 aabe
00000180: cc81 9abe 9015 2ebe 6e3a c8be 368c a13e
00000190: 6d78 073f f668 84bd e323 fc3d 4887 073d
000001a0: 268b bd3e 2cd4 adbe 3d67 17be 0169 a0be
000001b0: 8eb1 7ebe e018 ad3d 07dc ddbc 449e bfbd
000001c0: a241 193e cb55 933d ee13 023d f943 9b3b
000001d0: fa8c 583e a0b0 10be e909 c03d 1025 e2bd
000001e0: 4456 15be 6349 a33e 85a0 9dbe ee60 853e
000001f0: 8d13 e23d 2877 313d 5c7e acbe c809 c8be
00000200: f105 993e 1e3c 8a3e cfc0 66be 0dcf 1b3e
00000210: 95a1 293b 5e0f a63b f0ff 29be 5f6c e5bd
00000220: 12c4 a63e a315 b0bd 44b4 77bb 3ab5 9fbd
00000230: e9d0 aabd be31 e03d afbb c03d 6740 ac3e
00000240: 7ab5 923e 7fce 68bd 411a 1fbe 8096 1a3d
00000250: 4255 773d 8175 7f3d 1853 163c c32d 713d
00000260: 7a5d 353d a3b5 ecbd c103 c93e 6e5c 673e
00000270: 5ca1 423e 2212 98be 6d56 7239 aaec 0b3e
00000280: 9f7b d63e 4c6e 25bd 8418 673e e2d3 0fbf
00000290: 0681 19bf 5189 d23d d4b4 e23e 528c ab3d
000002a0: 9156 803e c1ae 5b3e 988d 8bbe 885a 77bd
000002b0: 9473 b33c cf78 8dbd d3f9 37bd a187 2b3e
000002c0: 4417 92be 2549 5c3e 4fe8 a1bd 8ebe 4dbe
000002d0: 50b4 763e 1547 0cbe 0bcd 5abe 391f 393c
000002e0: 36c3 353e f18b 3ebd 45a4 b2bd 22d5 543d
000002f0: 442d d73d fa81 b03d 0668 d53e d1ae 863e
00000300: b5f2 a5bd 0f52 833c 9923 d73e 8498 1bbd
00000310: 131f 773e 13dd 283e 2ec0 fd3c 4f76 54bd
00000320: d70b 35be 1966 7cbd eb6f cf3c 6d5f 34be
00000330: 48aa d8bd 2cec f43d ac45 71bc c469 41be
00000340: dff5 f83c fb64 413d 4063 75be 1ab4 ffbd
00000350: 7a02 163e 89dd 453e 14ed 36bd e4ed 813d
00000360: 42c0 2c3d e81e 5ebd 86e9 1abe 46a8 df3d
00000370: f5e0 27be abaf 09bf 1f36 6ebd 481a 22be
00000380: 4b3d 90be 0421 6d3d 4e0c 08bf d66d 993e
00000390: e5e5 143f 444c 143d 4780 483e 86e8 a63c
000003a0: 17da da3e 586c e8bb fd07 d7be 0164 90bd
000003b0: f554 6b3d c3bc 17be 636c b5be 8ad8 26be
000003c0: 8827 7d3e f45f df3c fdca 0a3d c017 83be
000003d0: 693e 053e 4071 b7bd 350b afbd 8a19 f4bd
000003e0: 1b01 12be 002a 953e 8abb ae3d 50ce c83c
000003f0: a977 f6bd a04f 043e 1266 dcbd d111 19be

v.net.2.bias f4 [64]
0.11838878 0.52460444 0.19065513 -0.094661996 0.1785684 0.12667446 0.37396246 0.82883734
0.5984369 0.4972263 -0.40855008 -0.21796884 -0.35271117 -0.39914787 -0.23093899 0.23557092
0.3540187 0.5214059 0.5757092 0.48255447 -0.68668234 -0.32321116 0.45662406 -0.39538231
0.14552818 -0.48525244 -0.342524 -0.35924733 0.49603114 -0.4820117 -0.23944308 -0.4717467
-0.15147097 -0.34020457 0.23482032 0.14233747 0.4354251 0.16211995 -0.46702096 0.60331565
-0.38389534 0.25271112 -0.27908087 -0.5309455 -0.033812214 0.5771585 -0.69232905 -0.48798826
-0.5047454 0.28465402 -0.22503325 -0.5723891 0.5517379 0.52393335 -0.3246862 -0.38493475
-0.44241208 -0.63413733 -0.86691785 -0.4453634 0.4794403 -0.2731668 0.4442296 -0.4230994
00000000: d175 f23d 7a4c 063f 193b 433e 26de c1bd
00000010: a2da 363e f3b6 013e 0278 bf3e af2e 543f
00000020: 2933 193f 7294 fe3e 7a2d d1be 3933 5fbe
00000030: 8f96 b4be 1c5d ccbe 457b 6cbe 8139 713e
00000040: f041 b53e db7a 053f ae61 133f 6111 f73e
00000050: 6aca 2fbf ef7b a5be a1ca e93e 8d6f cabe
00000060: 5705 153e 0273 f8be 4e5f afbe 44ef b7be
00000070: cbf7 fd3e 3dca f6be 9130 75be c988 f1be
00000080: 351b 1bbe 4b2f aebe bd74 703e eac0 113e
00000090: 0af0 de3e c602 263e 5f1d efbe e572 1a3f
000000a0: ee8d c4be 5a63 813e b0e3 8ebe 0bec 07bf
000000b0: ad7e 0abd a9c0 133f 7a3c 31bf 99d9 f9be
000000c0: ff36 01bf 2cbe 913e 1e6f 66be 1888 12bf
000000d0: b23e 0d3f 7f20 063f 453d a6be 2b16 c5be
000000e0: d683 e2be d356 22bf 54ee 5dbf ac06 e4be
000000f0: 3379 f53e 85dc 8bbe 1072 e33e 7ca0 d8be

v.net.4.weight f4 [1, 64]
0.13878316 -0.17999105 -0.06413999 0.06699243 -0.25440764 -0.28489628 -0.09157723 -0.2355591
-0.15248401 -0.16027953 0.13205378 0.096921876 0.12530303 0.08889133 0.098406896 -0.08420431
-0.14225103 -0.15208119 -0.14908901 -0.2221715 0.16961484 0.11646224 -0.107594095 0.07963221
-0.17817828 0.17258728 0.08322363 0.10228339 -0.124690704 0.22802997 0.10021071 0.16730249
0.20837301 0.07875482 -0.046517156 -0.0581764 -0.13031498 -0.14334948 0.16158962 -0.17676678
0.22898097 -0.31349003 0.15998822 0.17044038 0.2968192 -0.16261391 0.18106127 0.22074357
0.20686033 -0.06513785 0.1676244 0.12460677 -0.11810143 -0.19463022 0.07119639 0.06778717
0.10895466 0.20317815 0.17872967 0.073451646 -0.18941872 0.2297118 -0.09208264 0.15321365
00000000: 2c1d 0e3e 934f 38be d45b 83bd 5433 893d
00000010: b841 82be eddd 91be d88c bbbd 6836 71be
00000020: c524 1cbe 5120 24be 1b39 073e fa7e c63d
00000030: 704f 003e a80c b63d 8e89 c93d 4f73 acbd
00000040: 41aa 11be 2cbb 1bbe caaa 18be ed80 63be
00000050: 83af 2d3e c183 ee3d 4b5a dcbd 3616 a33d
00000060: 5e74 36be b8ba 303e 2771 aa3d f479 d13d
00000070: d75d ffbd b080 693e 463b cd3d 5851 2b3e
00000080: bc5f 553e 354a a13d c688 3ebd 604a 6ebd
00000090: 4a71 05be 35ca 12be c077 253e 5a02 35be
000000a0: fd79 6a3e c481 a0be f4d3 233e ec87 2e3e
000000b0: b0f8 973e 4384 26be 2068 393e 9a0a 623e
000000c0: 32d3 533e fe66 85bd bba5 2b3e d631 ff3d
000000d0: 2adf f1bd 254d 47be 6acf 913d 00d4 8a3d
000000e0: 9f23 df3d ef0d 503e e904 373e d16d 963d
000000f0: fbf6 41be 9239 6b3e d395 bcbd 0ae4 1c3e

c.net.0.weight f4 [64, 40]
-0.12953728 0.15705116 -0.100018516 -0.08219345 0.088545345 -0.0811953 0.12535176 0.093664244
0.056465916 0.09862264 0.14214168 0.080547564 0.07475608 -0.1232345 -0.072599776 0.048591048
0.058588315 0.1528133 0.08525232 -0.00743971 0.06048275 -0.024565004 0.12673998 -0.13869776
0.13355511 0.108795635 0.14374463 0.011793766 -0.107717305 -0.13090858 -0.069918536 0.08150909
-0.14945816 0.03142001 0.11511579 0.1202495 -0.063096456 0.13866735 -0.07228046 -0.15033534
0.120684035 0.015643243 0.07685664 0.09445178 0.07667331 0.018095998 -0.11411263 0.019973153
0.07769786 -0.07062937 0.14529231 0.02066258 0.109359115 -0.01290003 -0.0637372 -0.14697629
0.08465608 -0.15360679 -0.033299956 -0.14913708 0.0678148 0.055806573 -0.11039144 -0.07605028
0.035812423 -0.085142285 0.011231813 0.010882264 0.11310098 0.06283523 -0.04208778 0.13481012
-0.1331504 -0.06355425 0.11561 -0.14947775 0.14553128 0.0968124 0.15184718 0.08272413
0.07596252 -0.105808385 0.14936252 0.024494812 0.1445251 -0.15566179 0.07153158 0.11927601
-0.108198375 0.11938284 -0.021789653 -0.054287296 -0.014094714 0.11914657 0.01993589 0.05377537
-0.004173146 0.017033368 -0.057063233 0.09348058 -0.14863752 0.015571411 -0.00081923744 -0.1384652
-0.120028675 0.096521266 -0.07601602 0.11495695 -0.087237306 -0.06941187 0.15678434 -0.049482666
0.014639722 -0.005232421 0.14740795 -0.061651558 0.1266368 -0.04683264 -0.0181968 0.13133761
0.13486189 0.037779015 0.06381796 -0.087656654 -0.037132073 -0.08429767 0.12321967 -0.0013067387
-0.09651118 0.0015864903 -0.04334745 -0.12022867 0.14086515 -0.043081872 -0.03703785 0.062661804
-0.15358493 0.05239105 -0.045715593 0.07262214 -0.03993577 -0.13846731 0.020441769 -0.0888422
0.11390407 -0.13849537 -0.028409863 0.071909234 0.09922661 -0.0010098726 0.003245812 0.07886682
-0.010065685 0.04625474 -0.12781444 0.0099647315 0.019992229 -0.07165985 0.04280885 -0.09167897
-0.12375789 0.047202226 0.12475256 0.008380635 0.041722793 0.0015521293 0.097242735 -0.07756117
0.013019908 -0.054913074 0.14319584 0.1471671 0.11470866 0.102946125 -0.053662542 0.10230938
-0.051026955 -0.08203965 0.055542544 0.06996714 0.14681293 0.08278264 -0.11908379 -0.11377179
-0.108122565 0.08594152 0.05306387 -0.09372724 0.006121606 -0.025623506 -0.12241174 -0.036314778
-0.11524866 -0.08774458 0.14837065 0.12980817 0.06303309 0.13009559 -0.004052609 -0.06876803
-0.049991127 0.007218748 0.055805065 0.1364826 0.12973833 -0.13387106 0.06791206 -0.13166083
-0.015306381 -0.053511582 -0.15518089 -0.15650898 -0.06129102 -0.14073843 0.016711622 -0.034430854
-0.114000104 0.10098696 -0.10978815 -0.101859935 0.14470403 -0.15300876 -0.0816389 0.079548925
0.10019803 -0.14210422 -0.018097147 -0.06898896 -0.07646563 0.03839987 0.044630554 0.13272093
-0.118460804 0.021044832 0.09652611 0.01515086 0.03345133 -0.10441787 0.029861605 0.13927434
-0.13018166 0.14039329 -0.11793091 0.13822041 -0.13936335 -0.11168151 -0.14531052 0.13082471
-0.13084929 -0.04791819 -0.020830126 -0.071586676 0.15179521 0.122357495 -0.024452968 0.15042745
00000000: 6ca5 04be 05d2 203e 82d6 ccbd 0a55 a8bd
00000010: 4357 b53d b949 a6bd 365c 003e 0ad3 bf3d
00000020: ce48 673d abfa c93d 978d 113e 1ff6 a43d
00000030: b719 993d 5f62 fcbd 31af 94bd 6807 473d
00000040: 4dfa 6f3d 177b 1c3e c598 ae3d d0c8 f3bb
00000050: c3bc 773d 8c3c c9bc 20c8 013e c906 0ebe
00000060: acc2 083e 3fd0 de3d cb31 133e a43a 413c
00000070: e49a dcbd e60c 06be 7331 8fbd 3dee a63d
00000080: 8f0b 19be 45b2 003d d4c1 eb3d 5f45 f63d
00000090: b738 81bd d0fe 0d3e c707 94bd 82f1 19be
000000a0: 3129 f73d 4226 803c 0467 9d3d ef6f c13d
000000b0: e506 9d3d 0f3e 943c e2b3 e9bd bd9e a33c
000000c0: 0e20 9f3d 22a6 90bd 82c7 143e 9244 a93c
000000d0: acf7 df3d a65a 53bc a688 82bd f480 16be
000000e0: 2b60 ad3d 194b 1dbe 8965 08bd 64b7 18be
000000f0: 7ce2 8a3d 6f95 643d e814 e2bd 40c0 9bbd
00000100: 0cb0 123d 145f aebd a305 383c 864b 323c
00000110: 7da1 e73d c2af 803d 3c64 2cbd aa0b 0a3e
00000120: 9458 08be bb28 82bd f0c4 ec3d b210 19be
00000130: 2706 153e 9445 c63d d47d 1b3e 456b a93d
00000140: 3d92 9b3d 11b2 d8bd 7df2 183e 58a9 c83c
00000150: 63fe 133e ce65 1fbe 267f 923d fb46 f43d
00000160: 1c97 ddbd fe7e f43d 3780 b2bc 5b5c 5ebd
00000170: 84ed 66bc 1e03 f43d 9750 a33c 9043 5c3d
00000180: e3be 88bb 9089 8b3c 23bb 69bd bf72 bf3d
00000190: 6f34 18be 3b1f 7f3c 18c2 56ba d2c9 0dbe
000001a0: 98d1 f5bd f1ac c53d 49ae 9bbd 8d6e eb3d
000001b0: 79a9 b2bd cf27 8ebd 138c 203e 56ae 4abd
000001c0: 72db 6f3c bb74 abbb 1cf2 163e 5886 7cbd
000001d0: 14ad 013e 95d3 3fbd 7511 95bc 5e7d 063e
000001e0: 3c19 0a3e 2bbe 1a3d feb2 823d 5585 b3bd
000001f0: cd17 18bd 42a4 acbd 985a fc3d e046 abba
00000200: a7a7 c5bd c8f1 cf3a 198d 31bd 733a f6bd
00000210: f43e 103e 9e76 30bd 00b5 17bd d554 803d
00000220: 5e45 1dbe ff97 563d 4640 3bbd ebba 943d
00000230: b193 23bd 60ca 0dbe 7f75 a73c e6f2 b5bd
00000240: 8946 e93d bbd1 0dbe cdbb e8bc 2645 933d
00000250: 5237 cb3d b45d 84ba b0b7 543b ed84 a13d
00000260: 8bea 24bc 9c75 3d3d cae1 02be 1d43 233c
00000270: bec6 a33c 66c2 92bd 5558 2f3d 2fc2 bbbd
00000280: c774 fdbd 1f57 413d 457e ff3d ee4e 093c
00000290: 85e5 2a3d d170 cb3a 3327 c73d 64d8 9ebd
000002a0: 7451 553c 88ec 60bd eea1 123e f9b2 163e
000002b0: 60ec ea3d 6bd5 d23d 41cd 5bbd 9587 d13d
000002c0: a401 51bd 6704 a8bd 9480 633d ef4a 8f3d
000002d0: 2156 163e f289 a93d 34e2 f3bd 2f01 e9bd
000002e0: 5d6f ddbd 1c02 b03d 8059 593d 11f4 bfbd
000002f0: c197 c83b 63e8 d1bc 02b3 fabd cebe 14bd
00000300: 7d07 ecbd 6eb3 b3bd 7aee 173e 6fec 043e
00000310: 7e17 813d c737 053e c0cb 84bb 41d6 8cbd
00000320: 7fc3 4cbd 3f8b ec3b da93 643d 18c2 0b3e
00000330: 20da 043e 7f15 09be 7a15 8b3d 19d2 06be
00000340: 9dc7 7abc f62e 5bbd bde7 1ebe e443 20be
00000350: 4b0c 7bbd bc1d 10be d0e6 883c 5e07 0dbd
00000360: e378 e9bd 40d2 ce3d 9cd8 e0bd f19b d0bd
00000370: 4b2d 143e 54ae 1cbe 4c32 a7bd 8cea a23d
00000380: a034 cd3d c583 11be 7840 94bc 154a 8dbd
00000390: 039a 9cbd 2f49 1d3d 87ce 363d ffe7 073e
000003a0: 949b f2bd 3666 ac3c 7baf c53d 503b 783c
000003b0: 4304 093d 09d9 d5bd 53a0 f43c ef9d 0e3e
000003c0: 574e 05be 42c3 0f3e c385 f1bd a789 0d3e
000003d0: 44b5 0ebe 47b9 e4bd 48cc 14be eaf6 053e
000003e0: 5bfd 05be dd45 44bd f1a3 aabc 099c 92bd
000003f0: 3470 1b3e 9196 fa3d 9751 c8bc a709 1a3e

c.net.0.bias f4 [64]
0.008863989 -0.14132582 -0.033556957 -0.12476843 -0.07054363 0.027649943 0.07592334 0.14466922
0.019104853 0.05542851 -0.13823941 0.12037626 -0.09688798 0.14300054 0.0011657132 0.06308462
-0.09873044 -0.059427906 0.11449388 -0.054401822 -0.12829895 -0.103322364 0.009280412 0.018611038
-0.13598333 -0.011277087 -0.15449211 0.025033863 -0.043147653 -0.09945134 0.023899062 0.11871641
0.13572001 -0.051323272 -0.07987697 -0.03413282 -0.12401874 -0.15489355 -0.10461691 0.10374167
0.11715103 0.03665415 -0.114222534 0.051839273 0.060686957 -0.025612667 0.00638249 -0.0012843843
-0.07874186 0.07094283 -0.15244137 0.0376247 -0.13194337 -0.037425168 0.039269283 -0.013423721
0.008688452 -0.091199555 -0.05681805 0.07238829 0.11164331 0.07324619 0.02712593 -0.14228162
00000000: 443a 113c b7b7 10be 0573 09bd 9786 ffbd
00000010: 2e79 90bd 2282 e23c b27d 9b3d 2b24 143e
00000020: c881 9c3c 0109 633d a28e 0dbe d487 f63d
00000030: 356d c6bd bc6e 123e d8ca 983a 8232 813d
00000040: 2f33 cabd ad6a 73bd c47b ea3d 72d4 5ebd
00000050: cd60 03be ad9a d3bd df0c 183c 2d76 983c
00000060: 373f 0bbe 88c3 38bc 2e33 1ebe d113 cd3c
00000070: 98bb 30bd 25ad cbbd f7c7 c33c 9721 f33d
00000080: 30fa 0a3e 5a38 52bd 8996 a3bd dbce 0bbd
00000090: 8afd fdbd 6a9c 1ebe 6441 d6bd 8376 d43d
000000a0: e1ec ef3d a922 163d 81ed e9bd 6b55 543d
000000b0: e392 783d a8d1 d1bc 3524 d13b c958 a8ba
000000c0: 6a43 a1bd 794a 913d 9719 1cbe 5c1c 1a3d
000000d0: 2a1c 07be 224b 19bd d4d8 203d 2bef 5bbc
000000e0: 025a 0e3c d5c6 babd 0bba 68bd 5040 943d
000000f0: 3fa5 e43d 1902 963d 3337 de3c 46b2 11be
