experiments/07_control_structure_hypothesis/checkpoints/PWM/DroneCircleBulletEnv-v0/ppo/2021-12-14__05-22-00/seed_00023/torch_save/model.pt (torch, 82448 bytes, 19 tensors)

obs_oms.mean f4 [40]
0	0x3e8072af	0.25087497
1	0x3a3aad88	0.0007121195
2	0x3f80d78e	1.0065782
3	0x3a229adb	0.0006202885
4	0x390429f4	0.0001260413
5	0xbd526bc6	-0.051372312
6	0x3f7d1cc3	0.9887201
7	0x3b1d4d74	0.0024002464
8	0x3a4d7b38	0.00078384904
9	0xbc8a3e78	-0.01687549
10	0x3c7e905e	0.0155373495
11	0x3caadaae	0.020856228
12	0xbc351748	-0.011052914
13	0xba6aed0c	-0.00089617143
14	0x37d5ddc1	2.549484e-05
15	0xbbd79061	-0.0065784906
16	0x3e96b1a5	0.29432407
17	0x3e96d4d9	0.29459265
18	0x3e90d973	0.282909
19	0x3e89c86d	0.26910725
20	0x3e8075e2	0.25089937
21	0x3a3c8a29	0.00071922183
22	0x3f80d1a5	1.0063978
23	0x3a37bebd	0.0007009318
24	0x3948ba36	0.00019142855
25	0xbd52dc79	-0.05147979
26	0x3f7d0482	0.98835003
27	0x3b240161	0.0025025236
28	0x3a3c861f	0.00071916165
29	0xbc9746c8	-0.018466368
30	0x3c947ae0	0.018124998
31	0x3cc149c4	0.023594745
32	0xbc38b4f6	-0.011273613
33	0xba6d4186	-0.0009050596
34	0x379c2f7b	1.8618759e-05
35	0xbbd1a55b	-0.0063978857
36	0x3e95faa2	0.2929278
37	0x3e964f97	0.29357597
38	0x3e904e6e	0.28184837
39	0x3e8940ae	0.2680716

obs_oms.std f4 [40]
0	0x3e355e16	0.17711672
1	0x3e355612	0.17708614
2	0x3d303825	0.043022294
3	0x3da49fc3	0.08038285
4	0x3dae12f4	0.08499709
5	0x3da76747	0.081739955
6	0x3d16c92d	0.03681295
7	0x3eca1d25	0.3947536
8	0x3ec8e4a3	0.39236936
9	0x3e1e8dc0	0.15483761
10	0x3fcf546a	1.6197636
11	0x3fd59dd0	1.6688786
12	0x3ebc2dc3	0.36753663
13	0x3d08481c	0.033271894
14	0x3d088b49	0.033335958
15	0x3d303842	0.0430224
16	0x3f1414e4	0.57844377
17	0x3f13b874	0.5770333
18	0x3f088bb7	0.5333819
19	0x3f01482a	0.5050074
20	0x3e356b9d	0.17716832
21	0x3e356608	0.17714703
22	0x3d32dfd0	0.043670475
23	0x3da744f3	0.08167448
24	0x3db13e53	0.086544655
25	0x3da7ea6c	0.08199009
26	0x3d24e5cf	0.040258225
27	0x3ecb0722	0.3965388
28	0x3ec9aff0	0.39392042
29	0x3e2855af	0.16438936
30	0x3fd238d2	1.642359
31	0x3fd94137	1.6973027
32	0x3ebda49d	0.37039652
33	0x3d09b6f4	0.033621743
34	0x3d0a121b	0.033708673
35	0x3d32dfe7	0.04367056
36	0x3f13f0f9	0.5778957
37	0x3f13956e	0.57649887
38	0x3f085a02	0.5326234
39	0x3f0129b9	0.5045429

pi.log_std f4 [4]
0	0xc0905243	-4.5100417
1	0xc0905243	-4.5100417
2	0xc0905243	-4.5100417
3	0xc0905243	-4.5100417

pi.net.0.weight f4 [50, 40]
0	0x3df74a0e	0.12074672
1	0xbd4c8aeb	-0.04993717
2	0xbcc0220b	-0.023453733
3	0xbd806651	-0.06269515
4	0xbd90044a	-0.07032068
5	0xbca8ac13	-0.020589864
6	0x3e3f9ae3	0.18711428
7	0x3ea067ad	0.31329098
8	0xbdb9ace0	-0.090661764
9	0x3df1963f	0.11796235
10	0xbda94616	-0.08265321
11	0xbce90eb9	-0.028449403
12	0x3d83d439	0.06436963
13	0x3e09d830	0.13461375
14	0xbe307ad7	-0.1723436
15	0xbce892c5	-0.028390298
16	0xbe1d9d83	-0.15392117
17	0x3d46c721	0.048529748
18	0xbcd871e7	-0.0264215
19	0x3ce280d7	0.027649326
20	0xbd71f8a7	-0.059075024
21	0xbe335c26	-0.1751562
22	0xbcb7a627	-0.022418095
23	0xbb8a10ab	-0.0042134128
24	0x3d87ecae	0.0663694
25	0x3c447ee5	0.011993145
26	0xbd7648a6	-0.060127877
27	0x3de2ecff	0.1108036
28	0x3ce92b22	0.02846295
29	0xbbdfd373	-0.0068306266
30	0xbe66e71c	-0.22549099
31	0x3e890f39	0.26769426
32	0xbd991578	-0.07474798
33	0xbd979745	-0.07401899
34	0xbd16f194	-0.03685148
35	0x3dc12748	0.094313204
36	0x3be7a679	0.0070694056
37	0x3e038f76	0.12847695
38	0x3ce9072d	0.028445804
39	0x3e7d7495	0.24751504
40	0x3df903cb	0.121589266
41	0x3e13c4f2	0.14430597
42	0xbe25a9fa	-0.16178122
43	0xbc040685	-0.008058195
44	0xbd0bd79c	-0.034141168
45	0x3d0b59df	0.034021255
46	0xbe9c835b	-0.30568966
47	0xbd34a840	-0.04410577
48	0x3da296cf	0.07938921
49	0xbe936695	-0.287892
50	0x3e1c9577	0.15291391
51	0xbc63e18a	-0.013908753
52	0x3d4db267	0.050218966
53	0x3e692be2	0.22770646
54	0xbd9ea12a	-0.07745583
55	0x3e87f568	0.26554418
56	0x3e0b800f	0.13623069
57	0xbc5e4251	-0.013565616
58	0xbcd95c98	-0.02653341
59	0xbc979659	-0.018504309
60	0xbdaf3581	-0.08555127
61	0xbbcc8594	-0.0062415097
62	0xbd208c6f	-0.039196428
63	0x3e67fcce	0.22655031
64	0x3dc4d258	0.096104324
65	0x3e1bd6e9	0.152187
66	0xbe82641f	-0.2546701
67	0xbe497d6e	-0.19676754
68	0x3daa3519	0.08310909
69	0xbeb144c0	-0.34622765
70	0x3e0a523f	0.13507937
71	0x3d376d1a	0.04478178
72	0x3e0b595a	0.13608304
73	0x3e4066fb	0.18789284
74	0xbcc3f918	-0.023922488
75	0x3e73aa28	0.23795378
76	0x3cd4e17e	0.02598643
77	0xbe13fa48	-0.14450943
78	0x3bbe9c00	0.0058169365
79	0xbb5bde92	-0.003354941
80	0xbd9a26ba	-0.07526918
81	0xbe54f654	-0.20797092
82	0x3dece226	0.11566572
83	0x3dd68450	0.10474455
84	0x3e86d763	0.26336202
85	0xbe0f4f62	-0.13995126
86	0x3e1ee74c	0.1551792
87	0x3e31a145	0.17346676
88	0xbd9ff6cd	-0.078107454
89	0xbd4f6851	-0.050636593
90	0x3d84f30f	0.06491672
91	0xbe4b2e01	-0.19841768
92	0x39c2318c	0.0003703948
93	0xbe75bedb	-0.23998587
94	0x3da575cf	0.08079111
95	0xbda48c2f	-0.080345504
96	0xbc8db9bf	-0.017300485
97	0x3dd41690	0.10355866
98	0x3d8a9740	0.0676713
99	0xb8f282cf	-0.00011563824
100	0xbda3d05f	-0.07998728
101	0xbe061054	-0.13092166
102	0x3e8132bd	0.25234023
103	0x3d5019d0	0.050805867
104	0x3e62932c	0.22126454
105	0xbe80c1a8	-0.25147748
106	0x3e0aded7	0.13561569
107	0x3e87cb7c	0.26522434
108	0xbde82f23	-0.113371156
109	0x3daba6fe	0.083814606
110	0x3e6d8da0	0.23198557
111	0x3ef08e8f	0.46983764
112	0xbc8b6097	-0.017013831
113	0xbd2f87c5	-0.04285409
114	0x3d794202	0.060853966
115	0xbe162f72	-0.14666536
116	0xbdb3bed8	-0.08776635
117	0x3d89b0b7	0.06723159
118	0x3d25a452	0.04043991
119	0x3d48bb4d	0.04900675
120	0x3d181806	0.037132286
121	0x3e9283c4	0.28616154
122	0xbe77ccbe	-0.24199197
123	0xbc5bf78f	-0.013425722
124	0xbe10fd97	-0.14159237
125	0x3d9b37b2	0.075789824
126	0x3ce7edd4	0.028311647
127	0xbe9a89fb	-0.30183396
128	0xbe46284c	-0.1935131
129	0xbe7eedc6	-0.24895391
130	0x3bed4b58	0.0072416477
131	0xbe194fa0	-0.14971781
132	0x3cc368c8	0.023853675
133	0xbdc74d37	-0.097315244
134	0x3c95591b	0.018230965
135	0x3e700e05	0.23442848
136	0xbe2221f3	-0.15833263
137	0xbcb749b6	-0.022374015
138	0xbe07ae6c	-0.1325013
139	0x3d6de6d9	0.05808148
140	0xbe76489c	-0.24051136
141	0x3d7c3136	0.06157037
142	0xbcdeab29	-0.027181225
143	0xbe15ef1e	-0.14641997
144	0xbe7db465	-0.24775846
145	0x3c3666ec	0.011132937
146	0xbdde36be	-0.10850285
147	0xbda87873	-0.08226099
148	0x3cd0d845	0.02549375
149	0xbe821d9a	-0.2541321
150	0xbda58ff4	-0.080840975
151	0x3e7b916c	0.24567193
152	0xbd17f6ed	-0.03710072
153	0x3e5d4371	0.21607758
154	0xbe1220e1	-0.14270355
155	0x3e6760d2	0.22595528
156	0x3e0d327b	0.13788788
157	0xbd0ae764	-0.033912078
158	0x3db51a9e	0.088429675
159	0xbd9ef1d6	-0.0776097
160	0x3e423a77	0.18967615
161	0xbd9c8cfe	-0.076440796
162	0x3e2d33a0	0.16914225
163	0xbe0b0552	-0.13576248
164	0x3e2f1b1a	0.17100182
165	0x3dd7767d	0.10520647
166	0x3e4bfdcb	0.19921033
167	0x3e848ccc	0.2588867
168	0x3e1c1144	0.15240961
169	0x3dc52c61	0.09627605
170	0xbd941fb5	-0.0723261
171	0xbe3f5634	-0.18685228
172	0xbd4aa76f	-0.049476083
173	0xbe2a5f3c	-0.16637892
174	0xbda8fabf	-0.08250951
175	0xbdeec124	-0.116579324
176	0x3dd54b3e	0.10414742
177	0xbb4c1a11	-0.0031143466
178	0x3dad7958	0.0847041
179	0x3d8ab12c	0.06772074
180	0x3e1f3ad3	0.15549783
181	0xbe6b0a2d	-0.229531
182	0xbc1bcf52	-0.009509878
183	0xbd518331	-0.051150504
184	0x3e51e394	0.2049697
185	0x3d4de664	0.050268546
186	0x3e5e66ad	0.21718855
187	0x3c8e52e0	0.017373502
188	0x3dd7bc80	0.105340004
189	0x3db0ea9b	0.086384974
190	0x3e5b4b29	0.2141539
191	0x3ecee138	0.40406203
192	0x3d799c54	0.0609401
193	0xbe5fd217	-0.21857487
194	0xbe31ee72	-0.17376116
195	0xbd8a966a	-0.067669705
196	0x3d79708c	0.06089835
197	0xbd49c201	-0.049257282
198	0x3db3bacb	0.08775862
199	0xbd72e6de	-0.059302203
200	0x3e0d3ba2	0.1379228
201	0xbe236435	-0.15956195
202	0xbd9ce93e	-0.07661675
203	0xbdd66e3d	-0.10470245
204	0xbbd5f607	-0.006529573
205	0xbd8791a4	-0.066195756
206	0x3c16551c	0.009175565
207	0x3e763d35	0.24046786
208	0x3e10070c	0.14065188
209	0xbd9e655d	-0.07734177
210	0x3e23b634	0.15987474
211	0xbdb95f9f	-0.090514414
212	0xbd6551a1	-0.05598605
213	0xbd9200f7	-0.0712909
214	0x3cb1e9ca	0.021717925
215	0xbddbd4bd	-0.10733936
216	0x3c735107	0.014850861
217	0xbda90869	-0.08253557
218	0x3c0ea755	0.008706887
219	0xbc62bff8	-0.013839714
220	0x3dd15b37	0.10222476
221	0xbdf4fb6c	-0.119620174
222	0x3e24f7e5	0.1611019
223	0xbdb77faf	-0.089599006
224	0x3db2d679	0.08732314
225	0xbe183284	-0.1486302
226	0x3e48cbbd	0.1960897
227	0x3e799f94	0.2437728
228	0x3e594254	0.21216708
229	0xbe314df3	-0.17314892
230	0xbeb66c3c	-0.3562945
231	0x3d340eb8	0.04395935
232	0xbe3d602e	-0.18493721
233	0xbc995e11	-0.018721612
234	0xbd2ca439	-0.042148802
235	0x3dd36edb	0.103238784
236	0x3e19b3cb	0.15009992
237	0x3de60783	0.112319015
238	0xbcf6a54d	-0.030108118
239	0x3e075945	0.13217647
240	0x3dd2e94b	0.10298403
241	0xbd71f683	-0.059072983
242	0x3cab63e4	0.020921655
243	0x3bf7b30a	0.007559185
244	0x3db1bec6	0.08678965
245	0xbd7ebfba	-0.062194563
246	0x3d84ccdd	0.06484387
247	0xbded30bf	-0.11581563
248	0xbd2c5ca9	-0.042080555
249	0x3e393f43	0.18090539
250	0xbd3aa774	-0.045569852
251	0x3d11bdd1	0.035581414
252	0xbd286b54	-0.04111798
253	0x3dd3db63	0.10344579
254	0x3de8f2b1	0.11374415
255	0xbda9f25f	-0.08298182

pi.net.0.bias f4 [50]
0	0x3e6eaeb7	0.23308836
1	0xbe6a64e7	-0.22890054
2	0x3e7041ed	0.23462649
3	0x3d6b2267	0.057405856
4	0x3ec7c882	0.39020163
5	0x3ed04ece	0.40685123
6	0xbd60c27f	-0.054872986
7	0xbcb5f937	-0.022213561
8	0x3e1a6f26	0.15081462
9	0x3e38d0c3	0.18048386
10	0x3d100058	0.035156578
11	0x3b9dd9e4	0.0048172344
12	0x3e8749ae	0.264234
13	0xbdd0c268	-0.1019333
14	0xbe098014	-0.13427764
15	0xbde51399	-0.111853786
16	0x3e09f30a	0.13471618
17	0x3edcb84c	0.43109357
18	0xbe52ffb4	-0.20605356
19	0x3e852416	0.26004094
20	0xbe303d3a	-0.17210856
21	0x3e566f41	0.20940877
22	0x3e71ec8b	0.2362539
23	0x3e1604e6	0.14650306
24	0x3e891b39	0.26778582
25	0xbe7ce5bd	-0.24697013
26	0xbe86fe8f	-0.26366088
27	0x3efd1e87	0.49437353
28	0xbd2fe5ee	-0.042943887
29	0x3d04a799	0.032386396
30	0x3e8f0646	0.27934474
31	0x3e684e4c	0.22686118
32	0x3e42c7f4	0.19021589
33	0xbe4e4362	-0.20142892
34	0xbe15e697	-0.14638744
35	0xbe7d1701	-0.24715807
36	0x3eb8c067	0.3608429
37	0x3ce01a26	0.027356219
38	0x3daac92a	0.0833915
39	0xbd1c2466	-0.03812065
40	0x3e984508	0.29740167
41	0x3cfbee04	0.030753143
42	0x3e653841	0.2238474
43	0x3ea444fd	0.32083884
44	0x3da62bc3	0.08113816
45	0x3ec6226b	0.38698134
46	0xbe32aacb	-0.17447965
47	0x3e99bb1d	0.3002557
48	0x3e17e64f	0.1483395
49	0x3e9adcc4	0.30246556

pi.net.2.weight f4 [50, 50]
0	0xbe4ab6ea	-0.19796339
1	0xbe206514	-0.15663558
2	0x3d05e6f8	0.032690972
3	0xbe0251a7	-0.1272646
4	0xbdcbc109	-0.09948928
5	0xbdb36eee	-0.087613925
6	0xbe0413bf	-0.12898158
7	0x3da70f8e	0.08157264
8	0xbd8ecd28	-0.06972724
9	0xbb1223f6	-0.0022299266
10	0x3e2c04da	0.16798726
11	0x3e4c8d66	0.19975814
12	0xbd1e8cfb	-0.03870867
13	0xbd1b0fda	-0.037856914
14	0x3dba2922	0.09089877
15	0x3dac023f	0.08398866
16	0xbe215b66	-0.15757522
17	0x3e56fe52	0.20995453
18	0xbe8a4c94	-0.2701155
19	0xbe993b3d	-0.29928008
20	0xbe0ec30c	-0.13941592
21	0xbe85e33d	-0.26149932
22	0x3e0136bc	0.12618536
23	0x3e01fb3a	0.12693492
24	0x3df80641	0.12110568
25	0x3e278048	0.16357529
26	0x3e815b2c	0.2526487
27	0x3e85774a	0.26067573
28	0xbe452dbc	-0.19255728
29	0xbe14aa08	-0.14517987
30	0x3e36ea5d	0.1786284
31	0xbd7e93a7	-0.06215253
32	0xbd61c954	-0.055123642
33	0xbe0486c4	-0.12942034
34	0xbdbf86d3	-0.093518876
35	0xbd331d03	-0.04372884
36	0x3e1034c1	0.14082624
37	0xbe427259	-0.18988933
38	0x3dcd08dd	0.10011456
39	0x3e321e9c	0.17394489
40	0x3e179f4a	0.14806858
41	0xbe18bbfd	-0.14915462
42	0x3e088199	0.13330688
43	0x3e3c3197	0.18378292
44	0xbe37c2f6	-0.17945465
45	0x3ec68d71	0.38779786
46	0x3d03125d	0.031999934
47	0x3d92c9ea	0.07167418
48	0x3ca6e2a1	0.020371737
49	0x3dc6c87a	0.097062066
50	0x3d967e12	0.07348265
51	0xbda5256c	-0.08063778
52	0xbd8f009c	-0.06982538
53	0xbe1d904c	-0.15387076
54	0x3db44080	0.08801365
55	0x3e39afd5	0.18133481
56	0xbcc38495	-0.023866931
57	0x3dcc60dd	0.09979413
58	0x3cfc6dfe	0.030814167
59	0xbd8bce47	-0.06826454
60	0x3e3593ba	0.17732134
61	0xbe8080e3	-0.25098333
62	0xbd95c3f4	-0.07312766
63	0x3dec1d48	0.115290225
64	0x3e0ece75	0.13945945
65	0xbe2743a8	-0.16334403
66	0xbcca00ae	-0.024658527
67	0x3d500ecc	0.05079536
68	0xbdb7a159	-0.089663215
69	0x3dae37a8	0.08506709
70	0xbde2a6f9	-0.11067004
71	0x3e02bf10	0.12768197
72	0xbe62adc4	-0.22136599
73	0xbdbba12a	-0.09161599
74	0x3e69f6b4	0.22848016
75	0x3e3f8568	0.18703234
76	0xbe8c7f8e	-0.27441067
77	0x3e325435	0.17414935
78	0xbcbd9f9c	-0.023147397
79	0xbe3f606a	-0.18689123
80	0x3d628d02	0.055310257
81	0xbd4cb2a6	-0.04997506
82	0x3c4d3528	0.0125248805
83	0x3d8689c5	0.06569246
84	0xbb51c90a	-0.0032010698
85	0x3d8f92b2	0.07010402
86	0x3e4f478f	0.20242141
87	0xbd4fe2fd	-0.050753582
88	0xbe1f39e9	-0.15549435
89	0x3e5dafc0	0.21649075
90	0xbdcca751	-0.099928506
91	0x3e7e68b7	0.24844633
92	0xb86b9046	-5.616273e-05
93	0x3d55e22c	0.052217647
94	0xbd197993	-0.037469458
95	0x3bef4b9d	0.007302715
96	0xbbf6d615	-0.007532845
97	0x3e31adee	0.17351505
98	0xbcfd89a9	-0.03094943
99	0x3d919ce5	0.071100034
100	0x3e2ba0df	0.16760586
101	0x3e7e7142	0.24847892
102	0xbddba63b	-0.10725065
103	0x3da31810	0.07963574
104	0xbdf44199	-0.11926574
105	0xbc383606	-0.011243349
106	0xbe015ba3	-0.12632613
107	0xbd7ad781	-0.061240677
108	0x3d8a9fbe	0.0676875
109	0xbe38cbe5	-0.1804653
110	0x3d9a9700	0.07548332
111	0x3e1c9c33	0.1529396
112	0x3de4a2eb	0.11163887
113	0x3e246bb3	0.16056709
114	0xbe432b01	-0.19059373
115	0xbd99dc34	-0.075127035
116	0xbdc3d923	-0.095629
117	0xbe3b8750	-0.18313336
118	0x3d0f66e5	0.035010237
119	0xbe1b17f9	-0.15145864
120	0xbd9400a6	-0.07226686
121	0xbd2a194d	-0.041528035
122	0x3c9b4207	0.018952383
123	0xbe8af751	-0.27141812
124	0xbe3a6fb4	-0.18206674
125	0xbcf604b6	-0.030031543
126	0xbd674de3	-0.056470763
127	0xbe22b5a1	-0.15889598
128	0xbe1ead3d	-0.15495773
129	0xbd6cbcb7	-0.05779716
130	0xbbaac494	-0.005211422
131	0xbcf6e4bf	-0.030138372
132	0xbde794f6	-0.11307709
133	0xbd4fd955	-0.050744373
134	0x3da69e7d	0.08135698
135	0x3e5e9c2b	0.21739261
136	0xbcaa47c0	-0.020786166
137	0x3e257756	0.16158804
138	0x3db6d928	0.08928138
139	0xbce8a471	-0.028398724
140	0xbdf05c3c	-0.11736342
141	0xbe4c57e6	-0.19955406
142	0xbe9a3a45	-0.3012258
143	0x3e2bab04	0.16764456
144	0x3e2213ee	0.15827915
145	0xbe941df7	-0.2892911
146	0x3e588428	0.21144164
147	0x3d1444e4	0.03619851
148	0x3d9032de	0.07040952
149	0xbe23ebff	-0.16007994
150	0x3daa4bf3	0.083152674
151	0xbdb71b2b	-0.08940729
152	0x3d7a99ad	0.061181713
153	0x3d82d3ec	0.06388077
154	0x3e07142d	0.1319129
155	0x3e21d1f3	0.15802746
156	0xbcc198f8	-0.023632511
157	0x3dd936c7	0.10606151
158	0x3db56fbb	0.088592015
159	0x3df19583	0.11796095
160	0x3c931e86	0.01795889
161	0x3dfba3c9	0.12287099
162	0x3d00b9e5	0.031427283
163	0x3deef35c	0.11667511
164	0x3c121772	0.008916723
165	0xbdce8aa0	-0.10085034
166	0x3de2b0b7	0.11068862
167	0xbe167947	-0.14694701
168	0x3c6da7b6	0.014505317
169	0x3e70f88a	0.2353231
170	0x3e2de847	0.16983138
171	0x3e4fe310	0.20301461
172	0x3d5da40f	0.054111537
173	0xbd50be00	-0.050962448
174	0xbdb22f01	-0.087003715
175	0x3d6c3eab	0.057676952
176	0xbe187d69	-0.1489159
177	0xba7540b2	-0.00093556487
178	0xbd46be12	-0.04852111
179	0x3cd83263	0.026391214
180	0xbe662a17	-0.22476994
181	0x3e711ead	0.23546858
182	0x3ca1268c	0.0196717
183	0x3e3915f5	0.18074782
184	0xbd0cf4cc	-0.034413144
185	0xbe12a505	-0.14320762
186	0x3d9653c1	0.073401935
187	0xbd853fb9	-0.06506295
188	0xbe311455	-0.17292912
189	0x3e008433	0.1255043
190	0xbdc3ef2e	-0.09567104
191	0x3cc9f4a7	0.024652792
192	0x3d7ce4cd	0.06174164
193	0x3d1130fb	0.035447102
194	0xbd979b7b	-0.074027024
195	0xbd8a05ec	-0.06739411
196	0x3d512b5f	0.051066753
197	0x3e1188a7	0.14212285
198	0xbd7e5222	-0.062090047
199	0x3d60ec1e	0.05491268
200	0xbd513485	-0.051075477
201	0x3cdfac74	0.027303912
202	0x3dba1952	0.09086861
203	0xbe81e4e5	-0.25369945
204	0xbdd74a17	-0.105121784
205	0xbe4a8b8a	-0.19779792
206	0x3db3234c	0.08746967
207	0x3de91010	0.11380017
208	0x398cc87e	0.0002685226
209	0xbde553fe	-0.11197661
210	0xbde591ad	-0.11209426
211	0x3d6fff7d	0.058593262
212	0x3c5d85fc	0.013520714
213	0xbda167ce	-0.07881127
214	0x3d75e71a	0.06003485
215	0x3cb47427	0.022028042
216	0xbe3b208d	-0.18274136
217	0xbd0de607	-0.0346432
218	0x3e0a7c54	0.1352399
219	0x3db380b9	0.08764786
220	0xbc950802	-0.018192295
221	0x3d9e88b3	0.07740917
222	0x3e25a6af	0.16176866
223	0xbd5871df	-0.05284297
224	0x3e3580d8	0.17724931
225	0x3e751ab5	0.23935969
226	0xbe137d6f	-0.14403318
227	0x3e48c158	0.19605005
228	0xbe5c8bbc	-0.2153768
229	0xbe8af943	-0.27143297
230	0x3e2f07c3	0.17092805
231	0xbb9321f7	-0.004490133
232	0xbd5777fa	-0.052604653
233	0x3dc9cb46	0.098532245
234	0xbe28421d	-0.1643147
235	0xbdf4d3c1	-0.11954451
236	0xbe1d758d	-0.15376873
237	0x3e2f0f3c	0.17095655
238	0xbe269790	-0.16268754
239	0xbd869561	-0.065714605
240	0xbe51bd4b	-0.20482366
241	0x3e26d12c	0.1629073
242	0x3db0c24a	0.08630808
243	0x3d36d5fd	0.04463767
244	0x3ae3d025	0.0017380757
245	0x3d60dd53	0.05489857
246	0xbe534cc0	-0.20634747
247	0xbe3a870c	-0.18215579
248	0x3e05d865	0.13070829
249	0xbce51564	-0.027964301
250	0x3e49d0ef	0.19708608
251	0xbdeeab1c	-0.1165373
252	0x3db632dc	0.088964194
253	0x3da6af06	0.08138852
254	0xbda20071	-0.079102404
255	0x3e96467c	0.2935065

pi.net.2.bias f4 [50]
0	0x3d4a5994	0.049401835
1	0xbd5202fd	-0.05127238
2	0xbd8d1fcc	-0.068908304
3	0x3e0d8165	0.13818891
4	0x3c4f1c1b	0.012640978
5	0x3e5b5f31	0.21423031
6	0x3dc9a087	0.09845071
7	0x3da24622	0.07923533
8	0x3b19a657	0.0023445094
9	0x3e03f184	0.128851
10	0xbd50366a	-0.050833143
11	0x3d9a14fd	0.075235344
12	0x3e06c4fa	0.13161078
13	0x3e3a9421	0.18220569
14	0xbb8d60e5	-0.0043145292
15	0x3dfa60a3	0.12225463
16	0x3dc06c66	0.09395675
17	0x3e2e1e24	0.17003685
18	0x3cce268b	0.025164863
19	0x3ca53851	0.020168455
20	0xbe33820e	-0.1753008
21	0xbc942e58	-0.018088505
22	0x3d791575	0.06081148
23	0x3df054d6	0.11734931
24	0x3d40e012	0.04708869
25	0x3dc2380c	0.09483346
26	0x3db5c84a	0.08876093
27	0x3e33a2d9	0.1754259
28	0x3d1f49dc	0.038888797
29	0x3cef136a	0.029184062
30	0x3dd851dd	0.10562489
31	0x3dd132fb	0.10214802
32	0x3de72bc4	0.112876445
33	0xbc4c87b4	-0.012483526
34	0xbdc7e49c	-0.09760401
35	0xbdbc745a	-0.0920188
36	0x3d4ee5cc	0.05051212
37	0xbd9ae88a	-0.075638846
38	0x3d89eff0	0.067352176
39	0xbba00e20	-0.0048844963
40	0x3dfe76ce	0.12425004
41	0x3db98e84	0.09060386
42	0xbe0d107d	-0.13775821
43	0xbc3b922c	-0.011448424
44	0x3e16f7bc	0.1474294
45	0x3bea8853	0.0071573644
46	0xbe041a35	-0.12900622
47	0x3e05343b	0.13008206
48	0xbcf12df5	-0.02944086
49	0xbe0c84a3	-0.13722472

pi.net.4.weight f4 [4, 50]
0	0xbe4836d1	-0.19552161
1	0xbe8ad456	-0.27115124
2	0xbe1fe3cc	-0.15614241
3	0xbb8181ea	-0.0039522545
4	0xbf0b46dc	-0.54405
5	0x3e0f60f6	0.14001831
6	0x3d96eebd	0.073697545
7	0xbd49b104	-0.04924108
8	0x3e2a8f32	0.16656187
9	0xbe57d058	-0.2107557
10	0x3eb0e2e8	0.34548116
11	0xbeadcb9f	-0.33944413
12	0x3deae99a	0.11470337
13	0x3e4bca95	0.19901498
14	0x3a0dfcdb	0.00054164015
15	0x3d04d8c2	0.03243328
16	0xbdc55317	-0.09634989
17	0x3ee4a07b	0.44653687
18	0xbe1abbeb	-0.15110748
19	0xbe265c44	-0.16246134
20	0x3d8f9399	0.07010574
21	0xbe17d5fa	-0.1482772
22	0x3ea01aa9	0.3127034
23	0xbe84b948	-0.25922608
24	0x3e6f675f	0.23379277
25	0xbeecfd53	-0.4628702
26	0xbc32c004	-0.010910038
27	0x3dc1cffc	0.09463498
28	0x3eae1529	0.3400052
29	0x3e29bdc5	0.16576298
30	0xbda2f8c1	-0.07957602
31	0x3ea6750d	0.32511178
32	0x3e1b6d36	0.1517838
33	0x3e464b87	0.19364749
34	0x3c5da511	0.013528124
35	0x3e76457b	0.24049942
36	0xbe31e3fb	-0.17372124
37	0xbdcfa8a2	-0.10139586
38	0x3d895c09	0.067070074
39	0xbe2f7573	-0.17134647
40	0x3eb1f618	0.34758067
41	0x3f096ddd	0.53683263
42	0xbe5fabae	-0.21842834
43	0x3ebd4e89	0.3697398
44	0x3df24551	0.11829627
45	0xbe397b95	-0.18113549
46	0x3dc46993	0.09590449
47	0x3d03b668	0.032156378
48	0xbe4773a4	-0.19477707
49	0xbde1dbb6	-0.11028235
50	0x3eb6b175	0.35682264
51	0xbe560be5	-0.20902975
52	0x3eca7799	0.3954437
53	0xbe160718	-0.14651144
54	0x3e1e94ca	0.15486446
55	0xbe889aba	-0.26680547
56	0x3e4899b5	0.19589885
57	0x3e0e7a7b	0.1391391
58	0xbe92b56b	-0.28654036
59	0xbe65449a	-0.2238945
60	0x3c82ac88	0.01595141
61	0x3e6c642f	0.23085092
62	0x3e39f794	0.1816085
63	0x3deaef34	0.114714056
64	0xbe93366c	-0.28752458
65	0xbe852e88	-0.26012063
66	0xbdedf947	-0.116198115
67	0x3dee466d	0.116345264
68	0xbe6f5504	-0.23372275
69	0xbe199d7a	-0.15001479
70	0x3e194503	0.14967732
71	0x3daf88af	0.08570992
72	0xbeb18712	-0.34673363
73	0x3e830a82	0.25593954
74	0x3e166beb	0.14689605
75	0x3df04561	0.11731983
76	0xbdf43c71	-0.11925591
77	0xbde96c0c	-0.113975614
78	0x3e4daaa5	0.20084627
79	0x3e88a8ba	0.26691228
80	0xbe48060d	-0.19533558
81	0x3e88450e	0.26615185
82	0x3d561955	0.052270252
83	0x3e4e3de7	0.20140801
84	0x3e4cc792	0.19998005
85	0x3ddf7e89	0.109128065
86	0xbe4b5a6c	-0.19858712
87	0xbe9f9dc8	-0.31175065
88	0xbe45f569	-0.19331898
89	0xbc8cdef8	-0.017196164
90	0x3d1ad88d	0.037804175
91	0xbe1c88d2	-0.15286568
92	0x3e40dfd9	0.18835391
93	0x3eb532cc	0.35390317
94	0x3df3ab37	0.11897891
95	0x3e7d9efc	0.24767679
96	0xbec5bf29	-0.38622406
97	0x3ea3183b	0.31854424
98	0x3e23c037	0.15991293
99	0x3e2e561e	0.17025039
100	0xbd69e83b	-0.057106238
101	0xbe57ecee	-0.21086475
102	0x3d814c40	0.06313372
103	0x3c257bff	0.010100364
104	0x3d04f774	0.032462552
105	0x3e75c0ed	0.23999377
106	0x3e6bd65d	0.23030992
107	0xbe805340	-0.25063515
108	0x3d97335b	0.07382842
109	0x3ea7cd40	0.3277378
110	0x3e8d7611	0.2762914
111	0xbd549935	-0.051903922
112	0x3eb3b053	0.35095462
113	0x3a0a6657	0.0005279532
114	0xbea57b88	-0.3232081
115	0xbeb8c0bf	-0.36084554
116	0xbeaa460a	-0.3325656
117	0xbe45908d	-0.19293423
118	0x3e7b987c	0.24569887
119	0x3d48b01d	0.04899608
120	0xbc41efa5	-0.011836921
121	0x3e265626	0.162438
122	0xbe4a698b	-0.19766824
123	0xbca8aa9e	-0.02058917
124	0x3da815fd	0.08207319
125	0x3e7ed8ee	0.2488744
126	0x3e8563a5	0.26052585
127	0x3d5c4dda	0.053785183
128	0x3cc351e1	0.023842754
129	0xbd904566	-0.07044487
130	0xbf14b97f	-0.58095545
131	0x3cc0bc07	0.023527158
132	0xbe4556d5	-0.19271405
133	0xbdb62ef8	-0.08895677
134	0x3c9229a3	0.01784212
135	0xbeb8e0d4	-0.3610903
136	0x3e5589c0	0.20853329
137	0xbe1adc29	-0.15123047
138	0x3e1da6b0	0.15395617
139	0x3e8a608e	0.2702679
140	0x3dae7ec6	0.08520274
141	0xbe6c98c1	-0.23105146
142	0x3e4a1430	0.19734263
143	0xbca7220a	-0.020401973
144	0xbd8179f7	-0.06322091
145	0x3d0dc567	0.034612086
146	0xbe07748c	-0.13228053
147	0x3dbc854e	0.09205113
148	0xbe5bc6d3	-0.21462564
149	0x3d7e38e6	0.06206598
150	0xbeeb5543	-0.45963487
151	0xbe8bce14	-0.27305663
152	0x3ed7cac4	0.42146885
153	0x3e40e19a	0.1883606
154	0xbeef54ee	-0.46744484
155	0x3e9dc3b8	0.30813384
156	0x3e832845	0.2561666
157	0x3e8fa200	0.28053284
158	0x3e822697	0.25420067
159	0x3e996538	0.29960036
160	0x3d49dcda	0.049282886
161	0x3e0b5bae	0.13609192
162	0xbd4bd2b2	-0.04976148
163	0x3d7b971f	0.061423417
164	0xbe8fc004	-0.28076184
165	0xbe39e1ed	-0.1815259
166	0x3e5f411a	0.21802178
167	0x3e0aaa72	0.13541582
168	0xbdb21d10	-0.086969495
169	0xbe58c44d	-0.21168633
170	0xbe661eb4	-0.2247265
171	0x3d56559e	0.052327745
172	0x3b87dda1	0.0041462933
173	0xbe90b930	-0.28266287
174	0xbdacfa58	-0.08446187
175	0xbe527d54	-0.20555621
176	0xbe2b21b9	-0.16712083
177	0x3e77a4d2	0.24183968
178	0xbd8c1180	-0.06839275
179	0x3db28a03	0.0871773
180	0xbd7e9f6a	-0.062163748
181	0x3e033307	0.12812434
182	0xbe983e6e	-0.2973513
183	0xbdef80fc	-0.11694524
184	0x3e806d9b	0.25083622
185	0xbe36970f	-0.17831062
186	0xbe25807a	-0.16162291
187	0x3e364046	0.17797956
188	0xbeab06d7	-0.33403656
189	0x3db49bac	0.088187546
190	0xbd99ccbf	-0.07509755
191	0xbbd5b301	-0.006521583
192	0xbb8e3226	-0.0043394743
193	0xbd782573	-0.06058259
194	0xbd78b3cb	-0.06071834
195	0x3e36e7af	0.17861818
196	0x3ce7a4b5	0.02827678
197	0xbe700077	-0.23437677
198	0xbe852f81	-0.26012805
199	0xbe9ac14e	-0.30225605

pi.net.4.bias f4 [4]
0	0x3987e451	0.00025919316
1	0xbd0533ee	-0.032520227
2	0xbcdda216	-0.027054828
3	0x3dd9f95f	0.10643267

v.net.0.weight f4 [64, 40]
0	0xbb7da456	-0.0038702688
1	0x3a74aa10	0.00093332026
2	0x3df08441	0.117439754
3	0x3d665216	0.056230627
4	0x3e756bd2	0.23966911
5	0xbe10473d	-0.14089675
6	0x3e45df9f	0.19323586
7	0xbd59f292	-0.05320985
8	0xbe74c909	-0.23904814
9	0x3dd17158	0.10226697
10	0xbe0fb46e	-0.14033672
11	0x3e35bfc1	0.1774893
12	0xbdbe62ab	-0.09296163
13	0xbd5874b5	-0.052845675
14	0x3d45d0f8	0.04829499
15	0xbd2d8cc7	-0.042370584
16	0x3d746c9d	0.059673894
17	0xbc82f6ac	-0.015986763
18	0x3d67e52a	0.056615032
19	0xbd75593f	-0.059899565
20	0xbc7e3b44	-0.01551706
21	0x3d95582b	0.07292207
22	0x3d9ec7b2	0.077529326
23	0x3d3cb0ac	0.046066925
24	0x3e9e901d	0.30969325
25	0xbe209213	-0.15680723
26	0x3ee81839	0.4533098
27	0xbe1618a6	-0.1465784
28	0xbe30f65a	-0.17281476
29	0x3e15419a	0.14575806
30	0x3d613e24	0.054990903
31	0x3ec3671e	0.3816461
32	0xbdbaf7d5	-0.091293015
33	0xbdfd447c	-0.12366578
34	0xbcc6e706	-0.024280082
35	0xbe337060	-0.17523336
36	0x3db28c4c	0.08718166
37	0x3c9d9093	0.019233977
38	0x3d421826	0.04738631
39	0xbb82d256	-0.003992359
40	0x3ea712a7	0.32631418
41	0xbf01727b	-0.5056531
42	0x3e692afd	0.22770305
43	0x3e9eb15c	0.3099469
44	0xbe3ece48	-0.18633378
45	0x3d494998	0.04914245
46	0x3cee3656	0.029078644
47	0xbf1944cc	-0.598706
48	0xbf109f6d	-0.56493264
49	0x3e382a2a	0.17984834
50	0x3d821944	0.06352475
51	0xbe148506	-0.1450387
52	0x3d90b7d7	0.07066315
53	0x3e15dc47	0.1463481
54	0x3c0d758d	0.008633983
55	0xbd5c1b2b	-0.053736847
56	0xbadba014	-0.0016756081
57	0x3ca50924	0.02014596
58	0xbb9856a8	-0.004649002
59	0x3d826667	0.06367188
60	0x3da81667	0.08207398
61	0xbf1d3e46	-0.61423147
62	0x3e5de0f6	0.21667847
63	0x3e673e11	0.2258227
64	0xbe588435	-0.21144183
65	0x3d3f931e	0.04677116
66	0xbe24f802	-0.16110232
67	0xbf3b0dc7	-0.730679
68	0xbedc74ee	-0.4305796
69	0x3ebbba39	0.36665514
70	0x3d99dff0	0.07513416
71	0xbeb0dad1	-0.34541944
72	0x3d89c234	0.067264944
73	0x3e4c338c	0.19941539
74	0x3de0a38d	0.10968695
75	0xbdf70bde	-0.1206281
76	0x3d3fff4c	0.04687433
77	0xbcf4b4d2	-0.029871378
78	0xbc832e03	-0.016013151
79	0x3d8aa9a3	0.06770637
80	0xbe841b76	-0.258022
81	0x3f0a7dad	0.54098016
82	0x3e31b7ea	0.17355314
83	0xbd3d1bd2	-0.04616911
84	0x3e6f6aab	0.23380534
85	0xbe4017fe	-0.18759152
86	0x3dfb8d8f	0.122828595
87	0x3f09f816	0.53894174
88	0x3ee3f226	0.44520682
89	0x3e999c4b	0.30002055
90	0x3e41c485	0.18922623
91	0x3d8d2e8e	0.06893645
92	0x3d41b654	0.047293022
93	0xbdf7d5ca	-0.12101324
94	0xbcd5aba9	-0.02608283
95	0xbda45802	-0.08024599
96	0x3db1da8b	0.08684262
97	0x3ce9630e	0.028489616
98	0x3d47a801	0.048744205
99	0xbb8bf5f1	-0.004271262
100	0xbf050190	-0.5195551
101	0x3f1deacd	0.616864
102	0x3d93683a	0.07197614
103	0xbd811d87	-0.0630446
104	0x3e1e3c9f	0.15452813
105	0xbaa968c9	-0.0012924905
106	0xbe9f7ddb	-0.31150708
107	0x3f039441	0.5139809
108	0x3f0984a1	0.53718
109	0x3e8f0e5c	0.27940643
110	0x3e017bf8	0.12644947
111	0x3e3b558f	0.18294357
112	0x3ccbd7c4	0.024883159
113	0xbe7d271e	-0.24721953
114	0x3c8b0e50	0.016974598
115	0xbdaceab2	-0.08443202
116	0x3df28e5b	0.118435584
117	0x3d0c3d4c	0.034238145
118	0xbc020388	-0.007935412
119	0x3cff22ac	0.031144463
120	0x3e1ece50	0.1550839
121	0xbf46e78c	-0.7769706
122	0xbda7153f	-0.08158349
123	0xbe8a4d79	-0.27012232
124	0xbd2cf820	-0.042228818
125	0xbe57136b	-0.21003501
126	0xbdb75d08	-0.08953291
127	0xbdd3726a	-0.10324557
128	0x3ee15293	0.44008312
129	0xbdc672bd	-0.09689853
130	0x3b32cfb8	0.0027284455
131	0x3d73fc46	0.05956676
132	0x3d6aa0b0	0.05728215
133	0xbd17af5f	-0.03703248
134	0xbedb9368	-0.428859
135	0x3b40d8e9	0.0029426164
136	0xbdf772d2	-0.12082447
137	0xbd6aab3e	-0.057292216
138	0xbe038279	-0.1284274
139	0xbd9748e3	-0.07386949
140	0x3e2d6f65	0.16937025
141	0xbf5e2177	-0.86769813
142	0x3e4d3daa	0.20043054
143	0xbe9e0cac	-0.30869043
144	0xbe0971ad	-0.1342227
145	0xbe4447b5	-0.19167979
146	0x3e03ee31	0.12883832
147	0xbd4a3ee9	-0.049376402
148	0x3f081a30	0.5316496
149	0x3d6b6ca9	0.057476673
150	0xbdbcc911	-0.09218038
151	0xbe170d77	-0.1475123
152	0x3c5afa48	0.013365336
153	0x3de6f129	0.112764664
154	0xbee85f86	-0.4538538
155	0x3d914009	0.07092292
156	0xbe03b59b	-0.12862246
157	0xbe04c580	-0.12965965
158	0xbdf7bfd7	-0.120971374
159	0xbc4a225b	-0.012337293
160	0x3ee21654	0.4415766
161	0x3f4b93e5	0.79522544
162	0x3cd6b50f	0.026209382
163	0x3e795ecb	0.24352567
164	0x3caf67fb	0.021411886
165	0x3e195452	0.14973572
166	0xbdff2aa4	-0.12459305
167	0x3ef981d9	0.48731878
168	0xbe4affd9	-0.1982416
169	0xbe910258	-0.283221
170	0x3d7d512e	0.061844997
171	0x3dd100d2	0.102052346
172	0x3e4cb96d	0.1999261
173	0xbd976dc5	-0.07393984
174	0x3ec94a52	0.39314514
175	0x3d19bb72	0.037532277
176	0xba55532f	-0.00081377005
177	0x3c432ef2	0.011913048
178	0x3cb72c48	0.022359982
179	0xbc96518b	-0.01834943
180	0x3f0e6957	0.55629486
181	0x3f58afc7	0.84643215
182	0x3e8fc793	0.2808195
183	0x3dd7a5aa	0.10529645
184	0x3cea466e	0.028598037
185	0x3df4c2e6	0.119512364
186	0x3e4e9355	0.2017339
187	0x3ec4f716	0.38469762
188	0xbe8802dd	-0.26564685
189	0xbe826be7	-0.25472948
190	0x3e75862d	0.23976965
191	0x3dedbda4	0.11608437
192	0x3d693ce7	0.056942847
193	0x3c3c3e68	0.011489488
194	0x3e99ae63	0.3001586
195	0xbe056d57	-0.13029991
196	0xbdb887f3	-0.09010305
197	0x3ba926ba	0.0051620873
198	0x3d1c02bf	0.038088556
199	0xbbdcf02a	-0.006742497
200	0x3d3390b0	0.043839157
201	0xbf7815ee	-0.9690846
202	0x3d93614e	0.07196294
203	0x3cbb3faa	0.022857506
204	0xbe2ab905	-0.16672142
205	0xbde90c53	-0.11379304
206	0xbd5e3e34	-0.05425854
207	0xbeafe012	-0.3435064
208	0xbdb395e2	-0.08768822
209	0xbea60894	-0.3242842
210	0xbcf2af2c	-0.029624544
211	0xbcb1b78e	-0.021693971
212	0x3d849d5b	0.06475326
213	0x3e89d26f	0.2691836
214	0xbe2af468	-0.16694796
215	0x3dc92daf	0.098231666
216	0xbdc10406	-0.094245955
217	0xbd0a4394	-0.033755854
218	0xbd5ac356	-0.053408943
219	0xbdb88e3f	-0.09011506
220	0x3e6850e1	0.22687103
221	0xbf8b764f	-1.089548
222	0xbd80a048	-0.06280571
223	0xbd87a93d	-0.066240765
224	0xbdfa5e96	-0.12225072
225	0x3dd369f2	0.10322942
226	0x3eee4684	0.46538174
227	0xbed1feaf	-0.4101462
228	0xbe38993f	-0.18027209
229	0xbe959f8d	-0.2922329
230	0x3e415950	0.18881726
231	0xbd782427	-0.060581353
232	0x3d2389b0	0.03992623
233	0x3e86dd33	0.26340637
234	0xbe28d7d6	-0.16488585
235	0x3d57b71d	0.052664865
236	0xbddd3abb	-0.108022176
237	0xbd971ebd	-0.0737891
238	0xbd5b0a80	-0.05347681
239	0xbd40ecee	-0.047100954
240	0x3e2095a9	0.15682091
241	0xbd6c0c73	-0.05762906
242	0xbd85de9d	-0.06536601
243	0xbe0fb9db	-0.14035742
244	0x3e841966	0.25800627
245	0x3dcd6290	0.10028565
246	0x3e23e272	0.16004351
247	0xbd2c1bf5	-0.04201885
248	0xbe2e28b8	-0.1700772
249	0xbf10fc95	-0.5663541
250	0x3c793544	0.015210453
251	0x3e10e001	0.1414795
252	0x3d3f8a8a	0.04676298
253	0x3bdad530	0.006678246
254	0xbdfa8379	-0.12232108
255	0x3e5ad89c	0.21371692

v.net.0.bias f4 [64]
0	0x3fb09fd5	1.3798777
1	0xbf246d5e	-0.6422938
2	0xbec38dec	-0.38194215
3	0x3d153074	0.03642316
4	0x3e5b6fa7	0.2142931
5	0x3d5d70be	0.054062597
6	0xbfe8fe86	-1.8202674
7	0xbf4ede43	-0.80807894
8	0x3f161d5b	0.5863854
9	0xbd83d34a	-0.064367846
10	0x3fe43f9a	1.783191
11	0x3e70e767	0.23525773
12	0x3f4c90b0	0.79908276
13	0x3e851298	0.25990748
14	0xbe03ceae	-0.12871811
15	0xbf47a0e8	-0.779799
16	0x3f2f7706	0.6854099
17	0xbf2e77f6	-0.68151796
18	0xbf48c1cb	-0.78420705
19	0x3e8bbb07	0.27291128
20	0x3f439ff2	0.7641593
21	0xbd9df8f3	-0.07713499
22	0x3e62a054	0.22131473
23	0xbf86ef1a	-1.0541718
24	0x3f495adf	0.78654283
25	0x3fb5e928	1.4211779
26	0xbee28e98	-0.44249415
27	0xbf7ec3f2	-0.9951774
28	0xbfcea946	-1.6145408
29	0xbe4739ad	-0.19455595
30	0xbee689f3	-0.45027122
31	0xbed943dc	-0.42434585
32	0x3ece8912	0.4033895
33	0xbf897d8b	-1.0741438
34	0x3d861a8e	0.06548034
35	0xbec9287d	-0.39288703
36	0x3f684fee	0.90746963
37	0xbf810bd6	-1.0081737
38	0x3de07d80	0.10961437
39	0xbf7b23a0	-0.98101234
40	0x3f1e227c	0.6177137
41	0xbee1b7f9	-0.44085672
42	0xbe6cfead	-0.23144026
43	0x3f4ded5d	0.8044031
44	0x3f02f6c6	0.51157796
45	0x3ffce194	1.9756341
46	0x3f1bd915	0.60878116
47	0xbf1e65fb	-0.6187436
48	0x3ee32364	0.44362938
49	0x3f68c135	0.9091981
50	0x3e260de5	0.16216238
51	0x3e4e94c5	0.20173939
52	0x3e5750da	0.21026936
53	0xbe05a738	-0.1305207
54	0xbeafe57a	-0.34354764
55	0xbff02e67	-1.8764161
56	0x3e97f551	0.2967935
57	0x3f216d41	0.63057333
58	0x3ea8480e	0.32867473
59	0xbe7ab9da	-0.24484959
60	0xbf9194af	-1.13735
61	0x3ec5f0e1	0.3866034
62	0xbe56c38c	-0.20973033
63	0xbe9a748e	-0.3016705

v.net.2.weight f4 [64, 64]
0	0xbd5cfd81	-0.053952698
1	0xbd0647e0	-0.03278339
2	0x3d0865af	0.033300098
3	0xbec6a480	-0.3879738
4	0x3e65845d	0.22413774
5	0xbdb22c85	-0.08699898
6	0xbc972820	-0.01845175
7	0x3c0ed3cd	0.008717489
8	0x3e91f4a4	0.28506958
9	0xbddf1904	-0.10893443
10	0xbe4f5882	-0.20248607
11	0xbdd347d8	-0.103164375
12	0xbe64dbe0	-0.223495
13	0xbec1fd24	-0.37888443
14	0x3df8dfcf	0.12152063
15	0x3d68256b	0.05667631
16	0xbd8262f3	-0.06366529
17	0xbda02843	-0.07820179
18	0xbdeb8da0	-0.11501622
19	0xbd46e47e	-0.04855775
20	0xbe6e3d10	-0.23265481
21	0x3dce4f7a	0.10073753
22	0xbe2cd3ac	-0.16877621
23	0xbe209c75	-0.15684684
24	0xbce99951	-0.02851549
25	0x3b84794d	0.0040427805
26	0x3e596c7c	0.2123279
27	0xbdeb4af1	-0.11488903
28	0x3ec69cf1	0.38791612
29	0x3d45268e	0.04813247
30	0xbc7cd106	-0.015430694
31	0x3e6fb3eb	0.23408477
32	0xbdd43182	-0.10361005
33	0xbd74a9e5	-0.059732337
34	0x3c205d19	0.009787821
35	0x3db05ae6	0.086110875
36	0x3e5d2023	0.2159429
37	0xbd2eecc4	-0.042706266
38	0xbe58d47c	-0.21174806
39	0x3cda6b27	0.026662422
40	0xbee34171	-0.44385865
41	0x3e33cd8d	0.1755888
42	0x3e84aca7	0.25912973
43	0xbda6ec27	-0.08150511
44	0xbe0f80d5	-0.1401399
45	0xbda63364	-0.08115271
46	0x3e350e62	0.17681268
47	0xbd9719c6	-0.07377963
48	0xbd14d8c4	-0.036339536
49	0xbe21ba44	-0.15793711
50	0xbd5906c2	-0.05298496
51	0xbcc21150	-0.023689896
52	0xbdd1e6a4	-0.10249069
53	0xbc8e4ef0	-0.017371625
54	0xbd928828	-0.07154876
55	0xbd885bb9	-0.0665812
56	0xbe4666de	-0.19375178
57	0xbc9278ef	-0.017879931
58	0x3e26b458	0.16279733
59	0x3d220646	0.039556764
60	0xbd5ecf04	-0.054396644
61	0x3e4e4745	0.20144375
62	0xbe823401	-0.254303
63	0xbd0cc3e6	-0.03436651
64	0x3dad7ede	0.084714636
65	0x3e0ef76a	0.13961568
66	0x3dec1443	0.11527302
67	0x3eaaed3f	0.3338413
68	0xbe8eae9d	-0.27867594
69	0x3e473a98	0.19455945
70	0x3e240ceb	0.16020553
71	0x3c19d930	0.00939016
72	0xbe419a79	-0.18906583
73	0x3dd13637	0.10215419
74	0xbdd2f6bd	-0.10300968
75	0x3e3b621a	0.18299142
76	0xbcf11e5d	-0.029433424
77	0x3e78e6d5	0.24306805
78	0xbe2ef321	-0.17084934
79	0xbbca7107	-0.0061780247
80	0x3d3c6867	0.045998003
81	0x3d2fb0dc	0.042893276
82	0x3e043c85	0.12913711
83	0x3e494c43	0.19657998
84	0x3db6b99d	0.08922122
85	0xbc8247ee	-0.01590344
86	0x3d399514	0.045308188
87	0x3e03351e	0.12813231
88	0x3cfede3a	0.031111825
89	0xbd649f32	-0.055815883
90	0xbd89765c	-0.067120284
91	0x3e577716	0.21041521
92	0xbe3689fa	-0.17826071
93	0xbe3dd3a7	-0.1853777
94	0xbe41ef0e	-0.18938848
95	0xbe11f181	-0.14252283
96	0x3d99ea52	0.07515396
97	0x3e07a807	0.13247691
98	0xbd1092db	-0.035296302
99	0x3e4e0e6b	0.20122688
100	0xbe5aa967	-0.21353684
101	0xbd221658	-0.03957209
102	0x3e1466d0	0.14492345
103	0x3d91f0a5	0.071259774
104	0x3dcc49ca	0.09975012
105	0x3d0d90de	0.034561984
106	0xbdde52c2	-0.108556286
107	0x3ccbbb03	0.024869448
108	0x3e3f32ad	0.18671675
109	0xbe9dce88	-0.30821633
110	0xbcfe6928	-0.031056002
111	0x3d83cbda	0.06435366
112	0x3cc077f8	0.023494706
113	0xbd8028a9	-0.06257755
114	0x3e186aa8	0.14884436
115	0xbdd76434	-0.10517159
116	0x3dca96b9	0.09892029
117	0x3e6b1734	0.2295807
118	0x3e4d318b	0.2003843
119	0x3e6e215d	0.23254915
120	0x3d9d201e	0.076721415
121	0x3d9b9069	0.075959034
122	0xbdfb37be	-0.12266491
123	0x3d5cf8bb	0.053948145
124	0x3e7da743	0.24770837
125	0xbe41d3f8	-0.18928516
126	0x3e35f502	0.17769244
127	0xbd07374b	-0.033011716
128	0x3e1232a4	0.1427713
129	0x3ef12747	0.4710028
130	0xbe095bf3	-0.13413982
131	0x3e88b9ca	0.26704246
132	0xbdc4306b	-0.095795475
133	0x3c5e9d15	0.013587256
134	0xbdd77e71	-0.10522164
135	0x3ea5071d	0.3223199
136	0x3e1eb2e6	0.15497932
137	0x3e51eead	0.20501204
138	0x38f74fb8	0.000117927266
139	0x3e37187e	0.17880437
140	0xbe021671	-0.12703873
141	0x3e7f09b7	0.2490605
142	0xbe20279d	-0.15640111
143	0xbda24b1f	-0.079244845
144	0x3d992889	0.074784346
145	0x3c0d93c2	0.008641185
146	0xbd893455	-0.06699435
147	0xbe1256e4	-0.14290959
148	0xbd7db087	-0.061935928
149	0xbe0c7759	-0.13717403
150	0xbd385d16	-0.04501065
151	0xbd1b6857	-0.037941303
152	0x3d8d6de7	0.06905728
153	0x3e07039b	0.13184969
154	0x3dc03bb7	0.0938639
155	0x3d18dcce	0.03731995
156	0xbeaf8e81	-0.3428841
157	0xbe354c16	-0.17704806
158	0x3cb8fb93	0.022580897
159	0x3daaea3b	0.08345457
160	0x3e3044fc	0.17213815
161	0x3dbb6491	0.09150041
162	0x3d913c84	0.070916206
163	0x3e7f237b	0.24915878
164	0xbe85c918	-0.26129985
165	0xbd641aa3	-0.055689465
166	0x3d8f1743	0.06986859
167	0xbca34a7f	-0.019932983
168	0x3d5c18ad	0.05373447
169	0xbe15279c	-0.14565891
170	0xbed9502c	-0.4244398
171	0x3d4f55f2	0.050619073
172	0x3ddb8886	0.10719399
173	0x3e34f401	0.17671205
174	0x3e870d0d	0.26377144
175	0x3d76e86f	0.06028026
176	0xbd94afd9	-0.07260103
177	0xbe4f2381	-0.20228387
178	0x3e01b1cb	0.12665479
179	0x3d13ea16	0.036111914
180	0x3d8d3460	0.06894755
181	0x3e15d79a	0.14633027
182	0x3e194f31	0.14971615
183	0xbda24693	-0.07923617
184	0x3e74566a	0.2386109
185	0xbd09b038	-0.03361532
186	0x3dff0263	0.12451627
187	0xbe85b3f7	-0.26113865
188	0x3d885968	0.06657678
189	0xbd670d91	-0.056409422
190	0x3db16d35	0.08663408
191	0xbc8259f6	-0.015912037
192	0xbd4c7b08	-0.04992202
193	0xbd3bcea5	-0.04585137
194	0xbc7416a9	-0.014897981
195	0xbe757343	-0.2396975
196	0x3e8f5cf9	0.2800062
197	0xbd1ef0ba	-0.038803793
198	0xbd86a1f9	-0.065738626
199	0x3e159d39	0.14610757
200	0x3ea318ac	0.3185476
201	0x3cfc76e1	0.030818405
202	0x3ddb1290	0.106969
203	0xbe169853	-0.14706545
204	0xbe51e173	-0.20496158
205	0xbe9f41f8	-0.31105018
206	0x3e39733b	0.18110363
207	0x3d7a8576	0.061162435
208	0xbd990993	-0.07472529
209	0x3c8d6b23	0.017263
210	0xbe4f4db1	-0.2024448
211	0xbdb54b13	-0.0885221
212	0xbe2bf51e	-0.16792724
213	0x3e202be2	0.1564174
214	0xbdf1fc01	-0.11815644
215	0xbd6174dc	-0.055043086
216	0xbde0fac5	-0.109853305
217	0xbc797b03	-0.015227082
218	0x3e07aaed	0.13248797
219	0xbe3d41fb	-0.18482201
220	0x3ea86932	0.32892758
221	0x3d2e3264	0.042528525
222	0x3e04ebc3	0.12980561
223	0x3e42c56f	0.19020627
224	0xbd0084f6	-0.0313768
225	0xbe69bd4a	-0.22826114
226	0xbdeb9fc7	-0.115050845
227	0xbd9201dc	-0.07129261
228	0x3e55f213	0.20893125
229	0x3d18e135	0.03732415
230	0xbd244a6c	-0.040110037
231	0xbe3bfe83	-0.18358807
232	0xbe8f09ca	-0.27937156
233	0x3cb6e63c	0.022326581
234	0x3e8c7360	0.27431774
235	0xbcee5301	-0.029092314
236	0xbe0b27cf	-0.13589405
237	0x3e677977	0.22604929
238	0x3e891c24	0.26779282
239	0xbdcfde29	-0.101497956
240	0x3d9d1f11	0.07671941
241	0x3d767109	0.060166392
242	0xbdc924ff	-0.098215096
243	0x3d933453	0.071877144
244	0xbe5e5ab0	-0.21714282
245	0xbd9a2211	-0.07526029
246	0xbe8b7f43	-0.2724553
247	0xbe46294b	-0.1935169
248	0x3d8ae407	0.06781774
249	0xbdc0bb68	-0.09410745
250	0x3e55847b	0.20851319
251	0xbd74ceeb	-0.059767645
252	0xbe071ea4	-0.13195282
253	0x3df1c589	0.11805255
254	0xbe52e56d	-0.20595331
255	0xbdae62cb	-0.08514937

v.net.2.bias f4 [64]
0	0xbf0d0c4f	-0.55096906
1	0x3eebc400	0.46047974
2	0xbf1a4e8a	-0.6027609
3	0xbee956aa	-0.45573932
4	0xbe96af62	-0.2943068
5	0x3cf669ed	0.030079806
6	0x3ee77a1b	0.45210347
7	0x3db884e4	0.09009722
8	0xbee0f62b	-0.4393781
9	0xbeb94522	-0.36185557
10	0x3eecd196	0.4625365
11	0xbedcc161	-0.43116286
12	0x3e9a132a	0.30092746
13	0x3e930628	0.28715634
14	0xbf06b626	-0.52621686
15	0xbf1dc99f	-0.61635774
16	0xbedcf335	-0.43154302
17	0x3ea976e5	0.33098522
18	0x3efacd70	0.4898486
19	0xbe834355	-0.25637308
20	0xbd325a7a	-0.043543316
21	0x3ef56ca6	0.47934455
22	0x3d6bab61	0.057536487
23	0xbe8c92b9	-0.2745569
24	0x3eb46f4d	0.35241166
25	0x3e619912	0.22031048
26	0x3e8f22ac	0.2795614
27	0xbca8ae89	-0.020591037
28	0xbd33fef5	-0.043944318
29	0x3f8843d7	1.0645703
30	0xbece158e	-0.4025082
31	0x3f8370e7	1.026883
32	0x3eee5a3a	0.46553212
33	0x3e8bcde5	0.27305523
34	0xbe8eb10f	-0.2786946
35	0xbea3cd6c	-0.31992662
36	0x3e7bf0bf	0.24603556
37	0x3db4785b	0.088120185
38	0xbd31cca9	-0.04340807
39	0xbe8bfc19	-0.27340773
40	0xbe90c0ed	-0.2827219
41	0xbeebf488	-0.46085
42	0xbe49e8d6	-0.19717726
43	0xbf6e416c	-0.93068576
44	0x3e3e8221	0.18604328
45	0x3ef85df5	0.48509184
46	0x3e389bab	0.18028133
47	0x3eefcae6	0.46834487
48	0x3e939195	0.28822008
49	0x3ed4a7cf	0.41534278
50	0x3e2a36ba	0.16622439
51	0xbea10ba1	-0.31454185
52	0x3e85f25e	0.26161474
53	0x3ec8dd19	0.39231184
54	0x3e5ff7b9	0.21871842
55	0x3e0c7aa4	0.13718659
56	0xbf3a7ce9	-0.7284685
57	0xbee7f2e7	-0.45302507
58	0x3d363edc	0.04449354
59	0x3eacfc8f	0.33786437
60	0x3eda4817	0.42633125
61	0xbef3d723	-0.47625074
62	0xbe91af52	-0.2845407
63	0xbed4528d	-0.4146923

v.net.4.weight f4 [1, 64]
0	0x3d5d51df	0.054033156
1	0xbd8b9b7a	-0.06816764
2	0x3d993dfe	0.07482527
3	0x3dbb12b5	0.091344275
4	0x3d99a9f1	0.07503117
5	0xbdb5f23a	-0.08884092
6	0xbd916763	-0.070997976
7	0x3e21aa3e	0.15787598
8	0x3d6413ff	0.055683132
9	0x3d0b04c8	0.033940107
10	0xbd9d8a8e	-0.07692443
11	0x3da7b9d4	0.08189741
12	0xbbf9122c	-0.007601043
13	0xbe0bc48c	-0.13649195
14	0x3d997035	0.07492105
15	0x3e648846	0.22317609
16	0x3dad17d9	0.08451814
17	0x3dd5023c	0.10400817
18	0xbd46a238	-0.048494548
19	0x3d879527	0.066202454
20	0xbd986e48	-0.074429095
21	0xbe0378b7	-0.12839018
22	0xbc2954d1	-0.010335163
23	0x3d68aa03	0.05680276
24	0xbd991911	-0.07475484
25	0x3e324763	0.17410044
26	0x3d6b0846	0.057380937
27	0xbdbcf2d7	-0.092260055
28	0x3e55cd96	0.20879206
29	0xbe7ec1a1	-0.24878551
30	0x3d61af91	0.055099074
31	0xbea498a5	-0.3214771
32	0xbda358a5	-0.07975892
33	0x3d4c302b	0.049850624
34	0xbe16f877	-0.1474322
35	0x3d0a2b36	0.033732615
36	0xbc602475	-0.013680567
37	0x3ccd4d7c	0.025061361
38	0xbdd1d526	-0.10245733
39	0x3c8020f1	0.015640708
40	0x3d41e4d4	0.047337368
41	0x3e07fd06	0.13280115
42	0x3cdf2905	0.02724124
43	0x3ea81521	0.3282862
44	0xbcd61ec4	-0.026137717
45	0xbd59ae61	-0.053144816
46	0xbcc26f5b	-0.023734739
47	0xbdf99773	-0.1218709
48	0xbc5a6d7a	-0.013331765
49	0xbd9b72d0	-0.07590258
50	0x3dfa1a80	0.12212086
51	0x3db5b47e	0.08872317
52	0x3d93cc76	0.07216732
53	0xbda27b0d	-0.07933626
54	0xbd9847f1	-0.07435597
55	0xbdb7c10f	-0.0897237
56	0x3e68a779	0.22720136
57	0x3d4212f3	0.047381353
58	0x3e904633	0.28178558
59	0xbcc0f44b	-0.023553988
60	0xbd549f57	-0.05190977
61	0x3d7c4178	0.061585873
62	0x3cdd6a9e	0.027028378
63	0x3d7102a5	0.058840413

c.net.0.weight f4 [64, 40]
0	0x3d04292b	0.032265823
1	0x3cb55632	0.022135828
2	0xbdbf807e	-0.0935068
3	0xbd87d368	-0.066321194
4	0xbd740291	-0.05957276
5	0xbc8c2960	-0.017109573
6	0xbda7e139	-0.08197255
7	0x3e0a3193	0.13495474
8	0xbd4d35ee	-0.05010026
9	0xbd32510f	-0.043534335
10	0xbe02d76a	-0.12777486
11	0x3d2e07ca	0.042487897
12	0xbbfc99bb	-0.007708756
13	0xbdf551b3	-0.119784735
14	0xbcbc6816	-0.02299885
15	0x3d9f3634	0.0777401
16	0x3d9268bd	0.071488835
17	0x3e0c7a7b	0.13718598
18	0xbb6fb35d	-0.0036575415
19	0x3defe1bb	0.117129765
20	0x3dd6ec5c	0.10494301
21	0x3e04a217	0.12952457
22	0xbd332a8b	-0.043741744
23	0xbd873fab	-0.066039406
24	0x3d03c3b8	0.032169074
25	0x3dee0387	0.116217665
26	0x3d0d008d	0.034424353
27	0x3d64ef7b	0.05589245
28	0x3db33a6a	0.08751376
29	0x3d7987b0	0.060920417
30	0xbd4c024d	-0.04980688
31	0x3d098eca	0.03358344
32	0x3ae583c0	0.0017510578
33	0xbdff255e	-0.12458299
34	0xbde90f35	-0.11379854
35	0xbd3d53f9	-0.04622266
36	0x3db4bfd7	0.08825653
37	0xbdca3ada	-0.09874506
38	0xbd9ec0ee	-0.07751642
39	0xbe15b1c1	-0.14618589
40	0x3df32002	0.118713394
41	0x3e03f03f	0.12884615
42	0x3c7ede02	0.0155558605
43	0xbc51d2c4	-0.012806598
44	0xbd56792a	-0.052361645
45	0xbdd86cd3	-0.105676316
46	0xbda94b52	-0.08266319
47	0x3cee5858	0.02909486
48	0xbd907102	-0.070528045
49	0x3ab12e72	0.001351787
50	0x3da5fce8	0.08104879
51	0xbdf7c663	-0.12098386
52	0x3e1e9986	0.15488252
53	0x3dc56efb	0.096403085
54	0xbe023010	-0.12713647
55	0x3de4097c	0.111346215
56	0x3d9f32c3	0.07773354
57	0x3d906d8f	0.07052147
58	0xbdbd37e6	-0.092391774
59	0x3d4419cf	0.047876175
60	0xbd869277	-0.06570905
61	0x3d9b3ff3	0.07580557
62	0x3e105530	0.14094996
63	0xbd3b91dd	-0.045793403
64	0xbcc07b16	-0.023496192
65	0xbe0f8b04	-0.14017874
66	0x3ddc4d92	0.10756983
67	0xbd72223c	-0.05911468
68	0x3ddb0780	0.1069479
69	0x3d869a16	0.06572358
70	0xbbbba5af	-0.005726538
71	0xbe17e4fb	-0.14833443
72	0xbd369bc1	-0.044582132
73	0x3d2f4fdb	0.042800765
74	0xbd8a5931	-0.06755293
75	0xbdcab39f	-0.09897541
76	0xbe025323	-0.12727027
77	0xbd44b5e3	-0.048025023
78	0x3ccc0739	0.024905788
79	0xbd0b1082	-0.03395129
80	0x3ccaaa11	0.024739297
81	0xbde9ef5a	-0.11422606
82	0xbd9addf0	-0.075618625
83	0x3d9c16e5	0.07621554
84	0x3dd50911	0.1040212
85	0xbda5bd93	-0.08092799
86	0xbd040bb8	-0.03223774
87	0xbe17ed93	-0.14836721
88	0xbd3c845e	-0.046024673
89	0x3d29f7b2	0.041495986
90	0xbbf4a5b3	-0.007466042
91	0xbdc647b4	-0.09681645
92	0xbdd89e55	-0.105770744
93	0x3dea9525	0.11454228
94	0x3c8247f3	0.015903449
95	0xbe03accc	-0.12858886
96	0x3c3321d9	0.010933363
97	0x3df24d01	0.118310936
98	0x3e10d07e	0.14142033
99	0x3dd7c4b6	0.105355665
100	0x3d91a0b9	0.071107335
101	0x3d8100bc	0.06298968
102	0x3df80b58	0.12111539
103	0x3dd62da5	0.10457925
104	0x3dccabb6	0.09993689
105	0xbba5631a	-0.005047214
106	0x3e0bf932	0.13669279
107	0x3d9217b7	0.071334295
108	0x3de9bc9e	0.11412929
109	0x3d02a33e	0.03189396
110	0xbe0e1be6	-0.1387783
111	0x3c2b420e	0.01045276
112	0xbd39215f	-0.04519784
113	0x3e02e88b	0.1278402
114	0x3d66a334	0.056307986
115	0x3e1ff173	0.1561945
116	0xbe164e7c	-0.14678377
117	0xbdee3a53	-0.11632218
118	0xbd3fa74a	-0.0467904
119	0xbcf3053a	-0.029665578
120	0xbdc2a6e0	-0.09504485
121	0x3e1aa139	0.15100564
122	0x3de3c45c	0.11121437
123	0x3c621165	0.0137980925
124	0x3dc6dcd3	0.097100876
125	0x3c2ac54d	0.010423017
126	0x3d6954a8	0.0569655
127	0xbe1a8542	-0.15089896
128	0xbdf6e359	-0.12055082
129	0x3c845dbe	0.016157981
130	0x3e014f8c	0.12628001
131	0x3dbb4df9	0.091457315
132	0x3c840a4c	0.016118191
133	0x3dfeb25f	0.12436365
134	0xbdb90c22	-0.09035517
135	0xbe1d0039	-0.15332116
136	0x3d1fb75c	0.038993225
137	0xbdff2867	-0.12458878
138	0x3d6391b6	0.055558883
139	0x3d7392ae	0.059466057
140	0x3e1fb7e5	0.15597494
141	0xbe13df0b	-0.14440553
142	0x3db71f97	0.08941572
143	0xbd602554	-0.0547231
144	0x3e198611	0.14992549
145	0x3e088041	0.13330175
146	0x3d7b2cec	0.061322138
147	0xbdb987c3	-0.090590976
148	0xbd9d2f70	-0.076750636
149	0xbe036ff3	-0.12835674
150	0x3cd5b8b3	0.026089048
151	0x3c6ac92d	0.014330191
152	0xbe1aee44	-0.15129954
153	0xbce21b70	-0.027600974
154	0x3e07502b	0.13214175
155	0xbdebdaeb	-0.11516365
156	0x3d096548	0.033543855
157	0x3ce5d621	0.028056206
158	0x3de01250	0.10940993
159	0x3dbcd1d8	0.09219712
160	0xbbd3967f	-0.0064571495
161	0x3e19e1e8	0.15027583
162	0x3dabc700	0.083875656
163	0xbe176091	-0.14782931
164	0x3e169989	0.14707007
165	0x3dfe19a9	0.12407238
166	0x3dff23bd	0.124579884
167	0x3d04b223	0.032396447
168	0x3d6c49ed	0.05768769
169	0x3d856b30	0.06514585
170	0xb775b57f	-1.4645396e-05
171	0x3da00fcc	0.07815513
172	0xbd34cca8	-0.044140488
173	0x3de772e5	0.11301211
174	0xbdc50a80	-0.09621143
175	0x3dfeb996	0.124377415
176	0xbd5891a5	-0.052873272
177	0xbbb698ca	-0.005572413
178	0x3cf448c5	0.029819855
179	0x3c0bba06	0.008528238
180	0xbde7db89	-0.1132117
181	0xbcab54fd	-0.020914549
182	0x3d39d6c4	0.045370832
183	0xbe070ca1	-0.13188411
184	0xbd50766b	-0.050894182
185	0x3dcbd056	0.09951846
186	0x3d6de4f6	0.058079682
187	0x3d5d78cb	0.054070275
188	0x3ab516fd	0.0013816055
189	0xbe066bbf	-0.1312704
190	0xbdb8219a	-0.08990784
191	0xbd123bb2	-0.03570146
192	0xbd4cff43	-0.050048124
193	0xbbc38f99	-0.005968046
194	0xbe101513	-0.14070539
195	0x3e0ca31c	0.13734096
196	0x3db0005e	0.0859382
197	0xbce5bee3	-0.028045123
198	0x3d000235	0.031252105
199	0xbda6df51	-0.08148063
200	0xbe0d66b3	-0.13808708
201	0xbdf8c438	-0.12146801
202	0xbbfeecdf	-0.007779702
203	0xbe033f8c	-0.1281721
204	0x3dae4815	0.08509842
205	0x3d98865f	0.07447504
206	0x3b0ac321	0.0021173435
207	0x3d1f536f	0.038897928
208	0xbcf07b9e	-0.02935582
209	0xbdb87c1d	-0.09008048
210	0xbd5f1d32	-0.054471202
211	0xbd68771a	-0.05675421
212	0xbe12ab57	-0.14323173
213	0x3df15946	0.11784606
214	0xbdb01be9	-0.085990734
215	0xbbdb9599	-0.006701183
216	0xbe0c1217	-0.13678776
217	0x3dae0ca4	0.08498505
218	0xbc7f3d1d	-0.015578535
219	0x3cedc01f	0.029022275
220	0xbe174f6a	-0.14776388
221	0xbdd55c3c	-0.10417983
222	0xbdf4ec26	-0.11959104
223	0x3da83065	0.082123555
224	0xbdfd4454	-0.12366548
225	0xbde507eb	-0.11183151
226	0xbc0b1a54	-0.008490164
227	0x3e10e5b4	0.14150125
228	0x3cacfb1d	0.021115834
229	0xbdd22325	-0.102606095
230	0xbd2ce842	-0.042213686
231	0x3d17c94c	0.037057206
232	0x3d33e038	0.043915004
233	0xbe1ca33f	-0.15296648
234	0x3e14d76b	0.145353
235	0xbd37af81	-0.044845108
236	0x3d134285	0.03595211
237	0xbe0385d1	-0.12844016
238	0x3dc9c3d3	0.09851804
239	0xbdaecd06	-0.08535199
240	0x3cc8b946	0.024502408
241	0xbd9cc032	-0.07653846
242	0x3d263a56	0.040582977
243	0xbdcf8b1e	-0.101339564
244	0x3d45882e	0.048225574
245	0x3e13f065	0.14447172
246	0x3cbc5be9	0.022993045
247	0x3e127b1b	0.14304774
248	0xbc3c1d61	-0.011481614
249	0xbd97bfc8	-0.07409626
250	0x3e0a7c10	0.13523889
251	0xbdb2e967	-0.08735924
252	0x3c99cd16	0.01877455
253	0x3e1f7d51	0.15575148
254	0x3cc3c8e0	0.023899496
255	0xbdde8fc9	-0.108672686
