experiments/07_control_structure_hypothesis/checkpoints/AttitudeRate/ppo/2021-12-14__18-09-23/seed_00065/torch_save/model.pt (torch, 82448 bytes, 19 tensors)

obs_oms.mean f4 [40]
0.25642368 -0.004058852 1.0087901 -0.0011128003 -0.0014986851 -0.025525665 0.9950457 -0.003971935
-0.00038316922 -0.005631717 -0.004999106 -0.019091044 0.0010502659 -0.0059390953 0.0029849196 -0.008790118
0.3972568 -0.011053215 -0.011746351 -0.01907915 0.25638178 -0.0040613622 1.0087287 -0.0011445753
-0.0015990376 -0.025569396 0.9950753 -0.004280167 -0.00024891592 -0.00617789 -0.0052575716 -0.019812016
0.0016399496 -0.0059199743 0.002977587 -0.008729135 0.3978192 -0.011294283 -0.012593482 -0.017642522
00000000: f749 833e 1e00 85bb 0920 813f 62db 91ba
00000010: 876f c4ba 331b d1bc 51bb 7e3f 0127 82bb
00000020: 1ae4 c8b9 448a b8bb 8acf a3bb d264 9cbc
00000030: 13a9 893a be9c c2bb a49e 433b 6d04 10bc
00000040: 3e65 cb3e 8b18 35bc c473 40bc e14b 9cbc
00000050: 7944 833e 2d15 85bb 061e 813f 9305 96ba
00000060: cc96 d1ba e976 d1bc 41bd 7e3f a540 8cbb
00000070: ee80 82b9 e66f cabb b547 acbb cf4c a2bc
00000080: 94f3 d63a 58fc c1bb 9f23 433b a504 0fbc
00000090: f5ae cb3e a80b 39bc e454 4ebc 0d87 90bc

obs_oms.std f4 [40]
0.17252876 0.17696683 0.031982064 0.054114968 0.053025547 0.06151912 0.0055503305 0.36329326
0.37432992 0.14745072 0.6159647 0.5796799 0.26826873 0.05412401 0.053518455 0.031981993
0.6640366 0.63982856 0.5917765 0.4708427 0.1727447 0.17718528 0.032477543 0.053876612
0.052799452 0.061506424 0.005529214 0.36525348 0.37638128 0.1507344 0.6163081 0.58022976
0.268588 0.055016905 0.05438882 0.03247752 0.6637331 0.6349796 0.5881828 0.47042447
00000000: 61ab 303e cb36 353e a0ff 023d a8a7 5d3d
00000010: 5131 593d 79fb 7b3d 8cdf b53b 9301 ba3e
00000020: 2ca8 bf3e 52fd 163e ddaf 1d3f e765 143f
00000030: 855a 893e 23b1 5d3d 2b36 5b3d 8dff 023d
00000040: 4dfe 293f cecb 233f aa7e 173f 4b12 f13e
00000050: fde3 303e 0f70 353e 2c07 053d b9ad 5c3d
00000060: 3d44 583d 29ee 7b3d 692e b53b 8102 bb3e
00000070: 0cb5 c03e 1e5a 1a3e 5ec6 1d3f f089 143f
00000080: 5e84 893e 6859 613d d0c6 5e3d 2607 053d
00000090: 6aea 293f 068e 223f 2693 163f 7adb f03e

pi.log_std f4 [4]
-4.5100417 -4.5100417 -4.5100417 -4.5100417
00000000: 4352 90c0 4352 90c0 4352 90c0 4352 90c0

pi.net.0.weight f4 [50, 40]
0.429227 -0.03914288 0.004626507 -0.219275 0.2763174 -0.04264468 0.079530895 0.4435859
0.250989 -0.015663387 -0.03863009 0.062291723 0.07630643 0.081953965 -0.17178954 0.06423143
0.12517358 0.0007388288 0.01783211 -0.06430809 0.3784675 -0.092763245 0.07601444 -0.4636877
0.26845044 -0.08385723 0.18142158 0.41316408 0.24878071 0.05251063 -0.105905324 0.15406063
-0.17292339 -0.11111477 -0.3187894 -0.13104686 0.03651808 -0.16505179 0.15288988 0.04113063
0.2680947 -0.13736284 -0.027561758 -0.14398825 0.09930863 -0.23277032 0.41534474 0.103222564
0.2582553 0.17160782 -0.10485454 -0.29460648 -0.032199554 -0.13583486 -0.15035297 0.0018205383
-0.14181499 -0.18738422 -0.046380423 -0.14142266 0.22226417 0.05546774 0.22006775 -0.1167533
0.120860524 -0.09484782 0.17378455 -0.0677439 0.032972593 0.07666422 -0.11868351 0.0032554772
-0.26191965 0.04261962 -0.17924608 -0.22248188 -0.08536996 -0.064915694 -0.03671648 0.06872215
0.011211762 0.03025741 -0.042761248 -0.17358412 -0.056397215 -0.11797809 0.20468904 0.15414158
0.14969417 0.09124027 0.2172992 -0.034809496 0.18268147 0.07652921 0.11395357 -0.100483015
0.047318503 0.2454931 -0.14589824 -0.0376029 0.20488316 0.037903786 0.21329823 -0.08450454
0.10725542 -0.058204792 -0.0058349445 0.26582924 0.11977147 0.18829647 0.10570113 -0.08535507
0.05493811 0.11432367 0.20784721 -0.027917648 -0.11023548 0.16273627 -0.023971168 -0.063560605
0.14130582 -0.2543334 0.1593474 0.32378832 0.28397185 0.095505826 0.082559496 0.044635806
-0.25524148 0.16068006 0.07999517 0.083923556 -0.16895531 -0.13742591 -0.024457749 0.048386265
0.27449042 -0.014713064 0.08065946 -0.1783978 0.1493891 -0.3520039 -0.12564673 0.2535308
0.122317344 -0.009538001 -0.05216933 0.007836897 -0.43899474 0.22502993 0.13392572 0.06354982
-0.1519743 -0.19002756 0.05650085 -0.14745276 0.19643442 -0.18981914 -0.022014413 -0.17825738
-0.22973508 -0.036500636 0.026013268 0.116445586 -0.070199884 -0.1535362 -0.05647835 -0.0783094
-0.3313542 0.2800401 0.008039322 -0.14081678 0.06786808 0.24419244 -0.03515628 -0.18072711
0.03184689 -0.131576 0.033071518 0.028243849 -0.15398933 0.2088114 0.1419254 0.17939863
-0.17598473 0.024489349 -0.049872655 0.022445709 -0.26234332 0.18430951 -0.023502158 0.21210885
-0.03242915 0.12745601 0.23436601 -0.20708425 -0.036332965 -0.02119372 -0.187175 0.1659294
0.16104673 -0.205565 -0.065815985 -0.031134656 0.16922326 -0.36498073 -0.1508879 0.17000581
0.19813938 -0.025269702 -0.08863746 -0.1986088 -0.06621891 -0.38792917 -0.09247004 -0.11521454
-0.23379207 -0.0348037 -0.18998912 0.3825938 0.16744459 -0.35758662 0.048021793 -0.23010232
0.31741965 -0.27353373 -0.13766518 0.24646172 0.124128714 -0.12938033 -0.23366453 0.069784045
-0.028173275 -0.2784208 -0.14506869 0.058586717 -0.33093342 -0.19514982 0.13986473 0.12447221
0.20627172 0.109667934 -0.08460377 -0.3084586 -0.13178626 0.011743659 -0.17962216 -0.12881505
0.031856872 0.25054806 0.0744975 0.060286723 0.11622172 0.2460599 0.07818297 0.14868031
00000000: a4c3 db3e 4954 20bd f499 973b a089 60be
00000010: 7979 8d3e 30ac 2ebd 18e1 a23d b11d e33e
00000020: a181 803e 8150 80bc 963a 1ebd 9b25 7f3d
00000030: 8c46 9c3d 7bd7 a73d 99e9 2fbe c58b 833d
00000040: 812d 003e f6ad 413a a514 923c f6b3 83bd
00000050: 7ec6 c13e a8fa bdbd 75ad 9b3d 7968 edbe
00000060: 5672 893e 57bd abbd 94c6 393e 3e8a d33e
00000070: 5fc0 7e3e 6315 573d e4e4 d8bd 12c2 1d3e
00000080: d412 31be 2490 e3bd 5d38 a3be 2631 06be
00000090: fb93 153d 5603 29be 2a8f 1c3e 9778 283d
000000a0: b543 893e d8a8 0cbe 32c9 e1bc a871 13be
000000b0: 5362 cb3d 585b 6ebe 11a8 d43e 5a66 d33d
000000c0: 0a3a 843e f6b9 2f3e fabd d6bd a9d6 96be
000000d0: aee3 03bd 4b18 0bbe 21f6 19be 219f ee3a
000000e0: f337 11be a6e1 3fbe 66f9 3dbd 1ad1 10be
000000f0: 3899 633e 2432 633d 7159 613e 5b1c efbd
00000100: b985 f73d 933f c2bd 94f4 313e 50bd 8abd
00000110: 450e 073d 2102 9d3d 5710 f3bd d859 553b
00000120: 551a 86be e991 2e3d 498c 37be 4ad2 63be
00000130: 72d6 aebd 85f2 84bd 0564 16bd 33be 8c3d
00000140: 8ab1 373c 63de f73c 6b26 2fbd 09c0 31be
00000150: c400 67bd 7f9e f1bd 019a 513e 4ad7 1d3e
00000160: 6e49 193e 2edc ba3d ae83 5e3e 6794 0ebd
00000170: da10 3b3e 59bb 9c3d 7d60 e93d 0aca cdbd
00000180: 0cd1 413d 8b62 7b3e 5966 15be 8005 1abd
00000190: e4cc 513e 0041 1b3d da6a 5a3e b710 adbd
000001a0: bba8 db3d 2668 6ebd 1033 bfbb c51a 883e
000001b0: bf4a f53d cad0 403e d679 d83d a4ce aebd
000001c0: c906 613d 8722 ea3d e6d5 543e 8db3 e4bc
000001d0: 24c3 e1bd 56a4 263e 2f5f c4bc 102c 82bd
000001e0: 79b2 103e fd37 82be f72b 233e 95c7 a53e
000001f0: c264 913e 8f98 c33d f414 a93d 09d4 363d
00000200: 03af 82be 5089 243e 82d4 a33d 1de0 ab3d
00000210: 9f02 2dbe 61b9 0cbe 9e5b c8bc ad30 463d
00000220: 028a 8c3e 100f 71bc c930 a53d eaad 36be
00000230: 75f9 183e db39 b4be 89a9 00be cace 813e
00000240: 8481 fa3d 4745 1cbc 82af 55bd 5466 003c
00000250: ebc3 e0be 3f6e 663e d323 093e 6826 823d
00000260: 279f 1bbe 9696 42be 6f6d 673d dbfd 16be
00000270: 1b26 493e f35f 42be 9257 b4bc 1a89 36be
00000280: ac3f 6bbe b181 15bd c719 d53c 067b ee3d
00000290: f5c4 8fbd 9838 1dbe d855 67bd ae60 a0bd
000002a0: 42a7 a9be 6a61 8f3e 5cb7 033c 4632 10be
000002b0: 6cfe 8a3d 950d 7a3e 0800 10bd 8710 39be
000002c0: e271 023d dcbb 06be 0076 073d a55f e73c
000002d0: 61af 1dbe a8d2 553e e454 113e 46b4 373e
000002e0: 5735 34be e39d c83c 4547 4cbd 10e0 b73c
000002f0: dd51 86be a2bb 3c3e 9987 c0bc 1033 593e
00000300: 6ed4 04bd d483 023e a5fd 6f3e e50d 54be
00000310: e0d1 14bd 749e adbc ceaa 3fbe 66e9 293e
00000320: 6fe9 243e a27f 52be 88ca 86bd 1b0e ffbc
00000330: dd48 2d3e c1de babe 5c82 1abe 0116 2e3e
00000340: 0de5 4a3e 6802 cfbc 8e87 b5bd 1b60 4bbe
00000350: c89d 87bd a79e c6be ef60 bdbd 9af5 ebbd
00000360: 3067 6fbe 538e 0ebd 828c 42be 56e3 c33e
00000370: 9876 2b3e 9815 b7be 80b2 443d f19f 6bbe
00000380: d484 a23e 9d0c 8cbe 1af8 0cbe 7660 7c3e
00000390: 3237 fe3d 477c 04be c145 6fbe f0ea 8e3d
000003a0: a4cb e6bc 2c8d 8ebe e38c 14be a0f8 6f3d
000003b0: 1b70 a9be 5bd5 47be b338 0f3e 49eb fe3d
000003c0: e538 533e 9599 e03d be44 adbd 49ee 9dbe
000003d0: faf2 06be 7a68 403c dfee 37be 18e8 03be
000003e0: 5a7c 023d d647 803e 2592 983d 36ef 763d
000003f0: a705 ee3d 20f7 7b3e 651e a03d a73f 183e

pi.net.0.bias f4 [50]
0.37417716 0.26500222 0.1668365 0.16847543 0.024658585 -0.03671562 0.0014648319 0.11210069
-0.16072881 0.10809124 -0.049482867 0.30132318 0.015733507 0.2388395 0.18026681 0.15104443
0.032897584 0.18373777 -0.30495787 0.28381175 -0.5609127 0.1539075 -0.0047509917 0.21070977
-0.1161902 0.19444223 -0.09871112 0.006588383 -0.08822774 -0.101157315 0.23447385 0.14023353
-0.08050085 0.07043454 0.2511635 -0.21544874 0.2367954 0.37209672 0.28594363 0.24455182
0.34292898 0.14544562 0.0007695531 0.024964985 0.24683319 -0.11575533 0.31681493 -0.13258253
0.21752334 0.13594319
00000000: 2694 bf3e 5fae 873e 30d7 2a3e d384 2c3e
00000010: cd00 ca3c 1e63 16bd 9aff bf3a 0c95 e53d
00000020: 1896 24be f15e dd3d 8cae 4abd 0847 9a3e
00000030: 8ee3 803c 5892 743e dd97 383e 64ab 1a3e
00000040: 9ebf 063d c125 3c3e 7023 9cbe c64f 913e
00000050: fa97 0fbf ed99 1d3e 35ae 9bbb 4dc4 573e
00000060: 21f5 edbd dd1b 473e 0e29 cabd 5de3 d73b
00000070: bfb0 b4bd 912b cfbd ea19 703e 6199 0f3e
00000080: a1dd a4bd fc3f 903d 8198 803e 989e 5cbe
00000090: 7e7a 723e 7683 be3e 3467 923e cb6b 7a3e
000000a0: 6394 af3e b2ef 143e d6bb 493a 5e83 cc3c
000000b0: d7c1 7c3e 2111 edbd 9135 a23e b7c3 07be
000000c0: 70be 5e3e b134 0b3e

pi.net.2.weight f4 [50, 50]
-0.1506597 0.22073409 0.0022434874 -0.21264143 0.05399021 -0.31578985 0.36527646 -0.2240958
0.04812528 -0.11659611 0.04216067 0.1718512 0.18867408 0.08619898 0.038981747 0.11236311
0.02898743 0.068798035 0.16483955 -0.38844723 0.271685 -0.03434967 0.03946213 0.038031474
-0.014633981 -0.2564504 -0.15332389 -0.24583916 0.07851974 -0.049503904 0.24896887 0.0670255
0.11266935 0.1678803 -0.13379373 -0.15351625 -0.023969505 -0.22430913 0.0034194277 -0.10205488
-0.2930301 -0.056548957 -0.018436749 0.11259947 -0.07121882 0.19619891 -0.19805337 0.19220552
0.088197365 -0.07130893 -0.093980595 -0.06791812 -0.12590407 0.13336217 -0.2342034 -0.109421305
-0.10683067 -0.14929426 0.07289896 0.014177074 -0.21044825 0.10809897 -0.022908939 -0.18994285
0.084092505 0.123216696 0.06021612 0.024043402 0.23579608 -0.05578876 -0.07810421 0.10740722
0.09616007 -0.06656207 -0.060991023 0.016658625 0.069883294 0.030406438 -0.16284062 -0.06513542
-0.078451835 -0.091522984 0.123627506 -0.4114606 0.115454644 -0.048804007 0.10877299 0.2421276
-0.0467038 -0.13795313 0.19290146 -0.13871239 0.13976999 -0.08590666 0.19370233 0.100279376
0.011979119 -0.22790116 0.1306444 0.11164541 -0.29095304 0.015809178 0.10922036 0.21542442
0.18558966 -0.12513727 -0.22670367 0.23903753 0.16413262 0.06333118 0.038039137 0.022710273
0.010519698 0.02187434 0.18478292 0.04701439 -0.010182168 0.08077222 -0.2349726 -0.012938492
-0.10552513 -0.08104438 0.11928647 0.15233451 -0.005765883 0.04731611 -0.0047483877 -0.083560415
0.1679815 0.06408802 -0.20683339 -0.18939011 0.053763404 -0.023526734 0.01813196 0.11542473
0.15165506 0.14605235 -0.1260101 -0.005557223 0.063083425 -0.024912743 -0.026740376 0.10711215
0.005400498 -0.2540095 0.1521282 -0.1028078 -0.0003740964 0.09620137 0.013951763 0.18198869
-0.153693 0.020960286 -0.027906718 0.023751559 -0.06911093 -0.055470478 0.2269 -0.04915777
0.12582046 0.08030089 0.14913532 0.04025973 0.09443688 -0.043638825 0.059874523 -0.10178903
0.12525362 -0.12865578 0.12547 -0.06216493 0.15912443 0.11822552 0.049258452 0.13702017
-0.148532 -0.10355216 -0.10808832 0.16506167 -0.04513684 0.10904238 -0.10218051 -0.032919288
-0.14394836 -0.01624262 0.14500408 -0.18134834 0.14584574 0.07891487 0.084161356 -0.07798597
-0.16062947 0.0870388 -0.15867688 -0.060459208 -0.18134406 -0.024948323 0.05051054 -0.32180887
-0.09553205 0.022362955 0.068484455 -0.06996686 0.14507082 0.16028017 -0.45873365 0.21375771
-0.06852227 -0.047394257 -0.3611038 0.06233233 -0.14818667 -0.054359272 -0.08430253 0.16285062
0.06529063 -0.016156645 -0.112789586 0.16679886 -0.59295475 0.121857844 -0.109738275 -0.024162697
-0.13013981 -0.039611027 -0.22573903 -0.031929735 -0.16175513 0.033727843 -0.28096294 -0.16960819
0.002236761 -0.014275695 0.1972297 0.14153342 -0.23244417 -0.012065287 0.063390546 -0.10021351
0.081828915 0.14684963 0.14799596 -0.108395725 0.13475236 -0.001318176 0.18777984 -0.09278395
0.026554443 -0.0047777956 0.024777105 -0.064220846 -0.121044196 -0.027284577 -0.41459423 0.17130317
00000000: 8946 1abe 1e08 623e 7907 133b adbe 59be
00000010: d724 5d3d 35af a1be 8405 bb3e 5f79 65be
00000020: 031f 453d f1c9 eebd abb0 2c3d c3f9 2f3e
00000030: c733 413e 1789 b03d 53ab 1f3d a11e e63d
00000040: 0c77 ed3c fce5 8c3d b3cb 283e 8ee2 c6be
00000050: 4c1a 8b3e 3db2 0cbd 0ba3 213d e4c6 1b3d
00000060: 5dc3 6fbc 784d 83be f000 1dbe 43bd 7bbe
00000070: f5ce a03d 9bc4 4abd b2f1 7e3e aa44 893d
00000080: 30bf e63d d0e8 2b3e 3901 09be 5d33 1dbe
00000090: b25b c4bc 4bb1 65be 7a18 603b 2602 d1bd
000000a0: 0b08 96be e19f 67bd aa08 97bc 8d9a e63d
000000b0: 2cdb 91bd 5ee8 483e 81ce 4abe 86d1 443e
000000c0: d2a0 b43d 6b0a 92bd e678 c0bd a818 8bbd
000000d0: ffec 00be 1890 083e 04d3 6fbe 4718 e0bd
000000e0: 0aca dabd 98e0 18be 0d4c 953d f546 683c
000000f0: bf7f 57be fe62 dd3d 87ab bbbc 6180 42be
00000100: b138 ac3d 0959 fc3d 2ea5 763d abf6 c43c
00000110: 8774 713e c182 64bd 1af5 9fbd 51f8 db3d
00000120: 92ef c43d b251 88bd b9d1 79bd ab77 883c
00000130: f91e 8f3d ec16 f93c b1bf 26be b865 85bd
00000140: 5bab a0bd 6770 bbbd 6b30 fd3d f7aa d2be
00000150: 7c73 ec3d b6e6 47bd 60c4 de3d 4cf0 773e
00000160: 7c4c 3fbd 9643 0dbe f687 453e 9f0a 0ebe
00000170: dd1f 0f3e d5ef afbd e759 463e 465f cd3d
00000180: 1144 443c ec5e 69be a5c7 053e 59a6 e43d
00000190: ccf7 94be 4082 813c edae df3d 3898 5c3e
000001a0: 370b 3e3e fc23 00be 0225 68be 41c6 743e
000001b0: 6212 283e c7b3 813d edce 1b3d e50a ba3c
000001c0: d05a 2c3c d131 b33c bc37 3d3e 2992 403d
000001d0: 1cd3 26bc e86b a53d a89c 70be f8fb 53bc
000001e0: 8f1d d8bd 99fa a5bd 774c f43d 94fd 1b3e
000001f0: bbef bcbb 8ace 413d 5d98 9bbb b921 abbd
00000200: 5803 2c3e 9440 833d 22cc 53be 7bef 41be
00000210: 0437 5c3d 23bb c0bc 7a89 943c cd63 ec3d
00000220: 774b 1b3e bf8e 153e cb08 01be 5e19 b6bb
00000230: e231 813d cf15 ccbc a20e dbbc 9d5d db3d
00000240: a9f6 b03b 880d 82be 7fc7 1b3e e58c d2bd
00000250: 5e22 c4b9 3905 c53d ef95 643c 3e5b 3a3e
00000260: b361 1dbe e8b4 ab3c a19c e4bc a192 c23c
00000270: 088a 8dbd 0335 63bd 7958 683e a859 49bd
00000280: 14d7 003e cb74 a43d eeb6 183e 63e7 243d
00000290: 1f68 c13d a0be 32bd fd3e 753d c476 d0bd
000002a0: 7c42 003e 57be 03be 357b 003e a7a0 7ebd
000002b0: 84f1 223e 3920 f23d 3bc3 493d 044f 0c3e
000002c0: c618 18be 2813 d4bd 695d ddbd ed05 293e
000002d0: 68e1 38bd 9c51 df3d 0444 d1bd 60d6 06bd
000002e0: 3367 13be 3e0f 85bc f37b 143e 61b3 39be
000002f0: 9658 153e 1f9e a13d ca5c ac3d 1cb7 9fbd
00000300: 0d7c 24be 6641 b23d 317c 22be 13a4 77bd
00000310: 42b2 39be 6d60 ccbc 24e4 4e3d 22c4 a4be
00000320: 4fa6 c3bd 8432 b73c 9441 8c3d c94a 8fbd
00000330: 728d 143e 7c20 243e 23df eabe 4de3 5a3e
00000340: 6755 8cbd 7b20 42bd 99e2 b8be 2f50 7f3d
00000350: 3fbe 17be d4a7 5ebd cea6 acbd 50c2 263e
00000360: 18b7 853d f15a 84bc 3afe e6bd 52cd 2a3e
00000370: e2cb 17bf 9b90 f93d 76be e0bd d9f0 c5bc
00000380: 5f43 05be 2c3f 22bd 2228 67be c1c8 02bd
00000390: 23a3 25be 3526 0a3d 60da 8fbe c5ad 2dbe
000003a0: 9f96 123b 9be4 69bc 95f6 493e 23ee 103e
000003b0: d805 6ebe 7bad 45bc e7d2 813d be3c cdbd
000003c0: eb95 a73d c05f 163e 418c 173e 94fe ddbd
000003d0: 86fc 093e a6c6 acba 5c49 403e 8305 bebd
000003e0: b488 d93c 0e8f 9cbb 5bf9 ca3c 3886 83bd
000003f0: 05e6 f7bd e883 dfbc b245 d4be 196a 2f3e

pi.net.2.bias f4 [50]
-0.18373446 0.26939523 0.19766586 0.04189036 0.050150868 0.0882583 0.20473424 0.054131445
0.0928293 0.065850325 0.10826459 -0.10739004 -0.06146612 0.09956747 0.13739634 0.03336733
-0.033207245 0.20746642 0.22249551 0.07226181 0.07793938 0.08605058 0.23067401 -0.03225197
-0.014043033 0.064399324 0.06651916 0.011580225 0.14142688 0.08377865 -0.13382739 0.070696615
-0.15501796 0.06375026 0.06302443 -0.121461794 0.015888553 0.17415786 0.119193815 -0.16571853
0.15698504 0.19192179 -0.09913969 -0.00410815 -0.18155076 -0.1289684 0.25368866 0.22879459
-0.16756068 -0.057506666
00000000: e324 3cbe 2cee 893e eb68 4a3e 3a95 2b3d
00000010: ff6a 4d3d c5c0 b43d daa5 513e efb8 5d3d
00000020: 4a1d be3d 89dc 863d d3b9 dd3d 4fef dbbd
00000030: e6c3 7bbd 08ea cb3d a0b1 0c3e 2eac 083d
00000040: 5204 08bd 1472 543e ddd5 633e 00fe 933d
00000050: af9e 9f3d 493b b03d cf35 6c3e a41a 04bd
00000060: c014 66bc cbe3 833d 333b 883d fcba 3d3c
00000070: 35d2 103e 2494 ab3d 0c0a 09be 63c9 903d
00000080: 07bd 1ebe 7f8f 823d f412 813d f6c0 f8bd
00000090: b628 823c 7056 323e e31b f43d 1eb2 29be
000000a0: b0c0 203e 2587 443e c009 cbbd a99d 86bb
000000b0: 71e8 39be 4b10 04be 7be3 813e 2149 6a3e
000000c0: 0795 2bbe 1c8c 6bbd

pi.net.4.weight f4 [4, 50]
-0.09299313 0.26717764 0.19829395 0.12699994 -0.24126369 0.4246122 0.1431838 0.029444685
0.16458769 0.23066926 -0.16731119 0.33983046 0.19209464 -0.2885126 -0.18990193 -0.15929148
0.3491796 0.1945201 -0.22200772 0.29997423 -0.34578526 0.10036828 -0.3707124 -0.19357531
-0.3115064 -0.1443536 -0.4533484 -0.32438725 0.25981644 -0.43525067 0.18709688 0.38897878
-0.2800327 0.20514278 -0.056030493 -0.014452767 -0.18322092 0.066806674 -0.051008325 0.3097951
0.118766114 0.09514177 -0.19747591 0.011539829 0.04452819 0.13488632 -0.2564826 -0.20954554
0.2721891 0.25174615 -0.51648664 -0.06895978 -0.3846105 -0.1270715 -0.3258824 0.2875085
-0.40293008 -0.044355117 -0.30714917 0.6333464 -0.07406865 0.065556556 0.24478169 -0.034140874
0.29557452 0.2364704 0.06887556 -0.38573998 -0.103655405 -0.015736274 0.21923883 0.09587703
-0.26745516 -0.28043196 0.058400735 -0.20926799 0.31998378 -0.0989547 -0.25311878 -0.21004322
0.48473975 -0.20725212 0.38910973 -0.14283566 -0.04872894 -0.038976055 -0.2618009 0.034044266
-0.17461723 0.21026936 0.3943773 0.32997507 0.17977151 -0.06697334 -0.29808772 -0.055819217
0.11772775 0.08990712 0.06350558 0.20631476 -0.19885911 -0.14942409 0.057615973 -0.1281863
-0.22645433 0.35143918 -0.09338172 0.03769997 0.2527059 -0.0031315973 -0.18288016 -0.050620575
0.1399202 -0.1474895 -0.17808107 0.21760169 -0.11301475 0.2155759 0.08120217 0.1802274
0.6512169 -0.30552286 0.17158978 0.13915922 -0.07297277 -0.22235274 -0.04411546 -0.13458002
-0.1632223 -0.16285409 -0.21172103 -0.119913 0.5290034 0.17749214 -0.30998105 0.043071773
0.119628586 -0.09656923 0.33303264 0.19970322 -0.13040148 0.19509047 -0.17845516 -0.36426416
0.4707833 -0.32622722 0.48849478 0.39810172 0.03179338 -0.25495404 0.55440164 -0.40971467
0.16935223 0.1885225 0.61445844 -0.12938567 -0.0016771727 0.2348005 0.010509552 0.09201594
-0.32854852 0.0014108318 -0.12727232 0.11608337 0.17551668 0.17089498 0.18191917 0.11969794
-0.17112932 0.06830614 0.08945274 -0.110605426 -0.2104442 -0.11824003 0.03446196 0.19110619
-0.39928845 0.024235616 0.057915732 0.00589916 0.28175953 -0.15531343 0.16144975 0.17748334
-0.2105797 0.25957176 0.10794305 -0.2512528 -0.118515894 0.13310717 -0.12749735 0.0314404
0.119819574 0.27235088 0.33111048 0.351151 -0.4461304 0.062104154 0.5391363 0.0882926
00000000: 2f73 bebd 82cb 883e 920d 4b3e 460c 023e
00000010: d40d 77be c566 d93e c69e 123e fb35 f13c
00000020: ad89 283e 9034 6c3e a053 2bbe 42fe ad3e
00000030: 75b4 443e ecb7 93be a775 42be 4e1d 23be
00000040: abc7 b23e 4730 473e fe55 63be 3996 993e
00000050: c40a b1be e38d cd3d 04ce bdbe 9b38 46be
00000060: c47d 9fbe 6ed1 13be 481d e8be 1616 a6be
00000070: a906 853e 2dd9 debe 5396 3f3e 3a28 c73e
00000080: 7260 8fbe f310 523e 3b80 65bd 4ccb 6cbc
00000090: 449e 3bbe f0d1 883d 1bee 50bd 779d 9e3e
000000a0: a63b f33d b0d9 c23d 2037 4abe 8d11 3d3c
000000b0: 3163 363d a41f 0a3e b051 83be 1b93 56be
000000c0: 5f5c 8b3e dfe4 803e 7838 04bf c93a 8dbd
000000d0: abeb c4be 081f 02be 0fda a6be 5034 933e
000000e0: da4c cebe b6ad 35bd a842 9dbe fd22 223f
000000f0: 4eb1 97bd 8442 863d 0da8 7a3e 4dd7 0bbd
00000100: 8b55 973e 4c25 723e a10e 8d3d b67f c5be
00000110: 4949 d4bd 5ce9 80bc 2580 603e 2d5b c43d
00000120: e2ef 88be c794 8fbe 9c35 6f3d 594a 56be
00000130: ead4 a33e c3a8 cabd c998 81be 9215 57be
00000140: cf2f f83e e639 54be 6439 c73e 8343 12be
00000150: ff97 47bd 5ba5 1fbd c40a 86be 0072 0b3d
00000160: dcce 32be da50 573e d2eb c93e 7ef2 a83e
00000170: 0616 383e 5229 89bd f49e 98be b1a2 64bd
00000180: 3f1b f13d 3921 b83d 370f 823d 2d44 533e
00000190: b9a1 4bbe a102 19be bafe 6b3d 4543 03be
000001a0: a5e3 67be d6ef b33e ea3e bfbd 496b 1a3d
000001b0: ab62 813e 7c3b 4dbb f044 3bbe 8557 4fbd
000001c0: 3e47 0f3e 7d07 17be e25a 36be fad2 5e3e
000001d0: 4774 e7bd eebf 5c3e 534d a63d 888d 383e
000001e0: 27b6 263f 7e6d 9cbe 3bb5 2f3e c17f 0e3e
000001f0: bf72 95bd 70b0 63be 6ab2 34bd 58cf 09be
00000200: bf23 27be 39c3 26be 66cd 58be f294 f5bd
00000210: c46c 073f 80c0 353e d6b5 9ebe 076c 303d
00000220: d5ff f43d 17c6 c5bd 4183 aa3e 007f 4c3e
00000230: f787 05be ccc5 473e f3bc 36be d580 babe
00000240: 820a f13e 4107 a7be fd1b fa3e fdd3 cb3e
00000250: c639 023d 5689 82be 44ed 0d3f 1fc6 d1be
00000260: ac6a 2d3e 0b0c 413e 264d 1d3f ad7d 04be
00000270: 94d4 dbba 8b6f 703e 4230 2c3c da72 bc3d
00000280: 8337 a8be a9eb b83a ad53 02be 1ebd ed3d
00000290: a5ba 333e 18ff 2e3e 0549 3a3e 3224 f53d
000002a0: 863c 2fbe 17e4 8b3d 0033 b73d 1985 e2bd
000002b0: af7e 57be d427 f2bd fc27 0d3d 57b1 433e
000002c0: 896f ccbe c589 c63c 0c39 6d3d be4d c13b
000002d0: c942 903e 7c0a 1fbe 1553 253e 31be 353e
000002e0: 34a2 57be 97e6 843e 3f11 dd3d 35a4 80be
000002f0: 76b8 f2bd 3f4d 083e aa8e 02be a6c7 003d
00000300: f763 f53d 9371 8b3e 5087 a93e 10ca b33e
00000310: 346b e4be ed60 7e3d d604 0a3f c0d2 b43d

pi.net.4.bias f4 [4]
-0.091209136 -0.051960405 -0.059478883 -0.042962253
00000000: dbcb babd 6fd4 54bd 21a0 73bd 30f9 2fbd

v.net.0.weight f4 [64, 40]
-0.37407935 0.37310156 -0.08637171 0.04289289 0.16670826 -0.18111391 -0.044197604 0.27037475
0.115903966 -0.47553948 -0.018866306 -0.20994806 -0.018835748 0.08130681 0.2135899 0.24118212
-0.15064012 -0.0054267324 -0.07761085 0.03216982 -0.19898805 0.41348293 -0.07428772 -0.018649198
0.09012927 -0.0061046444 -0.25667804 0.40776107 0.35729113 -0.5180914 0.042192694 0.16920038
-0.006911968 -0.10006606 0.2527102 0.30243325 -0.23693395 0.004003508 -0.11582968 -0.013889975
-0.88435537 0.97520936 -0.11927191 0.54551846 -0.18530215 -0.19446418 0.063090764 -0.2903572
-0.81762844 0.01778409 -0.1371136 0.031027652 0.0032654318 -0.32710513 0.42626485 0.14743257
-0.024109066 0.007505693 0.038969163 -0.015570528 -0.88987297 0.89412767 -0.0696348 0.59572595
-0.17645004 0.09068479 -0.045626275 -0.33347628 -0.7865203 -0.12152589 0.2355244 -0.02996573
-0.012724451 -0.22170074 0.43276426 0.08857077 -0.017558167 0.029666971 0.015755825 -0.018709183
0.40673664 -0.32549286 -0.07251139 -0.05950717 0.14223112 -0.032833505 0.081392065 0.37534383
0.21084037 -0.009097385 0.035639163 -0.08534712 -0.007195351 -0.16590992 -0.19683257 -0.043599777
-0.00796398 0.00016728304 -0.023546528 -0.014714109 0.2924898 -0.22552025 -4.275085e-05 -0.111100085
0.25637615 0.1270686 0.06068236 0.5337534 0.26207998 0.0029482783 -0.04813588 0.09529277
-0.006212824 -0.24253908 -0.3282036 -0.009091005 0.021639977 -0.0016153855 0.006629424 -0.0018707459
0.58402455 1.1741843 0.06773638 -0.022458268 -0.51345843 0.056748677 0.067298986 -0.9540819
-0.28366202 -0.06527908 -0.08016402 0.2745246 -0.077529356 0.7241696 0.47275248 0.0962005
-0.019567685 -0.040566277 -0.021879448 0.007830392 0.442823 1.1815034 0.14434609 -0.0032058884
-0.6530408 -0.069879174 -0.016420582 -1.0474347 -0.19434507 0.13244864 0.04805259 -0.28983283
-0.057943303 0.67691535 0.29399666 -0.016507195 -0.027199477 -0.04907498 -0.08002222 -0.012905722
-0.8725626 -1.2169893 0.007701843 0.28494823 0.33152375 -0.007221459 0.16030574 0.19152449
-0.37153366 0.15803891 -0.20941076 -0.27122748 0.024186326 0.010330879 -0.338663 -0.01768723
0.070766166 0.03240038 -0.054149847 -0.014504247 -0.94764763 -1.0906619 0.07537341 0.25299963
0.22481488 -0.15302692 0.15064459 0.24454196 -0.4272565 -0.013144832 0.31408957 0.3861472
0.028975286 -0.07099068 -0.122585595 0.04805471 0.068169214 0.06085045 -0.023348134 0.009889564
0.30200344 0.06394556 -0.12881489 0.09649114 0.4757302 -0.1728386 -0.09723798 0.45720765
0.42342973 -0.16353783 0.035008967 -0.08743875 0.06829755 -0.20090285 0.10123784 -0.106188506
-0.08806182 0.0051950817 -0.04750075 -0.028494626 0.08587243 0.12987095 -0.12760524 0.033249076
0.4672865 -0.097497776 -0.29871124 0.36571226 0.25805995 0.09075712 -0.0825323 0.09037823
0.06170032 -0.0796747 -0.0010900247 -0.215552 -0.050021213 -0.005721133 -0.093071714 -0.083913445
0.8524378 -0.288982 0.1558277 0.2710108 0.134041 0.03926131 -0.028663544 1.1878281
-0.5142734 0.03660512 -0.2312565 -0.19252795 -0.09870914 -0.24093479 -0.5765558 -0.012739506
00000000: 5487 bfbe 2b07 bf3e a7e3 b0bd 74b0 2f3d
00000010: 92b5 2a3e ed75 39be 8c08 35bd 8f6e 8a3e
00000020: 0f5f ed3d e979 f3be 838d 9abc a0fc 56be
00000030: 6d4d 9abc 2f84 a63d 50b7 5a3e 72f8 763e
00000040: 6741 1abe bbd2 b1bb 70f2 9ebd 80c4 033d
00000050: 86c3 4bbe 09b4 d33e 2924 98bd 34c6 98bc
00000060: b295 b83d 7809 c8bb 4e6b 83be 0fc6 d03e
00000070: ddee b63e a3a1 04bf 3fd2 2c3d dd42 2d3e
00000080: ca7d e2bb 6fef ccbd 3b63 813e 88d8 9a3e
00000090: d09e 72be dc2f 833b 1c38 edbd c792 63bc
000000a0: 1d65 62bf 52a7 793f d544 f4bd 19a7 0b3f
000000b0: d9bf 3dbe 9e21 47be bb35 813d b3a9 94be
000000c0: 1950 51bf f1af 913c 8267 0cbe b42d fe3c
000000d0: db00 563b 537a a7be 633f da3e 90f8 163e
000000e0: 6080 c5bc 51f2 f53b 219e 1f3d 871b 7fbc
000000f0: b7ce 63bf 8de5 643f b19c 8ebd 7f81 183f
00000100: 52af 34be f2b8 b93d 9ee2 3abd 67bd aabe
00000110: 6559 49bf 91e2 f8bd 4f2d 713e b17a f5bc
00000120: 377a 50bc 8505 63be 4793 dd3e 9864 b53d
00000130: 25d6 8fbc 2608 f33c 5c12 813c 0044 99bc
00000140: c93f d03e 00a7 a6be da80 94bd cabd 73bd
00000150: 09a5 113e 6d7c 06bd e2b0 a63d 112d c03e
00000160: 8ae6 573e 330d 15bc 5ffa 113d 79ca aebd
00000170: fbc6 ebbb 4ae4 29be 7a8e 49be ae95 32bd
00000180: 5a7b 02bc b368 2f39 a6e4 c0bc 7213 71bc
00000190: 39c1 953e c8ee 66be 604f 33b8 7188 e3bd
000001a0: bc43 833e 451e 023e 118e 783d 10a4 083f
000001b0: 592f 863e e737 413b 212a 45bd db28 c33d
000001c0: f294 cbbb 2a5c 78be 4d0a a8be 70f2 14bc
000001d0: 5246 b13c 58bb d3ba a43b d93b d133 f5ba
000001e0: a282 153f ac4b 963f 5fb9 8a3d 67fa b7bc
000001f0: 0372 03bf 4d71 683d 0dd4 893d b63e 74bf
00000200: 263c 91be 0ab1 85bd 092d a4bd 7d8e 8c3e
00000210: b6c7 9ebd 2e63 393f 9d0c f23e c504 c53d
00000220: 694c a0bc d328 26bd 873c b3bc 0b4b 003c
00000230: b2b9 e23e 813b 973f 76cf 133e e219 52bb
00000240: af2d 27bf d01c 8fbd 7584 86bc 5712 86bf
00000250: 6502 47be 9ea0 073e cbd2 443d f864 94be
00000260: f555 6dbd 534a 2d3f bb86 963e 193a 87bc
00000270: 70d1 debc d902 49bd b1e2 a3bd 8572 53bc
00000280: 4360 5fbf 4ec6 9bbf be5f fc3b bce4 913e
00000290: 7bbd a93e fda1 ecbb 3027 243e ff1e 443e
000002a0: a939 bebe f4d4 213e c66f 56be 54de 8abe
000002b0: 6722 c63c d942 293c 3d65 adbe cfe4 90bc
000002c0: daed 903d 43b6 043d 3bcc 5dbd 39a3 6dbc
000002d0: 0999 72bf cf9a 8bbf 605d 9a3d 2b89 813e
000002e0: df35 663e 17b3 1cbe 9342 1a3e 3569 7a3e
000002f0: 5dc1 dabe 6c5d 57bc 59d0 a03e 16b5 c53e
00000300: 945d ed3c 9063 91bd 280e fbbd 04d5 443d
00000310: 4d9c 8b3d 523e 793d 9644 bfbc d607 223c
00000320: 32a0 9a3e e4f5 823d 0de8 03be 269d c53d
00000330: e992 f33e 9afc 30be b524 c7bd 1f17 ea3e
00000340: c8cb d83e 7676 27be 9065 0f3d 1613 b3bd
00000350: 96df 8b3d 7ab9 4dbe c955 cf3d 5c79 d9bd
00000360: c159 b4bd 813b aa3b 2590 42bd 906d e9bc
00000370: e2dd af3d e4fc 043e f3aa 02be 2f30 083d
00000380: 2d40 ef3e eaac c7bd aef0 98be a33e bb3e
00000390: 6f20 843e dede b93d b206 a9bd 3918 b93d
000003a0: 7ab9 7c3d 7d2c a3bd 29df 8eba aab9 5cbe
000003b0: 0be3 4cbd 5878 bbbb 629c bebd d0da abbd
000003c0: 5d39 5a3f 73f5 93be 4c91 1f3e edc1 8a3e
000003d0: 0b42 093e 78d0 203d cfcf eabc c00a 983f
000003e0: 6ca7 03bf 40ef 153d 81ce 6cbe 0c26 45be
000003f0: 0528 cabd 9cb7 76be 2999 13bf 5cb9 50bc

v.net.0.bias f4 [64]
-0.6862707 0.19908333 1.9801853 -0.3284477 -0.49237895 -0.87907916 0.10719684 -0.3448185
-0.111944504 -0.27024552 -0.4407877 0.37812442 -1.4638772 -3.004627e-05 -0.96357006 -0.068693206
-0.4123556 0.79122746 -0.0835149 0.9875641 0.056125563 -0.6418003 0.7248068 -0.3262761
-1.0018573 -1.0921134 1.7270266 0.7929187 0.7880749 -1.1883695 0.618456 -0.5511288
-0.14142299 -0.3189863 -0.8236304 -0.6251032 -1.0537193 -1.6589649 0.6255672 -0.722805
0.8794897 0.27362022 1.058737 0.076481625 -0.21487771 0.7591906 -0.12729643 0.5990063
0.41393262 0.929022 0.029169984 0.7720883 -0.87575126 1.3576734 -0.84997326 0.2753184
0.03988882 0.89525455 -0.6235855 -0.26602417 0.06032474 0.067362614 0.47077888 1.1794256
00000000: 70af 2fbf 80dc 4b3e b676 fd3f 4c2a a8be
00000010: 1819 fcbe 550b 61bf 048a db3d 0d8c b0be
00000020: 2943 e5bd 9f5d 8abe edae e1be 8699 c13e
00000030: 5460 bbbf e00b fcb7 87ac 76bf 06af 8cbd
00000040: 4620 d3be e28d 4a3f dc09 abbd 00d1 7c3f
00000050: ebe3 653d 064d 24bf f08c 393f a90d a7be
00000060: dc3c 80bf 5fca 8bbf 350f dd3f b8fc 4a3f
00000070: 47bf 493f 7e1c 98bf 2253 1e3f c716 0dbf
00000080: 30d1 10be 2c52 a3be 71d9 52bf c306 20bf
00000090: 46e0 86bf f658 d4bf 2c25 203f c009 39bf
000000a0: 3d26 613f f317 8c3e b284 873f 66a2 9c3d
000000b0: e708 5cbe 515a 423f ff59 02be 7a58 193f
000000c0: faee d33e 63d4 6d3f e4f5 ee3c 94a7 453f
000000d0: 3c31 60bf 3ec8 ad3f d997 59bf 89f6 8c3e
000000e0: 7662 233d 672f 653f 4da3 1fbf 5234 88be
000000f0: 1317 773d 69f5 893d ee09 f13e 6bf7 963f

v.net.2.weight f4 [64, 64]
0.28370896 0.20981272 -0.69392735 -0.16416237 -0.037921 -0.32378626 -0.41042918 0.17951387
-0.2309577 -0.1640636 0.15572017 0.3275084 -0.36010918 -0.4128662 0.028234193 0.08649154
0.13633426 -0.36096025 -0.15503672 0.12317897 0.10674536 0.22956754 0.0023057328 -0.05044761
-0.27953047 -0.118722215 0.18578638 0.06928182 0.23533525 -0.11225573 0.06275756 0.5755272
0.17605886 0.05247067 -0.30108508 0.0880059 -0.02297944 0.29957688 -0.085401855 -0.36232582
-0.10258272 0.39760685 0.12830578 -0.2386436 0.19890401 0.33015937 -0.46771342 0.109882504
-0.060434874 -0.35615113 -0.040554386 0.031324435 -0.15834749 -0.09750112 -0.067989625 -0.2092238
0.3318798 0.20562506 -0.1607714 0.17208579 -0.24540198 0.29100594 -0.013120135 0.1011067
0.023102846 0.5686814 0.9762591 0.45400664 -0.23460333 -0.083020404 0.14653865 -0.16796193
-0.44906658 0.40818387 0.23416531 0.04085341 -0.2064928 0.45453292 -0.26141924 0.2344837
0.1689373 -0.23720449 -0.25612622 0.36019823 0.37733418 -0.10949775 -0.14880325 0.010163675
0.23542477 -0.3941605 0.47657186 -0.29002738 -0.29555598 0.45227852 0.118608944 -0.22486548
0.159917 0.16751324 0.3753698 -0.22471903 0.25112766 -0.59034234 -0.21340337 0.32093087
-0.20048483 -0.20553342 -0.47603348 0.061871592 -0.17604178 -0.46351656 0.15422861 -0.2662929
0.059971474 0.34654775 -0.59448385 0.14036407 -0.101454146 0.1758822 0.25156945 -0.052487414
0.2955431 -0.23474465 0.30908817 -0.23098549 -0.45382488 -0.026782745 -0.07138133 -0.54910845
0.028915213 -0.10907626 0.11204635 -0.4806456 0.38644224 -0.14800765 -0.267667 0.25742194
-0.0993711 -0.14146823 0.0631331 0.27610952 -0.09655671 -0.48278233 0.4042971 0.05370752
0.14419791 -0.3034677 0.026827576 0.34724674 -0.029848106 0.12353341 -0.16636623 -0.099423274
-0.11819022 -0.22939296 0.25583154 -0.27883044 -0.21542783 0.08905844 -0.253282 0.3352684
0.17616743 -0.1344381 0.17641534 -0.355672 0.053197253 -0.056787726 0.34216964 -0.54590684
-0.041237634 -0.042705037 -0.011995343 -0.13106246 0.051997524 -0.0802619 -0.22557169 0.15605177
-0.09586083 -0.13288239 0.33202174 -0.06225772 -0.3753841 0.30468044 -0.07801116 -0.064066365
0.061321236 -0.063001044 -0.24583983 0.28262377 -0.03463529 -0.16172956 -0.20527218 -0.2950039
0.03693167 0.13482875 0.044533372 -0.17515822 0.10837727 -0.21992399 -0.598129 0.32753336
-0.117636815 -0.3895023 0.050049797 0.36023405 -0.38734618 -0.46647498 0.32176536 -0.27607617
0.12608334 -0.4587885 0.25365698 0.30980298 0.41020235 0.26596642 -0.2621774 0.04023777
-0.08242715 -0.08688685 0.17888373 -0.05036616 -0.08446138 0.29265952 -0.28832296 0.5914954
0.19517674 0.19228317 0.10023764 -0.08050106 -0.11869289 -0.049165063 0.10432024 -0.4290215
-0.28819507 0.060463544 0.007567951 -0.3077703 -0.006564183 0.046509657 -0.6759487 0.099850334
-0.13073818 -0.13163756 0.2816689 -0.28168875 -0.38041666 0.09138353 -0.017207852 -0.24115926
0.10347483 0.05840548 -0.12043942 0.13995516 0.03276992 0.39865002 -0.269133 0.007298916
00000000: 4d42 913e 25d9 563e 39a5 31bf 2e1a 28be
00000010: 0d53 1bbd 50c7 a5be c623 d2be 7cd2 373e
00000020: 2d80 6cbe 4a00 28be 1c75 1f3e 2eaf a73e
00000030: 3b60 b8be 3363 d3be 654b e73c 7a22 b13d
00000040: 359b 0b3e c8cf b8be f2c1 1ebe 4145 fc3d
00000050: 509d da3d c113 6b3e c71b 173b 27a2 4ebd
00000060: 9e1e 8fbe a224 f3bd c93e 3e3e a0e3 8d3d
00000070: b9fb 703e 55e6 e5bd 0987 803d c055 133f
00000080: c648 343e 7ceb 563d d327 9abe 703c b43d
00000090: 613f bcbc 2462 993e 2be7 aebd c582 b9be
000000a0: e416 d2bd 2093 cb3e 9762 033e fd5e 74be
000000b0: 7ead 4b3e a60a a93e 2278 efbe 140a e13d
000000c0: 8f8a 77bd 7159 b6be 5b1c 26bd 0d4e 003d
000000d0: d825 22be abae c7bd 253e 8bbd c43e 56be
000000e0: 26ec a93e 608f 523e 42a1 24be 4237 303e
000000f0: a84a 7bbe bbfe 943e d6f5 56bc 0811 cf3d
00000100: 2e42 bd3c 1b95 113f 1eec 793f 8f73 e83e
00000110: db3b 70be 9a06 aabd 3a0e 163e 36fe 2bbe
00000120: 0eec e5be 7afd d03e 08c9 6f3e e855 273d
00000130: d972 53be 8ab8 e83e bed8 85be 7f1c 703e
00000140: e6fd 2c3e bce5 72be fa22 83be e76b b83e
00000150: f231 c13e 5b40 e0bd e15f 18be 8b85 263c
00000160: 3113 713e 68cf c9be 3a01 f43e 787e 94be
00000170: 1d53 97be 0d91 e73e 3fe9 f23d 2343 66be
00000180: 48c1 233e 9788 2b3e 7830 c03e bf1c 66be
00000190: ce93 803e ad20 17bf 6a86 5abe 0d51 a43e
000001a0: e54b 4dbe 5a77 52be a9ba f3be 116d 7d3d
000001b0: 4c44 34be 0b52 edbe 1bee 1d3e 8b57 88be
000001c0: a6a4 753d b56e b13e 1830 18bf 99bb 0f3e
000001d0: 31c7 cfbd 771a 343e b6cd 803e 0bfd 56bd
000001e0: 6d51 973e e760 70be ce40 9e3e 7687 6cbe
000001f0: bc5b e8be 7d67 dbbc 6030 92bd 5f92 0cbf
00000200: 99df ec3c 6063 dfbd 8f78 e53d 2e17 f6be
00000210: c2db c53e 518f 17be a60b 89be cfcc 833e
00000220: 1383 cbbd 0cdd 10be ed4b 813d 3a5e 8d3e
00000230: 86bf c5bd 3f2f f7be 0800 cf3e 6bfc 5b3d
00000240: 9ea8 133e 1e60 9bbe 81c5 db3c 53ca b13e
00000250: 0484 f4bc 16ff fc3d e95b 2abe 6e9e cbbd
00000260: b70d f2bd fde5 6abe 5afc 823e ddc2 8ebe
00000270: 1d99 5cbe 4564 b63d 2eae 81be 4da8 ab3e
00000280: 3c65 343e 24aa 09be 39a6 343e a41a b6be
00000290: 5de5 593d 3f9a 68bd dc30 af3e 8dc0 0bbf
000002a0: cbe8 28bd 7aeb 2ebd 1d88 44bc 3d35 06be
000002b0: 5bfb 543d 5a60 a4bd 44fc 66be 09cc 1f3e
000002c0: af52 c4bd 5212 08be c1fe a93e f301 7fbd
000002d0: 5832 c0be 13ff 9b3e 51c4 9fbd 3a35 83bd
000002e0: fa2b 7b3d b106 81bd 70bd 7bbe 10b4 903e
000002f0: bcdd 0dbd 6f9c 25be df32 52be c00a 97be
00000300: aa45 173d 8c10 0a3e a068 363d ad5c 33be
00000310: e7f4 dd3d c133 61be fb1e 19bf 74b2 a73e
00000320: 92eb f0bd d86c c7be 0401 4d3d 9970 b83e
00000330: 3d52 c6be cfd5 eebe 6ebe a43e db59 8dbe
00000340: fe1b 013e 54e6 eabe 54df 813e 7f9e 9e3e
00000350: 0b06 d23e c02c 883e 1e3c 86be 5cd0 243d
00000360: 91cf a8bd bcf1 b1bd 4c2d 373e bf4c 4ebd
00000370: 17fa acbd 78d7 953e 119f 93be 3e6c 173f
00000380: 69dc 473e e1e5 443e 6449 cd3d bddd a4bd
00000390: 4215 f3bd 4e61 49bd daa5 d53d b5a8 dbbe
000003a0: 4e8e 93be 9fa8 773d 93fc f73b 1294 9dbe
000003b0: 5c18 d7bb e980 3e3d f90a 2dbf 557e cc3d
000003c0: 3be0 05be ffcb 06be e836 903e 8239 90be
000003d0: f9c5 c2be 4a27 bb3d 7bf7 8cbc 74f2 76be
000003e0: 9dea d33d 963a 6f3d f1a8 f6bd 6850 0f3e
000003f0: c039 063d db1b cc3e cdcb 89be bf2b ef3b

v.net.2.bias f4 [64]
0.5708446 -0.7215577 -0.38801992 -0.5548204 0.70219517 -0.55224305 -0.35401437 -0.5638987
-0.36047292 -0.4903422 0.43725538 0.7786255 -0.5014781 0.53372985 0.21140409 0.38696396
0.7356175 0.1942833 -0.5162022 0.4391774 -0.5865811 0.64507824 -0.65925676 -0.43150043
0.27625555 -0.5846244 0.52596927 -0.61753756 0.18684213 0.56761366 -0.36268297 -0.44919413
-0.34383538 -0.17462236 -0.09312542 -0.52062726 0.18177518 0.36047795 0.57021874 -0.2781942
-0.76311386 0.35390732 0.33576286 -0.3991278 0.47864294 0.56510746 -0.4878084 0.39812353
-0.27832606 0.42518577 0.24963225 0.4757494 -0.6004463 0.27159962 -0.4527358 0.5264497
-0.1719736 0.68033475 -0.26911312 0.498365 -0.32361397 -0.66231346 0.3673981 0.71942395
00000000: df22 123f 01b8 38bf 8caa c6be b608 0ebf
00000010: 10c3 333f cd5f 0dbf 5f41 b5be aa5b 10bf
00000020: e88f b8be 220e fbbe f0df df3e 0054 473f
00000030: de60 00bf 85a2 083f 507a 583e 2420 c63e
00000040: 6e51 3c3f 34f2 463e d425 04bf dcdb e03e
00000050: 2e2a 16bf d923 253f 0dc5 28bf a0ed dcbe
00000060: 5e71 8d3e f2a9 15bf eca5 063f f116 1ebf
00000070: 8b53 3f3e 214f 113f 95b1 b9be c6fc e5be
00000080: 310b b0be 34d0 32be 8ab8 bebd d447 05bf
00000090: 4623 3a3e 9190 b83e dbf9 113f 786f 8ebe
000000a0: 6e5b 43bf 5733 b53e 1ce9 ab3e 7b5a ccbe
000000b0: b010 f53e e2aa 103f 06c2 f9be d9d6 cb3e
000000c0: c180 8ebe f3b1 d93e 999f 7f3e 6d95 f33e
000000d0: d9b6 19bf 1b0f 8b3e fdcc e7be 68c5 063f
000000e0: d919 30be 6b2a 2e3f 32c9 89be b329 ff3e
000000f0: bbb0 a5be 608d 29bf 9b1b bc3e 2b2c 383f

v.net.4.weight f4 [1, 64]
-0.22302374 0.21066199 0.098771416 0.13253231 -0.054559328 0.07802234 0.08440136 0.12617156
0.0877467 0.12344836 -0.2636781 -0.116709284 0.14814991 -0.17270719 -0.122951224 -0.12178729
-0.20661122 -0.0649502 0.044859223 -0.115941726 0.15075909 -0.14891027 0.21336478 0.078633435
-0.10683963 0.16569212 -0.09605617 0.12946707 -0.12297792 -0.14062126 0.05578813 0.13139398
0.17069457 0.18711843 0.50342506 0.21080594 -0.12930074 -0.17175834 -0.09983984 0.07364384
0.2191039 -0.11023062 -0.13290288 0.13677883 -0.1685047 -0.123850465 0.19443169 -0.085918054
0.15214609 -0.052998077 -0.0995374 -0.107027985 0.124976456 -0.11642579 0.13099621 -0.031106448
0.27588215 -0.18414001 0.098275915 -0.0728489 0.101203084 0.13020524 -0.063329116 -0.08927458
00000000: 5660 64be c7b7 573e ab48 ca3d 8db6 073e
00000010: 9a79 5fbd 2dca 9f3d 9fda ac3d 1e33 013e
00000020: 8bb4 b33d 7ed2 fc3d d100 87be 4705 efbd
00000030: 9cb4 173e 27da 30be dacd fbbd 9d6b f9bd
00000040: e491 53be 9c04 85bd 4ebe 373d db72 edbd
00000050: 9760 1a3e ef7b 18be 4c7c 5a3e 910a a13d
00000060: bcce dabd 32ab 293e 19b9 c4bd 0493 043e
00000070: d9db fbbd 05ff 0fbe 1882 643d 258c 063e
00000080: 8fca 2e3e f99b 3f3e 77e0 003f 83dd 573e
00000090: 6a67 04be 6be1 2fbe d478 ccbd 95d2 963d
000000a0: c65c 603e 97c0 e1bd b117 08be c00f 0c3e
000000b0: 7f8c 2cbe 50a5 fdbd 1a19 473e cef5 afbd
000000c0: 2fcc 1b3e 8314 59bd 44da cbbd 7d31 dbbd
000000d0: a8f3 ff3d a570 eebd df23 063e f3d2 febc
000000e0: 6d40 8d3e 338f 3cbe e244 c93d ce31 95bd
000000f0: 9043 cf3d 8654 053e b2b2 81bd 97d5 b6bd

c.net.0.weight f4 [64, 40]
-0.11224454 -0.09539698 0.14876957 0.06409082 0.018921532 -0.083014235 0.095877886 0.13489309
0.101599954 0.02607414 -0.12727009 0.030129727 -0.1161398 -0.14413054 0.02759841 0.0092141405
0.0017357904 -0.006943256 -0.15366589 -0.14535414 -0.12244205 -0.056335807 0.07836631 -0.12921882
0.13997585 0.07051411 -0.06495823 0.12016666 -0.0150271 -0.0021411492 0.12418615 -0.04593688
-0.08476416 -0.056818914 0.0066734375 0.045801356 -0.15379362 0.082373306 0.07418425 -0.075429805
-0.10205619 -0.1339305 0.07364099 -0.10468316 -0.118354045 -0.06775121 -0.07772133 0.016623147
-0.028298581 0.037115823 0.128571 0.04594811 -0.09758045 -0.03876116 0.00763338 0.021970073
-0.08530885 -0.090782754 -0.016296443 -0.15279306 0.102182716 0.0840959 -0.10788643 -0.00031305713
0.03807328 0.0115359165 -0.0032094717 0.12235832 -0.15781707 -0.07866572 -0.12052424 -0.1460144
-0.078313306 -0.11060331 -0.048955224 0.011971452 -0.09316566 -0.08345942 0.10872866 -0.117040634
0.14512578 -0.09517843 -0.04176092 0.08885111 -0.115889244 -0.11786592 -0.08276209 -0.040449604
-0.05572219 -0.112463824 0.14595258 0.055232897 -0.054359205 0.021590123 0.0077031767 -0.019345041
0.0062990845 0.117879815 -0.1366841 -0.073625326 -0.026923308 0.14027525 -0.11483012 0.08654091
-0.15053064 -0.09054926 -0.12501742 0.001938206 0.090355895 0.15042032 -0.046109457 -0.08776026
0.014740638 0.11137343 -0.0018102614 -0.13727865 0.03633623 -0.061080143 0.14222698 0.099488944
0.12129486 0.09218487 0.048876587 -0.103707366 -0.12713595 -0.09807605 0.0016831274 -0.15261208
-0.075321876 0.03906436 -0.14989352 -0.141161 -0.057452004 -0.08359079 0.037715267 0.03210009
0.111634806 0.15707764 -0.07331425 0.10099919 -0.0758772 -0.14518903 0.15045571 0.075146094
-0.12186031 -0.14251156 -0.055133242 -0.12577271 0.052593768 -0.03454389 -0.06583515 -0.13870391
-0.10138167 -0.028706145 -0.058665574 -0.089347735 0.060592867 0.14203872 -0.088899195 0.1078159
0.07550563 -0.12463025 0.1065256 -0.049411476 -0.05214971 0.12539177 -0.02245831 -0.117559314
0.00059848215 -0.14393102 -0.1069899 -0.14847922 0.06028141 -0.08511265 -0.14280967 -0.03478016
-0.15483277 -0.07946371 0.039480407 -0.14096434 -0.15810905 0.09915549 -0.03650805 0.1343527
0.060914632 0.0012420502 -0.025475299 -0.0066392273 0.14881061 -0.010918981 -0.040574834 -0.15317489
0.045889605 0.03952408 -0.13496381 0.077031784 -0.13577004 -0.10540906 -0.058011677 -0.053163636
-0.023721678 0.11591774 0.14924599 0.076773144 -0.0038177362 -0.09580136 0.09758493 -0.1276801
-0.13567188 0.14007331 -0.1401031 0.14059351 -0.040861674 0.047209483 -0.08960153 0.15529804
-0.07448539 -0.10408025 0.06583665 -0.111534625 0.043320555 -0.10860242 -0.12927522 -0.12346644
0.11569416 0.11615582 0.13146575 -0.11142968 -0.10200049 0.0052485177 -0.10064179 0.15130138
-0.10100513 -0.11314875 -0.13784872 0.08408044 0.13615441 0.09881482 -0.1138207 -0.08476687
0.08334097 -0.13889705 0.055312306 -0.0045983526 -0.08882161 0.07528431 0.034400735 0.044396605
-0.046702605 0.1484801 -0.13317677 -0.024997843 -0.14322278 0.060804177 -0.07421086 0.06984868
00000000: 77e0 e5bd 7e5f c3bd 0d57 183e 0c42 833d
00000010: 5401 9b3c 5e03 aabd a05b c43d 6a21 0a3e
00000020: a313 d03d 6f99 d53c 1753 02be 9ed2 f63c
00000030: b4da edbd f596 13be 1016 e23c e8f6 163c
00000040: 7683 e33a 4184 e3bb 975a 1dbe b7d7 14be
00000050: e6c2 fabd 60c0 66bd 847e a03d f051 04be
00000060: d455 0f3e b469 903d d208 85bd f019 f63d
00000070: 3a34 76bc 8652 0cbb 4f55 fe3d 4f28 3cbd
00000080: d598 adbd f3ba 68bd daac da3b 349a 3b3d
00000090: 137c 1dbe 56b3 a83d e9ed 973d f17a 9abd
000000a0: d602 d1bd 1425 09be 16d1 963d 2064 d6bd
000000b0: 9b63 f2bd 25c1 8abd 5c2c 9fbd 442d 883c
000000c0: 6dd2 e7bc c306 183d 1ea8 033e 1634 3c3d
000000d0: 42d8 c7bd 06c4 1ebd 6f21 fa3b 95fa b33c
000000e0: 68b6 aebd 4fec b9bd 1e80 85bc c975 1cbe
000000f0: 2c45 d13d 793a ac3d 90f3 dcbd d121 a4b9
00000100: baf2 1b3d 2401 3d3c 0056 52bb 0097 fa3d
00000110: cc9a 21be 7e1b a1bd 6ad5 f6bd cd84 15be
00000120: ba62 a0bd fd83 e2bd 4685 48bd e923 443c
00000130: a3cd bebd c6ec aabd 22ad de3d 00b3 efbd
00000140: da9b 143e e9ec c2bd 800d 2bbd 92f7 b53d
00000150: 5757 edbd b063 f1bd 2c7f a9bd 7cae 25bd
00000160: f33c 64bd 6f53 e6bd 9874 153e e43b 623d
00000170: c2a7 5ebd c5dd b03c ee6a fc3b 7e79 9ebc
00000180: 8d68 ce3b f96a f13d ebf6 0bbe e0c8 96bd
00000190: 458e dcbc 51a4 0f3e 0e2c ebbd 5c3c b13d
000001a0: b424 1abe e471 b9bd 9104 00be 670b fe3a
000001b0: 830c b93d c907 1a3e 45dd 3cbd a7bb b3bd
000001c0: b882 713c c117 e43d 4b46 edba c692 0cbe
000001d0: 4cd5 143d 2c2f 7abd f3a3 113e dcc0 cb3d
000001e0: 7169 f83d 6ccb bc3d d132 483d 8764 d4bd
000001f0: ed2f 02be 19dc c8bd 629c dc3a 5746 1cbe
00000200: 5b42 9abd f301 203d b07d 19be 828c 10be
00000210: cb52 6bbd a631 abbd 537b 1a3d 627b 033d
00000220: caa0 e43d f6d8 203e c825 96bd aad8 ce3d
00000230: 8165 9bbd 6fac 14be 1011 1a3e 32e6 993d
00000240: e691 f9bd 8dee 11be 65d3 61bd 90ca 00be
00000250: 906c 573d e57d 0dbd 94d4 86bd 6608 0ebe
00000260: 31a1 cfbd 2629 ebbc 504b 70bd f2fb b6bd
00000270: 3a30 783d 9972 113e c810 b6bd 95ce dc3d
00000280: b2a2 9a3d 253e ffbd 182a da3d b063 4abd
00000290: ef9a 55bd b366 003e 7dfa b7bc f0c2 f0bd
000002a0: 75e3 1c3a a762 13be 851d dbbd f00a 18be
000002b0: a4e9 763d 8b4f aebd b33c 12be a475 0ebd
000002c0: 7b8c 1ebe dfbd a2bd 35b6 213d f558 10be
000002d0: 57e7 21be 0912 cb3d 7789 15bd c193 093e
000002e0: 9f81 793d 4acc a23a 93b1 d0bc e08d d9bb
000002f0: cf61 183e 87e5 32bc cc31 26bd e1d9 1cbe
00000300: bdf6 3b3d 00e4 213d f433 0abe d7c2 9d3d
00000310: 4d07 0bbe b5e0 d7bd a79d 6dbd 1dc2 59bd
00000320: f753 c2bc 4866 ed3d f1d3 183e 3d3b 9d3d
00000330: fc32 7abb 8133 c4bd 9cda c73d 92be 02be
00000340: 92ed 0abe 616f 0f3e 3077 0fbe bff7 0f3e
00000350: 925e 27bd bb5e 413d 0281 b7bd 7306 1f3e
00000360: cc8b 98bd 0728 d5bd 5ed5 863d 446c e4bd
00000370: e570 313d f26a debd b960 04be f9db fcbd
00000380: 0ff1 ec3d 1ae3 ed3d f59e 063e 3e35 e4bd
00000390: a2e5 d0bd c2fb ab3b 481d cebd c0ee 1a3e
000003a0: c7db cebd 88ba e7bd 3728 0dbe 5e32 ac3d
000003b0: 106c 0b3e 6d5f ca3d d41a e9bd 419a adbd
000003c0: acae aa3d 073b 0ebe 288f 623d c7ad 96bb
000003d0: 1be8 b5bd a92e 9a3d c9e7 0c3d 37d9 353d
000003e0: 3b4b 3fbd 2b0b 183e 7e5f 08be 47c8 ccbc
000003f0: fea8 12be cd0d 793d ddfb 97bd d30c 8f3d

c.net.0.bias f4 [64]
-0.016732186 -0.068929695 0.08784589 -0.0013313362 -0.0054717045 0.07245522 -0.15400778 0.040955104
-0.115399405 -0.04515481 -0.018321183 0.06463882 -0.029333804 0.09715252 0.090563774 0.055310797
-0.027180046 -0.0918504 -0.01746144 -0.07864836 -0.048790563 0.15107049 0.08827666 0.14094163
0.060432237 0.03846618 0.062610276 0.13215978 -0.0806695 -0.025427347 0.05210408 0.06653433
0.11934358 -0.14977662 -0.081479385 -0.14233728 0.13670702 -0.08966858 -0.055016495 -0.060140856
0.1337072 0.15151018 0.11144721 0.10317981 0.05873194 -0.11310931 -0.020442862 0.08955575
-0.041630432 0.010051341 -0.038357705 -0.12034787 -0.062857814 0.08818083 -0.040066525 -0.08083518
0.15253201 0.083460175 -0.14182551 0.12972409 -0.01953268 -0.0038864396 -0.124097414 0.07196333
00000000: f011 89bc 032b 8dbd 8ce8 b33d 3b80 aeba
00000010: fc4b b3bb 6763 943d 37b4 1dbe 8ac0 273d
00000020: 8656 ecbd 40f4 38bd 4e16 96bc 5c61 843d
00000030: 724d f0bc e7f7 c63d 8079 b93d 938d 623d
00000040: b0a8 debc 101c bcbd 4b0b 8fbc 6412 a1bd
00000050: 9dd8 47bd 39b2 1a3e 65ca b43d 0153 103e
00000060: cb87 773d b78e 1d3d d139 803d e554 073e
00000070: 0d36 a5bd 034d d0bc 166b 553d 2743 883d
00000080: 686a f43d 0b5f 19be aade a6bd ddc0 11be
00000090: edfc 0b3e 29a4 b7bd fa58 61bd 4256 76bd
000000a0: 8aea 083e 7c25 1b3e 6f3e e43d f04f d33d
000000b0: e790 703d dba5 e7bd ca77 a7bc 0169 b73d
000000c0: ac84 2abd 61ae 243c f81c 1dbd f278 f6bd
000000d0: 99bb 80bd 2798 b43d cc1c 24bd ea8c a5bd
000000e0: 5a31 1c3e 2bed aa3d b53a 11be 64d6 043e
000000f0: 0003 a0bc a3b3 7ebb c926 febd 8361 933d
