experiments/07_control_structure_hypothesis/checkpoints/PWM/DroneCircleBulletEnv-v0/ppo/2021-12-14__04-47-15/seed_00021/torch_save/model.pt (torch, 82448 bytes, 19 tensors)

obs_oms.mean f4 [40]
00000000: af7c 7f3e f68b dcb9 3fd0 803f f276 073a
00000010: 8477 cd3a 3b41 833d cdc5 7c3f 5a51 5739
00000020: da29 1eba 9b09 94bc e0ef 1bbc 6c09 e63c
00000030: a334 453d 5e4e 343a 61bf 183a 6440 d0bb
00000040: 00ed 943e d5e2 923e 6366 923e f343 913e
00000050: 607d 7f3e fe81 dfb9 edc9 803f 25c0 023a
00000060: f908 da3a bc8f 833d 91ab 7c3f eae9 8c39
00000070: 7987 1dba 2854 a2bc f5eb 3cbc 9b37 013d
00000080: 588d 453d 6576 343a 4631 193a 15e9 c9bb
00000090: 6a41 943e 6b88 923e 3512 923e ccae 903e
0.24949907 -0.0004206595 1.0063552 0.00051675655 0.0015675877 0.06408926 0.9873932 0.00020534304
-0.0006033458 -0.018070986 -0.00951764 0.028080665 0.0481459 0.00068781327 0.00058268575 -0.006355332
0.29087067 0.28688684 0.2859374 0.28372154 0.2495017 -0.00042630726 1.0061623 0.0004987738
0.0016634754 0.064238995 0.9869929 0.0002687716 -0.00060092617 -0.01981552 -0.011530866 0.03154717
0.0482305 0.0006884097 0.0005843829 -0.0061618187 0.28956157 0.28619704 0.28529516 0.2825836

obs_oms.std f4 [40]
00000000: f68a 353e a4c2 343e d85d 223d 9a06 a93d
00000010: 9468 ab3d 29b3 b53d 374c 213d 0c36 ca3e
00000020: 47cb c83e 0cf3 213e 82c6 c93f 922b d33f
00000030: ae19 cc3e 1058 093d 9d7a 073d c55d 223d
00000040: 5eb4 113f 11a6 0b3f e520 0d3f a4ba 0c3f
00000050: cd97 353e a0d2 343e af5d 253d 022a ac3d
00000060: e5a1 ae3d fb3f b63d 9b34 2f3d 0623 cb3e
00000070: 4cba c93e 339f 2c3e b6c5 cc3f 298a d63f
00000080: be75 ce3e 0bcf 0a3d 331d 093d a85d 253d
00000090: cd80 113f b081 0b3f 9324 0d3f b088 0c3f
0.1772879 0.17652375 0.039640278 0.08253212 0.08369556 0.08872063 0.039379325 0.3949436
0.39217588 0.15815371 1.5763705 1.6497672 0.39863342 0.03353125 0.033075918 0.039640207
0.56915843 0.5455027 0.5512832 0.5497229 0.17733689 0.17658472 0.040372547 0.0840645
0.08526973 0.08898922 0.042774778 0.39675158 0.39399946 0.16857605 1.5997837 1.6760913
0.40324205 0.033888858 0.033475112 0.04037252 0.5683716 0.5449476 0.5513393 0.5489607

pi.log_std f4 [4]
00000000: 4352 90c0 4352 90c0 4352 90c0 4352 90c0
-4.5100417 -4.5100417 -4.5100417 -4.5100417

pi.net.0.weight f4 [50, 40]
00000000: 9db5 87be 27ac b8bd c712 c63c c9d2 c53d
00000010: 7bec 53bd eb19 26be 8878 d83e 1070 07bd
00000020: 76dd 86be 67a6 cc3e e0be 92bd 17e9 113e
00000030: ecb3 3cbc 89fb da3a 6f3f 053d 40e8 13be
00000040: 1bb8 253e 4061 19bd 2352 073e 6b35 7e3d
00000050: 4be4 1dbd 664d dc3c 05d3 0e3d 1633 173e
00000060: 3b63 0ebb 3884 ce3d 408e bf3e a91e 1bbe
00000070: 3c34 fdbd c8ef 613e 7aaf 103f 3c9a bbbd
00000080: 3b75 1abe e4fd 1b3c 7319 a9bc 587c cabd
00000090: 8c05 80bd a32f 2b3c 943f 393e 7e2f fa3d
000000a0: dc06 21be a6c0 b4bd 49f6 713d de79 8fbe
000000b0: 96f8 2e3b 83b5 bf3d 3d30 8c3d ec56 a9bd
000000c0: b974 053e 3ff1 573e 148d 0bbe 1635 843d
000000d0: 7bae 55bd b240 94bd 3356 adbc 608f 943d
000000e0: b52b 45bd d7b3 dc3d 0122 b43d f321 2c3d
000000f0: 9dc0 9fbd b123 373d 5b20 17bc 5452 053c
00000100: c68a 233d 93cd 443c 922b a93d bbec 3a3e
00000110: c41d 5d3e 4074 b73d 7ab4 1fbd 11be 14be
00000120: 82db f3bd aef7 a83d ee56 543c eeb2 b63d
00000130: d688 4c3d 37b1 c43d ddee 3e3e af91 5e3c
00000140: 550d e03d a40c 3ebe 7440 debd 79c7 b43c
00000150: 88e2 d7bc a89a 6b3e d118 563d b539 763e
00000160: dbe8 4f3d dc7e 0b3e a673 4dbe d3a3 6ebe
00000170: beec 8f3c eddf 3a3d 7a33 a23c 59e6 813d
00000180: 6847 dcbd 10bf 6f3d 9864 793d 1967 273d
00000190: 14ec 0c3e e235 6a3b 10e7 43bd 9d61 8e3d
000001a0: 3874 54be 84b9 283e ca39 633c b078 6a3d
000001b0: 851d d63c 4bed 643d d8dc 063e 937b 3fbc
000001c0: acaa 723d e82c a93c 3187 16be aa8d 6c3c
000001d0: c5c8 bcbe d7be 153e 2ec5 df3d 833d 043e
000001e0: dcf6 b4bc 69f7 7fbd 07ab 56bd 22a3 68bd
000001f0: 8cad 1d3e 55a9 84bd 911e 3c3e 7aef 193b
00000200: 9ff4 0b3e 14fe 52bd f2dd 83ba c12d 1ebe
00000210: 9f5d 0c3e f873 843d 3987 7b3d e377 833e
00000220: 2a45 a5bd 014e 7b3d bbf7 7a3b 4154 fa3d
00000230: 3b02 393e 2cd0 053d ba0c 7fbe 9916 28be
00000240: b2bc 73bd b82a 093d 454d 763e b29e 68b9
00000250: 6b40 063e 8873 9fbe 3f4a f2bd c6cb f03c
00000260: acf5 9f3d e18a b1bd 54a7 a43d cc67 683e
00000270: 7784 3e3d c9c0 dc3d c933 9cbd 754e 163e
00000280: 5a72 663e 8183 bebd d1e0 36bd 4bcf 74bb
00000290: ea7a ab3c 2633 983d f260 4e3e ba3e 873e
000002a0: 32f0 dabd 98fc 9e3d 6074 6bbc 7874 c7bd
000002b0: 65b6 13be b0fd 233e 48f5 3abd 3794 a3bd
000002c0: a73d b6bc 2fbc cebd 7b35 de3d 914a b83d
000002d0: d10c 29bd 7233 33bd a743 33be da34 49bd
000002e0: 38bc 503e 49e5 2ebe 116c 563e 1e8f 8b3c
000002f0: 8c55 123e c972 20be 4000 62bd bb6f b43e
00000300: 8341 cebd 0770 8abd 34a0 a3bd bc95 573d
00000310: 3ce4 3ebb 671f ed3b 6f55 563b 6e8e adbd
00000320: 0b55 5ebd 33f5 173e d38a 793e 9e73 5a3e
00000330: 4843 923d 4e1a 4abd 86b5 a1bc 1d17 d53d
00000340: 6acc 64be f36c a13d 3812 973c c658 4bbd
00000350: d5f2 173d 0fde 463d 3fd9 fd3d 362f 47be
00000360: e6c5 35bd a27d 303e 68a6 663e 72e3 513d
00000370: 310c 14be 07b9 09be aec0 6e3e 1d4c 8d3e
00000380: b99e 4f3e 65ce 133d c800 d6bc c6e4 533d
00000390: 160b 83be 4ac0 953e cffe 383e fbfd 7ebd
000003a0: dec7 f03b 00de 0dbe a370 893d a8ea 22be
000003b0: 2b46 3abe 05d2 1dbd 1bfd 0e3d 4097 ac3d
000003c0: d864 9abc d7e2 0ebe ca22 183e e6a6 9a3d
000003d0: 11d1 463d 3856 75bc 4d72 8bbc a2a1 1c3e
000003e0: 8de0 0c3d 4ac2 70bc 2a90 923d 2a36 f4bd
000003f0: af90 98bd 1a1a ceb9 b6dd 52be 7aa1 9abc
-0.26505747 -0.090172105 0.024178876 0.09659345 -0.051739197 -0.16220824 0.42279458 -0.033065856
-0.26340836 0.39970705 -0.07165313 0.14249073 -0.011517506 0.0016707043 0.032531198 -0.14444065
0.16183512 -0.03744626 0.13214926 0.062062662 -0.038547795 0.026892375 0.034869213 0.14765581
-0.0021726626 0.100838125 0.37413216 -0.15148415 -0.123634785 0.22064126 0.56517756 -0.09160277
-0.15083782 0.009520981 -0.020642018 -0.09886998 -0.06251058 0.010448369 0.1809066 0.1221609
-0.15725273 -0.08825807 0.059072766 -0.28022665 0.0026698462 0.093607925 0.06845138 -0.08268532
0.13032807 0.21088122 -0.13628036 0.06455438 -0.05216835 -0.07238902 -0.021159267 0.07253909
-0.048137385 0.10776489 0.08795548 0.042024564 -0.0780041 0.044711772 -0.009224023 0.008137304
0.039927267 0.012011903 0.082602635 0.18254368 0.21593386 0.0895772 -0.038990475 -0.1452563
-0.11907102 0.08250366 0.012960179 0.08920847 0.049935184 0.096041135 0.18645807 0.013584538
0.10940043 -0.1855951 -0.10852137 0.022067772 -0.026353136 0.23008215 0.05226976 0.24045451
0.050759178 0.13622612 -0.20063648 -0.23304681 0.017568942 0.04562371 0.019799937 0.063427635
-0.10755807 0.05853182 0.06088695 0.040869806 0.13761932 0.0035737683 -0.04782778 0.06952212
-0.20747459 0.16477019 0.013868758 0.057244003 0.026137123 0.055890363 0.13170183 -0.011687177
0.059244797 0.020651296 -0.14700009 0.014438072 -0.36871925 0.14623581 0.10926281 0.1291409
-0.022090368 -0.062491808 -0.052409198 -0.0567962 0.15398234 -0.0647761 0.18371035 0.0023488686
0.13667534 -0.05151184 -0.0010060652 -0.15447141 0.13707589 0.06467432 0.061408255 0.25677404
-0.080698326 0.061353687 0.0038294632 0.122231014 0.18067257 0.03266923 -0.24907199 -0.1641487
-0.059506126 0.033488005 0.24052913 -0.00022184363 0.13110511 -0.3114283 -0.118305676 0.029394042
0.0781053 -0.08669067 0.08039728 0.22695845 0.046513047 0.10778958 -0.07627065 0.14678366
0.22504559 -0.09302426 -0.044647995 -0.0037355002 0.020932633 0.07431631 0.20154169 0.26415044
-0.10690345 0.07763022 -0.014371008 -0.097390115 -0.14425047 0.16014743 -0.045644075 -0.07987254
-0.022246195 -0.10094487 0.10850044 0.089985974 -0.04127199 -0.043750234 -0.17506276 -0.04912267
0.203843 -0.17079653 0.20939662 0.017036017 0.14290446 -0.15668787 -0.05517602 0.35241494
-0.10071089 -0.06759649 -0.07989541 0.052633032 -0.0029127738 0.0072364095 0.003270473 -0.08474432
-0.054280322 0.1483963 0.24369363 0.21333167 0.07141739 -0.049341492 -0.019739877 0.10404799
-0.22343603 0.078821085 0.018441305 -0.049645208 0.037096817 0.048551615 0.12394952 -0.19451603
-0.044378184 0.17235425 0.22524416 0.0512423 -0.14457776 -0.13449489 0.23315689 0.27597132
0.20275392 0.036085505 -0.02612342 0.051731847 -0.25594395 0.29248267 0.18065952 -0.062253933
0.007348045 -0.13854218 0.06710937 -0.15909827 -0.1819083 -0.03853037 0.03490935 0.08427286
-0.018846914 -0.1395372 0.14857021 0.075513646 0.048539225 -0.014974169 -0.017022276 0.15296033
0.034393836 -0.01469476 0.07156403 -0.119243935 -0.07449471 -0.0003931083 -0.20592389 -0.018875826

pi.net.0.bias f4 [50]
00000000: 994d ad3e 8653 ffbd 57f8 8e3e 1a12 693e
00000010: 832c ba3e 95a1 f8bd e473 b53e 0a4f 643e
00000020: 1a5b cbbc 565d 163e cda2 54bd 162d 083e
00000030: 41a6 323e c43d 07be a928 8abe 5353 6e3e
00000040: 2eff a53d 8395 943e aa19 953e ace6 bd3e
00000050: 32f8 973e a036 5a3e de72 82be f121 d5bd
00000060: 1db0 5b3e 137e 97be 7fe4 3cbe a301 45be
00000070: 6880 0f3e 63ef 42bd 398a 653e ada9 ba3d
00000080: b846 7d3e e562 19be 58fc aabd c756 a73d
00000090: ba1c 53bd 2d95 b03e 81ff 8f3e 4649 15bc
000000a0: b63b 583e c104 68be 597b 1b3e 02ae 3e3e
000000b0: df1a ce3e 3ad5 fbbc fa17 2bbe 7c0a 253e
000000c0: 4fdb 3d3e ad7f 713e
0.33848265 -0.12467103 0.27923843 0.22760811 0.36362085 -0.12140194 0.3543998 0.22295776
-0.024823714 0.14684042 -0.05191307 0.13298449 0.17446233 -0.13207155 -0.26984146 0.23273973
0.08105312 0.29020318 0.29121143 0.3709005 0.29681545 0.213099 -0.25478262 -0.104068644
0.214539 -0.29588374 -0.1844654 -0.19238906 0.14013827 -0.04759158 0.22416009 0.09114394
0.24734008 -0.14979132 -0.08348912 0.08170848 -0.051541068 0.34488812 0.28124622 -0.009111708
0.21116528 -0.22658063 0.15183772 0.18621066 0.40254876 -0.030741323 -0.16708365 0.1611728
0.18540691 0.2358386

pi.net.2.weight f4 [50, 50]
00000000: d991 833e c37b 34be bf7b 043e 9647 09bd
00000010: 6462 1d3e 9a9c 243e 58a8 723e 2726 ebbd
00000020: e50a 4f3d dc02 25bd 938d b7bd d54d 2dbe
00000030: 5b67 56be 5ed2 143e 6571 013e 44ce b5bd
00000040: 295b 86be d638 b2bc e25d e2bc 14af e83c
00000050: 0252 8d3d 94b8 9ebc d513 d8bd faf8 41be
00000060: 3c70 14bd 416a 34bc 8623 d6bc 5e5c a43d
00000070: 4764 783c ede2 90bc 3060 99bc c160 84be
00000080: a90a 843d 88b3 053d f65f 69be 1b18 263b
00000090: 426b b53d 5140 83bc ce44 07bf 145f c3bd
000000a0: 7617 bc3d 0fac a8bc bc71 433d e7b1 76bd
000000b0: 6686 baba 8814 233d 12f7 3a3d 7ed7 1f3d
000000c0: d081 5cbd 6b38 183e 7941 25be 570b 223e
000000d0: 0886 6f3c f1dc cabc 31e6 6cbd 4cab 96bc
000000e0: 4442 28be ae40 2abc 48a8 e73d d659 a73e
000000f0: ec42 dbbb 426d 303d 2166 7cbd 7b02 82bc
00000100: 4371 94bd e618 f93d 7e8d 4e3d e182 633d
00000110: 0496 ca3c a9d8 e33d 4f97 febc 885e 103d
00000120: 3795 c43d d575 d8bc 551e b9bc 8f44 c8bd
00000130: edae b1bd 8707 43bd 3878 a23e 8365 573d
00000140: 5c59 033e a122 613d a573 bc3d 0253 f0bd
00000150: 9426 7c3b 4412 abbd 2eec 253e 227e 31bd
00000160: 518f 823e 21c5 7b3d 4414 18be 9826 053e
00000170: d87b e33d 3eb5 ae3d c1f9 fb3d d2b2 a73d
00000180: ae04 06bd e878 113e e5ae 54bc d669 1abd
00000190: b933 cfbc 99e0 b1bd 0441 033e a9e9 883d
000001a0: 920b ea3e 7b88 4d39 e001 733e 394b a4bc
000001b0: 3335 233e a7e7 1f3e 9917 a43d 0eb4 76be
000001c0: 6cf6 22bd f698 0fbe 6775 db3d c83d 403e
000001d0: ccab 053e e752 78be 8dee 80bd 8dc3 c4bd
000001e0: 180b 5b3e 4943 61be a2ff 583d 7ad9 22be
000001f0: 03eb 903e 0fe8 d9bd e2ec 123e b0ff a6bd
00000200: f2ec c23e ceff c43d 42e0 bdbc cc9a 4bbe
00000210: 50ae 90be 68f7 8fbc 948a aabd 3d65 05be
00000220: 16e0 97bb 7f1c 8c3d f728 e8bd 8875 78bd
00000230: ca91 e8bd cfa1 85bb 3de3 e0bd e5ee 0e3e
00000240: 9b63 68bd 0e0e 003d 10ae bdbe 3df6 6f3e
00000250: 12f5 6b3e a161 bf3d 0bcd 9c3d 8572 97bc
00000260: 1d04 d43d 5ad3 273d b48c 07be c427 743d
00000270: 6f2e 86bd 65a5 6abc a22a debd 1ced b2be
00000280: 15e8 4dbd 9559 043e 8b30 d8bc 2104 4a3d
00000290: 6db8 1ebe 6e0b 9ebc eff5 cdbd 5f80 5f3e
000002a0: 7c11 4ebd 4f84 b8bc 937d bfbd ee79 97bc
000002b0: f372 f73d ff88 d93c 3a60 503e 00d0 fb3d
000002c0: 6da1 3bbc b845 d53d 3978 29bd 308b 0c3e
000002d0: ad2d 453e f285 9abc f4d1 d33c 94fb ef3d
000002e0: 7f88 eb3d 23b3 3b3d 6f96 5fbd 1daf bfbd
000002f0: 9378 a4bd 9054 743e fbd5 1ebc 5350 f5bd
00000300: ebe8 e13d 2443 193d 395d 9b3d dd3b c43d
00000310: 2666 c6bc bca7 3fbc 54d5 d4bc 9dad 2f3e
00000320: 1667 a5bd 7777 783d 659e 193d 05b0 fabd
00000330: 2fa2 a3bd 1fb8 893e 1946 e33c 7d3d c83c
00000340: a7e6 cf3c 2a20 613e a215 6f3e d1f7 02be
00000350: e8f2 2ebd c256 4fbe 2fc2 07bd 7968 523e
00000360: 2a88 c93c 22a9 683d e770 583e 778f 3dbd
00000370: d85c 343d 5f1d fb3d 3fc2 023e f537 2d3e
00000380: c202 84be 2406 793c a35f 7c3d fea7 413e
00000390: b5fb 5fbe 96cd 5bbd f5e8 38bd 3c31 463e
000003a0: 9304 25ba 7ba0 a5bd 4aab 0fbd dd7c e73d
000003b0: 040a a7bd 0c8f 59bc 6d83 f53d a90c cbbb
000003c0: 565f c5bd e758 333d 62d4 cdbd d6b2 1bbe
000003d0: d24d 33bd 0fb5 463c 77fd f93d 8dff 9dbd
000003e0: 484d 123c 0968 92bd 9986 38be cbbe edbc
000003f0: a180 8c3d 3f39 dd3d 0aab e3bd 5fe6 8b3b
0.2569721 -0.17625336 0.1293783 -0.033515535 0.15369564 0.16075364 0.2369703 -0.11481886
0.0505475 -0.04028593 -0.0896255 -0.16924222 -0.20937864 0.14533374 0.12640913 -0.08877233
-0.26241425 -0.021755617 -0.027632657 0.028403796 0.069004074 -0.019375123 -0.10550658 -0.18942633
-0.036239848 -0.011011661 -0.026139986 0.0802543 0.015160627 -0.017686332 -0.018722624 -0.25855067
0.06447346 0.032641917 -0.22790512 0.0025343958 0.088583484 -0.01602188 -0.5283936 -0.09539619
0.09184162 -0.020589856 0.047715887 -0.060228255 -0.0014230728 0.039814502 0.04564578 0.03902387
-0.053834736 0.14865272 -0.16138257 0.15824638 0.014619358 -0.024763556 -0.057836715 -0.018392228
-0.16431528 -0.010391397 0.11311394 0.32685727 -0.0066913273 0.043072946 -0.061620835 -0.015870323
-0.072481655 0.12162952 0.050427906 0.055544738 0.024729736 0.11125309 -0.031078009 0.035246402
0.09598773 -0.026423374 -0.022597471 -0.097787015 -0.086759426 -0.0476146 0.31732345 0.052587043
0.12827057 0.054964665 0.09201745 -0.117345825 0.0038475143 -0.08353093 0.16203377 -0.04333318
0.25499967 0.061467294 -0.1485148 0.13003004 0.11107606 0.08530663 0.12303496 0.08188404
-0.032719307 0.14206278 -0.012981151 -0.03769859 -0.025293218 -0.08685417 0.1281777 0.06685192
0.45711952 0.00019601166 0.23731184 -0.0200554 0.15938263 0.15615712 0.080123134 -0.24092123
-0.039785787 -0.14023194 0.10715752 0.18773568 0.13053817 -0.24250375 -0.062955 -0.09607611
0.2139095 -0.21998324 0.052978165 -0.15903273 0.283043 -0.10639965 0.14348176 -0.08154237
0.380714 0.09619103 -0.023178224 -0.19883269 -0.2825799 -0.017574027 -0.08327213 -0.130269
-0.0046348674 0.06841373 -0.113359384 -0.06065896 -0.11355932 -0.004078127 -0.10980842 0.13958319
-0.056735616 0.031263404 -0.37046862 0.23433776 0.23042706 0.09344793 0.07656296 -0.018487224
0.10352347 0.040973045 -0.13237268 0.059608236 -0.06551825 -0.01432166 -0.10847975 -0.34946525
-0.05027016 0.12924798 -0.026390335 0.049320344 -0.1550004 -0.01929256 -0.10056674 0.21826313
-0.050309643 -0.022524027 -0.09350123 -0.018490758 0.12082472 0.026554583 0.20349208 0.12295532
-0.011452061 0.104136884 -0.04137442 0.13724971 0.19255705 -0.018862698 0.02585695 0.117179066
0.11500644 0.045825135 -0.054586824 -0.09359572 -0.0803081 0.23860383 -0.009694572 -0.11978211
0.11030754 0.037417546 0.0758614 0.095817305 -0.02421863 -0.011697706 -0.025980629 0.17156072
-0.08076303 0.060660806 0.037504572 -0.12240604 -0.079899184 0.26898286 0.027743386 0.024443382
0.025378538 0.21984926 0.23348096 -0.12789847 -0.042712122 -0.20247939 -0.033144172 0.20547666
0.02460106 0.056801923 0.21136819 -0.046279397 0.044033855 0.122614615 0.12769412 0.16915877
-0.25783354 0.015199218 0.061614644 0.1891174 -0.21873362 -0.05366286 -0.04514404 0.19354719
-0.0006294932 -0.0808725 -0.035075463 0.11303113 -0.08156207 -0.013278734 0.11987958 -0.0061965776
-0.096373245 0.043785956 -0.100502744 -0.15204939 -0.043775387 0.012128129 0.12206548 -0.07714758
0.008929558 -0.071487494 -0.18020095 -0.029021641 0.068604715 0.108019345 -0.111166075 0.0042694057

pi.net.2.bias f4 [50]
00000000: 7e2c e43b 62d1 863c 4036 833e e7cb b53d
00000010: f26d 35be 3443 d4bc 0d06 073e 2550 f63c
00000020: 0df9 b9bc 8f17 b63d 9427 9f3c 4124 563e
00000030: 1610 3a3c 7bfd 193c b887 f73c d427 5b3d
00000040: fee9 2b3e c38b 383e e1fb 873c 5b9f 803e
00000050: 6ed4 813e 9519 823e 0338 e3bd a1f0 173e
00000060: 8bc7 333e 686a 0abe 68e1 033c 28a7 983d
00000070: d804 093e e5b1 083e 2ad0 9bbb 2af7 97bd
00000080: 8f49 a3bc 5bd6 e03d 05a5 a5bd 35bc 0c3e
00000090: d24a 2c3e 2fc2 873d 59c9 8fbc db97 3f3e
000000a0: 2b2d c33d b97d 00be 03e7 2d3d 4b20 4dbc
000000b0: 44ec 5c3d 8cbf 3c3d acca e33d fe7d 6dbc
000000c0: 8bd0 c2bd 444e ba3d
0.0069633117 0.016457263 0.25627327 0.08876782 -0.17717722 -0.025910951 0.13185902 0.030067513
-0.022701764 0.08891212 0.019428052 0.20912267 0.011356374 0.009398813 0.030216083 0.05350478
0.1678848 0.18022065 0.016599597 0.2512158 0.25357383 0.25410143 -0.11094668 0.14837886
0.17556588 -0.13517153 0.0080493465 0.074537575 0.13380754 0.13349111 -0.0047550397 -0.0742019
-0.019932536 0.10978385 -0.080881156 0.1374367 0.16825417 0.066288345 -0.017552065 0.18710272
0.095300995 -0.1254796 0.042456638 -0.012519906 0.053936258 0.04608111 0.11122641 -0.014495371
-0.09512433 0.09096959

pi.net.4.weight f4 [4, 50]
00000000: 6e09 2a3e 984c 1abe 1900 623e 41f6 113e
00000010: e6ff 783d 2e82 933e 1221 9f3e 2b06 523e
00000020: 4946 18be d2c6 1fbf 8293 9c3e 09ed 183e
00000030: 9b83 703e f371 32be 705a e9bd c908 7e3e
00000040: 101c eebd ff91 8cbc 5963 9ebd bd90 993e
00000050: bc56 893e 137b a9bc 5b15 5bbe b521 503d
00000060: 9512 1e3d f382 96be 8b0b 903d 3d6e b73b
00000070: 74c9 56be eb3c c7bb a3ee a8bd 2cf2 46be
00000080: fb96 c93d 43e0 c4be 2fb7 13be 2f97 acbe
00000090: 8157 dcbd 2048 2a3d e936 82bd 3ff9 093e
000000a0: 4ce5 1dbc 916d 2e3e f13b 6a3e 9e89 35bd
000000b0: 66ba 463e 2bcf 163e c382 5e3d 2223 89be
000000c0: 7dc5 e9be b348 18be 1c76 583e 3fb9 53be
000000d0: fcf4 87be 8dc0 413c 8678 833e 1916 6d3d
000000e0: aafe 663e 9d11 f83d 5af7 a4bc 54f3 ee3d
000000f0: 85da 2ebe c138 7abd ece1 3abe bb97 863e
00000100: 4c5d 67bd 9d2a 45be b876 fabd 3571 3c3e
00000110: 1a59 d2bd 717d c53e 65f7 243e 1fcd 303e
00000120: d7ed f3bd c402 763e 0103 ac3e a0e5 8fbd
00000130: b892 8abe dcfc 42be a700 893c 5459 a03d
00000140: 3fda 073d e645 5f3e 70ab 8cbe 06d5 a1be
00000150: 85fb dcbe add7 03be 9564 f93d fe45 6c3c
00000160: 1e48 f03d 80ac 043e 56fd 243e 4b18 d3be
00000170: b998 093f 617a de3d 3929 153d 3ec2 af3d
00000180: a77c 8cbe 92a2 3abe 3e12 dcbd b35d 9b3e
00000190: d7f8 98be 98b6 debc 19a9 2abe 88e9 0e3e
000001a0: e0dc cfbd 625a 033e 1b98 d4be 107d 88be
000001b0: 4a66 c23e 7fe0 1cbd 2f27 7bbd ffd8 8f3d
000001c0: 9849 103e a6f5 653e f1ad 6fbe 4bd7 cfbc
000001d0: a779 71be 2573 8f3e 4dd3 8bbe 9a8a 8dbc
000001e0: 0d08 a63d c67f df3e 3886 7d3d 3908 f43d
000001f0: d6b2 463d 67fa e5bd 146e b03e 483d 47be
00000200: 6178 943d 2391 303e 16d4 77be 5bd0 863b
00000210: 6eea 8e3d 35a8 383e 34d6 1dbe 3858 7fbd
00000220: db75 133e b25b e0bd 936f 26be 6d28 203e
00000230: 2aa5 823e e72b f9bd 182e a93e 814d e5bd
00000240: 61af 833e dc9e f73d 7b88 7fbe 4108 a23e
00000250: 22d2 153e ec75 e4bc 5ef5 073d d84a 94bc
00000260: 7896 ca3e c20f 22be 7cc1 f03d d2ba 4bbe
00000270: 9800 35be 2117 4ebe c16b f43d 510c 2fbe
00000280: 5e37 133d c957 a03e bb1b 33be 0ee1 093e
00000290: ca8b d9bd 0af7 5cbc b54a ac3e 2bc9 bf3e
000002a0: 82d5 593d c505 083d ee94 653e b2ea 5b3b
000002b0: ba92 2ebe 618b 87bd d555 9ebe 15e8 6fbe
000002c0: d26c c7bd dd1b c93e e506 83be ce4e 8b3e
000002d0: 591b 30be 8725 6cbe 6a5c 4cbd e9ed 14be
000002e0: 7392 b23d 4134 033e f1c2 493e 8d85 323e
000002f0: ccee 89be 0182 3e3e a4da b0bd 4b55 fd3c
00000300: 3ace cdbd c248 79be 8c01 703d 76f0 3e3e
00000310: d344 ee3b 1c63 0fbe 7507 673d 0bfa a73d
0.1660516 -0.1506828 0.2207035 0.14254095 0.06079092 0.28810257 0.31079918 0.20510165
-0.14870562 -0.6241275 0.3058129 0.14934172 0.23487704 -0.1742628 -0.11394203 0.24808039
-0.11626446 -0.01715946 -0.07733793 0.2999324 0.26823986 -0.02068857 -0.21394865 0.050813396
0.03859194 -0.2939678 0.07033452 0.005597858 -0.20975286 -0.00608026 -0.08248641 -0.19428319
0.0984325 -0.38452348 -0.14425348 -0.33709094 -0.107588775 0.04157269 -0.063581295 0.13473986
-0.009637188 0.17033984 0.22874428 -0.044320695 0.19407043 0.14727466 0.054323923 -0.26784617
-0.45658484 -0.14871483 0.21138805 -0.20676135 -0.26554096 0.011825693 0.2567789 0.057882402
0.22558084 0.121127345 -0.020137478 0.11667505 -0.17075546 -0.06108928 -0.18250245 0.26287636
-0.05648546 -0.19254537 -0.12229675 0.1840256 -0.10270901 0.38572267 0.16109999 0.17265747
-0.11910599 0.24024493 0.33596042 -0.07026219 -0.27065063 -0.1904177 0.016723944 0.07829538
0.03316712 0.21804008 -0.27474546 -0.31607836 -0.43160644 -0.12875243 0.121773876 0.014420984
0.11732505 0.12956429 0.16112265 -0.41229472 0.5374866 0.10863186 0.036416266 0.08581971
-0.27438852 -0.18226078 -0.10745667 0.30344924 -0.2987735 -0.027186677 -0.16666068 0.13956273
-0.101495504 0.12827447 -0.41522297 -0.26657915 0.37968665 -0.038300034 -0.061316665 0.070238106
0.14090574 0.22456989 -0.23406197 -0.025371214 -0.23581563 0.28017536 -0.27309647 -0.017278004
0.08107004 0.4365217 0.06189558 0.11915631 0.048510395 -0.11229401 0.34458983 -0.1945697
0.07249523 0.17242865 -0.24201998 0.0041141934 0.06978308 0.18032916 -0.15413743 -0.06233999
0.14400427 -0.109549895 -0.162535 0.15640421 0.25516635 -0.12166577 0.3304298 -0.11196423
0.2571974 0.12090847 -0.24954407 0.31646922 0.1463094 -0.02788826 0.033192985 -0.018102095
0.39567924 -0.15826324 0.11755654 -0.19895485 -0.17676008 -0.2012601 0.11934615 -0.17094542
0.035941474 0.31316975 -0.17491047 0.13464758 -0.10622366 -0.013486633 0.33650747 0.37458166
0.053182133 0.033208627 0.22420093 0.0033556637 -0.17048159 -0.06618381 -0.3092486 -0.23428376
-0.09737553 0.3927907 -0.25591198 0.2720856 -0.17197932 -0.2306119 -0.04989282 -0.1454388
0.08719339 0.12812902 0.1970327 0.17433758 -0.2694 0.1860428 -0.086354524 0.03092446
-0.100491 -0.24344161 0.058595225 0.18646416 0.007271388 -0.14002651 0.056403596 0.08201989

pi.net.4.bias f4 [4]
00000000: 66dd c8bd 8a7a 21bc ea75 acbd 26a9 08bc
-0.098078534 -0.009855876 -0.08420928 -0.008341109

v.net.0.weight f4 [64, 40]
00000000: eaa5 4dbe 65c1 a53e 969b 0a3e a90a 47bd
00000010: fbb2 53bd 695a 983c b2b3 933c 31e8 1bbe
00000020: 3dc0 07be 8f38 2bbc d692 61bd 352e 3abb
00000030: 55cc fd3c 3441 153e 8efc 113b 885f 2e3d
00000040: 5636 533c 3522 c9bc de60 2bbb 1f77 77bc
00000050: 171e 373d 7301 523d 7c49 2cbc 0d4a 223d
00000060: 8673 1bbe 3bb8 9f3d c396 6cbe cd2c 48be
00000070: b623 cebd 9114 213d 3995 833c 5541 a43a
00000080: 5e63 233d 053c 603e d43d 5bbc f45f 2abe
00000090: 471c 64bb 7d8c dbbc e0e2 913b 42b7 10bd
000000a0: 2584 893f 4aa3 54bf 5ba7 09be 8881 3f3c
000000b0: b2cb 3a3e ea08 d53d 1fb6 6c3e 1fab 323e
000000c0: 8a40 1dbe 7285 5a3e fdac 05bc 8882 693e
000000d0: dd3b 303d 1b71 c63d 03fd 68bd e423 47be
000000e0: 1bfd 65bd f685 843d ce3b 10bc 4e95 a3bd
000000f0: af4a 833f 9bde 5dbf b070 26bc 423e cbbd
00000100: d218 e73e 8960 b03d 2f4c 563e 54f5 db3e
00000110: 2c36 65bd 3eca 993e fcaf 7dbd 9917 183f
00000120: 3667 75bd d9a3 993e 533d 3dbe fb87 83be
00000130: f5be 58bd 1e90 e73d cf0d e5bb 2712 a2bd
00000140: 6db0 18bf 9df4 cdbe a92c c93c 5611 18be
00000150: 4288 57bd ef92 bc3d 330a 673d 2379 aebc
00000160: dae1 af3c 6da7 303e edac f3bd 4713 8fbc
00000170: 53eb 313d 8678 87be 849e b93d 2c08 c6be
00000180: 087e d93b a736 aabc 2f91 913d 76d0 813d
00000190: 6e33 0dbf 7029 e8be e8ba 423e c9f3 a43c
000001a0: 1161 633d e55c 09be 7fda ff3e 3398 a73d
000001b0: d11d 2abd 05ff c03d 7a1f e5bd c4dc abbc
000001c0: a424 a03c cda6 2abe 26d2 8f3d 68c5 74be
000001d0: 974d 583d d28f 10bd 56a3 b63d 05c7 813d
000001e0: 8c18 5b3e bd43 a4bf 5ce5 6a3e fb03 8abd
000001f0: b7f0 1f3d acf0 adbd fa20 f23d 0b70 b83e
00000200: 5d7f d9bd 5822 f13e cef1 3a3d 1aba 29be
00000210: 5f25 8bbd 9b7f d0bd d768 01be 07cc d3be
00000220: d841 053d 4bcc be3b 9ded 9d3c 49eb 4ebd
00000230: c96c 2c3e e649 9fbf a6fe 383e 7f22 20bd
00000240: 1e26 b0bc f588 01bd 14c8 c33e eab4 ac3e
00000250: 8200 d83b 384f 0f3f f0a0 62bc 1f98 ef3d
00000260: 26c2 16be 391c 2ebe 1dc6 b1be f924 dabe
00000270: fabf e33c 86e5 26bd 6e8b 4dbc d755 9abc
00000280: 25e5 213f c4d1 38bf 1401 d4bd 9962 cebb
00000290: 2af6 8ebe 987b 6c3e b683 88be 5031 273e
000002a0: fb51 2a3e 78af d33d 0363 d3bb 92c6 a63d
000002b0: d1db 923d 938d 923e 16a6 27bd c11c 453e
000002c0: 0870 afbc a531 8f3d c282 5cbd 9db2 cbbb
000002d0: 914d 2b3f 7969 39bf e125 16bd 63d8 a6bd
000002e0: ecc7 87bd 8eaa fbba 3dab 5bbe bc41 e23d
000002f0: 4228 973e 1f69 c2bd 353d 51be 9fd1 233e
00000300: 843d ef3d c7ad 173e 8516 e4bd b861 603d
00000310: b0b3 ca3c 0892 563d 1f3b 94bd 72aa 473d
00000320: 73b8 a2be b28b 84bf edf7 163e 3855 fb3d
00000330: 9b77 57bd ff6b 0fbe 98df 723d 06df c4be
00000340: d57b 763a d083 1c3e 6321 173e 8f3c cc3c
00000350: ffbc d03c bea8 7b3e f9e2 85bd ea2e 1dbe
00000360: a018 303d 5c9e d53c be30 033e 9b6f 313d
00000370: 4043 a6be 9708 a1bf f0ff ee3d 2143 723e
00000380: 19b3 b3bd c9d1 183e d13c 823e b9ec 1fbf
00000390: a9ea a63c c8ea 3e3e fa1c 903e 190c 353c
000003a0: 35ab e9bd 0a21 003e f45c 27be 6b57 0cbe
000003b0: bfd5 eb3c c894 223c 3091 b23d b315 ef3c
000003c0: 6c9f 753d 8189 e1bd 0fff 8b3c 2555 393e
000003d0: 6c87 35be 2911 473e 4601 0d3c 05bb ed3d
000003e0: 058a ea3d 591f 99bd 9894 273d ba4f fabb
000003f0: 23d5 71bc 4f27 843d fe60 22bd 000a 35be
-0.20082822 0.3237411 0.13535914 -0.04859415 -0.05168436 0.018597798 0.018030021 -0.15225293
-0.13256927 -0.010450496 -0.055071674 -0.002840889 0.030981222 0.14575654 0.0022275778 0.042571574
0.012891373 -0.024552444 -0.0026150267 -0.015104084 0.04470643 0.051270913 -0.010515567 0.0396214
-0.15180787 0.07798811 -0.23104386 -0.1954834 -0.10065405 0.039326254 0.016062366 0.0012531677
0.039889686 0.21897896 -0.01338144 -0.16638166 -0.0034806894 -0.026800388 0.0044520944 -0.03533102
1.0743452 -0.8306166 -0.13442747 0.0116885975 0.18241766 0.10402091 0.23116349 0.1744809
-0.15356651 0.21339968 -0.008158919 0.228037 0.04302584 0.09689542 -0.056881916 -0.19447285
-0.056149583 0.064708635 -0.008803321 -0.07987462 1.0257167 -0.86667794 -0.010158703 -0.09923984
0.45136124 0.086121626 0.20927499 0.42960608 -0.055959865 0.3003711 -0.06193541 0.5941101
-0.059912883 0.30007818 -0.18480425 -0.25689682 -0.052916486 0.11306785 -0.0069901715 -0.079136185
-0.59644204 -0.40225688 0.024557428 -0.14850363 -0.05262018 0.09207713 0.05640621 -0.021297997
0.02147 0.17251368 -0.11898217 -0.017465247 0.043437313 -0.2645914 0.090634376 -0.3867811
0.0066373385 -0.020778013 0.0710777 0.06338589 -0.551566 -0.45344114 0.19016612 0.020135777
0.05551249 -0.13414343 0.49971387 0.081833266 -0.04153234 0.09423641 -0.11187644 -0.020979293
0.019548722 -0.16665192 0.070225045 -0.2390343 0.05280837 -0.035293408 0.089178726 0.06336788
0.21396083 -1.2833172 0.22939056 -0.067390405 0.039047923 -0.0849317 0.11822696 0.36022982
-0.10619996 0.47096515 0.04564076 -0.16574898 -0.06794237 -0.10180589 -0.1263765 -0.41366598
0.032533497 0.0058226935 0.019278342 -0.050517354 0.16838373 -1.2444427 0.1806589 -0.039095398
-0.02150255 -0.031624753 0.38238585 0.33731776 0.0065918574 0.55980253 -0.013832316 0.11698937
-0.14722499 -0.17002954 -0.3472146 -0.42606333 0.027801502 -0.040746234 -0.01254545 -0.01883976
0.6324027 -0.72195077 -0.10351768 -0.006298375 -0.27922183 0.23094022 -0.26662987 0.16327405
0.16632836 0.103362024 -0.006451012 0.08143343 0.07170833 0.28623638 -0.040929876 0.1924925
-0.021415725 0.06991891 -0.053835638 -0.0062163607 0.6691523 -0.72426564 -0.036657218 -0.08146741
-0.06629929 -0.001920061 -0.21452041 0.11047694 0.29522902 -0.094927065 -0.20433505 0.15997933
0.11681655 0.14812385 -0.11137108 0.05478069 0.024743885 0.05238536 -0.07237839 0.048746534
-0.3178135 -1.0355132 0.14743014 0.122721136 -0.0526043 -0.14006041 0.059295267 -0.38451403
0.00094026077 0.15284657 0.1475883 0.02493122 0.025480745 0.24576089 -0.06537432 -0.15349928
0.042992234 0.026076488 0.12811562 0.043319326 -0.32473183 -1.2580746 0.1166991 0.2365842
-0.087743945 0.14923777 0.25437024 -0.62470585 0.020375567 0.1864425 0.28147107 0.011050248
-0.11409608 0.12512603 -0.16344053 -0.13705222 0.028788446 0.0099231675 0.087190986 0.029185152
0.05996649 -0.11012555 0.017089395 0.18098886 -0.1772744 0.1944014 0.008606261 0.11607937
0.114521064 -0.07476682 0.040913194 -0.0076388987 -0.014760288 0.0645281 -0.03964328 -0.17679596

v.net.0.bias f4 [64]
00000000: a01b 7ebf 8d45 e3bd af61 83bd 22ef 723e
00000010: 3852 5a3e bba9 0b3e 8af9 80bf ce83 1e3f
00000020: ae41 84be 019c a7bb 17c3 89be 15a8 9a3f
00000030: fbf9 57be 9552 03be 9a5f b53e 27dd c7be
00000040: 6320 a63f b296 293f 4701 24be 29de 4f3e
00000050: 73d2 213f 82ba 933d b41e 68bf 322b cc3d
00000060: 333b b13e fde3 08be 1314 14be 9492 01bd
00000070: 30fa debd aa51 c3bf 5430 ddbe 6e3b 07bf
00000080: bd3d 893f 3b40 65be 55fa 5fbe 16c4 00c0
00000090: 7ae7 ecbf b85b 793b 93a1 c8be da24 ee3e
000000a0: aec6 5abf 1498 803f 8600 20bf 305a ea3d
000000b0: 2825 6dbe f6f5 e8be 445f 913e 9cba a7be
000000c0: a8c6 adbe 8b65 60be 9145 613f b181 0f3f
000000d0: 1fbd dfbf 6a3d 8bbe bb56 c6bc 0a02 423e
000000e0: e5e6 4e3f e509 093f 20df 4abe 7d02 1f3d
000000f0: bb8c 13be 77a6 79be 9254 103d 0fc4 58bf
-0.992609 -0.1109725 -0.06415116 0.23724034 0.21320426 0.13638966 -1.0076153 0.6191987
-0.2583136 -0.0051150327 -0.26906654 1.2082545 -0.21091454 -0.12824471 0.354245 -0.39035913
1.2978634 0.6624557 -0.16016112 0.20299591 0.63211745 0.07213308 -0.9067185 0.09969176
0.34615478 -0.1336822 -0.14460783 -0.03163393 -0.10887563 -1.5259297 -0.43200934 -0.5282506
1.0721966 -0.22387783 -0.21872838 -2.0119681 -1.8508141 0.0038049053 -0.3918577 0.4651249
-0.8545941 1.004641 -0.625008 0.11442983 -0.23158705 -0.45500153 0.28392994 -0.3275956
-0.33940625 -0.21913736 0.87996775 0.5605727 -1.747959 -0.27195293 -0.024211278 0.1894609
0.8082107 0.5353072 -0.19811678 0.038820732 -0.14409153 -0.24379908 0.035236903 -0.8467416

v.net.2.weight f4 [64, 64]
00000000: de47 8abd f82e 273e b5e1 b8bb b9b6 b03e
00000010: 9342 be3d ada1 af3e caf6 93bd 6aaa d23d
00000020: e552 8abc 5768 243e 38db ba3d 1cda adbd
00000030: 615f 943c 39d0 5bbe f3ab 56bd c10c 52be
00000040: 98b0 17be 57ac 813d 7e3a 81bd 11a0 e03c
00000050: 1f71 85bd 57d6 cb3d 8a7a 5f3d b987 af3d
00000060: 5967 53bd 2dd7 a23e d07c 953d bd23 24be
00000070: f759 ba3d 7989 843e de23 61be 2155 883d
00000080: 5109 66be f799 96be f970 a1bc aed6 973e
00000090: ae2c a23e 2e80 9c3c e405 83be e4fe a5bd
000000a0: e4c5 0b3e 6544 8dbd e8f4 d33b 7b4a 0abe
000000b0: a3bf 7bbe fc66 13be 51ef 0dbd 575f 293c
000000c0: b495 53be 9e25 4c3e 6685 debd f239 8dbd
000000d0: e042 713e c12c f9bd 294f b9bd 9e49 f0bd
000000e0: a4c5 5e3e 25ea f3bc d15b a2bd f62a ebbd
000000f0: 6815 2e3e d3c1 a53e 6c95 743d 6707 84bc
00000100: 994a e6bc 9ef6 e23d 0ab7 573d 9bd9 36bd
00000110: 86bd 64bd a47b e13d 9521 a1bd e46c 603a
00000120: ddc5 96bc 4f8f 673c bff9 2739 4c2d 9abc
00000130: cc99 99bd 6f38 38bd d350 69bd 9fe4 9e3b
00000140: e037 8e3d bdea 92bc 7429 9c3d d6e7 6fbc
00000150: 4e3e 233d 6d7b f5bd 1822 033d b85e 2a3c
00000160: c7e0 843d f98d 8639 294e 6abd 2b19 b0bd
00000170: a597 6dbd f44f 723c f48c 06be 7479 213d
00000180: f19d 6bbc 1784 993c a2b8 9bbd 015c 0dbd
00000190: 21dc ff3c da7b 50bd cae1 7fbd c2ff f4bd
000001a0: 912b 9cbc f8f0 83bd 66de 03bd b2cc bf3c
000001b0: b8d8 143e bdf2 123d f2d0 01bd 891a 74bc
000001c0: 8c62 d23d fcc5 363d eafe 153d 6e4c e2bd
000001d0: 3256 0d3d b241 f43d 7543 55bd ed1b dbbd
000001e0: 04e2 383c a567 a0bd cf24 f63c 9347 8abd
000001f0: 5382 3fbc 17f3 2c3d c2a3 62bc af1c 043d
00000200: ed3c 143d 8915 903e 92bf 91bc e905 6c3e
00000210: b5d3 9b3d 28bd 453e 96d4 b93c c6c9 99bd
00000220: bb6f 5cbc 471c 18be 2b2b e1bd e7f4 1fbe
00000230: 3940 b5bd 5c6b 4bbe 805d ebbc 464d dcbe
00000240: 2e7a b93d 44c4 ba3d f54e 29be 4459 76bd
00000250: ebb2 0fbd 5f9b fa3d e55d 923c 8e22 3d3e
00000260: 1f66 b53d 12f3 403e 5be7 833c 9e47 283d
00000270: 18d2 023e 63e6 59bd 5afb 85be 0b16 ad3d
00000280: f2d6 ac3d 4a38 30be bbd2 c73d fd54 46be
00000290: c72b 93bd bcd7 7e3d c955 b13d 66ea fd3d
000002a0: d228 1bbb abb1 20ba 4605 5fbd 3783 de3c
000002b0: 215f 4abc b00c a0bd dbbb e43d 84b6 5a3d
000002c0: e768 c33d d156 733d 40f7 41bd 90c8 1a3d
000002d0: 749b cabd 3a21 80be ab61 80bc 848a 9cbe
000002e0: 2004 13be 40d7 0e3d f333 1e3c e048 863c
000002f0: 9973 183e 6b10 3ebe ea1b ae3d 7c9d 2c3e
00000300: b8de 34bd 04af dcbe 0802 143d a277 61bd
00000310: a6cb dcbd c5fe 8e3d b60d e53d e9e5 a7b8
00000320: 066c 72bd fcd8 9d3d f954 363e f46a 773d
00000330: 11b0 943e 8519 a03e b158 973e de26 e73d
00000340: 9af8 6bbd 47c5 de3d aca7 78bd fbd2 363b
00000350: da23 5ebe eba1 ffbd f7d1 633d 3c8a 123d
00000360: 1a1e 363e c644 debc 7c38 843c 7d86 8ebd
00000370: 6c8a 943d d5cc e7be 9530 253e fcc7 d93d
00000380: 742e e63d d035 8db9 ba2c 0a3e f616 d4be
00000390: 9288 9cbe f8be 883e aebc 453a b0ee 1fbe
000003a0: 6d7b 77be 2bd5 84bc 88d4 263e 4ea4 06be
000003b0: a937 2a3e ddd6 bf3d f013 acbd 6569 dcbc
000003c0: 8aa4 d6bd 7a31 3bbd edf0 833d 0d03 a0bd
000003d0: efd3 48be 5aad 1a3e 1d83 9a3e eb58 e03d
000003e0: 4b12 31be 2bf5 203e 9485 cbbc 2359 10bd
000003f0: 8e7f 373e 7b0b 19be 6b68 47be c8e5 14be
-0.06751989 0.16326511 -0.0056421407 0.34514406 0.09290042 0.34303036 -0.07224806 0.1028641
-0.01688523 0.16055427 0.09123844 -0.08488867 0.018111886 -0.2146615 -0.052410077 -0.20512678
-0.14813459 0.06331699 -0.063099846 0.027420076 -0.06515717 0.099529915 0.05456022 0.08570809
-0.051612232 0.3180479 0.07299197 -0.16029258 0.09099191 0.25886133 -0.21986338 0.06656862
-0.22464491 -0.2941434 -0.01970719 0.29655975 0.31674713 0.01910409 -0.25590432 -0.08105257
0.13649708 -0.06897811 0.006468404 -0.13504975 -0.24584822 -0.14394754 -0.034652058 0.010337672
-0.20662576 0.19936225 -0.108652875 -0.06895818 0.23560667 -0.12166739 -0.09048302 -0.11732791
0.21755081 -0.029774735 -0.07927669 -0.114828035 0.17000353 0.3237444 0.059712812 -0.016116811
-0.028111743 0.11082195 0.052664794 -0.04464112 -0.055844806 0.11009911 -0.078677334 0.0008561148
-0.018404895 0.0141332885 0.00016019399 -0.018820427 -0.075000376 -0.044975694 -0.056961846 0.004849031
0.06944251 -0.017934198 0.07625094 -0.014642676 0.03985434 -0.11986432 0.032014936 0.010398559
0.064881854 0.0002566425 -0.057203446 -0.085985504 -0.058005948 0.01478957 -0.13139707 0.039422467
-0.014380918 0.018739743 -0.07603575 -0.03451157 0.031232895 -0.050899364 -0.06247119 -0.119628444
-0.019063743 -0.064424455 -0.032194518 0.023413036 0.14535797 0.035876025 -0.031693406 -0.014898905
0.102727026 0.044622406 0.036620058 -0.11049734 0.03450603 0.11926593 -0.052066285 -0.10698686
0.011284355 -0.078322686 0.030046849 -0.06751933 -0.011688787 0.042224016 -0.013832988 0.032253917
0.036190916 0.2814143 -0.017791543 0.2304913 0.07608739 0.19310439 0.022684377 -0.07509188
-0.013454373 -0.14854537 -0.10994562 -0.15620767 -0.0885014 -0.19865173 -0.028731108 -0.43027705
0.09056507 0.09119466 -0.16534026 -0.060143724 -0.03508274 0.12236666 0.017867038 0.18470213
0.08857369 0.18842724 0.01610153 0.041083924 0.12775457 -0.05319823 -0.2616833 0.0845147
0.08439435 -0.17208973 0.097569905 -0.19368358 -0.07186084 0.06221746 0.0865894 0.123982236
-0.0023675454 -0.000612999 -0.05444839 0.027162177 -0.012351782 -0.0781492 0.11168643 0.053396717
0.09541493 0.059408966 -0.047354937 0.037788928 -0.098929316 -0.2502535 -0.015671572 -0.3057443
-0.14357042 0.034873247 0.00965594 0.016392171 0.14887847 -0.1856095 0.08501418 0.1685695
-0.044157714 -0.43102276 0.03613475 -0.05504573 -0.1078103 0.06982187 0.11184256 -8.006005e-05
-0.05918505 0.07707402 0.17805852 0.060404733 0.29040578 0.3126947 0.29559854 0.1128671
-0.05761013 0.108774714 -0.06070678 0.002789675 -0.21693364 -0.12482055 0.05562016 0.03577636
0.1778492 -0.027132403 0.016140215 -0.06959245 0.072529644 -0.45273462 0.16131814 0.10633847
0.11239329 -0.0002693371 0.13493624 -0.41423768 -0.30572945 0.26708198 0.0007543069 -0.15618396
-0.24168177 -0.016214928 0.16292012 -0.13148615 0.16622795 0.09367154 -0.0840224 -0.026905725
-0.10480602 -0.04570148 0.06442437 -0.07813082 -0.19612096 0.15105191 0.30178156 0.1095446
-0.17292134 0.15718524 -0.024843968 -0.035241257 0.17919752 -0.14945786 -0.19473426 -0.1454078

v.net.2.bias f4 [64]
00000000: 2ad4 e33e b894 783d 2762 fabe caf1 c8be
00000010: 273c c13e 0483 d5be db1e 1ebf aa10 dc3e
00000020: 318a 07bf fba8 debe 4970 833c ffe8 c83e
00000030: d30f eb3e 40cb 11bf bfc0 32be f493 8c3e
00000040: 9ea9 17bf ad3a ef3e b8c1 16be 579a 573d
00000050: 40d9 f0be 3f11 e23e d63a bbbe c4f1 c4be
00000060: 67fa 313d cd1d d43e 2963 b03e 4cfa c23e
00000070: 204c aebe 8455 873c ca0f c8be 2bf8 f3be
00000080: 6e7c 96be 5f4c 1dbf 5b5b ec3e 591e 003f
00000090: 96f5 50be 2eb1 37be f2ff 8d3a 79f3 003f
000000a0: 5f3c 093f be83 da3e 4814 afbe 4b51 013f
000000b0: 1286 21be 5624 ddbe 3ed6 043f ce50 8fbe
000000c0: 4f04 12be cc3d f5be 24a0 dfbe 6525 02bd
000000d0: b452 eabe 17fd e2be c9ad d03e d417 c93e
000000e0: 635e ffbe 51ba 6ebe a9b0 e2be 61cb 223f
000000f0: c2be fabe 44ba e63e 66f7 06bf d978 b7be
0.44497806 0.060688704 -0.4890301 -0.3924697 0.37741205 -0.4170152 -0.6176583 0.42981464
-0.5294524 -0.43488297 0.016044753 0.39240262 0.4591051 -0.5695076 -0.1745634 0.2745663
-0.5924319 0.46724454 -0.14722335 0.052637424 -0.4704075 0.44153783 -0.36568326 -0.38465703
0.043451693 0.41428986 0.34450653 0.38081586 -0.34042454 0.01652027 -0.39074546 -0.47650275
-0.29391807 -0.6144466 0.4616345 0.50046307 -0.20406184 -0.17938682 0.0010833724 0.5037151
0.53607744 0.42678636 -0.3419516 0.5051467 -0.157738 -0.43191785 0.5188941 -0.27991337
-0.14259456 -0.4789871 -0.43676865 -0.031773943 -0.45766222 -0.44333717 0.40757588 0.39275992
-0.498767 -0.23313262 -0.44275406 0.6359158 -0.48973662 0.45063984 -0.5272125 -0.35834387

v.net.4.weight f4 [1, 64]
00000000: d405 80bd b4c9 e1ba 676d 9e3d 96dc 753d
00000010: ad21 10bd a8c3 953d 3708 fe3d b306 f4bd
00000020: 813c d93d 72ab bc3d 72bb 53be 7be6 8bbd
00000030: 4be0 82bd abe7 9e3d 3535 8f3d 5f43 a9bb
00000040: eeba 853d 5114 d0bd c510 223e 999a bcba
00000050: f2b4 1c3e b0b9 e2bd 41e8 973d 7539 dc3d
00000060: 7c0b dabd 1510 d2bc 25f0 a9bd 1ad4 e3bd
00000070: 3f80 d93c 8bd8 21be 4510 db3d 0bd4 ed3d
00000080: e448 2c3d 534e a63d e2e8 48bd 2094 9abd
00000090: 9e70 c63c 2815 1f3d 0895 c1bb a1f5 1fbe
000000a0: c672 a3bd 33f0 6cbd 806b 9b3d e204 cbbd
000000b0: 9e59 c43d 423c a13d 1eb6 b6bd 077a c53d
000000c0: 3f9c 483d 1dc0 173e 5a41 f53d d1b8 e03a
000000d0: 5aad 9c3d 7d11 003e 4d38 cbbd 47a9 e3bd
000000e0: fd08 a23d b2ce f93d 2968 f63d 2ed3 9abd
000000f0: 6b0e 143e 79c1 67bd fa4b f43d 307b 793d
-0.062511116 -0.001722625 0.077357106 0.06002482 -0.035188366 0.07312709 0.124039106 -0.1191534
0.10607243 0.09212388 -0.20676973 -0.0683107 -0.06390437 0.07759031 0.0699257 -0.005165502
0.06529795 -0.10160125 0.1582671 -0.0014389335 0.153034 -0.11070573 0.07417346 0.107531466
-0.10646722 -0.025642434 -0.08297757 -0.111244395 0.02655041 -0.15805261 0.106964625 0.116127096
0.0420617 0.08120408 -0.04905022 -0.07547784 0.024223622 0.038838536 -0.0059076585 -0.15621044
-0.07980876 -0.05784626 0.075888634 -0.09913041 0.095874056 0.078728214 -0.08921455 0.096424155
0.048977133 0.14819379 0.119753554 0.0017144923 0.07650252 0.12506671 -0.09922848 -0.111162715
0.07911871 0.12197627 0.12031586 -0.075598106 0.14458625 -0.056580994 0.11928554 0.060908496

c.net.0.weight f4 [64, 40]
00000000: 78d4 1e3d ca0f 2abc 8cd1 19be ada1 04be
00000010: 6efa 13be e06f 36bd ba47 f23d a1fe b2bd
00000020: ff8d d83d 0fb9 6fbc 0ec2 893d a3e6 ccbd
00000030: 0a76 003e 5790 c3bd 1a32 07be ccb7 633c
00000040: 7198 e83d e853 bcbd 3926 eb3d 50f4 59bd
00000050: 80f9 3a3a b245 0f3e 1a85 cb3d 7345 373d
00000060: dad9 913d 8f1a 0abd 4757 dc3d a2d3 0fbe
00000070: 104a 80bd 1699 bb3d bd8d b1bd ba78 dfbd
00000080: 1c41 df3c 4832 91bc 30bc 50bd 2cbb c7bd
00000090: 6c9e 843d 603a 993d 8894 e5bd f15b 873d
000000a0: 4681 3a3d 2e5c 06be a903 90bd c04b 163e
000000b0: 676c ff3d 8851 48bd ee2c 823d b722 19bd
000000c0: e37d 663d 4b10 05bd 3406 9abc bbad 833d
000000d0: 7533 893c 8b97 053e 5aa2 21be 6ae3 a2bc
000000e0: c7eb f3bd d128 ef3d 4e62 c7bd 89ba 07bd
000000f0: e488 e2bc 6cd4 05be 41a3 0d3e 8f70 e33d
00000100: 66af 193c 5729 bb3d 8b31 f2bd 5492 f7bd
00000110: 04a2 9fbd cde0 ae3c ee6c 733d b2bd c13d
00000120: 56fc 0c3e 3bdd 0cbd e506 34bd 3d6e 77bc
00000130: e136 edbd 450c b7bd 74ca 1b3e c022 a53c
00000140: 3cac 18be 138b 963d 44ad 403d 52fb a93d
00000150: fdef edbd 112b 07bd 7c1a 0f3e 2c0d 0cbd
00000160: 021d 20bd ce6a 1d3e cd1b 6abb 8771 dbbd
00000170: ca41 8b3d 86a3 503d 2824 0fbe 9950 bc3d
00000180: 9372 9ebc 8ef6 2abb d5c1 ad3d 7b7f 68bd
00000190: 4d07 e6ba 05bd 0fbe 01e2 013d 23bf 6ebd
000001a0: 49e7 483a 725d 05be 9515 b9bd e084 f3bd
000001b0: 0a43 97bc e294 7e3d 3ab3 c53c 5360 16be
000001c0: 6ef8 5abb 4a75 763d 5880 14be ce82 b5bd
000001d0: d8ba e5bd 61fe 063d 746a ffbc 65e4 5bbd
000001e0: ded1 12be ceae 9cbc fdb4 a4bd deaa efbd
000001f0: 62e1 53bd 660b 3abd 7def 553d a3ed a33c
00000200: 7624 953d 770b e03d d38f a93d 2221 223d
00000210: 886d d43c 843f f5bd cbf5 3fba 7bec 0d3e
00000220: d003 aabd d0d3 a13c c9ef e43d 7c5f ff3d
00000230: 73a7 d4bd 1c37 b4bd 832e 11be 71d6 683d
00000240: 9d36 b03d 8236 fb3d 027e fbbd b5fe 0bbd
00000250: 8aed 4dbd 1e98 4d3d ba2c fb3d a6bb 2c3d
00000260: b256 29bd fcb6 123e 1129 64bd f74d 743d
00000270: e2b7 973d 7bf1 5ebd 2cc3 f53c 580f 4c3d
00000280: 701e 8e3c 1941 babc 6635 f73d 31a8 14be
00000290: d360 9cbd d2ce 053e f7f4 bcbd 9ad3 a5bd
000002a0: 3657 1f3e 3ce8 07be 833b cebd 402b 9a3d
000002b0: b436 18be 2061 fc3c 7335 dcbd fc80 81bd
000002c0: 7623 a5bd 396d 8dbd 3c9f 8b3d 05ba 0abe
000002d0: b7aa 063d 3d00 b63d 67dc 293d 27d3 a93d
000002e0: ba3b b4bc 3415 88bd ea2e 3dbc b082 a2bd
000002f0: cd66 e63c 659d e03c 0d83 953d 4755 153e
00000300: 0c3d 373d c277 cc3c c8bb c0bd b395 7cbd
00000310: 49f9 e13c 1afe 70bd e6bf a73d b8c9 803d
00000320: 2a2d c8bd 123b e43d f967 303d ed20 02be
00000330: 7ba2 a1bc 3558 a73c 7314 d0bd ce59 0ebe
00000340: f03c 0b3d 3558 ae3d a5f9 89bd 2142 85bd
00000350: 55f0 8abd deef f33b f986 03be 3265 2bbd
00000360: 46a9 063d d5cb f2bc 181d 19be 15c4 0cbe
00000370: 6134 383d efff b23d df75 f6bd f34f 1bbd
00000380: 3838 e9bd 4d0a abbd ea20 e9bc b59d 593d
00000390: 3457 f7bd a7eb edbd 688d ca3d b88d 8c3d
000003a0: 735d c2bc 4fc4 cb3d aee1 26bd 4df2 fd3d
000003b0: 3df9 f0bb ce9f 94bd 8f36 733c 873a 5cbd
000003c0: 68ce d9bd 270d fe3d 07ab b4bd 70da bdbd
000003d0: a985 77bd f7c7 33bd c56c 323d 7bba d7bd
000003e0: 0d75 5f3c 39a2 1f3e 553c 50bc e98f 9dbd
000003f0: 8ba8 233d 29b9 463d 5ea3 da3c 17c8 aa3d
0.038776845 -0.010379741 -0.15021342 -0.129523 -0.14451 -0.044540286 0.11830087 -0.08739973
0.105739586 -0.014631524 0.06726466 -0.10004928 0.12545028 -0.09549015 -0.13202706 0.013898801
0.11357201 -0.09195691 0.114819 -0.05321151 0.00071325153 0.1399143 0.099374965 0.044743966
0.0712163 -0.033716734 0.10758834 -0.14045575 -0.06264126 0.09160058 -0.086696126 -0.10911699
0.027252726 -0.017724171 -0.05096072 -0.09752497 0.06475529 0.07481837 -0.11209971 0.06609333
0.04553344 -0.13121101 -0.07031948 0.14677334 0.12471848 -0.04890588 0.06356226 -0.037386622
0.0562724 -0.03248624 -0.018801786 0.06429621 0.01674817 0.1304609 -0.15784588 -0.01988383
-0.11910205 0.11677707 -0.09735547 -0.03313688 -0.027653165 -0.13069314 0.13831808 0.11105453
0.009380197 0.09138744 -0.11825856 -0.12088457 -0.07794574 0.021347428 0.059430055 0.0946001
0.13768134 -0.03439067 -0.043951888 -0.015101966 -0.11582733 -0.08937887 0.15213948 0.020158172
-0.14909452 0.07350745 0.04704024 0.08299889 -0.1161804 -0.033000056 0.13974947 -0.03419225
-0.039090164 0.15372774 -0.0035722137 -0.10715013 0.06799658 0.050937198 -0.13978636 0.0919506
-0.019341743 -0.00260869 0.08484236 -0.0567622 -0.0017549783 -0.14036949 0.031709675 -0.05828775
0.00076638587 -0.13023928 -0.090373196 -0.11890578 -0.018464584 0.062153704 0.024133313 -0.14685182
-0.0033412236 0.06017045 -0.14502084 -0.0886284 -0.11217278 0.03295744 -0.03117869 -0.05368461
-0.1433787 -0.019126322 -0.08042333 -0.11702512 -0.051728614 -0.045421027 0.052230347 0.020010775
0.07282345 0.10939687 0.082793854 0.03958238 0.025931135 -0.11975005 -0.0007322698 0.13859741
-0.083015084 0.01975432 0.11178548 0.12469384 -0.10383501 -0.08799574 -0.14177899 0.056845132
0.08604167 0.12266256 -0.122798935 -0.034178454 -0.050275363 0.0501939 0.1226439 0.042171143
-0.041342445 0.14327615 -0.055703226 0.059644666 0.0740812 -0.054429512 0.030000292 0.04981932
0.017348498 -0.02273612 0.12070732 -0.14517285 -0.07635655 0.13067177 -0.09226411 -0.080970004
0.15560612 -0.13272184 -0.10069945 0.075277805 -0.14864618 0.030808032 -0.10752382 -0.0632343
-0.08063404 -0.06905598 0.06817481 -0.13547523 0.03287765 0.08886764 0.041469958 0.08292227
-0.022001136 -0.06644669 -0.01154683 -0.07935083 0.028125191 0.027418802 0.073003866 0.14583312
0.044735953 0.024959449 -0.094108164 -0.0616662 0.027584689 -0.05883608 0.081908986 0.06288475
-0.09774239 0.11144079 0.043067906 -0.12707873 -0.019730797 0.020427803 -0.101601504 -0.13901445
0.03399366 0.08512918 -0.06737069 -0.06506754 -0.06784121 0.007444366 -0.12844457 -0.041844554
0.032876275 -0.02963821 -0.14952505 -0.13746674 0.044971827 0.08740222 -0.12034201 -0.037918042
-0.11387676 -0.08351574 -0.028458077 0.053128917 -0.120771796 -0.11617213 0.09890252 0.06862968
-0.0237262 0.09949552 -0.04074257 0.12399731 -0.0073539303 -0.07257043 0.014844551 -0.053766754
-0.10635072 0.12404852 -0.088216834 -0.09270179 -0.060430203 -0.043891873 0.043560762 -0.10533615
0.013638747 0.15589227 -0.012709697 -0.07693464 0.039955657 0.048516426 0.026689228 0.08338945

c.net.0.bias f4 [64]
00000000: c75c e73d 8b0c cd3d 3756 fa3d b745 4cbd
00000010: f925 063e 2934 783d 49a5 0dbc 599f 79bd
00000020: 4930 08be 1cb6 753d f09e 033d 0344 183d
00000030: 10ae 5e3d a70f 97bb f0d0 29bc b12b 06bd
00000040: f8f3 20be d851 343d f62a 67bd f92d 58bd
00000050: 15a9 0ebe 01d1 cfbd 4d88 af3d d73e 07be
00000060: 7b91 0c3e d42d e4bc 0657 3e3d 80f4 273d
00000070: 96d3 09bc 1b21 de3d 65d2 42bd 3241 23bd
00000080: 74bd 7dbd d1cd bebd e098 043e da88 8e3d
00000090: 3325 da3d 916e 25bd 4ad0 4dbb 58c5 133e
000000a0: ba17 143e 5f9f 03bd 2a98 843c d5e3 203e
000000b0: 7236 303c 8452 183e 6556 113e 11f2 7abc
000000c0: 033c 1fbe 60a5 de3d 5f65 813d e1ee 8abd
000000d0: 82ad afbd 2333 0ebe a016 e7ba d8f9 88bd
000000e0: d405 24bc f6f8 963c 849d b5bd 337f d73b
000000f0: 373c 86bd 9949 773d 2e06 d0bb 60aa e1bd
0.11296993 0.10012158 0.122234754 -0.049871173 0.13100423 0.06059662 -0.008645364 -0.06094298
-0.1329967 0.059988126 0.032133996 0.037174236 0.054365218 -0.00461002 -0.010364756 -0.03275651
-0.15718067 0.044023365 -0.056437455 -0.052778218 -0.13931687 -0.10147286 0.08570919 -0.13207565
0.13727371 -0.027853884 0.04646971 0.041004658 -0.008412262 0.10846158 -0.04756393 -0.039857097
-0.061948255 -0.093166 0.12948942 0.06959696 0.106516264 -0.040388647 -0.0031404668 0.1443075
0.14462176 -0.03213441 0.016185839 0.15711911 0.010755168 0.14875227 0.14193113 -0.015316502
-0.15550236 0.108713865 0.06318163 -0.06783844 -0.08578016 -0.13886695 -0.0017630644 -0.06688279
-0.010011155 0.01842926 -0.08867934 0.0065764426 -0.06554454 0.060372923 -0.006348393 -0.110188246
