experiments/07_control_structure_hypothesis/checkpoints/AttitudeRate/ppo/2021-12-14__15-16-10/seed_00056/torch_save/model.pt (torch, 82448 bytes, 19 tensors)

obs_oms.mean f4 [40]
0	0x3e81c13c	0.2534274
1	0xbb139656	-0.0022520027
2	0x3f8196aa	1.0124104
3	0xb9ff8a65	-0.00048740502
4	0xba1734f6	-0.00057680847
5	0x3e0963a0	0.1341691
6	0x3f7ba05c	0.98291564
7	0xbb252dc0	-0.002520427
8	0x39f62faf	0.00046956303
9	0xbb404630	-0.002933871
10	0xbba66f36	-0.0050791753
11	0xbbad2745	-0.0052842223
12	0x3dc1fbb7	0.09471839
13	0xbb570fcf	-0.003281582
14	0x3ac48857	0.0014994246
15	0xbc4b55f7	-0.012410632
16	0x3ef22fe0	0.4730215
17	0xbaed9053	-0.0018124677
18	0xbcad6f88	-0.021171346
19	0x3daa9cb7	0.08330672
20	0x3e81bddf	0.25340173
21	0xbb1330a9	-0.0022459424
22	0x3f81957f	1.0123748
23	0xba12ce1f	-0.00056001724
24	0xba1e6496	-0.000604221
25	0x3e09c87b	0.13455383
26	0x3f7ba052	0.98291504
27	0xbb2d5084	-0.0026445696
28	0x3a358ba0	0.0006925408
29	0xbb691e90	-0.0035571195
30	0xbbbd9304	-0.005785348
31	0xbbb1272a	-0.00540628
32	0x3dc29dc8	0.09502751
33	0xbb5665a8	-0.00327144
34	0x3ac35c1b	0.0014904769
35	0xbc4ac438	-0.012375884
36	0x3ef1228f	0.4709668
37	0xbb61bf4d	-0.00344463
38	0xbcad3360	-0.021142662
39	0x3daadd5d	0.08343003

obs_oms.std f4 [40]
0	0x3e3a8af8	0.18217075
1	0x3e2ebbd4	0.17063838
2	0x3d0ec13c	0.03485225
3	0x3d536f90	0.051620066
4	0x3d5b7b03	0.05358411
5	0x3df162d1	0.11786426
6	0x3c5459a1	0.012960822
7	0x3ec5c43e	0.38626283
8	0x3eb9d922	0.36298472
9	0x3e150502	0.14552692
10	0x3f072c04	0.5280154
11	0x3f0cf704	0.55064416
12	0x3e89ee6a	0.26939708
13	0x3d5523be	0.05203604
14	0x3d54ee61	0.05198515
15	0x3d0ec163	0.034852397
16	0x3f549840	0.83044815
17	0x3f1c7509	0.6111608
18	0x3f21d3b3	0.6321365
19	0x3ef36015	0.47534242
20	0x3e3aba61	0.1823516
21	0x3e2eec4a	0.17082325
22	0x3d109b0b	0.03530411
23	0x3d5263b7	0.051364627
24	0x3d5a52f6	0.053301774
25	0x3df12a20	0.11775613
26	0x3c54c96c	0.012987476
27	0x3ec698a9	0.38788345
28	0x3ebac1ee	0.36476082
29	0x3e18ab46	0.14909086
30	0x3f073bfd	0.5282591
31	0x3f0cff29	0.55076844
32	0x3e89d268	0.2691834
33	0x3d589d58	0.05288443
34	0x3d587c94	0.052853182
35	0x3d109b28	0.03530422
36	0x3f545e29	0.82956177
37	0x3f1bc1b5	0.6084245
38	0x3f212df1	0.62960726
39	0x3ef318b3	0.47479782

pi.log_std f4 [4]
0	0xc0905243	-4.5100417
1	0xc0905243	-4.5100417
2	0xc0905243	-4.5100417
3	0xc0905243	-4.5100417

pi.net.0.weight f4 [50, 40]
0	0x3df8654c	0.12128696
1	0x3dc34873	0.09535303
2	0x3ce024c9	0.02736129
3	0x3e40692f	0.18790124
4	0xbd34a31f	-0.044100877
5	0x3ed02024	0.4064952
6	0xbe204ce4	-0.15654331
7	0x3df4ad30	0.119470954
8	0xbd4f7c40	-0.050655603
9	0x3e77ed4d	0.24211617
10	0x3dd6838a	0.10474308
11	0xbdba7425	-0.09104184
12	0xbd67c889	-0.05658773
13	0x3ca3efff	0.0200119
14	0xbe511518	-0.20418203
15	0x3d1345ed	0.03595536
16	0x3d56f680	0.052481174
17	0xbd217cec	-0.039425775
18	0x3e397aae	0.18113205
19	0x3e9b2832	0.30304104
20	0x3e0e03df	0.13868664
21	0xbe055318	-0.13019979
22	0xbc8d84fc	-0.017275326
23	0x3cda69a2	0.026661698
24	0xbe215f3e	-0.15758988
25	0x3e327c2f	0.17430185
26	0xbdbe2739	-0.09284825
27	0xbd1ca401	-0.038242344
28	0xbd10f113	-0.035386156
29	0x3e1b2694	0.15151435
30	0xbd81210b	-0.063051306
31	0x3dbc93b7	0.09207862
32	0x3ddad582	0.10685255
33	0xbd10629b	-0.035250288
34	0x3d16977a	0.036765553
35	0xbd6dcdf9	-0.05805776
36	0x3e27efd0	0.16400075
37	0xbd0a51c9	-0.033769403
38	0x3c0091b4	0.007847238
39	0xbcb7c6c1	-0.02243364
40	0xbe2ef969	-0.1708733
41	0x3da369f5	0.07979194
42	0x3e47b0e6	0.19501075
43	0x3d9febe1	0.07808662
44	0xbd4fd538	-0.05074045
45	0x3d5cc9cd	0.05390339
46	0xbe62483d	-0.22097869
47	0xbe24ffd8	-0.16113222
48	0x3dedb570	0.11606872
49	0xbd170953	-0.036874127
50	0xbe31085a	-0.17288342
51	0x3e4c6cff	0.19963454
52	0xbe4fa1dd	-0.2027659
53	0xbcf8898d	-0.030339027
54	0xbcaa9f49	-0.020827906
55	0xbe6628c0	-0.22476482
56	0x3d2ef102	0.04271031
57	0xbe959e79	-0.29222468
58	0xbe323a68	-0.17405093
59	0x3db32d28	0.08748847
60	0xbcba5b0d	-0.022748495
61	0xbd819e14	-0.06328979
62	0x3b8c74a7	0.004286367
63	0x3e31dd13	0.1736949
64	0xbd91279c	-0.07087633
65	0xbc824bad	-0.015905226
66	0xbe544722	-0.2073026
67	0xbe3bc15f	-0.18335484
68	0x3ded8e47	0.11599403
69	0xbdaeb27a	-0.085301355
70	0xbe0bad23	-0.13640265
71	0xbdbfd0be	-0.09365986
72	0x3b1cd9f5	0.0023933623
73	0x3cee9627	0.029124333
74	0x3bbdc0ba	0.005790797
75	0xbe4c5b44	-0.1995669
76	0x3dc5b4f0	0.09653652
77	0x3e010168	0.12598193
78	0xbda98459	-0.082771964
79	0x3ecdcdbf	0.40196034
80	0x3e8b9499	0.2726181
81	0x3e7ddb58	0.24790704
82	0x3d7b6f9f	0.061385747
83	0xbf0a21ba	-0.5395771
84	0x3bcee1c8	0.0063135363
85	0x3d9c0270	0.076176524
86	0xbda70dd6	-0.08156936
87	0x3c83892a	0.016056616
88	0x3ebc2126	0.3674404
89	0x3e45b94d	0.19308968
90	0x3dc8887f	0.097916596
91	0x3c99c74d	0.018771792
92	0xbcfb16a2	-0.03065044
93	0x3e59eeea	0.21282545
94	0xbe84b84c	-0.25921857
95	0xbe285e04	-0.16442114
96	0xbc53e089	-0.012931951
97	0xbc1d2ac7	-0.009592718
98	0xbd32433e	-0.04352116
99	0x3de56d0e	0.11202441
100	0x3eda60fc	0.42652118
101	0x3e9e6158	0.30933642
102	0x3ce3e163	0.027817434
103	0xbefe8805	-0.4971315
104	0xbd7f45d7	-0.062322464
105	0x3c41f907	0.011839158
106	0x3e0998bd	0.13437171
107	0xbcb9f6b0	-0.022700638
108	0x3f001bae	0.50042236
109	0x3dfe8614	0.12427917
110	0xbe7e860f	-0.24855827
111	0xbb8d5975	-0.0043136426
112	0xbcc54f31	-0.024085613
113	0x3d5b2993	0.053506445
114	0xbe3d7344	-0.18501002
115	0xbe00347b	-0.1252002
116	0x3e9293a8	0.28628278
117	0x3ae5007a	0.0017471456
118	0xbc9760cd	-0.018478775
119	0x3cb566f9	0.022143828
120	0xbd402d78	-0.046918362
121	0x3e07ab39	0.1324891
122	0x3d010039	0.031494353
123	0x3dfeced5	0.12441794
124	0xbe3a5c39	-0.18199243
125	0x3e2af2d4	0.16694194
126	0x3de30e06	0.11086659
127	0xbd258c7c	-0.04041718
128	0xbdb04cd5	-0.086084045
129	0x3e54ec13	0.2079318
130	0xbe188f19	-0.14898337
131	0x3e4bc282	0.19898418
132	0x3e630c1b	0.22172587
133	0xbb813a5c	-0.0039437246
134	0x3da9a445	0.08283285
135	0xbceb555f	-0.028727232
136	0x3e8c108e	0.2735638
137	0x3e276801	0.16348268
138	0xbc597c8f	-0.013274326
139	0xbcc3df1c	-0.023910098
140	0x3e1ffdcf	0.15624164
141	0x3bd81dae	0.006595335
142	0x3c047276	0.00808393
143	0xbbb60a06	-0.005555394
144	0xbeaea7a5	-0.34112278
145	0x3de731c3	0.11288788
146	0x3d8fbd4c	0.070185274
147	0xbe17e46c	-0.1483323
148	0x3a963dec	0.0011462546
149	0x3e0450fd	0.1292152
150	0xbd90feaf	-0.07079827
151	0xbccfcfb3	-0.025367593
152	0x3d3ea44a	0.046543397
153	0xbdd7380b	-0.10508736
154	0x3db2582b	0.08708223
155	0x3d90b028	0.07064849
156	0xbdba8f94	-0.091094166
157	0xbeaffb11	-0.34371236
158	0xbdd4a8cb	-0.10383757
159	0x3dbdeccc	0.09273681
160	0x3db7440b	0.08948525
161	0x3e54125a	0.20710126
162	0x3e00979e	0.12557837
163	0x3d382c47	0.0449641
164	0x3d82fbff	0.06395721
165	0x3ba6d40c	0.005091196
166	0x3d862626	0.06550245
167	0xbdf73da5	-0.12072305
168	0x3cce3a01	0.025174143
169	0xbd2ecc9a	-0.042675592
170	0xbe3b92e1	-0.18317749
171	0x3dbc9cbc	0.09209582
172	0x3e22b752	0.15890244
173	0x3d709a67	0.058741
174	0xbe3d8f44	-0.18511683
175	0xbe6f72f6	-0.23383698
176	0xbde5ae1f	-0.112148516
177	0x3dc6fe74	0.09716502
178	0xbe0f689c	-0.14004749
179	0xbe83f384	-0.25771725
180	0x3d595f02	0.053069122
181	0x3e856126	0.2605068
182	0xbd026992	-0.03183896
183	0xbe2c8c39	-0.16850366
184	0xbd54c8c5	-0.05194928
185	0x3e26e5b0	0.16298556
186	0x3cb3fc88	0.021971002
187	0xbe2b7967	-0.1674553
188	0x3e41b201	0.1891556
189	0x3e861f7c	0.26195896
190	0x3ce0e894	0.027454652
191	0xbe5b9445	-0.21443279
192	0x3e74fc25	0.2392431
193	0x3e108349	0.14112581
194	0xbe140780	-0.14455986
195	0xbcfb25ab	-0.03065761
196	0x3e28cd09	0.16484465
197	0x3d3f4705	0.04669859
198	0xbb941043	-0.00451854
199	0x3e902533	0.2815338
200	0xbd0ae7fe	-0.03391265
201	0x3d33af28	0.043868214
202	0xbd966dba	-0.073451474
203	0xbd4a6602	-0.04941369
204	0x3e2a989f	0.16659783
205	0xbd93d16b	-0.07217678
206	0xbceef355	-0.029168764
207	0x3ce7d883	0.028301483
208	0x3dcbd2ee	0.09952341
209	0xbd49e028	-0.049286038
210	0xbc953dc4	-0.018217929
211	0x3e99b626	0.3002178
212	0x3de8c001	0.11364747
213	0x3e300e51	0.17192961
214	0x3e56f76a	0.20992818
215	0x3e9078b3	0.28217086
216	0x3d137dd7	0.036008682
217	0x3eb8471b	0.3599175
218	0xbe70a00f	-0.23498558
219	0x3e913e44	0.28367817
220	0x3d8926f2	0.06696881
221	0xbce89d1a	-0.028395224
222	0xbe6a39cd	-0.22873612
223	0xbdbbaa01	-0.09163285
224	0xbd58c076	-0.05291792
225	0x3c99ef23	0.018790787
226	0xbe392e7c	-0.18084139
227	0xbe0c18e2	-0.13681367
228	0x3c67fb99	0.014159107
229	0x3d3860b6	0.045014106
230	0xbd6bc5ae	-0.05756157
231	0x3e2ba797	0.16763149
232	0xbdfb4aa9	-0.122701
233	0x3dea9bdf	0.11455511
234	0x3e5af415	0.21382172
235	0x3de08670	0.10963142
236	0xbe4d0f74	-0.20025426
237	0x3d9d473c	0.076796025
238	0xbe2a1857	-0.16610847
239	0xbb984519	-0.004646909
240	0x3dd94b91	0.10610116
241	0xbea544e0	-0.3227911
242	0xbd881c70	-0.06646049
243	0x3d968ac5	0.07350687
244	0xbe34f2a5	-0.17670687
245	0xbeadab7d	-0.33919898
246	0x3e11a698	0.14223707
247	0xbe2c62f1	-0.16834618
248	0x3e2bf7ef	0.16793798
249	0x3cf70dbe	0.03015792
250	0xbd5af1d3	-0.053453278
251	0x3d2d6aa0	0.042338014
252	0x3c018bf4	0.007906903
253	0x3d2fe588	0.042943507
254	0x3ad5498b	0.0016272528
255	0x3d62d350	0.055377305

pi.net.0.bias f4 [50]
0	0xbcfd420a	-0.030915279
1	0xbd401bd1	-0.046901528
2	0x3ec08bfe	0.37606806
3	0x3da1e8b4	0.07905713
4	0x3ddcece3	0.1078737
5	0x3d465e9d	0.048430074
6	0x3ed79abf	0.4211025
7	0x3e1c6ca3	0.15275817
8	0x3e2daea6	0.16961154
9	0x3a4c0157	0.0007782182
10	0x3d160f61	0.03663576
11	0xbc73e4bd	-0.014886078
12	0xbe3f235b	-0.18665831
13	0xbc7314b0	-0.014836475
14	0xbd4c4222	-0.049867757
15	0x3e28e215	0.16492493
16	0x3e74cb76	0.23905739
17	0x3e01e29d	0.12684102
18	0x3ec9458d	0.39310876
19	0x3e52d46f	0.2058885
20	0xbdde33c1	-0.10849715
21	0x3f07c9a5	0.5304206
22	0x3ec56cdb	0.38559613
23	0x3e8ea6f0	0.27861738
24	0x3e2fcb6e	0.17167446
25	0x3dc8dbde	0.09807561
26	0x3e0087d4	0.12551814
27	0x3e40ffa7	0.18847524
28	0x3e22a818	0.15884435
29	0x3d2444c3	0.04010464
30	0x3e0e1695	0.13875802
31	0xbe264e1a	-0.16240731
32	0xbe8f0a6c	-0.2793764
33	0x3c154110	0.00910975
34	0x3dd50a75	0.10402385
35	0xbea2c4dd	-0.3179082
36	0x3df7be30	0.12096822
37	0x3d4d017f	0.050050255
38	0x3ec04a71	0.37556794
39	0x3734292e	1.0738424e-05
40	0xbe2755bc	-0.16341299
41	0xbc0dc521	-0.008652956
42	0x3e4e3fe9	0.20141567
43	0x3e96f779	0.29485682
44	0xbd736afe	-0.059428208
45	0x3e377d37	0.1791886
46	0x3e7ba0cb	0.24573056
47	0x3e1c0415	0.15235932
48	0x3e15418f	0.1457579
49	0x3e381469	0.17976536

pi.net.2.weight f4 [50, 50]
0	0x3daa74b1	0.08323038
1	0x3e083dc3	0.1330481
2	0x3d28081e	0.041023366
3	0x3d5aca00	0.0534153
4	0xbd0e610f	-0.03476053
5	0x3e0905d5	0.13381131
6	0xbdc7f7bb	-0.09764048
7	0xbb9ccc90	-0.004785128
8	0x3d2be6a6	0.04196801
9	0xbe654660	-0.22390127
10	0xbdfbd416	-0.122963116
11	0x3cb0d2bc	0.021584861
12	0x3b85d8ee	0.004084698
13	0x3e6c481b	0.23074381
14	0x3e0b2fed	0.13592501
15	0xbd5c61af	-0.053804096
16	0xbdd868b3	-0.10566845
17	0xbe7ba07f	-0.24572943
18	0x3db72d2d	0.089441635
19	0x3d88dc7c	0.06682679
20	0xbc4049c5	-0.011736338
21	0x3d9a7523	0.07541873
22	0x3cdabec8	0.0267023
23	0xbd9d7956	-0.076891586
24	0x3e32ae7e	0.17449376
25	0x3dfa5273	0.12222757
26	0xbe383d5d	-0.17992158
27	0xbda0ac03	-0.07845309
28	0x3d2d0ac1	0.042246584
29	0xbe6823cb	-0.22669904
30	0x3d9448ba	0.07240434
31	0x3dc97855	0.09837405
32	0xbde14896	-0.11000173
33	0x3e3ec905	0.1863137
34	0xbe375490	-0.17903352
35	0x3e4cf939	0.20016946
36	0xbd6aa13d	-0.057282675
37	0x3df4aad9	0.11946649
38	0x3d5aba4f	0.053400334
39	0x3e49e8c4	0.197177
40	0x3d073d84	0.03301765
41	0xb892b817	-6.996112e-05
42	0xbd2d2b84	-0.042277828
43	0xbd8a6d3b	-0.06759115
44	0x3dae515c	0.08511612
45	0x3e06796b	0.13132255
46	0xbe55caca	-0.20878139
47	0x3dbc41d0	0.0919224
48	0xbcc362f4	-0.023850895
49	0x3e92adfb	0.28648362
50	0x3d84bbab	0.06481107
51	0x3e46e922	0.1942487
52	0xbe315a79	-0.17319669
53	0x3d97e93a	0.07417531
54	0x3ce3f3e6	0.02782626
55	0x3e3d0437	0.18458639
56	0x3d99a425	0.07502011
57	0x3ddd0f65	0.10793952
58	0x3d11c977	0.035592522
59	0x3e00283f	0.12515353
60	0xbb465a33	-0.0030266165
61	0x3cc2dbeb	0.023786506
62	0xbe02fa43	-0.1279078
63	0x3e169967	0.14706956
64	0x3cdea57d	0.02717852
65	0xbcb2c228	-0.021821097
66	0xba49ea41	-0.0007702448
67	0x3c05f53e	0.008176146
68	0x3bd2259d	0.0064131753
69	0xbc895042	-0.016761903
70	0x3dfe717d	0.1242399
71	0x3bffcf0d	0.007806665
72	0xbe42a262	-0.19007257
73	0xbd1729cf	-0.036905106
74	0xbe1d8985	-0.15384491
75	0x3e2915d0	0.16512227
76	0xbdff3897	-0.124619655
77	0xbd59e21a	-0.053194143
78	0x3db40c31	0.08791388
79	0xbe0710b1	-0.13189961
80	0xbd555557	-0.05208334
81	0x3d896fdb	0.06710788
82	0x3ddcfb41	0.107901104
83	0x3e9b1310	0.3028798
84	0x3da0edd6	0.078578636
85	0xbd4156ef	-0.047202047
86	0x3d8b0df7	0.06789773
87	0x3d241205	0.040056247
88	0x3ddbb8e4	0.107286245
89	0xbcb4adfc	-0.022055618
90	0x3e19efee	0.15032932
91	0xbd5b0d74	-0.053479627
92	0xbc9a215e	-0.018814739
93	0x3dac8beb	0.08425125
94	0x3de883e3	0.113532804
95	0x3c7015dd	0.01465365
96	0xbe190a67	-0.14945374
97	0x3e1bf38e	0.15229627
98	0x3d2f62d5	0.042818863
99	0x3e758a74	0.23978597
100	0x3e8f2a0b	0.27961764
101	0xbdc4b8b9	-0.096055456
102	0xbe08c92e	-0.13357994
103	0xbd328e93	-0.043593
104	0xbcea963d	-0.028636092
105	0x3dc73770	0.09727371
106	0xbc8b310d	-0.016991163
107	0x3c2f9eed	0.010719043
108	0xbe8c3a3b	-0.27388176
109	0x3d847b1f	0.06468796
110	0x3e32e7e4	0.17471272
111	0xbe319b18	-0.1734432
112	0x3ca56a17	0.02019219
113	0x3d8b7752	0.06809868
114	0x3c9716c4	0.018443473
115	0xbd665450	-0.05623275
116	0xbc0dee64	-0.008662794
117	0xbe5d172c	-0.2159087
118	0x3cdce796	0.026965898
119	0xbe1cf0fc	-0.15326303
120	0x3e99a90e	0.3001179
121	0x3df2cf3d	0.11855934
122	0x3d1d6845	0.038429517
123	0xbc25a6b6	-0.010110548
124	0xbde4052b	-0.11133798
125	0xbd93db21	-0.0721953
126	0xbe82b7cb	-0.25530848
127	0x3e6c9658	0.23104227
128	0xbe13683a	-0.14395228
129	0xbc15a4e4	-0.009133551
130	0x3e10c65d	0.1413817
131	0x3e1d8277	0.153818
132	0x3e2762f5	0.16346343
133	0xbd254a95	-0.04035433
134	0xbebe6a60	-0.37190533
135	0x3e1eb272	0.15497759
136	0xbd03908a	-0.032120265
137	0x3d7d8903	0.061898243
138	0x3cf7ab33	0.030233001
139	0xbc2adda2	-0.010428818
140	0xbe6a213b	-0.22864239
141	0xbe5a06e7	-0.21291696
142	0x3e640077	0.22265802
143	0xbe739d97	-0.23790585
144	0xbe4dd66d	-0.20101328
145	0x3d6c32eb	0.057665747
146	0xbca8d859	-0.020610975
147	0xbe720bbc	-0.23637289
148	0x3e175236	0.14777455
149	0x3e3eab88	0.18620121
150	0xbe34577e	-0.176115
151	0x3e120821	0.14260913
152	0x3d82f977	0.06395238
153	0xbda30125	-0.07959203
154	0x3e3dc99f	0.18533944
155	0x3db71f96	0.089415714
156	0x3de285d2	0.110606804
157	0xbdafba18	-0.085804164
158	0x3e2f2285	0.17103012
159	0x3db23557	0.0870158
160	0xbd8af1d7	-0.067844085
161	0x3d3f6278	0.046724766
162	0xbd8b87e4	-0.068130285
163	0xbdb738d4	-0.08946386
164	0xbd9b227b	-0.07574936
165	0x3e1b013e	0.15137193
166	0x3d76a723	0.060217988
167	0x3de77393	0.11301341
168	0x3de876ef	0.1135081
169	0xbd99ad79	-0.075037904
170	0xbd11fb0f	-0.03563982
171	0x3df2e9d1	0.11861003
172	0xbc2b1fe0	-0.010444611
173	0xbadc9205	-0.0016828185
174	0x3dc1368f	0.09434234
175	0x3e42db58	0.19028986
176	0xbe1f4043	-0.15551858
177	0xbcb98ccb	-0.022650143
178	0xbdb1a19a	-0.08673401
179	0xbdf98be5	-0.12184886
180	0xbdfb7454	-0.12278047
181	0x3ce7e51c	0.02830749
182	0x3de74239	0.11291928
183	0x3e6f4e14	0.23369628
184	0x3dd9b329	0.10629875
185	0xbd9cfec5	-0.07665781
186	0x3e2c1e58	0.1680845
187	0xbd6b3eba	-0.057432868
188	0x3db32dc7	0.08748966
189	0x39b5fa05	0.0003470929
190	0x3dcda4b8	0.10041183
191	0x3df2e1a5	0.118594445
192	0x3b4054f4	0.002934751
193	0x3dbbf6f2	0.091779605
194	0xbd5d4ab9	-0.05402634
195	0xbd2c2064	-0.042023078
196	0x3e5dda41	0.21665289
197	0xbb9b3541	-0.004736573
198	0x3e536646	0.20644483
199	0x3e62a039	0.22131433
200	0x3e3ad77f	0.18246268
201	0xbdd0de95	-0.10198704
202	0xbdf6e170	-0.120547175
203	0xbdfebba3	-0.124381326
204	0xbdc4157c	-0.0957441
205	0x3e0e11fa	0.13874045
206	0x3e2f2170	0.17102599
207	0xbe2c9fa0	-0.16857767
208	0xbe22bb4e	-0.15891764
209	0xbc9535d8	-0.018214151
210	0x3d85f6ae	0.06541191
211	0x3de8203b	0.113342725
212	0x3c90e7da	0.01768868
213	0x3daf5241	0.085606106
214	0xbbdcc757	-0.0067376303
215	0x3e11890e	0.14212438
216	0x3e17f1df	0.1483836
217	0xbe7114ac	-0.23543042
218	0xbd14bc46	-0.036312364
219	0x3d252a8d	0.040323783
220	0x3dc4962f	0.09598958
221	0x3da4f21d	0.08053992
222	0x3e027541	0.12740041
223	0xbdd3f7ba	-0.103499845
224	0xbe21d443	-0.15803628
225	0x3df3549b	0.118813716
226	0x3e013ed7	0.12621628
227	0x3d06c929	0.032906685
228	0x3d1748c4	0.03693463
229	0x3e265180	0.16242027
230	0xbe16d1f9	-0.14728536
231	0xbe0c47f8	-0.13699329
232	0xbd8ff573	-0.070292376
233	0x3d8036ab	0.06260427
234	0xbe14f254	-0.14545566
235	0x3cc4f334	0.02404175
236	0x3d8f0a92	0.06984438
237	0xbe5fb940	-0.21848011
238	0x3e142e5b	0.14470808
239	0x3e0b08a6	0.13577518
240	0x3d9ceb41	0.076620586
241	0x3df875ea	0.12131865
242	0x3d0993cd	0.03358822
243	0xbd5b0d7c	-0.053479657
244	0x3e0eee7f	0.13958167
245	0x3d7af37c	0.06126736
246	0xbe13f527	-0.14448987
247	0xbe77a624	-0.24184471
248	0x3d6d50ec	0.0579385
249	0x3ce964eb	0.028490504
250	0xbda348de	-0.07972883
251	0xbdb1d720	-0.0868361
252	0x3d615bf7	0.055019345
253	0xbd0ca201	-0.034334186
254	0x3e24fd93	0.16112356
255	0x3e18a17a	0.14905348

pi.net.2.bias f4 [50]
0	0xbe2322e7	-0.15931283
1	0x3d8866a7	0.066602044
2	0xbd2e8152	-0.0426038
3	0x3d513a65	0.05108108
4	0xbe041d7f	-0.12901877
5	0x3e198dd3	0.14995508
6	0xbd90da3a	-0.070728734
7	0x3e68eb1d	0.22745939
8	0x3e0259b6	0.12729535
9	0x3df18b4c	0.11794147
10	0x3e01e4f0	0.12684989
11	0xbe315f2b	-0.1732146
12	0x3e0e2107	0.13879786
13	0x3d6a193e	0.05715298
14	0xbd8356e8	-0.064130604
15	0x3e40de5f	0.18834828
16	0xbe8300ba	-0.25586492
17	0x3e73c8a8	0.23807013
18	0xbbcd4ac2	-0.0062650153
19	0x3e315da8	0.17320883
20	0x3df2e4e4	0.11860064
21	0x3b8307c8	0.0039987303
22	0x3d6a6296	0.057222925
23	0xbd22333c	-0.039599642
24	0xbd7e1f9d	-0.062041868
25	0xbe429b12	-0.19004467
26	0x3e39eeea	0.18157545
27	0x3e146ea4	0.14495331
28	0x3e010a87	0.12601672
29	0x3e1e9a78	0.15488613
30	0x3e23b977	0.15988718
31	0xbd8fe6cd	-0.07026444
32	0x3ca04e7a	0.01956867
33	0xbe4a8b47	-0.19779693
34	0xbe4095ec	-0.1880719
35	0x3e32b109	0.17450346
36	0x3d2e75a7	0.04259267
37	0xbcfe04b7	-0.031008108
38	0x3cfcc3e7	0.030855132
39	0x3da5ae47	0.080898814
40	0x3d6010f5	0.05470367
41	0x3d8956ed	0.06706033
42	0xbe705395	-0.23469384
43	0xbd4a0d87	-0.049329307
44	0xbc05dcd8	-0.008170329
45	0x3dc536b3	0.09629574
46	0x3d9fae20	0.077968836
47	0xbdadcb69	-0.08486063
48	0x3e4be133	0.19910125
49	0x3e00992e	0.12558433

pi.net.4.weight f4 [4, 50]
0	0x3dc9ca02	0.09852983
1	0x3e99536d	0.2994646
2	0x3e65e735	0.2245148
3	0x3e1bdf64	0.15221936
4	0xbcbe56e8	-0.0232348
5	0x3dd18bf1	0.1023177
6	0xbd4b20d9	-0.049591873
7	0x3ddaf2c8	0.10690838
8	0x3c96834a	0.01837315
9	0x3e00ec26	0.12590083
10	0x3ec8e9d3	0.39240894
11	0xbe791e7c	-0.24328035
12	0xbd438a6a	-0.047739424
13	0xbe9eb63b	-0.30998406
14	0xbed48dd7	-0.41514465
15	0xbeac7cc6	-0.33688945
16	0x3d953096	0.07284658
17	0xbeab431b	-0.33449635
18	0xbedf9f4f	-0.4367623
19	0xbe82c594	-0.25541365
20	0x3e7a9da8	0.24474204
21	0xbdb96056	-0.09051578
22	0xbe9ba828	-0.3040173
23	0x3ec001e2	0.37501436
24	0x3dedc95d	0.116106726
25	0xbe03cc13	-0.12870817
26	0x3e7742e6	0.24146613
27	0xbf09a1a2	-0.5376226
28	0xbdac6812	-0.08418287
29	0xbe73e82b	-0.23819034
30	0xbe57e54b	-0.21083562
31	0xbeaa6f08	-0.33287835
32	0x3e83ac5a	0.2571743
33	0xbee575c9	-0.44816425
34	0x3e185d18	0.14879262
35	0xbe5a7903	-0.21335225
36	0xbe413f17	-0.18871723
37	0x3e4e676e	0.20156643
38	0xbea2cd28	-0.31797147
39	0xbec7e411	-0.39041188
40	0xbdb54186	-0.08850388
41	0x3e50d955	0.20395406
42	0x3e10efcb	0.14153974
43	0x3ed86475	0.42264143
44	0x3efdbc97	0.49557945
45	0x3e4e6d9f	0.20159005
46	0x3e0aec68	0.13566744
47	0x3e1602cb	0.14649503
48	0xbefa8da0	-0.48936176
49	0xbe9947b1	-0.2993751
50	0xba437c9e	-0.0007457229
51	0x3b80a1c4	0.003925534
52	0x3d0ba5e5	0.034093756
53	0x3e42e34c	0.1903202
54	0xbe159138	-0.14606178
55	0x3d02a0fa	0.0318918
56	0x3e75e4ad	0.24013014
57	0x3d800609	0.06251151
58	0x3de05178	0.10953039
59	0xbde47065	-0.1115425
60	0x3e13140f	0.1436312
61	0xbc818e8b	-0.01581504
62	0x3d37dac5	0.04488637
63	0x3d065e1a	0.032804586
64	0x3dee52b1	0.11636866
65	0x3e374b3c	0.17899793
66	0xbeeaf98f	-0.45893523
67	0xbf06fdbb	-0.5273091
68	0xbded01a4	-0.115725785
69	0x3e177120	0.14789248
70	0x3cd89d47	0.026442183
71	0xbef57f13	-0.47948512
72	0x3e48c48e	0.1960623
73	0xbe87af09	-0.2650073
74	0xbe2c06f1	-0.16799523
75	0x3debe677	0.11518567
76	0x3e6f6b3b	0.23380749
77	0xbf004cf5	-0.5011743
78	0xbe878c25	-0.2647411
79	0x3e8b79e4	0.27241433
80	0xbd61bab7	-0.055109706
81	0x3d940a3d	0.07228515
82	0x3e947ee2	0.29003054
83	0xbecf5605	-0.40495315
84	0xbe062a84	-0.13102156
85	0x3d50e158	0.050996155
86	0xbed85c3f	-0.42257878
87	0xbed2811f	-0.41114137
88	0x3ebcdf03	0.36888894
89	0xbe753968	-0.2394768
90	0xbec0ce6c	-0.37657487
91	0xbee4effd	-0.44714347
92	0xbee7fb62	-0.45308977
93	0x3eaa3d62	0.33249956
94	0x3dea0e54	0.11428514
95	0xbdcca7bf	-0.099929325
96	0x3e3a4de1	0.18193771
97	0x3e9a52fb	0.30141434
98	0x3c9864a0	0.01860267
99	0x3c5648cc	0.01307888
100	0x3e3fc630	0.18727946
101	0x3dea31fa	0.114353135
102	0x3e7e4323	0.24830298
103	0x3d789180	0.060685635
104	0xbe7d50d0	-0.24737859
105	0xbe7e8873	-0.24856739
106	0xbe4f3519	-0.20235099
107	0xbe81e947	-0.2537329
108	0xbdc53bb0	-0.09630525
109	0xbe5fa6df	-0.21841
110	0xbe149ccf	-0.14512943
111	0x3e9759e8	0.2956078
112	0xbe3d86cd	-0.18508454
113	0xbe47e9fb	-0.1952285
114	0xbcc03068	-0.023460582
115	0x3e6cd48d	0.23127957
116	0xbdd72818	-0.10505694
117	0x3c634015	0.013870259
118	0x3e98aacf	0.29817817
119	0x3dab388f	0.08360397
120	0xbe349c1d	-0.17637677
121	0xbbe21b9f	-0.0069002653
122	0x3e353e46	0.17699537
123	0x3e0ea8e3	0.13931613
124	0x3e2d45d2	0.16921166
125	0x3eb8ee25	0.3611919
126	0x3e7823bd	0.24232383
127	0x3ea4e740	0.3220768
128	0x3f34afd4	0.7058079
129	0x3e00d83a	0.12582484
130	0xbe6aa7ca	-0.22915569
131	0xbee9e0e6	-0.45679396
132	0x3e89d38d	0.26919213
133	0x3e8a6734	0.27031863
134	0x3e8d6e97	0.27623436
135	0xbe6c6ecd	-0.23089142
136	0xbe854d3a	-0.26035482
137	0xbe8c429d	-0.27394572
138	0x3d8c3183	0.06845381
139	0x3d59a226	0.053133152
140	0x3b990dbf	0.004670828
141	0xbe57aa57	-0.21061073
142	0xbcceab8d	-0.025228286
143	0xbe5d7354	-0.21626025
144	0xbe479023	-0.19488578
145	0xbca95a43	-0.020672923
146	0x3f081d5c	0.531698
147	0x3e0b3b5e	0.13596866
148	0xbe3a7835	-0.18209918
149	0xbebf90c6	-0.3741514
150	0xbe780655	-0.24221165
151	0xbc106698	-0.008813523
152	0x3ecf3fd0	0.40478373
153	0x3e2400c9	0.16015925
154	0xbe6e1b83	-0.23252682
155	0x3eb0af43	0.34508714
156	0xbe640687	-0.22268115
157	0x3e54d291	0.2078345
158	0x3debfe3f	0.11523103
159	0x3eb44f5e	0.35216802
160	0xbe5c57f5	-0.21517928
161	0xbea0c135	-0.31397405
162	0xbe0e2726	-0.13882121
163	0x3ec01a48	0.3752005
164	0xbec6657b	-0.38749298
165	0x3e980667	0.29692385
166	0x3e5b2985	0.21402557
167	0x3ecd2aad	0.40071622
168	0x3e2bd610	0.16780877
169	0x3e318d1e	0.17338988
170	0xbdc01313	-0.09378638
171	0xbe475536	-0.19466099
172	0xbe0ff7fa	-0.1405944
173	0x3d994fb3	0.074859045
174	0xbd6f39b4	-0.05840464
175	0x3dd2c567	0.10291558
176	0xbca59d83	-0.020216709
177	0xbcc05bab	-0.02348121
178	0x3e70d6f7	0.23519503
179	0xbdfeca95	-0.12440983
180	0xbe20cddb	-0.15703528
181	0xbe1a3b11	-0.15061595
182	0xbe4b329f	-0.19843529
183	0x3e6dd904	0.23227316
184	0x3c1717a2	0.009221943
185	0x3ecb7fdf	0.39745995
186	0xbe474e0a	-0.19463363
187	0xbee3e856	-0.44513196
188	0xbcf8680d	-0.030323053
189	0x3ddf78c2	0.109117046
190	0x3d9a1ebc	0.07525393
191	0xbe143f12	-0.14477184
192	0x3cdd6a76	0.027028304
193	0x3dd47878	0.1037454
194	0x3dcd1cd1	0.10015262
195	0xbe78ca9c	-0.2429604
196	0x3df68901	0.1203785
197	0xbc5c03f7	-0.01342868
198	0xbeb026ad	-0.34404507
199	0x3dc6f0dc	0.09713909

pi.net.4.bias f4 [4]
0	0x3d6166dd	0.05502974
1	0xbd0ee35d	-0.0348848
2	0x3c621567	0.013799048
3	0x3d2b7131	0.041855995

v.net.0.weight f4 [64, 40]
0	0xbc5c0137	-0.013428024
1	0xbecd1449	-0.4005454
2	0x3dd9c699	0.106335826
3	0x3eadccd0	0.33945322
4	0xbe5b6ee6	-0.21429023
5	0x3e37f5be	0.17964837
6	0x3e7d94c3	0.2476378
7	0x3d6ce53d	0.057835806
8	0xbeacf228	-0.337785
9	0x3e041e7c	0.12902254
10	0x3ba2346c	0.004950097
11	0xbd0e1b96	-0.034694277
12	0x3db824c5	0.08991388
13	0x3e55a887	0.2086507
14	0x3ecfc5ce	0.405806
15	0x3e1a0c2a	0.15043703
16	0x3cae72c8	0.021294966
17	0x3ccb0d60	0.024786651
18	0xbce2a21f	-0.027665196
19	0x3d58d6ba	0.052939154
20	0xbe18c42a	-0.1491858
21	0xbea0d16a	-0.3140977
22	0x3d478011	0.048706118
23	0x3e80192b	0.25019202
24	0xbdc27938	-0.09495777
25	0x3c518ebc	0.012790378
26	0x3e513195	0.2042907
27	0xbd83986c	-0.064255565
28	0xbee56ec0	-0.44811058
29	0x3c3acaea	0.011400918
30	0xbc92103f	-0.017830012
31	0x3daa8a1d	0.08327124
32	0x3dfdb4c0	0.12387991
33	0x3e3735ac	0.17891568
34	0x3e87aadf	0.26497552
35	0x3dcdb1b2	0.10043658
36	0x3d28c18e	0.041200213
37	0xbcaf8696	-0.02142648
38	0xbd1c2daf	-0.038129505
39	0x3d5a17a8	0.053245217
40	0x3e0454a1	0.12922908
41	0x3fcd67e2	1.6047328
42	0xbcd8212a	-0.026383001
43	0xbe9752d7	-0.2955539
44	0xbe65ec3e	-0.224534
45	0xbaa7464d	-0.001276204
46	0x3e2ceb8a	0.16886726
47	0xbdb82c48	-0.08992821
48	0x3edf143b	0.43570122
49	0xbcb507c7	-0.022098435
50	0x3c752c34	0.014964152
51	0x3d47a095	0.048737127
52	0xbce1aa87	-0.027547134
53	0x3ea7bbb4	0.32760394
54	0x3cf7f320	0.030267298
55	0xbd7b5c8f	-0.061367568
56	0xbd1b72c9	-0.037951265
57	0x3b991426	0.0046715913
58	0x3c34b493	0.01102938
59	0xbbd8f1b7	-0.0066206115
60	0x3e061f3e	0.13097855
61	0x3fd0a2a6	1.6299636
62	0xbe408374	-0.18800145
63	0xbeb4fe12	-0.3535009
64	0xbde9a345	-0.11408094
65	0xbe46beb4	-0.19408685
66	0x3d8b7708	0.06809813
67	0x3bc19a28	0.0059082694
68	0x3f1c24e8	0.60993814
69	0xbd37b26f	-0.044847902
70	0xbd263b40	-0.04058385
71	0xbe075e1c	-0.13219494
72	0xbd1a9ec4	-0.037749067
73	0x3e2db470	0.16963363
74	0x3d02af64	0.031905547
75	0xbda8a0ce	-0.08233796
76	0xbcb71c95	-0.022352496
77	0xbd05fe32	-0.032713123
78	0xbbf8280d	-0.007573134
79	0x3b02aa7a	0.0019938038
80	0xbf0422df	-0.5161571
81	0x3eb3999c	0.35078132
82	0x3e063347	0.13105498
83	0x3e56a107	0.20959865
84	0xbef1455b	-0.47123227
85	0xbd8fa3cb	-0.07013663
86	0x3c381450	0.011235312
87	0xbecdfb70	-0.40230894
88	0xbe5e2965	-0.21695478
89	0x3d4c6f3e	0.049910776
90	0xbc3a33a6	-0.011364853
91	0x3da15c3e	0.07878922
92	0xbcc565f0	-0.02409646
93	0xbdc7ba98	-0.09752387
94	0x3e4c8fdf	0.19976757
95	0x3d4cae23	0.049970757
96	0x3d18c16e	0.037293844
97	0x3bfbee2c	0.0076883044
98	0x3d4bd059	0.049759243
99	0x3d813b8e	0.06310187
100	0xbea31788	-0.3185389
101	0x3ef83651	0.4847894
102	0x3e22a7fe	0.15884396
103	0x3e81e85e	0.25372595
104	0xbed878ba	-0.42279607
105	0x3db83e7e	0.089962944
106	0xbd153489	-0.036427055
107	0xbeef8dbc	-0.46787822
108	0xbe9db53b	-0.3080233
109	0x3ded0c63	0.11574628
110	0x3cfe3d5f	0.031035123
111	0xbdd07049	-0.10177667
112	0xbcd5d0de	-0.026100572
113	0xbe29774c	-0.16549414
114	0x3d9c5ad4	0.076345116
115	0x3cf80e18	0.030280158
116	0x3d0fbbeb	0.035091322
117	0x3c1866b9	0.009301835
118	0x3d8619f4	0.06547919
119	0x3d3cc622	0.04608739
120	0x3e2b6140	0.16736317
121	0xbd572c3c	-0.05253242
122	0xbd3e4d28	-0.0464603
123	0xbc9bbc5c	-0.019010715
124	0xbd7aa6c8	-0.06119421
125	0xbea6adb0	-0.32554388
126	0xbe63eec4	-0.2225905
127	0xbd447660	-0.047964454
128	0xbddf0a8e	-0.10890685
129	0xbbbf7279	-0.0058425036
130	0x3d738e6b	0.059461992
131	0xbd601dad	-0.0547158
132	0xbc7dd417	-0.015492461
133	0x3dd6d336	0.10489504
134	0xbc77a5af	-0.015115186
135	0xbe205c6b	-0.15660255
136	0x3bb9da4e	0.005671776
137	0xbb572d67	-0.0032833458
138	0xbb910fef	-0.0044269483
139	0xbc38ac35	-0.011271526
140	0x3d543620	0.05180943
141	0xbe5a067e	-0.21291539
142	0xbd61719e	-0.055039994
143	0xbc98b8bb	-0.018642774
144	0x3d936d45	0.07198576
145	0xbe73db75	-0.23814185
146	0x3dc396e2	0.09550263
147	0xbda9429d	-0.082646586
148	0xbd898088	-0.067139685
149	0x3d57bf2b	0.052672546
150	0x38b3408f	8.54741e-05
151	0x3d03a4a6	0.032139443
152	0xbd2572ab	-0.04039256
153	0xbd76ed77	-0.060285058
154	0xbd6b040f	-0.057376917
155	0xbd73a904	-0.059487358
156	0xbafd982b	-0.0019347718
157	0x3c0df0d4	0.008663375
158	0xba1112c0	-0.0005534105
159	0xbc03bbed	-0.0080404105
160	0xbd1b9498	-0.037983507
161	0xbecbbe95	-0.3979384
162	0xbe1314a8	-0.14363348
163	0x3da8732e	0.08225094
164	0x3e768532	0.24074247
165	0xbe1e9a54	-0.15488559
166	0x3d2d2d10	0.042279303
167	0x3e8efbfc	0.27926624
168	0xbdc37e1b	-0.09545537
169	0x3da2ada5	0.07943276
170	0xbca74257	-0.020417375
171	0xbdabba29	-0.083851166
172	0xbcbcdedc	-0.023055486
173	0x3e6cda7a	0.23130217
174	0xbca4cf75	-0.020118454
175	0xbe473719	-0.19454612
176	0xbb31342e	-0.0027039158
177	0xbcaf5004	-0.02140046
178	0xbbb99831	-0.0056638946
179	0xbc2c343b	-0.0105105
180	0x3cd188a8	0.025577858
181	0xbf152785	-0.58263427
182	0xbdbff24a	-0.09372385
183	0x3e1dc5d7	0.15407501
184	0x3ddbf1fc	0.10739514
185	0xbd99a525	-0.07502202
186	0x3dedf128	0.116182625
187	0x3e2b7557	0.1674398
188	0xbe36b113	-0.17840986
189	0xbdf7a2fb	-0.12091633
190	0x3cf752c5	0.030190835
191	0x3e2e957b	0.1704921
192	0xbc39f85a	-0.0113507155
193	0x3e4603dc	0.1933741
194	0x3dd20676	0.102551386
195	0x3d40899e	0.047006242
196	0xbc2f0f18	-0.010684751
197	0x3b8b30f4	0.004247779
198	0xbc17654d	-0.009240461
199	0xbcfd27ba	-0.030902732
200	0x3f06bd8d	0.5263298
201	0x3efb6691	0.4910169
202	0xbe3a4bf5	-0.18193038
203	0xbc2b58d9	-0.010458195
204	0xbe1db151	-0.15399672
205	0xbdec8158	-0.11548108
206	0x3deeb998	0.11656493
207	0xbddfca99	-0.10927314
208	0x3ecd0362	0.40041643
209	0xbe171b70	-0.1475656
210	0x3d112677	0.035437074
211	0x3d0b2ebb	0.033980113
212	0xbc035c1b	-0.008017565
213	0x3e31d188	0.17365086
214	0x3e612344	0.21986109
215	0x3d1544ae	0.03644245
216	0xbc792470	-0.015206441
217	0xbc32aada	-0.010904992
218	0x3bd64f25	0.0065401965
219	0xba7267f8	-0.000924706
220	0x3f10b26b	0.56522244
221	0x3ec705df	0.38871667
222	0xbe7dd370	-0.24787688
223	0xbea1c339	-0.31594256
224	0xbe997b9a	-0.29977113
225	0xbe6d8046	-0.23193464
226	0x3e3e9055	0.18609746
227	0xbe574594	-0.21022636
228	0x3d946a5f	0.07246851
229	0xbd0aef32	-0.03391952
230	0xbdc502f0	-0.09619701
231	0x3d861515	0.0654699
232	0x3b635304	0.0034686932
233	0x3ebdb68f	0.37053344
234	0x3c63d021	0.013904602
235	0x3d34e480	0.044163227
236	0xbcdb6163	-0.026779836
237	0x3a40799c	0.000734234
238	0x3ca4f020	0.020134032
239	0xbc47bf2e	-0.012191577
240	0x3edc8d9d	0.43076792
241	0x3e2f06ca	0.17092434
242	0xbe16f15e	-0.14740512
243	0xbe333ae7	-0.17502938
244	0x3def03a2	0.11670615
245	0xbd88253c	-0.06647727
246	0xbdc4c21e	-0.096073374
247	0xbd33dad3	-0.04390986
248	0x3edf4083	0.43603906
249	0xbc62168a	-0.013799319
250	0x3cdaaa08	0.026692405
251	0xbc96869c	-0.018374734
252	0xbb72950b	-0.0037015106
253	0x3e3435bf	0.17598628
254	0xbe47dac0	-0.1951704
255	0xbdb66ad1	-0.08907092

v.net.0.bias f4 [64]
0	0x3f6c0349	0.9219251
1	0xbc77e92a	-0.015131274
2	0x3f24959c	0.64290786
3	0xbf972eae	-1.181112
4	0x3f9217da	1.1413529
5	0xbdacceb4	-0.08437863
6	0xbfadfecc	-1.3593383
7	0xbec46a98	-0.38362575
8	0x3d5119c7	0.051049974
9	0x3ce3ef34	0.027824022
10	0x3eaed757	0.34148666
11	0x3f07fd51	0.53120905
12	0x3e786744	0.24258143
13	0x3f427c3a	0.75970805
14	0x3dd662e7	0.10468083
15	0xbf83c74a	-1.0295193
16	0xbf3eab30	-0.7447996
17	0xbe2853aa	-0.16438165
18	0xbd5b6560	-0.053563476
19	0xbe955a7e	-0.29170603
20	0xbecc5168	-0.39905858
21	0xbefb832f	-0.49123523
22	0x3e6e2fcf	0.23260425
23	0x3eb3811f	0.3505945
24	0x3f885dcb	1.0653623
25	0xbf4d71ad	-0.8025158
26	0x3f255dea	0.64596426
27	0xbeb6838d	-0.3564724
28	0x3eaad3fa	0.3336485
29	0x3f4d540f	0.8020639
30	0x3e1e3158	0.1544851
31	0x3e02af57	0.127622
32	0xbf8b3417	-1.0875272
33	0xbf96e5cf	-1.1788882
34	0x3ef501ee	0.47853035
35	0x3fe7ed7b	1.8119348
36	0x3f19d5a2	0.600916
37	0xbd61cc29	-0.055126343
38	0x3fce593c	1.6120982
39	0x3a8f39a5	0.0010927214
40	0x3e94e8ca	0.29083854
41	0x3d2bf3a2	0.041980393
42	0x3e0371b3	0.12836342
43	0xbf72dde7	-0.94869846
44	0x3f44bce5	0.7685073
45	0xbf2fe50b	-0.68708867
46	0xbeea7f78	-0.45800376
47	0x3f79a98e	0.97524345
48	0xbf69be31	-0.91305834
49	0x3fdd3fac	1.7285056
50	0xbf8a0473	-1.0782608
51	0x3f4c659f	0.7984256
52	0xbf8d8fe6	-1.1059539
53	0x3d842526	0.06452398
54	0x3f2327de	0.6373271
55	0x3e22f1f9	0.15912618
56	0xbf008f31	-0.5021849
57	0xbf216634	-0.63046575
58	0xbf621942	-0.8831979
59	0xbf4d40aa	-0.80176795
60	0x3e1f7437	0.15571676
61	0x3e103a0b	0.14084642
62	0xbd13fe51	-0.036131207
63	0xbedc1e2e	-0.42991775

v.net.2.weight f4 [64, 64]
0	0xbcba6b36	-0.0227562
1	0xbedfef47	-0.43737242
2	0x3e219b5d	0.15781923
3	0xbdb54a3a	-0.08852048
4	0x3e8f8f89	0.28039196
5	0xbde33e67	-0.11095887
6	0x3da31251	0.07962478
7	0x3e95fac4	0.2929288
8	0xbe3e70b8	-0.18597686
9	0xbed1c46d	-0.40970173
10	0x3ea91643	0.33024797
11	0xbc8cd389	-0.017190712
12	0x3e2a0d9a	0.16606751
13	0x3e458a15	0.19290955
14	0x3ecb0236	0.39650124
15	0x3d75ab36	0.059977733
16	0x3d96f812	0.073715344
17	0xbedc9272	-0.4308048
18	0xbe63cd51	-0.2224629
19	0xbe1cd29a	-0.15314713
20	0x3ecdd34a	0.40200263
21	0x3c0557f9	0.00813865
22	0x3e27d1eb	0.16388671
23	0x3de3578f	0.11100685
24	0x3df59792	0.119918
25	0x3eaa85ab	0.33305106
26	0x3e94d213	0.29066524
27	0xbd8f5e98	-0.07000464
28	0xbde74010	-0.11291516
29	0x3df86903	0.121294044
30	0xbe373c86	-0.17894182
31	0xbeb56d96	-0.3543517
32	0xbe1116b3	-0.14168815
33	0x3e5a4505	0.21315391
34	0xbe4b54a7	-0.19856511
35	0xbec00a3a	-0.37507802
36	0xbee24afd	-0.44197837
37	0xbdabc954	-0.0838801
38	0xbede7da1	-0.43455222
39	0x3f453f77	0.77049965
40	0xbe06b339	-0.13154306
41	0xbea1f83c	-0.316347
42	0xbf0798ba	-0.5296742
43	0xbe764e79	-0.24053372
44	0xbd748805	-0.05970003
45	0x3e2d079c	0.16897434
46	0x3f32ce63	0.6984617
47	0x3d5f0b9b	0.054454427
48	0x3e8371bc	0.2567271
49	0xbe97c9ce	-0.29646152
50	0x3c21ff84	0.00988758
51	0xbc03f50e	-0.008054031
52	0x3d7b8199	0.06140289
53	0x3f0e6291	0.5561915
54	0x3d656ad9	0.0560101
55	0x3e8c5e67	0.27415773
56	0xbea5f9c2	-0.32417113
57	0x3d7135aa	0.05888907
58	0x3c4c3cc1	0.012465657
59	0x3e43cc38	0.19120872
60	0x3dab487e	0.08363436
61	0x3ed2420d	0.41066018
62	0xbc5fa13c	-0.013649281
63	0xbd2ded81	-0.04246283
64	0xbdab94df	-0.08378004
65	0xbd9ea49b	-0.0774624
66	0x3dcc8652	0.09986557
67	0xbe85e63c	-0.26152217
68	0xbe10bf1d	-0.14135404
69	0xbd02fdbe	-0.03198027
70	0x3e45498f	0.19266342
71	0xbe19dfd7	-0.15026794
72	0xbe876073	-0.26440772
73	0xbd7fd7c4	-0.06246163
74	0x3eaa3860	0.33246136
75	0xbdfc5be3	-0.123222135
76	0xbe6e0659	-0.23244609
77	0x3e87c77f	0.2651939
78	0x3e8becf0	0.27329206
79	0xbeb4c72f	-0.35308215
80	0x3dc7d478	0.09757322
81	0xbed116ac	-0.4083761
82	0x3ee361f2	0.44410664
83	0x3db9a91d	0.09065459
84	0x3e3f2ebf	0.18670176
85	0xbe072cd2	-0.13200691
86	0x3d3add32	0.045621105
87	0x3e8b0312	0.2715078
88	0x3e7f2216	0.24915347
89	0xbdf63a23	-0.120228074
90	0x3cabd247	0.020974291
91	0x3df193ab	0.117957436
92	0xba92f0af	-0.0011210645
93	0x3e7cbf36	0.24682316
94	0x3eb6040a	0.35549957
95	0x3d12e545	0.03586318
96	0x3e10bd50	0.14134717
97	0xbe8221da	-0.25416452
98	0xbe365f04	-0.17809683
99	0xbd514917	-0.051095095
100	0x3e83b2ca	0.25722343
101	0xbddb00f5	-0.10693542
102	0xbe90340a	-0.28164703
103	0xbf035d1f	-0.51313967
104	0x3e895936	0.26825875
105	0xbe6bff9f	-0.2304673
106	0x3e768efd	0.24077983
107	0xbcfa01b2	-0.030518387
108	0x3eb022b7	0.34401485
109	0xbe725dd0	-0.23668599
110	0x3ec8a182	0.3918572
111	0x3d35ec83	0.04441501
112	0xbe0d4982	-0.13797572
113	0x3e8a94f7	0.27066776
114	0x3e714bef	0.23564123
115	0x3e695ba0	0.22788858
116	0x3a824c66	0.0009940981
117	0xbf436d71	-0.7633887
118	0xbeebf366	-0.46084136
119	0xbe8b1c5e	-0.2717008
120	0x3c190e80	0.009341836
121	0xbdd18406	-0.102302596
122	0xbe9d667c	-0.30742252
123	0xbe2cd109	-0.16876616
124	0xbf27db24	-0.6556876
125	0x3e29ef57	0.16595207
126	0xbdd62c83	-0.10457709
127	0xbe8bcc3b	-0.27304253
128	0x3e1ba496	0.15199503
129	0xbe472f62	-0.19451669
130	0x3e016a98	0.12638319
131	0xbbb9c1a9	-0.005668838
132	0x3cf858f9	0.030315863
133	0xbe714ed5	-0.23565228
134	0xbe0ffcef	-0.1406133
135	0xbb5e86a0	-0.0033954754
136	0x3e433f4d	0.19067116
137	0x3e7676f7	0.24068819
138	0x3c617a9f	0.013762145
139	0x3d16ba30	0.036798656
140	0xbe48384d	-0.19552727
141	0x3e93d977	0.2887685
142	0xbe62d92d	-0.22153158
143	0xbeb0def7	-0.3454511
144	0xbdf266e2	-0.118360296
145	0x3d2cb2e3	0.042162787
146	0xbd92496c	-0.0714291
147	0xbec1e05b	-0.37866482
148	0xbdf89567	-0.12137871
149	0xbd5a433d	-0.05328678
150	0xbd5b3436	-0.05351659
151	0xbdea204c	-0.114319414
152	0xbd7699ae	-0.060205154
153	0x3d893c37	0.06700938
154	0x3e080d92	0.13286427
155	0xbd54737b	-0.051867943
156	0xbe9efac3	-0.3105069
157	0xbd7a9c67	-0.061184313
158	0xbd19753b	-0.037465315
159	0xbe713b26	-0.2355772
160	0xbe1cd841	-0.1531687
161	0xbe60ffad	-0.21972533
162	0x3d62d40b	0.055378
163	0xbe9599aa	-0.292188
164	0xbd416395	-0.04721411
165	0x3e166bac	0.14689511
166	0x3e24ade1	0.16081955
167	0x3e8a4253	0.27003726
168	0x3bbd86ab	0.005783876
169	0x3dfa7fb3	0.12231388
170	0xbe614d9d	-0.22002263
171	0xbd9b2799	-0.07575912
172	0xbd8c7350	-0.068579316
173	0xbd69d5e8	-0.057088763
174	0xbebcc466	-0.3686859
175	0x3dd5450c	0.1041356
176	0xbdae1b9b	-0.08501359
177	0xbdc9a301	-0.09845544
178	0x3d54b5cf	0.0519312
179	0x3eba9093	0.36438426
180	0xbe0fe843	-0.14053445
181	0xbe739123	-0.23785834
182	0xbc9d5b4a	-0.01920857
183	0xbe1d9f57	-0.15392815
184	0x3c0bdda9	0.008536735
185	0xbe89c106	-0.26905078
186	0xbe0e41ae	-0.13892242
187	0x3daab74e	0.08335744
188	0xbeb0a8a1	-0.34503654
189	0xbd5a26d8	-0.0532597
190	0xbe033c89	-0.12816061
191	0xbe0f85c2	-0.14015868
192	0xbd43e9f9	-0.047830556
193	0x3c226185	0.009910946
194	0x3e05c073	0.13061695
195	0xbd9d4ef7	-0.07681077
196	0xbdd7fa04	-0.105457336
197	0x3a363158	0.0006950102
198	0xbe836dc2	-0.25669676
199	0xbdf2f2be	-0.11862706
200	0xbd9b60f6	-0.07586853
201	0x3dbd0955	0.092302956
202	0x3e8ba22d	0.27272168
203	0xbe019b7e	-0.12656972
204	0xbe880b2c	-0.26571023
205	0x3df423d7	0.119208984
206	0x3ebe59ce	0.3717789
207	0xbe2e44c8	-0.17018425
208	0x3d19941c	0.037494764
209	0xbe938326	-0.28810996
210	0x3e50cce6	0.20390663
211	0x3d7f27fc	0.06229399
212	0x3e491a8b	0.19639032
213	0xbe048783	-0.12942319
214	0xbd3e71fe	-0.04649543
215	0x3e4b491e	0.1985211
216	0x3e27876e	0.16360256
217	0xbeae8d67	-0.34092256
218	0x3c104d8c	0.008807551
219	0xbd251e1b	-0.040311914
220	0xbd3cf2e3	-0.046130072
221	0x3e59b39f	0.21259926
222	0x3e09aae8	0.13444102
223	0xbd01a2d7	-0.031649437
224	0x3e6f0759	0.23342647
225	0x3ba4ddb2	0.005031311
226	0xbce460f8	-0.02787827
227	0x3db50b55	0.08840052
228	0x3e3cfbf5	0.18455489
229	0x3e7b9527	0.24568616
230	0xbdc9ea73	-0.09859171
231	0x3d8db2e1	0.06918884
232	0x3e3f43e6	0.18678245
233	0xbeafb552	-0.34318024
234	0x3e22e12d	0.1590621
235	0xbde5b807	-0.11216741
236	0x3e90ff69	0.28319862
237	0x3dd1687a	0.102250054
238	0x3eb5bb65	0.35494533
239	0xbd81dce6	-0.06340961
240	0xbd662acb	-0.056193154
241	0x3f01f47d	0.50763685
242	0x3d39e598	0.045384973
243	0x3e865a2e	0.26240677
244	0xbdafd918	-0.08586329
245	0xbec33ed3	-0.3813387
246	0xbecc353f	-0.39884374
247	0xbe447868	-0.19186556
248	0xbcb742b3	-0.022370672
249	0xbb10c4ba	-0.0022089914
250	0xbe661d15	-0.22472031
251	0xbdc5acaf	-0.096520774
252	0xbf1c7b9d	-0.6112612
253	0x3e0fd9b1	0.14047886
254	0xbd96ec03	-0.073692344
255	0xbeb92014	-0.36157286

v.net.2.bias f4 [64]
0	0x3e7c775b	0.24654905
1	0x3f241dbe	0.6410788
2	0xbec1712c	-0.37781656
3	0xbeb79e30	-0.35862875
4	0xbf006f64	-0.5016997
5	0x3ecd827a	0.40138608
6	0xbf3f1589	-0.74642235
7	0x3ec639d6	0.38716
8	0x3f0fa933	0.5611755
9	0x3f2a12ba	0.66434824
10	0xbef4a37c	-0.4778098
11	0xbec7e16f	-0.3903918
12	0xbf3b888b	-0.73255223
13	0x3ebc960b	0.36833224
14	0xbf047669	-0.5174318
15	0xbf09cba4	-0.53826356
16	0xbf5535a1	-0.83284956
17	0x3ee51a35	0.44746557
18	0xbf176220	-0.591341
19	0xbf18f162	-0.5974332
20	0xbee8a2b6	-0.4543664
21	0xbe9a3ed1	-0.3012605
22	0x3e9a6ce5	0.30161205
23	0x3f3828c8	0.7193723
24	0x3ed49cae	0.41525787
25	0x3f1e6ff8	0.618896
26	0xbf29a0ce	-0.66260993
27	0xbe9b644c	-0.30349958
28	0x3f2fb7c0	0.68639755
29	0x3f3792a3	0.71708125
30	0x3f2eeda0	0.68331337
31	0xbf292847	-0.66077083
32	0x3eb29ffc	0.34887683
33	0x3e7ff758	0.24996698
34	0x3f34ab85	0.7057422
35	0xbf1c8ade	-0.61149395
36	0x3e9af416	0.30264348
37	0x3ec9919b	0.393689
38	0xbf043ae9	-0.5165239
39	0xbf17b5bc	-0.5926168
40	0xbf5bf955	-0.85927325
41	0xbeef49a2	-0.46735865
42	0x3f435e20	0.763155
43	0x3e68139a	0.22663727
44	0xbf2f925f	-0.6858272
45	0x3efbd9fa	0.4918974
46	0xbf211ce2	-0.62934697
47	0x3f047ab9	0.5174976
48	0xbf5dba61	-0.86612517
49	0x3e8ba841	0.27276805
50	0xbf303b00	-0.68840027
51	0xbf1b76ed	-0.6072834
52	0xbf036af5	-0.5133508
53	0x3e4481e4	0.19190174
54	0x3ece0459	0.40237692
55	0x3e877a71	0.26460603
56	0xbe910f0c	-0.28331792
57	0x3f0169bd	0.5055197
58	0x3eeb523f	0.45961186
59	0xbf093efc	-0.5361173
60	0xbf4a0713	-0.78917044
61	0x3ec051e1	0.3756247
62	0xbf1aaded	-0.6042164
63	0xbf3c32ab	-0.73514813

v.net.4.weight f4 [1, 64]
0	0xbdf1d33c	-0.11807868
1	0xbe1c5f10	-0.15270638
2	0x3db92a12	0.090412274
3	0x3e4818a7	0.19540654
4	0x3db8ac46	0.090172336
5	0xbdd5793a	-0.10423513
6	0x3dbfd068	0.09365922
7	0xbde9b29a	-0.11411019
8	0xbd832a24	-0.06404522
9	0xbdf3ff5e	-0.11913942
10	0x3d82725d	0.06369469
11	0x3de9de56	0.1141936
12	0x3e447117	0.19183765
13	0xbf2dbff8	-0.67871046
14	0x3dc564ee	0.096383914
15	0x3e0ba235	0.13636096
16	0x3e1eb674	0.15499288
17	0xbd972ae1	-0.073812254
18	0x3dbc94de	0.09208082
19	0x3e0f9479	0.14021482
20	0x3e0de0f0	0.13855338
21	0x3dd97d77	0.10619634
22	0xbe0cc17e	-0.13745686
23	0xbe62f09e	-0.221621
24	0xbde1c2c4	-0.11023477
25	0xbe16f04f	-0.14740108
26	0x3df429aa	0.11922009
27	0x3dbb1d3b	0.09136435
28	0xbdbe5d7f	-0.09295177
29	0xbdfc4392	-0.123175755
30	0xbda6e601	-0.081493385
31	0x3d8401a6	0.06445627
32	0xbd5edc0b	-0.054409068
33	0xbe93b2e0	-0.28847408
34	0xbd8a5124	-0.067537576
35	0x3dff6fb3	0.12472477
36	0xbde05ed5	-0.10955588
37	0xbe1d1bee	-0.15342686
38	0x3dff0301	0.12451745
39	0x3dd6fccc	0.10497436
40	0x3e0a8cf2	0.13530329
41	0x3e18b87c	0.14914125
42	0xbeb82732	-0.35967404
43	0xbe27e61d	-0.16396375
44	0x3e160728	0.14651167
45	0xbdc61416	-0.096718
46	0x3df2ecca	0.1186157
47	0xbdf4d66b	-0.119549595
48	0x3e1799b5	0.14804728
49	0xbe354f90	-0.17706132
50	0x3e3bcc6f	0.18339704
51	0x3df9912a	0.12185891
52	0x3e374f70	0.17901397
53	0xbe156354	-0.14588672
54	0xbd9e2777	-0.07722371
55	0xbe147cef	-0.14500783
56	0x3e2d1608	0.16902936
57	0xbd693a06	-0.0569401
58	0xbde34739	-0.11097569
59	0x3df1f602	0.118145004
60	0x3e0fa125	0.14026316
61	0xbde05b68	-0.10954934
62	0x3dd4321f	0.10361122
63	0x3e201edb	0.1563677

c.net.0.weight f4 [64, 40]
0	0xbd41efbd	-0.047347773
1	0xbd78384a	-0.060600556
2	0x3c8c4a8a	0.017125387
3	0xbd6f239f	-0.05838358
4	0xbe1f7b95	-0.15574487
5	0x3d9343ea	0.07190688
6	0x3d0e43cb	0.03473262
7	0x3d44ef62	0.048079856
8	0xbe0757ed	-0.13217135
9	0xbe089922	-0.13339666
10	0xbe138486	-0.14406022
11	0x3dc73e37	0.097286634
12	0x3dcd38ce	0.100206
13	0x3d66f636	0.05638715
14	0xbdade355	-0.08490626
15	0xbdf0823d	-0.11743591
16	0xbd10a020	-0.035308957
17	0xbc6f6c0e	-0.014613165
18	0x3e1c7e86	0.1528264
19	0x3dced549	0.10099275
20	0xbd67110d	-0.056412745
21	0xbcf1c5eb	-0.02951332
22	0xbc931a94	-0.01795701
23	0xbe13eea0	-0.14446497
24	0x3dcaa9b3	0.09895649
25	0xbdd6bbc8	-0.10485035
26	0xbe070d8c	-0.13188761
27	0xbdd0166a	-0.10160525
28	0xbe106d73	-0.14104252
29	0x3db0b6e4	0.086286336
30	0xbd33cbd7	-0.04389557
31	0xbd4fbbfc	-0.050716385
32	0xbca6fb8d	-0.02038362
33	0x3d8a793b	0.06761404
34	0x3df2d9a3	0.11857917
35	0x3e0bc2b5	0.13648494
36	0xbd4c01e3	-0.049806487
37	0xbdabb9dd	-0.0838506
38	0x3c98d932	0.018658254
39	0x3cfd82a2	0.03094608
40	0xbd227d1d	-0.0396701
41	0x3de0a100	0.10968208
42	0xbce8c49e	-0.028414067
43	0x3db62d9e	0.088954195
44	0xbd51127a	-0.05104301
45	0x3e0c5838	0.13705528
46	0x3d61587b	0.055016022
47	0xbd9b3fec	-0.075805515
48	0xbbf01ee2	-0.0073279003
49	0xbdca2da1	-0.09871984
50	0xbda5d4b8	-0.080972135
51	0x3daad5bd	0.083415486
52	0xbdf860b8	-0.12127823
53	0xbde53095	-0.11190907
54	0xbda2592f	-0.07927167
55	0xbda2103e	-0.07913254
56	0x3de37765	0.11106757
57	0x3d1ae775	0.03781839
58	0x3d2bd19a	0.04194794
59	0x3e17bdc6	0.14818487
60	0x3d6f3522	0.05840028
61	0xbaff0353	-0.0019455947
62	0x3e05e117	0.13074146
63	0x3e05df18	0.13073385
64	0x3da17483	0.07883551
65	0xbcad6030	-0.02116403
66	0x3d7fc661	0.06244505
67	0xbdfe5837	-0.124191694
68	0x3dc44892	0.09584154
69	0x3e063c7c	0.1310901
70	0x3e15408e	0.14575407
71	0xbdca1994	-0.0986816
72	0xbc25ad05	-0.010112052
73	0x3e2013db	0.15632574
74	0x3e1c2f62	0.1525245
75	0xbe0ea481	-0.13929941
76	0xbcfc43ff	-0.030794142
77	0x3b9a3b91	0.004706808
78	0xbdcf0f04	-0.10110286
79	0x3db52c98	0.08846396
80	0x3e1a436f	0.15064786
81	0x3dda6405	0.106636085
82	0x3d2b5da0	0.041837335
83	0xbb34ffe8	-0.0027618352
84	0xbddeea28	-0.108845055
85	0xbdc4b926	-0.09605627
86	0xbcb61a7f	-0.022229431
87	0x3b1a4888	0.0023541767
88	0xbde799f5	-0.11308662
89	0xbdef0965	-0.11671714
90	0xbdadb067	-0.08480912
91	0xbc30f651	-0.010800914
92	0x3d340051	0.043945614
93	0x3da3e785	0.08003143
94	0x3e0e5c91	0.13902499
95	0x3cde87d7	0.027164383
96	0xbcbd3bf5	-0.023099879
97	0x3d8149e1	0.063129194
98	0x3dd2b344	0.102880985
99	0xbcc892f8	-0.024484143
100	0xbd767e48	-0.060179025
101	0x3d632683	0.05545665
102	0xbe16855a	-0.14699307
103	0xbc4d0d6a	-0.012515405
104	0x3dcecbeb	0.10097488
105	0x3c71366e	0.01472245
106	0x3d548b9d	0.051890958
107	0xbde1e97c	-0.11030862
108	0x3dc63974	0.09678927
109	0xbccf33e3	-0.025293296
110	0xbc86c6a0	-0.016452134
111	0xbd1fcd0b	-0.039013904
112	0xbd8908b5	-0.06691114
113	0x3e1ace74	0.15117818
114	0xbe1aa38d	-0.15101452
115	0xbe004055	-0.1252454
116	0x3d940468	0.07227403
117	0x3df12ff5	0.11776725
118	0x3e053c7c	0.13011354
119	0x3dc7c08f	0.097535245
120	0x3c572ffc	0.013133999
121	0x3d9f2050	0.07769835
122	0xbe088994	-0.13333732
123	0xbd6d8001	-0.057983402
124	0xbd8dee02	-0.06930162
125	0x3d7f123a	0.06227324
126	0xbcf43172	-0.029808734
127	0x3d208f0c	0.03919892
128	0x3c122f6c	0.008922439
129	0x3d75126c	0.05983202
130	0xbd473978	-0.04863879
131	0x3bc76c9a	0.0060859444
132	0x3ddc5ed1	0.10760272
133	0x3dedad02	0.11605264
134	0x3d6efbb7	0.058345523
135	0xbe0798f0	-0.13241935
136	0x3e1a68bb	0.15079014
137	0xbd719fc5	-0.05899026
138	0x3d677c3c	0.056514964
139	0xbe0e3fe1	-0.13891555
140	0x3bd0ec8d	0.0063758553
141	0xbda81033	-0.08206215
142	0xbdbaf961	-0.091295965
143	0x3e0a48a5	0.13504274
144	0xbdb534c6	-0.08847956
145	0xbdb51661	-0.08842159
146	0x3d3bbadf	0.04583251
147	0x3df7f8f7	0.12108033
148	0xbcaee0b8	-0.021347389
149	0xbdebb77b	-0.115096055
150	0xbd880fd9	-0.06643648
151	0xbbb4f6bc	-0.005522577
152	0x3de2b45a	0.110695556
153	0xbe08df1e	-0.13366362
154	0xbe10e0a5	-0.14148195
155	0xbd983ceb	-0.07433494
156	0xbc5eca72	-0.013598071
157	0x3cb8330e	0.022485282
158	0x3c3d5de0	0.011558026
159	0xbcd01de5	-0.02540488
160	0xbc0a7765	-0.008451317
161	0xbdb0b923	-0.08629062
162	0xbdf6a61e	-0.12043403
163	0x3d28f653	0.041250538
164	0xbd40fb28	-0.04711452
165	0xbc2e7df0	-0.010650143
166	0xbdae4127	-0.085085206
167	0x368a81fd	4.127853e-06
168	0x3d719b5d	0.058986057
169	0xbd99acbd	-0.0750365
170	0x3c7b08ad	0.015321893
171	0xbd80ad72	-0.06283082
172	0xbaede283	-0.0018149171
173	0xbdc7c26b	-0.09753879
174	0x3cebacc7	0.02876891
175	0x3da72d38	0.08162922
176	0xbc9bfa5b	-0.019040277
177	0x3da9f245	0.08298162
178	0x3d52c0a0	0.051453233
179	0xbdac2e14	-0.08407226
180	0x3c83a919	0.016071843
181	0x3d83d96c	0.06437954
182	0x3d857188	0.06515795
183	0xbd568d1b	-0.052380662
184	0x3e1e50d4	0.15460521
185	0xbe110913	-0.14163618
186	0x3d02fec0	0.03198123
187	0x3d5491f0	0.05189699
188	0xbdc67ffc	-0.0969238
189	0x3df640c7	0.12024074
190	0x3d97e44e	0.074165925
191	0x3d15d50b	0.036580127
192	0xbd2d6b6a	-0.042338766
193	0x3d8bcebf	0.06826543
194	0x3c1e16fd	0.0096490355
195	0x3c240912	0.010011928
196	0x3db1e70b	0.08686646
197	0x3e154a1f	0.14579056
198	0xbd5d574b	-0.054038327
199	0x3c5cee35	0.013484527
200	0xbcc261eb	-0.023728332
201	0xbbd66b22	-0.006543533
202	0xbdce75f4	-0.100810915
203	0x3e10e8ff	0.14151381
204	0xbc44c8d2	-0.01201077
205	0xbd8096b3	-0.062787436
206	0xbde1ae5c	-0.110195845
207	0xbe19b2da	-0.15009633
208	0x3d18a476	0.037266217
209	0xbdf170d0	-0.117890954
210	0xbda4c6fc	-0.08045766
211	0xbd806739	-0.06269688
212	0x3de0cae7	0.109762006
213	0xbe1a466d	-0.15065928
214	0x3d80bae8	0.062856495
215	0x3dfb1e2b	0.122616135
216	0x3d153202	0.036424644
217	0x3c350849	0.011049339
218	0xbe06f864	-0.13180691
219	0xbe1d2aa2	-0.15348294
220	0x3e15a968	0.14615405
221	0xbe19ef2c	-0.15032643
222	0xbdd3861f	-0.10328316
223	0xbd8d3fad	-0.06896911
224	0xbd8f9075	-0.07009975
225	0x3d144fb0	0.03620881
226	0xbc375f61	-0.011192174
227	0x3df1fe2f	0.1181606
228	0x3e1ad8ba	0.15121737
229	0xbd55cb61	-0.05219591
230	0xbdd64fed	-0.104644634
231	0xbe0f7ada	-0.14011708
232	0xbd96e01c	-0.07366964
233	0xbdcb6d42	-0.09932949
234	0x3c9b4088	0.01895167
235	0x3d329ddd	0.04360758
236	0x3d952bc1	0.07283736
237	0xbdf115fa	-0.1177177
238	0xbd5bf68f	-0.053701933
239	0x3db82dbd	0.08993099
240	0xbdb9efe1	-0.090789564
241	0xbde3b662	-0.11118771
242	0x3dc44fed	0.09585557
243	0x3dc52353	0.09625878
244	0xbcc87928	-0.024471834
245	0xbdd08ba8	-0.10182887
246	0x3bc6d9df	0.0060684527
247	0xbdca01e4	-0.09863642
248	0xbdec5686	-0.115399405
249	0x3cf82a47	0.030293597
250	0x3c8dbf19	0.017303037
251	0xbda87ab6	-0.0822653
252	0x3df44554	0.11927286
253	0xbd88cd14	-0.066797405
254	0xbe0079a4	-0.12546402
255	0x3d76521c	0.0601369
