experiments/07_control_structure_hypothesis/checkpoints/PWM/DroneCircleBulletEnv-v0/ppo/2021-12-14__03-02-59/seed_00015/torch_save/model.pt (torch, 82448 bytes, 19 tensors)

obs_oms.mean f4 [40]
0.25105417 0.00032684207 1.0053396 -0.0012926675 -0.0003493934 -0.046035264 0.9875191 -0.00012505351
0.0012654769 -0.017569302 0.009507467 -0.01475159 -0.015175681 -0.0011894498 -0.00048585347 -0.005339366
0.2931472 0.30076042 0.29824 0.2787344 0.2510526 0.00033984034 1.0051509 -0.0012580069
-0.00039902018 -0.04618175 0.9871113 -0.00018784082 0.001291222 -0.019311186 0.010888882 -0.01704072
-0.015257241 -0.0011907897 -0.0004959798 -0.0051507168 0.2924029 0.3005599 0.29749978 0.27823266
00000000: 2c8a 803e 005c ab39 f8ae 803f b96e a9ba
00000010: ca2e b7b9 798f 3cbd 0dce 7c3f cc20 03b9
00000020: 5cde a53a 7fed 8fbc 35c5 1b3c a7b0 71bc
00000030: 6ba3 78bc 50e7 9bba 26ba feb9 d9f5 aebb
00000040: 6417 963e 45fd 993e eab2 983e 46b6 8e3e
00000050: f789 803e 992c b239 c9a8 803f b5e3 a4ba
00000060: 9533 d1b9 1329 3dbd 53b3 7c3f 23f7 44b9
00000070: 393e a93a 7e32 9ebc 4867 323c fb98 8bbc
00000080: 82f9 79bc 4614 9cba a404 02ba 58c7 a8bb
00000090: d5b5 953e fde2 993e e451 983e 8374 8e3e

obs_oms.std f4 [40]
0.17676514 0.17633389 0.038902692 0.0894278 0.09231335 0.072719716 0.043125726 0.3975532
0.39640534 0.1635538 1.9335771 2.0809245 0.4275701 0.033084944 0.033248264 0.038902666
0.5624094 0.58547705 0.57915765 0.5164753 0.17681699 0.1763895 0.03960856 0.09077255
0.09388551 0.07295389 0.04643604 0.39966032 0.39836726 0.17354788 1.9507653 2.10017
0.42953253 0.03352223 0.03365497 0.03960853 0.5610248 0.58407444 0.5775675 0.5150002
00000000: ec01 353e df90 343e 6e58 1f3d ec25 b73d
00000010: c80e bd3d 13ee 943d 9aa4 303d 188c cb3e
00000020: a4f5 ca3e a67a 273e 747f f73f de2d 0540
00000030: 78ea da3e 1484 073d 552f 083d 6758 1f3d
00000040: 10fa 0f3f d3e1 153f ad43 143f ba37 043f
00000050: 830f 353e 739f 343e 963c 223d f5e6 b93d
00000060: 0c47 c03d d968 953d b833 3e3d 47a0 cc3e
00000070: cbf6 cb3e 89b6 313e adb2 f93f 2f69 0640
00000080: b0eb db3e 9b4e 093d cbd9 093d 8e3c 223d
00000090: 529f 0f3f e785 153f 77db 133f 0ed7 033f

pi.log_std f4 [4]
-4.5100417 -4.5100417 -4.5100417 -4.5100417
00000000: 4352 90c0 4352 90c0 4352 90c0 4352 90c0

pi.net.0.weight f4 [50, 40]
0.0013636355 -0.007061371 -0.16376767 0.16357838 0.1027307 -0.0021056028 0.4525271 -0.08757462
0.09654841 0.09878783 -0.13416946 0.017209038 -0.07109593 0.022125056 0.024877941 0.023082046
0.06657027 0.059274934 0.116266295 0.008039885 0.08335746 -0.10776199 -0.08280046 0.10461249
0.06187181 -0.17531636 0.45101237 -0.1406781 0.0691264 0.025470454 0.278967 0.09268482
-0.090567894 0.0035615028 0.12324851 0.14860584 -0.054276697 0.067727424 0.28783503 0.043453775
-0.043179918 -0.17160918 0.040790763 0.085732505 0.15304127 -0.038220868 -0.1961094 -0.036263928
-0.07196305 -0.054553602 -0.02505209 0.19377932 -0.045992713 -0.111489035 -0.152631 0.054429844
-0.063135415 -0.35251424 0.005529248 -0.13120227 -0.048612237 0.12618682 -0.07708872 0.1401634
0.0054531214 -0.08865918 -0.15536053 0.07325731 -0.11678163 -0.12625171 0.13654771 -0.47681853
-0.05062087 -0.19603549 -0.022946965 0.11946474 -0.011904667 0.11533676 0.19699897 0.1418911
-0.25695583 -0.13836825 0.00989968 0.17005192 0.069205254 -2.9394047e-05 -0.05957079 -0.08069553
0.18115659 0.046146575 0.2788119 0.09979941 0.04304369 -0.013299 -0.008079578 0.005457762
0.00032742484 0.069029756 0.2771758 0.10118713 0.00026656478 -0.11945532 0.061019067 -0.048754293
0.0022726478 -0.05385819 0.20043261 -0.14440489 0.051985435 0.2672343 -0.1806721 -0.06961136
0.18314907 0.107156046 0.06958533 -0.21087472 0.030665698 -0.10730174 0.037411157 0.09997679
0.18360277 -0.024666479 0.033879254 0.012712902 -0.205424 0.039605588 0.21544164 -0.23747446
-0.1568397 0.19252488 -0.043907046 -0.124391876 -0.0841954 0.1030826 0.089393474 -0.06596163
0.05658858 0.09466265 0.040524825 0.18030947 -0.0013195752 -0.127017 0.05095451 -0.0791306
0.03746934 -0.09583429 0.19459915 -0.1733513 0.06455353 0.3536373 -0.08872411 -0.16628592
0.13453566 0.23571223 0.15949292 -0.08739022 0.35250282 -0.026061123 0.018358665 0.0050351517
-0.059823647 0.15092023 -0.046367083 0.15995637 0.037213076 -0.062226642 0.25840262 -0.15449123
0.043789297 0.18129733 0.040451102 0.13102917 -0.10123874 0.11981454 0.10081871 0.0050505977
0.024667803 -0.19809903 0.003121646 0.07052594 0.01690508 0.057035845 0.023488656 -0.057253826
-0.07159626 -0.0058177705 0.26050636 0.12677683 0.00015864804 0.06907472 -0.16402605 -0.4131138
-0.018797347 0.104497485 0.025003519 0.08478968 0.10663776 0.08634807 0.09884631 0.04815413
-0.116878316 -0.20696047 -0.030046536 0.021784883 0.15142712 -0.24743322 -0.016487846 0.16264786
-0.11688609 -0.055653747 0.052944593 -0.26012164 -0.008791166 -0.009531101 -0.10826102 -0.037840117
-0.23828357 0.07072086 -0.057190977 0.03618457 0.047939464 0.010276965 0.037388954 -0.07027795
0.30270132 0.025657943 0.08263109 0.22643879 -0.004704544 -0.032065764 -0.13580555 0.4580802
0.019645413 -0.13572508 -0.09526013 0.17945318 -0.111562155 0.10793166 -0.06102148 0.36455095
-0.15595466 -0.13255338 -0.086482845 0.067211285 -0.007598032 -0.077760845 0.012208802 0.1401153
-0.15672292 0.13822259 -0.4044563 -0.047116864 0.014016221 -0.20004234 0.031907365 0.07588363
00000000: 04bc b23a 1363 e7bb b6b2 27be 1781 273e
00000010: 7964 d23d 27fe 09bb a2b1 e73e 535a b3bd
00000020: 2cbb c53d 4651 ca3d b863 09be f8f9 8c3c
00000030: be9a 91bd 9b3f b53c d3cc cb3c 8f16 bd3c
00000040: fe55 883d 46ca 723d 061d ee3d b9b9 033c
00000050: 51b7 aa3d 51b2 dcbd 4a93 a9bd 133f d63d
00000060: 4c6d 7d3d 2286 33be 18eb e63e eb0d 10be
00000070: 2492 8d3d 6aa7 d03c c3d4 8e3e 8ad1 bd3d
00000080: a97b b9bd 1a68 693b b769 fc3d 212c 183e
00000090: 3e51 5ebd adb4 8a3d 1d5f 933e 96fc 313d
000000a0: 6ddd 30bd 51ba 2fbe 3714 273d 8694 af3d
000000b0: dab6 1c3e 7c8d 1cbd e7d0 48be 7c89 14bd
000000c0: 5d61 93bd 9973 5fbd 0a3a cdbc 166e 463e
000000d0: db62 3cbd 5d54 e4bd 4d4b 1cbe d4f1 5e3d
000000e0: 244d 81bd bf7c b4be b22e b53b e359 06be
000000f0: a01d 47bd 1e37 013e b1e0 9dbd ff86 0f3e
00000100: 19b0 b23b f292 b5bd d516 1fbe ee07 963d
00000110: 352b efbd 2148 01be 2ad3 0b3e 8f21 f4be
00000120: d457 4fbd 87bd 48be 46fb bbbc eea9 f43d
00000130: cb0b 43bc ae35 ec3d 19ba 493e e74b 113e
00000140: b78f 83be 68b0 0dbe 4432 223c 1722 2e3e
00000150: 7cbb 8d3d 3c93 f6b7 8000 74bd b343 a5bd
00000160: 1d81 393e 3104 3d3d 6fc0 8e3e a263 cc3d
00000170: 954e 303d 0de4 59bc 3560 04bc 07d7 b23b
00000180: 38aa ab39 795f 8d3d fde9 8d3e 333b cf3d
00000190: b8c1 8b39 fea4 f4bd 21ef 793d 95b2 47bd
000001a0: b4f0 143b 689a 5cbd 353e 4d3e e0de 13be
000001b0: aeee 543d efd2 883e 1b02 39be 6790 8ebd
000001c0: 6e8b 3b3e a174 db3d c182 8e3d 8bef 57be
000001d0: a136 fb3c 04c1 dbbd 713c 193d a2c0 cc3d
000001e0: 5d02 3c3e 5b11 cabc f9c4 0a3d c749 503c
000001f0: ab5a 52be 7839 223d bc9c 5c3e 812c 73be
00000200: 969a 20be 3e25 453e e0d7 33bd 2bc1 febd
00000210: a36e acbd f81c d33d ed13 b73d e416 87bd
00000220: 6dc9 673d 7ede c13d 5cfd 253d 0ca3 383e
00000230: 99f5 acba bf10 02be adb5 503d 390f a2bd
00000240: 7379 193d c544 c4bd 0045 473e 0183 31be
00000250: a434 843d f30f b53e fcb4 b5bd db46 2abe
00000260: b7c3 093e 8c5e 713e 1d52 233e a5f9 b2bd
00000270: 407b b43e 237e d5bc e964 963c eafd a43b
00000280: a409 75bd d58a 1a3e 69eb 3dbd 9acb 233e
00000290: bd6c 183d 5de1 7ebd 594d 843e f332 1ebe
000002a0: 685c 333d 02a6 393e 0eb0 253d 832c 063e
000002b0: 4256 cfbd 5361 f53d 0a7a ce3d 7c7f a53b
000002c0: 2214 ca3c 79da 4abe 8794 4c3b e76f 903d
000002d0: 867c 8a3c 6b9e 693d 486b c03c fd82 6abd
000002e0: 0fa1 92bd ffa2 bebb 1761 853e c9d1 013e
000002f0: c25a 2639 0c77 8d3d 72f6 27be a783 d3be
00000300: e5fc 99bc c702 d63d 2ed4 cc3c 36a6 ad3d
00000310: e664 da3d 42d7 b03d ef6f ca3d 443d 453d
00000320: e65d efbd 72ed 53be 2724 f6bc 3676 b23c
00000330: b60f 1b3e 225f 7dbe 8511 87bc 298d 263e
00000340: f961 efbd 2ff5 63bd 6edc 583d aa2e 85be
00000350: d308 10bc 5628 1cbc f4b7 ddbd 3dfe 1abd
00000360: 9c00 74be 19d6 903d 1641 6abd 4636 143d
00000370: 2c5c 443d b760 283c 2925 193d e3ed 8fbd
00000380: abfb 9a3e 9b30 d23c 7d3a a93d 92df 673e
00000390: 9328 9abb 6457 03bd 9c10 0bbe 7d89 ea3e
000003a0: 6bef a03c 84fb 0abe be17 c3bd 93c2 373e
000003b0: b37a e4bd 460b dd3d a9f1 79bd 6ca6 ba3e
000003c0: 94b2 1fbe 13bc 07be eb1d b1bd 12a6 893d
000003d0: e9f8 f8bb 1441 9fbd 6d07 483c 637a 0f3e
000003e0: f97b 20be 398a 0d3e e514 cfbe 9dfd 40bd
000003f0: 4ba4 653c e6d7 4cbe 4cb1 023d e068 9b3d

pi.net.0.bias f4 [50]
0.50344735 0.029578526 -0.22831734 -0.06497417 0.3546609 0.33659002 0.2661254 -0.16554125
0.18520994 0.28489456 0.1825756 0.109750815 0.2422965 -0.0034141783 0.06255581 0.09866317
0.18217856 0.22061436 -0.0004981546 -0.066708736 -0.3126309 0.24193832 0.38507423 0.31289822
-0.04476663 0.052035242 0.044043597 -0.01307284 -0.033132136 0.1522302 -0.07718395 0.051137287
0.44385222 0.07988274 0.088896506 0.11574541 0.30640733 0.24313849 0.101513006 0.16167463
0.1801295 -0.23222128 0.002312984 0.21391177 -0.074910216 0.41608748 0.2631156 0.15375955
-0.20237866 0.3167664
00000000: ede1 003f aa4e f23c 05cc 69be 2d11 85bd
00000010: 1d96 b53e 8755 ac3e 9741 883e a583 29be
00000020: ada7 3d3e b3dd 913e 19f5 3a3e 09c5 e03d
00000030: 931c 783e 68c0 5fbb 431d 803d eb0f ca3d
00000040: 048d 3a3e bbe8 613e 9796 02ba 979e 88bd
00000050: 2811 a0be aebe 773e 7328 c53e 3234 a03e
00000060: 375d 37bd e822 553d 0f67 343d 772f 56bc
00000070: 90b5 07bd 3ce2 1b3e 9e12 9ebd 5575 513d
00000080: 9940 e33e 9099 a33d 5f0f b63d ee0b ed3d
00000090: 6ce1 9c3e 4cf9 783e 0de6 cf3d 098e 253e
000000a0: de73 383e 6acb 6dbe 6f95 173b b00b 5b3e
000000b0: 876a 99bd 6b09 d53e 17b7 863e 2573 1d3e
000000c0: 5a3c 4fbe 352f a23e

pi.net.2.weight f4 [50, 50]
-0.11819469 0.15631907 -0.035512254 -0.017131623 0.26944232 0.09085789 -0.080473766 -0.11033511
-0.008436019 0.22104983 0.15564455 0.10348563 0.049618993 0.11196954 -0.07116025 -0.15163244
0.044167455 0.023032766 0.15090798 0.008276093 -0.08715502 -0.11412431 0.021329591 0.07843101
0.1002034 0.08982032 0.06650109 0.24631885 0.0046637882 -0.10551782 -0.00056542805 -0.0025957206
0.01916158 -0.08603651 0.05390948 0.2129858 0.16268885 0.2525456 0.22307965 0.23662172
0.11967196 -0.091924615 0.18607254 0.26257446 -0.039438922 0.0032664903 -0.025948629 0.030786902
-0.06757466 0.057318937 -0.025332427 0.3036018 0.1278922 0.012601733 0.024272025 0.057465896
-0.06407105 0.0053154095 -0.17249337 -0.12042158 0.051740423 0.12880327 -0.03914954 0.004004677
-0.2682504 0.1952989 -0.0739056 -0.17916748 -0.04384226 0.030021574 -0.054652993 -0.17373024
0.28388563 0.13481717 -0.049492788 -0.08247984 0.103547275 0.11425374 0.17859684 0.24642539
-0.0501756 0.050204042 -0.12483988 0.019737117 -0.11428596 -0.15089905 0.069189906 -0.04272439
0.16299897 -0.1475091 0.03243124 0.06649743 0.0847714 -0.08298038 -0.053591188 -0.36184323
-0.10693765 -0.14500055 0.10035074 -0.051781256 -0.21280636 0.03480264 -0.2469147 0.046556626
-0.13804708 0.029864052 -0.145869 0.119351596 -0.010764236 0.04375485 0.084092036 0.13453424
0.11549783 -0.22208335 0.30790895 0.070365615 0.1804151 0.19867727 0.07487671 -0.16745597
-0.056256246 -0.13435555 -0.26184008 0.21842809 -0.15098043 0.21275508 0.06396632 -0.16520019
0.17190729 0.08464199 0.1766411 0.07957254 -0.19285747 0.12307955 0.05760807 -0.011159984
-0.059503347 -0.14989904 -0.012088556 -0.074554406 -0.11639125 0.072749175 -0.11023766 -0.116574965
-0.13483332 -0.07387335 0.117777735 -0.065207526 0.023707956 -0.06851181 0.12455528 0.14034234
-0.005911372 -0.061345756 -0.05475475 0.18633689 -0.013889674 -0.28335774 -0.04322391 0.002664584
-0.15566036 -0.037565015 -0.08114488 0.19965793 0.08213172 0.057753723 0.055431437 0.18211374
0.12197605 -0.09943461 -0.28889802 0.34957853 0.07167536 0.06483693 -0.052359626 -0.30148605
-0.06047571 -0.22696191 0.046754606 0.08346838 -0.01873232 -0.077934586 0.051007405 0.05357816
0.02975504 -0.024488633 -0.06391674 -0.16595134 -0.12244917 0.26007313 -0.12739015 -0.009634639
0.025866564 -0.090385586 0.047154877 0.039592974 0.115584366 -0.032386765 -0.32094625 0.14730063
-0.108830385 -0.06956125 0.052696694 0.123314686 -0.13764615 -0.18901038 -0.05128669 -0.13022412
-0.27779767 0.053553797 -0.12492993 -0.009420185 -0.08427165 0.087596975 0.18772006 0.122982256
0.057063077 0.15189527 0.057630595 0.16852677 -0.003792539 -0.22566591 -0.076154046 0.09785878
-0.04809404 0.06332005 0.025995158 -0.04826509 -0.015069597 -0.12959118 0.11626907 0.035526253
0.14163114 0.1812129 0.040856708 -0.16677417 0.094780356 0.21284235 -0.014312119 0.30052632
0.015306718 0.0027863667 0.050345402 0.103236295 0.15085661 0.0742619 -0.12584396 0.10748705
0.1852264 -0.044125237 0.10662886 0.21970911 0.024754751 0.13988727 0.099368215 -0.19586086
00000000: 0f10 f2bd 1b12 203e 4c75 11bd 9e57 8cbc
00000010: 58f4 893e b413 ba3d 6ecf a4bd 60f7 e1bd
00000020: 3a37 0abc e35a 623e 4961 1f3e 46f0 d33d
00000030: 493d 4b3d 4950 e53d 77bc 91bd 8945 1bbe
00000040: efe8 343d 36af bc3c 9f87 1a3e 7398 073c
00000050: 557e b2bd 02ba e9bd 65bb ae3c 70a0 a03d
00000060: 7137 cd3d b7f3 b73d b931 883d 023b 7c3e
00000070: b1d2 983b ba19 d8bd 3c39 14ba f71c 2abb
00000080: bff8 9c3c e933 b0bd 30d0 5c3d f318 5a3e
00000090: e897 263e a84d 813e fe6e 643e f74c 723e
000000a0: 9316 f53d f942 bcbd cd89 3e3e 2970 863e
000000b0: b58a 21bd 9d12 563b 3892 d4bc d034 fc3c
000000c0: 9564 8abd 43c7 6a3d f385 cfbc b271 9b3e
000000d0: 2cf6 023e 8077 4e3c 20d6 c63c 5c61 6b3d
000000e0: af37 83bd e32c ae3b 1aa2 30be 979f f6bd
000000f0: c4ed 533d 01e5 033e 455b 20bd aa39 833b
00000100: 1e58 89be 6ffc 473e d25b 97bd ae77 37be
00000110: f193 33bd ceef f53c d1db 5fbd 57e6 31be
00000120: 7559 913e 830d 0a3e f3b8 4abd 31eb a8bd
00000130: 9810 d43d ddfd e93d 17e2 363e f056 7c3e
00000140: ee84 4dbd c1a2 4d3d 0dac ffbd bcaf a13c
00000150: c20e eabd 4885 1abe 70b3 8d3d c5ff 2ebd
00000160: 34e9 263e a00c 17be 9fd6 043d ce2f 883d
00000170: a19c ad3d 9ef1 a9bd 6f82 5bbd 8443 b9be
00000180: 2002 dbbd 067b 14be b084 cd3d 9518 54bd
00000190: e9e9 59be 378d 0e3d 35d7 7cbe 29b2 3e3d
000001a0: 375c 0dbe 75a5 f43c af5e 15be 9c6e f43d
000001b0: 7a5c 30bc 4938 333d 7238 ac3d 58c3 093e
000001c0: 208a ec3d d169 63be 3ea6 9d3e d91b 903d
000001d0: bcbe 383e 0e72 4b3e f658 993d 9479 2bbe
000001e0: f36c 66bd 8094 09be e70f 86be 9dab 5f3e
000001f0: 9d9a 1abe 78dc 593e c600 833d 3d2a 29be
00000200: 7708 303e c858 ad3d 68e1 343e eef6 a23d
00000210: 6e7c 45be 2211 fc3d 71f6 6b3d 5ed8 36bc
00000220: c8b9 73bd 227f 19be 140f 46bc fbaf 98bd
00000230: 895e eebd 85fd 943d 48c4 e1bd dbbe eebd
00000240: bf11 0abe e94a 97bd 7435 f13d 868b 85bd
00000250: 3037 c23c eb4f 8cbd d716 ff3d e7b5 0f3e
00000260: 2fb4 c1bb b045 7bbd 8446 60bd 19cf 3e3e
00000270: 8491 63bc 4414 91be 8e0b 31bd 4da0 2e3b
00000280: 6e65 1fbe c6dd 19bd 492f a6bd 2173 4c3e
00000290: ad34 a83d 2b8f 6c3d 130c 633d 067c 3a3e
000002a0: 94ce f93d 5fa4 cbbd 71ea 93be f5fb b23e
000002b0: 88ca 923d 39c9 843d 0c77 56bd 615c 9abe
000002c0: 61b5 77bd b468 68be c281 3f3d 78f1 aa3d
000002d0: 8674 99bc 2b9c 9fbd 24ed 503d c674 5b3d
000002e0: d7c0 f33c 639c c8bc c8e6 82bd 26ef 29be
000002f0: a1c6 fabd 4e28 853e 9072 02be 9bda 1dbc
00000300: 1ee6 d33c 141c b9bd 7925 413d 3e2c 223d
00000310: 7fb7 ec3d fca7 04bd 1153 a4be fad5 163e
00000320: 77e2 debd 2176 8ebd 7dd8 573d 698c fc3d
00000330: 1df3 0cbe f08b 41be fe11 52bd 7959 05be
00000340: 7f3b 8ebe 3a5b 5b3d 43db ffbd 1f57 1abc
00000350: 9d96 acbd 0b66 b33d b039 403e 1fde fb3d
00000360: f9ba 693d 6f8a 1b3e 0f0e 6c3d 4892 2c3e
00000370: 3f8c 78bb f714 67be a7f6 9bbd 2f6a c83d
00000380: 42fe 44bd f1ad 813d ccf3 d43c 9db1 45bd
00000390: 79e6 76bc 8db3 04be 7a1e ee3d fa83 113d
000003a0: c107 113e e08f 393e 5d59 273d d9c6 2abe
000003b0: 341c c23d 58f3 593e 617d 6abc 96de 993e
000003c0: 07c9 7a3c 7a9b 363b fb36 4e3d 8d6d d33d
000003d0: 287a 1a3e 9f16 983d 3ddd 00be 2c22 dc3d
000003e0: fdab 3d3e aabc 34bd 3b60 da3d 6dfb 603e
000003f0: 7aca ca3c 9c3e 0f3e 9081 cb3d c08f 48be

pi.net.2.bias f4 [50]
0.24049418 -0.030967759 -0.1524958 -0.07480647 0.04403124 0.08271341 -0.11296051 -0.06897282
0.17150164 0.13972461 0.04660219 -0.101610616 -0.13203721 0.33030343 -0.18831858 0.08690072
-0.09654842 0.19258839 -0.2737594 0.06955286 -0.028871318 -0.05587862 0.052593876 0.035524715
0.07257227 0.28005564 0.19303367 0.13782075 0.034700394 0.053108603 0.06620487 -0.09444146
0.10430453 -0.027678166 0.12269013 0.15830044 -0.09794888 -0.010044561 -0.03842564 -0.08685788
0.010442629 -0.062217727 0.08900957 -0.13457088 -0.057805408 0.002603587 -0.18780203 0.062412456
-0.066182934 -0.19228002
00000000: 1b44 763e 19b0 fdbc dc27 1cbe 2234 99bd
00000010: 1a5a 343d a665 a93d d757 e7bd 9f41 8dbd
00000020: 209e 2f3e f813 0f3e f0e1 3e3d 3a19 d0bd
00000030: c334 07be 881d a93e 96d6 40be 01f9 b13d
00000040: 2ebb c5bd e435 453e 312a 8cbe bb71 8e3d
00000050: 8b83 ecbc fbe0 64bd ad6c 573d 5d82 113d
00000060: c5a0 943d 7463 8f3e 9eaa 453e e220 0d3e
00000070: 0022 0e3d 6888 593d 6b96 873d 866a c1bd
00000080: 9d9d d53d 52bd e2bc f644 fb3d 8319 223e
00000090: 6c99 c8bd f191 24bc 3464 1dbd 8be2 b1bd
000000a0: 9017 2b3c 04d8 7ebd a64a b63d f3cc 09be
000000b0: 5dc5 6cbd f1a0 2a3b 2d4f 40be 34a4 7f3d
000000c0: eb8a 87bd 0ee5 44be

pi.net.4.weight f4 [4, 50]
-0.004428285 -0.0913782 0.17965673 -0.34278104 -0.13418992 -0.0020453315 0.27473238 -0.26467538
-0.50425833 -0.13820735 0.03815603 0.14004456 0.069122225 0.19525298 -0.13210404 -0.34118792
-0.18572447 0.20938034 -0.23330683 0.0853435 0.24482873 -0.26925254 0.34663793 -0.17366855
0.29610378 0.33049065 -0.17307246 0.06704418 -0.17919111 0.009587125 -0.082247555 -0.08971992
-0.25176543 -0.12322864 -0.35473388 -0.36302644 0.2796085 -0.101745315 -0.029496957 0.34960184
-0.21677053 -0.15866126 0.17430863 0.07618279 -0.16260165 -0.092851646 0.183678 0.023619194
0.23292093 -0.5450983 0.10995275 -0.12903596 0.22819184 -0.0791106 -0.15644602 0.16749689
-0.028627094 -0.45507792 0.3236138 -0.2026951 -0.014302939 -0.3496609 -0.15524206 0.119488515
-0.14643726 -0.19202645 0.2315191 0.21507497 -0.32359004 0.31899205 -0.11779741 -0.3732501
-0.27805427 -0.14175187 -0.085467525 0.2866891 0.17876543 0.3774257 -0.1848096 0.25864315
-0.13042645 0.08164196 -0.48707622 0.074609876 0.009043744 0.28187734 0.12107524 0.33996576
-0.07015897 -0.034138206 0.096976265 0.1681192 -0.32753798 0.07647102 0.37657622 -0.22936815
-0.24224141 -0.20434181 -0.15640889 0.18799351 0.23007925 0.28018117 -0.21683785 -0.35833967
0.014939198 0.061123315 -0.28513774 -0.009234903 -0.081286766 -0.12635332 -0.2619321 -0.22319196
0.5181857 0.16304971 -0.24472952 -0.1659254 0.24994652 0.089830056 -0.057646044 0.26854315
-0.16598761 -0.11674691 -0.3551764 0.3319377 -0.009177713 0.07104265 0.48932105 -0.3224861
0.42270795 -0.29497993 -0.33891886 -0.25136897 0.15090916 0.14168067 0.16030012 0.051369388
-0.018751612 0.20903918 -0.027009048 -0.24043664 0.07913764 0.09327519 -0.1569984 0.12461797
-0.04529657 -0.05295365 -0.022690551 0.38612157 -0.33134004 -0.41945267 0.13765697 -0.14631744
0.2687823 0.2927808 -0.041956775 -0.27879024 -0.111100644 -0.0571248 0.24969119 0.093888745
-0.2705752 -0.2667194 0.30232784 0.18997444 0.18927626 0.028586831 -0.27350253 0.00781971
-0.26783726 -0.14222269 -0.17577083 0.17598169 0.15974362 0.15886523 -0.30150917 0.21082969
0.283473 -0.05943233 -0.070482515 -0.35689256 -0.22513928 -0.2505392 0.15451877 -0.0364383
-0.40913787 0.093590915 -0.024896747 -0.15625949 0.3149857 0.2976514 -0.1231799 0.43674988
0.3764457 0.5163428 0.39790002 0.14662853 -0.30532792 -0.1702804 -0.27921557 -0.22184782
00000000: 261b 91bb 7e24 bbbd eff7 373e ff80 afbe
00000010: 1569 09be f80a 06bb b9a9 8c3e 8883 87be
00000020: 1317 01bf 3a86 0dbe 7f49 1c3d d767 0f3e
00000030: f48f 8d3d 66f0 473e 4846 07be 2fb0 aebe
00000040: 8e2e 3ebe cd67 563e fce7 6ebe 93c8 ae3d
00000050: 62b4 7a3e 78db 89be 877a b13e 2bd6 31be
00000060: ea9a 973e 1236 a93e e839 31be 764e 893d
00000070: e07d 37be 5113 1d3c 6871 a8bd 14bf b7bd
00000080: 66e7 80be 4c5f fcbd ae9f b5be 9ade b9be
00000090: d828 8f3e d95f d0bd 9aa3 f1bc 03ff b23e
000000a0: 18f9 5dbe 1978 22be f67d 323e b905 9c3d
000000b0: 0c81 26be 0129 bebd 1616 3c3e 0a7d c13c
000000c0: d382 6e3e 908b 0bbf e82e e13d 0122 04be
000000d0: 1fab 693e bd04 a2bd 6333 20be 4e84 2b3e
000000e0: 5e83 eabc f9ff e8be b5b0 a53e 4e8f 4fbe
000000f0: e056 6abc c106 b3be c6f7 1ebe 65b6 f43d
00000100: a6f3 15be 95a2 44be 5813 6d3e 9d3c 5c3e
00000110: 98ad a5be ed52 a33e c53f f1bd a31a bfbe
00000120: 215d 8ebe 6727 11be 9909 afbd eac8 923e
00000130: 490e 373e f13d c13e ba3e 3dbe e06c 843e
00000140: 838e 05be e633 a73d 0e62 f9be 10cd 983d
00000150: 362c 143c 3a52 903e 4cf6 f73d fe0f ae3e
00000160: 82af 8fbd 81d4 0bbd 7e9b c63d 7127 2c3e
00000170: 0fb3 a7be d79c 9c3d 99ce c03e 7cdf 6abe
00000180: 220e 78be fb3e 51be a729 20be 5f81 403e
00000190: e599 6b3e e873 8f3e be0a 5ebe 4c78 b7be
000001a0: 8ac3 743c 715c 7a3d 93fd 91be fe4d 17bc
000001b0: ad79 a6bd c462 01be f71b 86be 6f8c 64be
000001c0: d1a7 043f 81f6 263e 609a 7abe 59e8 29be
000001d0: fbf1 7f3e d2f8 b73d 421e 6cbd 7d7e 893e
000001e0: a8f8 29be 0119 efbd aed9 b5be bdf3 a93e
000001f0: 1e5e 16bc cf7e 913d 4a88 fa3e e61c a5be
00000200: 2d6d d83e 9c07 97be c686 adbe 6fb3 80be
00000210: ee87 1a3e bd14 113e b725 243e b568 523d
00000220: fb9c 99bc 5e0e 563e 1442 ddbc 0635 76be
00000230: ea12 a23d 1007 bf3d 30c4 20be b537 ff3d
00000240: e588 39bd ede5 58bd 89e1 b9bc bab1 c53e
00000250: 67a5 a9be 80c2 d6be f3f5 0c3e 3dd4 15be
00000260: d59d 893e 5de7 953e deda 2bbd 98bd 8ebe
00000270: bc88 e3bd b2fb 69bd 0caf 7f3e be48 c03d
00000280: d588 8abe 728f 88be b7ca 9a3e a988 423e
00000290: a3d1 413e ee2e ea3c 8608 8cbe 3e1e 003c
000002a0: f721 89be d3a2 11be 45fd 33be 8b34 343e
000002b0: d593 233e 91ad 223e 695f 9abe bde3 573e
000002c0: 6023 913e 516f 73bd 2359 90bd 9fba b6be
000002d0: e98a 66be ad46 80be 2b3a 1e3e 5440 15bd
000002e0: 857a d1be 98ac bf3d 43f4 cbbc 7d02 20be
000002f0: ce45 a13e c465 983e be45 fcbd ae9d df3e
00000300: 7ebd c03e 0b2f 043f 8db9 cb3e ca25 163e
00000310: f153 9cbe fc5d 2ebe 58f5 8ebe 132c 63be

pi.net.4.bias f4 [4]
0.1832491 -0.057120938 0.051020153 0.16843991
00000000: a7a5 3b3e a5f7 69bd 82fa 503d 837b 2c3e

v.net.0.weight f4 [64, 40]
0.6133141 -0.85511476 0.17201193 0.16869429 0.118193716 0.0040777368 -0.029348062 -0.06425761
-0.7996543 -0.017717503 0.15259579 0.054785874 0.033794895 -0.008658774 0.08740235 -0.18863703
-0.047130134 -0.004165257 0.033861876 0.034298833 0.8320148 -0.7445273 0.1847472 0.3524694
0.019429095 0.10325457 0.0029970838 0.1935324 -0.8766718 0.18121529 0.18853301 -0.12397556
0.05460535 -0.077616595 0.14071521 -0.2682326 -0.022973727 0.04410398 0.033169385 0.05371389
-0.9852285 -0.09771293 0.094693586 -0.11901432 0.14187175 0.09175447 0.104887925 0.18565997
0.7017542 -0.27168995 0.0006504609 -0.039996453 -0.023512607 -0.1407343 -0.13528383 0.047851425
0.002883455 -0.12601401 -0.049009986 -0.018021103 -1.1768268 0.16704519 -0.02526667 -0.17647469
-0.025163498 -0.08835358 -0.24371484 0.19739462 0.48215055 -0.27283093 -0.014069676 0.04485435
-0.04955405 -0.22089565 -0.15092364 0.2033087 0.0101719 -0.12764017 -0.046888202 -0.032755777
0.27179563 0.20358482 -0.033553362 0.09566414 -0.13840342 -0.07117323 -0.12333399 -0.074029915
0.082850955 0.0018418584 0.0083427625 -0.0015410346 -0.052710123 0.09348229 0.10895946 -0.24894238
-0.006534241 0.0071870782 0.012311599 -0.0062136436 0.23931518 0.17915447 0.12193993 0.13341035
-0.32649502 -0.028724138 0.3840622 -0.13457358 -0.12131975 0.0074814763 -0.065172754 0.055709057
-0.027408516 0.047930803 -0.044363942 -0.17350483 -0.008108337 -0.004873683 0.014042013 -0.017876837
0.96398604 0.2251655 0.04988134 -0.027654601 0.1119049 0.07454378 -0.0866629 0.60813665
-0.010413758 -0.14667132 -0.12809348 0.15182275 0.12118225 -0.106323436 0.008148787 0.251856
-0.02110808 0.04236159 -0.0063667772 -0.056120068 1.0344334 0.24281156 0.08364126 0.034829155
0.108723536 0.27298844 0.015727576 0.5735014 -0.09344597 -0.11569146 0.12069727 0.19931483
0.20637825 0.052568145 0.022644088 0.055533428 -0.009352498 0.005995621 0.009061473 -0.037596565
-0.49295336 -0.4277734 -0.20352267 -0.0145250205 0.060614582 0.033281516 -0.15850152 0.0039908644
0.061087113 -0.10780007 0.013525462 -0.07123023 -0.062575385 -0.010673009 -0.11438769 0.17539132
-0.006484901 -0.022137988 -0.07541813 -0.01010703 -0.54899603 -0.45940313 -0.15277289 -0.03094589
-0.0071096765 -0.08091926 -0.36803487 0.01902278 0.1791648 -0.15971257 -0.10972874 -0.057845302
-0.10233043 -0.16552953 -0.05285814 0.19455375 -0.0069679907 -0.016066 -0.05828495 -0.04342983
-0.6938606 0.43959638 -0.11348262 -0.12069155 -0.024897764 0.15910454 -0.23743837 0.047931813
0.17771465 -0.020599226 0.0029696939 0.04383238 -0.09686809 -0.06665382 0.30148953 0.41238388
0.03239923 0.032504544 -0.0082139755 -0.04112091 -0.7600235 0.40815383 -0.11283414 -0.086692564
0.10518352 0.019451052 -0.37345582 -0.057978462 -0.020841492 -0.34880883 -0.24696632 0.041619707
-0.06813747 -0.100001745 0.17990811 0.41082284 0.012957127 0.0041015507 -0.015441614 -0.060882386
0.8406615 0.3154812 0.09016308 0.26893955 -0.1438382 0.12426533 0.02242436 0.014201202
-0.33565447 0.38813356 -0.049182184 -0.098536745 0.083856516 0.26719317 0.35424176 0.0375477
00000000: 2702 1d3f cde8 5abf e523 303e 32be 2c3e
00000010: 8c0f f23d 899e 853b 596b f0bc 7e99 83bd
00000020: 25b6 4cbf 4c24 91bc 1242 1c3e 2767 603d
00000030: 846c 0a3d 88dd 0dbc 0100 b33d 112a 41be
00000040: 870b 41bd b57c 88bb c0b2 0a3d ef7c 0c3d
00000050: ecfe 543f 5799 3ebf 5f2e 3d3e df76 b43e
00000060: c429 9f3c 2277 d33d b96a 443b 5c2d 463e
00000070: 906d 60bf 8090 393e cc0e 413e e6e6 fdbd
00000080: dca9 5f3d 73f5 9ebd a617 103e c955 89be
00000090: 6633 bcbc 60a6 343d 9fdc 073d 1903 5c3d
000000a0: ef37 7cbf b71d c8bd b6ee c13d c8bd f3bd
000000b0: d446 113e c4e9 bb3d 7bcf d63d a61d 3e3e
000000c0: 2aa6 333f f21a 8bbe b183 2a3a 52d3 23bd
000000d0: 839d c0bc a71c 10be d887 0abe dbff 433d
000000e0: 59f8 3c3b d109 01be b2be 48bd fea0 93bc
000000f0: 43a2 96bf e50d 2b3e 0cfc cebc c8b5 34be
00000100: ae23 cebc b9f2 b4bd 6290 79be d121 4a3e
00000110: 70dc f63e 7fb0 8bbe 8084 66bc 32b9 373d
00000120: 30f9 4abd 7832 62be ba8b 1abe 2830 503e
00000130: 0aa8 263c 1bb4 02be d80d 40bd ec2a 06bd
00000140: cc28 8b3e 8a78 503e 406f 09bd 90eb c33d
00000150: a0b9 0dbe 45c3 91bd 8896 fcbd ff9c 97bd
00000160: c3ad a93d 836a f13a 15b0 083c 8afc c9ba
00000170: 92e6 57bd a573 bf3d 2326 df3d c0ea 7ebe
00000180: 301d d6bb 9581 eb3b 97b6 493c d29b cbbb
00000190: 0a0f 753e 4574 373e a4bb f93d b99c 083e
000001a0: 5b2a a7be e24e ebbc cda3 c43e a8cd 09be
000001b0: 7d76 f8bd 2c27 f53b 4b79 85bd 2e2f 643d
000001c0: d387 e0bc 1753 443d f7b6 35bd 40ab 31be
000001d0: d5d8 04bc 6bb3 9fbb 7910 663c 7272 92bc
000001e0: cac7 763f c991 663e 6050 4c3d e78b e2bc
000001f0: 652e e53d 69aa 983d 527c b1bd d8ae 1b3f
00000200: 789e 2abc 0231 16be f02a 03be 6c77 1b3e
00000210: 662e f83d 1ac0 d9bd 7d82 053c 45f3 803e
00000220: daea acbc 5983 2d3d 66a0 d0bb 28de 65bd
00000230: 5068 843f 98a3 783e 1c4c ab3d 04a9 0e3d
00000240: 72aa de3d 24c5 8b3e 1ed7 803c fdd0 123f
00000250: 9a60 bfbd a5ef ecbd 2130 f73d 3019 4c3e
00000260: d254 533e b251 573d 1880 b93c 0577 633d
00000270: 383b 19bc ea76 c43b 9376 143c dbfe 19bd
00000280: 6264 fcbe 1d05 dbbe 3f68 50be 5afa 6dbc
00000290: ff46 783d 3352 083d 394e 22be ccc5 823b
000002a0: 7b36 7a3d 48c6 dcbd e699 5d3c 28e1 91bd
000002b0: 8627 80bd d8dd 2ebc 1844 eabd c899 333e
000002c0: 4b7f d4bb ba5a b5bc d274 9abd f597 25bc
000002d0: 018b 0cbf e336 ebbe 7f70 1cbe 3c82 fdbc
000002e0: 4af8 e8bb ffb8 a5bd 116f bcbe a9d5 9b3c
000002f0: fa76 373e b18b 23be 76b9 e0bd 32ef 6cbd
00000300: 9e92 d1bd 9380 29be c781 58bd 1939 473e
00000310: be53 e4bb d89c 83bc 33bc 6ebd 7ae3 31bd
00000320: d9a0 31bf c712 e13e 9369 e8bd 222d f7bd
00000330: 65f6 cbbc 4dec 223e 0b23 73be 2654 443d
00000340: d4fa 353e b5bf a8bc 329f 423b 9589 333d
00000350: c762 c6bd cc81 88bd d65c 9a3e fb23 d33e
00000360: 0eb5 043d 7c23 053d e993 06bc 666e 28bd
00000370: e690 42bf 8af9 d03e 9615 e7bd df8b b1bd
00000380: 756a d73d d057 9f3c 9a35 bfbe d37a 6dbd
00000390: c7bb aabc 1297 b2be bde4 7cbe 6d79 2a3d
000003a0: a88b 8bbd b7cd ccbd d539 383e 5f57 d23e
000003b0: 214a 543c 4d66 863b d3fe 7cbc cf5f 79bd
000003c0: 9835 573f c086 a13e 6ca7 b83d 72b2 893e
000003d0: 524a 13be d27e fe3d 4bb3 b73c 29ac 683c
000003e0: e7da abbe 71b9 c63e 4273 49bd a2cd c9bd
000003f0: f7bc ab3d 8bcd 883e 2d5f b53e 9ecb 193d

v.net.0.bias f4 [64]
-0.42079884 0.034368247 -0.4107435 0.51617956 0.23122661 -0.518018 0.1886808 0.7365229
-0.009024882 -0.58821094 -0.42281598 0.35403377 -0.41534975 1.5451043 0.74181116 1.0070262
-0.37815952 0.35800168 0.22492544 -0.5691121 0.087239705 1.3825227 -0.2944048 1.1932307
0.5958982 1.278596 0.08007514 -0.10940912 0.20137307 0.8345031 -0.29865766 0.37046906
-0.33167183 0.60808617 -0.184157 0.05248008 -0.628198 0.0049266783 -0.26072338 0.5952654
0.122031465 0.08771617 0.016608132 -0.46691525 0.084891155 0.43574297 1.2045264 -0.21107428
-1.7351661 0.32641104 0.08839189 -0.40683934 0.20449388 -0.96300036 -0.014479188 -0.40282342
0.78474545 -0.25442252 -0.57269627 -0.5238559 -0.056722302 -0.28460595 -0.45826277 -0.2314244
00000000: f272 d7be b8c5 0c3d f94c d2be 5824 043f
00000010: abc6 6c3e d49c 04bf 8a35 413e c48c 3c3f
00000020: 19dd 13bc fe94 16bf 567b d8be ea43 b53e
00000030: b9a8 d4be fac5 c53f 56e7 3d3f 3ce6 803f
00000040: 209e c1be ff4b b73e db52 663e 55b1 11bf
00000050: bbaa b23d 81f6 b03f 3abc 96be c9bb 983f
00000060: c98c 183f 09a9 a33f 6ffe a33d e411 e0bd
00000070: be34 4e3e ffa1 553f a8e9 98be 1fae bd3e
00000080: e4d0 a9be 89ab 1b3f a793 3cbe 5af5 563d
00000090: 96d1 20bf f96f a13b 897d 85be 5063 183f
000000a0: a2eb f93d 89a4 b33d c70d 883c 840f efbe
000000b0: 6adb ad3d b419 df3e ec2d 9a3f db23 58be
000000c0: ec19 debf 591f a73e cf06 b53d 3f4d d0be
000000d0: d866 513e 3187 76bf 1e3a 6dbc df3e cebe
000000e0: 14e5 483f ab43 82be 399c 12bf 6c1b 06bf
000000f0: a555 68bd dfb7 91be 6ba1 eabe 85fa 6cbe

v.net.2.weight f4 [64, 64]
-0.23720872 0.30068737 0.014951 -0.27945673 0.1942791 0.07139624 -0.22789554 0.007659836
-0.5264303 -0.016982352 -0.12590136 -0.075185835 -0.2040729 -0.18421973 0.007150412 -0.08065442
0.088128254 -0.043888133 -0.18261911 -0.2123349 0.11849292 -0.24000144 0.14125758 -0.120118044
0.034093082 -0.16683678 0.22004661 -0.050042737 -0.15870178 -0.05896315 0.06214734 0.030747907
0.16324364 -0.048100907 -0.010780702 0.034735013 -0.030121543 0.037090465 0.13373023 0.026115716
-0.1837929 -0.18549424 0.13692515 -0.014077146 -0.049769793 0.1719696 -0.07350457 0.15688168
0.06809359 -0.2842794 0.08369287 -0.13295703 -0.29234096 -0.03275805 -0.14291331 0.09248937
0.10794288 0.02582562 0.05999583 0.077637576 0.016966483 -0.13391949 0.068432435 -0.10621647
0.13495639 0.08714873 -0.22698991 -0.102656074 -0.0051946845 -0.06719757 0.07084846 0.052194897
-0.033496615 -0.22451743 -0.14256494 0.0567325 0.0533725 0.11755014 0.036273535 -0.23082711
-0.15241022 -0.17467564 -0.029606288 -0.10919477 0.0391927 0.02985254 0.1359289 -0.021342617
0.119279556 0.19255675 -0.085889824 0.08138144 0.039700877 0.22183031 -0.041939434 -0.18843566
-0.06364337 0.053802848 -0.06912695 0.18607917 -0.18369694 -0.06965978 0.0022676813 0.019454896
-0.08257229 -0.046645224 0.04214005 0.025520543 0.051031336 -0.07661689 0.34799337 0.07708969
-0.11554674 -0.15667225 -0.0017383759 -0.15356432 -0.00096683163 -0.04072057 0.08562752 -0.0836474
0.03830464 0.025197173 -0.12104758 -0.0616923 -0.07035749 0.063876204 0.13926494 -0.13130641
0.31969854 -0.2826066 0.013360721 0.3146069 -0.23078267 -0.07729858 0.1760685 -0.0886496
0.39721084 -0.06811731 0.07084781 0.13397121 0.18115367 0.15524785 -0.06958854 0.022389783
-0.073494785 0.07219312 0.080802694 0.2133845 -0.1270263 0.1874951 -0.16787395 0.08558079
-0.06908833 0.19770317 -0.12770927 -0.034448847 0.10350972 -0.01271348 -0.041889627 -0.02929863
0.005787669 0.030647121 -0.1737318 -0.083174214 0.061920814 0.055250827 -0.120645076 -0.14312352
0.10465798 0.13780653 -0.22501497 -0.006951805 0.082028046 0.006453207 0.024891717 -0.071709886
-0.10398273 0.32801247 -0.21120696 0.114824794 0.29107574 -0.033441585 0.18878163 0.0071756095
-0.13141009 0.038796823 -0.010662965 -0.08295303 0.09264478 0.124929585 0.0057680937 -0.046881497
0.52017856 -0.26469317 -0.14954111 0.33742937 0.015137142 -0.046489414 0.0810514 0.003006146
0.0897814 0.053538874 -0.018662924 -0.0013531685 0.050212327 -0.19828403 0.0046464666 0.059317775
0.022939337 -0.09245049 -0.014887461 0.10724544 -0.061124202 0.0073065907 -0.123227745 -0.015202354
-0.08412377 -0.158371 -0.19389011 -0.00030438055 0.094268866 0.05821503 0.023279313 0.18054478
-0.14199309 0.009966719 0.030524235 0.101061925 -0.03881809 -0.10292977 -0.10803543 -0.15785739
0.13681512 0.116115674 -0.19885018 -0.13388121 0.1815818 -0.07811035 -0.124302424 -0.1556031
-0.015103428 0.34682274 -0.13254224 0.14528255 0.1633277 0.0533937 0.23039581 -0.026272126
-0.1588184 -0.048176214 -0.09916053 -0.15754537 -0.08220115 0.32675976 -0.079332314 0.02283163
00000000: d8e6 72be b2f3 993e 0af5 743c f414 8fbe
00000010: 1af1 463e 3138 923d 735d 69be 5dff fa3b
00000020: 23c4 06bf 931e 8bbc 49ec 00be 08fb 99bd
00000030: 7cf8 50be 19a4 3cbe 014e ea3b 252e a5bd
00000040: 967c b43d 0bc4 33bd 8100 3bbe 526e 59be
00000050: 6bac f23d f0c2 75be d4a5 103e 7300 f6bd
00000060: 30a5 0b3d 43d7 2abe e653 613e 9df9 4cbd
00000070: b882 22be 5883 71bd 368e 7e3d 09e3 fb3c
00000080: 5729 273e 7505 45bd 8ba1 30bc 4d46 0e3d
00000090: 74c1 f6bc 2cec 173d 94f0 083e a0f0 d53c
000000a0: 3534 3cbe 34f2 3dbe 1b36 0c3e d4a3 66bc
000000b0: 69db 4bbd cc18 303e 9089 96bd 97a5 203e
000000c0: a774 8b3d 128d 91be 2b67 ab3d e325 08be
000000d0: b7ad 95be 4e2d 06bd de57 12be 116b bd3d
000000e0: 2811 dd3d 4090 d33c 30be 753d 7300 9f3d
000000f0: 4bfd 8a3c 3122 09be 4e26 8c3d 0588 d9bd
00000100: 0232 0a3e 097b b23d 0b70 68be 593d d2bd
00000110: 2c38 aabb e19e 89bd ff18 913d 51ca 553d
00000120: bf33 09bd e6e7 65be 8bfc 11be 5760 683d
00000130: 1f9d 5a3d 21be f03d 8f93 143d f15d 6cbe
00000140: 6d11 1cbe 2cde 32be e388 f2bc 82a1 dfbd
00000150: 8688 203d 508d f43c f230 0b3e b6d6 aebc
00000160: d748 f43d 992d 453e 01e7 afbd 50ab a63d
00000170: 639d 223d 7c27 633e afc8 2bbd 47f5 40be
00000180: 7557 82bd 6060 5c3d 6e92 8dbd 8a8b 3e3e
00000190: 0d1b 3cbe c9a9 8ebd 619d 143b e05f 9f3c
000001a0: a91b a9bd 100f 3fbd 0c9b 2c3d 7510 d13c
000001b0: 3c06 513d 51e9 9cbd 302c b23e 33e1 9d3d
000001c0: c5a3 ecbd b16e 20be 37da e3ba f73f 1dbe
000001d0: f972 7dba 9dca 26bd 7b5d af3d 544f abbd
000001e0: 54e5 1c3d 4d6a ce3c cbe7 f7bd 11b1 7cbd
000001f0: 9617 90bd 87d1 823d 789b 0e3e 3075 06be
00000200: 87af a33e d0b1 90be ede6 5a3c 2814 a13e
00000210: 4b52 6cbe b84e 9ebd 4d4b 343e ec8d b5bd
00000220: 385f cb3e 1781 8bbd a818 913d c02f 093e
00000230: 5980 393e 4bf9 1e3e 7084 8ebd c76a b73c
00000240: 6f84 96bd fdd9 933d e27b a53d 7781 5a3e
00000250: 2f13 02be b7fe 3f3e 26e7 2bbe fb44 af3d
00000260: 2f7e 8dbd b372 4a3e 38c6 02be 3c1a 0dbd
00000270: e7fc d33d 334c 50bc 7594 2bbd ae03 f0bc
00000280: 7da6 bd3b ac0f fb3c c0e6 31be 3e57 aabd
00000290: aea0 7d3d b14e 623d c414 f7bd f98e 12be
000002a0: ec56 d63d 281d 0d3e 536a 66be f8cb e3bb
000002b0: 52fe a73d 6d75 d33b b7e9 cb3c a2dc 92bd
000002c0: e6f4 d4bd 40f1 a73e a346 58be 4329 eb3d
000002d0: e107 953e 0bfa 08bd f94f 413e 6021 eb3b
000002e0: 5e90 06be 6be9 1e3d b7b3 2ebc 47e3 a9bd
000002f0: 8cbc bd3d 15db ff3d 4702 bd3b d006 40bd
00000300: 6c2a 053f dd85 87be 4e21 19be 8bc3 ac3e
00000310: c601 783c af6b 3ebd 47fe a53d c302 453b
00000320: 50df b73d 944b 5b3d fde2 98bc cd5c b1ba
00000330: 71ab 4d3d f80a 4bbe 6341 983b 32f7 723d
00000340: 47eb bb3c af56 bdbd 8aea 73bc 7fa3 db3d
00000350: 5f5d 7abd 206c ef3b d45e fcbd 4b13 79bc
00000360: 1549 acbd 022c 22be 218b 46be 4495 9fb9
00000370: 0910 c13d e272 6e3d 42b4 be3c bbe0 383e
00000380: a366 11be 734b 233c f60d fa3c 8ef9 ce3d
00000390: b8ff 1ebd d8cc d2bd ae41 ddbd 5ea5 21be
000003a0: 4319 0c3e 0ece ed3d 629f 4bbe 2818 09be
000003b0: 94f0 393e 52f8 9fbd 4592 febd 6b56 1fbe
000003c0: 5e74 77bc c092 b13e 27b9 07be f3c4 143e
000003d0: 603f 273e 5ab3 5a3d e1ec 6b3e a438 d7bc
000003e0: 4aa1 22be 6c54 45bd ad14 cbbd 9353 21be
000003f0: 1459 a8bd 0e4d a73e fb78 a2bd 6609 bb3c

v.net.2.bias f4 [64]
0.36762393 -0.10928159 -0.42849556 0.42628717 0.3266534 -0.4187498 0.36897802 -0.40447056
0.3434879 -0.5136173 0.2536238 0.29209986 0.1577595 0.26602772 0.5394897 -0.4440596
0.09728628 0.3372514 0.4374317 0.33385673 0.48719746 -0.02858727 0.3172621 0.23994192
0.46978948 -0.5336777 -0.32494295 0.3235133 0.2701046 0.2024654 -0.25090793 -0.47917095
-0.25424704 -0.23570749 -0.27973357 0.76627654 -0.22015676 -0.43500137 0.5603034 0.5188166
0.20639658 0.45448905 0.3523666 0.066986665 0.35637218 0.4834205 -0.5349598 -0.18652433
-0.30357775 -0.41495702 0.37614575 0.5159887 0.1750147 0.16537496 0.41322818 0.5517618
0.39466846 0.34523025 -0.42775378 0.3871994 -0.335402 0.5256512 0.37875143 -0.30600873
00000000: 3439 bc3e 07cf dfbd c563 dbbe 5042 da3e
00000010: 1d3f a73e 6066 d6be b0ea bc3e c416 cfbe
00000020: a5dd af3e 6c7c 03bf fbda 813e 1d8e 953e
00000030: b58b 213e c934 883e ff1b 0a3f c85b e3be
00000040: 073e c73d 37ac ac3e 0cf7 df3e 45ef aa3e
00000050: f271 f93e da2f eabc 2e70 a23e 56b3 753e
00000060: 3f88 f03e 1a9f 08bf ec5e a6be 89a3 a53e
00000070: 264b 8a3e 1753 4f3e 0177 80be e555 f5be
00000080: ab2c 82be 4e5d 71be 3d39 8fbe b32a 443f
00000090: c670 61be 80b8 debe 0b70 0f3f 2ad1 043f
000000a0: a059 533e cab2 e83e 6569 b43e 4e30 893d
000000b0: 6a76 b63e e482 f73e 20f3 08bf 3c00 3fbe
000000c0: 8b6e 9bbe 3f75 d4be 2d96 c03e d617 043f
000000d0: 0e37 333e 0e58 293e a592 d33e 4340 0d3f
000000e0: fc11 ca3e 05c2 b03e 8b02 dbbe 003f c63e
000000f0: d0b9 abbe 1491 063f b5eb c13e 2dad 9cbe

v.net.4.weight f4 [1, 64]
-0.07702838 0.079756 0.10029968 -0.060268935 -0.101828955 0.10651788 -0.06498041 0.10401783
-0.054405995 0.093931474 -0.019348638 -0.096420884 0.3046978 -0.09431081 -0.061057374 0.12360969
-0.02922094 -0.062525965 -0.11832919 -0.13139492 -0.06785701 -0.08496257 -0.09622393 -0.08014995
-0.07202081 0.05363588 0.06090032 -0.060226504 -0.05155079 -0.11407233 0.08810294 0.10447151
0.06849077 0.14275527 0.029742297 -0.2508979 0.06077335 0.08171684 -0.06929812 -0.057982314
-0.08024635 -0.08753222 -0.13263169 0.24088512 -0.06492691 -0.04068639 0.03800185 0.03397637
0.09205736 0.10015806 -0.114109136 -0.06891081 -0.057912298 -0.038975563 -0.12511584 -0.09755025
-0.113805585 -0.08602221 0.026811365 -0.10586259 0.059303094 -0.12258541 -0.023993082 0.0868993
00000000: 0ec1 9dbd 1d57 a33d eb69 cd3d 8fdc 76bd
00000010: b38b d0bd 0c26 da3d 7314 85bd 4d07 d53d
00000020: d2d8 5ebd 255f c03d 0981 9ebc 5078 c5bd
00000030: 5a01 9c3e 0726 c1bd 4c17 7abd 1427 fd3d
00000040: c160 efbc 9d0d 80bd 9356 f2bd 648c 06be
00000050: 9ef8 8abd db00 aebd 0d11 c5bd a825 a4bd
00000060: a57f 93bd 4cb1 5b3d 9d72 793d 11b0 76bd
00000070: ec26 53bd c19e e9bd 506f b43d 29f5 d53d
00000080: e444 8c3d 702e 123e 1ea6 f33c b175 80be
00000090: 7aed 783d 295b a73d 2cec 8dbd dd7e 6dbd
000000a0: 3358 a4bd 1844 b3bd 9ad0 07be 97aa 763e
000000b0: 66f8 84bd c6a6 26bd d4a7 1b3d ce2a 0b3d
000000c0: 9288 bc3d ab1f cd3d 0db2 e9bd 1c21 8dbd
000000d0: 7235 6dbd d7a4 1fbd 5e1e 00be 6dc8 c7bd
000000e0: e712 e9bd 6a2c b0bd 82a3 db3c 7cce d8bd
000000f0: cde7 723d 0f0e fbbd 248d c4bc 43f8 b13d

c.net.0.weight f4 [64, 40]
0.06265572 -0.023058224 0.020095218 -0.058916543 -0.13647209 0.15227425 0.13820173 -0.08051213
0.06359308 0.109005705 0.1328059 -0.10743649 0.050270747 0.0727195 0.0708081 -0.13229325
0.07854635 0.1446459 -0.13579257 0.084214196 0.06054778 0.107831486 0.057942446 -0.15654023
-0.08483795 -0.063450865 -0.1444982 0.1308821 -0.03496263 0.11774216 -0.14708783 0.11159256
0.100993276 0.024742125 0.077443086 -0.06306048 0.11716854 -0.0053205574 0.10498704 -0.117392614
0.008261097 -0.08829715 0.052222975 -0.14070916 -0.079614654 -0.07552582 -0.050454974 0.15091988
0.0518654 -0.13775101 0.008988597 0.12890548 0.070825435 0.031863235 0.056020204 0.07887452
-0.051153164 0.09303476 0.0301033 -0.14324248 0.11157232 0.016338533 -0.013481323 -0.008215841
-0.11144163 -0.075995736 -0.012827313 -0.07046445 0.032599013 -0.08186556 -0.059666738 -0.05938103
0.09121531 -0.07451516 0.10401712 0.08186196 0.07967203 -0.03391591 0.09135078 -0.061118178
-0.10840143 0.09993745 0.044378716 0.110146664 -0.12538898 -0.102809265 -0.013719136 -0.13234156
0.15280302 -0.055278942 0.104342245 0.118305266 0.029398136 0.15008757 -0.09420963 0.06749156
-0.047493078 -0.108034715 -0.1410823 0.08185402 0.008873621 0.13756113 0.11975013 0.10557715
-0.10046932 0.13007858 -0.08316248 0.14501835 -0.0014160986 -0.11328943 -0.15139876 -0.09310749
-0.08649904 -0.03631898 0.09362382 -0.10206763 -0.09249231 -0.10197874 -0.12072036 -0.011789035
0.14421014 0.092441626 0.016660485 0.12166083 -0.035196014 0.020799195 0.055068366 0.12722999
-0.15786514 0.09048073 -0.03422175 -0.051030893 0.11585481 0.115493044 0.10394388 -0.1281933
0.052893326 -0.14285724 -0.048543945 0.11168127 0.018564537 0.1358628 -0.14137955 -0.0011172156
-0.14781994 0.10689309 -0.0345791 -0.09671386 0.05979589 -0.05061722 -0.025670402 0.050982997
0.0071406765 -0.1387711 0.048212625 0.081986226 0.01635821 -0.05874866 -0.0008033669 -0.08792257
-0.07625407 -0.0774765 -0.09758827 -0.060483355 0.02440513 -0.113088824 0.057122283 -0.053174887
-0.11383305 -0.038269024 -0.0040703267 0.020550543 -0.02273497 0.13393292 -0.023112018 0.123762056
0.036513347 0.068210036 0.10033761 0.015392368 0.15225437 -0.03865408 0.11361872 0.009706957
0.11776224 -0.13652484 -0.14973061 0.031536855 -0.064498454 -0.08241933 -0.06689195 0.088459305
-0.12614882 0.079785645 0.102937944 -0.12790503 -0.02001415 0.122564115 0.033847526 -0.10604631
-0.03814694 -0.031374395 -0.07088504 -0.05770678 0.006913494 -0.13824306 0.07033409 0.057764836
-0.06467 0.12132633 0.047344927 0.10046538 -0.00013718042 -0.12988664 0.025452398 -0.012316118
0.029255526 0.110644236 -0.047732495 0.045865837 -0.11632753 0.098746896 0.15327819 0.02288655
0.14485373 -0.11342392 0.00709953 -0.057111032 -0.08015595 -0.122162074 -0.13876948 -0.10179566
0.0226474 -0.062766455 0.10548225 -0.07958608 0.12261729 -0.10627178 -0.032018755 -0.045967244
0.07878488 0.13574283 -0.14346536 0.11102392 0.06659278 0.014582706 -0.14795257 -0.12782556
-0.023488125 -0.14656097 0.12892212 0.13215521 -0.01957869 -0.07800604 -0.04998628 0.10935376
00000000: a451 803d 9ae4 bcbc ba9e a43c 7952 71bd
00000010: 57bf 0bbe c8ed 1b3e c184 0d3e 8be3 a4bd
00000020: 173d 823d 623e df3d 45fe 073e aa07 dcbd
00000030: b3e8 4d3d f6ed 943d d603 913d e277 07be
00000040: e9dc a03d 0e1e 143e 350d 0bbe 7e78 ac3d
00000050: f300 783d c1d6 dc3d 0f55 6d3d 154c 20be
00000060: 85bf adbd 87f2 81bd 56f7 13be f505 063e
00000070: fa34 0fbd cd22 f13d 319e 16be a48a e43d
00000080: 90d5 ce3d ffaf ca3c 7b9a 9e3d da25 81bd
00000090: 0ff6 ef3d 1258 aebb 7203 d73d 8a6b f0bd
000000a0: 8d59 073c 23d5 b4bd c2e7 553d 1016 10be
000000b0: 020d a3bd 48ad 9abd e0a9 4ebd be8a 1a3e
000000c0: d070 543d 9a0e 0dbe e944 133c ccff 033e
000000d0: ed0c 913d 0683 023d 7175 653d f788 a13d
000000e0: fb85 51bd 0289 be3d 329b f63c 28ae 12be
000000f0: 0780 e43d 63d8 853c c4e0 5cbc bc9b 06bc
00000100: 823b e4bd a7a3 9bbd a629 52bc aa4f 90bd
00000110: 8b86 053d 21a9 a7bd 1c65 74bd 8639 73bd
00000120: 18cf ba3d 679b 98bd ee06 d53d 3ea7 a73d
00000130: 172b a33d 69eb 0abd 1e16 bb3d 0e57 7abd
00000140: 9201 debd 01ac cc3d 75c6 353d 9394 e13d
00000150: f865 00be aa8d d2bd 3ac6 60bc 8c84 07be
00000160: 6578 1c3e 2c6c 62bd 63b1 d53d 084a f23d
00000170: 5cd4 f03c 8eb0 193e faf0 c0bd 0439 8a3d
00000180: 1a88 42bd 4e41 ddbd e177 10be 15a3 a73d
00000190: aa62 113c d3dc 0c3e 8e3f f53d d538 d83d
000001a0: dcc2 cdbd 5233 053e 1751 aabd b17f 143e
000001b0: 629c b9ba 4a04 e8bd 4708 1bbe 24af bebd
000001c0: 6926 b1bd 36c3 14bd d8bd bf3d d508 d1bd
000001d0: 9c6c bdbd 3bda d0bd 3c3c f7bd cc26 41bc
000001e0: d3ab 133e 0952 bd3d 927b 883c 5029 f93d
000001f0: b229 10bd 1363 aa3c 5e8f 613d 9448 023e
00000200: 66a7 21be f64d b93d 1b2c 0cbd c505 51bd
00000210: 4945 ed3d 9e87 ec3d 87e0 d43d 1b45 03be
00000220: aca6 583d 2b49 12be 04d6 46bd 26b9 e43d
00000230: a814 983c 9e1f 0b3e cdc5 10be 896f 92ba
00000240: 1c5e 17be c4ea da3d d0a2 0dbd eb11 c6bd
00000250: 89ec 743d 0154 4fbd bc4a d2bc 8cd3 503d
00000260: 56fc e93b 031a 0ebe 9a7a 453d 65e8 a73d
00000270: a701 863c 6fa2 70bd 0a99 52ba c010 b4bd
00000280: 182b 9cbd 00ac 9ebd 5cdc c7bd 65bd 77bd
00000290: 44ed c73c 1d9b e7bd 0ef9 693d e9cd 59bd
000002a0: 4d21 e9bd fbbf 1cbd 6060 85bb 9d59 a83c
000002b0: b03e babc b625 093e 6a55 bdbc f676 fd3d
000002c0: 058f 153d b4b1 8b3d ce7d cd3d 4530 7c3c
000002d0: 92e8 1b3e be53 1ebd eeb0 e83d ee09 1f3c
000002e0: 542d f13d 2bcd 0bbe fb52 19be ca2c 013d
000002f0: c417 84bd 77cb a8bd a6fe 88bd 272a b53d
00000300: 282d 01be a866 a33d 21d1 d23d 89f9 02be
00000310: b7f4 a3bc e502 fb3d b4a3 0a3d cf2e d9bd
00000320: f73f 1cbd 7082 00bd 2d2c 91bd f25d 6cbd
00000330: 978a e23b 978f 0dbe 520b 903d d29a 6c3d
00000340: b471 84bd f079 f83d c1ec 413d cbc0 cd3d
00000350: 17d8 0fb9 0101 05be 8c81 d03c 8bc9 49bc
00000360: 49a9 ef3c 7299 e23d 2683 43bd d1dd 3b3d
00000370: 213d eebd d03b ca3d f5f4 1c3e 937c bb3c
00000380: 8954 143e cd4a e8bd 2da3 e83b 42ed 69bd
00000390: cd28 a4bd 1c30 fabd 9619 0ebe 3e7a d0bd
000003a0: 0a87 b93c b38b 80bd 1407 d83d 07fe a2bd
000003b0: c61e fb3d 05a5 d9bd 1926 03bd 2648 3cbd
000003c0: f859 a13d 2b00 0b3e 95e8 12be 8260 e33d
000003d0: cc61 883d 4dec 6e3c e180 17be b4e4 02be
000003e0: 2b6a c0bc 1414 16be 2904 043e b253 073e
000003f0: 7d63 a0bc a1c1 9fbd 6abe 4cbd ddf4 df3d

c.net.0.bias f4 [64]
0.06046498 0.15779404 0.017319905 -0.07012811 -0.026318531 0.14309157 -0.08651601 -0.09625144
-0.15277153 0.069789216 0.058276728 0.14239867 0.05885681 0.12576286 -0.09733699 0.043111034
0.07081388 0.041922644 -0.051951934 -0.093807586 -0.06811099 0.064513065 -0.09189121 0.027304862
-0.089203596 0.07753208 0.047051735 0.15040246 -0.14362271 0.13870332 0.10822209 0.108596705
0.0955236 -0.038844492 0.03492533 0.0171016 -0.04621267 0.022783203 0.09523396 0.08480939
0.13266039 -0.08849712 -0.13290192 -0.03201789 0.06310528 0.118712924 0.014149357 0.014299882
0.15615484 -0.06419396 -0.021621807 0.117199205 -0.034533996 0.053599473 -0.15634626 0.13460046
0.1258183 -0.14377393 0.12539889 -0.13593267 -0.019860514 0.13845588 0.015947705 -0.119806826
00000000: 20aa 773d c394 213e 79e2 8d3c 549f 8fbd
00000010: f699 d7bc 9986 123e 4e2f b1bd 7a1f c5bd
00000020: 2470 1cbe a6ed 8e3d 94b3 6e3d f5d0 113e
00000030: d713 713d fbc7 003e 9e58 c7bd 3295 303d
00000040: de06 913d 14b7 2b3d 8dcb 54bd 311e c0bd
00000050: c67d 8bbd 6d1f 843d 7531 bcbd 72ae df3c
00000060: 60b0 b6bd 24c9 9e3d 52b9 403d 1a03 1a3e
00000070: d511 13be 3e08 0e3e 8ba3 dd3d f367 de3d
00000080: e1a1 c33d 671b 1fbd dd0d 0f3d a818 8c3c
00000090: 7f49 3dbd d7a3 ba3c 060a c33d 8cb0 ad3d
000000a0: 20d8 073e fa3d b5bd 7117 08be 3125 03bd
000000b0: 573d 813d c31f f33d b4d2 673c 0d4a 6a3c
000000c0: 0ee7 1f3e 1f78 83bd 3720 b1bc 2306 f03d
000000d0: 8573 0dbd 1f8b 5b3d 3c19 20be b4d4 093e
000000e0: 83d6 003e 7939 13be 9168 003e ef31 0bbe
000000f0: 84b2 a2bc 61c7 0d3e c3a4 823c 485d f5bd
