experiments/07_control_structure_hypothesis/checkpoints/AttitudeRate/ppo/2021-12-15__01-12-42/seed_00087/torch_save/model.pt (torch, 82448 bytes, 19 tensors)

obs_oms.mean f4 [40]
000000 d9 7c 79 3e d2 3e 9f 3a 33 9e 80 3f 44 2b 01 3b
       0.24364032 0.0012149459 1.0048279 0.0019709626
000010 8c 79 11 3b eb 8d 23 bd d2 31 7e 3f ba 23 67 3a
       0.0022197692 -0.039930265 0.9929477 0.00088172744
000020 0e d5 bd ba 52 f7 ac bb 15 ba b8 3c 50 21 c7 3a
       -0.0014483051 -0.0052785063 0.022549668 0.0015192423
000030 a9 95 91 bc 3f fd ce 3b 44 b6 66 ba ac 2f 9e bb
       -0.017771559 0.0063168104 -0.00088009634 -0.0048274603
000040 4a bf ca 3e c5 d5 d5 3c e0 2d e8 3b 30 4c 5b bd
       0.39599067 0.02610291 0.007085547 -0.053539455
000050 76 7f 79 3e ae 31 9d 3a 63 9c 80 3f aa 1c 03 3b
       0.24365029 0.0011992955 1.0047725 0.0020006099
000060 7f 46 16 3b f2 19 24 bd 7f 33 7e 3f 68 96 89 3a
       0.0022930203 -0.040063806 0.99297327 0.0010497095
000070 9e 79 d1 ba 4e 17 b8 bb 66 46 b9 3c 2b 22 1a 3b
       -0.0015981679 -0.0056180125 0.022616576 0.00235189
000080 57 e6 90 bc 35 e3 ce 3b 8c 65 62 ba b1 5e 9c bb
       -0.01768796 0.0063137063 -0.00086363475 -0.0047720303
000090 cc de cb 3e d4 f2 d0 3c 82 7e ff 3b d0 18 57 bd
       0.39818418 0.025506414 0.0077970633 -0.052513897

obs_oms.std f4 [40]
000000 2d 57 2d 3e 3e 8b 30 3e 6d fa 09 3d 0f dc 63 3d
       0.16927786 0.17240617 0.03368609 0.055629786
000010 44 0b 65 3d 66 68 a4 3d e7 01 cd 3b 3b 43 b9 3e
       0.055918947 0.08027725 0.0062563303 0.36184105
000020 42 eb bc 3e 2f bd 26 3e 03 c0 4b 3f 69 19 4c 3f
       0.36898237 0.16283105 0.7958986 0.7972627
000030 15 91 bc 3e 6c 57 64 3d c1 df 67 3d 60 fa 09 3d
       0.3682944 0.055747434 0.056609873 0.03368604
000040 d9 aa 24 3f e9 e2 22 3f 22 72 26 3f 72 11 03 3f
       0.6432319 0.6362749 0.650179 0.51198494
000050 dc 8a 2d 3e 82 d1 30 3e 24 7b 0b 3d ad ea 62 3d
       0.16947502 0.17267421 0.034052983 0.055399586
000060 ca 1d 64 3d 00 50 a4 3d 2e a2 cc 3b cf 5b ba 3e
       0.05569247 0.08023071 0.0062449193 0.3639817
000070 9d 15 be 3e c6 c3 28 3e 6b ee 4b 3f 42 4d 4c 3f
       0.37125865 0.16480932 0.7966067 0.79805386
000080 48 9d bc 3e 42 bf 67 3d 68 88 6b 3d 23 7b 0b 3d
       0.36838746 0.056578882 0.057503134 0.03405298
000090 49 2b 24 3f 64 03 22 3f 33 76 25 3f 86 0c 03 3f
       0.6412855 0.63286424 0.6463348 0.51190984

pi.log_std f4 [4]
000000 43 52 90 c0 43 52 90 c0 43 52 90 c0 43 52 90 c0
       -4.5100417 -4.5100417 -4.5100417 -4.5100417

pi.net.0.weight f4 [50, 40]
000000 94 3e 98 bd d3 31 00 3d d7 0f 01 be f0 c3 84 3e
       -0.07433811 0.031297516 -0.12603699 0.25930738
000010 69 65 04 3e 78 80 aa bd 02 b7 0a bd 8e 18 a4 3d
       0.1292931 -0.08325285 -0.033865936 0.08012496
000020 74 9a d5 3d ba b0 45 3e 63 44 96 be f1 5f 8b 3e
       0.1042985 0.19305697 -0.2934905 0.27221635
000030 9c 67 b2 bc c3 c9 f9 bd db 18 92 be e1 b0 bd 3d
       -0.02177792 -0.12196686 -0.28534588 0.092622526
000040 f8 9d 12 bd eb 7a 45 be a2 b2 9d 3c c3 c2 08 be
       -0.035795182 -0.1928517 0.019250218 -0.13355546
000050 af 75 56 bd 6b 12 1b 3e 58 82 16 3d 59 f4 bf 3d
       -0.052358326 0.15143745 0.0367454 0.093727775
000060 57 af 16 bd 38 3f 42 3d 6b cc 64 3d 60 02 c9 3c
       -0.03678831 0.04742357 0.05585901 0.024537265
000070 ea 15 e2 3d 8f b4 b5 3c 2d 9a b5 bc ca 9c 76 3c
       0.11039336 0.022180824 -0.022168243 0.01505203
000080 85 e6 c8 bb 5d bd 87 3d 93 64 d0 be ba 18 76 3d
       -0.0061309957 0.06627915 -0.40701732 0.060082175
000090 2a 0c ca 3d 12 77 ae 3d a0 bb 9f be aa 8b 63 3e
       0.09865601 0.085188046 -0.31197834 0.22221246
0000a0 73 63 6a be b3 58 eb 3d 60 cf 51 3d 9b b0 b4 3d
       -0.228895 0.114915274 0.05122316 0.08822747
0000b0 a6 49 7e be 30 03 10 be 9a 1d 96 be 4d 7b a9 be
       -0.24832782 -0.14063716 -0.2931946 -0.33101884
0000c0 31 ac 27 3e 53 5d a2 be a9 c0 b1 bd 67 9f 1b 3e
       0.1637428 -0.31711826 -0.08679325 0.15197526
0000d0 f6 06 32 3e bc 26 73 3e 7a b1 2d 3e 22 51 5f 3e
       0.17385468 0.23745245 0.16962233 0.21808293
0000e0 6c 63 30 bc 64 0f 30 be 78 ae 3c 3e 9a 4d e4 3c
       -0.0107658915 -0.17193371 0.1842593 0.027869035
0000f0 74 d9 8c be a9 bf 9e 3e b7 28 fc bd 2b 5d 01 3e
       -0.27509654 0.310056 -0.12312453 0.12633197
000100 03 97 78 be f5 06 13 bd e5 ac 6a be 30 29 4e be
       -0.24276356 -0.035895307 -0.22917517 -0.201329
000110 11 53 91 bd 09 23 9c be e5 23 03 3e 59 73 bb bd
       -0.07095922 -0.3049548 0.12806661 -0.0915286
000120 19 da e2 3d ef 14 98 3e 4d 36 af 3e c5 29 81 3d
       0.11076755 0.2970347 0.34221116 0.06306795
000130 a0 d9 2f be 36 3f 53 bd aa 92 15 3e 1e 09 07 3d
       -0.17172861 -0.051573955 0.14606729 0.03296768
000140 e8 32 37 be 0f ab 85 be b3 6f 24 3e 07 20 c2 bd
       -0.17890513 -0.2610707 0.16058235 -0.09478765
000150 1f c3 c9 bd 26 7c bc bd 36 ee 34 3e 8c 80 0d be
       -0.098516695 -0.09203367 0.17668995 -0.13818568
000160 21 ed d9 bd 92 c0 cc 3d 15 23 87 be 67 77 08 3d
       -0.10640932 0.09997667 -0.26393953 0.033316996
000170 6c 7b 62 3d 0c 00 82 3c 2f 12 8d bd ae 69 d2 3b
       0.055293486 0.015869163 -0.06888234 0.0064212894
000180 1e 72 8b 3e 77 66 36 be c6 59 75 be 18 99 bc 3c
       0.27235502 -0.17812525 -0.23960027 0.02302222
000190 7f 99 6e be cf ba da be 48 b6 2a 3e db d6 86 be
       -0.23300742 -0.4272065 0.16671097 -0.26335797
0001a0 f2 42 39 bb f8 57 3e 3b 3b a0 41 3e ee 51 c9 3c
       -0.0028268662 0.0029044133 0.1890878 0.0245752
0001b0 ee d5 20 bd 24 e3 ab 3c b4 9f a2 bc 7c e5 4e bd
       -0.03926652 0.020982333 -0.019851543 -0.050511822
0001c0 8f 80 f8 bd d6 e5 54 3e e9 7d 2d be b2 a4 98 bd
       -0.121338956 0.207908 -0.16942562 -0.07453288
0001d0 d5 5f 41 bd 1e be 56 be b9 69 37 be ca f6 e4 3c
       -0.047210533 -0.20970961 -0.17911424 0.02794971
0001e0 84 e5 3a bd 66 8c d7 bd e5 06 80 3b 9d d7 33 3d
       -0.04562904 -0.10524826 0.003907072 0.043906797
0001f0 c3 84 2e be 3a a6 30 be ae 45 02 bd 2b ad f6 3d
       -0.17042832 -0.1725091 -0.031804733 0.12044748
000200 45 2c 87 3d 6a e1 56 3e fa 0d cd 3d 65 27 05 bc
       0.066002406 0.20984426 0.100124314 -0.008127068
000210 06 9e ab bb 03 66 da bd 15 7c 5b 3d 06 f3 ce bd
       -0.0052373437 -0.106639884 0.05358513 -0.10104947
000220 81 c7 a6 3d 61 32 aa be 5c b5 06 be 73 53 12 3f
       0.08143521 -0.3324156 -0.1315512 0.57158583
000230 5e 16 a1 bb 02 8a 90 bd 16 b1 90 bc e0 86 fc 3d
       -0.0049159965 -0.07057573 -0.017662566 0.12330413
000240 98 d3 dd 3d 07 70 1e be 85 91 12 be ac 27 e2 3c
       0.10831374 -0.15472423 -0.14313324 0.027606808
000250 fa 39 c3 3d f1 b3 8d bd f0 e1 63 bd 36 70 22 be
       0.095325425 -0.06919087 -0.055635393 -0.15863118
000260 80 28 39 3c d4 04 0c 3d bc b0 ca 3d a9 0e 22 be
       0.01130116 0.034184292 0.09896991 -0.15825905
000270 2d d5 5b 3e 80 0b 4e be 47 7c d6 3c 50 1c 09 bc
       0.21468039 -0.20121574 0.026182307 -0.008368567
000280 3b fc 9d bd f7 f1 d4 3c a6 dd ee bd af 47 bf bd
       -0.07714125 0.025994284 -0.1166337 -0.093398444
000290 5d b8 97 be 3e d1 d9 bd d6 51 1b bd d7 5a 3a be
       -0.29632846 -0.10635613 -0.03791984 -0.18198715
0002a0 86 73 cb 3e 4e 97 03 be d8 b7 04 3e 6f 8d cd bc
       0.39736575 -0.12850687 0.12960756 -0.025091855
0002b0 52 91 ab bd 16 20 5a be ee 5b 6b 3c 7c 02 bb bd
       -0.08377327 -0.21301302 0.014365179 -0.09131333
0002c0 e8 a3 ea bd 8b d2 07 3e 11 02 1c 3e d4 cc 75 bc
       -0.11457044 0.1326391 0.15235163 -0.015002448
0002d0 ea c5 1b bd 81 fa 9d 3e 51 ac 12 3d 60 60 04 be
       -0.038030542 0.30855182 0.035808865 -0.12927389
0002e0 53 16 65 be bf fc 18 3c 14 37 57 bd 43 fb 51 be
       -0.22371797 0.009337603 -0.05254276 -0.20506005
0002f0 07 4c e4 3e 6c 78 ee 3c 77 d7 50 3e 3b 2f 0f be
       0.44589254 0.029110156 0.20394693 -0.1398286
000300 1c 53 dd 3b ae 32 34 be 14 00 d9 bd 43 d1 f7 3d
       0.006754292 -0.17597458 -0.10595718 0.121004604
000310 fb e6 e9 3d 34 b1 71 bd 86 da 5d 3c 6b f9 85 bd
       0.11421009 -0.059006885 0.01354087 -0.06541713
000320 11 7b bc 3e 68 66 0d be 11 7f 21 be c4 cc 2a be
       0.36812642 -0.13808596 -0.15771128 -0.16679674
000330 5a a0 c5 bd d7 32 5d 3e ad 85 14 bd 17 b3 04 3e
       -0.09649725 0.21601425 -0.036260296 0.12958942
000340 f3 63 4c 3e 6a 7d 10 be 0c 46 c0 3d 1f 7c 03 3e
       0.19960003 -0.14110342 0.093883604 0.12840317
000350 38 f5 ba 3d 9f f9 81 bd 6b 38 43 be 33 58 3d 3e
       0.09128803 -0.063464396 -0.1906449 0.18490677
000360 44 fd 0b be 64 db 18 3e f1 81 51 3d ce fe 1a be
       -0.13670832 0.14927441 0.051149312 -0.15136263
000370 26 af 00 3e be 1e b8 bd 9a c2 b0 3c 21 3c 38 be
       0.12566814 -0.089902386 0.021577168 -0.17991687
000380 53 00 54 bc c8 5f 07 3e f7 5f 96 bd 86 7e 7a 3e
       -0.01293953 0.13220131 -0.073425226 0.24462327
000390 bb 40 a7 bb bd 5c b4 3d 22 67 01 be 90 9c 5b 3e
       -0.005104152 0.08806751 -0.12636998 0.21446443
0003a0 7f 99 8c 3d 85 f1 2d bd f0 b1 73 be e2 71 56 bd
       0.068652146 -0.04246666 -0.23798347 -0.0523547
0003b0 33 23 02 3e 85 35 bb 3b 49 45 a9 3e 80 b1 90 3e
       0.1270874 0.005713167 0.33060673 0.28260422
0003c0 ad 55 05 bd 62 82 3e 3e de b4 45 3d c2 74 e7 bd
       -0.03255241 0.18604425 0.04826819 -0.11301567
0003d0 80 3f 54 bd b9 ae bf 3d cf e9 9e 3d 34 a7 9a be
       -0.05181837 0.093594976 0.07759439 -0.3020569
0003e0 0b 9a fd bd 04 35 57 be 62 05 92 3c 59 4a 83 bc
       -0.12382897 -0.21016318 0.017824832 -0.016026663
0003f0 98 90 61 bd eb 6f a6 3a 04 33 aa bd cc 6b 49 3d
       -0.055069536 0.0012698149 -0.08310512 0.04917507

pi.net.0.bias f4 [50]
000000 9c 8c 9c bd e9 04 c5 be 53 bb 17 3e 0f 74 86 bc
       -0.076440066 -0.3848031 0.14817552 -0.016412763
000010 9e 5c 96 3e 95 46 d4 3c fc 00 89 3c 5d 54 08 3e
       0.29367536 0.025912562 0.016724102 0.13313432
000020 13 13 7e 3e 23 45 b0 3e ee 65 84 3e 20 41 34 3c
       0.24811964 0.34427747 0.25859016 0.011001855
000030 57 7a 18 3e f9 74 da 3e 73 83 59 3e ff 20 bf bd
       0.14890419 0.42667368 0.2124155 -0.093324654
000040 f1 c3 43 be fe 3d 2a 3e bf c0 92 3e 5d 65 9c 3e
       -0.19117714 0.1662521 0.2866268 0.30546084
000050 aa b6 bf be 74 4e 8d 3e 87 9d 7b 3e 9c ed dd 3c
       -0.3744405 0.27598917 0.2457181 0.02709084
000060 0b b8 7b 3e ab 50 be 3e 32 c0 43 3e da 82 25 3e
       0.24581926 0.3717092 0.19116285 0.16163197
000070 1f 56 be 3d 92 c5 bc 3d b9 d8 93 3e 72 ed bd 3e
       0.0929377 0.09217371 0.28876284 0.3709522
000080 31 e0 8e 3e 59 91 2a bd 3d f4 b0 bd 2d 8a 5b be
       0.2790542 -0.04164252 -0.08640335 -0.21439429
000090 c6 32 b3 3c a2 db 34 3d 97 64 8d 3e 8d c5 2b 3e
       0.021874797 0.04415477 0.27615806 0.16774578
0000a0 64 75 c5 be e3 be c0 3e d3 d5 2d 3d a4 93 2f be
       -0.38566124 0.37645635 0.042440247 -0.17146164
0000b0 74 06 86 3e 49 80 55 3e c5 42 68 3e 25 49 5d 3d
       0.26176798 0.20849718 0.2268172 0.054024834
0000c0 50 8e 8b 3e 68 a9 5c 3e
       0.27257013 0.21548998

pi.net.2.weight f4 [50, 50]
000000 c4 c9 19 3e 06 26 a6 3e e4 38 f3 3d db 85 18 3d
       0.15018374 0.32450885 0.118760854 0.03723703
000010 43 ff 57 bd 1b 3d c1 bd 47 0d 2d bd 5b 64 bb be
       -0.05273367 -0.09435483 -0.04224899 -0.36600003
000020 4d 76 8a bd a5 f4 84 3d b9 e5 59 bd fc f4 70 be
       -0.06760845 0.06491975 -0.053197596 -0.23530954
000030 df 27 f4 3d bc 25 4e be cc d2 e0 3a 1b a1 5a 3e
       0.11921667 -0.20131582 0.0017152666 0.2135052
000040 6c 4b c6 3d b7 60 84 3d d6 a3 9d 3d 8f f7 2d bd
       0.09682354 0.064637594 0.07697265 -0.04247242
000050 53 cf 69 3e 17 78 28 3e 29 ee 1b be 2b 77 bc 3c
       0.22832994 0.1645206 -0.1522757 0.023006042
000060 e5 e6 d1 bd 47 a0 8e 3d 11 b5 81 bd 94 7b 5b 3e
       -0.10249118 0.06964164 -0.06333364 0.2143386
000070 94 07 1d 3e 9e c3 82 3d 6e 4a 4b 3e 99 8e 03 3d
       0.15334922 0.06384967 0.19852611 0.032118414
000080 29 3d c6 3d 70 90 b8 bc cc 99 9f 3d 32 e4 e6 3d
       0.09679634 -0.02252981 0.07793006 0.112739936
000090 2b a5 a5 be f0 ac b4 bd f7 fe 1c 3e 04 67 1a 3d
       -0.32352576 -0.08822048 0.15331636 0.0376959
0000a0 d3 99 1a be 8b 8a 0e be b2 b4 12 3c aa f2 d5 3e
       -0.15097742 -0.13920037 0.008954214 0.417867
0000b0 15 b1 44 bd a7 4c 8f bd 15 72 4a be 37 b0 2b 3e
       -0.04802044 -0.06997042 -0.19770081 0.1676644
0000c0 ee 5b 15 be 56 f9 74 bd c6 95 58 be 02 fd 43 be
       -0.1458585 -0.059808098 -0.21150884 -0.19139484
0000d0 61 5c c6 bd 12 4a 19 3d 48 a5 a0 3d ff 85 86 3e
       -0.09685589 0.037424155 0.07844025 0.26274106
0000e0 37 1f dc bd 81 56 3d be 72 e4 2a be b8 56 46 3e
       -0.10748141 -0.1849003 -0.16688707 0.19369018
0000f0 f1 bd 0c be a8 d7 59 3e 07 e1 41 3e b8 fb ab 3d
       -0.13744332 0.21273673 0.18933497 0.08397621
000100 e0 29 15 3e 53 bf 8a 39 8a 0b af bd cf a1 c2 3d
       0.14566755 0.0002646396 -0.08547123 0.09503519
000110 98 32 64 bd 6d af bb 3d b8 46 7d be 26 51 d3 3d
       -0.055712312 0.09164319 -0.24734008 0.10318212
000120 14 d1 d8 3d a8 99 28 3c 1f 98 44 3e 7b 4f 94 bd
       0.105867535 0.010290541 0.19198655 -0.07241722
000130 71 88 8c be b2 b7 00 3c 6d 1f 14 be 37 cb c1 bd
       -0.27447847 0.007856296 -0.14465113 -0.09462588
000140 fa 2e 2b be 5c cc 7f bd 72 8d 35 3e 0d 43 8e 3d
       -0.16717139 -0.06245075 0.17729738 0.06946383
000150 39 61 d8 bd 0e 8f 71 3d 1c 4f b9 bd dc 00 6d ba
       -0.10565419 0.05897432 -0.09048292 -0.00090409606
000160 85 09 aa 3d 70 5b a0 bd 70 e4 3d 3e 40 03 1e 3e
       0.08302597 -0.0782994 0.18544173 0.15430927
000170 55 d1 db 3d 98 13 19 3e f0 a5 8d 3e e9 cb 57 bd
       0.10733286 0.1494888 0.27665663 -0.0526847
000180 c3 26 d9 3d d8 57 4a 3d 8d bb 3c bc 78 fb 25 bd
       0.10603096 0.04940018 -0.011519325 -0.040523022
000190 8d e5 fb bc e3 2c 2e bd b3 36 82 3d 93 0b 2e be
       -0.030749107 -0.042523276 0.06358089 -0.16996603
0001a0 50 d0 9b bd b9 92 98 bd 73 36 2f be e9 f8 48 3e
       -0.07608092 -0.0744986 -0.17110614 0.19626202
0001b0 b0 77 e3 bd 5c 1f 00 be 22 f5 9e 3d 3a 41 02 3e
       -0.11106813 -0.12511963 0.07761599 0.12720194
0001c0 2c 38 42 3e ad 6a 21 3e 54 2a da bd 60 cc e2 bd
       0.1896674 0.1576335 -0.10652605 -0.11074138
0001d0 0e bb 5b bd 97 22 b4 be 81 c8 df be 90 33 6a be
       -0.053645186 -0.3518264 -0.4370766 -0.22871232
0001e0 3b 69 ce bd 69 3d 89 bd 41 cc 1b be 96 de 99 bd
       -0.10078665 -0.06701166 -0.15214635 -0.07513158
0001f0 1a ac d5 bd 55 49 1d 3e 0a 8f 20 3e ff 8e 14 3c
       -0.104332164 0.15360005 0.15679565 0.009067296
000200 f7 b2 84 be ce 4f 4e bd 3c 56 ab 3c d2 7e 8c 3d
       -0.2591779 -0.050369076 0.020915143 0.068601266
000210 86 0d 33 bb 17 e3 2f 3e cf ec 0e 3e c4 27 bf bd
       -0.0027321293 0.17176472 0.13957523 -0.093337566
000220 f4 db 46 bc 04 c2 a5 3d d8 15 e6 bd 79 99 0f 3e
       -0.012137402 0.08093646 -0.11234635 0.14023389
000230 8a a9 76 bd 0f 6c 04 be 99 a4 cc bd 28 02 f3 3d
       -0.06022028 -0.12931846 -0.09992332 0.11865646
000240 1f 56 98 be f9 c3 49 3e 9b 1a 62 3e de 1e cc 3d
       -0.29753205 0.19703664 0.22080462 0.09966825
000250 6a 45 2d bd 39 a0 87 3d 1f 46 ba 3d d1 50 b6 3c
       -0.042302527 0.06622357 0.09095406 0.022255333
000260 d7 6e f2 bc ed 43 5d 3c c0 6f b1 3c 8c fd 41 be
       -0.029593868 0.013504964 0.021659732 -0.18944377
000270 c4 b5 74 3c b4 d3 a0 bd 90 f9 33 bd 70 f0 2b 3c
       0.014935914 -0.07852879 -0.043939173 0.0104943365
000280 de a4 87 3d 39 c4 33 3e e1 af ae 3d ec 2d dd bc
       0.06623243 0.17555322 0.0852964 -0.026999436
000290 c1 46 e2 3d dd 44 1f 3e 6a 16 2d 3e fd 6c 84 3d
       0.110486515 0.15553613 0.16903082 0.064661
0002a0 1f f6 c7 3d 02 1d a8 bd c8 37 07 3e aa 24 c4 3d
       0.09763741 -0.08208658 0.13204873 0.095773056
0002b0 5d a2 b6 3d 16 25 0c b9 07 ea 1f 3e 82 c6 7f bd
       0.08917687 -0.00013365256 0.15616618 -0.06244517
0002c0 19 97 ac bd a5 14 cf bd 41 7f 0b be 5e 35 37 bd
       -0.08427257 -0.101113595 -0.13622762 -0.04472863
0002d0 7a a5 7c bb 1f f7 f7 3d 65 9b 4e bd 37 a1 c1 be
       -0.003855078 0.121076815 -0.050441165 -0.3781831
0002e0 0d 60 4c 3e a0 18 3e 3e 58 ca ae 3d 46 8c 6a bb
       0.19958515 0.18564081 0.08534688 -0.0035789176
0002f0 b4 c0 1d be 2e bb 2b 3e 7f 99 90 be e0 32 35 3c
       -0.15405542 0.16770622 -0.28242108 0.011059493
000300 1b 04 e0 bd e6 a6 15 be 50 61 e6 bd 11 26 84 bd
       -0.10938283 -0.14614448 -0.1124903 -0.06452573
000310 6e b7 7e be 9f 79 c1 bd 3d 22 2d bc 2d a6 be bd
       -0.2487466 -0.094470255 -0.010567245 -0.09309039
000320 69 94 37 3d 3e 86 2a bd e0 0d 6a 3d 4b 1e f4 3d
       0.04481927 -0.04163193 0.05714214 0.119198404
000330 9f 85 8e bd 6a 56 c7 be f4 29 9e 3d 00 6f 83 3e
       -0.0695908 -0.38933116 0.07722846 0.25670624
000340 9a 17 9c bd ac a6 c6 3d 71 01 29 bd 2b 11 88 3d
       -0.07621689 0.09699759 -0.04126114 0.066438995
000350 53 55 71 3d 4f 31 f6 bc ea f3 05 3e 57 b0 2c 3e
       0.058919262 -0.030052809 0.13081327 0.16864143
000360 70 bb c5 bc bd a4 92 bd 08 e4 cc bd 46 c8 af be
       -0.024137229 -0.071603276 -0.10004431 -0.34332484
000370 a9 57 64 be ac a2 14 be 07 a3 ed 3d 71 01 81 3c
       -0.22299065 -0.1451518 0.116033606 0.015747758
000380 ed f3 4c 3d f7 27 76 bd ed 12 f5 3d 87 83 bb 3c
       0.050037313 -0.060096707 0.119665004 0.022889866
000390 7a 75 18 3e 1f 04 8d 3d a6 c6 98 bc dd 07 c7 3d
       0.14888564 0.06885552 -0.01864941 0.09718297
0003a0 0d 2b 73 bc 2c 88 5b be 4a 19 4c 3e 43 2f 68 be
       -0.014841807 -0.21438664 0.19931522 -0.22674279
0003b0 d2 76 6c 3d d9 93 1e 3e 57 94 a2 3e 62 a2 70 bd
       0.057730503 0.15486087 0.317538 -0.05874861
0003c0 17 3b 10 bf c6 5e cb 3d ae 4b c9 3d 5f 8b a4 3b
       -0.56340164 0.09930186 0.09828888 0.005021497
0003d0 62 a7 b0 3d 9b 5e 91 3d 69 11 09 3e cb 76 2a be
       0.08625676 0.07098123 0.13385548 -0.16646878
0003e0 fc 55 1a 3e 22 97 75 3a c7 cd 03 3e d5 d4 a7 bd
       0.15071863 0.0009368529 0.12871467 -0.08194891
0003f0 23 26 10 3e 71 b6 cf bd 7d 08 0c bd 9c b7 25 3e
       0.14077048 -0.1014222 -0.034187783 0.16183323

pi.net.2.bias f4 [50]
000000 90 4a e4 bd 5c 1b c0 3d 99 0d 4f 3d 44 3a e7 3d
       -0.11147034 0.093802184 0.050550077 0.1129041
000010 56 bc c2 3d 17 5f 06 3e cb a5 5d bd ea 23 04 3e
       0.095085785 0.13122211 -0.05411319 0.12904325
000020 4f 97 79 3c f8 22 c6 3d 78 4b fc 3d d7 7d 22 be
       0.015233829 0.096746385 0.12319082 -0.15868317
000030 89 b0 77 bb d0 e6 84 3e 93 6f fe bc 16 45 1b 3c
       -0.0037794432 0.25957346 -0.031059062 0.009476921
000040 16 ba 26 3e aa d8 5a bd 08 8c cc 3d 70 b1 2c 3e
       0.16281924 -0.053429283 0.09987646 0.16864562
000050 19 96 99 bc af 6f 3d 3e c4 22 0c 3c ce 88 96 3a
       -0.01874833 0.18499635 0.008553211 0.0011484863
000060 9f 46 50 bd ea f0 8c bb 5e 3f 7f bd c1 98 02 3d
       -0.0508486 -0.00430118 -0.06231629 0.03188396
000070 ad 1e 90 3d 2b ad 84 3d 6e 05 03 3d ef 6f 0e 3e
       0.07037101 0.06478342 0.0319876 0.13909887
000080 a5 3f bd bd d0 fa d1 bc 6f e9 42 bb 3d ee 52 bc
       -0.09240655 -0.025632292 -0.0029741188 -0.012874183
000090 a8 fe 46 3e 6b 19 29 3e a6 37 30 be 93 87 22 be
       0.19433081 0.16513602 -0.17208728 -0.1587203
0000a0 9e 57 12 3e 75 55 5e 3e 01 30 d1 3c fb 8c 23 be
       0.14291236 0.21712287 0.025535585 -0.15971749
0000b0 de 84 71 3d 26 79 a6 bd a9 2e 4a 3e c4 b9 67 3e
       0.058964603 -0.08128576 0.19744362 0.22629458
0000c0 3b 0a 33 3e 0c 36 cc bd
       0.17484371 -0.09971246

pi.net.4.weight f4 [4, 50]
000000 a5 92 05 bc db 3a 8e be 4c a4 9b be 76 b9 f0 bd
       -0.008152639 -0.27779278 -0.30398786 -0.11754124
000010 76 3d 97 3d b6 2e 69 3e e0 9f 88 3c a3 b2 cc 3c
       0.073847696 0.22771725 0.016677797 0.024987524
000020 e0 a6 18 3e 1c 75 bd bd 55 3c 96 be e8 e8 a0 3e
       0.14907408 -0.092508525 -0.29342905 0.31427693
000030 2d 94 3b 3e 19 8e c6 3d 1d 5a 16 3f 44 69 0c bf
       0.18318243 0.09695072 0.5873125 -0.5484812
000040 37 58 b8 be 67 05 28 be 46 fe 89 3e 5c 5c 90 bd
       -0.36004803 -0.16408311 0.26951808 -0.07048866
000050 98 42 da 3e b2 c8 8c be 38 e4 fe be 9d ae a7 bd
       0.42628932 -0.27496868 -0.49783492 -0.08187602
000060 94 67 91 3e 41 48 a4 3d 10 5f 48 bb 26 2d 87 be
       0.28399336 0.08021594 -0.003057424 -0.26401633
000070 f1 b5 76 3e f6 42 4a bb a8 e0 df 3d 89 1f f6 bd
       0.24092843 -0.0030862666 0.10931522 -0.120177336
000080 cc e3 1f be 5d f6 90 3e 88 63 a5 be eb 1e b8 bb
       -0.15614241 0.2831296 -0.323025 -0.00561892
000090 e5 c1 19 3e 2c d1 6b be b3 a2 a1 3e 29 52 ea be
       0.15015371 -0.23029011 0.31569442 -0.45765808
0000a0 d1 aa 6e 3d 2b fe 6f be e7 55 30 3e 57 76 d9 3e
       0.058268372 -0.23436801 0.17220269 0.424731
0000b0 06 94 b2 bc 83 bc 9f be 36 d9 da 3e e9 7e 57 be
       -0.021799099 -0.3119851 0.42743844 -0.21044506
0000c0 1a 68 10 bf ca 69 a4 3e 1d b5 e5 be 44 50 a5 3e
       -0.56408846 0.3211196 -0.4486474 0.322878
0000d0 e5 ea b3 be d8 f3 ac be f4 79 93 be 3e ae 14 bd
       -0.35140148 -0.33779788 -0.2880398 -0.036298983
0000e0 07 21 da bd 1d 83 8c 3e 49 ef 2f 3e fa 7f 98 3c
       -0.10650831 0.27443781 0.17181124 0.018615711
0000f0 6c ba 66 bd b3 bc 33 be 09 e5 a8 bd c9 e9 e1 3e
       -0.05633013 -0.17552452 -0.0824681 0.44123676
000100 60 3c b9 be 1e a6 73 be e5 50 41 be 76 e0 d2 bd
       -0.36178875 -0.23793837 -0.18878515 -0.10296719
000110 a2 37 55 be 54 6e 66 be 7c df 88 be 48 01 82 be
       -0.20822003 -0.22503024 -0.26733005 -0.25391603
000120 f6 fb b7 be a4 9f 2b 3e d5 9e b9 3e bc 1a 65 bc
       -0.35934418 0.16760117 0.36253992 -0.013983425
000130 6d f9 8c 3e a1 96 42 be ec d4 30 bd d4 f5 8d be
       0.27534047 -0.19002773 -0.043171808 -0.27726614
000140 32 ab 86 3e 71 4e 05 bd 4d d5 8f be c3 00 8f 3e
       0.26302487 -0.03254551 -0.28092423 0.2793027
000150 ef 70 cd be 80 51 47 3d 89 d7 6e 3e 04 03 f8 3e
       -0.40125224 0.04866171 0.23324408 0.484398
000160 c8 a6 fd 3e ad f0 ef 3e 26 f8 1e bf 24 01 05 bf
       0.49541306 0.4686331 -0.62097394 -0.51954865
000170 d8 ba df 3d d9 fe b3 be b1 6f 8d 3e 61 da a9 bd
       0.109243095 -0.3515537 0.27624276 -0.082936056
000180 0e 50 b8 3c 31 a2 96 3d 29 ee f7 3d cd 02 9d be
       0.02249911 0.07355154 0.12105972 -0.306662
000190 b3 6a bc be 1d 9d 2d 3e 1b 56 e3 3d 7d c8 ad bc
       -0.36800155 0.16954465 0.11100408 -0.021213764
0001a0 5f f5 9d 3e e9 8b 2a 3e f6 b7 53 3e 88 e7 69 be
       0.30851266 0.16654934 0.20675644 -0.22842228
0001b0 b9 81 47 be 31 43 d9 bd 58 20 96 3c 9c 31 cc 3e
       -0.19483079 -0.10608519 0.01832597 0.398816
0001c0 ac ae 9e 3c cd a6 76 be ad 9c 8e be ca ba 66 3e
       0.0193704 -0.24087067 -0.2785391 0.22532192
0001d0 df f3 06 be 0a 70 db 3e 8a cf df 3d fe 3b e5 be
       -0.13178967 0.42858917 0.10928257 -0.44772333
0001e0 13 57 18 bd 00 43 f9 be c2 d7 2f 3f a9 fb b1 be
       -0.037192415 -0.4868393 0.68688595 -0.34762314
0001f0 2f 65 23 3e 9a 83 cf 3d ba 82 0b 3f 78 3b 31 be
       0.15956567 0.10132523 0.5449635 -0.17307842
000200 83 e8 13 3d 06 06 d7 3e 6b e7 eb 3d ff 65 98 3e
       0.036110412 0.41996783 0.11518749 0.29765317
000210 c2 a5 88 be 6c 89 87 be bb d5 6b bd c7 a6 83 3e
       -0.26688963 -0.26472032 -0.057576876 0.2571318
000220 96 36 9a bd ca 1f b0 3e ea 54 07 3e b6 2f 80 3e
       -0.07529943 0.34399253 0.13215986 0.250364
000230 91 fc b4 be 55 98 5e be 81 b0 6d 3e 8c 83 18 3e
       -0.35348943 -0.21737798 0.23211862 0.14893931
000240 dd ed 46 be 64 41 e3 3e 0a 4a 02 bf d4 96 a9 be
       -0.19426675 0.44385827 -0.50894225 -0.33122885
000250 10 be da 3e a5 c5 fd 3d 90 02 b9 bd d6 b9 0b 3e
       0.4272313 0.12391213 -0.09033692 0.1364511
000260 57 bd 22 be 88 1c b5 3e c3 88 30 bb e9 d8 68 3e
       -0.1589254 0.3537333 -0.0026936985 0.22738995
000270 58 6b 5d bc 92 b4 50 3e 53 48 b9 3e e7 50 49 be
       -0.013514362 0.20381382 0.36187991 -0.19659768
000280 38 58 8a 3e 98 30 71 bd 3e 78 6f be 29 c4 12 be
       0.2702043 -0.058884233 -0.23385713 -0.14332642
000290 e3 b9 c8 be b6 3f 5d 3e d3 06 23 3e cf c6 3a be
       -0.3920432 0.21606335 0.15920572 -0.18239902
0002a0 03 ee e1 3e b6 db 8d 3d d1 1c d6 3e f2 45 d3 3d
       0.441269 0.06926672 0.4181886 0.103160754
0002b0 36 99 87 3d 90 0c 04 bd 13 87 13 3d a5 aa 0e be
       0.066210195 -0.032238543 0.03601749 -0.13932283
0002c0 76 42 8b be 9b c7 87 be cf 9a 12 be f4 a6 e5 3c
       -0.27199143 -0.26519474 -0.14316867 0.028033711
0002d0 29 85 af bd 8c 8a 4c 3e 73 82 aa be 99 24 06 be
       -0.0857032 0.19974726 -0.3330265 -0.13099898
0002e0 69 0c f6 be af 08 87 be 09 22 6b 3e 10 61 b1 be
       -0.48056343 -0.26373813 0.22962202 -0.34644365
0002f0 ee 9a 9a 3b a1 45 09 3d ed 73 99 bb cd 29 51 3e
       0.004718176 0.03351367 -0.004683009 0.20426102
000300 21 3d 4d 3e 37 a1 7a bd 18 da 14 be 49 26 90 bd
       0.2004285 -0.061188903 -0.14536321 -0.07038552
000310 61 c2 e0 bd f1 db 11 bd 91 fd ef 3d a1 3b 39 3e
       -0.10974575 -0.035610143 0.11718286 0.18089153

pi.net.4.bias f4 [4]
000000 b5 c7 44 3d 8a 41 0b 3e 59 1e ed 3d 00 c0 bc 3d
       0.048042018 0.1359922 0.11578054 0.092163086

v.net.0.weight f4 [64, 40]
000000 cf 1e 6e be ac f0 a8 3c 68 c5 2b 3e ef da 00 bf
       -0.2325394 0.020622574 0.16774523 -0.50334066
000010 d6 b7 bb be f4 4f 14 3e 01 45 ea bd 4c 23 4e 3e
       -0.36663693 0.14483625 -0.11438943 0.20130652
000020 b0 42 57 3e 55 b8 f3 3c 78 04 2b be 99 52 dd bd
       0.21021533 0.029750982 -0.16700923 -0.1080677
000030 9d a5 0f bd f6 2a 50 bd 64 12 22 be d9 05 4b 3e
       -0.03507005 -0.05082222 -0.15827328 0.1982645
000040 ce d5 9d 3c 62 ba 5b bd cb 03 83 3c aa 0c 4c bc
       0.01926699 -0.053644545 0.01599302 -0.012454191
000050 c6 ef f4 bd 36 54 29 3e 72 1a fd 3d 04 fb a3 be
       -0.11959796 0.1653603 0.1235856 -0.32027447
000060 6f 21 9e be 43 06 cf bc 0f 69 98 be a5 b6 33 3e
       -0.30884883 -0.02527154 -0.29767653 0.17550142
000070 35 de 69 3e d5 aa f4 3c 13 1d 84 3d f0 ad 9a 3e
       0.22838672 0.029866615 0.06450858 0.3021083
000080 9c ef b8 bc a8 8f cd 3d 6a f3 ca bd 2e 0c 45 3d
       -0.022575192 0.10037166 -0.09909709 0.04810732
000090 52 71 f8 bc 37 b8 08 bd 5d cd f4 bb fc 0d e4 bb
       -0.030327473 -0.033378806 -0.0074707703 -0.006959675
0000a0 79 6f c0 3e d4 8f 44 bf 2a 4e 65 3d c6 01 1d 3a
       0.37585047 -0.76781964 0.055982746 0.0005989339
0000b0 e4 01 d0 bd 8a fc f8 bd d6 0e 62 3e cb 0d 79 be
       -0.101566106 -0.12157543 0.22075972 -0.24321668
0000c0 fe e0 64 bd 30 66 40 be a5 b4 cb bd 49 2d 01 3d
       -0.05587863 -0.18788981 -0.099465646 0.031537328
0000d0 e6 50 e8 bd be 39 03 3e 52 1e 53 bd 38 c3 50 3e
       -0.11343555 0.12814996 -0.051542588 0.2038697
0000e0 d6 6f 0b bd 35 92 cf 3c 65 b4 99 bd b7 96 39 3d
       -0.034042202 0.025338272 -0.07505111 0.04530975
0000f0 a7 ef 87 3e ec 4e 48 bf e3 48 e9 3d c4 15 70 bd
       0.26550028 -0.78245425 0.11390855 -0.058614507
000100 72 2c 2d be f2 04 d5 bd 11 b5 f3 3c e8 27 69 be
       -0.16911486 -0.10401334 0.029749425 -0.2276913
000110 17 56 89 be b0 08 1a 3d ee a5 2e bc d4 a8 e4 bb
       -0.26823494 0.03760594 -0.010659678 -0.0069781337
000120 a7 68 08 be aa f0 1d 3d 04 8c 40 bd f9 75 ec 3d
       -0.13321172 0.038559593 -0.04700853 0.11545939
000130 fc 59 06 bd 7b 70 00 bd a4 ef c4 bd 0e ee a2 3d
       -0.03280066 -0.03135727 -0.0961602 0.079555616
000140 62 6f d0 bd 18 dd 18 bf fa a8 4e be 46 2a 47 be
       -0.101774946 -0.5971236 -0.20181647 -0.1944972
000150 52 8f 4b 3e b2 3c 00 3e 76 82 23 bd 1c 16 92 3e
       0.19878891 0.12523153 -0.03991934 0.28532493
000160 60 52 b0 3e c8 20 14 bd ca a9 73 3d 08 f8 ac bd
       0.34437847 -0.036164075 0.059488095 -0.08445746
000170 d8 3e fa 3d 8e 34 d8 bc d1 54 e3 be 7a b6 5e 3c
       0.12219018 -0.026392248 -0.44400647 0.0135933105
000180 20 02 30 bd ed bf bf 3b 80 b6 92 35 66 bb 8e 3c
       -0.042970777 0.0058517368 1.0930962e-06 0.017423343
000190 dd 95 61 3d 0c 2a 1f bf 4f 84 3c be 7a 7b 92 be
       0.05507456 -0.62173533 -0.18409847 -0.2860983
0001a0 ad e4 ac 3e 87 ef dd 3d 84 51 fc 3e d4 bb b6 3e
       0.33768216 0.10836702 0.4928094 0.35690176
0001b0 9c 26 0a 3f 17 4f 80 be 34 cd 17 bd 40 f4 44 3e
       0.53965163 -0.2506034 -0.03706093 0.19233799
0001c0 6b 84 f8 3d 2d 9d 30 3e 17 1c c4 be 2a db 8f bc
       0.12134632 0.17247458 -0.3830268 -0.01756056
0001d0 f7 ca e9 bc 6d eb fa 3b 51 06 0a 3d ae 5b 4f 3c
       -0.028539164 0.0076574595 0.03369743 0.0126561355
0001e0 22 3d 70 bd 54 85 e8 bc 2f 22 5c 3e d5 49 f5 3c
       -0.05865205 -0.028383888 0.21497415 0.029942432
0001f0 58 d3 f6 3d 34 1a 0e 3e 4e c7 12 3e 41 d3 2f be
       0.12052029 0.13877183 0.14333841 -0.1717043
000200 c3 f9 9b 3d b8 d5 1d 3e dd 99 08 bd 3f 42 20 bd
       0.07615998 0.15413558 -0.03334986 -0.039125677
000210 82 54 f2 3d 66 43 fa bd bf ac bd bc 73 ab fd 3d
       0.11832525 -0.122198865 -0.02315366 0.12386217
000220 b1 58 b7 ba bf ca 28 3c 84 e3 02 3b 55 57 2a 3c
       -0.0013988224 0.010302245 0.0019972036 0.010396798
000230 5c 3a 20 bd dc a3 96 bd 01 c3 72 3d e6 6b 73 bd
       -0.039118156 -0.073554724 0.059268 -0.05942907
000240 04 9a 4f bd ab 33 a7 3c 9d c3 c8 3d d5 3e 50 3c
       -0.05068399 0.02041038 0.09802935 0.012710293
000250 7d ec 05 3e 6a 53 b2 3e df 16 8b 3c 4a 36 93 3d
       0.13078494 0.34829265 0.01697868 0.07188089
000260 b9 64 15 3e 6e ae fa 3d 5e 42 8b 3d 3a 43 b7 bd
       0.14589204 0.12240301 0.06799768 -0.08948369
000270 fe 83 ad bc 31 95 34 3d ce 7f 50 bc dd 1a 9a 3c
       -0.021181103 0.044087593 -0.0127257835 0.018811638
000280 3e 25 31 3f eb ba ff 3e 52 ab a5 3d 99 57 b4 3e
       0.6919745 0.49947295 0.080893174 0.35223082
000290 f1 c0 da be 5d c2 ef bd e4 5a a2 bd 7b 1b a0 bf
       -0.42725328 -0.11706994 -0.07927492 -1.2508386
0002a0 df 6c 04 bf f4 98 26 be 18 73 1b be 99 69 b9 3e
       -0.51728624 -0.16269284 -0.15180624 0.36213377
0002b0 24 9a 27 bd 28 b7 23 3f 9b 23 f9 3e 14 00 39 be
       -0.040918484 0.6395135 0.48659977 -0.18066436
0002c0 a9 6a 37 3c 78 73 17 3b 7f 57 64 bc 92 6d 3c 3d
       0.011194863 0.0023109596 -0.013936876 0.046002932
0002d0 51 a1 11 3f 02 8d 01 3f 7f cf 90 bc 6d 67 4e 3e
       0.56886774 0.50605786 -0.017677067 0.20156641
0002e0 ee 52 1d bf ed 34 f5 bd d3 78 8a be 8e 6b ac bf
       -0.61454666 -0.119729854 -0.27045307 -1.3470323
0002f0 2a 9f 2e bf ca cc 97 3e db f6 20 3e 27 66 04 bf
       -0.68211615 0.2964843 0.15719168 -0.5171837
000300 ad 93 ac bd d4 13 47 3f 1f 17 af 3e ae 12 f1 bd
       -0.084266044 0.7776463 0.34197327 -0.11771141
000310 80 d7 c8 37 60 d2 29 3d 00 38 7e bd e0 52 91 39
       2.3942208e-05 0.041460395 -0.062065125 0.00027718302
000320 76 d5 43 be 4e 3c d1 3f a7 59 44 3e c1 c7 20 bf
       -0.19124398 1.6346529 0.19174825 -0.628048
000330 c7 c7 00 3e 8c c1 c2 3d 19 2b 9a 3c 23 ed 81 3e
       0.12576209 0.095095724 0.018819379 0.25376233
000340 5f 58 59 3f 7a 18 21 3d e1 f9 ff 3d 6e 01 08 3d
       0.8490047 0.039329983 0.124988325 0.03320449
000350 5c 2c a5 bb cd 1e a5 bd 33 1e 70 be c0 fb 63 3d
       -0.0050406884 -0.080625154 -0.2344902 0.05566001
000360 f7 7f 9b 3d b6 ce 13 bb 70 c9 68 3c c3 ea 87 3d
       0.07592767 -0.002255363 0.014208183 0.06636574
000370 27 9a 31 be 1a 12 be 3f 4d 37 23 3e 29 e3 25 bf
       -0.1734396 1.4849274 0.15939064 -0.64799744
000380 41 9e 14 3e f6 ce b3 3c 13 e6 5e 3d 55 82 5b 3e
       0.14513494 0.021949273 0.054418635 0.21436436
000390 c8 26 84 3f 8f ee 24 3d 94 7a 68 be d6 f2 4d 3d
       1.0324335 0.04026657 -0.2270301 0.050280415
0003a0 3e 72 df 3c 7f 3a 6d bc 0f c6 90 be f0 b5 aa bd
       0.027276155 -0.014479279 -0.28276107 -0.08335483
0003b0 11 97 69 3d 8c eb 6b bd 3b b7 8a bc da 77 5b 3d
       0.057028834 -0.057597682 -0.016933074 0.053581096
0003c0 f3 1a 4e bf d2 64 38 be 67 b6 68 3e 00 8a ba 3c
       -0.8050987 -0.1800721 0.22725831 0.022770882
0003d0 51 cd d9 3d 87 fb 17 be 3f 8f 3f 3d 7d 82 56 bd
       0.10634864 -0.14842044 0.04676747 -0.052370537
0003e0 be de 49 3e dd b3 0d be 2c 12 17 3c d4 19 b1 3a
       0.19713876 -0.13838144 0.009220641 0.0013511726
0003f0 51 69 96 bc a5 29 da be 2a 3f 02 bd a5 bc d3 3d
       -0.018360766 -0.42609897 -0.03179852 0.103387155

v.net.0.bias f4 [64]
000000 e1 b9 85 3f ec 60 30 3f 83 89 37 be ee 50 06 bf
       1.0447351 0.6889789 -0.1792355 -0.5246724
000010 71 22 d5 be a8 dc aa 3c b0 fe 3f 3f 0d 5e 84 3f
       -0.4162784 0.02085717 0.74998 1.0341202
000020 a6 17 6f 3d bd b8 1a 3e 20 be d2 3f ab fd ba be
       0.058372162 0.15109535 1.6464272 -0.36521658
000030 c3 62 85 bf e6 17 8c bb e4 bc 31 bd 58 6e 7e 3f
       -1.0420765 -0.00427531 -0.04339303 0.9938712
000040 c0 04 9b 3e b9 f5 be be fe 60 a1 3d 36 43 20 3f
       0.3027706 -0.37296847 0.07879828 0.62602556
000050 2e d3 c5 be 14 1b be 3f ba 6a 97 3e 38 32 67 bf
       -0.3863768 1.4852014 0.29573613 -0.90311
000060 80 c6 8a 3f a9 a1 b5 3f ae 33 a6 3f cc 7b 88 3f
       1.0841827 1.418996 1.2984521 1.066278
000070 9c 32 8f 3f 0a 83 3f be 02 bd 07 bf 6c 80 c1 bf
       1.118732 -0.18702331 -0.5302278 -1.5117316
000080 8c 29 2f be e2 ce 8d bf aa 92 8a 3e 17 54 24 be
       -0.17105693 -1.1078761 0.2706502 -0.16047703
000090 f2 ec 3e 3f 26 1f 84 3d 54 2b 21 bd f4 3b 0e 3f
       0.745803 0.064512536 -0.03934796 0.5556023
0000a0 79 5b a1 be c4 95 54 3f f0 3b 24 bf c6 52 a4 3d
       -0.315151 0.83041024 -0.6415396 0.080236
0000b0 3c af 45 be 5e 62 a8 bd 83 6a af be 4a 94 93 bd
       -0.19305128 -0.08221887 -0.3426095 -0.07206018
0000c0 ff f1 c5 bf ab 0a fb 3d fa e3 47 bd 53 9f 5d 3f
       -1.5464476 0.12257894 -0.0488014 0.86571234
0000d0 50 d6 0b bf 7c 5e 89 be 0d c2 52 3e 3d b1 01 3d
       -0.5462389 -0.26829898 0.20581837 0.03166317
0000e0 f4 9a a1 3f d2 80 83 3f fe a2 d4 be 2b 09 2f 3e
       1.2625413 1.0273688 -0.41530603 0.17093341
0000f0 7c ac 0c 3e 59 c6 5b 3f a1 98 c5 be a7 e8 95 3e
       0.13737673 0.8584953 -0.3859301 0.29279062

v.net.2.weight f4 [64, 64]
000000 07 bb 12 be 98 15 d1 bd 2e 38 08 3e 72 90 1e 3e
       -0.14329158 -0.10209197 0.13302681 0.15484789
000010 63 f9 0a bf 84 2e d2 3e ad 78 29 be 33 c1 05 3e
       -0.54286784 0.41051114 -0.1654994 0.13061981
000020 bb 74 ad bd e3 14 90 3c 6d 62 e4 3d c1 08 29 3f
       -0.0846953 0.017588085 0.11151586 0.6602898
000030 e7 f1 be 3e d4 fd a7 be 66 a2 08 bf 59 8d 8f 3e
       0.37293932 -0.32810843 -0.533728 0.28037527
000040 04 5e 93 3d 74 4a dd 3d ff f8 f2 3e 20 44 94 3a
       0.071956664 0.108052164 0.47455594 0.0011311807
000050 4c 32 68 3d c6 9b ed be f7 25 71 3e 0f c9 ca bd
       0.05668859 -0.46407908 0.23549639 -0.0990163
000060 d9 81 6b 3e 95 2c a3 be 38 3b 4a bd aa 03 92 3d
       0.22998752 -0.3186995 -0.04937288 0.07129605
000070 35 ec 86 bc 96 e9 48 be ce 5c d5 3e 9b 78 b6 3e
       -0.016470054 -0.19620356 0.41672367 0.3563889
000080 e1 06 da 3c 3a 75 b2 bd 1e ff 89 bd f9 d2 0d 3e
       0.026614608 -0.087137654 -0.06738113 0.13850011
000090 67 b6 90 3d 98 e2 46 3e 2f 7e 96 3d 23 c0 9d bd
       0.070660405 0.19422376 0.07348286 -0.07702663
0000a0 34 1f 9f 3d 72 40 7c bc 4a d3 63 be a1 27 36 3f
       0.077696234 -0.015396224 -0.22248569 0.7115422
0000b0 92 a1 66 3d e6 48 ce 3c 83 84 2d 3e ca fe 89 3e
       0.05630643 0.025181245 0.1694508 0.269522
0000c0 04 42 ad bd 2c 1c 39 3e 8a f8 32 be 47 1a 73 3e
       -0.08459857 0.18077153 -0.17477623 0.23740493
0000d0 cc dd be be 04 c1 4b 3e 0b aa 51 bc 64 5d 72 3e
       -0.37278593 0.19897848 -0.012796889 0.23668438
0000e0 33 0d 31 3e f2 2a bd 3e 23 4b 7e be 2b 88 0a 3e
       0.17290191 0.36946827 -0.2483335 0.13528506
0000f0 b6 60 06 bf 55 65 67 be 26 ac 08 bf 63 16 a3 be
       -0.5249132 -0.22597249 -0.5338768 -0.31853017
000100 36 36 4e bd 32 26 fc bc 37 cb bf 3d 78 df e8 be
       -0.05034467 -0.030779932 0.09364932 -0.45482993
000110 a5 bf 84 3e c0 c1 28 bf 3a a8 aa bd ce 9e 27 3e
       0.25927463 -0.6592064 -0.08332868 0.16369173
000120 3d 93 ac be 8a 06 94 bd a6 13 c6 3d b6 b8 d7 be
       -0.33706084 -0.0722781 0.096717164 -0.4213311
000130 77 30 d6 3e 4f 3d ac be 7c ca 90 3e 10 1b 61 bc
       0.4183385 -0.33640525 0.28279483 -0.013739362
000140 ed dc 1b 3d 55 33 67 3d 11 55 ba be 55 5e e6 bd
       0.038052488 0.05644544 -0.36393026 -0.11248461
000150 63 36 b2 be 96 a7 b0 bb 03 e7 fe bd 8b bf 27 be
       -0.3480712 -0.0053910716 -0.12446406 -0.16381662
000160 c3 d8 6e be 10 1e 91 3e 8a 65 20 3d 57 df 99 3d
       -0.23324876 0.28343248 0.039159335 0.07513302
000170 c8 a3 9f 3e ac f7 f6 bb 58 52 97 be 5f e7 07 be
       0.31179643 -0.007536849 -0.2955501 -0.13271855
000180 14 c9 f2 bd 00 6f 46 be 5f a8 c4 be 3d 7f 25 3d
       -0.11854759 -0.1937828 -0.38409707 0.040404547
000190 f9 c6 79 3d 20 3d c3 3a 94 03 41 bd f8 c0 42 3e
       0.06098077 0.0014895536 -0.047122553 0.19018924
0001a0 89 ba e9 3d 03 aa 23 bd 2d 61 92 3c 06 8c 80 bc
       0.11412532 -0.039957058 0.017868603 -0.015691768
0001b0 84 52 c7 3d 9a 7f d5 bd 3e 5c 9e 3e 13 f7 b6 3e
       0.097325355 -0.10424729 0.3092975 0.35735378
0001c0 2b 40 a6 3e 47 1c 51 3e f7 d7 81 bb b3 3f 6d bc
       0.3247083 0.20420943 -0.0039625126 -0.014480519
0001d0 29 d7 ab 3d d7 9a 33 be 67 41 ae bd 0b 58 e1 bd
       0.08390648 -0.17539535 -0.08508568 -0.11003121
0001e0 70 b3 07 be c1 a9 89 bd 0d 2a 99 3d ec 37 f7 3d
       -0.13252044 -0.06721831 0.07478724 0.12071213
0001f0 58 f0 0b 3f 03 e9 a7 be c0 d5 32 3c d9 2b 43 bb
       0.5466361 -0.3279496 0.01091522 -0.0029780774
000200 2e 4c 81 be 40 2d 48 be c5 62 8b 3e 91 94 f9 3d
       -0.25253433 -0.19548512 0.27223793 0.1218654
000210 f8 60 13 be b2 89 db 3a 4e b7 4a be 0b b5 b8 bd
       -0.1439246 0.001674941 -0.19796488 -0.09018906
000220 3e 15 cb bd 44 14 70 bd 70 87 b0 3e 12 a0 a2 3e
       -0.09916161 -0.058613077 0.3447833 0.3176275
000230 f9 c2 71 3e fa e6 bb be 6b 2f 92 be fd 41 b3 bd
       0.23609532 -0.3669966 -0.28551802 -0.08752821
000240 cc c7 9f bd d0 de 6a 3d 20 16 64 3e 36 42 53 be
       -0.0780178 0.057341397 0.22274065 -0.20630726
000250 2e 8b 27 3e b7 75 75 be e0 21 a6 3e 40 35 d2 bc
       0.16361687 -0.23970686 0.3244772 -0.025660157
000260 ef 97 d2 bd 3b aa bf bd 95 20 f1 bd 04 29 15 bd
       -0.10282885 -0.09358641 -0.11773793 -0.03641607
000270 e0 dd c8 bc 08 91 60 3e e7 95 1b 3e ce 75 10 3c
       -0.02451986 0.21930325 0.15193902 0.008817149
000280 f0 f0 b7 be 8c 0f f5 3d a8 c5 c5 3c e0 b5 0e 3e
       -0.35926008 0.11965856 0.024142101 0.13936567
000290 b2 42 34 be 23 e9 f4 bc 87 05 91 3d dc f6 47 be
       -0.17603567 -0.029896325 0.070811324 -0.19527763
0002a0 a8 5e ab 3d 59 35 09 be 3e a9 28 3e 7e 89 c0 3e
       0.083676636 -0.13399257 0.16470811 0.37604898
0002b0 0f cf 38 3e cb ca 8e 3d b0 39 fd 3d 47 9b 63 3e
       0.18047737 0.069722734 0.12364519 0.22227202
0002c0 af 88 fa 3b 20 c1 f5 3d 02 8e c0 3d a7 20 a0 bd
       0.0076456885 0.11999726 0.09402086 -0.07818728
0002d0 44 bd 75 bd e9 96 0a 3e 51 33 fc bd 8e b8 35 3e
       -0.05999495 0.1353413 -0.12314475 0.17746183
0002e0 f0 c9 58 be 51 6b fc bd 48 fc 31 3d bc 5e aa 3c
       -0.21170783 -0.123251565 0.043453485 0.020797126
0002f0 a4 41 ff 3d cb 03 35 be 9b 03 4f be 82 0c 3c be
       0.12463692 -0.17677228 -0.20216219 -0.18364146
000300 06 2e 1a 3d c9 ae d0 3d 32 39 62 be 90 1a 76 3e
       0.037641548 0.101895876 -0.22092131 0.2403357
000310 f3 38 68 be c0 63 d4 3e a5 c0 0f 3e c7 a7 16 3d
       -0.22677974 0.41482353 0.14038332 0.0367811
000320 f3 01 23 3e 3d 6c fa 3c f2 96 a4 3e e7 58 36 3e
       0.15918712 0.03056919 0.32146412 0.17807351
000330 04 cf bd bd 2f 70 18 3f 3e fd 1c bf 79 8b 4b bd
       -0.09268001 0.5954618 -0.61323917 -0.04969356
000340 5c 8f b7 bc 6a 93 ad bc 53 dc 26 3f 9d 0a 71 3e
       -0.022407226 -0.021188457 0.6517994 0.23539205
000350 91 11 d9 3e 7b 95 d2 be c8 6b 55 be 76 64 a9 3d
       0.42396215 -0.4112967 -0.20841897 0.082711145
000360 d8 03 05 3e 3f c8 a4 be b6 84 57 3d 40 3b 15 3e
       0.12989748 -0.32184026 0.052616797 0.14573383
000370 42 bd 96 bd a4 d0 b8 bd 5a 7e 9c 3e 80 e3 56 3e
       -0.07360317 -0.0902417 0.3056515 0.20985222
000380 92 31 65 3c 13 e5 60 3d af 7d 85 3e 8a f9 22 be
       0.013988869 0.054905962 0.2607245 -0.15915504
000390 6b 0c 0f 3e 62 e8 83 3a c5 3d b2 3e a0 16 3d 3e
       0.13969581 0.0010063762 0.3481275 0.18465662
0003a0 fd e2 39 3d 6d 9b 35 be 33 55 fd bd ac f8 19 3f
       0.04538249 -0.17735071 -0.12369766 0.6014507
0003b0 32 d4 bd 3c e2 da 19 3b f9 ee 99 3c ce a0 b7 3d
       0.023172472 0.0023476412 0.018790709 0.08966218
0003c0 15 29 84 3d 4d f9 9b bd 91 8a 8c be b8 82 a9 3e
       0.06453148 -0.0761591 -0.27449468 0.33107543
0003d0 42 40 0e be bf df 3a 3e 69 7f ac 3e 8b c6 f9 3d
       -0.138917 0.18249415 0.33690956 0.12196072
0003e0 7d df 8d 3d 86 d8 22 3e 00 42 74 be ba fe 7f 3d
       0.06927393 0.1590291 -0.23853302 0.062498786
0003f0 0e ee e4 be b4 3a 0d bd 81 2d a5 be 8c b8 88 be
       -0.4471287 -0.03447981 -0.3226128 -0.26703298

v.net.2.bias f4 [64]
000000 98 71 16 3f 4d 76 b9 be 73 53 0d bf aa 38 e9 3e
       0.5876708 -0.3622307 -0.5520546 0.45551044
000010 a7 fc b8 3d 0f d2 bb 3e 5a 22 10 bf 37 3f 09 3f
       0.090325646 0.366837 -0.56302416 0.53612083
000020 66 ec 25 3f d6 d0 8f 3e e9 c7 e8 3e 26 bd ed 3d
       0.6481384 0.28089017 0.4546502 0.11608343
000030 ee 1c 9d 3e c0 86 19 3f 0c dc 55 be 06 5f 4d 3e
       0.30686134 0.5997124 -0.20884722 0.2005578
000040 9a a5 e5 bd 3f d6 dc 3e d5 25 fa 3d 9a f9 23 bf
       -0.112132266 0.43132207 0.12214247 -0.64052737
000050 a3 b7 e5 3e 4f 5c 81 3e e3 bb 1a bf ff cd 9d 3e
       0.44866666 0.25265738 -0.6044294 0.30821225
000060 bb d8 d6 3d b5 af 06 3f 03 8a 3d bf 97 63 86 3e
       0.10490557 0.5261186 -0.74038714 0.26247856
000070 5b 52 f7 be d6 40 e1 be f5 0d 2e bf a5 86 82 be
       -0.4830502 -0.43994778 -0.67990047 -0.2549335
000080 bb 21 28 bf 20 9a de be 3d 6c 20 3f 39 e3 9a be
       -0.6567647 -0.43476963 0.6266516 -0.30251482
000090 b6 2d fc bd b7 f5 df be 2a e7 01 3f 8a 87 97 3c
       -0.12313406 -0.43742153 0.50743353 0.018497247
0000a0 b6 8d fd 3e a8 ce 26 3f fc 54 12 bf 74 3f f6 be
       0.4952218 0.6515908 -0.57160926 -0.48095286
0000b0 e3 10 c8 3e 15 6c cb be e7 c7 1f be e1 54 0c 3f
       0.39075384 -0.39730898 -0.156036 0.54817015
0000c0 42 ea 1c 3f b6 c9 34 be f9 1d 20 bf 01 ec f9 3e
       0.6129495 -0.17655072 -0.62545735 0.4881287
0000d0 3e 0a f0 3e f7 e3 bb be 4f f7 0c 3f a6 f7 26 3f
       0.46882814 -0.3669736 0.5506486 0.6522163
0000e0 b0 be 02 3f 71 07 9a 3d 39 56 3a bf 4f 45 e1 3e
       0.51072216 0.075209506 -0.72787815 0.4399819
0000f0 7b 4f 50 3f c0 87 25 bf 37 43 b6 3d 6d b3 86 be
       0.8137128 -0.64660263 0.08899539 -0.26308766

v.net.4.weight f4 [1, 64]
000000 39 57 b3 bd 92 35 83 3d 6f 80 21 3e 20 3a a5 bd
       -0.08756871 0.06406702 0.1577165 -0.08067727
000010 24 7c 9b be bf 90 8b bd 6f 41 1e 3e 6d 0f 85 bd
       -0.3036815 -0.068147175 0.15454648 -0.06497083
000020 64 cd 46 be 50 6b 4c be ae b7 e7 bd ca 5a b6 bd
       -0.19414288 -0.19962811 -0.11314331 -0.089040354
000030 6d 21 76 bd 32 81 17 be a1 0c d7 3d 0d 17 26 be
       -0.06009047 -0.14795378 0.10500456 -0.1621973
000040 01 01 c8 3d 85 6a aa bd e3 e3 4f be 9c 70 10 3e
       0.097658165 -0.08321098 -0.20301776 0.14105457
000050 05 a1 46 be d0 1f a0 bd a1 3a de 3d df 04 98 bd
       -0.19397362 -0.07818568 0.10851026 -0.07422804
000060 e6 14 10 be f0 27 fe bd 3f 31 fb 3d 5b 41 81 be
       -0.14070472 -0.12409961 0.12265252 -0.25245175
000070 1d 8e 8b 3d e5 03 03 3e c0 1e 1c 3e cc d5 03 3f
       0.06814215 0.12794454 0.15246105 0.51498103
000080 38 e7 2b 3e e8 ce dc 3d bb 65 e5 bd d9 31 eb 3d
       0.16787422 0.10781652 -0.11201044 0.11484117
000090 30 ba d8 3d 89 e6 f0 3d a2 ee 25 be 7d a5 c7 bd
       0.105823874 0.11762721 -0.16204312 -0.09748361
0000a0 ec b9 4a bd 55 14 2e be a7 01 a2 3d b3 22 04 3e
       -0.049493715 -0.16999944 0.079104714 0.12903862
0000b0 56 dc 0d be 33 ad c1 3d d5 ac cd 3d a5 5a 2d be
       -0.13853583 0.09456863 0.10042731 -0.1692911
0000c0 b9 bd ab bd e3 68 9f 3d 2d 66 08 3e e5 ea 19 be
       -0.08385796 0.077836774 0.13320227 -0.15031011
0000d0 e2 57 ce bd 88 1b 13 3e 2e 5f 21 be 8f 6f 09 be
       -0.10075356 0.14365971 -0.15758964 -0.13421462
0000e0 18 b5 13 be da f8 fe bd 69 86 ea 3d a8 df 2c be
       -0.1442455 -0.124498084 0.11451418 -0.16882193
0000f0 55 77 4c be 87 e6 11 3e d4 37 d9 bd eb c8 b2 3d
       -0.19967397 0.14248095 -0.106063515 0.08729728
