experiments/07_control_structure_hypothesis/checkpoints/Attitude/ppo/2021-12-14__05-33-20/seed_00019/torch_save/model.pt (torch, 82448 bytes, 19 tensors)

obs_oms.mean f4 [40]
000000 7f 64 81 3e 42 d9 de 3b 86 46 82 3f af 49 c9 39
       0.25271985 0.0068008015 1.0177772 0.00038392606
000010 04 e6 1e b9 21 cf bc bb 62 3b 7f 3f 00 04 54 3b
       -0.00015153742 -0.0057619964 0.99699986 0.0032351017
000020 19 a4 7f 3a bb 54 27 bb 1f d5 8b ba 57 49 04 3c
       0.00097519305 -0.002553268 -0.0010668373 0.008074126
000030 8e 87 8c 3c 55 c3 1d bb 17 35 d0 bb 04 a1 91 bc
       0.017154481 -0.0024072726 -0.006353985 -0.017776974
000040 71 25 cb 3e df b1 ac bb 5f bd 2b bc 88 38 29 bd
       0.39677003 -0.0052702273 -0.010482161 -0.041313678
000050 c6 68 81 3e 5f 24 df 3b 89 45 82 3f 1a ca d4 39
       0.25275248 0.0068097557 1.017747 0.00040586368
000060 05 c3 1c b9 4e 12 bd bb ba 3e 7f 3f f5 ad 57 3b
       -0.0001494997 -0.0057700044 0.9970509 0.0032910083
000070 6a 07 66 3a 92 88 37 bb 8f d8 80 ba d6 c3 03 3c
       0.00087749085 -0.0028004986 -0.0009830164 0.008042296
000080 ef 55 8d 3c f5 4b 1f bb f8 b7 d0 bb 7a 62 91 bc
       0.01725289 -0.0024306749 -0.006369587 -0.017747153
000090 71 9c ca 3e 71 e1 97 bb ee e9 30 bc 51 f2 28 bd
       0.3957248 -0.004635029 -0.010797961 -0.041246716

obs_oms.std f4 [40]
000000 42 22 32 3e f1 f5 2f 3e 86 31 1d 3d b5 bd 42 3d
       0.17395881 0.17183663 0.038377307 0.0475442
000010 0e c8 47 3d 5a 14 15 3d ad 1b 42 3b c0 89 b8 3e
       0.04877477 0.036396362 0.0029618547 0.36042595
000020 d6 32 b5 3e f7 3e ed 3d cf 4c 2d 3f 41 63 2c 3f
       0.35390347 0.11584275 0.67695326 0.6733895
000030 fd 0a cb 3e 1d b4 5a 3d cb 07 64 3d 86 31 1d 3d
       0.3965682 0.053394426 0.055671494 0.038377307
000040 58 03 6c 3f 22 4c 37 3f 11 28 48 3f 7b a0 3f 3f
       0.921926 0.71600544 0.78186136 0.7485425
000050 16 33 32 3e d5 09 30 3e 72 c1 1e 3d 13 3d 41 3d
       0.174023 0.1719125 0.038758703 0.047177386
000060 96 49 46 3d ae 55 13 3d ec 4d 39 3b fc da b8 3e
       0.04841002 0.035970382 0.0028275205 0.36104572
000070 04 83 b5 3e d4 15 f0 3d b0 65 2d 3f f6 79 2c 3f
       0.3545152 0.117229134 0.6773329 0.673736
000080 c3 39 cb 3e 2c e7 5c 3d ac 30 66 3d 65 c1 1e 3d
       0.39692506 0.0539314 0.05619876 0.038758654
000090 d9 43 6c 3f 25 0d 37 3f 3b d3 47 3f 06 ad 3f 3f
       0.9229103 0.7150443 0.7805669 0.7487339

pi.log_std f4 [4]
000000 43 52 90 c0 43 52 90 c0 43 52 90 c0 43 52 90 c0
       -4.5100417 -4.5100417 -4.5100417 -4.5100417

pi.net.0.weight f4 [50, 40]
000000 66 7e 85 bd 12 e9 8d be ed 58 2b bc 96 e2 25 3e
       -0.06518249 -0.2771688 -0.010458213 0.16199717
000010 3b 6e 8d be 9b b6 51 be dc 04 14 be 87 77 9f be
       -0.27623162 -0.20479815 -0.14454979 -0.3114588
000020 69 ba 1a be 62 f9 b8 3d b4 05 11 be e3 4b 70 3e
       -0.15110172 0.09031941 -0.14162332 0.23466448
000030 de 15 a3 bd 35 84 00 be 79 77 79 be 9d ef ad bc
       -0.07963155 -0.12550433 -0.24361981 -0.02123242
000040 a0 81 ef bd 02 4c 82 be 81 6f 37 3e 5b 5b 9a bc
       -0.11694646 -0.25448614 0.17913629 -0.01884239
000050 80 11 fd bd f4 b4 96 be 16 32 20 3e 90 ee a0 3d
       -0.123568535 -0.2943493 0.15644106 0.07858002
000060 13 8d 14 be c7 46 8b bd c3 eb 09 be fc 0b c4 be
       -0.1450694 -0.06800609 -0.13468842 -0.38290393
000070 d4 d3 20 be 19 a4 e0 3d 3d 94 3f be 5f 12 c6 3d
       -0.15705806 0.10968799 -0.18708892 0.09671473
000080 c3 65 04 be f0 26 95 3d 90 ea bb be 6e fb 97 3d
       -0.12929444 0.07282817 -0.36702394 0.07421003
000090 af bf 8c bd e0 9a 00 bd ec 86 69 3e 6a 42 0b be
       -0.06872498 -0.0313977 0.22805375 -0.13599554
0000a0 6f f0 d4 bc 55 7a ed 3d f8 95 79 bd 4d 20 42 be
       -0.025993554 0.115955986 -0.060934037 -0.18957634
0000b0 dc dd 2f bd 8b a7 13 be b2 ce e8 bd 94 f6 85 3d
       -0.04293619 -0.14419381 -0.11367549 0.06541172
0000c0 7f 10 33 3e 33 70 e5 be 41 03 fe bd 83 f5 db bd
       0.17486762 -0.44812164 -0.124029644 -0.10740187
0000d0 6b 87 f0 3d 14 dd 01 3d 0b f7 d9 be 35 fc 95 3c
       0.11744579 0.031704977 -0.4257129 0.018308738
0000e0 d0 99 50 bd e4 31 7d 3e 53 8f d7 3d f1 5a b4 be
       -0.050927937 0.24726063 0.10525384 -0.35225633
0000f0 7a ab 56 3e 12 d3 b4 ba c7 1e 89 bc 27 3b 8f 3a
       0.2096385 -0.0013795814 -0.016738309 0.0010927663
000100 76 16 38 3e 4f 3f 3a be 25 33 0e be 98 fa 40 3b
       0.17977318 -0.18188213 -0.13886698 0.002944624
000110 7f a1 02 3e 42 33 86 be 06 e6 90 bd ae 4c 72 bd
       0.12756918 -0.26210982 -0.070751235 -0.05915516
000120 84 ed 21 be 79 8c 79 3d 5f 67 c0 be 29 b9 ab bc
       -0.15813261 0.06092498 -0.37578866 -0.020962315
000130 41 7d 82 be 57 16 83 3e 5b fc 52 3c f6 0d 00 3e
       -0.25486186 0.2560298 0.012877549 0.12505326
000140 ab e2 dd bd d8 0a 3e 3c ac 05 04 be a3 49 ba 3d
       -0.10834249 0.011599265 -0.12892789 0.09096076
000150 8e 25 51 3c 29 e2 bd 3d bd 18 8e 3d a1 4e c6 bd
       0.012765301 0.09271652 0.06938312 -0.09682966
000160 d7 e5 dd be 9b 10 04 bf 5c 42 f5 3a 40 e4 09 be
       -0.43339416 -0.5158784 0.0018711793 -0.13465977
000170 e7 f7 c7 3c 12 08 a9 3d bc ed f2 3c 01 4c 63 3e
       0.024410201 0.082534924 0.029654376 0.22196962
000180 59 32 f4 bd 3e 88 f2 bd 25 78 64 3e cf f3 7a be
       -0.119236656 -0.118423924 0.22311457 -0.24507068
000190 5f 04 a9 3d 68 42 bd 3d 64 86 63 be 3a d3 31 3e
       0.08252787 0.092411816 -0.22219235 0.17365733
0001a0 32 d1 4f bd e5 59 23 3d 07 27 0f bc 15 c1 51 be
       -0.050736614 0.039880652 -0.008737332 -0.20483811
0001b0 11 b5 ca be 29 01 19 bf 44 12 16 3e e4 33 37 3d
       -0.39591268 -0.59767395 0.14655405 0.04472722
0001c0 6b 1c e0 bd 7f 64 14 3e 93 8d 61 3b ca dc 85 3e
       -0.1094292 0.14491461 0.003441666 0.2614501
0001d0 0c 9a 4d 3e 11 aa 94 bc 5e 82 8f 3d 03 81 8f bd
       0.20078295 -0.0181475 0.070072874 -0.07007029
0001e0 b4 b7 3b be 93 e5 da 3d de 50 33 be 42 bd a7 3a
       -0.18331796 0.10688319 -0.17511317 0.0012797492
0001f0 81 66 1e 3d 99 d2 9b bc 19 44 33 3e 02 a0 a9 be
       0.038671974 -0.01902132 0.17506446 -0.3312989
000200 06 4e 35 be ea 3d fd bd c5 a1 86 bd b5 bc 24 3e
       -0.17705545 -0.12365325 -0.06573824 0.16087611
000210 b6 bb 15 bd 48 be 1c 3e 75 35 65 3e a6 a7 c3 3d
       -0.03655597 0.15306962 0.22383673 0.09553461
000220 56 fe 47 3e de bf 75 3d 64 08 65 3c 1f 2d 09 3e
       0.19530615 0.059997432 0.013979051 0.13396119
000230 58 e7 80 be a9 49 8b 3d c2 7c a9 3d d0 69 9a 3d
       -0.251765 0.06801159 0.08275749 0.075397134
000240 13 1a 26 3d c0 2c 2e 3d d0 1c 87 3d 97 c4 d6 bd
       0.04055221 0.042523146 0.065972924 -0.10486715
000250 74 de 05 be 87 f5 cd be 0b 40 e2 bc 48 d8 a9 bd
       -0.1307314 -0.40226385 -0.027618429 -0.082932055
000260 8a 01 1c 3e df d5 9c 3c f9 d3 65 3e 87 e3 a3 3c
       0.15234962 0.01914495 0.22444142 0.020005954
000270 54 e9 30 3d f8 d0 12 bd e4 61 4c be 57 37 d9 3d
       0.04319127 -0.03584382 -0.19959217 0.10606258
000280 cb 2d be 3b b6 51 44 3e 00 a1 35 bd d4 7e be bd
       0.005803799 0.19171795 -0.044342995 -0.09301534
000290 f4 e9 99 bd 92 e6 02 be d6 ba 0a 3e 1b f3 01 bd
       -0.07515326 -0.12783268 0.13547835 -0.031725984
0002a0 8e 5c 0a bd 1d 46 8e 3e af fe 10 bd e7 4a 77 bc
       -0.033779673 0.27787867 -0.035399135 -0.015093542
0002b0 71 70 4c be 47 9a ae 3e e6 71 28 3d 2f d7 92 bd
       -0.19964768 0.3410208 0.041124247 -0.07169949
0002c0 f8 fc 3a be 35 1b 5c be f5 df 7f 3d c5 46 b6 3e
       -0.18260562 -0.21494754 0.06246944 0.35600868
0002d0 ce 14 35 3c e2 d9 82 3d 97 a7 26 3e 91 e4 2e 3e
       0.0110523235 0.06389214 0.16274868 0.17079379
0002e0 c4 0a a8 bd a0 13 1d 3c 1a 40 cf bd 3a 90 a6 be
       -0.082051784 0.0095871985 -0.10119648 -0.3253191
0002f0 94 20 1e 3e dc c9 ba 3e bc a5 2c 3d c8 bd b7 bd
       0.15442115 0.3648213 0.042150244 -0.08971745
000300 f4 3d a4 3a 8d 8e 93 3e 22 a9 42 3d b9 d0 56 bd
       0.001253067 0.28819695 0.04752458 -0.052445147
000310 02 79 22 3e aa ef 3e be 04 ff ab be 62 88 1b be
       0.15866473 -0.18646112 -0.33593 -0.15188745
000320 a9 b9 98 3e bb 6a 57 bd a8 fc 18 be 70 ed 04 be
       0.29829147 -0.05259202 -0.1494013 -0.129812
000330 41 5a 6c 3d 48 d1 21 3d d1 06 08 be 23 47 60 bd
       0.05770326 0.039506227 -0.1328385 -0.05475534
000340 4b ef 84 3e a3 e0 17 3e 1b 1a 33 bd bd f2 d3 bd
       0.25963816 0.14831786 -0.043726068 -0.10349033
000350 09 86 23 bd b5 9c 2f be f9 ca 52 bd 45 b4 37 3e
       -0.039922748 -0.17149623 -0.0514631 0.17939861
000360 e3 a3 66 be bc f0 4f be 28 8e d0 be 75 f4 7e be
       -0.22523455 -0.20306677 -0.40733457 -0.2489794
000370 04 af 92 3e c3 46 61 be c2 e5 f1 bc fd 1d 44 3d
       0.2864915 -0.2199965 -0.029528502 0.04788016
000380 21 3a 09 3d 1a 38 17 bd 80 c6 f9 bd e6 d0 10 3e
       0.0335027 -0.036918737 -0.12196064 0.14142188
000390 89 f2 7c 3e 82 b2 22 be e3 37 8e 3c 30 25 03 bc
       0.24701895 -0.15888408 0.017360633 -0.008004472
0003a0 04 34 26 3d 39 d2 7b be f4 ef 4b be fb ba 4f 3d
       0.04057695 -0.24591912 -0.19915754 0.050715428
0003b0 3f 96 32 bd 93 25 28 3c 71 da 2c 3d d6 b2 3a be
       -0.043600317 0.010262865 0.04220051 -0.18232283
0003c0 31 78 e7 3e 17 18 36 3d 2b ee 9c bc 92 1d 91 3c
       0.45208886 0.044456568 -0.019156536 0.017714296
0003d0 10 58 0c 3e d6 b0 29 3e 4d c4 e7 bc 42 26 07 be
       0.13705468 0.16571364 -0.028291846 -0.13198188
0003e0 3e f0 3e 3e ef 4a 8b 3a 3f 3d 56 3e ea f5 34 bd
       0.18646333 0.001062719 0.20921801 -0.044179834
0003f0 9c 12 f9 bd 35 44 8c 3e bf 84 66 be 7b e6 fd bb
       -0.121617526 0.27395788 -0.22511576 -0.0077484227

pi.net.0.bias f4 [50]
000000 e1 7a 49 3e 86 13 6c 3b 72 92 96 bd 83 fb 93 3e
       0.19675781 0.003602238 -0.07352151 0.28902826
000010 86 52 42 bd 85 bf 09 bc b6 87 a9 3e 30 54 b0 3d
       -0.04744198 -0.008407478 0.33111352 0.086098075
000020 d5 e3 98 3d 45 18 a3 bd 34 34 8a 3e dc 12 d7 3d
       0.074653305 -0.079636134 0.26992953 0.10501644
000030 ca 5d 05 be 65 ab f9 3d 80 be b9 3e d5 76 04 3e
       -0.13024059 0.12190894 0.36278152 0.12935956
000040 41 78 d0 3d 42 68 66 3e 9c 03 8c 3c 53 96 af be
       0.101791866 0.22500709 0.017091565 -0.34294376
000050 7e c0 34 3d 5c d4 ae 3e 26 4c 8a 3e a3 18 23 3e
       0.044128887 0.34146392 0.27011222 0.15927367
000060 dd 2f 07 3d 08 7d 52 3e e2 1a fe 3e a5 6d 90 3e
       0.03300463 0.20555508 0.49629885 0.28208652
000070 5c 94 82 3d 4a ad 88 3d 95 48 cb 3e e7 4b 4b 3e
       0.063759536 0.06673677 0.39703813 0.19853173
000080 72 79 45 be de eb 7c 3e a0 de 4b 3d a4 87 b7 3d
       -0.19284609 0.24699351 0.04977286 0.08961418
000090 c2 30 33 3d d3 df e4 3c 98 5c 2f 3e 94 4d f9 3d
       0.04374767 0.027938759 0.17125165 0.12173
0000a0 26 35 bc 3e 16 a0 ce bd 3c e0 4f 3e cc 66 20 be
       0.367593 -0.10089128 0.20300382 -0.15664214
0000b0 e4 6c a2 bd 1b fe 9c 3e 91 17 86 be 93 48 f3 bd
       -0.079309255 0.30662617 -0.26189855 -0.11879077
0000c0 4f 31 71 3d e0 18 2c be
       0.058884915 -0.16806364

pi.net.2.weight f4 [50, 50]
000000 de aa 2f be 01 74 9b 3e ba 57 13 be 0d e1 3e be
       -0.17155024 0.3036194 -0.14388934 -0.18640538
000010 49 a9 48 bd a0 61 4e bd 95 a4 c2 3c 0c 2c ff 3d
       -0.048989568 -0.05038607 0.02376012 0.12459573
000020 5a c1 8d be eb 17 8d be 76 a9 67 3d 32 16 10 be
       -0.27686578 -0.2755731 0.056558095 -0.14070967
000030 ad d5 aa bd 00 50 95 3d 05 94 28 be 9a 36 0c 3e
       -0.08341537 0.072906494 -0.16462715 0.13692704
000040 fe cb 40 be 1e 87 01 3e ae a0 0e be 49 ca ec 3d
       -0.18827817 0.126492 -0.13928482 0.1156202
000050 14 48 0a 3e df c0 20 3c 51 ce 3c bd 74 55 3c 3e
       0.13504058 0.009811609 -0.046095196 0.18391973
000060 38 8b da 3d a8 ef 35 3d 0d 3b 73 3e 72 a8 0b 3d
       0.10671085 0.044418007 0.23752995 0.03409619
000070 0f c3 e7 bd 5b c0 7f bd b9 29 5e 3d 3f 88 03 3c
       -0.11316501 -0.062439304 0.05423901 0.008028089
000080 fc 9a 60 3e 80 ec ca 3d 30 9e 56 3e 33 c4 0d bf
       0.21934122 0.0990839 0.20958781 -0.553775
000090 c8 19 12 3e a3 f8 0d be 0e 98 1a bd a5 14 72 3b
       0.14267647 -0.13864379 -0.037742667 0.0036938575
0000a0 8a 8b 2f be 8c cd bf bd 70 61 7c 3d 80 72 f8 ba
       -0.17143074 -0.09365377 0.06161636 -0.0018955022
0000b0 8d a0 01 3e 3d 65 a4 3c 76 4f c0 3e 3b d3 85 be
       0.12658902 0.020067805 0.37560624 -0.2613772
0000c0 2d c4 36 3d 6d 97 0c bd fa 69 27 3e c5 04 ca bd
       0.04462068 -0.0343241 0.1634902 -0.09864191
0000d0 07 35 84 be 00 7d d4 bc e6 22 eb 3d 9d 35 85 be
       -0.25821707 -0.02593851 0.11481266 -0.26017466
0000e0 6d 0d 77 be e5 0d 4c bd 46 94 b1 bd 6e 24 89 bd
       -0.24126215 -0.04981794 -0.08670859 -0.066964015
0000f0 42 64 92 3e 06 0d 1d bd a1 d2 6b 3e 14 c4 1c 3e
       0.28592116 -0.0383425 0.23029567 0.15309173
000100 aa 1e 45 be d1 fb db 3d 1d 85 d5 bc 62 19 69 be
       -0.19249979 0.107413895 -0.02606445 -0.22763589
000110 a9 77 24 3e 92 f4 5d bd f9 f9 1c 3d 1e 06 ad 3e
       0.16061272 -0.05418832 0.03832433 0.3379373
000120 a6 df 21 bd 53 92 2f bd 65 dd 1d 3e 6f c2 33 3e
       -0.03951993 -0.042864155 0.15416487 0.1755464
000130 c7 2e 86 bd 00 68 02 be 95 87 ba bc 22 51 01 bd
       -0.06551891 -0.12734985 -0.022769729 -0.031571515
000140 34 3a ea 3d bb cd 38 3e 81 93 04 bf 55 8c 8f 3c
       0.114368826 0.1804723 -0.51787573 0.01752297
000150 3a 93 56 3e 9a 0a 17 be 8a 6e 02 be 75 3a 16 3e
       0.209546 -0.14750138 -0.1273748 0.14670737
000160 d4 89 2d 3e 7b ff 85 bc 33 25 94 bb 59 a2 26 3c
       0.16947109 -0.016357174 -0.004521036 0.010170543
000170 dc a7 03 be 05 db 32 3d 9a ab 78 bc 47 ba 82 3d
       -0.12857002 0.043665905 -0.015177632 0.06383186
000180 0c 06 10 be 23 fb 01 3e 08 f1 d0 3d 48 be 8b 3c
       -0.14064807 0.12693457 0.10202223 0.017058507
000190 59 38 65 3e 70 37 97 3c 0a bc 5b 3d 45 c9 56 bc
       0.22384776 0.018459052 0.053646125 -0.01310951
0001a0 84 9b d8 bd 0e 13 ee bb c9 22 e4 bc 6d f6 9c bd
       -0.10576537 -0.007265455 -0.027848618 -0.076641895
0001b0 49 13 84 bd 84 ee 1d be 3c e7 af be a5 4e a3 be
       -0.06448991 -0.15423018 -0.34356105 -0.3189594
0001c0 d0 44 27 be 97 d5 83 bc 49 0a 80 3d ff b0 87 bd
       -0.16334844 -0.016093059 0.06251962 -0.06625556
0001d0 7a fc 7c 3c c9 df 0c 3e 30 69 7d bd 44 0f df bc
       0.0154410545 0.13757242 -0.061867893 -0.027228959
0001e0 59 88 4a 3d 98 59 67 3d 10 49 a8 bc 7a 45 1c bc
       0.049446438 0.056481928 -0.020542651 -0.009538049
0001f0 a4 e6 ae be 73 ac 68 3e 6f d5 8f ba 9f 44 21 3e
       -0.3416034 0.22722034 -0.0010973642 0.15748833
000200 67 78 4f 3d c0 fc e9 3d b1 9a e9 3d ae 40 94 3d
       0.050651934 0.11425161 0.11406458 0.07238899
000210 31 5f aa bd e3 7a ee 3c 39 23 c9 bd ad 8a 00 be
       -0.083189376 0.029111331 -0.09821171 -0.125529
000220 ce bb c9 3c 6b eb 8f bd 54 92 82 3c e2 b9 a5 bc
       0.024625685 -0.07027324 0.015938915 -0.020230237
000230 72 d4 2c bd 04 b1 4c 3c de 92 4d 3e 11 a9 0f 3e
       -0.04219479 0.012493376 0.20075557 0.14029337
000240 f7 68 4f 3d d4 eb 0d be 89 29 29 3e 92 42 a9 bd
       0.05063721 -0.13859493 0.1651975 -0.082646504
000250 15 8b f6 3d 6c 0b 72 3e 98 70 2a bd d6 17 c3 3d
       0.120382465 0.2363717 -0.041611284 0.09526031
000260 4d 81 d5 3e f2 0d 2d be 8d 74 06 3e 1c a9 d5 3d
       0.4170021 -0.16899851 0.13130398 0.10432646
000270 b2 fb 85 bd 7b 35 00 3d 36 af 0d bd 03 e0 70 3d
       -0.06542148 0.031301003 -0.034590922 0.058807384
000280 ab fa 86 3d 9f 33 2c 3e 4e 17 0d be ff d2 27 3e
       0.0659078 0.16816567 -0.13778421 0.16389082
000290 0b 3f 09 be 0d 89 6f bd 23 62 1f 3d 63 ba 2d 3d
       -0.13402955 -0.05848031 0.03891195 0.04241408
0002a0 c5 e2 0d 3b 88 4d 83 3e 6b da 02 be 25 3e 0e be
       0.0021650058 0.2564509 -0.12778632 -0.13890894
0002b0 35 ed 0b 3e ac 25 4e bd 14 5a dc 3c ca 24 31 be
       0.13664706 -0.050328895 0.026898421 -0.1729919
0002c0 c4 3d f4 bd fb a2 72 3e 8d 75 33 3e d2 75 8f 3d
       -0.11925843 0.23694985 0.17525311 0.07004894
0002d0 a5 d3 57 be f8 95 eb be 79 5f 32 3e af 80 65 be
       -0.2107683 -0.46012855 0.17419232 -0.2241237
0002e0 fc 69 a1 3c b9 3e 2c 3e 7d 50 9c bd 58 ad 09 be
       0.019703858 0.16820802 -0.076325394 -0.13445032
0002f0 1f 82 a2 bc c8 77 2b 3e bf 6e 1c 3e 96 c6 5b be
       -0.019837437 0.16744912 0.15276621 -0.21462473
000300 34 4c 19 3e 65 3b b4 3d eb 1d 1b 3e 16 94 4e bc
       0.14970475 0.08800391 0.15148132 -0.012608549
000310 a5 67 06 3e 13 80 60 be 32 ff 8b bb 7f 78 90 3d
       0.13125475 -0.21923856 -0.004272365 0.07054233
000320 6c f0 65 3d c5 95 97 3d 3b e1 01 3d 14 d1 75 bd
       0.056137487 0.07401613 0.031708937 -0.060013846
000330 52 b3 49 3e 0e a3 43 3e e5 ac 6c bd 1d 49 7b 3e
       0.19697312 0.19105169 -0.057782073 0.24539609
000340 60 3b 0a be ae 94 09 3e 5f 6b e7 3d ac 70 3f bd
       -0.13499212 0.13435623 0.11299776 -0.04673831
000350 38 8d 3e bd 44 10 f0 3c f7 b9 8c 3d ac 4c 10 3e
       -0.046521395 0.029304631 0.068714075 0.14091748
000360 df f6 da bd 88 6d 26 bd 89 35 75 3c f4 b5 b4 be
       -0.10691618 -0.0406318 0.014966377 -0.3529507
000370 4d 8b 83 3d 54 c0 19 bd 85 ab 39 be c8 c1 9b bc
       0.06423054 -0.037536934 -0.18131836 -0.0190133
000380 83 af 14 3d ff 4c c4 3c f0 d1 d9 bc 70 e3 1f 3d
       0.036300194 0.023962496 -0.026589364 0.03903526
000390 18 81 56 bd 17 c3 a6 3d e6 a6 c1 bd 8a 34 5c 3e
       -0.052369207 0.08142679 -0.094556615 0.21504417
0003a0 79 46 73 be 76 50 aa bc b1 8d 08 be b1 85 d3 bd
       -0.23757352 -0.02079032 -0.13335301 -0.10328234
0003b0 63 68 3c 3e f2 a0 98 be b4 bf 3a 3e 2d bf 33 bd
       0.18399195 -0.29810292 0.18237191 -0.04388349
0003c0 39 40 6d bd 89 81 61 3e 15 1d 44 be c0 d3 0f bd
       -0.057922576 0.2202207 -0.19151719 -0.03511405
0003d0 8e 13 f5 3d e9 f8 4a 3e 4a 60 d8 be cb 94 c9 bc
       0.119666204 0.19821514 -0.42260963 -0.024607083
0003e0 cf 0a b6 bd 14 42 ca 3d f4 27 13 3e 85 52 02 be
       -0.0888878 0.09875885 0.1437071 -0.12726791
0003f0 04 b2 28 bf 87 54 37 be 29 2d aa bd f2 95 89 3d
       -0.6589663 -0.17903338 -0.08309395 0.06718053

pi.net.2.bias f4 [50]
000000 38 bd 8d 3c 05 b7 86 3e 1e 48 5f 3e f6 f3 31 be
       0.01730214 0.26311508 0.21804854 -0.1737822
000010 99 6f 35 be 5f f3 c4 3d 16 aa c8 bd 88 9a 8d be
       -0.17718352 0.09616732 -0.09798066 -0.2765696
000020 c6 a4 14 3c 45 1e 82 3e 36 95 63 bd 3c 48 95 3d
       0.009072488 0.2541372 -0.05556222 0.07289168
000030 b0 88 8f 3d 7d ff 1f 3e 4a 2a 03 3e 8c 0e 9c 3d
       0.07008493 0.15624805 0.12809101 0.07619962
000040 14 b4 4b 3d 94 a6 7f bc d8 a3 21 be 44 08 2f 3d
       0.049732283 -0.01560368 -0.15785158 0.042732492
000050 71 f3 40 3e 2d c0 0e 3e 8e 57 fe 3d 5d 75 50 bd
       0.18842866 0.13940497 0.124190435 -0.050893176
000060 ed 0e 58 3d ae 70 5a 3e d4 d0 54 3d 77 0e fa bc
       0.05274861 0.21332046 0.051956967 -0.030524475
000070 38 c8 7c 3e 32 1d 25 3e 0a 48 91 bc 25 c0 84 bb
       0.24685752 0.16124418 -0.017734546 -0.0040512257
000080 b6 43 c7 3d 65 34 1c 3e dc 1c 06 3e ea 4d 94 bd
       0.09729712 0.15254362 0.13096946 -0.072414234
000090 ba be 01 3e 62 07 8e bd b0 5d 5d bd de 47 a3 3d
       0.12670413 -0.06935002 -0.054044425 0.07972692
0000a0 6f ea 22 3e ca b8 ee 3c 2a 0e 0e 3d 97 8e 3c 3d
       0.15909742 0.029140849 0.034681477 0.04603442
0000b0 dd 0e 1b 3e 83 12 f4 bb 22 5a fa 3d 78 b4 ad 3d
       0.15142389 -0.007448496 0.12224223 0.08481687
0000c0 a1 7a cc 3d a2 46 11 3e
       0.09984327 0.141871

pi.net.4.weight f4 [4, 50]
000000 48 96 0d be 48 7a 4c be 13 ce 89 3e ed a8 7f be
       -0.13826859 -0.19968522 0.26915035 -0.24966784
000010 3d d4 78 3e 2f e8 64 be af e7 6b bd 0e c6 0b bf
       0.24299712 -0.22354196 -0.057593998 -0.5459908
000020 f6 4d 40 be 53 6a 57 3e b0 47 88 bd 06 9e ff 3e
       -0.1877974 0.21036653 -0.06654298 0.4992525
000030 08 57 c4 3e 23 a8 65 3e 05 e7 8d 3e 13 8b 54 be
       0.3834765 0.2242742 0.27715316 -0.20756178
000040 dd fd 84 3e 58 70 27 3d c2 bd 7d 3d 65 46 bc 3d
       0.25974932 0.040878624 0.061948545 0.09193114
000050 56 33 0d 3f 7c 1e 99 3e 27 d2 df 3d 3f ee d4 bd
       0.5515646 0.2990607 0.10928755 -0.10397004
000060 13 62 aa be 6b f8 a9 3e e6 3e 4e bd c6 4a 29 bd
       -0.3327795 0.3319734 -0.050352953 -0.041331075
000070 39 36 30 3e ad 30 61 3e cb 4b d5 bc 0d 5e a2 be
       0.17208184 0.21991225 -0.026037117 -0.3171238
000080 12 1b ec bd 38 46 9c 3e 08 a8 49 3e ae cb 32 be
       -0.11528601 0.30522323 0.19693005 -0.1746051
000090 36 74 2c be 6c ca 37 3e 37 09 fb 3c c4 61 d4 be
       -0.16841206 0.17948312 0.030644042 -0.4148084
0000a0 9e 3f 0b be d9 0a 67 3e 43 00 11 3e 95 48 d6 3d
       -0.13598487 0.22562732 0.14160256 0.10463063
0000b0 81 0b 5c bd 3f fb 5d be 91 c0 c5 bd a4 83 00 bf
       -0.05372191 -0.21677874 -0.0965587 -0.5020087
0000c0 65 21 85 bd b9 2f df bd 23 e7 ac be 68 fd 81 be
       -0.0650051 -0.10897774 -0.33770093 -0.25388646
0000d0 d8 91 f9 bd ec 08 e6 3d 11 34 3f be 74 14 dd 3e
       -0.121860206 0.112321705 -0.18672206 0.43179667
0000e0 b0 2f a8 3e a4 10 04 be c4 7b 86 3e 77 28 84 3e
       0.32848883 -0.12896973 0.262663 0.25812122
0000f0 39 bb 1e bb cc cc c3 3d 86 d9 e1 bd f2 df ce 3c
       -0.002422048 0.09560546 -0.110278174 0.02525327
000100 dc 2a 40 3e 1a 91 6f bd 44 48 19 3e 4c ee 89 3e
       0.1876635 -0.05848799 0.14968973 0.2693962
000110 2a 37 9f 3e b7 37 f7 3d 8f c9 03 be 56 ad af bd
       0.31096774 0.12071174 -0.12869857 -0.08577983
000120 1a b5 aa bd 63 0f b0 be 27 74 16 3e 21 93 b9 3d
       -0.08335324 -0.3438674 0.14692746 0.09061266
000130 6c db 92 3e 33 eb 38 be a7 92 d7 bd ef a6 3b be
       0.2868303 -0.18058471 -0.105260186 -0.18325399
000140 fb d0 3c 3d a5 d1 0e 3d 9d 8d a4 3d 82 1c 0c bc
       0.046097737 0.0348679 0.08034823 -0.008551719
000150 36 d3 70 3e 03 f6 9b bd 10 02 f2 be 39 97 d3 3e
       0.2351807 -0.076152824 -0.472672 0.4132631
000160 fa 78 fc 3d f9 ad 6a be d3 15 c7 bd ac 8a 89 be
       0.12327762 -0.22917928 -0.097209595 -0.2686361
000170 72 a4 7d 3e b1 09 68 be fd 0f 93 bc cd f1 84 3e
       0.24769762 -0.22659947 -0.01795196 0.2596573
000180 38 50 47 be ea 6b ce bd 5a a4 06 3e 04 19 ba 3e
       -0.19464195 -0.10079177 0.13148633 0.3634721
000190 5e 87 9b 3e d1 c0 00 bd 96 29 30 3e e4 d2 de be
       0.30376714 -0.031433884 0.17203364 -0.43520272
0001a0 b3 43 43 3e 5d 1d b2 be 97 0e c7 bc 9f 90 03 3f
       0.19068794 -0.34788027 -0.02429895 0.5139255
0001b0 49 2b 07 3e f6 79 d3 bd c0 91 bf 3e 17 3c 1b be
       0.13200106 -0.103259966 0.37415886 -0.15159641
0001c0 2d 59 30 3d c1 43 87 be be c5 92 3e 9d e3 72 3e
       0.043053795 -0.2641888 0.2866649 0.2371964
0001d0 13 18 61 3e f2 17 93 be b5 05 6a 3e e4 6c 4f 3e
       0.2198184 -0.28729206 0.2285374 0.20256382
0001e0 ff fb 84 be a3 09 6a 3e 8b 4c 7c 3e a1 40 15 be
       -0.25973508 0.22855239 0.24638574 -0.14575435
0001f0 00 97 23 3e eb 2b 8e 3d 6c dc 06 be 57 18 8e bd
       0.1597557 0.069419704 -0.13170022 -0.06938236
000200 57 10 82 bd 63 7a 37 3e 66 9b ae 3e 35 fe 3c be
       -0.06350773 0.1791778 0.34102935 -0.18456347
000210 d7 2e 63 be e2 e0 a0 be 23 1f d5 3e 7e d2 e1 3d
       -0.22185837 -0.31421572 0.41625318 0.11026476
000220 2b 90 03 3e aa f4 5e be 38 4a ce 3e 42 42 83 3e
       0.12847964 -0.2177302 0.40291 0.25636488
000230 c2 b5 30 be 19 d0 52 3e 9f e5 aa 3e 85 e8 69 be
       -0.17256835 0.20587195 0.33378312 -0.22842605
000240 ed 37 85 be 3e cd 1b 3e 50 90 92 be ab 9e a8 3d
       -0.2601923 0.15215012 -0.28625727 0.082333885
000250 fe ac 6a 3e 18 e5 df be ce db 9e 3e fe 5a 15 be
       0.22917554 -0.43729472 0.31027073 -0.14585492
000260 0c 73 4c 3e 66 ae 19 be 29 97 cd 3e b5 cd e5 bd
       0.19965762 -0.15007934 0.4015439 -0.11220876
000270 66 28 be be c3 d5 df bd 57 79 a9 be e8 fd 5a 3e
       -0.37140197 -0.10929444 -0.33100387 0.2138592
000280 7d c2 8a 3e 19 6f 43 3d 75 b0 a0 be 97 c4 9e bd
       0.27101508 0.047713373 -0.31384626 -0.0775234
000290 4f 25 4e be 3b 35 9a 3e 99 d7 be 3c 35 92 84 3e
       -0.2013142 0.30118737 0.023296164 0.25892797
0002a0 10 23 f6 bd f7 8d f3 bd 27 6c 2d 3e 39 6d 9d be
       -0.120184064 -0.11892312 0.16935788 -0.30747393
0002b0 6d c6 96 be a3 ba 17 3e bf a0 b4 3d 1f 8d 8b 3e
       -0.29448262 0.1481729 0.088197224 0.27256104
0002c0 d0 bf 8c 3e f6 e8 d3 3e 2e 51 a1 be f6 ee 8a 3e
       0.2749009 0.41388673 -0.31507248 0.27135438
0002d0 06 08 5c 3e 3a 6f b0 3e d3 a6 1d 3e 78 0f 07 be
       0.21487436 0.3445986 0.1539567 -0.13189495
0002e0 96 94 b8 bd 02 a6 86 be 34 8a 0a 3e b7 69 01 3f
       -0.090127155 -0.2629853 0.13529283 0.50551933
0002f0 9f 2a 87 3e ac b3 94 3d 46 d0 13 3c 9c 3e 83 be
       0.26399705 0.07260832 0.009021824 -0.25633705
000300 d1 35 0a bf 76 71 10 be e0 01 8a be 72 e8 d2 3d
       -0.5398837 -0.14105782 -0.26954556 0.10298242
000310 b0 7e 8b 3e 04 4e d7 be 12 da f5 be 25 0b 2b 3c
       0.27245092 -0.4205171 -0.48017937 0.010439669

pi.net.4.bias f4 [4]
000000 cc fe 95 bd 7a 5d f2 3d fe b8 12 be fc f2 a7 bd
       -0.07323989 0.118342355 -0.14328381 -0.082006425

v.net.0.weight f4 [64, 40]
000000 e2 d9 cc be 10 07 9f be e8 27 6b 3c c1 72 19 be
       -0.4000998 -0.31060076 0.014352776 -0.14985181
000010 62 08 80 be 4e c2 ed bd d4 67 c1 bc 96 2f 63 bf
       -0.25006396 -0.11609326 -0.02360908 -0.88744485
000020 79 e0 5a 3f 6b 19 28 3e 25 d6 61 3e 66 36 00 3d
       0.8549877 0.16415946 0.22054346 0.03130188
000030 14 ab 27 bd c6 19 28 3f 37 84 12 3e 21 25 43 be
       -0.040934637 0.6566433 0.14308248 -0.19057132
000040 ad 57 4f 3d 9d ad 81 bd 7d de 98 3d b0 e2 25 bd
       0.050620724 -0.06331942 0.07464311 -0.04049939
000050 7c ce 9c be 44 8e e3 be 4c 9b 26 3e 79 0c 03 bf
       -0.30626285 -0.44444478 0.16270179 -0.51190907
000060 99 db 21 be 24 d5 08 be 1e dc 69 3d 2d cb 35 bf
       -0.15806426 -0.13362557 0.057094686 -0.71013147
000070 3a 42 6e 3f cf 1f 07 3e b4 84 ad be f3 51 55 bd
       0.93069804 0.13195728 -0.33890307 -0.052080106
000080 db 66 28 bd 82 10 0f 3f 45 20 49 3e da fd 69 bd
       -0.041113716 0.55884564 0.19641216 -0.057126857
000090 da 4a 90 3c 0c 3a c4 bc 20 06 48 3d 8b e1 e0 bc
       0.017613817 -0.02395346 0.048833966 -0.027451297
0000a0 c6 f9 7a bf 3a c1 92 be 33 bf 5f be 88 c3 a6 be
       -0.98037374 -0.28663045 -0.2185028 -0.32571054
0000b0 3e dc c9 be 8b 53 ef bc fd d2 cf bd 36 d1 48 bf
       -0.39425844 -0.029214641 -0.10147665 -0.7844423
0000c0 49 36 80 3f e3 f4 bc bd 0a 44 47 3e 84 90 40 3e
       1.0016567 -0.09226396 0.19459549 0.18805128
0000d0 12 e1 03 3d a5 56 b8 3e 55 ac 22 bf 8f 2c 48 3a
       0.032197066 0.36003605 -0.6354421 0.0007636034
0000e0 26 21 b0 bd 1e 52 fd 3c 9e 54 97 bd 39 fa e7 bc
       -0.086000726 0.030922946 -0.07389186 -0.028317558
0000f0 36 79 7e bf a0 4e 58 be 04 3c 43 be 01 9d f0 be
       -0.99403703 -0.21123743 -0.19065863 -0.46994784
000100 3f e6 ca be 8c 1e e0 bb 02 9d fc 3d 90 f9 4c bf
       -0.3962879 -0.006839579 0.12334634 -0.800683
000110 2c c9 4d 3f 06 32 25 be c5 67 ac be 4d 87 84 be
       0.8038509 -0.16132364 -0.3367292 -0.25884476
000120 39 09 10 3d 35 5b ca 3e e7 c2 1d bf 2c 15 47 be
       0.035165045 0.3952271 -0.6162552 -0.1944167
000130 70 d1 8b bd bb 9d b2 3c f1 21 84 bd 2f 2e e4 bb
       -0.068270564 0.021803727 -0.06451786 -0.0069635133
000140 dd a7 42 3e 28 5e 08 3f 02 6c e5 bd 86 3b 30 3d
       0.19009347 0.5326867 -0.112022415 0.043025516
000150 50 fb 46 3c 3d c2 b4 3d 0b 26 d7 3c 0d dc b9 3e
       0.0121448785 0.088261105 0.026263257 0.36300698
000160 29 ce 3c bf 49 42 1d 3e b9 8e 1e be 12 05 b2 3d
       -0.73752075 0.15357317 -0.15484132 0.08692373
000170 61 39 73 3d ce 26 05 bd 1b bc b8 3d 8f ca 00 3e
       0.059380893 -0.03250771 0.09020253 0.1257727
000180 c4 3f e2 3d 94 b6 03 bd d9 83 04 bd 05 1d 68 ba
       0.110473186 -0.032156542 -0.032352302 -0.0008854422
000190 52 2c c3 3d 8d d1 c9 3e fd 69 2f be c7 d9 56 3e
       0.09529938 0.39417687 -0.17130275 0.20981513
0001a0 44 95 e8 bc e7 81 55 bd 88 3e f5 3a c3 56 ca 3e
       -0.028391488 -0.052125838 0.0018710652 0.3951932
0001b0 a4 43 39 bf bb 7d 1b 3e 82 5b 36 3e 32 9e 77 bd
       -0.72368836 0.15184681 0.17808345 -0.0604536
0001c0 5a fb ef bb d6 aa ea bd be ce b0 bc 5b cc 9c 3e
       -0.0073236646 -0.114583656 -0.021582957 0.3062466
0001d0 29 aa 67 3d a8 04 9a bd 23 95 5d bd 06 cf 0a 3d
       0.05655876 -0.07520419 -0.054097306 0.03388884
0001e0 3e cb c1 bd 59 1d 84 bf b2 92 31 bd bb bb 80 bd
       -0.094625935 -1.0321456 -0.04335279 -0.06285807
0001f0 5c f5 ca bd e2 ac 08 3d dd 1c a9 bb 84 38 ef be
       -0.0991008 0.033368 -0.0051609115 -0.46722806
000200 a2 87 74 3c d8 62 e1 3d 09 ec f9 3b f5 99 0b be
       0.0149249155 0.11005181 0.0076270145 -0.13632949
000210 a3 bf 9b 3c d6 1d 4a 3e 50 8b 6f be 96 a2 a2 bc
       0.019012278 0.19737944 -0.23392987 -0.019852918
000220 d3 ca aa 3c 58 50 16 bd 8d 66 c8 bc ab b2 f3 bc
       0.020848667 -0.036697716 -0.024462963 -0.029748281
000230 58 74 ec bd 35 26 79 bf 19 b9 ab bc 98 2f 82 bd
       -0.11545628 -0.97323924 -0.020962285 -0.06356734
000240 e1 b5 a4 bd c7 9c 36 bd 33 ba 1a 3e fc 8b b1 be
       -0.08042503 -0.04458311 0.15110092 -0.34677112
000250 03 df 1e 3e 97 e1 84 bc 06 6e cf bd 97 60 7c 3d
       0.1551476 -0.01622085 -0.10128407 0.061615553
000260 df e5 09 bc f6 87 d8 3d c2 f5 8d be d6 fc bb bd
       -0.008416622 0.105728075 -0.2772656 -0.09179084
000270 33 22 e4 3b cd 00 2c bd e4 32 3b bd 98 80 1b 3c
       0.0069620847 -0.04199295 -0.04570283 0.009491108
000280 6e a0 c2 3e ee aa bb bf 84 13 99 bd 60 33 e2 3e
       0.38013023 -1.4661539 -0.074744254 0.4417982
000290 ce a4 40 be 9b cc 00 3d 71 59 07 be 51 24 35 bf
       -0.18812868 0.031445127 -0.13217713 -0.7075854
0002a0 fd b4 66 bf 8e 7f b1 bd 23 db 45 be 71 51 77 3e
       -0.90119916 -0.08666907 -0.19321875 0.24152161
0002b0 12 a3 5e 3d 43 78 0e 3f 92 21 d3 3e b0 c3 9f bd
       0.054354735 0.55652255 0.4123655 -0.07800996
0002c0 21 fe 21 bc 23 06 0f 3d d1 43 1f 3d d8 e2 c9 bb
       -0.009887249 0.03491796 0.038883034 -0.006161075
0002d0 29 23 af 3e 63 e1 ad bf a4 72 1f be 93 af 90 3e
       0.34206513 -1.3584408 -0.15571076 0.28258952
0002e0 66 7d c6 be 77 97 37 3e 3a fe f4 bc 36 4f 37 bf
       -0.38767546 0.17928873 -0.02990638 -0.7160524
0002f0 1c e4 67 bf b3 9d a3 3d 9a 85 ae 3e be 05 8f be
       -0.9058244 0.07989063 0.34086305 -0.27934068
000300 7b 39 2f 3d 9d b2 17 3f 68 f6 e2 3e d8 23 c3 bd
       0.042779427 0.5925692 0.44328618 -0.09528321
000310 22 06 bb 3c 83 8a 28 3d e0 f4 18 3d fa dc ce 3c
       0.022830073 0.04114772 0.037342906 0.025251854
000320 53 0a 5e 3f a1 2e 8b 3e 36 66 e0 3d 77 67 27 3d
       0.86734504 0.27184013 0.10956995 0.040870156
000330 c7 8f 1c be 2e 00 07 3e 5d 40 83 3b 09 06 26 bf
       -0.15289222 0.13183662 0.0040054754 -0.6485296
000340 c2 a9 c5 be 4a f9 65 3d 88 72 b3 3c 1c f4 44 3e
       -0.38606077 0.056145944 0.021905199 0.19233745
000350 7e 70 96 bc 5c 18 08 3f e1 ef 99 3d 71 1a 2d 3e
       -0.018364187 0.5316217 0.075164564 0.16904618
000360 82 e9 8b 3d dd 5c 35 3d 3c 10 9a bd 94 cb bd 3c
       0.068316475 0.044278014 -0.07522628 0.023168363
000370 9d 5a 62 3f b0 aa 81 3e 45 5d d2 3d a1 fd 9e 3c
       0.88419515 0.25325537 0.10271696 0.019408049
000380 5c b6 d2 be 71 7e 7c 3e e6 de 5c bd ba 80 3d bf
       -0.41154754 0.24657609 -0.05392351 -0.74024546
000390 63 c4 79 be b2 10 af 3e e1 cd 8e 3d ff 07 81 be
       -0.24391322 0.34192425 0.06972862 -0.25201413
0003a0 f1 39 26 bc 29 7c 32 3f 77 f2 30 ba 67 e6 01 3e
       -0.01014565 0.69720703 -0.0006749997 0.12685548
0003b0 04 54 f9 3d 92 8b 05 3d 59 9e 4e bd 35 cb 87 3c
       0.12174228 0.032603808 -0.05044398 0.016576389
0003c0 9c be 2d 3f c4 aa dc 3e 95 a4 f1 bd 1a 87 09 be
       0.6786897 0.43099034 -0.1179897 -0.13430443
0003d0 52 35 5d 3d 47 3f a3 3d 21 bf 9d bd 47 ba 2c 3f
       0.05400593 0.079710536 -0.077024706 0.67471737
0003e0 2f 0f fc be 50 05 7a bd a2 73 c4 3d 8e 67 9c bd
       -0.49230334 -0.061040223 0.09592368 -0.07636939
0003f0 a9 ef 25 3d f3 5c ac 3c 05 09 08 bc ce 8b 1a 3c
       0.04051176 0.021040415 -0.008302932 0.009432746

v.net.0.bias f4 [64]
000000 79 bf b3 bd bc 3e 44 3e f8 f0 5c 3f 6a 18 9a bf
       -0.08776755 0.19164556 0.8630519 -1.20387
000010 3b f1 76 be f0 7e 58 3e 65 86 01 bf 1e d4 d5 3c
       -0.2411546 0.21142173 -0.50595695 0.026102122
000020 a4 aa 97 3c 90 02 7b 3f 26 ca 7a bd 18 5a bd 3c
       0.018513985 0.98050785 -0.06122794 0.02311425
000030 27 93 89 3d a2 cc 8d 3e 09 4b 63 3f 3a ea 3e 3e
       0.0671752 0.27695185 0.8878637 0.18644038
000040 af 92 90 bf f1 68 d9 be 1c 64 5e 3f 4c 03 18 bf
       -1.1294764 -0.42462876 0.86871505 -0.5938003
000050 2c 8a c8 be f4 5f d3 3f d8 aa 4b bf 1c 64 bb 3d
       -0.39167917 1.6513658 -0.7955756 0.09149954
000060 c9 60 bd bf cb 4b 36 3d ef 14 88 bf 8b 73 fe be
       -1.4795161 0.044505876 -1.0631388 -0.49697527
000070 19 6c 0b bf da 26 9a 3e d5 ab 81 bf 34 dc 12 bf
       -0.5446182 0.30107766 -1.0130564 -0.57367253
000080 ef 66 d6 bd 0e 4e 28 3d 92 99 b2 3e 26 ed ff be
       -0.10468852 0.041090064 0.3488279 -0.49985617
000090 7e 2a 27 bf 22 df 8b be b4 fd d0 be db d0 89 3f
       -0.6529921 -0.27318674 -0.4081856 1.0766863
0000a0 33 c2 7e bf 98 e7 1b 3e 3d d3 c6 3e 72 37 5f bf
       -0.99515074 0.15225065 0.38833037 -0.8719398
0000b0 99 39 e1 3f ee 53 06 3e 7f 12 b4 3f 3b d6 cf be
       1.7595702 0.13117954 1.4068145 -0.40593132
0000c0 f8 f4 35 be 47 2f 41 bf 85 af cc be 75 28 bf 3e
       -0.1776923 -0.75462765 -0.3997766 0.37335554
0000d0 db af cc 3e 1b fc 87 be d3 7c 5d be 6c 24 d7 bf
       0.39977917 -0.2655953 -0.21629648 -1.680799
0000e0 e7 8c 0e bf 43 c2 1b 3f 85 84 63 3f ef 17 32 3f
       -0.5568375 0.60843295 0.88874084 0.6956777
0000f0 85 04 a0 bf be 95 99 3d 0a a6 b9 bd 46 27 77 bf
       -1.2501379 0.07499264 -0.090648726 -0.965443

v.net.2.weight f4 [64, 64]
000000 5b 62 64 3d 52 c6 75 be 2c d8 0f 3e 5e 96 8f 3e
       0.05575786 -0.24001434 0.14047307 0.2804441
000010 0d ed 89 be 4e 9d ca 3d 41 61 0e be 15 34 13 be
       -0.26938668 0.09893285 -0.13904287 -0.14375336
000020 ff 60 cd bd 4b d4 40 be 60 1c 25 3f 78 95 95 be
       -0.10028266 -0.18830983 0.6449642 -0.29215598
000030 89 65 8f 3e 35 25 18 3f 6a 0c 83 3e 6f 88 17 be
       0.28007153 0.59431773 0.2559541 -0.14798139
000040 11 e2 65 be 9d 53 8f be a8 08 b9 3d 26 56 f3 3e
       -0.22449519 -0.2799348 0.09034854 0.47526664
000050 73 07 dd 3d f7 f9 6f bd 77 67 1a bd 61 71 49 be
       0.107924365 -0.058587994 -0.037696328 -0.19672157
000060 17 90 c5 be 03 83 7d 3d 10 a9 d8 bd 91 f2 e4 bd
       -0.38586494 0.06189252 -0.10579121 -0.11179078
000070 86 4c 50 be 25 2c 81 bb 01 39 c4 bd 64 94 59 be
       -0.20341691 -0.00394203 -0.09581185 -0.21248013
000080 d1 04 e5 3c 61 85 ea bc c4 87 8d 3d 28 2a df bc
       0.027956398 -0.028628053 0.06910661 -0.027241781
000090 09 47 60 3e 24 23 b1 3e 51 73 f4 3e a3 0d cd 3d
       0.21902098 0.34597123 0.4774423 0.100123666
0000a0 9a c7 55 be 40 c2 96 be 4b ed 9e 3d d8 44 ea bd
       -0.20876923 -0.29445076 0.07760104 -0.11438912
0000b0 18 06 da be a6 d6 8f bd b1 48 fa 3d 5b 64 44 be
       -0.42582774 -0.07023363 0.12220896 -0.19178908
0000c0 81 a8 f3 3d 21 6b f7 3d 75 f0 d9 3e 9a 87 78 3e
       0.11897374 0.1208098 0.42566267 0.24270478
0000d0 6e 28 31 3e af b3 ff be 0f 1f 9b 3d 7a bc ac bd
       0.17300579 -0.49941775 0.07574283 -0.084343866
0000e0 b8 e4 80 be 00 6c 6c 3e ca a9 1d 3d 51 9d e4 3e
       -0.251745 0.23088074 0.038492 0.44651273
0000f0 ea ba b0 3e b4 90 90 3e 26 8f 99 3e 46 cf 2e be
       0.34517604 0.282354 0.29992026 -0.17071256
000100 b8 be 9c 3e c9 71 a9 3e 9a b1 8e be 70 b7 58 bd
       0.30614257 0.33094624 -0.27869874 -0.052909315
000110 36 b7 26 bb 08 35 a4 be 4d 47 10 bd ab f7 2c 3e
       -0.0025438792 -0.3207171 -0.035224248 0.16891353
000120 5d 01 c0 bd bd 7d 2a be 12 9f c6 3b 53 04 b5 3d
       -0.0937526 -0.16649528 0.006061443 0.088387154
000130 d1 27 b3 3d 81 14 59 be 1a 89 7d be b5 fa 88 bd
       0.08747829 -0.21199228 -0.24759331 -0.066884436
000140 ce 29 92 3c 01 2f 06 bf d2 3e 46 be 17 13 71 3e
       0.0178422 -0.5241547 -0.19359902 0.23542438
000150 7a 5f bc bd 96 f8 49 3e 6d 7d 9a 3c 2c bc ae bd
       -0.09197898 0.19723734 0.018858636 -0.08531985
000160 06 8a 81 3e d0 38 e7 be bb 2a df 3c 54 92 97 3d
       0.25300616 -0.45160532 0.027242055 0.07400957
000170 d5 5a cf 3e f9 bc 98 3e 43 74 d2 3c ad 87 b7 bd
       0.40498987 0.29831675 0.025690204 -0.08961425
000180 33 ff 8a 3e 32 a9 07 3f 84 24 f0 bd 60 c0 ac 3c
       0.27147827 0.52992547 -0.11725715 0.021087825
000190 d7 bc 1e 3d f7 8c cd bd 8b 79 d3 be 67 fc ab be
       0.03875431 -0.100366525 -0.41303667 -0.33591005
0001a0 31 e6 4f 3e f6 de d9 3e 5f 58 a3 be 46 e0 9f 3d
       0.20302655 0.42552918 -0.3190336 0.07806449
0001b0 9b 96 14 be 90 a4 2a 3f 2c f7 9e be f0 0d 6a 3e
       -0.14510576 0.6665735 -0.31047952 0.22856879
0001c0 4b 63 3f bf 47 ac 09 3e f2 df ab be 2f 9d 08 bf
       -0.74760884 0.13444625 -0.33569294 -0.53364843
0001d0 40 2d 34 be 94 eb ab 3b db 22 8c be 00 29 89 be
       -0.17595387 0.005246589 -0.27370343 -0.26789093
0001e0 a1 d2 da 3e 34 05 f4 bd 9d 0a f2 3c ad 0d 80 be
       0.42738822 -0.11915055 0.029546076 -0.25010434
0001f0 d0 4a 6c 3e 7f cb 13 be e6 fa 0f be 13 fe 17 3c
       0.23075414 -0.14433096 -0.14060554 0.009276885
000200 13 d3 10 3e 4e 3c 47 be 80 79 d4 3d 95 03 19 3e
       0.14143018 -0.19456598 0.10374737 0.14942773
000210 0d 02 e1 be 32 88 47 be 00 e3 87 3e ca a7 cf bd
       -0.43946877 -0.19485548 0.26540375 -0.10139425
000220 19 38 c6 3e 52 ee aa be 84 5a 2a 3e 7d fe 8a be
       0.38714674 -0.3338495 0.16636091 -0.27147284
000230 ca 79 ac bd 20 d1 8d 3e 3f 60 33 be 57 9e e4 3d
       -0.08421667 0.27698612 -0.17517184 0.111630134
000240 71 16 bb 3d 10 61 71 3d bd 6a 34 bd 73 5b 91 3e
       0.0913514 0.058930457 -0.044047106 0.28390083
000250 fc 0a 61 3e 11 ed 54 3e 23 fc 0e 3e 79 96 1f bd
       0.21976846 0.20793559 0.1396337 -0.03896186
000260 a4 d8 ce 3d d7 28 b7 bc f6 4a e5 bd cf b4 1a 3d
       0.10099915 -0.022358341 -0.11195938 0.03777009
000270 12 2f 94 3d 5c 7f 34 be c4 af 28 3e 22 c2 be bd
       0.072355404 -0.17626709 0.164733 -0.09314372
000280 e9 39 1d 3e da 2e 21 be 3c a4 8c be de 89 d7 3d
       0.15354122 -0.15740529 -0.2746905 0.10524343
000290 8a 98 1f 3d 78 85 97 3e 3e 4d 75 3e 11 2c 6f be
       0.038963832 0.29594016 0.23955247 -0.23356654
0002a0 45 66 01 bd 32 c8 77 bd 41 21 b0 3e eb b7 32 bc
       -0.031591672 -0.060493656 0.3440037 -0.010908107
0002b0 10 a7 e6 bd 90 1c 26 3d 23 5b 1b be 9d e3 c9 bd
       -0.112623334 0.040554583 -0.15171485 -0.09857867
0002c0 b7 b5 98 3c 99 1a 37 3e 32 8d 8b 3e ea 12 9f 3e
       0.018641336 0.1788124 0.2725616 0.31069118
0002d0 0c 7f 82 3e 0f 78 16 bf ba f9 7e bd de 0a 6c be
       0.25487554 -0.58776945 -0.062249877 -0.2305102
0002e0 80 5a 5f 3e f2 6b cd bb ba 80 6a bd e6 49 e3 3d
       0.21811867 -0.0062689716 -0.05725167 0.110980794
0002f0 19 1d 5b bb 76 e4 47 3e 29 4a 62 3e 77 95 d2 bc
       -0.0033434092 0.19520745 0.22098602 -0.025706036
000300 4e 1d 91 be 03 0e 2a be 8c b6 89 bd ec 18 60 bd
       -0.2834267 -0.16606908 -0.06724271 -0.054711267
000310 b8 9f 71 3e 81 45 a4 3c b7 8d a2 bd 87 9a dc 3d
       0.23596084 0.020052673 -0.07937186 0.10771661
000320 46 f7 95 3e a5 27 f1 3b 9a 89 84 be ac 99 4b bc
       0.29290217 0.0073594623 -0.25886232 -0.012426775
000330 b7 f6 93 be 22 7f 00 3e 35 31 8b be 47 7e 38 3d
       -0.28899166 0.12548497 -0.2718598 0.045042302
000340 ae 7b 03 3e bb c0 e1 3d c7 de 74 be bc 29 34 be
       0.12840149 0.110230885 -0.23913108 -0.17594045
000350 11 b0 3d 3e 59 e8 90 be 1f 0f c1 bd 9d af 16 3e
       0.18524195 -0.28302267 -0.09426712 0.14715429
000360 2d d3 e3 bc 94 7c 93 3e 84 fe 98 3d 8a b6 2e be
       -0.027810657 0.28805983 0.0747042 -0.1706182
000370 d9 29 64 bd 84 ee 86 bd c5 31 ae 3c 62 21 a6 3d
       -0.05570397 -0.06588462 0.021263966 0.08111836
000380 bb ed 80 3d e2 1f a9 be 1c 03 7a 3e 48 3f bc 3d
       0.062953435 -0.33032137 0.24415249 0.091917574
000390 7a 87 92 bd c1 d4 15 3c 72 05 59 be cf bf 1a bd
       -0.07154746 0.009144963 -0.21193483 -0.03778058
0003a0 d7 66 48 bd 60 65 7f 3e 3f 1b 05 3d 03 9d 3a 3e
       -0.0489262 0.24941015 0.032496687 0.18223958
0003b0 38 0f 39 3e 68 55 f9 be 8f 12 78 3d 6d 6c 4a 3e
       0.18072212 -0.48697972 0.060564574 0.19767924
0003c0 ae d2 56 be 59 e3 bc bd 27 4a e3 be 01 af 18 be
       -0.20978805 -0.092230506 -0.4439251 -0.14910509
0003d0 28 c6 cc be 8f 9c 63 3e d2 32 0d be 09 d0 76 3e
       -0.3999493 0.22227691 -0.13788918 0.24102797
0003e0 a6 cd 4d 3e 65 fc c2 bd 25 e1 0a bc f5 07 7b bd
       0.2009798 -0.09520797 -0.00847653 -0.061286885
0003f0 32 8c f2 bd 24 6f 96 bd 08 fa fb bd db 8d 34 bc
       -0.118431464 -0.07345417 -0.12303549 -0.011020149

v.net.2.bias f4 [64]
000000 a4 23 1f 3f 90 8c 0a bf 0d 59 c7 be d0 b3 ce 3e
       0.6216376 -0.5412073 -0.38935128 0.4037156
000010 a2 21 a2 3e 9c f6 28 bf 8b 05 c1 3e ce 45 17 3f
       0.31666285 -0.66001296 0.3769954 0.5909089
000020 7c d6 f5 3e 8b 38 0c bf 98 f2 04 3f 2c 3b 45 be
       0.480152 -0.5477378 0.5193267 -0.19260854
000030 58 09 12 bf 5c 7e 04 3f db 84 6e be 74 ae 1a 3f
       -0.5704551 0.5175531 -0.23292868 0.60422444
000040 c8 69 19 3f 41 20 a9 be 88 aa 0a bf 23 b0 11 be
       0.59927034 -0.3303242 -0.5416646 -0.14227347
000050 b8 ce 11 3f fa 7e 29 bf 1d 52 16 bf d3 33 95 3e
       0.5695605 -0.66209376 -0.58719045 0.291411
000060 19 04 d4 3e 99 7f bc be 37 2a 85 be 9d 2b 05 3f
       0.41409376 -0.368161 -0.2600877 0.52019674
000070 06 76 c8 3e f7 db 2e bf aa 41 16 bf bb 38 f1 be
       0.39152545 -0.6830439 -0.58693945 -0.47113594
000080 89 30 31 3f ee 5f 6a be a5 66 24 bf 51 40 18 bf
       0.69214684 -0.22888157 -0.64219123 -0.5947314
000090 3c fa 8d be a6 fb cc 3e f9 27 02 3f 3b 63 01 bf
       -0.27729976 0.40035743 0.50842243 -0.5054204
0000a0 e1 d1 05 bf 7b c4 ab bd ac 0a ec 3e e8 55 32 3f
       -0.52273375 -0.08387085 0.46101892 0.6966233
0000b0 6d 93 ac be 3a 55 fd 3e 12 31 00 3f bb a4 4d 3e
       -0.33706227 0.49479085 0.50074875 0.20082371
0000c0 28 f7 df be 05 b4 a3 3e 49 08 40 bf 1d fc 13 3f
       -0.43743253 0.31973282 -0.7501264 0.5780657
0000d0 aa 9d f1 3e 22 14 ab 3e 25 85 fc 3e 65 89 05 bf
       0.471906 0.33413798 0.4932033 -0.5216277
0000e0 95 5e 02 bf 33 a7 a8 3e e9 a5 bd be dd 72 e7 be
       -0.5092557 0.32940063 -0.37040642 -0.4520482
0000f0 38 8b cb be 79 1f 22 3f 53 68 dd be b1 15 3e bf
       -0.39754653 0.63329273 -0.43243656 -0.7425185

v.net.4.weight f4 [1, 64]
000000 a6 60 ed bd d2 20 25 3e 06 95 64 3e 28 3c 7c bd
       -0.115907 0.16125801 0.22322473 -0.061580807
000010 47 64 62 be f9 2e 36 3e 3f da 78 be 82 e1 ed bd
       -0.22108565 0.17791356 -0.24302004 -0.11615278
000020 f4 d7 3b bd 6a 48 16 3e 26 48 23 be 1d 72 c2 3d
       -0.045860246 0.14676061 -0.15945491 0.09494422
000030 10 62 00 3e 97 5e c6 bd 33 80 0a 3e 80 3c be bd
       0.12537408 -0.0968601 0.13525467 -0.09288883
000040 b6 3a 59 be bc f6 34 3e a3 f5 27 3e 38 b5 35 3e
       -0.21213803 0.17672247 0.16402297 0.1774491
000050 f2 e6 64 be dc 90 16 3e 70 87 6b 3e 76 53 2b be
       -0.22353724 0.14703697 0.23000884 -0.16731057
000060 86 d6 0f be a4 f3 03 3e 16 d5 ad 3d 6f b3 9f bd
       -0.14046678 0.1288591 0.084879085 -0.07797896
000070 4f 75 9d bd 37 06 40 3e 6a 92 59 3e 65 00 c9 3d
       -0.076883905 0.18752371 0.21247259 0.098145284
000080 30 cd 4a be 7e 1e 34 3e 96 39 33 3e a2 4a c5 3d
       -0.19804835 0.17589757 0.17502436 0.09633376
000090 17 14 4b 3e b1 89 f3 bd 97 f2 3b be 18 89 ff 3d
       0.19831882 -0.11891497 -0.1835426 0.124773204
0000a0 de ec d2 3d 91 56 37 be cf 36 b5 bd 1d 10 2c be
       0.10299085 -0.17904116 -0.088483445 -0.16803022
0000b0 c2 bb a9 3e e8 a3 00 be 9a 54 ac bd 03 00 99 bd
       0.3315106 -0.12562525 -0.08414574 -0.07470705
0000c0 a8 9c 17 3e 92 70 ca bd 88 4a 52 3e 82 7a 33 be
       0.14805853 -0.09884752 0.20536244 -0.17527202
0000d0 bf 6c fe bd 8a d3 a3 3e d2 87 b0 bd 5f 74 30 3e
       -0.124230854 0.3199733 -0.08619656 0.17231892
0000e0 af 4b ea 3d 4f 75 57 3e e1 f7 85 3e e6 2f 1e 3e
       0.11440217 0.21040843 0.2616568 0.1544796
0000f0 b4 cf c9 3d 71 26 b7 bd 07 ca 24 3e dc b1 2e 3e
       0.09854069 -0.08942879 0.16092692 0.17060035
