experiments/07_control_structure_hypothesis/checkpoints/Attitude/ppo/2021-12-14__13-36-00/seed_00044/torch_save/model.pt (torch, 82448 bytes, 19 tensors)

obs_oms.mean f4 [40]
000000 7a 6b 80 3e ce b0 1c 3b 78 c4 82 3f e2 b6 39 3a
       0.25081998 0.0023909095 1.0216208 0.00070844416
000010 1a b9 45 39 2d 49 3b bc f7 19 7f 3f 77 53 8f ba
       0.0001885634 -0.011431021 0.99648994 -0.0010934909
000020 11 70 2a 3a 68 2c 91 ba 39 ee a9 ba c5 08 cd 3b
       0.00065016845 -0.0011075856 -0.0012964673 0.006257149
000030 eb fe e9 3b b7 57 80 ba f9 e9 32 bb 37 1c b1 bc
       0.0071409843 -0.0009791766 -0.0027300103 -0.0216199
000040 ea 24 2b 3e fd 7a ec 3b f0 3a bd bb 93 9e 10 be
       0.167133 0.00721681 -0.005774848 -0.14122991
000050 0f 6a 80 3e 35 1b 1d 3b fc c3 82 3f d9 83 39 3a
       0.25080916 0.0023972515 1.021606 0.0007076837
000060 57 48 4a 39 b0 a8 3b bc 98 1d 7f 3f 96 c6 8f ba
       0.0001929117 -0.011453792 0.9965453 -0.0010969217
000070 5f 86 30 3a a5 15 a7 ba 83 8d aa ba 19 58 cc 3b
       0.000673389 -0.001274754 -0.0013012144 0.006236088
000080 de 00 ee 3b db b2 7f ba 0a 1c 33 bb 61 ff b0 bc
       0.007263287 -0.00097541296 -0.0027329945 -0.02160615
000090 67 65 29 3e cb 0f f1 3b 2e ad c0 bb 59 05 11 be
       0.16542588 0.007356619 -0.0058800196 -0.14162196

obs_oms.std f4 [40]
000000 9a dc 37 3e db 74 2e 3e b8 66 40 3d 6f 78 4e 3d
       0.17955247 0.17036764 0.04697296 0.050407823
000010 77 db 52 3d f3 03 29 3d 97 01 59 3b 8e bc bb 3e
       0.05147883 0.041263532 0.003311252 0.36667293
000020 cc 97 b2 3e 3b 07 0d 3e 5a 11 64 3f 3c 4e 5b 3f
       0.34881437 0.1377229 0.89088976 0.8566625
000030 ad 17 f8 3e 99 53 72 3d 7e 5f 5f 3d 0d 67 40 3d
       0.48455563 0.059161756 0.054534428 0.046973277
000040 17 60 8b 3f 3a b1 3b 3f 1d f2 3b 3f a2 13 26 3f
       1.0888699 0.733173 0.7341631 0.6487371
000050 ed fa 37 3e 0a 86 2e 3e 97 21 42 3d 79 e3 4c 3d
       0.17966814 0.1704332 0.047395315 0.050021622
000060 a6 53 51 3d e4 69 27 3d 80 00 51 3b 79 14 bc 3e
       0.051105164 0.04087247 0.0031891167 0.3673437
000070 4e f1 b2 3e a6 62 0e 3e de 59 64 3f 36 90 5b 3f
       0.34949726 0.13904819 0.89199626 0.85766923
000080 9a 8c f8 3e ea b7 74 3d 02 e7 61 3d a2 21 42 3d
       0.4854477 0.059745707 0.055151947 0.047395356
000090 89 85 8b 3f c5 44 3b 3f 89 86 3b 3f 96 23 26 3f
       1.0900127 0.7315181 0.7325216 0.6489805

pi.log_std f4 [4]
000000 43 52 90 c0 43 52 90 c0 43 52 90 c0 43 52 90 c0
       -4.5100417 -4.5100417 -4.5100417 -4.5100417

pi.net.0.weight f4 [50, 40]
000000 b0 f7 23 bd 63 89 f3 bd 41 0b 3d be 50 fa 95 be
       -0.040031135 -0.11891439 -0.18461324 -0.29292536
000010 c3 c1 99 bd c7 80 d8 bd 4a eb d2 bd bc 6c c6 be
       -0.0750766 -0.10571437 -0.10298784 -0.38754833
000020 06 fa bf 3e 86 06 2b be 13 6c 3f 3e 14 46 85 3e
       0.3749544 -0.16701707 0.18693571 0.26030028
000030 29 7c a5 bd 0a 8d 0f bd 1d df 21 be ae 74 6a 3e
       -0.08080322 -0.035046615 -0.15807767 0.22896072
000040 cf d3 94 3d 20 dd 29 3e 02 7b 11 3e 20 0d 9e bd
       0.07266962 0.16588259 0.1420708 -0.07717347
000050 ec 7d 46 bd a8 22 37 bd b4 31 1a be 5c 77 60 be
       -0.048459932 -0.044710785 -0.15058023 -0.21920532
000060 ab 56 f0 3c 68 bb 46 bd 93 9d 1b 3e e3 7f 8f be
       0.029338202 -0.04851857 0.15196829 -0.28027257
000070 03 4e d9 3e d1 71 d8 bc 5c 25 14 3d 63 44 0c 3e
       0.4244233 -0.02642146 0.03616844 0.13697962
000080 13 17 8e be 74 a6 02 be 30 a9 81 be 88 b2 78 3e
       -0.2775198 -0.1275881 -0.25324392 0.24286854
000090 07 b0 fe 3d 4c 90 0a 3e 60 35 15 bd e6 8a ad bd
       0.12435918 0.13531607 -0.036427855 -0.084737584
0000a0 09 e4 6e 3e 6a 50 7d 3e d4 6e 87 be c9 6d ff bd
       0.23329176 0.24737707 -0.26451743 -0.12472112
0000b0 4b 67 98 bd 0b ee 70 be 3f 85 a0 3d 7b de 8f bd
       -0.074415766 -0.23528306 0.07837915 -0.07024857
0000c0 da ac f3 bd f4 cc 27 be 02 6b 22 3e fd ed 47 3d
       -0.11898203 -0.16386777 0.15861133 0.048810948
0000d0 87 11 5d be d3 5d b8 3d de 81 00 bd 8e a5 31 3e
       -0.21588717 0.090022705 -0.03137385 0.1734831
0000e0 40 27 d6 bd fa ae 5e 3e 70 48 05 be e7 6f f6 3d
       -0.10456705 0.21746436 -0.13015914 0.120330624
0000f0 34 39 03 3d ac 33 af 3e ff 44 29 be 2e f0 b6 bb
       0.032036975 0.3421911 -0.16530226 -0.005582831
000100 d0 94 3f 3d 4a d4 e7 bd 09 ec 99 bd d5 32 0b be
       0.046772778 -0.11319788 -0.07515723 -0.1359361
000110 2a 9d 4b bd eb f9 49 be 48 92 82 3d 11 db a8 3d
       -0.04971043 -0.19724242 0.06375557 0.082449086
000120 d8 c7 30 bd 9a 16 54 3e 5a 95 fc 3c a6 a4 19 3e
       -0.043159336 0.20711747 0.030832935 0.15004215
000130 81 6c a6 3d e4 4c 43 3e 29 80 a0 bc 6d 2f fb 3c
       0.08126164 0.190723 -0.019592362 0.030662263
000140 95 cb d4 be 7d 49 39 3e 39 2f ac bd 10 55 70 bc
       -0.4156157 0.1809444 -0.084074445 -0.014668718
000150 3c 05 a8 3e d3 85 a9 bd f1 1c 54 3e 37 21 eb 3d
       0.32816494 -0.08277478 0.20714165 0.114809446
000160 97 e8 4d 3e e2 59 d2 3e ca 28 03 3d 2b 0f 1b 3e
       0.20108257 0.410842 0.03202132 0.15142505
000170 78 67 1b be 00 74 48 be ad 9a 85 be 09 e3 65 bc
       -0.15176189 -0.195755 -0.2609457 -0.01403118
000180 47 e8 a6 bd fb c1 9b 3e cc 17 a2 be b0 6d 99 bb
       -0.08149772 0.30421433 -0.3165878 -0.004682265
000190 2d dc 69 be 85 f3 11 3e 2d e2 c7 3d 41 1e b7 3d
       -0.22837897 0.14253052 0.097599365 0.08941317
0001a0 f3 72 46 3e 34 9a 06 be c2 1e b0 3e 17 1e cb 3c
       0.19379787 -0.13144761 0.34398466 0.024794621
0001b0 3e 33 e2 3d 81 1e c2 3e 7d e2 be 3c 7a d6 e2 bd
       0.1104493 0.37913898 0.023301357 -0.110760644
0001c0 d7 06 da 3c 40 a2 14 be ad 09 04 bc ae c3 8c 3d
       0.02661459 -0.14515018 -0.0080589475 0.068732604
0001d0 dd a9 36 3c 69 2a db 3d a5 62 a5 3e dc 7a 28 be
       0.011148897 0.107014485 0.32301822 -0.16453117
0001e0 92 ec 03 be f0 ae ae bd 28 d5 e8 bd 35 20 85 bd
       -0.12883213 -0.085294604 -0.11368781 -0.06500284
0001f0 bc 80 2c be ef ad 3b 3e 26 ea ce bc 44 ee be 3d
       -0.16845983 0.18328069 -0.025258135 0.09322789
000200 24 ca 16 3e 97 14 5d bd 80 ac 69 3c de 58 ee 3e
       0.14725548 -0.053974714 0.014262319 0.46552175
000210 db da af bd 7e 2b 12 be e7 6b 5c 3e d8 6c b1 bd
       -0.08586665 -0.14274403 0.21525536 -0.086633384
000220 65 1a d6 bd 9d 38 86 3d 25 7e c0 3d 07 9d cf be
       -0.10454253 0.06553767 0.0939906 -0.4054949
000230 84 bd b4 be 63 cb 4b be 03 a5 e0 3d 4d 63 e4 3d
       -0.3530084 -0.19901805 0.109689735 0.111517526
000240 d0 13 aa 3c cf bc cc bc ac d0 a4 3d bf b9 22 3e
       0.0207614 -0.024992375 0.080476135 0.15891169
000250 34 ca 8c bd 01 c4 d6 bb 91 5c 46 bc 3f b7 54 3e
       -0.06874505 -0.006554127 -0.0121070305 0.20773028
000260 57 30 94 bd 98 19 16 bd 14 28 c0 3e 96 d1 40 3e
       -0.072357826 -0.0366455 0.37530577 0.1882995
000270 d3 3d a8 3d b1 ed 07 3e b6 4f 37 bd 4b a1 78 be
       0.08214917 0.13274266 -0.044753753 -0.24280278
000280 76 2d 84 3e c2 aa ba be 70 10 cc bd 0e ac 6f 3d
       0.25815934 -0.36458403 -0.09964073 0.058513694
000290 0e 2a dd 3d 73 29 99 3c 51 7a 89 bd 5f 0f 04 be
       0.10799037 0.018696522 -0.06712783 -0.12896489
0002a0 90 0b 3f be 74 0b 43 3d bd e6 42 bd 97 5d d9 be
       -0.18656754 0.047618344 -0.04758333 -0.42454216
0002b0 8d e6 89 bd d8 d3 94 bd d0 16 8e be 11 76 c1 bd
       -0.06733427 -0.072669685 -0.2775178 -0.094463475
0002c0 1e 27 75 3e ab 87 88 3d 15 ee 4d 3c e3 bf ad bd
       0.23940703 0.066665016 0.01256897 -0.08483865
0002d0 2c fd 0b 3e ac 6e a4 be 43 90 2f 3e 55 5c 7e 3d
       0.13670796 -0.32115686 0.17144875 0.062099773
0002e0 bb e7 49 bd 30 35 97 3d 65 2b f8 bd e9 db b5 3d
       -0.04929326 0.073831916 -0.12117652 0.08879835
0002f0 be fd f9 bc b4 82 b2 3d af 07 71 be ae 02 8a be
       -0.030516502 0.08716336 -0.23538087 -0.2695517
000300 ad 81 ae bd 1a 1a 0e 3d 8f c0 a5 bd 67 66 39 be
       -0.085208274 0.03469286 -0.08093368 -0.1810547
000310 a1 92 05 bd b1 b9 27 bd d6 17 4a be 0e 29 d3 bc
       -0.03261054 -0.040948573 -0.19735655 -0.025776412
000320 c5 6c a6 be 09 f1 55 be 4d 69 0a 3e 4c 05 2a 3d
       -0.3250486 -0.20892729 0.13516732 0.041508958
000330 c7 32 4a be 6f 61 17 3e ed fa 6b bc 34 a6 41 bd
       -0.19745933 0.14783262 -0.014403087 -0.047277644
000340 c1 24 73 be d3 a0 f7 bd 3d c3 4a 3e b3 44 95 be
       -0.23744489 -0.12091222 0.1980104 -0.29153976
000350 1b ed e4 3d 28 78 cc bc ba 03 a6 3d 1e df ed 3d
       0.11178037 -0.024959639 0.081061795 0.11614822
000360 fc b6 9f 3c 98 14 9e bb 10 be 99 3c 7a ba e0 bd
       0.019496433 -0.0048242323 0.018767387 -0.109730676
000370 16 7d a5 be d9 83 a6 bd 25 51 e9 3d 76 af 68 bc
       -0.32321995 -0.08130617 0.1139243 -0.014201989
000380 2b 14 1b be 71 56 b0 3b c4 d3 88 3b 6c cb 1f be
       -0.15144412 0.0053813984 0.004175635 -0.15604943
000390 c0 e0 5a bd 25 f2 8e be 6b be 47 3d c7 ad 87 be
       -0.053436995 -0.27919117 0.04876558 -0.2649977
0003a0 7f 80 d3 bd 64 d2 90 bc 46 90 ce 3d 0a df 9c bd
       -0.10327243 -0.017678447 0.10086112 -0.07659729
0003b0 d5 34 99 3e 16 44 80 3d bf 74 59 3d 81 a1 78 3d
       0.2992312 0.06262986 0.053089853 0.060700897
0003c0 7d a3 55 3e b9 49 95 3b f6 37 20 3d 38 64 fd 3d
       0.20863147 0.0045559076 0.03911587 0.12372631
0003d0 ec 9f 4f 3e 1e 86 cb 3d 22 0e 1c 3d 36 58 f7 3e
       0.20275849 0.0993769 0.038099416 0.48309487
0003e0 2f 3b 88 3e f6 93 11 be 6f 08 05 bc 62 f3 c1 bd
       0.26607653 -0.14216599 -0.0081196865 -0.0947025
0003f0 91 6e d0 3b ab c5 e2 bd 22 53 ab bd 8b 25 46 3d
       0.006360837 -0.110728584 -0.08365466 0.048375648

pi.net.0.bias f4 [50]
000000 bd 7f 20 3e 54 ee 9a bd d8 36 5e 3e 3c 7c 23 bb
       0.15673728 -0.07564989 0.21700609 -0.0024945876
000010 46 52 fa 3d e4 92 60 3e 6b 5d 3b be fe e9 aa bd
       0.12222724 0.21931034 -0.18297355 -0.08345412
000020 87 a5 78 3e 8a 4c 68 3d a9 4e 39 3e d0 1a 4f 3e
       0.24281894 0.05671362 0.18096413 0.20225072
000030 cf 3a b7 3e dc 0a 96 3e 10 fa 48 3e c7 ae d3 3e
       0.35787055 0.2930516 0.19626641 0.41344282
000040 2d 10 ab 3e d7 68 9c 3e de 73 48 bd 68 9b 00 3d
       0.3341078 0.30548736 -0.048938625 0.031398207
000050 63 e6 1f bb 4e 88 97 bd fa 73 24 3e 16 6a 81 3e
       -0.0024398796 -0.07399045 0.16059867 0.2527625
000060 8a 49 a5 3e 72 44 87 3e 44 42 a0 3e 1b 59 83 be
       0.32282668 0.26419407 0.31300557 -0.2565392
000070 90 1c 29 3e c9 c0 5a 3e 64 38 70 3e 26 bf 5c 3d
       0.16514802 0.21362604 0.23459011 0.05389323
000080 ba c2 f0 3d 7e 16 6f 3e d6 40 06 bf 98 96 91 3e
       0.11755891 0.23348424 -0.5244268 0.28435206
000090 d4 65 b5 bd 72 63 74 3e bd 2d 45 3e c6 62 7f 3e
       -0.08857313 0.2386606 0.19255729 0.24940023
0000a0 35 aa cf 3d e1 4e 9e 3d 6e 95 8a 3e e1 3e dc 3d
       0.10139886 0.07729889 0.2706713 0.10754181
0000b0 fb ac 43 bd b7 9f bf 3e 32 50 02 bc c9 41 dc bd
       -0.04777239 0.3742654 -0.00795369 -0.10754735
0000c0 6f 8c 92 3d 5b 7d b9 3d
       0.07155692 0.09057113

pi.net.2.weight f4 [50, 50]
000000 3c 5a ee bc a0 87 ea 3c 37 b1 91 3c 00 0f e5 bd
       -0.029095761 0.028629124 0.017784698 -0.11184502
000010 26 ff 38 3e 0e 67 3d 3e 6c de c2 3c 7a 94 19 be
       0.18066081 0.18496343 0.0237877 -0.14998046
000020 51 8f 0f 3e a5 a7 df bb 03 e6 b5 bd c0 44 92 3e
       0.14019515 -0.0068254047 -0.08881762 0.28568077
000030 6f 51 98 bd 8d 4e c9 3d 92 17 17 3c 41 9e 46 be
       -0.07437407 0.098294355 0.009221928 -0.19396307
000040 49 05 0f bf 01 2c 95 3e 0b 11 42 3d 48 8e 81 bd
       -0.5586744 0.29135135 0.047379535 -0.06325966
000050 fb 3f b3 bc 07 77 9e bd 57 5e 1b 3d 73 45 5f 3e
       -0.021881094 -0.077375464 0.037931766 0.21803837
000060 9d 29 29 3e c8 a6 12 be 86 61 29 3e d6 00 49 bd
       0.1651978 -0.14321434 0.16541108 -0.049073063
000070 81 ad 08 be 80 2f 90 3e ff 2f 28 3e fb ab 94 bd
       -0.13347436 0.2816124 0.16424559 -0.07259365
000080 3a dc 8e 3e cb a7 06 3e d0 0c 75 be 76 67 69 bd
       0.27902395 0.13149945 -0.23930669 -0.056983434
000090 71 2c 38 3e c3 5b 0b bf 59 0a 11 3e 3f 0e 04 be
       0.17985703 -0.5443689 0.14164104 -0.1289606
0000a0 e6 d9 ab 3b 92 aa 7f 3b 32 9a 4e 3c a2 dc 2b 3d
       0.0052444814 0.003901158 0.012610005 0.04195846
0000b0 84 78 94 3d ab 0c 8e 3e 06 85 45 be 0c db d0 bd
       0.07249549 0.2774404 -0.19289026 -0.1019803
0000c0 e9 c0 11 be 66 3d fd 3c 11 93 02 3e b0 51 a4 3a
       -0.14233746 0.030913066 0.12751414 0.0012536552
0000d0 28 a9 13 3b 0e 1b 84 be f0 72 50 3d 63 54 31 be
       0.0022531245 -0.2580189 0.050890863 -0.17317347
0000e0 08 69 a8 bc 94 38 2d be 2c 2c ef 3c 08 02 40 bd
       -0.020557895 -0.16916114 0.029195867 -0.046876937
0000f0 81 2a 54 be d3 4a 73 bc 80 20 2e 3e 18 10 79 be
       -0.20719339 -0.014849382 0.17004585 -0.24322546
000100 8f 4b e0 bd 47 5b be 3e d5 6b fe 3a cc df 67 3e
       -0.10951912 0.37179014 0.0019410799 0.22643965
000110 09 f5 0c 3e 03 61 74 3e be 1b c1 bd 2d 1c 31 be
       0.13765348 0.23865132 -0.094291195 -0.17295904
000120 65 55 7f 3e 8e 57 b1 be 98 e7 9c bc 97 f5 50 3d
       0.24934919 -0.3463711 -0.019153401 0.051015463
000130 69 d8 20 3e 17 d1 40 bd dc 24 17 3e 60 bf d3 bc
       0.15707554 -0.047074404 0.14760154 -0.02584809
000140 b9 e6 5a 3e 04 a8 a0 bd 0e 90 19 be aa 96 67 be
       0.21377076 -0.078445464 -0.14996359 -0.22616068
000150 f4 f7 29 3d 5b 0f 35 bd 33 bc 54 bd d9 3b f8 3d
       0.041496232 -0.044204097 -0.051937293 0.1212079
000160 4b 5f 89 3d 0f 57 28 3e 9d f6 61 3e 61 c8 9d bd
       0.06707629 0.1643946 0.22066732 -0.07704235
000170 fd 08 22 3e 43 f5 05 3e 9c 1c 35 3c 41 ad 12 3e
       0.15823741 0.13081841 0.011054184 0.14323904
000180 44 c3 84 bd 0d e1 e8 3d a0 9f ec 3d 0b 70 3d be
       -0.064825565 0.1137105 0.115538836 -0.18499772
000190 9f fe 88 3d 6b 02 bb bb e7 5a ff bd c6 58 70 bd
       0.0668919 -0.0057070754 -0.1246851 -0.05867841
0001a0 9b 20 44 3d 45 7b d4 bd c9 83 8e be 2c 79 8d bd
       0.047882657 -0.10375074 -0.2783492 -0.06907877
0001b0 d9 e5 65 3e 86 76 08 be 2f c8 1a 3e 6b e5 13 bd
       0.22450961 -0.13326463 0.15115426 -0.036107462
0001c0 02 67 08 3d b8 70 d8 3d ba 26 6f be d1 44 3e 3d
       0.03330136 0.105683744 -0.23354617 0.046452347
0001d0 c7 4e 00 3e 42 0f 83 3c ad 72 39 be 8a 39 81 be
       0.12530051 0.015998486 -0.18110152 -0.2523921
0001e0 3f 8e 92 bd 39 3d 3f 3d 34 38 84 3d cf 8c 0b 3e
       -0.071560375 0.046689246 0.064560324 0.13627933
0001f0 74 0f 20 3e 87 0c 8f 3e 0f a3 f9 3d c8 ab 1d bd
       0.15630895 0.27939245 0.12189304 -0.0384939
000200 36 6b 29 3e 08 a9 f2 bd 1f fe 05 be c5 21 ce 3b
       0.16544804 -0.118486464 -0.13085221 0.0062906467
000210 cf a3 44 bd 37 bf 45 be f2 90 87 3e 69 0d 5e bc
       -0.048007783 -0.19311224 0.26477772 -0.013553002
000220 31 60 0f 3e 94 b3 ef bd 60 6a 59 3d 11 a9 55 3e
       0.14001538 -0.11704174 0.053079963 0.20865275
000230 a4 14 ff bd 6b 22 87 bd 00 d4 d4 3c 4c 4d 2a 3e
       -0.12455109 -0.065983616 0.025979996 0.16631049
000240 c6 d7 61 3e ef c0 c0 3c dc 52 f1 3a f5 bc 58 bd
       0.22054967 0.023529498 0.0018411535 -0.05291458
000250 77 3c dc 3d d4 2f b5 3d f7 2a 1b 3e 55 94 b4 bd
       0.1075372 0.08847013 0.15153109 -0.088173546
000260 a2 94 0a 3e fa df f7 bd 3d 49 21 bc ee be ef bc
       0.13533261 -0.12103267 -0.0098441215 -0.029265847
000270 03 1e fb 3d 85 ac 14 3e cf b5 40 3e 08 f2 07 bd
       0.12261584 0.14518936 0.18819354 -0.033189803
000280 b6 11 9a 3e d9 63 bf bd 5a ee c6 bd 00 7d 32 3e
       0.30091637 -0.09345216 -0.09713431 0.17430496
000290 aa ab bf be d3 60 d3 3d bb ba a0 bd ae d0 10 3e
       -0.37435657 0.10321202 -0.07848116 0.14142105
0002a0 99 f4 13 bd b5 03 7e 3c 01 cd e3 3d e4 7a db 3c
       -0.03612194 0.0155038135 0.11123086 0.026791997
0002b0 83 9d ba 3d fd 68 bc bc f2 42 8b 3d 1b 8f c9 3d
       0.09112074 -0.022999281 0.06799878 0.09841748
0002c0 d7 21 4e 3e 93 21 fb bd 15 32 c9 3d 31 b0 1c be
       0.20130096 -0.12262263 0.098240055 -0.15301587
0002d0 a8 cd 0a 3e bc 68 78 3d 9b fc cc bd a5 37 6a be
       0.13555014 0.060646757 -0.10009118 -0.22872789
0002e0 d7 5e a4 bc 0a 7b 6a be 2a f4 f8 3d 6a 9f fd 3d
       -0.020064754 -0.22898498 0.121559456 0.123839214
0002f0 3d 80 04 3e 49 f9 c5 3e 6e 80 3d be be 0b 06 be
       0.12939544 0.38666752 -0.18506023 -0.13090417
000300 4a b5 09 3e ad 80 4a be 7b 19 2c 3e e4 d2 7a be
       0.13448063 -0.19775648 0.16806595 -0.24494511
000310 32 f6 59 3e 7b 78 90 be 27 e2 be bd 90 9a b2 bc
       0.21285322 -0.2821692 -0.09320479 -0.021802217
000320 87 0e a9 bd 19 63 21 3e 7f bb 84 3b ec dc 0b 3c
       -0.08254724 0.15760459 0.0040506716 0.008536559
000330 56 2a 23 3e ed 13 c8 3d 92 ef b4 3d 6b 25 a8 be
       0.15934119 0.097694255 0.08834757 -0.32841048
000340 d0 a1 a6 3d da 6b d1 3c e1 0a 23 3e 4d 1c 9d bd
       0.08136332 0.025564123 0.15922119 -0.076714136
000350 db 0c 22 be aa 9f a9 bc 40 7e a7 3d 6c 6e 98 3e
       -0.15825216 -0.020706017 0.08178377 0.29771745
000360 3c 83 b5 be e9 55 d3 3d 51 20 31 3e 78 23 b3 bd
       -0.35451686 0.103191204 0.17297484 -0.087469995
000370 8c 83 cf bd 20 05 ee 3d b0 3c d8 3d 41 c3 d2 3d
       -0.101325125 0.11622071 0.1055845 0.10291148
000380 b8 43 8f bd 42 2c 00 3e 66 f7 d0 3d 9b 10 b3 3d
       -0.06995338 0.12516883 0.102034375 0.087434016
000390 83 0d ef bc f5 85 7b 3e b8 60 d2 3d 59 be 7f 3d
       -0.029181248 0.2456282 0.10272354 0.06243739
0003a0 ad 7c 22 3e 5c 17 53 bd 36 11 26 bd ab cf b3 bd
       0.15867873 -0.05153595 -0.040543757 -0.08779844
0003b0 20 08 3e 3e 3f 97 19 be e0 db 2e 3d 2a 55 42 3e
       0.18557787 -0.14999102 0.042690158 0.189778
0003c0 13 17 b4 3d 00 97 32 be 5e da 8d bd b6 b6 e7 3d
       0.087934636 -0.17440414 -0.06926416 0.11314146
0003d0 c6 9d c6 3d 0c cc 85 bd 2e d1 41 bc 4b 82 9d 3c
       0.09698062 -0.065330595 -0.0118296575 0.019227168
0003e0 63 f2 69 3d cd d7 04 bd d4 bc a0 bd 40 cc 2c 3e
       0.057115924 -0.032432366 -0.07848516 0.1687479
0003f0 67 f0 11 3d 0b 5c 63 3d 13 aa 30 be 99 0e 95 bc
       0.035629656 0.0555077 -0.17252378 -0.018195437

pi.net.2.bias f4 [50]
000000 78 cf 77 3e 07 a4 53 3e 79 da 0a be 2b 66 20 ba
       0.24200237 0.2066804 -0.13559903 -0.000611874
000010 26 0f 48 3e 79 70 83 3d 9a 24 c0 3d d7 8c df 3d
       0.19537029 0.06417937 0.09381981 0.10915535
000020 ac bc 77 3e ba 39 29 be 8c f7 c9 3d be af a3 3e
       0.24193066 -0.16525927 0.09861669 0.31970018
000030 fa b7 9c 3c 67 15 20 3e d9 61 e0 bd 49 c0 5a bc
       0.019130696 0.15633164 -0.10956163 -0.013351508
000040 ff a7 f2 bd c4 65 05 3e 98 55 91 bd a8 35 12 be
       -0.11848449 0.13027102 -0.07096404 -0.1427828
000050 84 62 2f 3e 99 3f 37 3e 32 af c0 3d 09 e1 5a bd
       0.17127424 0.17895354 0.09408416 -0.053437266
000060 70 4f 6f 3c 91 c9 0c 3e 1c 2d cc 3d 9f a9 85 bc
       0.014606342 0.13748766 0.099695414 -0.016316233
000070 2b b0 8e bc 87 aa 76 3c e8 c9 42 3d 8a 4b 8d 3c
       -0.017417988 0.015055305 0.047555834 0.017247934
000080 f8 c8 89 bd 5c f0 45 3e 11 46 be 3c e2 a6 db 3b
       -0.06727785 0.19329971 0.02322677 0.0067032436
000090 a3 e7 14 3e 35 39 42 bd d0 c1 c9 3d 40 02 ab 3c
       0.14541487 -0.047417838 0.0985142 0.020875096
0000a0 db 64 59 3d 99 52 41 3e 33 6e b0 3b 43 b7 7e be
       0.0530747 0.18879165 0.0053842305 -0.24874596
0000b0 18 fb b6 3c 83 45 22 bd 93 bb 54 bc 0e 3e 0d be
       0.022336528 -0.039617073 -0.012984174 -0.13793203
0000c0 f0 e9 aa bd 97 ce b5 bc
       -0.08345401 -0.022193236

pi.net.4.weight f4 [4, 50]
000000 2f 26 11 3f c1 04 66 be 07 5f 92 3e ba c5 84 3e
       0.5669889 -0.22462751 0.28588125 0.25932103
000010 51 c8 76 3e 51 95 20 3e 51 f5 55 be 05 9b 30 bc
       0.24099852 0.1568196 -0.20894362 -0.010779147
000020 23 08 d5 3e db 9c 84 bd d2 de 23 3d 93 42 ac 3e
       0.4160777 -0.0647523 0.04000742 0.33644542
000030 48 1c 83 3e 98 1b 40 bd 67 0c 9d be 62 8a 2d 3e
       0.25607514 -0.046901315 -0.30673525 0.1694732
000040 28 a4 91 be 36 23 43 3d 74 66 a5 be 94 8a c8 be
       -0.28445554 0.047641 -0.32304728 -0.39168227
000050 a0 f9 a3 3e 05 36 be 3c 9e 05 98 3e 7d a0 2e bf
       0.32026386 0.023219118 0.29691786 -0.68213636
000060 1b 47 fb 3e d4 bd 8e 3c aa a8 82 be 56 2d c3 bd
       0.49077687 0.017424501 -0.25519305 -0.095301315
000070 8d 87 fc be b6 71 42 bd ac c1 d7 bd 7a 2a 9e be
       -0.49322167 -0.047471724 -0.10534987 -0.30891782
000080 3d 76 34 be 71 97 b1 3e 75 62 78 3d 8d 78 a7 3d
       -0.1762323 0.34685853 0.06064077 0.0817729
000090 b0 df 89 be 0f 08 8b 3e 78 a1 91 3e 7a 70 00 be
       -0.26928473 0.27154586 0.28443503 -0.12542906
0000a0 36 33 31 be 7d a4 84 3e b2 13 98 bd bb c1 b5 be
       -0.17304692 0.25906745 -0.074256316 -0.35499367
0000b0 92 8f 90 be b3 20 95 be 10 b2 92 be 66 72 84 3e
       -0.28234535 -0.2912651 -0.28651476 0.2586853
0000c0 6f e4 fa bd 48 4e 74 be 52 66 1f be de b9 8c 3e
       -0.122506015 -0.23857987 -0.15566376 0.27485555
0000d0 70 e5 81 3e 6e 00 45 3e 1d 71 95 bc 22 4b 9b 3e
       0.2537036 0.19238445 -0.018242413 0.3033076
0000e0 86 85 b2 3e da 9a 85 be b4 ee 2e 3e e0 d6 4a be
       0.34867495 -0.26094705 0.17083246 -0.19808531
0000f0 a5 92 58 bd 84 22 c3 3e a0 c7 be 3c 13 6d 8f bd
       -0.052874226 0.3811227 0.023288548 -0.07003226
000100 27 2d 86 be 69 ce b9 3e ab e1 81 3e cc 5f a2 3e
       -0.26206324 0.3629029 0.25367483 0.31713712
000110 4c 28 b6 3c 96 3d d7 3e 40 e7 f2 be 75 e7 c7 3e
       0.022236012 0.42039174 -0.47442055 0.39043775
000120 93 8a 9c 3e 2f 41 b0 3d c0 50 fc 3e b2 75 62 be
       0.30574474 0.08606183 0.49280357 -0.2211521
000130 2c b4 8e bc ec 7c 73 bd 3f cf 86 3e 7b b2 73 be
       -0.017419897 -0.059445307 0.2632999 -0.23798554
000140 66 b9 40 3e 44 4a 73 be c7 9b 9c be ea 15 91 be
       0.18820724 -0.23758799 -0.305876 -0.28337032
000150 95 e6 84 be a2 00 89 be 55 28 b7 3d af 35 ea bd
       -0.2595717 -0.26758295 0.089432396 -0.114360206
000160 a3 fa 17 3e 2c 06 9d 3e 8d 45 93 be a9 5c e2 bc
       0.14841704 0.3066877 -0.28764 -0.027632074
000170 f7 25 f0 be e6 fd e4 be 71 2a ae 3e 20 3a e7 3d
       -0.46903965 -0.4472496 0.34016755 0.11290383
000180 c0 2a 14 3e 3e 28 1d 3e 22 01 4c 3e 12 b5 31 3e
       0.14469433 0.15347382 0.19922307 0.17354229
000190 cb 7d cc 3d d0 ee b8 be 01 41 2d be d6 05 f4 bd
       0.099849306 -0.361197 -0.16919328 -0.119151756
0001a0 7b b2 87 be 82 c7 ee 3e 17 5c 6e 3e a3 37 c1 3b
       -0.26503357 0.46636587 0.23277317 0.005896525
0001b0 31 23 39 3e 22 cc 02 3d fd cc 1b 3c e9 0f 4e 3e
       0.1807983 0.031932957 0.009509322 0.20123257
0001c0 2b c7 25 be 1b 36 b1 3e b9 cc 2a 3e 02 5c eb 3e
       -0.16189258 0.34611592 0.16679658 0.45968634
0001d0 fb c0 99 3e 72 3a 5a be 8f 45 a7 bd c4 5f ee 3e
       0.30030045 -0.21311358 -0.08167564 0.46557438
0001e0 c7 14 9d be e4 56 45 3e 94 66 41 3e 7a 4e 5c bd
       -0.30679914 0.19271427 0.18886787 -0.05378578
0001f0 d3 c3 51 bd 6a 1c 56 3e 63 2a a0 3e fc 24 0e be
       -0.051212143 0.20909277 0.31282339 -0.13881296
000200 21 04 af 3e 90 7e 23 bf 7e b4 20 3e 67 6b 7b be
       0.34182838 -0.63864994 0.15693852 -0.2455269
000210 ae fb ed bd c9 13 07 3e 58 a9 84 be 07 45 8a 3d
       -0.1162027 0.13191141 -0.2591045 0.06751447
000220 30 54 78 3d ce 57 48 bc 03 3f a8 3e 16 a4 9d be
       0.060627162 -0.0122279655 0.32860574 -0.3078925
000230 43 a4 51 3e 6f 39 d4 be 85 de b3 3e 0d 4d 22 3f
       0.20472817 -0.41450068 0.35130706 0.6339882
000240 c5 ae 05 3d 95 42 15 bf 61 cc 44 3e 17 4c bc be
       0.032637376 -0.5830472 0.1921859 -0.36776802
000250 d5 16 99 be ef 73 09 be 7c 46 fd bd b3 07 14 be
       -0.29900232 -0.13423131 -0.123669595 -0.14456062
000260 80 10 01 3e f9 e3 ba 3e 8c 42 e4 bd a2 9a 02 bd
       0.1260395 0.36502054 -0.11145505 -0.03188575
000270 8a be 00 3e 5b ea 8b be de d1 4f 3d ee 6e 67 3e
       0.12572685 -0.27327237 0.050737254 0.2260091
000280 1c ab f9 bd 81 05 80 3d f5 e5 a5 3d ed 64 98 3e
       -0.1219084 0.0625105 0.081005014 0.297645
000290 3c 99 40 be e4 a8 83 3e 77 11 97 3e 9b c1 e2 3d
       -0.18808454 0.2571479 0.29505512 0.110720836
0002a0 06 60 49 3e 9d e0 aa 3e d9 44 a5 be 37 86 89 be
       0.19665536 0.3337449 -0.3227909 -0.2686021
0002b0 7a d1 84 be 64 65 aa 3d d4 a9 e1 3d 00 9c 35 be
       -0.25941068 0.0832012 0.1101872 -0.1773529
0002c0 07 7a 05 3f 7a 78 8d be cf 1b 4d 3e 9d 1e 88 bd
       0.52139324 -0.2763098 0.2003014 -0.06646464
0002d0 f5 2c e1 be b5 20 87 3e d2 76 50 3e fd 40 75 be
       -0.43979612 0.2639214 0.20357826 -0.23950572
0002e0 d3 07 df 3d 4c 98 28 3e 0f d8 b1 be 09 78 ba be
       0.10890164 0.16464347 -0.34735152 -0.36419705
0002f0 cf 50 ab 3e c5 5d 86 bd b9 84 2d bd 57 ff 26 3e
       0.3346009 -0.06560854 -0.042362902 0.16308342
000300 a6 ea f4 bd 1b 32 22 3e 8a 87 b8 3c 54 7e aa be
       -0.11958818 0.15839426 0.022525568 -0.33299506
000310 65 9b 8a be 1b f6 dc 3c dc 56 ae 3e 68 24 7b be
       -0.27071682 0.026972821 0.34050643 -0.24525607

pi.net.4.bias f4 [4]
000000 e0 4a 6c bc 62 86 f5 bd 5d 2d 5d 3d d9 2a 9e bb
       -0.0144221485 -0.11988522 0.05399834 -0.004826885

v.net.0.weight f4 [64, 40]
000000 c1 ec 05 3e 26 b1 31 bf 3b 9c ac 3b 49 29 d0 3c
       0.13078596 -0.6941093 0.0052676476 0.025410311
000010 4d d5 de be d0 4e 23 3e 5c 99 0c bc cb e8 9b bf
       -0.4352211 0.15948033 -0.008581486 -1.2180418
000020 29 b1 a8 be 0b f4 fa 3d ab a3 38 bd eb 29 18 3f
       -0.32947662 0.12253579 -0.04507796 0.5943896
000030 a8 8f f9 ba 3c 1b 2e 3f 77 49 55 be 91 37 54 3e
       -0.0019040005 0.68010306 -0.20828806 0.20724322
000040 a6 98 15 bc 4a 5a 19 3d 32 a9 e2 bb 8e 44 50 3c
       -0.0091306325 0.037439622 -0.0069171423 0.012711657
000050 f6 5d fc bb 9c 19 3c bf e2 c1 22 3d cb 54 8a 3d
       -0.0077016307 -0.73476577 0.039735682 0.06754454
000060 bd 7f 1d bf f6 07 80 bd 40 f4 19 3d dd 1c 9c bf
       -0.6152304 -0.062515184 0.03758645 -1.2196308
000070 6a b6 8a be b2 94 0e 3d b4 d6 c3 3d 6f 7e 30 bf
       -0.27092296 0.034809776 0.09562436 -0.6894292
000080 c4 93 2b 3c 69 10 3d 3f fc 29 41 be 66 a7 d3 3d
       0.010472242 0.73853165 -0.18863672 0.10334663
000090 1b f0 80 3d 11 b3 80 3d 33 fd 19 bd 3f ff aa 3b
       0.062957965 0.06284154 -0.037594985 0.005218416
0000a0 c7 8c 2d 3f e5 de 2d bf 7e a9 27 3d 99 2d 5d be
       0.67792934 -0.67918235 0.040933125 -0.21599425
0000b0 7f ce 08 bd 38 a3 d9 bc 1b 8c d1 bd d8 80 b4 be
       -0.033400055 -0.026567087 -0.10231801 -0.3525455
0000c0 2a 66 93 3f 63 29 41 3e 3e bb 00 3f 9a dc 77 3e
       1.1515553 0.18863444 0.5028571 0.24205247
0000d0 43 fc 2c bc f5 5a b7 3e 64 eb 4f bf 1c c3 ad 3b
       -0.010558191 0.35811582 -0.8121855 0.0053028
0000e0 b4 53 a3 3c 06 e1 97 3b a9 66 3b 3c 6c 90 3e bb
       0.019937374 0.004634979 0.01143805 -0.0029077781
0000f0 25 f3 23 3f eb 0d 32 bf 0f 46 78 3b 84 5c de be
       0.64042884 -0.6955249 0.0037883555 -0.4342996
000100 45 4a 62 bd 77 25 03 bc b4 88 12 bd 92 99 00 bf
       -0.05524661 -0.008004538 -0.0357749 -0.5023433
000110 92 49 93 3f 72 bf 1f 3e 7e 1a 27 bf 65 cb 77 be
       1.1506827 0.15600374 -0.652748 -0.24198683
000120 d3 e9 05 3d a7 84 5b 3e 1a 5d 56 bf 5c db 1a 3e
       0.032693695 0.21437322 -0.8373581 0.15122741
000130 a7 03 00 3b 67 cf fc bc a6 41 ef bb e9 a8 73 3c
       0.0019533427 -0.030860616 -0.007301527 0.014871814
000140 dd 5a 49 3f 48 e1 89 be 9e 17 85 3e 55 d9 09 3d
       0.7865427 -0.26929688 0.2599458 0.03365453
000150 38 52 2c bd 1e 95 b4 bd b1 65 19 be 3f 57 3c 3e
       -0.042070597 -0.08817504 -0.14980198 0.18392657
000160 bb ab f8 be 56 89 54 3e 1b f9 d3 bc d5 c3 b7 bd
       -0.4856852 0.20755515 -0.025875619 -0.08972899
000170 02 63 00 3a a9 eb f3 3e 12 2d a0 bd f1 1a 0e be
       0.0004897566 0.47640732 -0.078210965 -0.13877465
000180 9d 35 02 3e 11 b8 95 bd 70 2a e8 3b ab c0 2b 3d
       0.12715764 -0.073104985 0.007085137 0.04193179
000190 64 a3 4a 3f 5a f1 22 be 17 15 68 3d ec 59 e7 3d
       0.79155564 -0.15912381 0.056660738 0.11296448
0001a0 12 2a 57 ba 88 97 e9 bb 62 bb 62 3d 76 04 02 3d
       -0.0008207868 -0.0071286596 0.055354483 0.031742536
0001b0 a9 a3 99 be 48 52 15 3f 1f a8 d2 bd a4 aa f4 3d
       -0.30007675 0.58328676 -0.10285973 0.119466096
0001c0 da 0a db bc d9 d6 41 3e 60 f2 ba 3c 7e c7 f3 3c
       -0.026738573 0.18929614 0.022820652 0.029758211
0001d0 e9 09 09 3d 7e 48 b0 bd db 8e f6 bb 5c f9 19 3d
       0.033456717 -0.08607577 -0.007524354 0.037591323
0001e0 09 85 05 bf c9 f1 13 3e 21 41 22 be 94 6b 26 3d
       -0.5215612 0.14447702 -0.15845157 0.04062994
0001f0 02 d8 f1 bd 49 73 db 3c c6 ba 61 be 67 30 b7 be
       -0.11808778 0.02678837 -0.22043905 -0.35779116
000200 03 59 8d be 04 98 2a 3d fe d4 2a be fb 09 ad 3d
       -0.27606973 0.04164888 -0.16682813 0.08449169
000210 75 16 15 3d b5 ee 3b 3e 92 cc a7 3e 3d b5 0f be
       0.03639837 0.18352778 0.32773262 -0.1403398
000220 3d 7f 11 3e 8b 94 2f 3d fd a8 eb bb 69 b6 f8 3c
       0.14208694 0.04286627 -0.007191776 0.030360417
000230 75 22 15 bf 12 c8 19 bd 4f cd df bd fc 24 64 3e
       -0.582557 -0.037544318 -0.109278314 0.22279733
000240 cc 30 89 be 27 70 0a bc 47 cf 47 3e 3b 44 9d be
       -0.26795042 -0.008449591 0.19512664 -0.30716118
000250 d8 9f e0 be 60 ea 9f 3e a2 a0 26 3e fd d3 2b be
       -0.4387195 0.312335 0.16272214 -0.16780086
000260 9c 85 10 3b db 1a e4 3d d9 43 11 3e 67 0b 24 be
       0.0022052294 0.11137935 0.14186038 -0.16019975
000270 bd 59 14 3e 95 d9 11 3d 46 47 0a bd e9 cd 51 3d
       0.14487357 0.035607893 -0.033759378 0.05122176
000280 f5 ab ce be 44 ba 9c be 7e 08 04 be 5a 74 aa 3d
       -0.40365568 -0.3061086 -0.12893865 0.083229735
000290 f4 4b 82 bd 5e 3a b1 bd fa 66 ab 3d d3 65 a9 bd
       -0.06362143 -0.08653711 0.083692506 -0.082713746
0002a0 b7 e7 7e bd d9 ec 12 3d 47 b1 81 3d 81 25 65 3d
       -0.0622327 0.035870407 0.06332641 0.05594397
0002b0 a6 af 1f 3a b4 ab 97 bc cb 60 66 be 4d 2c dd bd
       0.00060915423 -0.018514492 -0.22497861 -0.10799465
0002c0 c7 4d 30 bc f9 48 31 bd b3 24 b4 3d c7 4f 61 3c
       -0.010760731 -0.043282483 0.08796062 0.013751931
0002d0 cf ca de be 5a a6 08 bf 61 51 02 3d bf 51 17 bd
       -0.43514106 -0.5337883 0.03181589 -0.036943194
0002e0 e6 58 9e bd 30 1c b3 3c d8 94 04 bb c2 ae 90 3b
       -0.077318 0.021864027 -0.002023032 0.004415364
0002f0 72 9e 8f bd 46 b5 85 be d7 51 5a bc d6 62 15 bd
       -0.07012643 -0.26114863 -0.013325176 -0.03647121
000300 27 1b d4 bb 30 c5 31 3d 2b 8d 1a be 23 b9 ad 3d
       -0.0064729634 0.043400943 -0.15092914 0.08482578
000310 79 ed 29 3d 4e bb bd bc 52 b4 ae 3d 2b a6 69 bb
       0.041486237 -0.023160603 0.08530487 -0.0035652022
000320 76 25 84 be 3c 82 6b bf 2e 71 a8 be 12 b0 78 bc
       -0.2580983 -0.91995597 -0.3289885 -0.015178697
000330 da 96 03 be cb ab 07 3e 69 6b 11 be 31 f5 ad 3e
       -0.12850514 0.13249128 -0.1420113 0.3397613
000340 2b ef 51 bc b5 26 43 3e cb a3 f2 bd e3 30 01 be
       -0.01281337 0.19057734 -0.11847647 -0.12616305
000350 ee 16 f1 3b b0 60 44 3e 20 f5 47 be d6 94 aa ba
       0.0073574698 0.19177508 -0.19527102 -0.0013014327
000360 0d 51 12 3e 51 b3 35 3d 0c 32 0e 3c 12 55 19 bd
       0.14288731 0.044360463 0.008678924 -0.037434645
000370 c7 8f 6f be 1d 73 2e bf a8 8d 31 be 42 30 03 3d
       -0.2339469 -0.681444 -0.17339194 0.032028444
000380 4e d2 17 3e 8e ea 1f bc aa 54 0b 3e 88 4d a0 3e
       0.14826319 -0.009760512 0.13606516 0.31309152
000390 d5 23 1a bd 70 e6 88 3e 4c 8b 24 3e 55 e1 52 3e
       -0.03763183 0.2673831 0.16068763 0.2059377
0003a0 69 49 53 bd 1c bf 70 3e de 09 bd bd 3b b3 9d 3d
       -0.05158368 0.23510402 -0.09230398 0.07700201
0003b0 ff 13 ea 3d 15 a5 96 3d ce 67 9c 3a d9 15 e4 bc
       0.11429595 0.07355706 0.0011932792 -0.027842449
0003c0 be 9d 36 bf 0b 42 7b 3e 7c 79 99 bc 06 81 dc bd
       -0.71334445 0.24536912 -0.018734686 -0.10766797
0003d0 b2 e9 9f bd 25 f1 12 be 58 72 02 be c1 e8 76 3e
       -0.07808246 -0.14349802 -0.12738931 0.24112226
0003e0 c1 78 fe 3d b6 48 43 3e 72 c8 54 3d 62 6d f9 bd
       0.12425376 0.19070706 0.051948972 -0.12179066
0003f0 99 4a c6 bc f0 82 d4 be 72 45 71 3d 6f f9 ac bd
       -0.024205493 -0.41506147 0.05890412 -0.08446013

v.net.0.bias f4 [64]
000000 bf 9c c0 bd c6 cc c9 bd 73 32 36 3e 42 a0 bb 3f
       -0.09404897 -0.098535106 0.17792682 1.4658282
000010 39 7e 54 bf 46 3d 21 3f 63 10 88 bf 6b d1 2c bf
       -0.830051 0.6298412 -1.0630001 -0.67507046
000020 d5 36 3f bf bc e4 67 bf 31 31 bb bf d0 27 e6 3f
       -0.7469304 -0.90583396 -1.4624387 1.79809
000030 c9 b9 68 3e 00 05 7f 3e 40 bf 45 3e 22 4f 21 3f
       0.22727121 0.24904251 0.19311237 0.6301137
000040 4a 74 05 3f 2b eb 0d be ed 5a 8a bf cb 12 22 3f
       0.5213057 -0.1385924 -1.0808998 0.63309926
000050 68 ef 76 bf 97 9b 03 be ac 75 1b bf 27 df 48 be
       -0.96459055 -0.12852322 -0.6072643 -0.19616376
000060 a0 03 5d be af 96 b6 3d f8 86 e2 3f 4a 12 88 3e
       -0.21583414 0.08915459 1.7697439 0.26576453
000070 85 3c 6b 3f 82 02 24 bf 4d 46 50 3f c6 42 d5 be
       0.9188922 -0.64066327 0.8135727 -0.41652507
000080 e9 bc f0 bd bd 6c 10 bf 97 46 bd 3e ff db 3f 3f
       -0.11754782 -0.5641592 0.36967918 0.7494506
000090 09 f9 fb bd 00 a6 94 3e bf ae 58 be 95 40 4a bf
       -0.12303359 0.29032898 -0.2116041 -0.79004794
0000a0 be 80 2f 3f a1 0d 93 3e 5c 78 7b 3e bd bc 89 bd
       0.6855582 0.28721336 0.24557632 -0.06725452
0000b0 9c d9 31 bf f7 b0 aa be 9d f9 58 bf 5a ce 82 bf
       -0.6947267 -0.33338138 -0.8475588 -1.0219223
0000c0 af 89 c3 be 1c 11 45 bf f1 41 41 bf d6 d9 b0 3e
       -0.38190982 -0.7697923 -0.75491244 0.34541196
0000d0 36 c4 8d bf 4d a3 e9 3e fc 81 6d bd 04 c8 4e be
       -1.1075504 0.456324 -0.05798529 -0.20193487
0000e0 84 6d 8e 3f 15 0c 30 3f 1c 98 a4 3e 87 da 13 bc
       1.1127172 0.68768436 0.321473 -0.009024269
0000f0 f3 1e 16 be 4b 0b 97 3d e0 37 b2 3d 55 f8 14 3f
       -0.14660244 0.07375201 0.087020636 0.58191425

v.net.2.weight f4 [64, 64]
000000 64 d8 31 3f 02 a6 c0 3e b3 06 41 3e 95 2f a8 be
       0.6947081 0.37626654 0.18850212 -0.32848802
000010 f8 d8 d5 be e3 6c 8f 3d 16 29 0d 3e 0c 0a b5 be
       -0.41767097 0.0700319 0.13785204 -0.35359228
000020 3c 13 2d be 0f 5b a5 be 9d 1e c1 bd 3d dd e0 be
       -0.16901869 -0.32296035 -0.09429667 -0.4391879
000030 7d af be be 7b 28 98 be 45 b7 c2 be 93 ed 8c 3e
       -0.37243262 -0.29718384 -0.3803045 0.27525005
000040 ff 68 02 be 6c c3 95 3e 3f de a1 be 55 16 2e 3d
       -0.12735365 0.29250658 -0.31614873 0.042501766
000050 96 65 ca bd 64 ea 93 be ee 01 5a 3d ae 64 42 3c
       -0.09882657 -0.28889763 0.053224497 0.011864824
000060 2d e5 01 bd dc 02 a6 3e b5 93 53 be 6f 08 b7 bd
       -0.0317127 0.32424057 -0.20661815 -0.089371555
000070 35 30 9b 3e f6 62 f8 be 00 eb dd 3e 7b 83 a3 3e
       0.30310217 -0.48513 0.43343353 0.3193625
000080 ec 97 09 bf 1d f9 0b be 8e ea 12 be af 30 81 3e
       -0.5374744 -0.13669248 -0.14347288 0.25232455
000090 f9 c2 98 be 8b b8 2e 3e 50 3e 75 be 61 10 7d be
       -0.29836252 0.17062585 -0.23949552 -0.2471328
0000a0 e8 f4 ba 3e 9c bd 80 be 90 6d 1f be 23 d1 22 3e
       0.36514974 -0.2514466 -0.15569139 0.15900092
0000b0 22 c6 51 3b e6 ee 20 3f 5f 30 a0 bd 54 ed 47 be
       0.0032008965 0.6286453 -0.07821726 -0.19524127
0000c0 00 12 60 be 0e ec 4a be 6a 38 91 bd eb f1 4c bd
       -0.21881866 -0.1981661 -0.07090838 -0.0500354
0000d0 6f ee 02 3c cb 53 90 3e 0e e2 e6 3e b3 4c 59 3e
       0.007991417 0.2818893 0.4509434 0.21220665
0000e0 6f ad ea 3e 99 02 3d 3e 62 95 db 3e db 1a b0 3e
       0.45835444 0.18458022 0.42887408 0.3439549
0000f0 49 8e 1e 3e 9a ff 96 be 71 b0 6f be cb 76 0c bd
       0.15483965 -0.29491884 -0.23407151 -0.034292977
000100 9a 02 11 bf 88 94 d6 be 2c 94 bb 3d fd 84 eb bd
       -0.56644595 -0.41910195 0.09159121 -0.11499975
000110 45 51 01 be ba e6 ca be 93 e0 13 3e 6d 92 3c 3e
       -0.12628658 -0.39629155 0.14441137 0.18415232
000120 86 b4 00 bd 77 08 d3 bd c0 65 a3 bd fa 90 e5 bb
       -0.03142216 -0.10304349 -0.07978392 -0.007005808
000130 40 4f 01 3f e2 69 8f 3e 9e ec 4d 3e 58 a1 b5 bd
       0.5051155 0.2801047 0.20109794 -0.088686645
000140 b7 de 9b 3e 76 cd 9c bd 70 44 4f 3e 8c 7a a3 bd
       0.30443355 -0.07656376 0.2024095 -0.07982358
000150 11 64 c9 bd 03 d8 e6 3e 5c e1 28 be 3f 8c 49 3a
       -0.09833539 0.4508668 -0.16492218 0.000768844
000160 69 95 90 3e d2 e3 c0 bd 6b 0d 6b 3e e1 4f ac 3e
       0.2823899 -0.09418453 0.22954337 0.33654693
000170 02 81 26 3e 5c f2 9b bd c2 e5 7b 3c c4 cf 48 be
       0.1626015 -0.07614586 0.015374603 -0.19610506
000180 de 21 83 3e 56 36 9f bc 3d 8d 45 be e4 9b 85 be
       0.25611776 -0.01943509 -0.1929216 -0.26095498
000190 10 07 86 be d4 51 93 be 13 7f 79 3d 82 37 89 bc
       -0.26177263 -0.28773367 0.060912203 -0.016750101
0001a0 3e 35 96 bd 0c ea 85 3e 7d ed fc 3d 1c 76 5f be
       -0.07334374 0.26155126 0.12349985 -0.21822399
0001b0 a7 55 66 3d 10 bc 96 be 8f c7 0b be 5f 8f 69 be
       0.05623403 -0.29440355 -0.13650344 -0.22808598
0001c0 36 06 0e be a8 22 73 be 15 28 75 be 58 fc 53 be
       -0.13869557 -0.23743689 -0.23941071 -0.2070173
0001d0 4e 2e 92 bd bf 25 92 bd b1 c8 84 be ba 04 b0 be
       -0.07137738 -0.07136106 -0.25934365 -0.34378606
0001e0 c7 57 42 3d 8d b9 b3 3e e5 d9 90 be da 9d a4 be
       0.047446992 0.35102502 -0.2829124 -0.3215168
0001f0 e9 58 c9 be d5 9d b4 3d bf db c6 3d 93 53 2b 3e
       -0.39325646 0.088191666 0.09709882 0.167311
000200 94 ee cc 3e 58 c6 03 be 56 05 00 bd a9 49 ac 3e
       0.4002577 -0.12868631 -0.03125509 0.33649948
000210 72 77 d7 bd 66 17 c0 bd 82 41 e5 3d de 27 68 be
       -0.10520829 -0.09379463 0.11194135 -0.22671458
000220 a1 8c 6b 3e 90 5b 10 be e0 b3 66 3e ca 00 1d 3e
       0.23002864 -0.14097428 0.22529554 0.15332332
000230 26 ad c0 bd 87 67 62 3e 68 58 98 be c8 a2 3c be
       -0.094080254 0.22109805 -0.2975495 -0.18421471
000240 c7 43 1f 3b 35 ce a4 3e 46 9c 8c be a1 85 d8 3e
       0.0024301873 0.32188573 -0.27462977 0.4228945
000250 61 2e 5d bc 6f 40 87 3e 75 61 35 3f 18 45 1d 3e
       -0.013499827 0.26416346 0.7085183 0.15358388
000260 51 ab f7 3e 84 68 66 bd 40 a5 f7 3e ae fa 8f 3e
       0.48372892 -0.056252018 0.48368263 0.2812094
000270 0c e0 82 3e 04 7f 34 be 26 2e e7 3d 24 7e 84 3e
       0.2556156 -0.17626578 0.11288099 0.25877488
000280 e2 26 40 3e 62 1c 84 be d2 0e 2a 3e c7 19 b0 bd
       0.18764833 -0.25802904 0.16607216 -0.08598667
000290 4a 06 34 be 4d f0 2c 3e e9 47 da 3e 44 2e 5d be
       -0.17580524 0.16888542 0.42632988 -0.2159968
0002a0 63 51 95 3d bf bd 0f be 60 dc 8e 3d be c3 97 3e
       0.07290914 -0.14037226 0.06975627 0.29641527
0002b0 c9 83 4a be 1a 97 84 be 4e 59 57 be 96 ec b9 be
       -0.19776835 -0.2589653 -0.21030161 -0.36313313
0002c0 a1 85 1a 3e 6b f1 2f be 7b 32 8a be 47 fd de bd
       0.15090038 -0.17181937 -0.2699164 -0.108881526
0002d0 a5 ff 1c 3e a5 1c 4c 3d 26 90 ae 3c da a8 2a be
       0.15331896 0.049832005 0.02130897 -0.16665974
0002e0 45 ec 23 3e 25 12 6e 3e 67 10 2f 3e df dd b7 bd
       0.16008098 0.23249109 0.17096101 -0.089778654
0002f0 a5 00 f8 3e e8 6e 45 be 8c 88 9e be a9 6b 0d 3e
       0.48437992 -0.19280589 -0.30963552 0.138106
000300 c7 49 d1 3e b2 b0 82 3d 7b f1 3c 3e 05 f9 d9 bd
       0.408766 0.06381358 0.18451492 -0.106432
000310 63 ec cf bd a4 31 e5 3d 3d e1 8b bd 51 16 82 be
       -0.10152509 0.11191109 -0.0683007 -0.2540765
000320 b4 72 81 bd 52 16 0d bd ba 8a 02 3e 80 4a 21 bd
       -0.06320706 -0.034445114 0.12748232 -0.03937769
000330 44 48 d1 be b4 4e 70 be a5 b6 02 bf 66 f1 c5 bd
       -0.40875447 -0.23467523 -0.51059943 -0.09665184
000340 24 94 01 3e 1c f2 d7 3e ee 9a ef bd e2 ea 63 3e
       0.12654167 0.42176902 -0.11699472 0.2225757
000350 9b ee 94 3d 89 56 ee 3d c3 9b 79 3e 9f 01 6c 3e
       0.07272073 0.11637599 0.24375825 0.23047493
000360 8e 42 58 3e ba 93 2f bc d2 4a 6c 3e b8 bc fd 3d
       0.21119139 -0.010716373 0.23075417 0.12389511
000370 d5 9a 82 3e 24 68 af be 01 ad a0 3e 40 6f d3 3e
       0.25508752 -0.3425914 0.31381992 0.41295815
000380 e7 db 4d 3e 28 7e 11 ba be f0 cd bc f1 5f a9 bd
       0.20103417 -0.000555011 -0.025139209 -0.082702525
000390 fe ca 60 be 20 e3 c1 b9 24 cb c3 3e 3c 2c d7 bd
       -0.21952435 -0.0003698105 0.38240921 -0.10506484
0003a0 2d 0f 8f 3d c5 09 ac be 1b 0a b1 bd 08 5a c7 3e
       0.069853164 -0.33601204 -0.086445056 0.38935876
0003b0 0e bf ab bd 7b 6b d2 bd 01 bb c9 bd 24 3d 4d be
       -0.0838605 -0.102744065 -0.09850121 -0.20042855
0003c0 06 85 9e 3d 75 b6 20 be 2a c3 ce bd 75 15 56 be
       0.07740216 -0.15694602 -0.10095818 -0.20906623
0003d0 47 6b 43 3d 10 7c 51 3d 5f c5 90 3e 5d 66 e3 3d
       0.04770973 0.051143706 0.28275582 0.111035086
0003e0 c0 eb 87 3e 7d a8 82 3e 95 23 05 3f 19 98 3e bd
       0.2654705 0.2551917 0.5200742 -0.04653177
0003f0 88 60 36 3e 97 b3 ac be 0c 83 6f 3d e7 57 16 3e
       0.17810261 -0.33730766 0.058474585 0.1468197

v.net.2.bias f4 [64]
000000 b3 bb 17 3f 15 7d c7 3e b2 0f 1f be b4 f2 b6 be
       0.5927078 0.38962618 -0.15533331 -0.35732043
000010 09 f7 08 bf 04 51 e4 3e 52 01 1c 3f ca b0 e7 be
       -0.53501946 0.4459306 0.60939515 -0.45252067
000020 dd b0 2b bf cd 73 10 bf 78 50 2a bf 50 6a 04 be
       -0.67066747 -0.564267 -0.66529036 -0.1293118
000030 48 9b 0e bf 63 25 a8 be d2 25 18 3f e1 95 8d 3e
       -0.5570569 -0.32841024 0.5943271 0.2765341
000040 7f 5a 84 3e 71 71 fe 3e 30 d1 6c 3e 2f 18 00 bf
       0.25850293 0.49695924 0.23126674 -0.500369
000050 57 39 e4 3e 90 12 ec be 3d 7d 1b bf 67 59 95 be
       0.44574997 -0.46107912 -0.60737973 -0.2916977
000060 59 ef e6 3e 92 13 10 3f 2e b7 18 bf ce 0b 14 3f
       0.45104483 0.5627986 -0.5965451 0.5783051
000070 5a b7 1e 3f 84 26 21 3f 83 89 09 bf 30 55 87 be
       0.6199852 0.62949395 -0.5372545 -0.2643218
000080 e7 bd 98 be d6 d8 d9 3e 3a 60 a0 3e e6 eb 9a 3e
       -0.29832384 0.42548245 0.31323415 0.302581
000090 91 5a 1f 3f de 84 0f bf 86 56 df be 76 a6 2c 3f
       0.6224757 -0.56062114 -0.436207 0.674415
0000a0 4c 04 0f bf 46 c3 52 3f 9e 07 f3 be e8 19 25 3f
       -0.5586593 0.82329214 -0.4746675 0.64492655
0000b0 d8 fe c0 3e 6b 00 e6 be 63 d1 1c bf 36 0a 78 be
       0.3769443 -0.44922194 -0.61257 -0.24222645
0000c0 02 6a 04 bf 44 90 56 be 54 fd ac be e7 6e a8 3e
       -0.51724255 -0.2095347 -0.33787024 0.32897112
0000d0 6f 2f 25 be 50 62 9d 3e d8 5f ba 3e b6 4a 2e 3f
       -0.16131376 0.3073907 0.36401248 0.6808275
0000e0 9e 01 91 be 31 d3 53 3e 78 82 f8 3e e3 ff 11 bf
       -0.28321546 0.20686032 0.4853704 -0.5703108
0000f0 55 b8 a4 be 88 31 09 3f 3e d0 2f bf da 90 d6 3e
       -0.32171884 0.53591204 -0.6867713 0.41907388

v.net.4.weight f4 [1, 64]
000000 78 50 55 be 68 79 8b bd a9 da 61 3e 1f 5f 5a 3e
       -0.20831478 -0.06810266 0.22056068 0.21325348
000010 09 6c fb 3d 46 b9 bf bd 5d 38 5a be e4 b2 cd 3d
       0.122764654 -0.0936151 -0.21310563 0.10043886
000020 90 83 4a 3e ca c6 be 3d e1 75 7d 3e 1a 32 a1 3e
       0.1977675 0.0931526 0.24751998 0.31483537
000030 2c 23 d7 3d dc 7d fb 3d d1 3a b9 bd b2 b5 71 be
       0.105047554 0.12279865 -0.090444215 -0.23604468
000040 53 63 22 be c9 4a 22 be e3 33 4e be c6 2c 64 3e
       -0.15858202 -0.15848841 -0.2013698 0.22282705
000050 5c 3c 0c be 86 f9 e7 3d 4a 63 bc 3d 36 97 90 3d
       -0.136949 0.1132689 0.091986254 0.07060091
000060 d1 f7 0b be f3 e2 21 be 43 d4 3d 3e fe 1f 0e be
       -0.13668753 -0.1580923 0.18538003 -0.13879392
000070 ee 08 86 be cb be 35 be 7b e8 2a 3e d9 23 cd 3d
       -0.26178688 -0.17748563 0.16690247 0.10016603
000080 c5 e6 86 3e d5 9a 5b bd 90 e5 60 be 04 8d c0 be
       0.26347938 -0.053614456 -0.21962571 -0.37607586
000090 b8 6b 3f be 81 d5 ab 3d 21 cf 2d 3e 40 9b e6 bd
       -0.18693435 0.08390332 0.16973545 -0.1126008
0000a0 6e 6d 01 3e 97 a8 4f be 68 d9 ef 3d 2e 6f 72 be
       0.126394 -0.20279156 0.11711389 -0.23675224
0000b0 40 e0 29 be 56 0e b0 3d 6d 0a 12 3e 30 f2 e5 3d
       -0.16589451 0.08596484 0.1426179 0.11227834
0000c0 85 aa 03 3e 1c a0 4c 3e 5d f1 82 3d 8a 8d ef bd
       0.12858017 0.19982952 0.06393693 -0.11696918
0000d0 b5 50 78 3e 99 88 24 be 40 6a c3 bd 09 4c 8d be
       0.24249537 -0.16067733 -0.0954175 -0.27597073
0000e0 4b 6b 84 3d f5 41 b8 bd 32 5e 11 be 67 d6 2c 3e
       0.06465777 -0.08996955 -0.14196089 0.16878663
0000f0 73 06 e0 3d 64 14 a0 bd 09 48 3c 3e ad 42 93 bd
       0.1093873 -0.07816389 0.18386854 -0.07190452
