experiments/07_control_structure_hypothesis/checkpoints/PWM/DroneCircleBulletEnv-v0/ppo/2021-12-14__05-04-37/seed_00022/torch_save/model.pt (torch, 82448 bytes, 19 tensors)

obs_oms.mean f4 [40]
000000 32 03 81 3e 8c 85 8d ba 15 cd 80 3f 77 d3 58 b8
       0.2519775 -0.0010797246 1.0062586 -5.1695355e-05
000010 50 5c dc ba bf a1 ba 3c 66 3a 7d 3f 36 1f 1a ba
       -0.0016812179 0.022782205 0.98917234 -0.00058792846
000020 aa 58 f9 ba ea 6b 8c bc f7 95 cd 39 a6 40 87 bd
       -0.0019023616 -0.017141301 0.0003921238 -0.066041276
000030 85 80 29 3d 4c ab e4 ba f7 8a 92 3a 5a 13 cd bb
       0.04138233 -0.001744607 0.0011180331 -0.0062584104
000040 23 5a 98 3e 93 fa 9a 3e f5 b7 a4 3e d1 2a 98 3e
       0.2975627 0.30269298 0.32171598 0.29720166
000050 2d 02 81 3e 25 06 90 ba 00 c7 80 3f 42 3e 7a b8
       0.25196972 -0.0010988159 1.006073 -5.9662627e-05
000060 d0 2f ee ba f5 1c bb 3c 2a 19 7d 3f 24 aa 54 ba
       -0.0018172208 0.022840956 0.9886652 -0.0008112511
000070 0d c2 fd ba 2a 92 9b bc 2e 71 9d ba be ec 96 bd
       -0.00193602 -0.018990595 -0.001201188 -0.07369374
000080 d7 ad 2a 3d a4 94 e3 ba 18 66 94 3a e8 02 c7 bb
       0.041669693 -0.0017363024 0.001132193 -0.0060733445
000090 1f 20 98 3e 7f 42 9a 3e c6 f9 a3 3e 51 a2 97 3e
       0.29712006 0.30128857 0.320265 0.29616025

obs_oms.std f4 [40]
000000 b6 3c 35 3e db 3d 35 3e 48 ca 17 3d ba 1c b5 3d
       0.1769894 0.17699377 0.037058145 0.0884337
000010 b2 43 ba 3d 79 d5 62 3d f4 de 50 3d 98 68 cb 3e
       0.09094943 0.055379365 0.050993875 0.39728236
000020 29 d9 ca 3e ca 85 24 3e 43 e0 de 3f 03 a4 f1 3f
       0.39618805 0.16066661 1.7412189 1.8878177
000030 f0 2a b1 3e f6 4e 09 3d bb fa 07 3d 27 ca 17 3d
       0.3460307 0.03352257 0.0331981 0.037058022
000040 ac 49 10 3f a4 e0 15 3f 78 4d 24 3f 0d c2 0f 3f
       0.56362414 0.585459 0.6418071 0.56155473
000050 87 4b 35 3e 6c 4b 35 3e 0a d7 1a 3d 3a 8f b8 3d
       0.17704593 0.17704552 0.037802733 0.09011693
000060 dc 07 be 3d 09 e1 64 3d a4 f5 60 3d 5b 71 cc 3e
       0.09278843 0.055878673 0.05492176 0.39930233
000070 ff d4 cb 3e d7 0c 30 3e 04 bf e2 3f 7e 36 f7 3f
       0.3981094 0.17192398 1.7714543 1.9313505
000080 b5 99 b2 3e 74 f8 0a 3d 4f a9 09 3d 16 d7 1a 3d
       0.34882894 0.03392835 0.03360873 0.03780278
000090 fa 2d 10 3f 85 b8 15 3f 0d 23 24 3f 34 9c 0f 3f
       0.56320155 0.5848468 0.64115983 0.5609772

pi.log_std f4 [4]
000000 43 52 90 c0 43 52 90 c0 43 52 90 c0 43 52 90 c0
       -4.5100417 -4.5100417 -4.5100417 -4.5100417

pi.net.0.weight f4 [50, 40]
000000 7d 48 27 be d2 c6 6a 3d 32 1e 8d bc b7 2d 3f be
       -0.16336246 0.057318516 -0.017226312 -0.18669783
000010 fc 28 80 3d 91 78 61 3e 88 18 9e be 54 d8 b9 bd
       0.06257817 0.22018649 -0.3087809 -0.090744644
000020 2f 95 fa bd c6 a1 61 be 7b 81 ff bd bb b5 88 3c
       -0.12235486 -0.22034368 -0.12475868 0.016688218
000030 9b cb 34 bd 47 e0 ce bc 0d 5b e7 3d 04 d0 fe bd
       -0.044139486 -0.025253428 0.112966634 -0.124420196
000040 90 35 8d 3d 62 a3 11 bc 80 10 9a bd 98 c7 d8 3d
       0.06894982 -0.008889051 -0.075226784 0.105849445
000050 57 d7 11 be 33 8a 28 bc aa ea 2e be 2a 9e e5 3c
       -0.14242302 -0.0102868555 -0.17081705 0.02802952
000060 1c 51 5e 3d 38 69 bb 3d 11 3b 9d be 8b 90 f8 bd
       0.05427657 0.09150928 -0.30709127 -0.121369444
000070 da f7 3f bd 35 9a 4c be 30 44 96 be 13 0c f8 3b
       -0.04686723 -0.199807 -0.29348898 0.0075697987
000080 a3 f0 2a bd 4f 3d c0 3d f0 70 f6 3d c4 34 f7 bc
       -0.041733395 0.09386694 0.1203326 -0.030176528
000090 7b 90 d4 3d 45 7e e7 3d 6c 93 5c 3e ff 7c c0 3d
       0.1037912 0.11303381 0.21540612 0.09398841
0000a0 2a fe f2 3c a7 ae 0c be 3e b0 8d 3c d1 53 bc bd
       0.02966221 -0.137385 0.017295953 -0.09195674
0000b0 9d 84 8c 3d e2 8a 7b 3e c1 3d 6b be d5 99 05 3e
       0.068612315 0.24564698 -0.22972776 0.13046964
0000c0 30 73 20 be 54 5e 04 3d 87 11 12 bd 2f c9 2d be
       -0.1566894 0.03231652 -0.035661247 -0.16971277
0000d0 dc 8c 09 bd 5e 3d 59 be 0b 28 a2 3d c5 52 3f 3e
       -0.0335816 -0.21214816 0.07917794 0.18683918
0000e0 51 42 41 be 50 f0 41 3c d2 89 86 bc c7 bc d5 3d
       -0.18872954 0.01183708 -0.01642314 0.10436397
0000f0 35 d2 2f 3e 46 84 1c bd 8b 1a 44 3d c3 c3 b9 bc
       0.17170031 -0.038212083 0.047876876 -0.022676354
000100 64 19 09 be 10 47 3e 3e 71 ea b1 bd 78 5a c8 3d
       -0.13388592 0.18581796 -0.08687294 0.097828805
000110 90 0a eb 3c ee c1 cb 3c ce 5b 6c 3d 76 82 67 bd
       0.02869156 0.024872746 0.05770474 -0.0565209
000120 0f 86 8e bd a4 0e 4a 3d c3 40 4e 3c 6d 9b 36 3c
       -0.069591634 0.04933037 0.012588683 0.011145455
000130 43 9e 0e be 80 9a 45 3e 7c a6 da 3d 84 6c 20 3d
       -0.1392756 0.19297218 0.106762856 0.03916599
000140 ee 36 45 be 5c ce e4 3d 47 98 fd bd 26 f2 9a 3d
       -0.19259235 0.111721724 -0.1238256 0.075657174
000150 8a 70 c8 bd 97 92 f5 bc 17 e5 02 3e 60 aa 59 bc
       -0.0978709 -0.029977126 0.12782703 -0.0132852495
000160 36 61 27 be 26 a0 9a be 2e 23 c2 3d 9b e6 2c bd
       -0.16345677 -0.3020031 0.09479366 -0.04221211
000170 8f 7e 14 3d f5 d6 ff 3c 0b a5 55 3d ec 23 55 bd
       0.03625351 0.03123043 0.05215935 -0.05203621
000180 80 02 66 3d 6b 95 7f 3d e0 96 0b 3e e6 05 62 3d
       0.056154728 0.062398355 0.13631773 0.055181406
000190 e3 ed 2f bd ca 6b b1 3d 8c dc 94 bd 02 f1 0f 3e
       -0.042951476 0.08663137 -0.072686285 0.14056781
0001a0 63 03 52 3b 8a 6e 02 be 47 d5 85 3d 0c 7f 69 bd
       0.0032045476 -0.1273748 0.0653482 -0.057005927
0001b0 39 31 67 be 09 0e 01 be b6 f6 95 3e 31 d7 bc 3d
       -0.2257737 -0.1260301 0.29289788 0.09220732
0001c0 ff e6 2a be 7c 67 53 3e 2e 05 9f bd 0b 1b 8d 3d
       -0.1668968 0.20644945 -0.0776466 0.06889924
0001d0 57 d5 02 3e 8d d6 86 3e f5 bd 55 bd b8 1d 3a 3d
       0.12776695 0.26335564 -0.05218311 0.0454385
0001e0 16 d3 36 be 40 25 a6 3d 9c 57 4a 3e e7 82 7d 3d
       -0.1785396 0.081125736 0.19759983 0.061892416
0001f0 45 42 4b bb 26 e2 6a 3d f5 eb 8f 3e 0f 68 da bd
       -0.0031014842 0.05734458 0.28109708 -0.10664379
000200 79 18 19 3d cf 57 18 3e f7 6e 12 3d 3f c0 6a bd
       0.037376855 0.14877246 0.035750356 -0.057312246
000210 05 14 e9 3b bd 51 d6 bd 73 65 84 bd f2 fc 20 be
       0.007112982 -0.10464809 -0.064646624 -0.15721491
000220 33 82 fd 3d f7 70 05 3b cf 4d 66 3d 9d 35 01 3c
       0.12378349 0.0020361522 0.056226548 0.007886318
000230 09 08 08 3d fe bb da bd 7b 42 59 3e 15 55 f5 bb
       0.033210788 -0.10680388 0.21216767 -0.007486949
000240 03 e5 fb 3b c3 76 ec bd 18 6c 8c 3e 55 da 48 3d
       0.0076872124 -0.115460895 0.2742622 0.049036343
000250 cd 7b 3e be 93 6d 01 3f df f6 08 3e ae 3d 9d bd
       -0.18601914 0.5055782 0.13375424 -0.0767778
000260 bd 02 c7 bc af ac f0 3c 51 e2 c2 bd 3b b5 ae bd
       -0.024293298 0.029379217 -0.09515823 -0.08530661
000270 7f 86 e6 3d 4b 6b 25 3d 7b f4 0c bd 01 c7 45 3d
       0.11256122 0.040385526 -0.034412842 0.048285488
000280 df 0a 0a be 01 ca 6b be 5d bd d2 bc cc 25 31 3e
       -0.1348071 -0.23026277 -0.025725061 0.17299575
000290 c8 fb 93 3e e0 be 99 3c 8f fe f5 3d d5 6f 22 3c
       0.2890303 0.018767774 0.12011444 0.009914358
0002a0 a1 af 3a bd 85 6b f6 3b aa f0 31 3e 14 8e 94 be
       -0.04557765 0.0075201415 0.17376962 -0.29014647
0002b0 8d f1 13 bd 17 de 36 bd 25 b4 7e 3d 22 64 44 be
       -0.036119033 -0.044645395 0.062183518 -0.19178823
0002c0 8c 00 d4 bc 42 b8 1b be d3 09 9b 3d 66 b4 cc 3b
       -0.025879167 -0.15207008 0.07570233 0.006247091
0002d0 6c 70 48 bd f5 09 84 be 83 5c bd 3c 7b f2 49 3e
       -0.04893534 -0.25788847 0.023115402 0.19721405
0002e0 cc de 0f 3e 6a 81 9f 3d 95 03 33 3d c5 54 67 3e
       0.14049834 0.07788356 0.043704588 0.22590931
0002f0 6c fd 6c be b1 2b 3f 3d 9b 99 40 3e 39 6d 4a 3c
       -0.23143548 0.046672527 0.18808596 0.012355142
000300 92 6a 2a be 67 ec 99 bd 2f 3b 7d bd 70 6b df bd
       -0.16642216 -0.07515793 -0.06182402 -0.10909164
000310 70 e4 a5 be 01 15 b9 3c 62 43 20 3c ea 89 fd bd
       -0.32400846 0.022593023 0.00978169 -0.12379821
000320 25 10 6d 3d 21 fd ed bd 0c 2a 18 3d bc 30 c3 3c
       0.057876725 -0.11620546 0.037149474 0.02382695
000330 36 02 12 3e c5 84 fb 3d fe 4f 53 bd 91 a3 1a be
       0.14258656 0.12281183 -0.05158996 -0.15101458
000340 cf a9 1b 3e 26 67 78 3e 7e 88 77 38 b4 bb 7a bd
       0.15201496 0.24258098 5.9016507e-05 -0.061214164
000350 e7 eb b3 bc 85 39 f7 3c fa b9 80 3d bf 1a eb 3d
       -0.021963073 0.030178795 0.06285472 0.11479711
000360 e8 7d 95 3e af 4b 26 3c 55 f5 41 3e 12 f4 e3 bd
       0.2919762 0.01014988 0.18941243 -0.11130537
000370 24 0f 45 bd 56 b5 dd bd 66 78 08 3e 5d 1f b2 bd
       -0.048110142 -0.10825603 0.13327178 -0.08697388
000380 2f 63 75 3e 01 2a 66 be 64 b6 12 3e 04 4a c0 bd
       0.23963617 -0.2247696 0.14327389 -0.09389117
000390 e4 f0 0b 3e 4d e5 e2 3d 95 9e a2 3b 3b b4 80 3d
       0.13666111 0.11078892 0.004962752 0.06284376
0003a0 9b 14 7d bd 76 94 71 3d ef 8e 26 be d4 b7 98 3d
       -0.06178723 0.058979474 -0.16265462 0.074569374
0003b0 47 e7 a3 bd 11 0c 2b 3d f7 02 3c 3e e2 36 d2 3b
       -0.08003097 0.041759554 0.18360506 0.006415234
0003c0 df 1a 7f 3d b1 5a 78 bd bb a4 f5 bd ca 01 bf 3d
       0.062281486 -0.060633365 -0.119943105 0.09326513
0003d0 90 5a f5 bd 77 20 b1 bd cf 05 0a be f5 cd 95 3d
       -0.11980164 -0.0864877 -0.13478778 0.07314674
0003e0 06 aa 5b 3c a1 b4 f4 bc b8 f1 c8 bd fe cc 0b 3e
       0.013407236 -0.029871287 -0.09811729 0.13652417
0003f0 8e 41 18 3e bc 0a e1 3c e7 64 c0 bd 14 a5 c1 3d
       0.14868757 0.027470939 -0.093942456 0.09455314

pi.net.0.bias f4 [50]
000000 be df c9 3b 6e b6 b5 3d 88 99 2a 3e f3 30 3a 3e
       0.0061607054 0.08872686 0.1666013 0.18182735
000010 e5 85 23 3e 4d da 01 3e 62 36 1f 3e 8b c9 d5 3c
       0.15969045 0.12680931 0.15548089 0.02609708
000020 92 3b c0 3e fb 95 a3 3e 51 22 29 3e 80 30 76 3d
       0.3754545 0.31950364 0.16516997 0.060104847
000030 3b 77 9f bd a6 4e eb 3d 02 bd 33 3e b4 9c 6b 3e
       -0.07786413 0.114896104 0.1755257 0.23008996
000040 53 d9 1b 3e b6 1d b7 bd 33 af 10 be e4 b2 53 3c
       0.15219621 -0.08941214 -0.14129333 0.012921069
000050 21 fa 57 3e 94 4c 77 3d 62 fc 44 3e 26 eb 24 3e
       0.2109151 0.060375765 0.19236901 0.16105327
000060 01 fb d7 3d 16 66 8d be c3 26 2f be a9 75 83 3d
       0.10545922 -0.27616948 -0.1710463 0.06418926
000070 42 2c 8e 3d fd 24 01 3e d0 b3 31 3e e3 45 65 3e
       0.06942035 0.12611766 0.1735375 0.22389941
000080 d8 e6 e5 3c 41 cb 8d 3e 46 7f d3 3e 47 85 48 3e
       0.028064176 0.27694133 0.4130804 0.19582091
000090 95 30 5f be 82 2a 02 be b8 27 72 be 87 57 bd 3d
       -0.21795876 -0.12711528 -0.23647964 0.0924521
0000a0 ae 06 99 3e 80 13 59 be bd fe 5a 3e d7 ca 21 3e
       0.2988791 -0.21198845 0.21386237 0.15800034
0000b0 cd fe 86 3e 3b cb 98 3c 51 de c1 3e e7 c8 c8 be
       0.26366273 0.018651595 0.37864926 -0.39215776
0000c0 d5 6f a2 3c c5 37 aa 3d
       0.019828716 0.083114184

pi.net.2.weight f4 [50, 50]
000000 f6 48 69 bc da 3c 34 bd e0 77 73 be 09 66 8f ba
       -0.014238587 -0.044003345 -0.23776197 -0.0010940443
000010 02 98 de bc 1b b1 02 3c aa fd 66 3c a7 19 ae bd
       -0.027172092 0.007976796 0.014098564 -0.085009865
000020 cd d4 ac bd 30 9d d6 3d 28 5c b0 3d 67 3c 72 be
       -0.08439026 0.104792 0.086113274 -0.23655854
000030 6d 90 1f 3e 0b e8 91 3c 37 4e 9f 3d 3e cd 55 bc
       0.15582438 0.017810842 0.0777859 -0.013049422
000040 7f 8b 8a be 96 82 1f bb 3c 64 05 3d 4a 23 d5 bd
       -0.27059552 -0.002433931 0.032566294 -0.104071215
000050 b1 17 1f be ae f2 a2 3d 70 d5 24 bc 74 ca d7 3b
       -0.15536381 0.07956444 -0.010060653 0.0065854136
000060 27 c0 b2 3d ab bb a5 bd 0a f2 fb 3d 6f 9b 2b 3e
       0.087280564 -0.080924354 0.12302025 0.16758512
000070 a2 88 22 be 7f 69 83 3d fb 1c 11 3d aa 06 a4 3c
       -0.15872434 0.06416606 0.03542803 0.020022709
000080 94 a6 21 3e d3 bf bf bd 12 00 6e 3d b9 d5 26 3e
       0.15786201 -0.093627594 0.058105536 0.16292466
000090 b8 ba 4e 3e 11 8a 0b be 36 48 45 3e 14 91 fd bd
       0.20188415 -0.13626887 0.19265828 -0.12381187
0000a0 71 dd 8d be e8 5e c5 be 25 8d 1f bd 6a 8d d4 3c
       -0.2770801 -0.3854897 -0.038952965 0.025946338
0000b0 8d 36 dd bd 41 15 30 be 43 d8 57 be 3d 30 4c 3e
       -0.1080142 -0.17195608 -0.21078591 0.19940276
0000c0 ad f1 37 3d e8 34 df 3d b0 ca 71 3d 85 d0 ad 3d
       0.044908214 0.10898763 0.05903119 0.084870376
0000d0 05 b8 b8 bc ec 68 d4 3d 55 9d 91 3d 64 79 3e 3e
       -0.022548685 0.10371575 0.07110087 0.18600994
0000e0 08 5d 8b 39 c5 4b 35 be ef 25 8c bd 69 5b 17 3e
       0.0002658146 -0.17704685 -0.06843173 0.14780964
0000f0 1f 46 43 3e 4a b6 01 3e 75 83 43 3e 92 91 f9 bc
       0.19069718 0.12667194 0.19093116 -0.030464921
000100 7e 1d b2 3d 53 69 25 bd 3b a4 90 3d d9 b8 bd 3d
       0.086970314 -0.040383648 0.070625745 0.092637725
000110 7f b9 bb 3d 87 41 da bd ef e9 e4 3c 0a 86 7e bd
       0.0916624 -0.106570296 0.02794358 -0.06213955
000120 18 27 35 bd fc 00 85 bd 98 4a 14 3e c2 7b 28 bd
       -0.044226736 -0.064943284 0.1448158 -0.04113365
000130 62 ea 65 bd f1 94 19 bd 67 f5 97 bc ae 26 71 3e
       -0.056131728 -0.037495557 -0.018549634 0.23549911
000140 7a 60 03 bc 18 c6 04 3e 35 69 14 be 7a be 9b 3e
       -0.008018607 0.12966192 -0.14493258 0.3041876
000150 fe f4 5e 3e 72 a3 77 3d 4a 43 75 3c b3 38 61 be
       0.21773145 0.060458608 0.014969656 -0.21994285
000160 d0 e4 ac 3b 38 f5 b0 3d ac 64 67 3d f6 23 13 be
       0.0052763 0.08640522 0.056492493 -0.14369187
000170 f8 df ed 3d 67 5b 8b bd af c4 49 3c 82 56 86 be
       0.11614984 -0.06804543 0.012314959 -0.26237875
000180 da ec 9b bb 6e 26 83 bd 94 46 0c be a7 32 93 bc
       -0.0047584595 -0.06403814 -0.13698798 -0.017968489
000190 0b 79 c3 3c 8c 1b 92 bd 4f 30 db bd f1 2d 19 bc
       0.023861429 -0.071341604 -0.107025735 -0.009349332
0001a0 eb 39 b3 bd 17 cc 12 bd f4 c2 ac 3d a2 99 02 3e
       -0.08751281 -0.035839166 0.08435622 0.12753919
0001b0 44 7e 60 bd d8 39 1d be 34 ea 5a be 1a f6 55 3d
       -0.054807916 -0.15354097 -0.21378404 0.052236654
0001c0 ea d1 cc 3d 9e 70 c2 3d 72 01 0c 3e c9 9d 43 be
       0.100009754 0.09494136 0.13672426 -0.19103159
0001d0 40 9a 48 3e 73 47 14 3b e3 06 98 bd c5 7c 89 3d
       0.19590092 0.0022625595 -0.074231885 0.06713251
0001e0 40 84 02 3e ee 50 e4 bc 53 54 90 bc 70 98 d3 3d
       0.12745762 -0.027870622 -0.017618334 0.103318095
0001f0 5f 5c 82 bd 3a ea 83 bd c8 6d 31 3d 7c 79 91 3b
       -0.06365275 -0.064411595 0.043317586 0.004439531
000200 af 75 4e be 1f c8 f3 3d 60 7d 0a be cd ef e9 bd
       -0.2016208 0.119034044 -0.1352439 -0.114226915
000210 b3 74 0f 3e 3d 61 32 3e 8e bf d3 3d f6 8c 5d bd
       0.14009361 0.17419906 0.103392705 -0.05408951
000220 d5 cb 14 3e 44 c1 ee 3d 15 07 c6 3d f3 2b 84 be
       0.14530881 0.11657956 0.096693195 -0.2581478
000230 74 9c 88 3d 99 a8 70 3d 14 cc 88 3d 3c 8f 89 3d
       0.06670466 0.058754537 0.0667955 0.06716773
000240 cb aa 3c 3d 80 8e da bd 62 d6 05 be cd e7 56 3e
       0.04606132 -0.10671711 -0.13070062 0.20986862
000250 af f7 7e 3d 4e 4e 88 be 25 8b 3a 3e 76 cc 85 bd
       0.06224793 -0.26622242 0.18217142 -0.065331385
000260 26 12 10 3e db c1 2c be 0f 81 e1 3c bc 7e 9b 3d
       0.14069423 -0.16870825 0.02752736 0.07592532
000270 28 4d d6 3d c4 9e e6 3c be e5 6d 3d 1c e8 cb 3c
       0.10463935 0.028151877 0.058080427 0.024890952
000280 81 e5 4a be fa ee 44 be 40 61 4e 3e 34 fa 56 bd
       -0.19814111 -0.19231787 0.20154285 -0.052484706
000290 11 b9 5d 3e fc e3 ca 3d cf 07 b0 3d 4e ca 0e 3e
       0.21652628 0.09906766 0.08595239 0.1394436
0002a0 a0 f8 5b bc 9c 08 f8 bd 8b bf d6 3d 35 64 af ba
       -0.013425976 -0.12111017 0.10485753 -0.0013381304
0002b0 36 e8 86 bb b6 a0 ca 3d 2d 9a b1 bc ef 46 f7 3d
       -0.004117037 0.098939344 -0.021679962 0.120740764
0002c0 db 70 bf bd 9a 94 71 3e cc c3 4c 3c 65 c6 a4 3d
       -0.09347697 0.23591843 0.0124978535 0.08045653
0002d0 0c 15 c5 3c 57 c7 9a 3c 6a 77 a5 bc dc db e5 3d
       0.024057887 0.01889388 -0.020198543 0.112235755
0002e0 43 d9 ef 3d bb 2a 38 be d7 0c 9f 3c 0a 9b 68 3d
       0.11711361 -0.1798505 0.019415302 0.05678848
0002f0 cd 0e 8e 3d aa 46 49 3d 08 1f 89 bd 5b 0e 21 3d
       0.06936417 0.049139656 -0.06695372 0.03932033
000300 99 9e e1 3d f1 62 c8 39 18 60 4a be d5 7f 4f bc
       0.11016578 0.0003822069 -0.1976322 -0.012664755
000310 ac 0c 81 3d c4 f6 61 3d 0c 90 39 3e 51 e4 32 bd
       0.06301245 0.055166975 0.18121356 -0.04367477
000320 42 f1 34 bc f4 e3 f4 3c 85 aa c0 bc 51 4d 59 3e
       -0.0110438485 0.029893853 -0.02351881 0.212209
000330 47 ec 64 bd 8a 05 4a 3d 89 8d d0 bb 5c cc 66 3c
       -0.055889394 0.04932169 -0.0063645286 0.014086809
000340 00 bc 0d 3e c5 a3 77 be bf 9f 11 3b 98 ab 57 3c
       0.13841248 -0.24183567 0.002222046 0.01316347
000350 55 65 17 3e 69 ee 3c bc 13 02 19 3e 99 fd 10 3e
       0.14784749 -0.011531451 0.14942198 0.1415924
000360 6c 07 ef 3d 69 f6 b3 3d ad d9 4c be b7 63 d2 3b
       0.116713375 0.087872334 -0.20004912 0.0064205783
000370 04 84 0e bd e3 fe 3d bd a5 ee 0a be 8c 7d e5 3d
       -0.03479387 -0.046385657 -0.13567598 0.11205587
000380 bb 37 e0 3c 38 07 a4 3d 7d 32 6b 3d 0f 09 96 bd
       0.027370324 0.08009189 0.057421196 -0.073259465
000390 f1 68 02 bd 06 c5 15 3d a3 e9 a0 3d 6e a1 56 bd
       -0.03183836 0.03656485 0.07857063 -0.052400045
0003a0 09 6c 5b 3e 47 a4 5d 3b 06 b5 da 3d 26 db 02 bd
       0.21427931 0.003381984 0.10679059 -0.031947277
0003b0 a5 27 32 be 18 1d ed bb 84 d0 02 3e 3f 61 00 be
       -0.17397936 -0.0072361343 0.12774855 -0.12537096
0003c0 81 db be bd 4c 5b 02 3e 7f 93 74 3e 6f a1 05 be
       -0.09319211 0.1273014 0.2388439 -0.13049863
0003d0 a3 26 e2 3d 3b ff f6 bd ad 23 12 3d 78 71 17 be
       0.110425256 -0.120604 0.035678554 -0.14789379
0003e0 e0 8c 45 bd 1a 11 67 3d 68 c4 41 bc b2 2c e3 bc
       -0.048230052 0.056412794 -0.011826612 -0.027731273
0003f0 78 9b 08 bc f7 1f ee 3d 1f dc 7a 3d 4b 27 b4 bc
       -0.008337848 0.116271906 0.06124508 -0.021991393

pi.net.2.bias f4 [50]
000000 ff 25 0b 3d 4d ae 2d bd 68 b4 ca bd 48 69 72 3d
       0.033971783 -0.042402554 -0.09897691 0.059182435
000010 18 b8 95 3d e5 ca ff 3c 5a aa 20 3e 61 66 79 3c
       0.07310504 0.031224677 0.15689984 0.015222163
000020 4a d5 9e bd 5e b6 fe 3d 35 0d fa 3d 22 fe 12 3e
       -0.077555254 0.124371275 0.1220955 0.14354756
000030 a7 66 19 bd 5a 63 0a 3d 92 eb 69 3c ae 2e 4f 3e
       -0.037451413 0.033786155 0.014277356 0.2023265
000040 b4 6c 94 3d 58 7f ed 3c 14 fb 84 3d 2f 30 25 bd
       0.07247296 0.028991386 0.06493202 -0.040329155
000050 61 dd 05 3d 93 2d 00 be b0 f3 37 3d ba 49 2f 3d
       0.032681827 -0.12517385 0.044910133 0.04279492
000060 66 4b 90 3e 9c 96 b8 3d 10 f9 10 3d 4d e6 11 3e
       0.28182524 0.090131015 0.035393775 0.14248009
000070 35 3d 84 3e 5e e1 b9 3c 21 b3 db bd ae 7a 56 3e
       0.25827947 0.022690471 -0.107275255 0.20945236
000080 d0 71 8a 3d f1 72 45 3e 10 e4 86 3e e5 9f fc 3d
       0.06759989 0.19282128 0.26345873 0.12335185
000090 5a 2e 83 3d 61 1f b6 bd 53 c2 7c 3d 98 60 69 3d
       0.06405325 -0.08892704 0.06170876 0.056976885
0000a0 7b c0 f3 3c 59 57 83 3e c0 3e 85 3d d8 0c ee 3c
       0.029754868 0.25652578 0.06506109 0.029058859
0000b0 bb 2b a1 bd e4 63 3a 3c 5f e1 a5 bc aa 8a 9f 3d
       -0.07869669 0.011376355 -0.020249067 0.0779012
0000c0 a6 88 3e 3e fc 65 aa 3d
       0.18606815 0.08320233

pi.net.4.weight f4 [4, 50]
000000 8b cb 4c be e9 07 8b be c0 9f ce 3d 4f 1b 36 3e
       -0.1999952 -0.27154472 0.10089064 0.17783855
000010 0f 30 e7 3d b0 19 69 3e aa 7a bf 3e d0 23 d6 be
       0.11288463 0.22763705 0.37398273 -0.41824198
000020 37 db a1 bd 8d e3 86 be 45 b3 63 3e bb b9 7d 3e
       -0.0790314 -0.26345482 0.22236355 0.24777882
000030 25 8a 1e be cc 58 56 3e d3 32 81 bd eb 1a 30 bd
       -0.15482385 0.20932311 -0.06308522 -0.04299442
000040 54 98 1c bd 13 63 78 3e 18 a1 03 3e ad 10 ee be
       -0.03823121 0.24256544 0.12854421 -0.46497098
000050 61 6e 70 3d 25 64 26 3e ea a0 dc bd 38 c5 89 be
       0.058699016 0.1624914 -0.107728794 -0.26908278
000060 01 12 b7 3d 7e 05 19 3e 6d 52 d0 bc d4 fc b8 be
       0.08938981 0.14943501 -0.025429929 -0.36130393
000070 bc 90 dc 3d 12 9d bc 3d d9 a4 23 be 86 ec 81 bd
       0.107697934 0.09209646 -0.15980853 -0.063439414
000080 4f 40 95 3e 8d 39 39 3e 28 16 3a 3e bd 16 b4 be
       0.29150626 0.1808836 0.18172514 -0.35173598
000090 9e 23 a8 be b3 ab 43 3e 10 0f 65 be 0f d9 6e be
       -0.32839674 0.19108467 -0.22369027 -0.23324989
0000a0 b5 26 c0 bb 6b 3f 66 3e f5 20 aa bd ee 08 98 be
       -0.0058639892 0.2248513 -0.08307067 -0.29694313
0000b0 5d a7 81 be b1 f5 0b 3e c2 0e 08 be 11 d6 64 be
       -0.25323 0.13667943 -0.1328688 -0.22347285
0000c0 c8 27 f5 3d ee 88 d2 3d 1c 13 ce 3e 02 80 63 be
       0.11970478 0.102800235 0.40248954 -0.222168
0000d0 1d 95 96 be 01 d6 4c be 24 69 d6 bd 7e d4 bd 3d
       -0.2941064 -0.20003511 -0.10469273 0.09269045
0000e0 ea 30 28 3e 8c fe b4 bd 7c 06 0c be 2a 34 51 3e
       0.16424909 -0.088376135 -0.13674349 0.20430055
0000f0 9e 8b b5 3e 65 d9 aa 3e a7 66 cd be 53 2d 3b be
       0.35458082 0.33368984 -0.4011738 -0.18279009
000100 f2 f3 22 3e 5e b7 0d bd 42 b4 25 3e f7 c6 d5 bd
       0.1591337 -0.0345987 0.16182044 -0.1043834
000110 94 cf 79 3d 24 ae 5a 3e a0 4b ce bd b0 74 8c 3e
       0.060988978 0.21355492 -0.10073018 0.27432775
000120 df f1 e4 bd 03 35 52 be 50 2b cb bc 7a c2 59 be
       -0.11178946 -0.20528035 -0.024800926 -0.21265593
000130 63 99 a7 bd 2c 9b 2f be ea 27 97 3e 81 3a 39 bd
       -0.08183553 -0.17149037 0.2952264 -0.04522181
000140 d1 1a c8 3e cb 2e 5a 3e d1 36 eb bd f4 f8 67 3e
       0.3908296 0.21306913 -0.11485065 0.22653562
000150 aa 10 93 3d 09 cf d0 3e 50 4e 66 3e a1 10 a8 be
       0.07180913 0.40782955 0.22490811 -0.32825187
000160 7c d0 fd bd 89 30 87 be c7 33 64 be 6b 75 6c 3d
       -0.12393281 -0.26404217 -0.22285376 0.057729166
000170 1c 47 79 3e 82 b6 e9 bd 54 fe af 3d f9 7c 2d bc
       0.24343532 -0.11411764 0.08593431 -0.010588878
000180 34 33 4a be 97 2d 9b be 60 be e0 3c 81 97 ae 3e
       -0.19746095 -0.3030822 0.027434528 0.34099963
000190 ec d0 05 be 88 55 46 be 1a 08 56 bd 8f 6e 59 be
       -0.13067979 -0.19368565 -0.05225382 -0.21233581
0001a0 7f 07 58 bd ea 24 59 be b3 a8 27 be fe 28 6a be
       -0.052741524 -0.21205488 -0.16372947 -0.228672
0001b0 8f 5a 32 be d5 3d a4 3e 34 be 89 3e 31 6d c3 be
       -0.17417358 0.32078424 0.26902926 -0.38169244
0001c0 9e 04 5b be 96 cc 70 be 04 da 37 3e 44 50 b4 3e
       -0.2138848 -0.23515543 0.1795426 0.35217488
0001d0 7d 55 a3 bb d6 4b 97 be f3 e9 c5 be b2 bc 74 be
       -0.004984556 -0.29550046 -0.38655052 -0.23900107
0001e0 49 1e ba bd 5b bd 69 be 17 1b 44 3c f2 30 4b 3e
       -0.09087808 -0.2282614 0.011969349 0.1984289
0001f0 64 cf d2 3e 6f fb 05 3f 2c 76 05 be ad 28 a1 3d
       0.4117385 0.5233678 -0.1303336 0.078690864
000200 76 a3 11 3e 4f 4b f2 bc 6d 61 fb bd cf 10 54 3e
       0.14222512 -0.029576926 -0.12274442 0.20709537
000210 95 ed ec 3b 4b 3d c1 3d 17 ad ad 3d 7d d6 26 3e
       0.0072304704 0.09435519 0.0848028 0.16292758
000220 a4 55 72 bd 4a e2 c4 bd 60 91 50 3e 20 df 3f 3e
       -0.059163705 -0.09613474 0.20367956 0.18737459
000230 b6 93 ea 3d f1 de ab 3e 69 ad e1 bd 05 06 8b bd
       0.11453955 0.33568528 -0.110194035 -0.067882575
000240 b0 3f 59 bc fa be 89 be 52 c2 a0 3d 61 18 0e bd
       -0.013259813 -0.26903516 0.07849564 -0.03469122
000250 38 7e 64 3e e2 73 43 3e cd 42 12 be c5 a7 51 3b
       0.22313774 0.19087175 -0.14283295 0.0031990868
000260 72 d4 5b be 57 96 23 3e 72 fb 76 be 57 9e 00 bf
       -0.2146776 0.15975319 -0.24119356 -0.5024161
000270 30 55 5a be 66 bd 10 bd 03 9a f7 bc 29 74 1d 3e
       -0.21321559 -0.035336874 -0.030224806 0.15376343
000280 b1 b3 78 3e a5 bf f8 be 8d 7a b8 3d 90 a1 8a 3d
       0.24287297 -0.48583713 0.0900775 0.06769097
000290 9d 50 72 be a8 31 b7 3e 9f c2 a6 bd 7f 0f c2 3e
       -0.23663564 0.35780072 -0.0814259 0.37902448
0002a0 6e 50 4a 3e 1d ec 2a bb 40 c1 02 bd 77 da 70 be
       0.19757244 -0.0026080676 -0.03192258 -0.23520838
0002b0 7b 68 57 3e b8 fe 00 be ba b2 04 3e 82 84 37 be
       0.2103595 -0.12597167 0.12958804 -0.17921641
0002c0 b7 ef 34 3e 3b 1e 6a bd b3 4a 6a 3e 79 92 8e 3e
       0.17669569 -0.057157736 0.22880058 0.27846125
0002d0 d2 0a 91 3b 19 c1 01 3e 28 a4 53 3d 1c 6f 4b be
       0.0044263387 0.12671317 0.051670223 -0.19866604
0002e0 7d fa d5 3d 19 ef bb be 85 95 91 3e 56 99 ec bc
       0.104481675 -0.36705855 0.28434387 -0.02888171
0002f0 40 7d 88 be b0 5b e6 3d aa d3 2b be 61 59 82 3e
       -0.26658058 0.11247957 -0.16779962 0.25458816
000300 74 2c 01 3e db bf 9e be be 68 7e 3e 6f ee 8a 3e
       0.12614614 -0.3100575 0.24844643 0.27135035
000310 51 ba 74 be 45 9f 41 3c f3 c7 19 3e d9 32 ed bd
       -0.23899199 0.011817758 0.15017681 -0.11581964

pi.net.4.bias f4 [4]
000000 87 d3 ae 3d 3d 39 d2 3d a8 0c 4f bd a4 5a d9 3d
       0.085364394 0.102648236 -0.05054918 0.106129915

v.net.0.weight f4 [64, 40]
000000 0d 07 08 3e 64 02 43 be f9 0c 2f 3d 77 04 57 3e
       0.1328394 -0.1904388 0.04273698 0.20997797
000010 99 c7 2a 3d 3e 2d 85 bd da 19 69 3e 5b d2 0b be
       0.041694257 -0.0650277 0.22763768 -0.13654463
000020 26 9e 9a be e2 91 0a 3d 9d a1 8a 3b b3 70 39 bc
       -0.30198783 0.03383053 0.0042306916 -0.0113183735
000030 97 54 4d 3d b8 e6 b1 bd 0f 91 e5 3d 02 a6 8d 3d
       0.0501295 -0.08686584 0.11209308 0.06916429
000040 bd 78 7e 3d df 6a a2 3b be fd c3 3c 88 61 88 bd
       0.062126864 0.0049565877 0.023924705 -0.066592276
000050 da d0 70 bd 63 31 62 bd de d2 3d 3d 39 12 a6 3d
       -0.058792926 -0.05522288 0.046343677 0.081089444
000060 38 25 4c bc a0 ac bd 3d 1d de c9 3e 51 df 27 3c
       -0.0124600455 0.09261441 0.3942727 0.010246114
000070 3b 75 2c be c7 1f 6e 3e 68 fc 47 be 81 28 81 3d
       -0.16841595 0.2325431 -0.19529879 0.06306554
000080 6d ee ac bc fb bb 81 3b 00 93 85 3e 24 24 d1 3d
       -0.021109784 0.0039591766 0.26088715 0.102119714
000090 d2 9f 40 3d b4 89 44 3d db 02 15 3d 00 b0 c5 bd
       0.047027417 0.047982886 0.036379676 -0.0965271
0000a0 19 87 01 bf d9 53 62 3e 34 e3 fa bc 3b 9b 54 bd
       -0.5059677 0.22102298 -0.030625917 -0.05190585
0000b0 18 70 1e 3e ad d4 32 be ee 2c 01 be 98 ac c9 bd
       0.15472448 -0.17463942 -0.12614796 -0.09847373
0000c0 a0 46 1f bd 47 3d 71 be 9e 56 66 be ab c1 9b 3d
       -0.038885713 -0.23558532 -0.2249398 0.076052986
0000d0 c0 39 80 bc 44 a2 c9 bd 73 1f eb 3b 5d 67 23 be
       -0.015652537 -0.09845403 0.00717538 -0.15957399
0000e0 c7 4f 4d bd 32 d3 18 3d 50 27 72 3d 13 5c 2c 3d
       -0.05012491 0.037310787 0.059119523 0.042079996
0000f0 d4 fb d4 be 19 20 55 3e 06 10 fd 3c 78 2a d9 bd
       -0.4159838 0.20813026 0.03089143 -0.106038034
000100 66 10 38 3d 56 2a be bd c2 38 0f bd 3b e4 66 3d
       0.044937514 -0.09285419 -0.034966238 0.05637
000110 8d d0 67 3e 30 f8 73 be 7d c6 58 bd c7 11 7e 3c
       0.2263815 -0.23825145 -0.05292367 0.015507168
000120 d4 97 31 bd 49 40 b4 bc 81 56 c2 3d b6 2d 3d be
       -0.043357685 -0.02200331 0.094891556 -0.18474469
000130 c0 2d 71 bd 77 f0 31 3c b9 4c 93 3c d5 2c dd 3b
       -0.05888152 0.010860554 0.01798092 0.006749729
000140 4f 80 38 3f 9d d7 06 3f ca 8a 56 3e 63 cc 8b 3c
       0.72070783 0.5267275 0.20951381 0.017065233
000150 db 7e 98 bd 73 61 56 3e 08 f7 26 3e 33 8d c1 bd
       -0.07446071 0.20935611 0.16305172 -0.0945076
000160 6d a8 90 3d 23 65 0d 3e 56 4b 82 bd c0 4c 4d 3e
       0.07063375 0.13808112 -0.063620254 0.20048809
000170 b2 75 27 3e 76 14 b9 3e 98 4d 78 bd df a0 25 be
       0.16353491 0.36148423 -0.060620874 -0.16174649
000180 04 a3 e5 3c 48 d6 62 3c 14 d4 be 3d b8 dc 03 bd
       0.028031833 0.013845034 0.093177944 -0.032192916
000190 b0 21 05 3f a7 58 61 3e 1e 9f 5e 3e 62 cb 03 3e
       0.5200453 0.22006474 0.21740386 0.12870553
0001a0 fb b3 51 3d f4 65 d3 bc 6c 49 aa bd d6 bb 9c bd
       0.051197033 -0.025805451 -0.08314785 -0.07653014
0001b0 3c 83 b2 3d 68 85 91 3e 8e dd cf 3d ee 08 83 3e
       0.08716437 0.28422093 0.1014968 0.2559275
0001c0 c1 b9 b4 3d 8a 1b 44 3e dc a3 dd bd e4 15 e8 bd
       0.08824492 0.1915113 -0.10822269 -0.113323
0001d0 da 82 09 3c 37 16 a5 3d ed df fa 3d 07 b3 c6 bc
       0.008393014 0.08060878 0.12249742 -0.024255289
0001e0 65 bf a3 be e2 05 06 bf 05 70 2d 3e 72 c8 c6 bc
       -0.3198196 -0.52352726 0.16937263 -0.024265502
0001f0 d4 ca 61 be 18 85 e4 3d e1 da 21 3c cd f7 48 be
       -0.22050029 0.11158198 0.009878845 -0.19625778
000200 b7 73 b0 be b2 da 5f 3e 72 79 bd bd 33 fa d6 bd
       -0.34463283 0.2186077 -0.092516795 -0.104969405
000210 41 1e 42 3d 89 81 ce 3d 2f a1 b1 bd 61 66 d5 bd
       0.047392134 0.100833006 -0.086733215 -0.10419918
000220 94 f6 82 3a 97 4c ff bb 00 5c df bc 43 0c 61 3d
       0.0009991699 -0.0077911126 -0.027265549 0.054943334
000230 c0 bd 64 be 5a 55 c4 be b3 41 96 3e 28 7e 00 be
       -0.22338009 -0.38346368 0.29347 -0.12548125
000240 02 11 18 bd 52 2f c7 3c 08 00 3c bd f0 fc 1b be
       -0.037125595 0.024314556 -0.045898467 -0.15233207
000250 ef 6f 97 be 9d cb a7 3e 23 1d b0 bd de 0b c4 bd
       -0.29577586 0.32772532 -0.085993074 -0.09572576
000260 3d b3 d0 3c 71 ff 6a 3c 14 f7 e2 bd 56 27 28 3d
       0.025476092 0.014343129 -0.11082283 0.04105314
000270 70 4c f4 3b b5 87 2e 3d 12 30 b2 bc 77 65 9c 3d
       0.007455401 0.04260989 -0.021751437 0.076365404
000280 65 c5 11 bf 82 64 4c bf 72 b0 82 3b 9a 79 4a 3d
       -0.56941825 -0.7984086 0.003988319 0.049432375
000290 a8 d7 c9 3c 39 23 2c 3e 12 3e 4c be 70 c2 53 3e
       0.024638966 0.16810311 -0.19945553 0.20679641
0002a0 1c b1 77 3e 86 a2 58 be b6 17 82 3e ad 7d 08 3b
       0.24188656 -0.21155748 0.25408715 0.0020826862
0002b0 0e ed 93 3d 40 f6 58 be c9 8f 1f be aa e7 be 3d
       0.07222949 -0.21187687 -0.15582193 0.0932153
0002c0 92 b4 58 bc 4e 93 9d bd e9 a2 10 bd bf e7 70 3d
       -0.013226645 -0.07694112 -0.035311613 0.05881476
0002d0 24 ab e8 be 66 e9 46 bf f6 74 1d 3e e9 d6 42 3d
       -0.4544307 -0.7769989 0.15376648 0.047568236
0002e0 48 ab ac bd 50 00 b0 3d a5 3b eb be a5 2e d4 3d
       -0.08431107 0.085938096 -0.45943943 0.10360459
0002f0 33 a9 0d bd 9b 75 64 be 94 84 44 3e ad f7 81 bd
       -0.03458519 -0.22310488 0.191912 -0.063460685
000300 47 77 6b 3e 95 54 04 be 40 74 0c be 83 5d c9 3d
       0.2299472 -0.1292289 -0.13716221 0.09832289
000310 f8 01 05 3d 65 f6 11 bd 1e d5 6d bd cf a6 2e 3d
       0.03247258 -0.03563537 -0.058064573 0.04263955
000320 c9 cc 3f bf 8b 23 d8 be 4a 1c a3 3e ff 32 20 be
       -0.7492185 -0.42214617 0.3185752 -0.15644453
000330 40 1d 33 be e3 d8 bb 3c 2e fe 3f 3e 2b a2 ac be
       -0.17491627 0.022930568 0.18749306 -0.33717474
000340 42 68 95 3e 86 81 c9 3e 58 0e bf bc fd 06 ba 3d
       0.29181105 0.3935663 -0.02332227 0.09083364
000350 4e bb a0 3d 30 68 09 bd 00 79 a0 bd 5e 58 ff bd
       0.078482255 -0.033546627 -0.07835579 -0.124680266
000360 4c 00 85 3d a2 98 c8 3d 3a 9f 05 bd 29 c7 90 3b
       0.06494197 0.097947374 -0.032622553 0.004418273
000370 3a 37 3d bf 8f 75 08 bf cf 03 c5 3e 57 7e 93 3c
       -0.73912394 -0.5330438 0.38479468 0.01800458
000380 07 7f 2e 3c cd 73 ae 3e db b9 ef 3e 60 91 6a be
       0.010650403 0.34072724 0.46821484 -0.22907019
000390 21 5e e1 3e 99 d3 f8 3e 16 9c 76 be 9d 9a a9 bd
       0.44017127 0.48598936 -0.2408298 -0.08281443
0003a0 85 71 57 3d ca 02 4c bd 7d cf 37 be 01 f9 2d be
       0.052598495 -0.049807347 -0.17950244 -0.16989519
0003b0 2a c3 bf 3d 76 34 1a 3e 9a 1e 4a bd 6c 35 22 3c
       0.093633965 0.15059075 -0.04934559 0.009900432
0003c0 2d a3 66 3f 96 d1 0d bf 84 33 90 3d 23 55 c3 3d
       0.90092736 -0.5539793 0.07041076 0.09537723
0003d0 aa 08 94 bd de a9 32 bd 33 1c e8 3d ec b8 a6 be
       -0.07228215 -0.04361903 0.113335036 -0.3256296
0003e0 2a ae 89 3c 40 8e 74 3e 11 ee 54 3d ce 26 97 3d
       0.01680668 0.23882389 0.05198485 0.07380448
0003f0 67 df 3f 3c 76 92 9e 3e 3b af 55 be 27 41 e5 bd
       0.011710978 0.30971116 -0.20867626 -0.111940674

v.net.0.bias f4 [64]
000000 30 cf 1d 3f 45 35 81 be 3a a7 de bd e6 a8 ba 3e
       0.6164427 -0.25235954 -0.1087174 0.36456984
000010 1a c7 91 bd ca da 7e 3e 44 39 0a be af 7f 02 3f
       -0.07118054 0.24888149 -0.13498408 0.5097608
000020 c8 9b 98 be e7 52 10 3f 26 56 85 bd 29 69 54 bd
       -0.29806352 0.563765 -0.06510572 -0.0518581
000030 aa 69 07 bf 49 c4 0a 3f 88 3f 2f bc 4a 19 b8 be
       -0.52895606 0.5420576 -0.010696299 -0.35956794
000040 57 90 85 3e 50 35 af be eb 5d f1 3e 6e f4 c5 be
       0.26086685 -0.34220362 0.47141966 -0.38663048
000050 45 85 7b 3e ee 37 6f 3e 9c d5 90 3e 29 e7 9c 3e
       0.24562557 0.23361179 0.2828797 0.3064511
000060 74 a1 a2 3f 0d d8 e7 bd 9e f5 d3 be f0 4f 13 3e
       1.2705522 -0.11320505 -0.4139833 0.14385962
000070 ae 1d a1 3e 1d 43 31 bf e1 d8 b1 3e 66 ee 0b 3e
       0.31467956 -0.6924303 0.34735778 0.1366516
000080 6e 9a 92 3d 08 3b 56 bf 53 94 60 be 53 9e 4e be
       0.071583614 -0.83683825 -0.21931581 -0.20177583
000090 b1 c9 2b 3f 49 f6 4a 3d c3 99 ce be d3 f8 ac 3f
       0.6710463 0.049551282 -0.40351686 1.3513435
0000a0 1d d1 dd 3e d8 8f 3a 3e 1b 1b db bd 81 57 3d 3e
       0.43323603 0.18218935 -0.10698529 0.18490411
0000b0 3b 89 9a bf b8 91 75 bd bc 63 1e 3f 72 0a d8 bf
       -1.207313 -0.05995342 0.6187093 -1.6878188
0000c0 2f 66 09 3f 87 05 04 bf c7 d5 42 3e d0 3d eb be
       0.53671545 -0.51570934 0.19026862 -0.45945597
0000d0 60 e0 c3 3d b3 70 ee 3e 8c 71 28 3d 64 0d 8c 3e
       0.095642805 0.46570358 0.04112391 0.27353966
0000e0 81 9c f6 3d d8 a1 64 3e 32 22 1c bf 35 01 82 be
       0.120415695 0.22327363 -0.6098968 -0.25391546
0000f0 66 23 e0 3f 47 74 4e be 63 35 b3 3e 95 c2 21 bf
       1.7510803 -0.20161544 0.35001668 -0.63187534

v.net.2.weight f4 [64, 64]
000000 d2 74 b8 3d 61 81 26 bd c1 75 a3 3d 14 a9 7b bd
       0.09006657 -0.04065073 0.07981444 -0.061440542
000010 c4 4a 84 bd d3 01 32 be af 9f fb 3b 0f e7 80 3d
       -0.06459573 -0.17383508 0.007678948 0.06294071
000020 49 fd 58 bd 11 a2 85 3d dd 81 b6 3c 99 0d 91 3d
       -0.052975927 0.06525052 0.02227872 0.07082672
000030 ba 6a 9d bd 40 5f 5c 3c ac 20 44 be 12 23 f5 bd
       -0.07686372 0.013450444 -0.19153088 -0.1196958
000040 62 fb c4 bd 53 72 31 3d 14 04 b8 bc 0d 82 36 be
       -0.0961826 0.04332192 -0.022462882 -0.17823048
000050 da a3 bd 3d d0 94 5c 3d 74 22 d1 bc a5 e6 bf bc
       0.09259768 0.053852856 -0.025529124 -0.02342541
000060 05 97 3f 3d 9d e5 e9 bd 1c 74 2e be b9 db 82 3d
       0.046774883 -0.114207484 -0.1703648 0.06389565
000070 6d 0f 3f bd 20 b4 b2 bd 6e ca 90 3d 34 84 68 bd
       -0.04664557 -0.08725762 0.070698604 -0.056766704
000080 9c 92 99 3e 86 3e 69 be 21 ed f8 3c d6 97 7f 3e
       0.29994667 -0.22777757 0.03038651 0.24960265
000090 ee 40 f1 3d 86 be 5e 3d f9 a2 f2 3d ce 18 d7 3d
       0.117799625 0.054380916 0.11847491 0.10502778
0000a0 e6 28 f8 bc 28 ef 11 be db 61 16 3c 38 09 e8 3d
       -0.03029294 -0.14251387 0.009178604 0.11329883
0000b0 25 23 15 be 6e b2 37 3e 15 1d ba 3c 27 6e e5 bd
       -0.14564188 0.1793916 0.022718946 -0.112026505
0000c0 9a b6 89 39 3b 21 49 be 02 aa 83 3c 68 40 ad 3d
       0.00026266725 -0.19641583 0.016072277 0.0845955
0000d0 19 c8 fd bd 6d 28 e1 3b bc 50 1d 3d ea 40 4d bc
       -0.12391681 0.006871274 0.038407072 -0.012527684
0000e0 1f f1 2e 3e dc 79 96 bd 42 87 a1 bc 7e cc 9f bd
       0.17084168 -0.073474616 -0.019717816 -0.07802676
0000f0 d8 8a 33 3e 82 81 31 3e 63 e2 11 be 4a 5e f7 bd
       0.17533433 0.1733456 -0.14246516 -0.12078531
000100 34 bf 32 bd 2f 87 ee 3d b8 af b6 be 15 8c 76 3d
       -0.043639377 0.11646878 -0.35680938 0.060192186
000110 10 4b ff 3d 3b b0 9a 3e 80 28 7f be f3 48 4f 3c
       0.12465489 0.30212578 -0.24917793 0.01265167
000120 67 3f e9 3d 02 29 41 3d f8 24 85 3c 5e 21 a5 be
       0.11389046 0.04715825 0.01625298 -0.3225202
000130 e7 6e 6a 3d 00 76 48 3e 2b 74 ff bd d9 f3 15 be
       0.05723467 0.19576263 -0.12473329 -0.14643802
000140 6c f5 a8 3e 98 9a b9 bc 25 5b 11 3e 7b f1 a7 3e
       0.32999742 -0.022656724 0.14194925 0.32801422
000150 ed 77 33 bd 4d df 9d be 00 f7 3b bc ee 76 14 bc
       -0.043815542 -0.30834427 -0.011472464 -0.009061558
000160 b3 25 2c 3d a9 9e 30 bd 41 2e 42 3b 93 b7 1f be
       0.04202814 -0.04312006 0.002962962 -0.15597372
000170 d3 49 f4 3d 1b 2f ed 3c ca 05 b4 3d bf c3 aa bd
       0.11928143 0.028953126 0.08790167 -0.08338117
000180 47 cd e6 bd 52 fb 09 3e a6 5d 22 3e 77 96 3b be
       -0.11269622 0.13474777 0.15856037 -0.18319117
000190 e8 82 b0 bb 1b 4d 24 bd 5b 77 e2 bd da 01 e1 bd
       -0.005386699 -0.040112596 -0.110579215 -0.10986681
0001a0 29 ca 55 3e 51 25 0f 3e cb bb f2 bd 96 5d 53 be
       0.20877899 0.13979079 -0.11852225 -0.20641169
0001b0 ea 6f cd 3d 81 4e 15 bd f7 16 23 3d 1e 70 1f 3e
       0.100311115 -0.03645182 0.039816823 0.15570113
0001c0 79 60 ec 3d 16 61 a8 bc e2 82 41 3d 8a 6c c1 3d
       0.11541838 -0.020554107 0.04724396 0.0944453
0001d0 8a e1 1d 3e f3 5b b1 3c 5e 38 88 bd 38 85 c8 3d
       0.15418068 0.02165029 -0.06651376 0.097910345
0001e0 8a ff b4 3e 3b 0a c8 3c e2 18 33 3e 37 b0 81 bd
       0.3535121 0.02441894 0.17489961 -0.063324384
0001f0 da a0 0f be bb 5e 22 3d d4 0c a5 3c b9 43 90 be
       -0.14026204 0.039641123 0.020147718 -0.28176668
000200 54 03 95 3c 2d 64 a9 bd 16 5b c9 3c f1 f0 10 be
       0.018190064 -0.0827106 0.024579566 -0.14154412
000210 67 82 c4 3a 0d 24 26 b9 3c a5 da bc e8 ec 82 3d
       0.0014992476 -0.00015844424 -0.026690118 0.063928425
000220 ca c6 d8 3d 72 c1 d3 bd 44 42 53 3d 2f d6 d2 bd
       0.10584791 -0.10339631 0.051576868 -0.102947585
000230 69 41 b2 bd 9b 33 1a be 0e aa 4a be c2 63 74 be
       -0.08703882 -0.15058748 -0.19791433 -0.2386618
000240 7f d3 63 3c f1 2b 0c be 21 4b bc 3d 6e c0 0e be
       0.013905405 -0.13688637 0.09194017 -0.13940594
000250 45 a8 0e 3e 81 8c 39 3e d1 c6 6e 3c b4 dc 37 bd
       0.13931377 0.18120004 0.014573769 -0.044888213
000260 da 21 e1 3d d0 b9 b4 bd 20 73 d2 bc 31 12 c1 3d
       0.10992785 -0.088245034 -0.025689662 0.09427298
000270 10 3b 3f bc 7c 8e 3a be fa 38 c6 bd 8e c2 b5 3d
       -0.011671796 -0.18218416 -0.09678836 0.08874999
000280 18 2c 87 3d 11 66 68 bd bc 3f b1 bd be 13 49 3e
       0.06600207 -0.056737963 -0.086547345 0.19636437
000290 61 63 c3 3d bf 13 83 bc 21 8a a4 bd 20 3c 1a bc
       0.095404394 -0.016000627 -0.080341585 -0.009413749
0002a0 3a c4 3c bd 4d dd 52 be 3c d0 b1 bd 2a c0 30 3e
       -0.046085574 -0.20592232 -0.08682296 0.17260805
0002b0 cc ca 91 3d 4f a3 e5 3d f6 ac c4 3d cb be 1e 3d
       0.071187586 0.11212789 0.09603302 0.038756173
0002c0 f1 48 36 be 11 a6 be bd 0d b1 4e bd 3b c8 cb 3c
       -0.17801262 -0.093090184 -0.050461818 0.02487575
0002d0 b1 c0 22 be fc 0f a8 ba 03 4b 75 3e ca f1 f2 bd
       -0.15893818 -0.0012822147 0.23954396 -0.11862524
0002e0 28 d3 85 3d 76 42 1f be 26 06 56 3d 44 fc 77 3d
       0.065344155 -0.15552697 0.052251957 0.060543314
0002f0 c8 82 b2 3b 10 8d e8 3d cb 60 9d bc da 0d 94 3d
       0.0054477192 0.113550305 -0.019211194 0.072292045
000300 41 40 94 3d 4b a6 15 3d c1 5c 00 be 40 bd 7d 3b
       0.07238818 0.036535542 -0.12535383 0.0038717538
000310 47 3e e1 bc 04 0a c3 3d 31 db 1d 3d 52 a4 9a bd
       -0.027495516 0.09523395 0.038539115 -0.07550873
000320 ed 35 46 3d ae ce 10 3d 3b c9 ef 3d b3 6a ec be
       0.04839127 0.035353355 0.117083035 -0.46175155
000330 82 5c c2 3d aa 62 92 bd a8 5e 02 be 88 df 23 be
       0.09490301 -0.07147725 -0.12731421 -0.16003239
000340 42 7c 12 3f c9 9f 76 3b b1 ee ff bd 15 ff 3a 3e
       0.5722085 0.003763186 -0.12496699 0.18261369
000350 b1 2d 95 3c 80 5b a8 bd af 64 05 be 98 e8 37 be
       0.018210264 -0.08220577 -0.13026689 -0.17959821
000360 95 7c ac 3e c5 ac cf 3d 43 48 a8 bc 6f 03 1c 3c
       0.336888 0.10140375 -0.02054227 0.009522303
000370 3f 94 d8 3b f5 da f4 3c 59 39 0a 3e 08 a3 5d be
       0.006609469 0.029889563 0.13498439 -0.21644223
000380 88 42 82 bd ce 97 e5 3d f2 79 38 3e 47 0e f3 bd
       -0.06360346 0.11210595 0.18015268 -0.118679576
000390 d7 83 22 bc c6 9c 78 b9 5b 28 1b 3e 31 03 75 3e
       -0.009919128 -0.00023709526 0.15152113 0.23926999
0003a0 80 49 63 be eb 4e 28 be 0f 08 c5 3d e3 1c 8b bd
       -0.22196007 -0.16436355 0.09620678 -0.06792619
0003b0 04 b7 92 be 23 39 da 3d c0 a6 a1 bd 5b 69 da be
       -0.28655255 0.10655429 -0.07893133 -0.42658505
0003c0 70 59 83 bd f8 31 96 bd a1 20 71 3d 00 13 1d 3e
       -0.06413543 -0.073337495 0.058869008 0.15339279
0003d0 4b 49 80 3b e2 24 58 3d 02 17 19 be a6 95 40 3d
       0.003914987 0.05276955 -0.14950183 0.047017716
0003e0 4f 06 95 3e d2 38 e4 bd fe 7a 5c 3b ff ae 84 bc
       0.29106376 -0.1114365 0.0033642645 -0.016196726
0003f0 64 84 91 3e cd 07 ec 3d 58 73 aa bd d7 bb 5e bc
       0.2842132 0.115249254 -0.08322781 -0.013594589

v.net.2.bias f4 [64]
000000 fa e2 b6 3e 92 b9 b0 3e 52 65 b6 be 45 6f df be
       0.35720044 0.3451658 -0.35624176 -0.4363958
000010 62 1e 4a 3e 28 bc 0c bf b5 e4 d1 be fd 88 b7 bd
       0.19738153 -0.54974604 -0.40994802 -0.08961675
000020 ca 2e 0d be ae c4 c5 be 29 1e 88 be 4e 83 d2 3e
       -0.1378738 -0.38626617 -0.2658551 0.41115803
000030 11 d1 e4 3e 68 99 f0 3e 38 e2 f2 bd 68 1c 80 3e
       0.44690755 0.4699204 -0.11859554 0.25021672
000040 1b b9 e1 3e ff 1a 94 be a3 d3 d6 3e ed 61 e8 be
       0.44086537 -0.28926846 0.4195834 -0.4538721
000050 f4 e1 cb be cf 72 dc 3e 11 c1 bf 3d d5 50 a6 be
       -0.39820826 0.43056342 0.09362996 -0.32483545
000060 16 85 7c be 27 a1 6e 3e c4 2c 97 3e 5b cb 2b bf
       -0.24660143 0.23303662 0.2952634 -0.6710717
000070 45 3f c7 3e 7f 02 9a 3e 44 71 0f 3f f1 10 12 3f
       0.38915458 0.3008003 0.56032205 0.570571
000080 2e 9e 8d be 80 00 ba be 17 7a fc 3e 4d 29 f4 3e
       -0.27659744 -0.36328506 0.49311897 0.4768776
000090 12 de 87 3e ac 88 ae be 2e 15 8d be d9 2d fa be
       0.26536614 -0.34088647 -0.2755522 -0.48863104
0000a0 81 7f a1 be f5 ed f6 be 06 23 d2 be 84 d8 a5 3e
       -0.3154259 -0.48228422 -0.41042346 0.3239175
0000b0 b4 10 09 3f 87 01 72 be 00 18 98 be 36 9a 20 bd
       0.5354111 -0.23633395 -0.2970581 -0.039209567
0000c0 ad 72 6a be aa 08 03 bf 4e 15 49 3e 75 33 c5 3e
       -0.22895308 -0.51185095 0.19637033 0.3851582
0000d0 df b7 09 bf d2 5d ad 3e 9b 89 fe be cb 0d 03 3f
       -0.5379619 0.33860642 -0.4971436 0.5119292
0000e0 37 74 fd bd ea 26 a2 be b1 cd 98 be 80 48 e7 be
       -0.12375682 -0.31670314 -0.2984443 -0.451725
0000f0 f2 cc 80 be 99 79 f8 be 57 38 db 3e 77 dc e4 3e
       -0.2515636 -0.48530272 0.4281642 0.4469945

v.net.4.weight f4 [1, 64]
000000 cc 28 13 bd cd 97 94 bd 0e c7 74 3d 9d 78 45 3d
       -0.03592758 -0.07255516 0.059760146 0.04821073
000010 83 89 3c bd 88 81 9a 3d 5d 11 cb 3d f8 61 24 be
       -0.04602958 0.075442374 0.09915421 -0.16052997
000020 8c f8 5a 3d dd 2c 70 3d 0f 82 f1 3d 7d ef 09 be
       0.05345969 0.058636535 0.11792385 -0.13470264
000030 37 c7 da bd 6f 2f 15 be 3c 6e d1 3d 7f c6 02 3e
       -0.106825285 -0.14568876 0.10226104 0.12771033
000040 fc b0 d2 bd 07 df 08 3e 7a be 70 bd 14 2e 01 3e
       -0.10287663 0.13366328 -0.058775403 0.12615234
000050 7d d3 00 3e b8 5b 5f bd bd e9 52 3d a9 2a e4 3c
       0.12580676 -0.05453083 0.05149244 0.027852373
000060 1d b5 d0 3d a9 82 b0 bd d7 e3 02 be cc 78 2a 3e
       0.101907946 -0.086186714 -0.12782227 0.16647643
000070 e0 f3 06 be 2f 3b a9 bd 30 9d 83 bd 69 36 62 bd
       -0.13178968 -0.082632415 -0.064264655 -0.05522767
000080 82 2c 5f 3d f8 e9 2a 3e 5a f4 0e be d8 29 3c bd
       0.054485805 0.16690814 -0.139604 -0.045938343
000090 1f e2 10 bc 40 84 90 3d 1a f9 02 3e 8e 9b 96 3d
       -0.008842974 0.07056475 0.12790337 0.073538885
0000a0 ef ed cc 3d 62 fa 83 3d 77 ec f6 3d 92 76 0d bd
       0.1000632 0.06444241 0.12056821 -0.034536906
0000b0 2a 22 96 bd 64 fc 17 3d e9 58 a4 3d f2 59 4f 3d
       -0.07330735 0.037105933 0.08024771 0.050622888
0000c0 d8 a8 1c 3d 7b 9b 1f 3e b0 81 94 bd e0 3d 3f bd
       0.03824696 0.15586655 -0.072512984 -0.046689868
0000d0 7b f9 95 3d a3 a9 dd bd bd e7 b1 3d 12 02 6e bd
       0.07322975 -0.10823371 0.08686779 -0.058107443
0000e0 21 ed cb 3d d1 84 94 bd 5d 43 97 3d 07 67 ef 3d
       0.09957338 -0.07251895 0.073858954 0.11689573
0000f0 b0 2a 2e 3d 3e a9 b0 3d fc 2a 74 bd 6d 6a 5d bd
       0.04252118 0.086260304 -0.059611306 -0.054056574
