experiments/07_control_structure_hypothesis/checkpoints/PWM/DroneCircleBulletEnv-v0/ppo/2021-12-20__11-44-03/seed_00104/torch_save/model.pt (torch, 82448 bytes, 19 tensors)

obs_oms.mean f4 [40]
0.25002202 -0.0019341143 1.0085312 -0.0009766287 0.001629659 -0.17769603 0.9658406 3.169417e-05
0.00035113617 -0.015709803 -0.047408093 0.017445091 -0.07902008 -0.0005008806 0.0018622528 -0.0085309
0.26871917 0.28654343 0.2808664 0.3138964 0.25002292 -0.0019294805 1.0083622 -0.001095887
0.0016556571 -0.17810161 0.9653428 9.4154726e-05 0.00051158835 -0.017395332 -0.054423895 0.019156178
-0.0794303 -0.00050330086 0.001867729 -0.008361363 0.26741016 0.28645456 0.27914044 0.31222677
00000000: e302 803e 1b82 fdba 8d17 813f 3902 80ba
00000010: 489a d53a f3f5 35be 5441 773f 5bef 0438
00000020: b318 b839 d8b1 80bc fd2e 42bd 02e9 8e3c
00000030: 48d5 a1bd 874d 03ba d616 f43a 30c5 0bbc
00000040: 8f95 893e d2b5 923e b9cd 8f3e 07b7 a03e
00000050: 0103 803e 9fe6 fcba 0312 813f dea3 8fba
00000060: a202 d93a 4560 36be b520 773f ef74 c538
00000070: 1d1c 063a a880 8ebc 97eb 5ebd 6bed 9c3c
00000080: 5aac a2bd f3ef 03ba 96ce f43a 19fe 08bc
00000090: fce9 883e 2caa 923e 7feb 8e3e 30dc 9f3e

obs_oms.std f4 [40]
0.17643017 0.17537245 0.04055908 0.08634199 0.0843418 0.17674 0.046231356 0.3929701
0.39000943 0.15346763 1.6898065 1.5817143 0.48708007 0.033755165 0.034203377 0.040559173
0.48498178 0.5505307 0.53357714 0.6433885 0.17648135 0.17542365 0.041255552 0.088120304
0.085861884 0.17691955 0.04940413 0.39477792 0.39194018 0.16404797 1.7357002 1.6097325
0.490108 0.034147017 0.034570623 0.04125543 0.48396683 0.5502108 0.53200907 0.642656
00000000: 1caa 343e d694 333e 4721 263d 12d4 b03d
00000010: 65bb ac3d 55fb 343e 175d 3d3d 6033 c93e
00000020: 51af c73e 9e26 1d3e 944b d83f 9d75 ca3f
00000030: 8f62 f93e db42 0a3d d718 0c3d 6021 263d
00000040: 884f f83e 94ef 0c3f 8398 083f 1cb5 243f
00000050: 87b7 343e 42a2 333e 95fb 283d 6b78 b43d
00000060: 5bd8 af3d 662a 353e fc5b 4a3d 5520 ca3e
00000070: 62ac c83e 31fc 273e 6d2b de3f b70b ce3f
00000080: 70ef fa3e bedd 0b3d ed99 0d3d 74fb 283d
00000090: 80ca f73e 9dda 0c3f bf31 083f 1b85 243f

pi.log_std f4 [4]
-4.5100417 -4.5100417 -4.5100417 -4.5100417
00000000: 4352 90c0 4352 90c0 4352 90c0 4352 90c0

pi.net.0.weight f4 [50, 40]
0.16447473 -0.29976818 -0.080997474 0.14055136 -0.054138273 -0.23864107 -0.010604606 0.13361579
0.007864319 0.0011383438 0.18984859 -0.2875016 -0.025227517 0.11287872 -0.16439745 0.13240118
-0.024175745 0.0032335182 -0.1364346 -0.17944615 0.11721198 -0.038673233 -0.27116096 0.10296079
-0.14158273 -0.068181716 0.17655796 0.11032065 0.10302039 -0.42417198 0.061727237 -0.27036995
0.019445747 -0.14124076 -0.25753507 0.2912794 0.015319015 -0.08179663 0.07450643 -0.022027032
0.042798754 -0.04251075 0.01896464 -0.03960131 0.03013633 -0.10792587 0.1020858 0.15605286
-0.10862984 0.013129575 -0.0076443353 -0.064366475 0.12965544 -0.071522355 -0.20878187 0.19203644
-0.09712902 -0.14318962 -0.23553717 -0.047583885 0.0671058 0.007020271 0.0252762 -0.01725774
-0.09146296 -0.1383314 -0.0324421 0.14555873 -0.08656575 0.071351774 -0.16637596 0.22378838
-0.16745391 -0.16429622 -0.1477626 0.1261194 0.06151992 0.036923207 -0.04656279 0.107215345
-0.17138413 0.027578568 0.11917647 -0.10215833 -0.16900311 0.11931507 0.09958735 -0.24813318
-0.2078498 0.30477336 -0.042888876 -0.06313673 -0.1353737 -0.012238225 0.11026797 0.026291324
0.07271557 -0.0981666 0.09657383 0.113043174 0.023874579 0.22808726 0.116005085 0.10739693
-0.06425401 0.0290037 0.1761302 -0.34142378 0.005945615 0.19428656 -0.03045369 -0.36806586
0.033610094 0.049965344 0.038376044 -0.014775232 0.0925934 0.14159557 -0.019475793 0.041659772
0.13539639 -0.09875261 0.11784408 -0.031891733 -0.12225151 -0.17662571 -0.1071113 0.015954737
0.1962929 -0.050783116 0.19531417 -0.044925645 -0.039832704 -0.006262211 0.11414496 4.634882e-05
-0.050352857 0.04288327 0.15314068 -0.09386586 0.044379313 0.0065517314 0.1549104 0.08490248
-0.3437609 0.04819425 0.13754714 -0.018686654 0.16522016 -0.15684102 0.02301334 -0.108439945
-0.12475496 0.12933625 0.14938004 0.10816699 0.12441803 0.0069706463 0.05521341 -0.0658467
0.407505 0.06317605 0.045667578 -0.046058796 -0.19653013 -0.09980603 -0.0009986716 0.10240455
0.35275137 0.22373702 0.007840913 0.074672915 0.05055988 0.12635784 -0.053577732 -0.14087598
-0.09126086 -0.00093405106 -0.07692025 -0.052523505 0.4876821 0.05389565 0.16153184 -0.10109936
-0.06431111 -0.2145823 0.23031075 0.010177155 0.1818277 -0.01879665 -0.018518802 -0.09624618
0.110819675 0.16814257 -0.08319538 -0.21107711 -0.023548692 -0.02757789 -0.086461306 0.06778873
0.12835465 -0.18416138 -0.16310565 -0.10829239 -0.04102676 0.016322661 0.27427906 0.09574862
0.1649006 0.2348231 0.16468927 -0.2028706 -0.12672062 0.013761109 -0.18774432 -0.122727856
-0.15837792 0.061581563 -0.03345017 0.12424727 0.273285 -0.07225525 0.066772215 -0.1674075
-0.0740955 -0.1716342 0.31464103 0.2010039 0.41037643 0.22751868 -0.3930168 -0.042586766
0.047847684 -0.00056117086 -0.084075145 0.14001547 0.09011684 0.072105184 -0.019157799 -0.043686416
0.1093856 0.0031445262 -0.17634602 -0.12320521 0.035302356 -0.15102212 0.06567549 0.029284703
0.27043322 -0.10789729 -0.13126223 0.08461163 0.047162812 -0.116199724 -0.089154944 0.12770714
00000000: 106c 283e 377b 99be 01e2 a5bd b2ec 0f3e
00000010: 18c0 5dbd 535e 74be f1be 2dbc 94d2 083e
00000020: 58d9 003c 7b34 953a ab67 423e 6933 93be
00000030: f0a9 cebc f52c e73d ce57 28be 2d94 073e
00000040: 360c c6bc 6fe9 533b 83b5 0bbe bbc0 37be
00000050: d60c f03d d367 1ebd 9cd5 8abe 1bdd d23d
00000060: 10fb 10be dba2 8bbd 9ccb 343e cbef e13d
00000070: 5bfc d23d 122d d9be b3d5 7c3d ee6d 8abe
00000080: b04c 9f3c 6ba1 10be a3db 83be 9322 953e
00000090: 9bfc 7a3c fe84 a7bd d496 983d 0972 b4bc
000000a0: bf4d 2f3d c11f 2ebd bc5b 9b3c fc34 22bd
000000b0: 77e0 f63c 3d08 ddbd 5c12 d13d 52cc 1f3e
000000c0: 5279 debd 6e1d 573c 557d fabb 92d2 83bd
000000d0: 65c4 043e 507a 92bd eaca 55be 33a5 443e
000000e0: 94eb c6bd 4da0 12be a830 71be 52e7 42bd
000000f0: c46e 893d 4d0a e63b 0910 cf3c 1b60 8dbc
00000100: ef50 bbbd bfa6 0dbe 02e2 04bd 590d 153e
00000110: 6249 b1bd e120 923d 765e 2abe c828 653e
00000120: 0a79 2bbe 453d 28be 144f 17be 7225 013e
00000130: 50fc 7b3d ca3c 173d a0b8 3ebd b893 db3d
00000140: 527f 2fbe 73ec e13c cb12 f43d 6338 d1bd
00000150: 270f 2dbe 765b f43d 74f4 cb3d a016 7ebe
00000160: 94d6 54be 410b 9c3e 3fac 2fbd d44d 81bd
00000170: 679f 0abe d682 48bc 2cd4 e13d e760 d73c
00000180: e7eb 943d 920b c9bd 80c8 c53d 2e83 e73d
00000190: 9f94 c33c b58f 693e 1394 ed3d ecf2 db3d
000001a0: 9b97 83bd 2b99 ed3c 7a5b 343e 19cf aebe
000001b0: 6fd3 c23b 0ef3 463e 047a f9bc 2173 bcbe
000001c0: bdaa 093d 76a8 4c3d 3330 1d3d d113 72bc
000001d0: 9ca1 bd3d 6efe 103e b38b 9fbc 70a3 2a3d
000001e0: 5aa5 0a3e cf3e cabd 3d58 f13d e8a0 02bd
000001f0: 005f fabd 5fdd 34be 2b5d dbbd 82b3 823c
00000200: 0201 493e f501 50bd 7000 483e f403 38bd
00000210: 9e27 23bd 3c33 cdbb d5c4 e93d ab66 4238
00000220: cc3e 4ebd 5ea6 2f3d e9d0 1c3e be3c c0bd
00000230: 15c7 353d e8af d63b d5a0 1e3e 5ae1 ad3d
00000240: 6e01 b0be 5567 453d 28d9 0c3e c114 99bc
00000250: 792f 293e ef9a 20be 7986 bc3c c315 debd
00000260: 877f ffbd b970 043e 15f7 183e a886 dd3d
00000270: e1ce fe3d 056a e43b 7527 623d a2da 86bd
00000280: 7fa4 d03e 7262 813d ed0d 3b3d 26a8 3cbd
00000290: 323f 49be 1b67 ccbd dce5 82ba 7ab9 d13d
000002a0: d49b b43e 511b 653e 2c77 003c 1dee 983d
000002b0: e017 4f3d f363 013e 5374 5bbd cb41 10be
000002c0: f9e6 babd 1bdb 74ba 5d88 9dbd e322 57bd
000002d0: 78b1 f93e afc1 5c3d 9a68 253e 2e0d cfbd
000002e0: 8bb5 83bd 76bb 5bbe 95d6 6b3e 15be 263c
000002f0: 0a31 3a3e 6ffb 99bc beb4 97bc b81c c5bd
00000300: 6df5 e23d 912d 2c3e 5762 aabd 9924 58be
00000310: 30e9 c0bc 07eb e1bc a012 b1bd d1d4 8a3d
00000320: 676f 033e cd94 3cbe 2b05 27be 67c8 ddbd
00000330: ad0b 28bd 1ab7 853c 4e6e 8c3e da17 c43d
00000340: b4db 283e 7775 703e 4ea4 283e 50bd 4fbe
00000350: 0dc3 01be 4676 613c 0c40 40be be58 fbbd
00000360: d22d 22be f33c 7c3d 0c03 09bd 5a75 fe3d
00000370: 03ec 8b3e 8ffa 93bd dfbf 883d df6c 2bbe
00000380: 62bf 97bd e0c0 2fbe a118 a13e f7d3 4d3e
00000390: dc1c d23e a8fa 683e 7f39 c9be 766f 2ebd
000003a0: effb 433d 8a1b 13ba 972f acbd 3760 0f3e
000003b0: 2e8f b83d e2ab 933d d1f0 9cbc 87f0 32bd
000003c0: 8f05 e03d 6514 4e3b 0d94 34be 0353 fcbd
000003d0: 3499 103d 8ba5 1abe df80 863d 79e6 ef3c
000003e0: 3976 8a3e 41f9 dcbd 9b69 06be dd48 ad3d
000003f0: cb2d 413d 1ffa edbd de96 b6bd a9c5 023e

pi.net.0.bias f4 [50]
0.064843625 0.01492729 -0.034796078 -0.043386728 -0.0017452415 0.34539562 0.27516845 -0.0021875827
0.15103146 -0.16451798 0.45126516 0.13651705 0.23579547 0.2512205 0.12243534 -0.11667524
0.28416446 0.33652064 -0.1050731 -0.039290935 0.03606512 0.110212415 -0.163035 0.06965882
-0.20282567 0.38284078 0.017545117 0.085655734 0.20339821 0.22203797 -0.14315851 0.024179498
0.23941158 -0.047562517 -0.18956289 -0.06885685 -0.13241182 0.2251125 0.24403395 0.20423307
-0.16464154 0.42795518 0.1746735 -0.3820564 -0.07735835 -0.22073461 -0.15013103 0.11337083
0.06342962 0.34216475
00000000: bccc 843d 9891 743c 5586 0ebd 48b6 31bd
00000010: 96c0 e4ba b2d7 b03e e1e2 8c3e 8c5d 0fbb
00000020: fea7 1a3e 6777 28be 3a0c e73e 20cb 0b3e
00000030: 5e74 713e f99f 803e 61bf fa3d 6ef3 eebd
00000040: 017e 913e 6f4c ac3e 9130 d7bd 88ef 20bd
00000050: 05b9 133d 0cb7 e13d a6f2 26be 49a9 8e3d
00000060: 88b1 4fbe b503 c43e c7ba 8f3c 466c af3d
00000070: 9f47 503e ec5d 633e 2598 12be 1514 c63c
00000080: 4f28 753e ead0 42bd c61c 42be d204 8dbd
00000090: f796 07be e483 663e 09e4 793e 7922 513e
000000a0: cb97 28be f11c db3e 9cdd 323e e59c c3be
000000b0: 0e6e 9ebd 4108 62be f3bb 19be f72e e83d
000000c0: 63e7 813d 3830 af3e

pi.net.2.weight f4 [50, 50]
0.094772816 -0.23439123 0.13304837 -0.032500926 0.093067974 0.06732303 0.021465246 -0.007855205
0.072095595 -0.16646032 0.2078799 0.16403434 0.1849275 -0.2566642 0.13428816 0.050439324
0.024867043 0.052341647 0.13523126 -0.0120091615 0.104223244 0.14504036 0.18485136 -0.17932662
0.083125405 -0.12129266 0.19151941 0.05719935 -0.03686149 0.027651707 -0.020562049 -0.09790146
0.026454207 -0.04000832 -0.2362778 0.0643253 -0.10018698 0.08054575 -0.19288659 0.27079824
-0.02548361 0.011292234 -0.26079682 -0.07262619 0.08903515 -0.14911723 0.17034502 -0.002187355
0.0776107 -0.102294035 -0.055099502 -0.014410205 0.20725599 0.15251572 0.06542056 -0.12000657
0.037223537 -0.07076463 0.039684378 -0.19487974 0.02680663 0.07470434 -0.023307996 0.011162576
0.029142294 0.08543945 0.2421796 0.08940137 0.113213 0.0069245296 0.079854965 -0.055401005
0.18189031 -0.10759743 0.012339388 -0.069913305 0.06415561 -0.07494557 0.12735537 -0.09958408
0.08318056 0.046989895 0.047002304 -0.080292895 -0.11495115 0.083729 0.145602 0.014746216
-0.06785747 0.060022242 0.07815744 -0.03456227 0.06559722 -0.05522461 0.012870479 -0.11504931
0.08352194 0.14825296 0.062073063 -0.033705603 0.13820186 0.08243432 0.10466315 0.05635804
0.11482981 -0.10331139 0.07064134 0.15023863 0.19088496 -0.16886353 0.16937724 0.022799628
0.15711261 0.06019846 0.12883537 0.106947914 0.13652413 0.02070109 0.16531213 0.036003843
0.1933926 -0.008043113 0.120040156 -0.059059307 -0.054368164 -0.11074374 0.019741936 0.16502103
0.11373428 0.108827986 -0.18338017 -0.08647132 0.15817916 0.04693361 -0.040688857 0.10893481
0.19423562 0.14790495 0.037602983 -0.019957265 0.17272086 -0.03193077 0.009965711 -0.12767053
0.18563405 -0.022338163 0.10083551 0.19098914 -0.07329614 -0.22513868 0.16479929 0.15025388
0.06586117 0.14615948 0.02230929 0.064558625 0.16645996 -0.04914997 -0.056681015 0.019838573
-0.05574094 0.13042845 0.09537874 0.023900984 -0.14402848 -0.104785 0.10143258 0.100065
0.083068095 -0.056025345 -0.105678275 0.20589824 -0.19940561 -0.046285063 0.024493117 0.045167368
-0.071206376 0.063311234 -0.16576748 0.079912506 -0.17025736 0.009275597 -0.13569547 -0.033319708
0.05705693 0.1475347 -0.060666844 0.1097354 -0.05195035 -0.20400451 -0.038002312 0.083109654
0.030390907 -0.21849823 0.043799993 -0.039624795 0.046822835 0.046860408 -0.1338815 -0.17892274
-0.047792677 -0.010067829 -0.13672006 0.055636495 -0.37636122 0.01496035 0.16821119 -0.024422552
-0.12481065 -0.06223677 -0.13820736 -0.0010151245 0.20689802 0.042535223 0.03555542 -0.03963598
-0.24864197 -0.19017401 0.086067565 0.11643859 -0.08804012 0.13880506 0.009296827 0.19984607
-0.031967305 -0.043306082 -0.13438424 -0.15940446 0.110239156 0.06746662 0.08437407 0.2661275
0.08483283 -0.061464913 -0.044104934 -0.033957716 0.18793117 0.15462121 -0.12716897 -0.13412212
0.17392899 -0.090312175 -0.15400274 -0.096912004 -0.059080955 -0.087460026 0.11034258 -0.065331064
0.03867261 0.03469401 0.21799771 0.18741146 -0.2800098 -0.047503 0.10624095 0.19189696
00000000: 4018 c23d 4104 70be d53d 083e b11f 05bd
00000010: 6c9a be3d a8e0 893d e2d7 af3c 1eb3 00bc
00000020: dba6 933d 9374 2abe 78de 543e 9ef8 273e
00000030: a25d 3d3e 7d69 83be d682 093e 7799 4e3d
00000040: f8b5 cb3c 3264 563d 107a 0a3e 13c2 44bc
00000050: ff72 d53d 7685 143e ad49 3d3e 66a1 37be
00000060: a73d aa3d 4968 f8bd aa1d 443e de49 6a3d
00000070: 13fc 16bd d585 e23c be71 a8bc 9080 c8bd
00000080: 7eb6 d83c c4df 23bd cff2 71be fcbc 833d
00000090: d52e cdbd 2cf5 a43d 1084 45be 11a6 8a3e
000000a0: 01c3 d0bc 1003 393c 2987 85be 0abd 94bd
000000b0: 1058 b63d 30b2 18be ed6e 2e3e ba59 0fbb
000000c0: 5cf2 9e3d 897f d1bd 04b0 61bd c818 6cbc
000000d0: ea3a 543e 152d 1c3e 37fb 853d 01c6 f5bd
000000e0: b577 183d 0ced 90bd 168c 223d 8e8e 47be
000000f0: 9499 db3c 97fe 983d 69f0 bebc 3de3 363c
00000100: d2bb ee3c e1fa ae3d eefd 773e 1118 b73d
00000110: 38dc e73d 2ae7 e23b 008b a33d 2aec 62bd
00000120: 7441 3a3e 0b5c dcbd 252b 4a3c b52e 8fbd
00000130: 0464 833d 107d 99bd 7269 023e bdf2 cbbd
00000140: 925a aa3d 7a78 403d 7d85 403d 9a70 a4bd
00000150: 826b ebbd 1c7a ab3d b118 153e 1d9a 713c
00000160: dbf8 8abd e2d9 753d 0211 a03d 2b91 0dbd
00000170: d657 863d 3333 62bd b4de 523c f99e ebbd
00000180: 8d0d ab3d a0cf 173e 5340 7e3d e30e 0abd
00000190: ca84 0d3e 53d3 a83d a259 d63d b0d7 663d
000001a0: e42b eb3d ec94 d3bd 68ac 903d 28d8 193e
000001b0: 5977 433e 90ea 2cbe 3a71 2d3e 49c6 ba3c
000001c0: 21e2 203e a992 763d 6bed 033e 8207 db3d
000001d0: fbcc 0b3e 5595 a93c 9547 293e c478 133d
000001e0: b608 463e 43c7 03bc 9dd7 f53d 2ce8 71bd
000001f0: 27b1 5ebd 9dcd e2bd d7b9 a13c 46fb 283e
00000200: 85ed e83d 35e1 de3d 03c8 3bbe e017 b1bd
00000210: b8f9 213e 753d 403d 5ca9 26bd 3719 df3d
00000220: b4e5 463e 6574 173e 9605 1a3d 6b7d a3bc
00000230: bddd 303e d7c9 02bd 3947 233c 10bc 02be
00000240: da16 3e3e 86fe b6bc d982 ce3d a892 433e
00000250: 491c 96bd c18a 66be 25c1 283e 27dc 193e
00000260: 39e2 863d d5aa 153e f9c1 b63c 5037 843d
00000270: 7b74 2a3e 7b51 49bd 5a2a 68bd 8184 a23c
00000280: 9d50 64bd 098f 053e ee55 c33d ffcb c33c
00000290: 347c 13be 8599 d6bd e2bb cf3d e1ee cc3d
000002a0: 9b1f aa3d d57a 65bd da6d d8bd fdd6 523e
000002b0: fc30 4cbe 6895 3dbd caa5 c83c 6b01 393d
000002c0: a6d4 91bd 52a9 813d f3be 29be 2ba9 a33d
000002d0: f257 2ebe acf8 173c c1f3 0abe 3f7a 08bd
000002e0: 87b4 693d 5613 173e cc7d 78bd f4bc e03d
000002f0: e4c9 54bd 8fe6 50be 50a8 1bbd 6535 aa3d
00000300: 5af6 f83c 00be 5fbe 9f67 333d 9c4d 22bd
00000310: 4dc9 3f3d b3f0 3f3d 3b18 09be 8637 37be
00000320: 41c2 43bd 89f3 24bc 5800 0cbe 18e3 633d
00000330: 6bb2 c0be 411c 753c 8e3f 2c3e ce11 c8bc
00000340: ba9c ffbd fceb 7ebd 3b86 0dbe ed0d 85ba
00000350: 13dd 533e 6a39 2e3d 8fa2 113d 5659 22bd
00000360: 009c 7ebe fabc 42be 3144 b03d 5b77 ee3d
00000370: 614e b4bd ea22 0e3e b851 183c 73a4 4c3e
00000380: 26f0 02bd b861 31bd 069c 09be ec3a 23be
00000390: 11c5 e13d f02b 8a3d 50cc ac3d dd41 883e
000003a0: d6bc ad3d a2c2 7bbd 60a7 34bd 3f17 0bbd
000003b0: 0771 403e 0655 1e3e 9538 02be 4f57 09be
000003c0: 711a 323e 97f5 b8bd e5b2 1dbe cd79 c6bd
000003d0: dffe 71bd 3e1e b3bd 4afb e13d 4bcc 85bd
000003e0: 2c67 1e3d 4e1b 0e3d cb3a 5f3e cae8 3f3e
000003f0: 725d 8fbe 8192 42bd db94 d93d a380 443e

pi.net.2.bias f4 [50]
0.17749514 0.15543546 0.037078656 0.11386461 0.1444345 0.17323813 -0.088719316 0.1566592
-0.025938833 0.19775848 0.0052598333 -0.032876533 -0.017736252 0.06570623 0.1634119 0.11853773
0.14226513 0.012235031 0.006808033 0.09022535 0.16931179 0.17044851 -0.15211956 0.050249163
-0.0050173034 -0.03388711 -0.060027212 0.20297171 -0.13908072 0.032916218 -0.001313104 -0.08785545
-0.089765735 0.105878405 0.12519547 0.04818201 -0.021995492 -0.11466484 0.18100314 -0.112254515
-0.12958929 0.15921278 0.14732744 0.08565844 0.1998687 0.1332475 -0.0809001 -0.08228737
0.17089602 -0.0030642261
00000000: 49c1 353e 792a 1f3e cadf 173d d931 e93d
00000010: a3e6 133e 5665 313e 79b2 b5bd 456b 203e
00000020: ad7d d4bc 3381 4a3e ae5a ac3b 8ba9 06bd
00000030: 9e4b 91bc fd90 863d 7355 273e e9c3 f23d
00000040: f3ad 113e 7175 483c ec15 df3b 11c8 b83d
00000050: 1260 2d3e 0e8a 2e3e 3bc5 1bbe 11d2 4d3d
00000060: 3168 a4bb 36cd 0abd 18df 75bd d1d7 4f3e
00000070: 2d6b 0ebe 28d3 063d 751c acba 8fed b3bd
00000080: 19d7 b7bd c7d6 d83d 3e33 003e 805a 453d
00000090: e42f b4bc 66d5 eabd e358 393e b2e5 e5bd
000000a0: 0eb3 04be ad08 233e 01dd 163e b16d af3d
000000b0: 61aa 4c3e 0872 083e f4ae a5bd 4886 a8bd
000000c0: 5eff 2e3e 2fd1 48bb

pi.net.4.weight f4 [4, 50]
-0.014845711 -0.010275652 -0.07184088 -0.02496333 0.25640267 0.2469767 -0.13824557 0.16950464
0.13689245 0.14491478 -0.40960637 0.028289134 0.06905653 0.12274337 -0.08209157 0.2829629
0.17121786 -0.007564564 0.26089355 0.23264806 0.19239816 0.30232704 -0.07441267 -0.24309441
-0.16699587 -0.5825103 0.039447695 -0.2010657 -0.3492844 -0.064220764 0.06970355 -0.058348868
-0.32533622 -0.11427838 0.28400335 -0.15528923 -0.23058324 -0.2656677 0.23150201 -0.31687212
-0.16349892 -0.17346345 0.31571913 -0.008437051 0.24288236 0.15772478 -0.070385866 -0.13601154
-0.089340344 0.17391713 0.3728593 0.1792425 0.1726431 0.19365093 0.022822391 -0.2083146
0.51397556 -0.15508881 -0.36368975 -0.22950666 0.020437764 0.07864184 -0.11950462 -0.30539384
-0.14973292 0.41696048 -0.074343555 -0.3793861 0.18347646 -0.007101144 0.15225424 -0.39273787
0.190983 0.0915417 0.3055391 -0.692659 0.0872623 0.32448313 -0.029193465 -0.21719225
0.19486465 0.11639739 -0.25484282 -0.15174682 -0.18472028 -0.029529521 -0.013428183 -0.004168288
0.2854923 -0.15399958 0.12351722 -0.19376148 0.21223299 0.16435486 0.020356813 -0.012749109
-0.008554597 -0.39395583 -0.076519355 0.20649073 0.46172488 0.15278044 0.11475551 -0.08892677
-0.13539939 0.19824164 -0.08507915 0.067218535 -0.09124081 0.0043815393 -0.2291435 -0.13817662
0.41549492 0.33318633 0.06626138 -0.29356253 0.066372246 0.180554 -0.1064714 0.28137934
-0.11434652 -0.276631 -0.23194589 0.30663127 0.084705114 -0.34343606 -0.1608497 0.43123937
-0.1158445 -0.16063762 -0.15984333 -0.40316758 0.0041042166 0.2975382 -0.06457005 0.22174352
-0.1340929 -0.08213598 -0.15413189 0.0050109364 -0.22296476 0.18108629 0.08443454 0.3029857
-0.25362727 0.049444374 -0.22048767 -0.38603827 0.32891485 -0.17862238 -0.066378854 -0.13242662
0.0946486 0.24447006 0.32128417 0.41439325 0.07182313 -0.230015 -0.03954591 0.14605142
0.3520325 0.13412349 0.16715717 0.3415046 -0.2608021 -0.07486498 0.17402892 -0.17918204
-0.2186352 -0.3917269 0.24730961 0.19776066 -0.2713358 -0.23145889 -0.19749565 0.23908252
-0.19841392 -0.11173712 0.25003016 -0.028797496 -0.15394205 -0.29631954 -0.054212432 -0.5102319
-0.08553467 0.2231946 -0.31159788 -0.045881577 -0.053928703 -0.19832422 -0.12812926 0.08218742
-0.011349756 -0.33520287 0.12192854 0.21554218 -0.15390143 -0.14373246 0.3094452 0.35972965
00000000: 6d3b 73bc 355b 28bc 5021 93bd e67f ccbc
00000010: 3647 833e 76e7 7c3e 3f90 0dbe a092 2d3e
00000020: 892d 0c3e 8a64 143e edb7 d1be 9dbe e73c
00000030: 836d 8d3d e060 fb3d a01f a8bd 83e0 903e
00000040: bc53 2f3e 29e0 f7bb d793 853e 4b3b 6e3e
00000050: 0604 453e 9cca 9a3e ac65 98bd beed 78be
00000060: f700 2bbe 651f 15bf e893 213d 2be4 4dbe
00000070: 68d5 b2be 2d86 83bd bcc0 8e3d 39ff 6ebd
00000080: 7892 a6be c90a eabd e368 913e 2404 1fbe
00000090: 031e 6cbe 9905 88be dd0e 6d3e 103d a2be
000000a0: 436c 27be 67a0 31be f0a5 a13e 8f3b 0abc
000000b0: 27b6 783e 9b82 213e 7726 90bd 9c46 0bbe
000000c0: 12f8 b6bd 5517 323e 6ae7 be3e 598b 373e
000000d0: 5ac9 303e 6e4c 463e 06f6 ba3c 6c50 55be
000000e0: e793 033f 9acf 1ebe 8b35 babe cb03 6bbe
000000f0: 196d a73c f90e a13d d7be f4bd 955c 9cbe
00000100: 9653 19be d87b d53e 6f41 98bd e53e c2be
00000110: 41e1 3b3e b7b0 e8bb 89e8 1b3e f014 c9be
00000120: 0c91 433e 377a bb3d 9f6f 9c3e 1a52 31bf
00000130: 94b6 b23d a722 a63e 2227 efbc a567 5ebe
00000140: 998a 473e c161 ee3d c27a 82be 8563 1bbe
00000150: 5027 3dbe e5e7 f1bc e201 5cbc 2296 88bb
00000160: 0c2c 923e 11b2 1dbe 99f6 fc3d 6969 46be
00000170: 9b53 593e a44c 283e 55c3 a63c a4e1 50bc
00000180: 9528 0cbc 94b4 c9be 2eb6 9cbd 4e72 533e
00000190: 3467 ec3e 7a72 1c3e f004 eb3d 3d1f b6bd
000001a0: 23a6 0abe dbff 4a3e fa3d aebd dfa9 893d
000001b0: 76dc babd 0493 8f3b 98a4 6abe 2c7e 0dbe
000001c0: c0bb d43e 6697 aa3e 0cb4 873d d44d 96be
000001d0: 2cee 873d 26e3 383e ad0d dabd f410 903e
000001e0: 822e eabd 94a2 8dbe 3983 6dbe c6fe 9c3e
000001f0: e079 ad3d dad6 afbe c9b5 24be 68cb dc3e
00000200: e23f edbd 307e 24be f8ad 23be fb6b cebe
00000210: aa7c 863b ed56 983e 4d3d 84bd bc10 633e
00000220: a64f 09be e936 a8bd c0d4 1dbe c832 a43b
00000230: e050 64be af6e 393e 04ec ac3d f120 9b3e
00000240: 6fdb 81be 2f86 4a3d 85c7 61be cfa6 c5be
00000250: 8767 a83e c9e8 36be a3f1 87bd d89a 07be
00000260: 20d7 c13d 5c56 7a3e 5c7f a43e 5a2b d43e
00000270: 0118 933d 0d89 6bbe e4fa 21bd 818e 153e
00000280: 9b3d b43e ab57 093e 402b 2b3e b1d9 ae3e
00000290: da87 85be d052 99bd a334 323e 7f7b 37be
000002a0: e8e1 5fbe 6e90 c8be bb3e 7d3e c581 4a3e
000002b0: 87ec 8abe 8f03 6dbe 4d3c 4abe 0cd2 743e
000002c0: 052d 4bbe 6ed6 e4bd f403 803e bae8 ebbc
000002d0: fca2 1dbe 32b7 97be db0d 5ebd 8f9e 02bf
000002e0: cd2c afbd 208d 643e c289 9fbe 52ee 3bbd
000002f0: 58e4 5cbd 8115 4bbe 5134 03be e151 a83d
00000300: 54f4 39bc b69f abbe acb5 f93d 17b7 5c3e
00000310: 5698 1dbe 9a2e 13be 9a6f 9e3e 7c2e b83e

pi.net.4.bias f4 [4]
0.16452037 -0.027962299 0.041347466 -0.11415765
00000000: 0778 283e 3111 e5bc f65b 293d 7ccb e9bd

v.net.0.weight f4 [64, 40]
-0.83563006 0.6263538 -0.094851635 0.078224465 -0.04517261 0.14834544 0.20306844 0.033258222
-0.15157038 -0.07003386 0.042319052 0.08330989 -0.07683213 -0.12348131 0.006325307 0.34548366
-0.013054879 -0.049645834 -0.0054496997 -0.04672094 -1.0143588 0.6933486 -0.21529528 0.12182752
-0.2652008 -0.088356435 -0.22525485 -0.13835004 -0.09642984 -0.20435716 0.17526548 -0.07208581
0.006587857 -0.17428724 0.11845167 0.22881517 -0.04386373 -0.011345625 0.007831185 -0.018175183
-0.34432727 0.03506901 -0.14784919 -0.015624478 -0.048602536 -0.1283664 0.3149061 0.037986152
0.39722702 0.5382122 0.0034344352 -0.09876255 -0.1564867 -0.16132078 -0.04657507 0.14273433
0.0794048 0.06743106 0.070628166 0.008663683 -0.12881507 0.23891887 -0.18592592 0.03156625
-0.17521203 0.0402377 0.78795385 0.14446512 0.26202196 0.6769176 -0.07967509 -0.00043108227
-0.10076045 -0.18283933 0.015577488 -0.19347902 0.054097574 -0.014613399 0.028612005 -0.015900906
0.14158913 -0.14402893 0.04790127 0.0679827 0.014885555 0.52467155 -0.18291631 0.17878097
0.033538368 -0.0069967313 -0.04281695 -0.048877776 0.058029436 -0.036537495 0.0069197603 0.10780183
-0.044555176 -0.022201763 -0.024231037 -0.023943173 -0.061078645 0.039896548 -0.1702852 -0.14948605
0.14615794 0.31853703 -0.051827703 -0.063525505 0.012246947 0.11641622 0.012743074 0.04696506
0.0021824932 0.1823109 0.09998083 0.070556425 -0.06568461 -0.00622423 0.00043713156 -0.020755718
0.32388783 -0.024315167 -0.22081815 -0.152938 0.077312194 0.17396766 -0.23984423 -0.033943523
0.18089716 -0.006620972 0.030815111 -0.049562056 0.09859518 0.048099503 -0.14433333 0.18218133
-0.057611022 0.020745957 0.05214087 0.042280395 0.23933022 -0.0017149167 -0.43510047 -0.15079927
-0.082281 0.19279626 -0.33749405 -0.005016242 0.2569502 -0.21672177 0.32617798 0.0027456165
-0.010711752 -0.004110868 -0.18576182 0.17833339 -0.07613844 0.001644901 0.018635375 0.05608276
-0.12410696 -0.15309528 -0.22947006 0.2682863 -0.010656707 0.17131332 -0.07076964 -0.16542074
-0.23344184 -0.5039186 0.06885627 -0.14989446 0.21972081 0.0128529025 0.092083804 0.07035866
-0.14043954 0.119902454 -0.055738285 0.095806435 -0.11320426 -0.12103007 -0.08129435 0.35851914
0.02958157 0.07254991 0.10799533 -0.0068280324 -0.25617468 -0.15182085 0.47373393 -0.123178095
0.18371285 -0.0096450485 0.27632755 0.081781134 -0.14855243 0.15343827 -0.081768155 0.099602334
-0.24990168 0.10097969 -0.071553595 0.11091934 0.21310222 -0.005524403 -0.24029374 -0.24236284
-0.35713795 -0.0025825803 0.005384327 0.13240519 -0.0004019079 0.218163 0.097675435 0.1816278
-0.027534565 -0.013087894 0.054819543 -0.0021983725 -0.2086593 0.034877047 -0.08108037 0.15879183
0.022367282 0.042082466 0.15430638 -0.038001027 -0.2029504 0.07347505 0.054918785 0.2543067
-0.07421316 0.10729555 0.09160236 0.18755588 -0.042839445 0.053464122 0.07165171 0.0036910076
0.27152753 0.6701133 0.22090425 0.047998212 0.20820293 0.17166834 0.16204917 0.70099294
0.05755537 0.1101255 0.30244124 0.117388025 0.18503353 0.075997286 0.17583439 -0.24653983
00000000: daeb 55bf b958 203f 9341 c2bd 2634 a03d
00000010: ea06 39bd dee7 173e 2cf1 4f3e c639 083d
00000020: 4435 1bbe ea6d 8fbd be56 2d3d 609e aa3d
00000030: 2a5a 9dbd c5e3 fcbd 8544 cf3b 3ce3 b03e
00000040: 22e4 55bc 6e59 4bbd 6593 b2bb 755e 3fbd
00000050: 82d6 81bf 4b7f 313f 5e76 5cbe b580 f93d
00000060: 66c8 87be 38f4 b4bd 35a9 66be a2ab 0dbe
00000070: 027d c5bd 0143 51be cb78 333e baa1 93bd
00000080: f3de d73b 5b78 32be ca96 f23d 864e 6a3e
00000090: 74aa 33bd 00e3 39bc 5f4e 003c 1fe4 94bc
000000a0: aa4b b0be 86a4 0f3d c765 17be d0fd 7fbc
000000b0: 7413 47bd 7b72 03be 5f3b a13e 5e97 1b3d
000000c0: 5761 cb3e 46c8 093f 4314 613b 0544 cabd
000000d0: 0d3e 20be 4631 25be 80c5 3ebd f328 123e
000000e0: fc9e a23d 4c19 8a3d 80a5 903d 1ff2 0d3c
000000f0: 19e8 03be 26a7 743e 5d63 3ebe 9d4b 013d
00000100: c86a 33be 49d0 243d 58b7 493f aaee 133e
00000110: be27 863e 794a 2d3f b22c a3bd e202 e2b9
00000120: 7f5b cebd 3c3a 3bbe b838 7f3c 5d1f 46be
00000130: 6b95 5d3d 0a6d 6fbc b963 ea3c 9e42 82bc
00000140: befc 103e 527c 13be 1f34 443d 843a 8b3d
00000150: 8be2 733c e050 063f 6a4e 3bbe 5c12 373e
00000160: 875f 093d d644 e5bb d360 2fbd 1034 48bd
00000170: 46b0 6d3d 57a8 15bd 28bf e23b 35c7 dc3d
00000180: 7d7f 36bd 79e0 b5bc 2b80 c6bc 7924 c4bc
00000190: 9a2d 7abd 906a 233d 3e5f 2ebe df12 19be
000001a0: 6daa 153e 4917 a33e 4949 54bd a919 82bd
000001b0: 6ba7 483c a16b ee3d 54c8 503c 6f5e 403d
000001c0: 2908 0f3b b5af 3a3e c0c2 cc3d e37f 903d
000001d0: a785 86bd a0f4 cbbb ce2e e539 e507 aabc
000001e0: a0d4 a53e 9a30 c7bc 271e 62be c79b 1cbe
000001f0: db55 9e3d 9424 323e ba99 75be 5d08 0bbd
00000200: 1b3d 393e bdf4 d8bb f96f fc3c 9501 4bbd
00000210: 45ec c93d fc03 453d 1ecc 13be be8d 3a3e
00000220: 89f9 6bbd 6df3 a93c aa91 553d 352e 2d3d
00000230: fb12 753e 0ec7 e0ba 7dc5 debe 206b 1abe
00000240: f182 a8bd 626c 453e 05cc acbe 4a5f a4bb
00000250: fa8e 833e 50ec 5dbe cd00 a73e cdef 333b
00000260: 5880 2fbc 76b4 86bb 5938 3ebe 079d 363e
00000270: 78ee 9bbd b899 d73a 37a9 983c 09b7 653d
00000280: ca2b febd 02c5 1cbe 33fa 6abe d25c 893e
00000290: 7899 2ebc c26c 2f3e acef 90bd 0e64 29be
000002a0: 610b 6fbe cf00 01bf 8404 8d3d ef7d 19be
000002b0: 7efe 603e fb94 523c 6f96 bc3d 3318 903d
000002c0: 62cf 0fbe 6b8f f53d d44d 64bd 2a36 c43d
000002d0: a3d7 e7bd 9dde f7bd a77d a6bd d28f b73e
000002e0: 0c55 f23c 0c95 943d a82c dd3d b0bd dfbb
000002f0: 5429 83be ed76 1bbe 418d f23e cc44 fcbd
00000300: 391f 3c3e 4406 1ebc ce7a 8d3e de7c a73d
00000310: 211e 18be ec1e 1d3e 1076 a7bd 4ffc cb3d
00000320: 3ae6 7fbe 71ce ce3d b18a 92bd ae29 e33d
00000330: 7837 5a3e 0d06 b5bb 900f 76be f72d 78be
00000340: c9da b6be 8240 29bb 026f b03b 3a95 073e
00000350: 2ab7 d2b9 1f66 5f3e 0f0a c83d a3fc 393e
00000360: 2b90 e1bc 9b6e 56bc 758a 603d 9212 10bb
00000370: c9aa 55be 3cdb 0e3d 770d a6bd 539a 223e
00000380: 973b b73c aa5e 2c3d 7e02 1e3e f7a6 1bbd
00000390: 3bd2 4fbe 167a 963d 85f2 603d 7d34 823e
000003a0: 12fd 97bd c5bd db3d 059a bb3d a60e 403e
000003b0: 6a78 2fbd 32fd 5a3d 22be 923d d5e4 713b
000003c0: a805 8b3e 8c8c 2b3f b934 623e c699 443d
000003d0: 2633 553e d3c9 2f3e 38f0 253e 4674 333f
000003e0: 2ebf 6b3d 7a89 e13d 94d9 9a3e 2269 f03d
000003f0: 6e79 3d3e 77a4 9b3d ee0d 343e f074 7cbe

v.net.0.bias f4 [64]
-0.10833788 0.95964473 1.1733153 -0.5712297 0.85953075 0.8282744 -0.39180544 -0.60700804
-0.052741982 -0.5193621 0.52273124 -0.57499534 0.71788985 -1.377457 1.551959 -0.42460898
0.31465104 -1.0097241 -0.72210765 -0.18542306 -0.7767061 1.126719 -0.6970055 0.38021564
0.36175808 -0.19679615 0.260424 -0.12849446 0.7034944 -0.25016454 0.20011695 -0.3987702
-0.16853298 0.14126897 -0.94996536 -1.3964878 -0.30125612 0.67833376 0.5711004 -0.4384627
-0.58568025 -0.807698 -0.93679196 -0.7436105 0.7939324 0.070658684 0.30544293 0.18372637
0.9997198 -0.6679119 0.14700826 0.39743894 0.7212118 1.6572039 0.03540971 -0.51617795
1.0100652 0.7157577 -0.4343464 -0.47280154 0.14134882 -0.14105529 0.67713255 0.032407206
00000000: 40e0 ddbd 47ab 753f 322f 963f 1c3c 12bf
00000010: 350a 5c3f cb09 543f b99a c8be e164 1bbf
00000020: fa07 58bd eaf4 04bf b7d1 053f e532 13bf
00000030: a1c7 373f 8350 b0bf 98a6 c63f 5966 d9be
00000040: f119 a13e a43e 81bf 0cdc 38bf 8bdf 3dbe
00000050: 36d6 46bf 5438 903f f46e 32bf a0ab c23e
00000060: 5b38 b93e ee84 49be 4b56 853e 0d94 03be
00000070: 3618 343f 9115 80be 75eb 4c3e 9c2b ccbe
00000080: e993 2cbe d0a8 103e ee30 73bf 1dc0 b2bf
00000090: 3e3e 9abe 48a7 2d3f a333 123f 2f7e e0be
000000a0: 24ef 15bf 4cc5 4ebf 99d1 6fbf 425d 3ebf
000000b0: 273f 4b3f 80b5 903d 0463 9c3e c422 3c3e
000000c0: a3ed 7f3f 46fc 2abf 5589 163e 1e7d cb3e
000000d0: 56a1 383f 421f d43f c609 113d 3d24 04bf
000000e0: d149 813f e63b 373f a762 debe 0b13 f2be
000000f0: bfbd 103e cc70 10be 8f58 2d3f 6bbd 043d

v.net.2.weight f4 [64, 64]
0.43058744 -0.32653537 -0.28339422 -0.0337083 -0.14547706 -0.20731133 -0.26725757 0.24259385
0.02156738 0.052962143 -0.4547795 -0.10826541 0.14122842 0.4982916 -0.38145635 -0.10478188
-0.32398304 0.2238153 0.38330376 -0.33887726 0.27992707 -0.44484308 0.027514026 0.0063257357
-0.14713731 0.13434625 0.09317317 -0.20591182 -0.5291816 -0.15506682 -0.3626409 0.16949518
-0.1361215 0.049296293 0.49189562 0.7240483 -0.059334643 -0.39509416 -0.049410645 0.36883035
-0.06412649 0.25430152 0.04915636 0.17764656 0.17432256 0.3306365 -0.33830026 0.08948646
-0.32366946 0.038838424 0.009769001 0.024571292 -0.22947283 -0.64627016 -0.022860788 0.26765093
-0.34020457 -0.012442558 0.21013154 -0.49660134 0.12679972 -0.12876262 0.06900355 -0.038670797
0.107271545 0.019350678 0.07085221 0.052201442 0.053514075 0.04765046 -0.08282149 -0.0071094027
0.20698327 -0.11474202 0.00817136 -0.079729654 0.16737694 -0.20062332 0.027973086 -0.06285703
0.004980088 -0.09528105 -0.007984484 0.0008479069 -0.092187375 0.030310147 0.014711524 0.015930071
-0.12802601 0.13114695 -0.2212365 0.052647904 0.16885877 0.030070998 0.13474289 0.1403514
0.11975291 0.020245206 0.15191625 -0.10927604 0.003824592 -0.022898955 -0.06059436 -0.06804871
-0.057660386 -0.0786706 -0.05344735 -0.15667623 -0.04446104 -0.006215783 -0.10313245 -0.015058313
0.07065758 0.03836464 0.05621259 0.09156381 0.024679191 0.18484996 -0.08432659 -0.14069779
-0.066349916 0.059179667 -0.030164318 -0.009832218 -0.081816755 0.12982193 -0.06103052 -0.12247152
0.04884787 -0.04448277 -0.16399688 -0.32080048 0.035834167 -0.003507473 0.07751344 0.12059379
-0.08576594 -0.06416535 -0.108054236 0.09822884 -0.29362538 0.11438145 -0.15207042 -0.0852789
-0.020474656 0.09932767 0.089049205 0.055409476 0.06271 -0.054410677 -0.03604216 -0.15018778
0.13870849 -0.0141841145 0.09259315 0.0075408723 0.20479241 0.024417095 0.23856293 -0.053824533
-0.037991885 0.06082499 0.043653477 0.1812646 -0.009316124 -0.0773578 0.16488928 0.2829483
0.13537078 -0.13001223 0.26189876 0.18752287 -0.03708376 -0.031207105 -0.09282592 -0.023491584
-0.19343542 0.23213597 -0.04155852 -0.06567514 -0.26854518 -0.28274146 -0.18108161 0.14094707
-0.091416 -0.05969185 0.09867692 0.110029906 0.022309355 0.043300968 0.16696803 0.09125241
0.19101065 0.07688934 0.48337886 -0.32581005 0.09333784 0.18471116 0.09717355 -0.11727535
-0.17252843 -0.28862396 -0.014705491 -0.022721509 0.39916995 -0.21439384 0.1684878 -0.08532621
0.08449653 -0.15496145 -0.10032796 -0.15336162 -0.2735299 0.21593706 -0.19555272 0.046228662
0.1494162 -0.21760336 0.12773505 0.006800649 0.24719349 0.025863634 -0.12934725 -0.09278705
-0.031004759 -0.005404745 -0.17965373 -0.21606071 -0.2161436 0.20972617 0.13037828 -0.13484739
-0.5201432 -0.14407068 -0.18960528 -0.030369816 0.2557888 -0.038325366 0.23824526 0.15439944
0.31261283 -0.1854399 0.16483682 0.101794004 0.1825053 0.20800416 0.12945803 -0.08342002
0.31593132 0.48612523 0.021718558 -0.26550165 -0.048906405 -0.11740516 0.26355723 0.22045115
00000000: f575 dc3e a52f a7be 0c19 91be b711 0abd
00000010: f0f7 14be 6c49 54be fcd5 88be 866a 783e
00000020: 13ae b03c d5ee 583d dcd8 e8be 41ba ddbd
00000030: 2f9e 103e 1420 ff3e 3f4e c3be e297 d6bd
00000040: 1be1 a5be d72f 653e 6440 c43e 5281 adbe
00000050: 9a52 8f3e 79c2 e3be 1865 e13c 1e48 cf3b
00000060: 2aab 16be 1092 093e 93d1 be3d 8cda 52be
00000070: 7278 07bf d6c9 1ebe 11ac b9be 2590 2d3e
00000080: 6f63 0bbe e9ea 493d bed9 fb3e 3b5b 393f
00000090: e208 73bd c849 cabe d162 4abd 55d7 bc3e
000000a0: c054 83bd cf33 823e 2e58 493d fbe8 353e
000000b0: 9d81 323e 3049 a93e b135 adbe ad44 b73d
000000c0: 01b8 a5be 0a15 1f3d 290e 203c bc49 c93c
000000d0: edfa 6abe f671 25bf 8c46 bbbc 8b09 893e
000000e0: 4b2f aebe dfdb 4bbc b92c 573e 8842 febe
000000f0: c9d7 013e 59da 03be bc51 8d3d 4565 1ebd
00000100: 2fb1 db3d 5085 9e3c f71a 913d 2ed1 553d
00000110: 9331 5b3d 212d 433d 509e a9bd fef5 e8bb
00000120: 6cf3 533e ddfd eabd 2be1 053c 4d49 a3bd
00000130: dc64 2b3e 3370 4dbe d027 e53c 30bb 80bd
00000140: 0230 a33b b622 c3bd 5ad1 02bc 1246 5e3a
00000150: bccc bcbd fc4c f83c 9b08 713c c87f 823c
00000160: 4019 03be 634b 063e d28b 62be 54a5 573d
00000170: 50e9 2c3e 7457 f63c 0afa 093e 47b8 0f3e
00000180: 0441 f53d 46d9 a53c ef8f 1b3e 1ecc dfbd
00000190: 02a6 7a3b 9796 bbbc cb31 78bd 1f5d 8bbd
000001a0: 4c2d 6cbd 0d1e a1bd 9ceb 5abd bc6f 20be
000001b0: c81c 36bd c4ad cbbb 1b37 d3bd 24b7 76bc
000001c0: ecb4 903d 3e24 1d3d 2c3f 663d cf85 bb3d
000001d0: 042c ca3c 4f49 3d3e 6bb3 acbd 1513 10be
000001e0: 77e2 87bd 6166 723d 291b f7bc 5017 21bc
000001f0: 8b8f a7bd 0af0 043e 23fb 79bd 59d2 fabd
00000200: b414 483d 9133 36bd ccee 27be f63f a4be
00000210: d9c6 123d a2dd 65bb 5ebf 9e3d e1f9 f63d
00000220: 0ea6 afbd 1f69 83bd 8a4b ddbd 342c c93d
00000230: 1156 96be d240 ea3d 59b8 1bbe b4a6 aebd
00000240: 77ba a7bc 4e6c cb3d 6e5f b63d 0cf5 623d
00000250: 1a6e 803d bbdd 5ebd f2a0 13bd d3ca 19be
00000260: 9909 0e3e 7d64 68bc 7aa1 bd3d 6c19 f73b
00000270: 1ab5 513e 5c06 c83c d749 743e 1d77 5cbd
00000280: 619d 1bbd a023 793d fdcd 323d 6d9d 393e
00000290: a8a2 18bc c46d 9ebd bcd8 283e 99de 903e
000002a0: a39e 0a3e ed21 05be 9817 863e ff05 403e
000002b0: 24e5 17bd 0ba6 ffbc 841b bebd 6c71 c0bc
000002c0: ef13 46be 0db5 6d3e 4439 2abd b080 86bd
000002d0: c17e 89be 7dc3 90be 756d 39be 6e54 103e
000002e0: 5038 bbbd 717f 74bd 2017 ca3d 5c57 e13d
000002f0: 1cc2 b63c 5b5c 313d abf9 2a3e 8be2 ba3d
00000300: 4c98 433e 2978 9d3d 6f7d f73e 93d0 a6be
00000310: e927 bf3d ec24 3d3e ed02 c73d 0f2e f0bd
00000320: 4bab 30be 85c6 93be 4def 70bc 7522 babc
00000330: 0160 cc3e 0f8a 5bbe 1188 2c3e 82bf aebd
00000340: 840c ad3d 37ae 1ebe bf78 cdbd d40a 1dbe
00000350: 1c0c 8cbe 9b1e 5d3e f93e 48be 445a 3d3d
00000360: 8f00 193e 6ad3 5ebe facc 023e fbd7 de3b
00000370: 4a20 7d3e f9df d33c 9b73 04be 2307 bebd
00000380: b1fd fdbc 4a1a b1bb 26f7 37be 053f 5dbe
00000390: bf54 5dbe 75c2 563e e281 053e 6f15 0abe
000003a0: 1b28 05bf 4487 13be e327 42be 1fca f8bc
000003b0: c0f6 823e 0ffb 1cbd 91f6 733e e31a 1e3e
000003c0: ca0e a03e f5e3 3dbe fcca 283e 6079 d03d
000003d0: abe2 3a3e 0bff 543e a590 043e 1ed8 aabd
000003e0: c0c1 a13e 68e5 f83e 1eeb b13c d5ef 87be
000003f0: 1552 48bd 1e72 f0bd f9f0 863e f2bd 613e

v.net.2.bias f4 [64]
-0.047965545 -0.0942444 0.2336016 0.6488545 0.13014363 -0.37883565 -0.37555113 -0.13457106
0.38584548 0.25085586 0.4282582 -0.2832881 0.28972164 0.1132299 -0.21736267 -0.08213011
-0.2990968 0.17324668 0.6797608 0.32062146 0.016820354 -0.3141435 -0.35429996 -0.2824057
-0.24444698 -0.014506071 -0.06421013 -0.32289228 0.10959939 -0.028729636 0.18244301 0.19062972
0.4235741 -0.11374565 -0.35979328 -0.16150463 -0.097269505 0.33450747 -0.22602336 -0.4399656
-0.19267206 0.06076933 0.38012674 -0.052285805 -0.2593728 -0.019536901 0.35834482 0.114667244
-0.35328788 -0.2219353 0.14013112 -0.4114806 -0.3072828 -0.33219454 -0.15734033 -0.36696258
0.8621631 0.1998428 0.005182367 -0.2821559 -0.1043802 0.1641809 0.30433005 0.65691125
00000000: 8577 44bd 3503 c1bd 4235 6f3e 541b 263f
00000010: 5f44 053e bff6 c1be 3d48 c0be ffcc 09be
00000020: 8a8d c53e 2e70 803e a944 db3e 230b 91be
00000030: 6556 943e 14e5 e73d 5294 5ebe d533 a8bd
00000040: 3723 99be 9467 313e ce04 2e3f 7f28 a43e
00000050: d7ca 893c 6bd7 a0be ce66 b5be 7b97 90be
00000060: 4f50 7abe dfaa 6dbc 9a80 83bd 2352 a5be
00000070: a575 e03d 6a5a ebbc 57d2 3a3e 7034 433e
00000080: b4de d83e 7bf3 e8bd d336 b8be 7861 25be
00000090: 3c35 c7bd 9044 ab3e ab72 67be 2c43 e1be
000000a0: d34b 45be 43e9 783d f99f c23e a429 56bd
000000b0: 83cc 84be da0b a0bc f978 b73e a9d6 ea3d
000000c0: 26e2 b4be 0243 63be 887e 0f3e 96ad d2be
000000d0: 2c54 9dbe 6715 aabe d31d 21be 85e2 bbbe
000000e0: b9b6 5c3f 97a3 4c3e d8d0 a93b bd76 90be
000000f0: 49c5 d5bd 0a1f 283e 26d1 9b3e 562b 283f

v.net.4.weight f4 [1, 64]
-0.078301355 0.0012989793 -0.044484064 -0.17999421 -0.08581943 0.09656376 0.08428644 0.05333283
-0.08172426 -0.03981816 -0.076102115 0.096586354 -0.057508737 -0.02290579 0.035364747 -0.011203194
0.10847929 -0.05343081 -0.23854825 -0.05563413 0.004835364 0.032264475 0.047195986 0.07908559
0.02180511 0.08488975 -0.10442394 0.05092346 -0.044292293 0.11006796 -0.008520961 -0.028240744
-0.08257512 0.05663148 0.083751895 0.024688972 0.060498826 -0.028612904 0.027146146 0.043081764
0.17762162 0.103859685 -0.036409687 0.004862194 0.056101467 0.08956821 -0.05526257 0.18722019
0.06584655 0.025992364 -0.15394612 0.08698786 0.03742488 0.16488665 0.03580691 0.04007972
-0.25454614 -0.10194171 0.00359741 0.08065913 0.03620343 0.13192205 -0.015073261 -0.21489285
00000000: 765c a0bd 8342 aa3a ec34 36bd 6750 38be
00000010: 19c2 afbd 38c3 c53d 5e9e ac3d 8773 5a3d
00000020: 0c5f a7bd 5e18 23bd 6ddb 9bbd 11cf c53d
00000030: 488e 6bbd eca4 bbbc a0da 103d 9a8d 37bc
00000040: 642a de3d 44da 5abd fe45 74be 9de0 63bd
00000050: f971 9e3b c127 043d 9450 413d a0f7 a13d
00000060: a1a0 b23c adda ad3d 38dc d5bd 1e95 503d
00000070: d66b 35bd 506b e13d 809b 0bbc 2259 e7bc
00000080: 251d a9bd 69f6 673d 1d86 ab3d 8740 ca3c
00000090: 9ecd 773d 9c65 eabc 9861 de3c 8176 303d
000000a0: 71e2 353e 63b4 d43d 5322 15bd 0a53 9f3b
000000b0: a7ca 653d 8a6f b73d 015b 62bd a6b6 3f3e
000000c0: 8eda 863d f0ed d43c 0da4 1dbe b126 b23d
000000d0: d54a 193d 0cd8 283e 44aa 123d a22a 243d
000000e0: df53 82be d1c6 d0bd 86c2 6b3b 9d30 a53d
000000f0: 0c4a 143d 9316 073e d7f5 76bc df0c 5cbe

c.net.0.weight f4 [64, 40]
0.029887427 0.09054924 0.103874534 -0.14057754 -0.07783915 -0.099829294 -0.10548421 0.03382227
0.059054025 -0.036540076 0.15370813 -0.056165244 -0.14621185 -0.064381555 0.0049544037 -0.0131570315
-0.096537665 -0.1554163 0.025672644 0.023438005 0.042342987 -0.12238573 0.013290499 -0.099116854
0.024848977 0.021685006 0.123624876 0.15026763 0.10655888 -0.15460943 -0.008738212 -0.086804956
-0.019656572 -0.0336872 -0.14708495 -0.0115995305 -0.06751326 0.11396095 -0.02339997 -0.064385794
-0.011336912 0.03991479 0.110114664 -0.015155271 0.022908755 0.15045121 -0.01484276 -0.056136575
0.04513854 -0.024045574 0.031783037 0.14265735 0.10194843 -0.08236026 -0.13186546 0.05687465
0.101018116 -0.071959086 0.045255817 0.10844746 0.13407083 -0.115261845 -0.10286875 -0.0351396
-0.07162645 -0.004231822 -0.033190463 -0.008134886 0.13175675 0.139511 -0.13724272 0.04771391
0.07307084 -0.07485758 0.008204344 0.090738915 0.04654963 0.0054008337 -0.14987482 -0.019979807
-0.047971927 0.07088147 -0.13953997 0.0383267 -0.1261 -0.09549577 -0.007029903 0.06899429
0.08643176 -0.13860878 0.111987405 -0.038646996 0.009192973 0.10751883 0.056739222 0.09402508
0.02240529 0.022679064 0.12394205 0.026989354 -0.031902328 -0.08538543 0.13706186 0.08052073
0.13510561 -0.111070305 0.14415471 0.14363818 0.074752115 -0.09565541 0.012928134 -0.032865908
0.05839798 0.052847393 -0.13430145 -0.13924018 -0.033235475 -0.11638033 -0.12035238 -0.004983336
-0.0514924 0.046110455 0.026185252 -0.101559505 -0.046751063 -0.14463544 0.025730038 0.015855554
0.14973722 0.03824171 0.11152546 -0.088108286 -0.15381835 -0.03506994 0.1362707 0.051970273
0.03816922 0.1570337 0.07516756 -0.12981771 0.13989633 -0.026662387 -0.14348137 0.031723548
-0.15251352 0.043574557 -0.031262305 0.11044595 0.14984708 0.07620753 0.114714675 0.011984401
0.05799526 0.07226174 0.0660871 -0.09552302 0.14272161 -0.010157326 -0.028967915 0.1174085
-0.0817899 0.07004029 0.017914448 -0.044581413 0.13921155 -0.042899985 0.05026888 -0.04207709
-0.057794746 0.009243676 -0.119689904 -0.038978808 -0.048629217 0.0327626 0.12743473 -0.12931734
-0.025954695 0.056754038 0.04535419 -0.11499548 -0.0008926906 0.13875476 0.10266903 -0.13795486
-0.11690121 0.107524276 0.15493067 -0.01996305 -0.11333233 0.05302299 0.10961623 0.13170189
0.06781495 -0.014504804 -0.037110094 0.09437384 0.102946036 0.0045297625 0.0094794165 0.10826099
-0.017617809 0.117666125 0.1452989 -0.081139304 0.051748518 0.15570109 0.10966974 0.087482005
0.02935173 -0.09476282 0.030158903 -0.11087281 0.14692247 0.049879864 -0.1371351 0.078129664
0.08386791 0.080394946 0.013180555 0.028483128 -0.05465607 0.093606755 -0.07023713 -0.0307421
0.13468286 -0.123277895 0.11234466 -0.14830391 -0.14180014 -0.038518053 0.13145499 -0.09822696
-0.038093694 -0.039805733 -0.10386012 0.08150093 0.07759351 0.045790028 -0.029475 0.09258699
-0.0442771 0.07828816 -0.11495976 0.15558396 0.15378216 -0.13899799 -0.04078132 0.1002267
0.07072309 -0.12682506 -0.095138885 -0.15145159 0.08970441 0.020848522 0.14274059 0.02233683
00000000: 7ad6 f43c e171 b93d 2cbc d43d 8ff3 0fbe
00000010: 226a 9fbd 4d73 ccbd 1b08 d8bd 3889 0a3d
00000020: a2e2 713d 0cab 15bd aa65 1d3e 870d 66bd
00000030: 8fb8 15be 7ada 83bd 8d58 a23b 9790 57bc
00000040: 8ab5 c5bd 7325 1fbe 704f d23c 0f01 c03c
00000050: d76f 2d3d 5fa5 fabd 65c0 593c c7fd cabd
00000060: 1590 cb3c c1a4 b13c 0a2f fd3d c2df 193e
00000070: 8b3b da3d ef51 1ebe b82a 0fbc ccc6 b1bd
00000080: d206 a1bc 97fb 09bd 709d 16be f50b 3ebc
00000090: 6444 8abd 5c64 e93d 4bb1 bfbc b3dc 83bd
000000a0: 75be 39bc b17d 233d cc83 e13d d04d 78bc
000000b0: 24ab bb3c e20f 1a3e 0c2f 73bc 77ef 65bd
000000c0: 31e3 383d 39fb c4bc ee2e 023d c514 123e
000000d0: 57ca d03d 7fac a8bd bd07 07be 65f5 683d
000000e0: 96e2 ce3d 495f 93bd 2a5e 393d b419 de3d
000000f0: dd49 093e 670e ecbd daac d2bd 8bee 0fbd
00000100: e3b0 92bd 19ab 8abb b9f2 07bd 2f48 05bc
00000110: 3eeb 063e f9db 0e3e 5b89 0cbe a96f 433d
00000120: 2aa6 953d ee4e 99bd 836b 063c 53d5 b93d
00000130: d3aa 3e3d 7af9 b03b c978 19be b1ac a3bc
00000140: 367e 44bd 4e2a 913d 91e3 0ebe 75fc 1c3d
00000150: 5c20 01be 4993 c3bd 1a5b e6bb e14c 8d3d
00000160: 2203 b13d 76ef 0dbe a759 e53d 504c 1ebd
00000170: 209e 163c d532 dc3d 6367 683d 3990 c03d
00000180: 4c8b b73c 72c9 b93c 54d5 fd3d c718 dd3c
00000190: 04ac 02bd 8ede aebd f259 0c3e 0de8 a43d
000001a0: 2059 0a3e d478 e3bd 4b9d 133e e315 133e
000001b0: a317 993d fce6 c3bd 86d0 533c 679e 06bd
000001c0: b832 6f3d 8276 583d 5286 09be fa94 0ebe
000001d0: ec21 08bd cf58 eebd 4f7b f6bd 414b a3bb
000001e0: b2e9 52bd 51de 3c3d 7482 d63c 6efe cfbd
000001f0: 0b7e 3fbd 501b 14be cdc7 d23c 82e3 813c
00000200: b754 193e 57a3 1c3d 7667 e43d 1e72 b4bd
00000210: 8f82 1dbe 7fa5 0fbd 8c8a 0b3e c8de 543d
00000220: 5457 1c3d 71cd 203e 73f1 993d efee 04be
00000230: fc40 0f3e 146b dabc c8ec 12be 8df0 013d
00000240: 812c 1cbe 3c7b 323d e70c 00bd 7c31 e23d
00000250: 8371 193e b212 9c3d 87ef ea3d 395a 443c
00000260: 708c 6d3d f7fd 933d ac58 873d 93a1 c3bd
00000270: 9d25 123e ea6a 26bc 1f4e edbc de73 f03d
00000280: 7781 a7bd 4971 8f3d 52c1 923c 009b 36bd
00000290: 798d 0e3e e5b7 2fbd bee6 4d3d 0759 2cbd
000002a0: 2fba 6cbd ca72 173c fb1f f5bd 3ea8 1fbd
000002b0: 6e2f 47bd 1332 063d 407e 023e c46b 04be
000002c0: f19e d4bc ec76 683d 51c5 393d c082 ebbd
000002d0: 7403 6aba ba15 0e3e 2444 d23d 0a44 0dbe
000002e0: e769 efbd b035 dc3d 25a6 1e3e 8d89 a3bc
000002f0: c81a e8bd a22e 593d 797e e03d dcdc 063e
00000300: 91e2 8a3d 8fa5 6dbc c100 18bd 1247 c13d
00000310: 5fd5 d23d 676e 943b 8e4f 1b3c f0b7 dd3d
00000320: 3953 90bc f0fa f03d 3cc9 143e 5d2c a6bd
00000330: 41f6 533d 1b70 1f3e 879a e03d c429 b33d
00000340: 0a73 f03c 0213 c2bd ce0f f73c 4911 e3bd
00000350: d872 163e d44e 4c3d 256d 0cbe 7202 a03d
00000360: f0c2 ab3d 1ba6 a43d 41f3 573c 7355 e93c
00000370: 0bdf 5fbd e6b4 bf3d 7cd8 8fbd dbd6 fbbc
00000380: 4eea 093e 1f79 fcbd f514 e63d fbdc 17be
00000390: 0e34 11be 1bc5 1dbd 239c 063e 372b c9bd
000003a0: 2208 1cbd 560b 23bd 9db4 d4bd f6e9 a63d
000003b0: 59e9 9e3d 538e 3b3d 8e75 f1bc 3f9e bd3d
000003c0: e85b 35bd 8b55 a03d 0670 ebbd 6751 1f3e
000003d0: 1279 1d3e 7d55 0ebe 500a 27bd a843 cd3d
000003e0: 44d7 903d 6ede 01be 2dd8 c2bd 2016 1bbe
000003f0: f2b6 b73d 85ca aa3c 972a 123e bafb b63c

c.net.0.bias f4 [64]
0.04889864 -0.121672384 0.13416786 0.04995228 -0.08461997 -0.1184926 0.15329653 -0.15652472
-0.15505423 0.06566165 0.069915764 -0.04041841 0.15483859 0.075584605 0.0110048745 -0.057777748
-0.050096244 0.034396492 0.14529476 -0.038078822 -0.11507389 0.13838568 0.15129259 -0.030240707
-0.025608277 -0.086936764 -0.014213177 0.1320095 -0.14553192 0.10709141 -0.13344282 0.094187275
-0.0949596 -0.00407061 -0.023928955 0.056633726 -0.118947096 -0.10684254 0.0008581222 0.083298184
-0.14610815 -0.037042543 -0.067359604 0.0022217839 0.070201285 0.062178377 -0.024690649 0.048114575
0.10128283 -0.1350043 0.059678424 0.09150023 0.15128568 -0.05904854 -0.15004453 0.097602576
-0.14076114 -0.064589515 -0.055721376 -0.035653584 -0.13317984 -0.023464091 0.034371763 -0.044677243
00000000: f149 483d 5f2f f9bd 4d63 093e c39a 4c3d
00000010: 3c4d adbd 40ac f2bd c4f9 1c3e 0448 20be
00000020: 89c6 1ebe 9d79 863d ff2f 8f3d c68d 25bd
00000030: 028e 1e3e 1acc 9a3d ca4d 343c 5ca8 6cbd
00000040: b831 4dbd 56e3 0c3d 26c8 143e 8af8 1bbd
00000050: dcab ebbd fab4 0d3e 72ec 1a3e 5cbb f7bc
00000060: 73c8 d1bc e70b b2bd 63de 68bc 802d 073e
00000070: 5206 15be be52 db3d 3ca5 08be 42e5 c03d
00000080: 2e7a c2bd c062 85bb a806 c4bc c4f8 673d
00000090: 899a f3bd 43d0 dabd 9bf3 603a 3d98 aa3d
000000a0: 609d 15be ecb9 17bd d5f3 89bd 599b 113b
000000b0: b1c5 8f3d c1ae 7e3d 0b44 cabc ca13 453d
000000c0: 5f6d cf3d 913e 0abe 5d71 743d 7964 bb3d
000000d0: a2ea 1a3e e2dc 71bd 46a5 19be dce3 c73d
000000e0: b023 10be 8247 84bd 193c 64bd 7e09 12bd
000000f0: 4c60 08be c437 c0bc 68c9 0c3d 7cff 36bd
